static/ai/6/agent_black_12000/target_model.npz (npz, 560474 bytes, 8 tensors)

l2/b f4 [256]
0	0xbf3d5d09	-0.73970085
1	0xbdee8741	-0.116468914
2	0x3c656cb1	0.014002965
3	0x3e80b6ca	0.25139457
4	0xbe98d44a	-0.29849464
5	0x3e3f3946	0.18674192
6	0x3d954a1a	0.072895244
7	0x3dc30bec	0.09523758
8	0x3ce83c99	0.028349208
9	0xbe2495ee	-0.16072819
10	0xbecd5803	-0.4010621
11	0x3d801d98	0.062556446
12	0x3d6b6875	0.057472665
13	0x3ddc587b	0.10759064
14	0xbaaad5d1	-0.0013033693
15	0xbaa244f4	-0.0012380169
16	0x3daae8e4	0.083452016
17	0x3d1de64d	0.03854971
18	0x3da60980	0.08107281
19	0xbdefd19c	-0.11709902
20	0xbe80f4b5	-0.25186697
21	0x3e07a44d	0.1324627
22	0xbe11bf64	-0.14233166
23	0x3d86885f	0.065689795
24	0xbda48367	-0.080328755
25	0xbdef0a39	-0.11671872
26	0xbdf9ae27	-0.1219142
27	0x3db77ebb	0.08959719
28	0x3de7fd2a	0.11327584
29	0x3e94ccb0	0.29062414
30	0xbd877429	-0.06613953
31	0x3eea150d	0.45719185
32	0x3dd956ec	0.10612282
33	0xbf2734c5	-0.65314895
34	0xbcc0b6f6	-0.023524743
35	0xbe8aad0e	-0.27085155
36	0x3df91f2a	0.12164147
37	0x3f85e6e3	1.0461086
38	0x3e23516d	0.1594903
39	0x3ee99faf	0.4562964
40	0x3e335b71	0.17515351
41	0x3ea74962	0.32673174
42	0x3ab9864f	0.0014154407
43	0xbda18ada	-0.07887812
44	0xbf1aaf5e	-0.6042384
45	0xbdc91f89	-0.09820468
46	0xbf3032d6	-0.6882757
47	0xbde3e42c	-0.11127505
48	0xbd86e51f	-0.0658667
49	0xbe2a8733	-0.16653137
50	0xbdae8ca9	-0.085229225
51	0xbe2f2a42	-0.17105964
52	0xbda8b7b3	-0.08238163
53	0xbd2193a8	-0.039447457
54	0xbe5f2a1e	-0.2179341
55	0x3eb0c3d6	0.3452441
56	0xbe064fd3	-0.13116388
57	0x3de0ae85	0.10970787
58	0xbd2e1abf	-0.042505976
59	0x3ed7bdb6	0.42136925
60	0xbed03d3c	-0.40671718
61	0xbe88ca23	-0.26716718
62	0xbe059bf9	-0.1304778
63	0xbe974677	-0.29545948
64	0xbd8d8bf3	-0.06911459
65	0x3c0cfab2	0.008604692
66	0xbe833340	-0.25625038
67	0x3be09004	0.0068531055
68	0xbc9ee7f0	-0.019397706
69	0xbcb770b0	-0.0223926
70	0x3d3b4180	0.045716763
71	0x3e1375a4	0.14400345
72	0xbf81fc52	-1.0155127
73	0x3bcdde0b	0.006282573
74	0xbcebf8ba	-0.028805126
75	0x3be3b37f	0.006948888
76	0xbe0831d3	-0.13300256
77	0x3e663534	0.22481233
78	0xbe01e17a	-0.12683669
79	0x3d4b7f4f	0.049681958
80	0xbe3f4c0c	-0.18681353
81	0x3e2d51cf	0.16925739
82	0x3f08bb76	0.5341104
83	0xbea16c1b	-0.3152779
84	0x3ee881b9	0.4541147
85	0xbe078edc	-0.1323809
86	0x3e073067	0.13202058
87	0xbd1b6872	-0.037941404
88	0x3e35670d	0.17715092
89	0x3d82b6b1	0.06382502
90	0xbe85ee6c	-0.26158464
91	0xbe6e6511	-0.23280741
92	0x3f038556	0.5137533
93	0xbc731477	-0.014836422
94	0xbe8d3cfd	-0.27585593
95	0xbe6dd048	-0.23223984
96	0xbd516ad1	-0.05112726
97	0xbe8feae1	-0.28108886
98	0x3d05878e	0.03259998
99	0xbd1b76e9	-0.0379552
100	0xbe0b7fd0	-0.13622975
101	0x3e5a4f80	0.2131939
102	0xbebee3dd	-0.3728322
103	0x3d14aeae	0.0362994
104	0xbf194dd2	-0.5988437
105	0x3d8ecc63	0.069725774
106	0xbd2f3fe5	-0.042785544
107	0xbe0f5311	-0.13996531
108	0xbf02dda9	-0.51119477
109	0xbec8b21f	-0.39198396
110	0x3d6c0a34	0.057626918
111	0x3de82638	0.11335415
112	0x3dc7e24b	0.09759959
113	0xbf7776ec	-0.96665835
114	0xbe126f84	-0.14300352
115	0xbf0891d9	-0.53347546
116	0x3e9ed9f1	0.3102565
117	0xbdcab99c	-0.098986834
118	0x3e08f8a5	0.133761
119	0x3e24bdd3	0.16088037
120	0x3d875a51	0.06609023
121	0x3e3aabbe	0.18229577
122	0xbde0228a	-0.10944088
123	0x3e29c14e	0.16577646
124	0x3cd70f02	0.026252273
125	0xbe8bcc4c	-0.27304304
126	0xbd57aecf	-0.052656945
127	0x3ea4881f	0.32135102
128	0xbda043d5	-0.07825438
129	0xbe800a98	-0.25008082
130	0xbeaa379c	-0.33245552
131	0xbbd9a3c6	-0.006641838
132	0xbdee2025	-0.11627225
133	0xbe850554	-0.25980628
134	0xbcd905dd	-0.026492054
135	0xbe4c8bcd	-0.19975205
136	0xbc7149a6	-0.014727032
137	0x3d523dcb	0.05132846
138	0x3e40a2e0	0.18812132
139	0xbe6ddc2b	-0.23228519
140	0xbdc89adb	-0.09795161
141	0x3c272f6d	0.010204178
142	0xbd95ceb2	-0.073148146
143	0x3f0b07af	0.543086
144	0x3dd43063	0.103607915
145	0xbd141f92	-0.03616292
146	0xbd79e223	-0.061006676
147	0x3e1421b3	0.1446598
148	0x3e747fe0	0.23876905
149	0xbca374e2	-0.019953195
150	0x3e02060a	0.12697616
151	0x3dab0e2d	0.08352313
152	0xbe3e86ff	-0.18606184
153	0xbef5d9b4	-0.48017657
154	0x3e7e2a34	0.24820787
155	0xbd0bb262	-0.034105666
156	0x3b04f6d6	0.0020288727
157	0x3d91c8d2	0.071183816
158	0xbe1b2dec	-0.15154237
159	0xbe51afde	-0.20477244
160	0xbe0a05c4	-0.13478762
161	0xbe124185	-0.14282806
162	0xbdaec3a7	-0.085334115
163	0xbef76d84	-0.4832574
164	0xbed0f6f7	-0.4081342
165	0x3e0dc8dc	0.13846153
166	0xbc59191a	-0.013250614
167	0xbe730987	-0.23734103
168	0xbf162381	-0.58647925
169	0x3e89450d	0.26810494
170	0x3d4b7a42	0.04967714
171	0xbe2f10cd	-0.17096253
172	0xbe85740a	-0.26065093
173	0xbdabce0a	-0.08388908
174	0xbc258a6d	-0.010103804
175	0xbf5f8c45	-0.8732341
176	0xbd80bb8c	-0.06285772
177	0x3d0c697d	0.03428029
178	0xbea9065e	-0.3301267
179	0x3e829d34	0.2551056
180	0xbeb81f4c	-0.35961378
181	0x3d200f09	0.03907684
182	0x3c2181e9	0.009857633
183	0x3ef4564e	0.47722095
184	0xbdae1269	-0.08499605
185	0xbe1becdb	-0.15227072
186	0xbec6ec98	-0.38852382
187	0xbe1ade6e	-0.15123913
188	0xbe83d031	-0.25744775
189	0xbec5db1a	-0.38643724
190	0xbf33de19	-0.7026077
191	0x3e3e0028	0.18554747
192	0x3e72529f	0.2366433
193	0xbeb89b54	-0.36056006
194	0xbdc8647e	-0.09784792
195	0xbf1eb60f	-0.6199655
196	0x3dc6adff	0.09701156
197	0xbf07b215	-0.53006107
198	0x3c2aeac8	0.010431953
199	0x3e16f889	0.14743246
200	0x3e1ecdd3	0.15508203
201	0xbdb3cf98	-0.0877983
202	0xbba76928	-0.005108971
203	0xbeb731e4	-0.3578025
204	0xbebba92f	-0.36652514
205	0xbe311fd3	-0.17297296
206	0xbe1d743e	-0.15376374
207	0xbea2a9c0	-0.31770134
208	0xbe21fafd	-0.158184
209	0x3ea56889	0.32306316
210	0xbdb8b14a	-0.0901819
211	0xbe56fa20	-0.20993853
212	0xbe95f8ef	-0.29291484
213	0xbc5e56dd	-0.0135705145
214	0xbee56fa4	-0.44811738
215	0xbe82999e	-0.25507826
216	0x3eb254f5	0.34830442
217	0xbc3d8c32	-0.01156907
218	0xbbc7a10c	-0.0060921963
219	0xbecbc135	-0.39795843
220	0xbda69356	-0.08133571
221	0xbedd3f80	-0.4321251
222	0xbd00bb89	-0.031428847
223	0xbecd0986	-0.40046328
224	0xbe82fa60	-0.25581646
225	0x3daa5e9a	0.08318825
226	0x3e9278ed	0.28607884
227	0x3d53f6ca	0.05174903
228	0xbe029cb8	-0.12755096
229	0x3d3e176f	0.046409067
230	0xbe5a42c5	-0.21314533
231	0xbe6ccea4	-0.23125702
232	0xbf05a319	-0.5220199
233	0x3df788e5	0.120866574
234	0xbd709f0e	-0.058745436
235	0xbce4a36f	-0.027909962
236	0xbe1e685b	-0.15469496
237	0x3d825489	0.0636378
238	0xbf859cb2	-1.0438445
239	0xbf7fc90e	-0.9991616
240	0x3d36b171	0.044602815
241	0x3dab6723	0.08369281
242	0xbea0ff5c	-0.31444824
243	0x3fb4ad77	1.4115437
244	0x3dc2dac6	0.09514384
245	0x3d509f9a	0.050933458
246	0x3c4c2472	0.012459861
247	0x3dcd0453	0.100105904
248	0xbec4ce63	-0.3843871
249	0xbbcdc8d0	-0.006280042
250	0xbec37950	-0.38178492
251	0xbe509eb4	-0.2037304
252	0x3e4f2564	0.20229107
253	0x3e935ff0	0.28784132
254	0x3e06c76a	0.13162008
255	0xbe152b7b	-0.14567368

l2/W f4 [256, 256]
0	0x3e3e804c	0.18603629
1	0x3da46694	0.08027378
2	0xbd80f889	-0.06297404
3	0xbe046bc7	-0.12931739
4	0x3d37aaa9	0.04484049
5	0xbecb0c93	-0.3965803
6	0x3d4b086c	0.04956858
7	0x3dc25612	0.09489073
8	0xbd4d023b	-0.050050955
9	0x3d84d279	0.06485457
10	0xbd8e0417	-0.06934374
11	0xbdd74ae2	-0.1051233
12	0xbbd5550c	-0.0065103825
13	0x3d38d821	0.04512799
14	0x3d4fff9c	0.050780877
15	0xbdbffd31	-0.09374464
16	0x3d2afa0a	0.041742362
17	0xbdfc617a	-0.1232328
18	0x3de7cb03	0.11318018
19	0x3d2bb5ba	0.041921355
20	0x3d27f974	0.04100938
21	0x3da39e02	0.07989122
22	0x3db3ea94	0.087849766
23	0x3d42cb7c	0.04755734
24	0x3c6266cb	0.013818453
25	0x3da04e7b	0.07827469
26	0x3dbd9607	0.09257131
27	0xbdcbeb97	-0.099570446
28	0x3db9473c	0.0904679
29	0x3e46238d	0.19349499
30	0x3e0dda8a	0.13852897
31	0x3d81079e	0.06300281
32	0x3d0725e0	0.032995105
33	0x3cfe3aca	0.031033892
34	0x3d75fe99	0.060057256
35	0xbd98b914	-0.07457176
36	0x3d9d05ff	0.07667159
37	0x3dc99d26	0.09844427
38	0x3e0e603a	0.13903895
39	0x3e2b6c4c	0.1674053
40	0xbc1899bc	-0.009313997
41	0xbda67d36	-0.08129351
42	0xbc613599	-0.013745689
43	0xbbb6e99f	-0.005582049
44	0x3e2b0e8c	0.16704768
45	0x3d8f933b	0.07010504
46	0x3db23456	0.087013885
47	0x3d2a8175	0.041627366
48	0xbd75aa47	-0.059976842
49	0xbdd66419	-0.10468311
50	0xbd31051d	-0.043217767
51	0x3dccba87	0.09996515
52	0xbc6ab1b4	-0.014324594
53	0x3bd6dd37	0.0065571326
54	0x3aacbc93	0.0013178758
55	0xbad7e670	-0.0016471874
56	0xbd0613be	-0.03273367
57	0xbd0e4375	-0.0347323
58	0xbcd14f5f	-0.025550542
59	0xbd5a64b7	-0.053318705
60	0x3d5e59c4	0.054284826
61	0x3dfbb8ab	0.12291082
62	0x3dcdcb5d	0.10048554
63	0x3d55cc71	0.052196924
64	0x3b95d733	0.004572773
65	0x3de4b540	0.11167383
66	0xbc8e6690	-0.01738289
67	0x3e05f625	0.13082178
68	0xbc5a058c	-0.013306987
69	0xbdc4de50	-0.09612715
70	0x3cf78ec8	0.03021945
71	0x3e041a27	0.12900601
72	0x3dc485e7	0.09595852
73	0xbd6e78c8	-0.058220655
74	0xbd4a8d2a	-0.04945103
75	0xbcc01354	-0.023446716
76	0x3d917191	0.07101739
77	0x3e19860c	0.14992541
78	0xbd7e9e44	-0.062162653
79	0x3dab0238	0.083500326
80	0xbd905152	-0.070467606
81	0x3dc4c4c4	0.096078426
82	0xbd9eb812	-0.077499524
83	0x3d5d260e	0.05399137
84	0x3e288eb3	0.16460685
85	0x3e2c6e0e	0.16838858
86	0x3e049df3	0.12950878
87	0x3dadfa4b	0.08495005
88	0x3d4912bc	0.049090132
89	0xbca0deb6	-0.019637447
90	0xbddc7f7b	-0.107665025
91	0x3e7e48b1	0.24832417
92	0x3b9547e4	0.004555689
93	0x3d2b234d	0.041781712
94	0xbc80183e	-0.01563656
95	0x3c0d0062	0.008606048
96	0xbd71cfd2	-0.059036084
97	0x3c951299	0.018197345
98	0x3e08ae71	0.13347794
99	0xbe8593c1	-0.2608929
100	0x3e0c57e6	0.13705406
101	0x3e231eef	0.15929769
102	0xbe0598ab	-0.1304652
103	0x3e181bfd	0.14854427
104	0x3dd80bd0	0.10549128
105	0x3de27cb3	0.11058941
106	0xbd158024	-0.036499158
107	0x3aaeda44	0.0013340195
108	0xb86d2a4f	-5.6544606e-05
109	0x3da28d49	0.07937104
110	0x3d1fd154	0.03901799
111	0x3b9e6c8c	0.004834717
112	0x3d351a75	0.044214685
113	0x3dca4bc6	0.09877734
114	0x3df7b0f7	0.120943
115	0x3cf1be84	0.02950979
116	0x3db27ab9	0.08714814
117	0x3e743d9e	0.2385163
118	0x3daa9aa5	0.08330277
119	0xbd8d0f78	-0.06887716
120	0x3d219cda	0.039456226
121	0x3e39854b	0.18117253
122	0x37796f9d	1.48675435e-05
123	0xbd2dbd99	-0.042417143
124	0xbd5c4e63	-0.053785693
125	0x3da6cbd4	0.08144346
126	0xbcb2de75	-0.021834591
127	0x3d43ef9a	0.047835924
128	0xbc3e5349	-0.011616536
129	0xbdc9257e	-0.09821604
130	0xbe1cb885	-0.15304764
131	0x3dd9bf86	0.10632233
132	0xbd2c7108	-0.042099983
133	0x3dcb7c88	0.09935862
134	0x3e4de83d	0.20108123
135	0xbd45af0b	-0.048262637
136	0x3cc50082	0.024048094
137	0xbca673ba	-0.020318855
138	0xbc8a41df	-0.016877113
139	0x3db0710a	0.086153105
140	0x3aa1cc75	0.0012344258
141	0x3e5ed777	0.21761881
142	0xbcc85384	-0.024453886
143	0xbe2c0143	-0.16797356
144	0xbcbe235e	-0.023210224
145	0x3dc4447b	0.09583374
146	0x3d2d4918	0.042306036
147	0x3cc76b76	0.024343234
148	0xbe195741	-0.14974691
149	0xbc0b25cf	-0.008492901
150	0xbcb9ac41	-0.022665145
151	0x3dc634cd	0.0967804
152	0xbc3487f4	-0.011018742
153	0xbe0eaba9	-0.1393267
154	0x3d601972	0.054711767
155	0x3d59e559	0.05319724
156	0x3cfe59da	0.031048704
157	0x3e0c4309	0.13697447
158	0x3d92078d	0.071303464
159	0x3c5e4d59	0.013568246
160	0xbdbff681	-0.09373189
161	0xbd93bdd9	-0.07213945
162	0xbe095bd6	-0.13413939
163	0xbd235288	-0.03987363
164	0xbbfa54d3	-0.0076395064
165	0x3d771321	0.060320977
166	0x3d8cdf13	0.068784855
167	0x3d9f7461	0.077858694
168	0x3db59995	0.08867184
169	0x3d2a0e36	0.04151746
170	0xbe02ffba	-0.12792864
171	0x3d0cf829	0.03441635
172	0xbceae805	-0.028675089
173	0xbd29163e	-0.041280977
174	0x3d532624	0.051550046
175	0x3cd482ae	0.02594122
176	0x3d2ad4f1	0.041706983
177	0xbe0387a6	-0.12844715
178	0x3e25e340	0.1619997
179	0xbd930478	-0.07178587
180	0x3cfe9bf7	0.03108023
181	0xbc4d3398	-0.012524508
182	0xbd6de366	-0.058078192
183	0x3d926a76	0.07149212
184	0xbdf022ff	-0.11725425
185	0xbdf8fee7	-0.12157994
186	0xbc2e93cc	-0.010655355
187	0xbd8c9650	-0.06864607
188	0x3ca74726	0.020419668
189	0xbde008af	-0.10939156
190	0xbdc1c29b	-0.09460946
191	0x3e19ec5e	0.15031573
192	0xbb91d64b	-0.0044505945
193	0x3b355cb2	0.002767366
194	0x3ba11060	0.004915282
195	0xbe041d61	-0.12901832
196	0xbdf3d8e1	-0.11906601
197	0xbd8a79ba	-0.06761499
198	0xbdb9acc5	-0.09066156
199	0xbd43994c	-0.047753617
200	0xbc2f98a6	-0.010717547
201	0xbdd06e8d	-0.10177336
202	0x3adabc4b	0.0016688196
203	0xbd9d259a	-0.076731876
204	0x3d9065b7	0.070506506
205	0xbe12a4ea	-0.14320722
206	0xbd804150	-0.06262457
207	0x3dddf1e6	0.10837154
208	0xbe06c38a	-0.1316053
209	0xbc3bc576	-0.011460653
210	0x3d97d521	0.07413698
211	0x3d869582	0.06571485
212	0x3c003fb7	0.007827691
213	0xbddb7614	-0.10715881
214	0x3c43617b	0.011925097
215	0x3c0c7458	0.00857266
216	0xbc8b33e8	-0.016992524
217	0xbe3db4a3	-0.18525939
218	0x3ccb755e	0.024836238
219	0xbe26284c	-0.1622631
220	0x3d5503e6	0.05200567
221	0x3dd3ffeb	0.10351547
222	0x3d10009f	0.035156842
223	0x3d0d487a	0.034492947
224	0xbcdc68a5	-0.026905367
225	0x3e3daaed	0.18522234
226	0xbd74ca2e	-0.059763126
227	0xbde50300	-0.11182213
228	0xbe157b81	-0.14597894
229	0xbd596a8a	-0.05308012
230	0x3e1312d7	0.14362656
231	0x3b96ce68	0.0046022423
232	0xbc0fe16b	-0.008781771
233	0x3d91bc85	0.07116035
234	0x3e4304cd	0.190448
235	0xbdaa7677	-0.083233766
236	0x3d8d82cc	0.06909713
237	0x3dacebed	0.08443437
238	0x3dabe259	0.08392782
239	0xbcbb4722	-0.022861067
240	0x3d1b2476	0.03787657
241	0x3aea2e79	0.0017866633
242	0x3ce32b58	0.027730629
243	0x3e413cd9	0.18870868
244	0x3e104b4a	0.1409122
245	0xbdc9a225	-0.0984538
246	0xbd1a822d	-0.0377218
247	0x3d1b61e3	0.03793515
248	0x3e046df3	0.12932567
249	0x3dbc9a39	0.09209103
250	0xbe26ee2c	-0.16301793
251	0xbd631888	-0.055443317
252	0x3cc6c6a1	0.024264636
253	0x3c4bcb61	0.012438626
254	0x3dc2b9a9	0.09508068
255	0x3ddf9c78	0.10918516

l1/b f4 [256]
0	0xbe440186	-0.19141206
1	0xbe0f6b34	-0.14005738
2	0x3d158a2d	0.036508728
3	0xbe80620d	-0.25074807
4	0xbe8c01ea	-0.2734521
5	0x400a4bca	2.1608758
6	0xbe8806ca	-0.2656768
7	0xbc686c19	-0.014185929
8	0xbe9d2818	-0.30694652
9	0xbecce1b9	-0.40015963
10	0x3e5c678b	0.21523874
11	0xbdc68c7d	-0.09694765
12	0xbf4c55ea	-0.79818594
13	0x3cfff967	0.031246854
14	0xbefe9d17	-0.49729225
15	0x3e0e0f5a	0.13873044
16	0xbf33d4f7	-0.70246834
17	0xbdb82fac	-0.08993468
18	0xbd4d924d	-0.05018835
19	0xbf50aca9	-0.8151346
20	0xbddff15e	-0.10934709
21	0xbdbbe662	-0.091748014
22	0xbc935c6e	-0.01798841
23	0xbcc6bf09	-0.024261015
24	0xbe9e8063	-0.30957326
25	0xbe841081	-0.2579384
26	0xbeee961c	-0.465989
27	0x3d44dcad	0.048062015
28	0x3e412cc8	0.18864739
29	0xbe377f32	-0.17919615
30	0xbcd27b51	-0.025693567
31	0x3cc10bf7	0.023565276
32	0xbea17426	-0.31533927
33	0xbe8e2107	-0.27759573
34	0xbe8f2c1c	-0.2796334
35	0xbbdc644c	-0.0067258235
36	0x3d029c26	0.031887196
37	0xbdf798b0	-0.1208967
38	0x3d73c820	0.059517026
39	0x3e3d74f8	0.18501651
40	0xbd9fc023	-0.07800319
41	0x3f0461f8	0.5171199
42	0x3c25c8a3	0.010118636
43	0xbe611caa	-0.2198359
44	0xbdfbf472	-0.123024836
45	0xbf1ca480	-0.6118851
46	0xbdabc95a	-0.08388014
47	0xbea961cc	-0.33082426
48	0x3ea405c7	0.32035658
49	0x3d4fef7c	0.0507655
50	0xbf507c23	-0.8143942
51	0xbe4ec41b	-0.20191996
52	0xbe950580	-0.2910576
53	0xbf33dc42	-0.7025796
54	0xbeb77721	-0.35833076
55	0x3a398aba	0.0007077862
56	0xbf8b5504	-1.088532
57	0x3d85626b	0.06512912
58	0xbeb771a6	-0.35828894
59	0x3bdfc4f6	0.0068288995
60	0x3eb67c9a	0.35641938
61	0xbe23b400	-0.15986633
62	0xbfb46c26	-1.4095504
63	0xbe16311a	-0.14667168
64	0xbee75818	-0.45184398
65	0xbf177bae	-0.59173095
66	0xbe84100d	-0.25793496
67	0x3d4a5d94	0.04940565
68	0x3d9d76ab	0.0768865
69	0xbcc17af3	-0.023618197
70	0xbeb12b2c	-0.3460325
71	0xbd87e775	-0.06635944
72	0xbe78630c	-0.24256533
73	0x3defc686	0.11707787
74	0xbcafae97	-0.021445556
75	0x3f38d9e3	0.7220747
76	0xbd3fed3d	-0.046857107
77	0xbe842936	-0.2581269
78	0x3ce9f43f	0.028558848
79	0x3df69ae9	0.120412655
80	0x3d1dae5c	0.03849636
81	0xbfb432a0	-1.407795
82	0xbd156de6	-0.03648176
83	0xbd0b5a4f	-0.03402167
84	0xbe7d390f	-0.24728797
85	0xbf5c9be1	-0.8617535
86	0x3f0a52d0	0.5403261
87	0xbf0039b6	-0.5008806
88	0x3c9b1bf4	0.018934228
89	0x3f3160e7	0.69288486
90	0xbd0e4645	-0.034734983
91	0xbdc3f233	-0.0956768
92	0x3dccb5dd	0.09995625
93	0xbe08985c	-0.1333937
94	0x3e8ee02a	0.279054
95	0xbf19328a	-0.5984274
96	0x3ba8f809	0.005156521
97	0xbe7f7ae3	-0.24949221
98	0x3f7dde0a	0.9916693
99	0xbb88802f	-0.0041656713
100	0x3e80e197	0.2517211
101	0xbf0531ab	-0.5202891
102	0xbdf7f509	-0.121072836
103	0xbf009c4b	-0.50238484
104	0xbe40fff3	-0.18847637
105	0x3cb71cdc	0.022352628
106	0x3b6ff279	0.003661303
107	0xbeeadf1b	-0.4587334
108	0x3cb6b655	0.02230374
109	0xbee994f9	-0.4562147
110	0xbead568a	-0.33855087
111	0xbf258a7d	-0.6466444
112	0xbdcb68af	-0.09932076
113	0xbd705e4b	-0.058683675
114	0xbee3e242	-0.4450856
115	0xbc374a4c	-0.011187147
116	0x3cb5a841	0.022174956
117	0xbf9861b1	-1.1904813
118	0x3c6afc67	0.014342404
119	0xbdd7480c	-0.10511789
120	0xbef57f09	-0.47948483
121	0xbede2ee2	-0.43395144
122	0x3da2a2fa	0.079412416
123	0x3ddd847a	0.108162835
124	0xbe25e3e4	-0.16200215
125	0xbd8cf6d9	-0.0688302
126	0xbe948657	-0.29008743
127	0xbf218f19	-0.63108975
128	0xbea09f92	-0.31371742
129	0x3c3066b2	0.010766672
130	0x3f3ec5f9	0.7452083
131	0xbe1e17f7	-0.1543883
132	0xbe8b00e3	-0.27149114
133	0xbf0d89be	-0.552883
134	0xbe3d36e4	-0.1847797
135	0xbd85f51d	-0.06540892
136	0xbf5d4914	-0.86439633
137	0x3d999885	0.07499794
138	0x3daf0764	0.085463315
139	0x3cd35840	0.025798917
140	0xbf5714d5	-0.8401616
141	0xbe81964f	-0.2530999
142	0x3dc015f8	0.0937919
143	0xbf050566	-0.5196136
144	0x3c908468	0.017641261
145	0xbd995469	-0.07486803
146	0xbee0dc34	-0.43918002
147	0xbe754e62	-0.23955682
148	0xbee3906a	-0.44446117
149	0xbdda1bd7	-0.10649841
150	0xbe135459	-0.14387645
151	0xbf083e45	-0.53220016
152	0xbd2d81a3	-0.04235996
153	0x3cc74087	0.024322761
154	0x3e1b912b	0.15192096
155	0xbe6cde8e	-0.23131773
156	0xbeb37a1e	-0.35054106
157	0x3e2b5d99	0.16734923
158	0x3e88ad32	0.26694638
159	0xbe8091f9	-0.25111368
160	0x3da04566	0.07825737
161	0x3ca59877	0.020214302
162	0xbe01cf0e	-0.12676641
163	0xbeec1db9	-0.46116427
164	0xbe1026e2	-0.14077333
165	0xbc807b0e	-0.015683677
166	0x3e979cf8	0.29611945
167	0xbe0e33e6	-0.13886985
168	0xbf0d4fa3	-0.5519964
169	0x3fb9b83f	1.4509352
170	0x3ee88cdd	0.4541997
171	0xbd1a2c3b	-0.037639838
172	0x3e7aefe3	0.24505572
173	0xbc49c60f	-0.012315287
174	0x3cdfbbe8	0.02731128
175	0x3d13de00	0.036100388
176	0xbbdaad0f	-0.006673462
177	0xbf3a023a	-0.7265965
178	0xbeba0fbd	-0.36340132
179	0xbe66ef15	-0.2255214
180	0x39eaffd0	0.00044822553
181	0xbe4f0727	-0.20217572
182	0xbe90c7c0	-0.28277397
183	0x3cd84558	0.026400253
184	0xbf049b14	-0.5179913
185	0xbe9bb13e	-0.30408663
186	0xbf51b1f9	-0.8191219
187	0xbe81c915	-0.25348726
188	0xbe97a081	-0.29614642
189	0xbceade55	-0.02867047
190	0x3d2b15b5	0.04176875
191	0xbe51dd86	-0.2049466
192	0xbe51a51a	-0.20473137
193	0x3de5c9b6	0.11220114
194	0xbc5a871b	-0.013337876
195	0xbefd3442	-0.49453932
196	0xbdc36978	-0.09541601
197	0xbe18a24e	-0.14905664
198	0xbd67e8ab	-0.056618374
199	0xbf2cb072	-0.67456734
200	0xbe1cd888	-0.15316975
201	0xbd905b14	-0.07048622
202	0x3cf7d1e5	0.030251453
203	0x3dff17e4	0.12455729
204	0x3cd4c25b	0.025971582
205	0xbd7754b4	-0.060383514
206	0xbca8cb40	-0.02060473
207	0xbe4bdda6	-0.19908771
208	0x3db104b5	0.08643476
209	0xbf242958	-0.64125586
210	0x3f336b06	0.7008518
211	0xbe94f7ea	-0.29095393
212	0xbf41b0db	-0.75660485
213	0x3de72269	0.1128586
214	0xbeeb7832	-0.4599014
215	0x3d517c5d	0.051143993
216	0xbeb6d718	-0.35710979
217	0xbcde8c3d	-0.02716648
218	0xbf001dbf	-0.5004539
219	0xbf1c4e4c	-0.6105697
220	0xbf0fcf52	-0.5617572
221	0xbdcc7029	-0.0998233
222	0xbece91de	-0.40345663
223	0xbcbb3920	-0.022854388
224	0xbeed31f5	-0.46327177
225	0x3d905e74	0.070492655
226	0xbe3b8968	-0.18314135
227	0xbddf1bc3	-0.10893967
228	0xbd289c57	-0.041164722
229	0xbe15b317	-0.14619099
230	0xbdc95eef	-0.0983256
231	0xbdcef67d	-0.10105608
232	0xbea68266	-0.3252136
233	0x3d49d08d	0.049271155
234	0xbdde7e75	-0.108639635
235	0x3e1ec949	0.15506472
236	0x3da4d1f7	0.0804786
237	0xbfa1611f	-1.2607764
238	0xbeb183de	-0.3467092
239	0xbb0fcd79	-0.002194254
240	0xbee4e2d4	-0.44704306
241	0xbda3dafb	-0.080007516
242	0xbd940b34	-0.07228699
243	0xbf363778	-0.7117839
244	0x3dc962de	0.098333105
245	0xbe5a2330	-0.21302485
246	0x3f54ed39	0.83174473
247	0x3e9b11da	0.30287057
248	0x3dd6ad2a	0.10482247
249	0x3dca3abf	0.09874486
250	0xbf2f7837	-0.6854281
251	0xbf4bf022	-0.7966329
252	0xbde2c469	-0.110726185
253	0xbeb416ed	-0.3517374
254	0x3f395ed6	0.72410333
255	0x3df32722	0.11872698

l1/W f4 [256, 36]
0	0x3eb450ff	0.35218045
1	0xbedfd29f	-0.4371538
2	0xbe4e2849	-0.20132555
3	0x3d01c291	0.031679694
4	0xbe22f038	-0.15911949
5	0x3ec875b8	0.39152312
6	0xbda680b9	-0.08130021
7	0x3dbba160	0.09161639
8	0x3da31a45	0.07963995
9	0x3f033b73	0.5126259
10	0xbd6c3fee	-0.057678156
11	0xbe912d57	-0.28354904
12	0x3dca4c84	0.098778754
13	0x3e46473e	0.19363114
14	0x3e6df443	0.2323771
15	0xbdefbaa2	-0.11705519
16	0x3e697406	0.22798166
17	0x3e8a2338	0.26979995
18	0xbf0d71c2	-0.55251706
19	0xbf23eb7d	-0.640312
20	0x3e93c1d0	0.28858805
21	0xbda87ca9	-0.08226902
22	0xbea4371a	-0.3207329
23	0xbd346780	-0.044044018
24	0x3ec7e32f	0.39040515
25	0x3ed60206	0.4179842
26	0xbe1a71df	-0.15082501
27	0xbcf010ab	-0.029304823
28	0xbf152706	-0.5826267
29	0x3d7836ad	0.060599018
30	0x3e423695	0.18966134
31	0x3eb39a0f	0.35078475
32	0x3db76472	0.08954705
33	0xbeb6a3df	-0.356719
34	0xbe3481ab	-0.1762759
35	0xbd7ffd3f	-0.062497374
36	0xbdd55159	-0.104159065
37	0xbe9a99b3	-0.30195388
38	0xbe47537b	-0.19465439
39	0x3d158892	0.036507197
40	0x3e0ca7c2	0.1373587
41	0x3ea0bfaa	0.31396228
42	0xbdfdf2ee	-0.12399851
43	0x3ead7630	0.33879232
44	0x3f129e6e	0.57272995
45	0xbd32b9d3	-0.043634247
46	0xbd2484b4	-0.040165618
47	0xbea70360	-0.32619762
48	0xbd9635ea	-0.07334502
49	0x3f391cc7	0.72309536
50	0xbd6ce670	-0.05783695
51	0xbdac751c	-0.08420774
52	0xbdeeba73	-0.11656656
53	0x3dbdc74e	0.0926653
54	0xbeafd9a6	-0.3434574
55	0xbea7a230	-0.32740927
56	0xbe73805b	-0.23779432
57	0x3e32cf39	0.17461862
58	0xbe19b375	-0.15009864
59	0x3dc8ea5a	0.09810324
60	0xbd236a37	-0.039896216
61	0xbeefbe88	-0.4682505
62	0xbe0b42f2	-0.13599756
63	0xbecfc4c5	-0.4057981
64	0xbd09e35a	-0.033664085
65	0x3eab3257	0.33436844
66	0x3e903abe	0.28169817
67	0x3e8ae696	0.27129048
68	0xbde163a7	-0.11005335
69	0x3f051a90	0.51993656
70	0x3e1bb638	0.1520623
71	0xbe8091ea	-0.25111324
72	0x3ed51726	0.41619223
73	0xbe1b413d	-0.15161605
74	0x3dce4cfc	0.10073277
75	0x3dd2bcf5	0.10289947
76	0xbdd88b56	-0.10573451
77	0xbd5be22b	-0.053682487
78	0xbec91a2a	-0.39277774
79	0xbd85153d	-0.064981915
80	0xbe81d020	-0.253541
81	0x3e1fd03a	0.15606776
82	0x3ef6c3b6	0.4819619
83	0xbda2f044	-0.07955983
84	0xbe14dc5f	-0.1453719
85	0xbc3b0f8b	-0.01141728
86	0xbd54222c	-0.0517904
87	0x3db04327	0.08606558
88	0xbd0c942b	-0.03432099
89	0xbf08d2de	-0.5344676
90	0xbcb02807	-0.021503462
91	0x3df41175	0.11917392
92	0xbedfbcb0	-0.43698645
93	0xbe301ea1	-0.17199184
94	0x3e7e41ca	0.24829784
95	0xbed3f8d9	-0.41400793
96	0xbe3cacd4	-0.18425304
97	0xbe739dfa	-0.23790732
98	0x3adc6d00	0.0016817153
99	0x3d9275c8	0.07151371
100	0x3e8af7b9	0.27142122
101	0xbecc0dc1	-0.39854243
102	0x3c70a5b1	0.014687941
103	0xbd901bcc	-0.07036552
104	0x3e87a72d	0.26494732
105	0xbe88b3ea	-0.26699764
106	0xbe38ede9	-0.18059506
107	0xbe95d932	-0.2926727
108	0x3e3c1997	0.18369137
109	0xbe0022eb	-0.1251332
110	0x3d9d118e	0.07669364
111	0x3eab2954	0.33429968
112	0xbd9cf7f4	-0.07664481
113	0xbd0547e6	-0.03253927
114	0xbf0954ac	-0.53644824
115	0xbdc6f1a9	-0.09714062
116	0x3eb9e05b	0.36303982
117	0x3e5c791b	0.21530573
118	0x3ed2c22c	0.41163766
119	0xbd7182d5	-0.05896266
120	0xbf12589d	-0.57166463
121	0x3f1cd1d2	0.6125766
122	0x3cc8c912	0.02450994
123	0x3e8e4c5e	0.2779264
124	0xbc2f1f0e	-0.010688556
125	0xbe5f40b1	-0.21802022
126	0xbeb64118	-0.35596538
127	0x3dcde56c	0.100535244
128	0x3d306356	0.043063484
129	0xbed25b55	-0.41085306
130	0xbe6972e5	-0.22797735
131	0x3e939f10	0.28832293
132	0xbe954ce8	-0.29160237
133	0x3e14af52	0.14520004
134	0xbcd4bfcb	-0.02597036
135	0x3e84f540	0.2596836
136	0xbe8878e4	-0.26654732
137	0x3eea4938	0.45758986
138	0xbe8247f7	-0.2544553
139	0xbc41f23e	-0.01183754
140	0x3c3ca4ca	0.011513898
141	0xbe0d9b6c	-0.1382882
142	0xbde5756e	-0.112040386
143	0xbe1158dc	-0.14194053
144	0x3e7a0765	0.24416883
145	0xbe0fd21b	-0.14044993
146	0x3eab380b	0.33441195
147	0x3eee1537	0.4650056
148	0x3e934c24	0.28769028
149	0x3cd6cf95	0.02622203
150	0xbe68b856	-0.22726569
151	0xbe9b8b13	-0.30379543
152	0x3e18b661	0.14913322
153	0x3d926467	0.071480565
154	0xbc8692db	-0.016427448
155	0x3de194ee	0.11014734
156	0x3e031aea	0.12803236
157	0x3e38babc	0.18039984
158	0xbe772d2b	-0.24138324
159	0xbe9bf9ff	-0.3046417
160	0xbea4422a	-0.3208173
161	0x3eaa28c0	0.33234215
162	0x3e46bc4a	0.19407764
163	0xbe8c56b6	-0.27409905
164	0x3c5c2cc5	0.013438408
165	0xbf1c10f4	-0.6096337
166	0x3e981c90	0.2970929
167	0xbe2815bd	-0.16414542
168	0xbcdf46d9	-0.027255462
169	0x3e250d19	0.16118278
170	0x3ea77bdf	0.32711694
171	0xbd338f11	-0.04383761
172	0xbe585ba8	-0.21128714
173	0x3b3007e1	0.0026860165
174	0x3e365cce	0.1780884
175	0xbe19f991	-0.15036608
176	0xbe04380a	-0.12912002
177	0xbed02cba	-0.40659124
178	0xbe77c7cb	-0.24197309
179	0x3f04da14	0.5189526
180	0xbc91bfae	-0.017791595
181	0xbdf84e36	-0.121242926
182	0x3e595835	0.21225055
183	0xbdd821af	-0.105533
184	0xbe178694	-0.14797431
185	0xbd6d6031	-0.057953063
186	0x3ccf329a	0.025292683
187	0xbdeb814f	-0.11499273
188	0xbeb70a01	-0.3574982
189	0x3d48c312	0.04901416
190	0x3e58a897	0.21158062
191	0x3e4335d4	0.19063503
192	0xbd08b69a	-0.033377267
193	0xbda27292	-0.07932009
194	0x3c98868e	0.018618848
195	0x3e0e8528	0.13917983
196	0xbe5119b5	-0.20419963
197	0xbdbef1f9	-0.09323496
198	0xbdea7dfa	-0.11449809
199	0x3e3d4fd3	0.18487482
200	0x3e478db0	0.19487643
201	0xbd037186	-0.032090686
202	0xbda5f38b	-0.08103093
203	0xbdac77de	-0.084213
204	0x3d7157e3	0.058921706
205	0xbd062e10	-0.032758772
206	0x3d71cab1	0.059031192
207	0xbe19e88f	-0.1503012
208	0xbe821d9f	-0.25413224
209	0x3e0d0539	0.13771524
210	0x3d18a006	0.037261985
211	0xbd89607c	-0.06707856
212	0x3dcd3acb	0.100209795
213	0x3d18f5ea	0.037343897
214	0x3d2789f1	0.040903036
215	0x3d774fe4	0.060378924
216	0xbde43781	-0.11143399
217	0xbd9ae404	-0.07563022
218	0x3f22f0d3	0.6364872
219	0xbe8e9085	-0.27844635
220	0x3cc61494	0.024179734
221	0x3eef72c0	0.46767235
222	0x3c623645	0.013806884
223	0xbc6dba36	-0.014509728
224	0xbe6bd163	-0.23029093
225	0xbe284c4e	-0.16435358
226	0xbead9818	-0.339051
227	0x3f4c453e	0.79793155
228	0x3ea09e86	0.31370944
229	0x3e42658c	0.1898405
230	0xbcb97571	-0.022639008
231	0xbd9be4bf	-0.07611989
232	0x3db33a2f	0.08751332
233	0xbe9edde7	-0.31028673
234	0xbd9d2b72	-0.07674302
235	0xbde94083	-0.11389258
236	0x3cd4e997	0.02599029
237	0xbe05ad93	-0.13054495
238	0x3d63b7ff	0.055595394
239	0x3e60d1b7	0.21955
240	0xbe6b641d	-0.22987409
241	0x3b8fa4dc	0.0043836664
242	0x3e98a4ed	0.29813328
243	0xbea595b6	-0.32340783
244	0x3eec4497	0.4614608
245	0x3dacdd84	0.08440688
246	0xbf011499	-0.50422055
247	0x3e257be0	0.16160536
248	0xbecc21c6	-0.39869517
249	0xbe939477	-0.28824207
250	0xbecf05e1	-0.40434173
251	0xbcb61444	-0.02222646
252	0x3e0c6dcf	0.13713764
253	0x3e9927e0	0.29913235
254	0x3e57e283	0.21082501
255	0xbef34199	-0.47510985

l4/b f4 [36]
0	0xbef951ff	-0.4869537
1	0xbef3e80d	-0.47637978
2	0xbeacab21	-0.3372431
3	0xbf1ccbaa	-0.61248267
4	0xbf1eff97	-0.6210875
5	0xbf0af75b	-0.54283684
6	0xbed6c509	-0.419472
7	0xbee18d0c	-0.44052923
8	0xbefff073	-0.49988136
9	0xbf054a1f	-0.52066225
10	0xbec0c2ed	-0.37648717
11	0xbed94db5	-0.42442098
12	0xbf12f40d	-0.5740364
13	0xbed0d968	-0.40790868
14	0xbdec0880	-0.11525059
15	0xbdc87a0e	-0.09788905
16	0xbeeef8cf	-0.466742
17	0xbef719ee	-0.4826197
18	0xbea739b4	-0.32661211
19	0xbefa22fa	-0.4885481
20	0xbe2c4e2f	-0.168267
21	0xbe23c529	-0.1599318
22	0xbef7f03c	-0.48425472
23	0xbf1fbdef	-0.6239919
24	0xbf06bc3e	-0.52630985
25	0xbebfffd6	-0.37499875
26	0xbf051f5e	-0.5200099
27	0xbee61f77	-0.4494588
28	0xbf019f23	-0.5063345
29	0xbf147212	-0.5798656
30	0xbef818f8	-0.4845655
31	0xbee5a940	-0.4485569
32	0xbeb50751	-0.35357144
33	0xbee13b90	-0.43990755
34	0xbf0bcac9	-0.546063
35	0xbec749f3	-0.38923606

l4/W f4 [36, 256]
0	0xbd1eacf6	-0.038739167
1	0xbdfcd0a5	-0.12344483
2	0x3d05d7a8	0.03267637
3	0xbc25b29a	-0.010113383
4	0x3cab37fd	0.02090072
5	0x3d8980eb	0.06714042
6	0xbe5d8a85	-0.21634872
7	0x3db22e04	0.08700183
8	0x3d290f9f	0.041274663
9	0xbd3d9fdc	-0.046295032
10	0x3d7cc22e	0.06170862
11	0x3e2841cb	0.16431348
12	0x3db6b075	0.08920375
13	0x3d164dbd	0.03669523
14	0x3eb590b5	0.35461965
15	0xbdcccfe5	-0.1000059
16	0x3cab7af4	0.020932652
17	0x3dbf1b26	0.0933135
18	0xbd2dee99	-0.042463873
19	0x3d2a3284	0.04155208
20	0x3e844687	0.25835058
21	0x3df9445f	0.12171244
22	0x3da29c45	0.07939962
23	0xbdc75aec	-0.09734139
24	0xbd8dffdf	-0.06933569
25	0x3e0934c3	0.13399033
26	0xbe9065b3	-0.2820259
27	0xbc996194	-0.018723287
28	0xbcef8239	-0.0292369
29	0x3da9ce59	0.08291311
30	0xbe32d41e	-0.17463729
31	0x3dac9972	0.08427705
32	0x3d4b67a4	0.049659386
33	0xbccef931	-0.025265308
34	0x3cf7cd3b	0.030249229
35	0xbe3561c1	-0.17713071
36	0xbe0d86a5	-0.13820894
37	0x3d18f517	0.03734311
38	0xbbdc09ca	-0.006715034
39	0xbb9c1739	-0.0047635105
40	0xbdfc8f84	-0.12332061
41	0xbe00d4d2	-0.12581185
42	0x3e2cc130	0.1687057
43	0x3c84bbaf	0.016202776
44	0x3a3122f4	0.00067572226
45	0xbead3f15	-0.3383719
46	0xbbeb4475	-0.0071797916
47	0xbd1a24ba	-0.03763268
48	0x3de11485	0.10990242
49	0xbda26d03	-0.079309486
50	0xbea08069	-0.3134797
51	0xbde38539	-0.111093946
52	0xbeff3c48	-0.49850678
53	0x3cdfa3b5	0.027299741
54	0x3e31d1e5	0.17365225
55	0xbdfe40aa	-0.124146774
56	0x3e9e4be1	0.30917266
57	0xbebd8f71	-0.370235
58	0x3d98fcaa	0.07470067
59	0x3de29a2a	0.11064561
60	0x3c74f84d	0.014951778
61	0xbd6eb2f5	-0.058276135
62	0xbdf2411b	-0.11828824
63	0x3cf806ea	0.030276734
64	0xbe86f9ca	-0.2636245
65	0xbe9bba0e	-0.30415386
66	0x3d1c9b27	0.038233902
67	0x3da08b5a	0.07839079
68	0xbe1e08d6	-0.15433058
69	0x3e50f0be	0.20404336
70	0x3c98e509	0.0186639
71	0x3d2002de	0.039065234
72	0xbc46b0fe	-0.012127159
73	0xbeca9ae6	-0.39571303
74	0x3b5018f1	0.0031753147
75	0x3d01283c	0.03153251
76	0x3d2b4615	0.041814882
77	0x3e5b75cd	0.21431656
78	0x3e5d3b6d	0.216047
79	0x3e9bf7a2	0.30462366
80	0xbefcfe31	-0.49412683
81	0xbcb68436	-0.02227984
82	0xbeb5b9de	-0.35493368
83	0x3caad330	0.020852655
84	0xbef16828	-0.47149777
85	0xbeea6729	-0.4578183
86	0x3e044346	0.12916288
87	0x3ca95150	0.020668656
88	0xbe7f9a50	-0.2496121
89	0xbd81b9a5	-0.06334237
90	0x3c421c66	0.011847591
91	0xbd8b3d61	-0.067988165
92	0x3cbaf1fc	0.022820465
93	0xbc91752e	-0.017756071
94	0x3d63eb99	0.055644605
95	0x3d1b0000	0.037841797
96	0xbe5ed3ea	-0.21760526
97	0xbd7dc8c3	-0.06195904
98	0xbc091a94	-0.008368153
99	0xbe4f9ab8	-0.20273864
100	0xbe15b3ee	-0.14619419
101	0x3e9e7159	0.30945852
102	0x3cc213c2	0.023691062
103	0x3db6286d	0.08894429
104	0x3dfe4431	0.1241535
105	0xba3f2851	-0.00072920794
106	0x3e1cd875	0.15316947
107	0xbe1f9c85	-0.15587051
108	0xbed80b8e	-0.42196316
109	0xbd4778a5	-0.04869904
110	0xbe12e90b	-0.14346711
111	0xbe2aaeef	-0.16668294
112	0xbe9be773	-0.3045002
113	0xbcadd20b	-0.02121832
114	0xbd420bf7	-0.04737469
115	0x3b266e22	0.0025395234
116	0xbdea681a	-0.11445637
117	0x3d69ff08	0.057127982
118	0xbec909f3	-0.39265403
119	0x3d832dfe	0.06405257
120	0xbd614b38	-0.055003375
121	0x3e1bc452	0.15211609
122	0x3d202d52	0.03910572
123	0x3cafec31	0.02147493
124	0xbdc87efa	-0.09789844
125	0x3d0d2f21	0.034468774
126	0x3d2296c2	0.039694555
127	0xbe8bdc71	-0.2731662
128	0x3da1a01b	0.07891866
129	0x3e42c0ec	0.19018906
130	0xbec8dff8	-0.39233375
131	0x3c1a9773	0.009435522
132	0xbdf70acf	-0.120626085
133	0xbc1bdd84	-0.009513263
134	0xbdf48243	-0.11938908
135	0x3e152201	0.14563753
136	0xbd88f830	-0.06687963
137	0x3dd2b784	0.10288909
138	0x3e00c61f	0.12575577
139	0xbcefda5e	-0.02927893
140	0x3db31a1e	0.08745216
141	0xbe3f845b	-0.18702833
142	0x3cfa7c2d	0.03057679
143	0xbe814b25	-0.25252643
144	0x3eac0bb0	0.33602667
145	0xbe055bec	-0.13023347
146	0xbd955ce2	-0.072931066
147	0x3d064982	0.032784946
148	0x3e844ccd	0.25839844
149	0x3d88a46d	0.06671987
150	0x3e19f424	0.15034539
151	0xbe7b48a9	-0.24539436
152	0xbca4e296	-0.020127576
153	0x3b77859d	0.0037768849
154	0x3dd719da	0.10502978
155	0xbcef0d2d	-0.029181087
156	0xbce1e9af	-0.02757725
157	0x3dfe0a3a	0.12404294
158	0xbd819a4a	-0.063282564
159	0x3db705da	0.08936663
160	0x3d461ccc	0.048367307
161	0xbe2c449d	-0.16823049
162	0xbe1a1b05	-0.1504937
163	0xbd76da2e	-0.060266666
164	0xbcdba2cb	-0.026811024
165	0x3daa7374	0.08322802
166	0x3d5265b5	0.051366527
167	0x3e9cfb3b	0.30660424
168	0xbee6d9b7	-0.45087978
169	0xbd9d25bd	-0.07673214
170	0x3d840a58	0.064472854
171	0xbd55595d	-0.052087177
172	0x3a375ea4	0.00069949985
173	0x3e6a8b55	0.22904713
174	0x3d3e1fa8	0.04641691
175	0xbd2e931e	-0.04262077
176	0xbd224edd	-0.03962599
177	0x3cf8f6ac	0.03039106
178	0xbeda7335	-0.4266602
179	0x3e070477	0.13185297
180	0x3c9d95ca	0.019236464
181	0x3e35ae1f	0.17742203
182	0x3e211676	0.15731224
183	0xbdc5c93b	-0.09657522
184	0xbd22a1f2	-0.039705224
185	0x3e9a5ca7	0.30148813
186	0xbe2ee08f	-0.1707785
187	0xbedd5697	-0.43230125
188	0x3db975a5	0.09055642
189	0x3d550991	0.052011076
190	0xbe99977d	-0.2999839
191	0xbd7e1872	-0.06203503
192	0xbeb90399	-0.36135557
193	0x3d130b28	0.03589931
194	0xbbb0c384	-0.005394401
195	0x3b26b99d	0.0025440224
196	0xbea6ce2c	-0.32579172
197	0x3c01dac8	0.007925697
198	0x3bc07949	0.0058738333
199	0xbcb4afdc	-0.022056513
200	0xbf08a8ed	-0.5338276
201	0xbd4c7645	-0.049917478
202	0x3e010c41	0.1260233
203	0xbd5ec5aa	-0.054387726
204	0xbe55b802	-0.20870975
205	0x3b1e759c	0.0024178987
206	0xbdc226b1	-0.09480036
207	0x3e3d2741	0.18472005
208	0xbb23814d	-0.0024948895
209	0x3cff6c23	0.031179493
210	0x3d28ab57	0.041179027
211	0x3dd6a9d6	0.104816124
212	0x3dad5149	0.084627695
213	0xbe873ca2	-0.26413447
214	0x3c734932	0.014848994
215	0x3cdd078e	0.026981141
216	0xbd806086	-0.062684104
217	0x3e8fe9f5	0.28108183
218	0x3ccec15a	0.025238682
219	0xbc91a7e9	-0.017780261
220	0x3d60622a	0.054781117
221	0x3c84215c	0.016129188
222	0x3e433041	0.19061376
223	0x3c057cec	0.0081474595
224	0xbd9c79a6	-0.0764039
225	0x3c6bb69b	0.014386798
226	0x3dca8a4a	0.09889658
227	0x3d924951	0.0714289
228	0x3d59bb4a	0.05315713
229	0x3d47afb5	0.04875155
230	0xbd7d5854	-0.061851814
231	0xbcd32885	-0.025776157
232	0x3e3cf196	0.18451533
233	0xbd05fecf	-0.032713708
234	0xbc0e48ea	-0.008684376
235	0xbd7061d1	-0.058687035
236	0xbd1bb122	-0.038010724
237	0x3dad6e89	0.084683485
238	0xbafa9b5f	-0.001911979
239	0x3d767e2a	0.060178913
240	0x3d56456f	0.05231231
241	0xbd5400b7	-0.051758494
242	0x3cf97c7d	0.030454868
243	0xbdca71a0	-0.098849535
244	0xbd307121	-0.043076638
245	0x3decb642	0.115582004
246	0xbd8988dd	-0.06715558
247	0x3da2503f	0.07925462
248	0x3c25254e	0.010079695
249	0xbe25b0e3	-0.16180758
250	0xbed36415	-0.41287294
251	0xbe173174	-0.14764959
252	0x3d1c7bad	0.038203884
253	0x3e1cb6bf	0.15304087
254	0xbd9e14e0	-0.07718825
255	0x3cfbdb14	0.030744113

l3/b f4 [256]
0	0x3e6832ec	0.22675675
1	0x3c9a08cf	0.018803028
2	0xbc9bce0d	-0.019019151
3	0xbce508d4	-0.027958311
4	0xbdb50ab2	-0.088399306
5	0xbe5a600e	-0.21325704
6	0x3e0bb5bb	0.13643543
7	0x3e438d5e	0.19096896
8	0x3e3099c2	0.17246154
9	0x3e324f9a	0.17413178
10	0x3ece6cc3	0.40317354
11	0x3bdd73c9	0.0067581874
12	0xbeaa0af5	-0.33211485
13	0xbea9ad2d	-0.33139935
14	0xbc219c3b	-0.009863908
15	0xbddfc802	-0.1092682
16	0x3acd995b	0.0015685962
17	0x3dff2230	0.124576926
18	0xbe808364	-0.25100243
19	0x3d5dee4a	0.05418233
20	0xbc8471b4	-0.0161675
21	0x3df8349e	0.12119411
22	0xbe048c8b	-0.12944238
23	0x3e0ba7fc	0.136383
24	0x3e142e41	0.1447077
25	0x3dabdebe	0.08392094
26	0x3d378066	0.044800185
27	0x3cd2ccb3	0.025732374
28	0xbb989512	-0.0046564424
29	0xbd86d1c0	-0.065829754
30	0x3d487f33	0.04894943
31	0x3da2359a	0.0792038
32	0x3e751152	0.23932388
33	0x3e3d459c	0.18483585
34	0xbd2556a2	-0.040365823
35	0x3d5a1c85	0.053249855
36	0x3d699cd7	0.05703434
37	0x3e19e75c	0.15029663
38	0xbe064645	-0.13112743
39	0xbe239132	-0.15973356
40	0x3c12e80a	0.008966455
41	0x3eb42034	0.3518082
42	0xbe290395	-0.16505273
43	0xbdd72eab	-0.10506948
44	0x3dea9a3a	0.11455198
45	0x3dc3fd66	0.09569816
46	0x3e0ff3a7	0.1405779
47	0x3e72c215	0.23706849
48	0x3db0140c	0.08597574
49	0x3d8f3b2e	0.069937095
50	0x3d796285	0.06088497
51	0x3e44e188	0.19226658
52	0x3ec390ef	0.38196513
53	0x3d73030d	0.05932908
54	0xbd9bedca	-0.07613714
55	0x3e818a33	0.2530075
56	0x3c3f37e5	0.011671041
57	0x3db28e08	0.087184966
58	0x3db07561	0.08616138
59	0x3c9dcdcf	0.019263176
60	0x3e962c10	0.29330492
61	0x3e8a5bb2	0.27023083
62	0x3d2f21d1	0.04275686
63	0x3d4ca61a	0.049963094
64	0x3e843213	0.25819454
65	0x3e100dce	0.14067766
66	0xbd35aab8	-0.044352263
67	0x3c8d3b5d	0.01724022
68	0x3e3f5b31	0.1868713
69	0xbc86a425	-0.016435692
70	0xbc0f4493	-0.008744377
71	0x3b9e4ac0	0.0048306882
72	0xbda7f56f	-0.082011096
73	0xbdad6ab3	-0.08467617
74	0x3de5af9e	0.11215137
75	0xbcba700a	-0.022758503
76	0xbe88019e	-0.26563734
77	0x3d68e100	0.0568552
78	0x3dfc66f5	0.12324325
79	0x3da6e6dc	0.08149502
80	0x3e1af9a7	0.15134297
81	0x3d4577f6	0.048210107
82	0x3dc0a429	0.09406311
83	0xbe9bdfdd	-0.30444232
84	0x3d373ef4	0.04473777
85	0x3d8aa57e	0.067698464
86	0xbc8200ae	-0.015869465
87	0x3d4796b8	0.04872772
88	0xbdc15462	-0.09439923
89	0x3fb5a700	1.4191589
90	0x3ce3fd82	0.027830843
91	0x3dcd0d06	0.1001225
92	0xbe37a75d	-0.17934938
93	0x3ee5dd20	0.44895267
94	0xbebdc17b	-0.37061676
95	0xbe8085ac	-0.25101984
96	0x3cdb8a89	0.026799457
97	0x3dc13018	0.09433001
98	0x3dbe3ee1	0.09289337
99	0xbe047c53	-0.12938051
100	0x3ef1673b	0.4714907
101	0x3c8e546b	0.017374238
102	0x3e743297	0.23847423
103	0xbe1d41dc	-0.15357155
104	0x38b25a31	8.504501e-05
105	0xbd33ee1f	-0.04392826
106	0x3d6e08aa	0.05811373
107	0x3b8a5cf1	0.0042225053
108	0x3e01ab04	0.12662894
109	0x3e1cedda	0.15325108
110	0x3e4322e7	0.19056283
111	0x3e077ef1	0.13232018
112	0x3e4972ac	0.1967265
113	0xbebe771a	-0.37200242
114	0x3e35af1b	0.17742579
115	0xbda0900e	-0.07839976
116	0x3d539002	0.05165101
117	0xbe09e222	-0.13465169
118	0x3e90851a	0.28226548
119	0x3d5a3a8b	0.053278487
120	0xbe9679ba	-0.29389745
121	0x3cdf82b1	0.027283998
122	0x3e93f13d	0.28894988
123	0x3d8b5f01	0.0680523
124	0xbd0e8343	-0.03479315
125	0xbe9aee8f	-0.3026013
126	0x3e15e45d	0.14637895
127	0x3e632806	0.22183236
128	0xbd5081c1	-0.050904993
129	0x3cee041c	0.029054694
130	0x3e4d6e5e	0.20061633
131	0xbd14349f	-0.036182996
132	0x3e450872	0.19241503
133	0x3e084f9f	0.13311623
134	0x3e9c4552	0.30521637
135	0x3bf0cbab	0.007348498
136	0x3e0edbe2	0.13951066
137	0xbe454dd3	-0.19267969
138	0xbe5fab9e	-0.2184281
139	0xbe87a9ba	-0.2649668
140	0xbd0f3b00	-0.034968376
141	0x3d00019e	0.031251542
142	0xbe22ee13	-0.1591113
143	0xbd7ea41d	-0.06216823
144	0xbd0bba72	-0.034113355
145	0x3d436ac9	0.04770926
146	0x3eb215ff	0.34782407
147	0x3d97e5c4	0.07416871
148	0x3d887026	0.066620156
149	0x3cc11f95	0.02357463
150	0x3e32ad27	0.17448865
151	0x3da9f74d	0.08299122
152	0xbda41819	-0.08012409
153	0xbd844651	-0.06458724
154	0x3c3fbbd3	0.011702496
155	0xbe716329	-0.23572983
156	0xbd14321b	-0.036180597
157	0xba7dd626	-0.00096830947
158	0xbc936e16	-0.017996829
159	0x3e74d583	0.23909573
160	0xbec5834c	-0.38576734
161	0x3e0b6962	0.13614419
162	0x3ca3faa0	0.020016968
163	0x3da099f1	0.07841862
164	0x3e701914	0.23447067
165	0x3bb25458	0.0054421835
166	0xbe717806	-0.23580942
167	0x3cad1070	0.021126002
168	0x3dfaac9d	0.122399546
169	0x3e84773f	0.25872228
170	0x3d26d5fb	0.04073141
171	0x3e052018	0.13000524
172	0xbcd74650	-0.026278645
173	0xbd9e58ce	-0.07731782
174	0x3dbbfeb7	0.091794424
175	0xbe6a77e8	-0.22897303
176	0xbd312130	-0.04324454
177	0x3e8f1df4	0.2795254
178	0x3e610532	0.21974638
179	0xbc585f77	-0.013206354
180	0x3e1da7fb	0.1539611
181	0xbda9958a	-0.082804754
182	0x3d704081	0.058655266
183	0xbca0f294	-0.01964692
184	0xbd8821d4	-0.06647077
185	0xbdc9a2e3	-0.09845521
186	0x3ddd36ac	0.108014435
187	0x3bd307fe	0.0064401617
188	0xbe5c41c9	-0.2150947
189	0xbdd3b0c2	-0.10336448
190	0x3d5f066c	0.054449484
191	0x3e2037e4	0.1564632
192	0x3d736ad9	0.05942807
193	0x3e212a2b	0.15738742
194	0x3da3368c	0.07969388
195	0x3e2d3221	0.16913654
196	0x3e3b5d8d	0.18297406
197	0x3e7190cc	0.23590392
198	0xbd426624	-0.04746069
199	0xbea04f81	-0.31310657
200	0x3dcd399d	0.100207545
201	0xbe8e2792	-0.27764565
202	0xbe4a934e	-0.19782755
203	0x3d8c7d55	0.06859843
204	0x3dc394bb	0.095498525
205	0xbeed4047	-0.46338102
206	0xbd98def5	-0.07464401
207	0xbe98b85e	-0.2982816
208	0xbdc52e14	-0.09627929
209	0xbe16d972	-0.14731386
210	0xbe76f5aa	-0.24117151
211	0x3ce0b523	0.027430123
212	0x3c986f12	0.01860765
213	0x3e8cd1a0	0.2750368
214	0xbde306ba	-0.11085267
215	0x3d76eaad	0.060282398
216	0x3e365642	0.17806342
217	0x3a4d8d6d	0.00078412035
218	0xbe92d44d	-0.28677598
219	0xbe0a6ec6	-0.13518819
220	0x3bf4dae1	0.0074723815
221	0xbd11ac1b	-0.035564523
222	0xbc9ca24f	-0.019120364
223	0xbe94edcf	-0.29087684
224	0x3dabd433	0.08390083
225	0x3dea2092	0.114319935
226	0xbb9ec6f7	-0.004845496
227	0xbda71051	-0.08157409
228	0x3d905e1f	0.07049202
229	0x3e56847b	0.20948975
230	0x3d926a7f	0.07149219
231	0x3e2b18dd	0.16708703
232	0x3d7249ed	0.059152532
233	0x3daf137d	0.08548639
234	0xbd61df6c	-0.055144712
235	0x3d63a040	0.05557275
236	0x3be78c3a	0.007066277
237	0x3cf24ae5	0.029576728
238	0x3d376a0e	0.044778876
239	0xbe485c88	-0.19566548
240	0x3d369b77	0.044581857
241	0xbe0f3fa1	-0.13989116
242	0x3c6ad206	0.0143323
243	0xbb785091	-0.0037889818
244	0x3db5dceb	0.088800274
245	0xbe886f8b	-0.266476
246	0xbdd2a8c6	-0.10286097
247	0x3e386391	0.18006732
248	0x3d4ab8c9	0.04949263
249	0x3e03798b	0.12839334
250	0x3dfa247c	0.1221399
251	0x3f3e5cc6	0.7436031
252	0xbd25a08b	-0.04043631
253	0x3db70e82	0.08938314
254	0x3b21bf25	0.0024680581
255	0x3cadb752	0.021205578

l3/W f4 [256, 256]
0	0xbe1474c9	-0.14497675
1	0xbe400f90	-0.18755937
2	0xbdfa920b	-0.12234887
3	0xbd076092	-0.03305108
4	0xbe24055b	-0.16017668
5	0xbd3436f0	-0.043997705
6	0xbdfb76e8	-0.12278539
7	0x3e3d3f80	0.18481255
8	0xbc34f6f2	-0.0110452045
9	0x3d47264e	0.048620515
10	0x3dc11673	0.0942811
11	0xbd2a303f	-0.041549917
12	0xbda97329	-0.08273918
13	0x3dce9c28	0.10088378
14	0x3d9875aa	0.07444318
15	0xbd21e8a2	-0.039528497
16	0xbd79ff3c	-0.061034426
17	0xbdb0d1dd	-0.08633778
18	0x3e69a81b	0.22818033
19	0x3e38835b	0.18018858
20	0x3eb305b6	0.34965295
21	0xbdc20db1	-0.09475268
22	0xbda52e32	-0.08065452
23	0x3e0633fc	0.13105768
24	0xbe58782c	-0.21139592
25	0xbb3ea18b	-0.0029087986
26	0x3c0416d2	0.008062081
27	0xbec4f73b	-0.38469872
28	0x3d75f866	0.060051344
29	0xbcf16dcd	-0.029471302
30	0x3d1b1cf5	0.037869412
31	0x3e186051	0.14880492
32	0xbdab2d92	-0.08358301
33	0xbdb23862	-0.087021604
34	0x3da23b42	0.07921459
35	0xbe227966	-0.15866622
36	0x3d1d67be	0.038429014
37	0x3e0f292b	0.13980548
38	0xbdd93a8e	-0.106068715
39	0x3d73c399	0.05951271
40	0xbded71b2	-0.11593951
41	0x3dd3ba2e	0.10338245
42	0x3d6df72c	0.05809705
43	0x3e664b31	0.22489621
44	0x3da0cd76	0.078516886
45	0x3cb04936	0.021519285
46	0xbdca6931	-0.09883345
47	0xbe4a3d24	-0.19749886
48	0x3d607919	0.054802988
49	0xbdc80740	-0.09767008
50	0x3dc0a9ec	0.0940741
51	0xbde50279	-0.11182112
52	0xbd8d675a	-0.06904478
53	0xbd7c506f	-0.061600145
54	0xbdadb9d7	-0.08482712
55	0xbe15e3d6	-0.14637694
56	0xbd92008b	-0.0712901
57	0x3e06d069	0.1316544
58	0x3df07967	0.11741906
59	0x3dd7c237	0.105350904
60	0x3e02c716	0.12771258
61	0xbd6995df	-0.057027694
62	0x3c2362da	0.0099722985
63	0xbe06d3c3	-0.13166718
64	0x3e4a5e49	0.1976253
65	0x3ddf5800	0.109054565
66	0xbd677012	-0.056503363
67	0x3d23ea47	0.040018346
68	0xbdc3f2dc	-0.09567806
69	0xbd0549ee	-0.032541208
70	0x3c95b694	0.018275537
71	0x3e0523a5	0.13001879
72	0xbe13e7f1	-0.14443947
73	0x3cbc767c	0.023005717
74	0x3e02b45a	0.12764111
75	0xbe5e2c36	-0.21696553
76	0xbe1aa7e7	-0.15103112
77	0x3e7ac22e	0.24488136
78	0x3e1886d9	0.1489519
79	0x3d870ea5	0.0659459
80	0x3ca92d05	0.02065135
81	0x3d88181b	0.06645223
82	0xbd88a41b	-0.06671926
83	0xbe679f81	-0.2261944
84	0xbe0c8745	-0.13723476
85	0x3d169b7c	0.036769375
86	0xbe1260b1	-0.14294697
87	0xbe1f97f6	-0.15585312
88	0x3dd1f41e	0.1025164
89	0x3b9beecb	0.004758691
90	0xbdd40a17	-0.10353487
91	0xbe1e7c67	-0.15477143
92	0x3dcb42fa	0.09924884
93	0x3c00b288	0.007855065
94	0xbe19b379	-0.1500987
95	0x3e4d42d9	0.20045032
96	0x3e18515f	0.1487479
97	0xbde2aeb7	-0.110684805
98	0x3d80cb1a	0.062887385
99	0xbe77aaab	-0.24186198
100	0xbd3bbe9b	-0.045836072
101	0xbdf68edb	-0.12038966
102	0xbc2f0956	-0.010683378
103	0x3d871a80	0.06596851
104	0x3ce1874f	0.02753034
105	0x3a254b2e	0.0006305453
106	0x3cc72dbb	0.024313798
107	0xbe3eac16	-0.18620333
108	0x3cc64f83	0.024207836
109	0x3c90922e	0.017647829
110	0x3d8748cb	0.06605681
111	0xbd88cc6f	-0.066796176
112	0x3d8adf36	0.06780855
113	0xbe390c6e	-0.18071148
114	0x3be10dd3	0.006868103
115	0xbebe49a6	-0.37165564
116	0x3dfbd90f	0.1229726
117	0x3e746de9	0.23870052
118	0xbdf389ac	-0.11891493
119	0x3dd47ca6	0.10375337
120	0x3cc46013	0.023971593
121	0x3d9ac88d	0.07557783
122	0x3e3dc1ee	0.1853101
123	0xbe2fca1f	-0.17166947
124	0xbdd2409d	-0.1026623
125	0xbc6a71b2	-0.014309334
126	0x3d338751	0.04383022
127	0x3e044ddb	0.12920325
128	0x3d97e768	0.07417184
129	0x3dee9e25	0.116512574
130	0x3d551746	0.05202415
131	0xbe4f527f	-0.20246314
132	0x3d0cab0e	0.034342818
133	0xbe081486	-0.13289079
134	0xbc2afc60	-0.010436147
135	0xbe024cec	-0.12724656
136	0xbe01f224	-0.12690026
137	0xbd089e7d	-0.03335427
138	0x3db06fec	0.086150974
139	0x3e18a094	0.14905006
140	0xbda43371	-0.08017624
141	0x3e60472b	0.21902148
142	0xbdd4c29d	-0.10388682
143	0x3dfdf5bc	0.12400386
144	0x3d144025	0.036193985
145	0xbbebb097	-0.007192682
146	0xbe0fab46	-0.1403018
147	0x3cb90374	0.022584654
148	0x3e18f1f9	0.14936055
149	0x3c290ac8	0.010317512
150	0xbdea6495	-0.11444966
151	0x3d34fff5	0.044189412
152	0xbea7233d	-0.32644072
153	0xbe775ff0	-0.24157691
154	0x3d7d739a	0.061877824
155	0xbc1dde72	-0.009635555
156	0xbd32a06a	-0.043610014
157	0x3e2d8a57	0.16947304
158	0xbddfc0f1	-0.109254725
159	0x3a79b4e5	0.00095255516
160	0xbdc9640c	-0.098335356
161	0xbe1ac123	-0.15112738
162	0xbe2c845c	-0.16847366
163	0xbe047e12	-0.12938717
164	0xbc97bf27	-0.018523766
165	0xbd94958a	-0.07255085
166	0x3c0a12a7	0.008427299
167	0xbe3ee720	-0.18642855
168	0xbdee57c1	-0.116378315
169	0x3e5c47e1	0.21511795
170	0x3cbd3a60	0.023099124
171	0x3dbac9c9	0.09120519
172	0xbc763607	-0.01502753
173	0xbd984a2a	-0.07436021
174	0xbd07d55d	-0.033162463
175	0xbba8bd14	-0.005149493
176	0x3ca738f2	0.020412896
177	0x3d86ed55	0.06588236
178	0x3c6a2bb8	0.01429265
179	0x3e0eda63	0.13950495
180	0x3d5db8a7	0.054131176
181	0xbdc88dc9	-0.09792668
182	0xbe72e34c	-0.2371952
183	0x3e7ccd69	0.24687733
184	0xbd0fa78f	-0.035071906
185	0x3dcecd2b	0.100977264
186	0xbbdd2124	-0.0067483354
187	0x3e3fa561	0.18715431
188	0xbc85c905	-0.016331205
189	0xbe3c0f69	-0.18365254
190	0xbe4362a2	-0.19080594
191	0xbd533d94	-0.051572397
192	0xbd572c61	-0.052532557
193	0xbcab9d49	-0.020949023
194	0x3d5660a3	0.052338254
195	0xbe0e159a	-0.13875428
196	0xbe0bd629	-0.13655914
197	0xbccd8378	-0.025087103
198	0xbce49e3a	-0.02790748
199	0xbe2c28d1	-0.16812445
200	0xbd9970f2	-0.07492246
201	0x3de75ed5	0.11297385
202	0xbd1344c2	-0.035954244
203	0xbd1ecec7	-0.038771417
204	0x3d0d8a8b	0.034555953
205	0xbda66126	-0.08123998
206	0xbc69213d	-0.014229116
207	0x3d033eab	0.032042187
208	0x3d413bd5	0.0471762
209	0xbe0b4c40	-0.13603306
210	0xbe288d1f	-0.16460083
211	0x3e14c964	0.1452995
212	0x3bfa67b7	0.0076417583
213	0xbde83077	-0.11337369
214	0x3d23a058	0.039947838
215	0x3dcc1d16	0.09966485
216	0xbd697c9a	-0.057003595
217	0xbd5b0d34	-0.05347939
218	0x3dfe76c7	0.12424999
219	0xbd747566	-0.059682272
220	0x3b6ff0b4	0.0036611976
221	0xbe9df173	-0.30848274
222	0xbe0c3ab7	-0.13694273
223	0xbd45f395	-0.048328
224	0xbd63991c	-0.05556594
225	0xbe1d9d86	-0.15392122
226	0xbdbb5050	-0.09146178
227	0xbda6f2cd	-0.08151779
228	0xbd7b9a35	-0.06142636
229	0x3cc92b62	0.02455682
230	0xbd009d5b	-0.031400066
231	0xbd845e5f	-0.06463312
232	0xbe7e4e61	-0.24834587
233	0x3e04a5bd	0.12953849
234	0xbd1a856f	-0.03772491
235	0xbd08aa6f	-0.033365663
236	0xbdc40431	-0.09571112
237	0x3dc953ad	0.09830413
238	0x3c6f9749	0.014623472
239	0xbdb6d531	-0.08927382
240	0xbd846440	-0.06464434
241	0x3d896f58	0.0671069
242	0x3e553c68	0.20823824
243	0x3e4d21d7	0.2003244
244	0xbe25d598	-0.16194761
245	0xbb8a079d	-0.0042123334
246	0x3e0cbcb9	0.13743867
247	0xbd0b7c66	-0.034054182
248	0xbe198fed	-0.1499631
249	0x3e884a34	0.26619112
250	0x3de7a45c	0.11310646
251	0xbd54b951	-0.051934544
252	0x3e79267c	0.24331087
253	0xbe0d2403	-0.13783269
254	0x3eae8298	0.3408401
255	0xbd1ea3b4	-0.03873034
