static/ai/6/agent_white_12000/target_model.npz (npz, 560453 bytes, 8 tensors)

l2/b f4 [256]
000000 a5 32 3d bf 59 16 f0 bd a1 b8 6a 3c 86 73 80 3e
       -0.739054 -0.117230125 0.0143262455 0.25088137
000010 8c 86 99 be 5a 34 3e 3e d7 d3 94 3d cc 2b c7 3d
       -0.29985464 0.18574658 0.07266968 0.097251505
000020 c2 98 eb 3c ff 93 23 be 90 72 cd be fb 2d 7d 3d
       0.028759364 -0.15974425 -0.40126467 0.06181143
000030 2d 74 67 3d 73 14 db 3d 0f 95 3b b9 1a 7f 33 39
       0.05650728 0.1069726 -0.00017889238 0.0001711812
000040 be e8 ab 3d 30 ac 1b 3d 9e 87 a5 3d 52 b9 f2 bd
       0.083940014 0.038006008 0.080825076 -0.11851753
000050 a9 fa 80 be 9b 7d 08 3e 53 6a 13 be cf 9f 86 3d
       -0.2519124 0.13329165 -0.14396028 0.0657345
000060 90 33 a5 bd fc eb ec bd 9c ac fa bd b0 2a b9 3d
       -0.080664754 -0.11568448 -0.12239954 0.09041345
000070 17 2f ea 3d 9f 55 94 3e c1 9a 83 bd 38 85 ea 3e
       0.11434763 0.28971574 -0.06426001 0.45804763
000080 09 0a db 3d e9 73 27 bf e0 70 bd bc 7f e0 8a be
       0.106952734 -0.6541124 -0.023125112 -0.27124402
000090 19 c8 fa 3d 4c e3 85 3f 3a cd 24 3e f2 83 e9 3e
       0.12245197 1.045999 0.16093913 0.4560848
0000a0 e9 1c 33 3e 40 89 a7 3e 32 66 34 3b 57 ac a1 bd
       0.17491497 0.327219 0.0027526733 -0.07894199
0000b0 9a 72 1a bf e4 e4 ca bd ba cc 2f bf 98 aa e4 bd
       -0.6033112 -0.09906939 -0.6867176 -0.11165351
0000c0 0e 7c 84 bd 03 13 2c be dd bf af bd 11 23 2e be
       -0.06468974 -0.16804127 -0.08581517 -0.17005564
0000d0 fd 8d aa bd 3f 69 1e bd e0 45 5d be 12 dc b0 3e
       -0.08327863 -0.03867459 -0.21608686 0.345429
0000e0 60 3f 05 be 2c 99 de 3d 5b d2 29 bd bc 69 d8 3e
       -0.13012457 0.10869059 -0.041460376 0.4226817
0000f0 bc 97 d0 be db 5e 89 be 0d fa 04 be af 90 96 be
       -0.40740764 -0.2683018 -0.12986012 -0.2940726
000100 d3 b9 8e bd d6 0d 0b 3c ad c7 83 be 35 0e 12 3c
       -0.06969037 0.008487185 -0.25738278 0.00891452
000110 5b d4 a1 bc 5c a6 b5 bc d7 73 3e 3d b6 e6 13 3e
       -0.01975458 -0.022174053 0.046497192 0.14443478
000120 68 0c 82 bf 5e fe a2 3b 20 e2 ea bc 2a e9 c5 3b
       -1.0160036 0.0049741706 -0.028672278 0.006039758
000130 16 cc 09 be b7 a9 65 3e ed b2 01 be 7d 60 4b 3d
       -0.13456759 0.22428022 -0.12665911 0.049652565
000140 08 4e 3f be 3e ce 2d 3e d6 e0 08 3f 05 88 a1 be
       -0.1868211 0.16973206 0.5346807 -0.31549087
000150 b3 de e8 3e 93 4e 08 be b9 67 06 3e 56 74 20 bd
       0.45482406 -0.13311224 0.13125505 -0.039173447
000160 00 58 35 3e 66 4e 83 3d e1 03 87 be 6d 5a 70 be
       0.1770935 0.06411438 -0.26370147 -0.23471995
000170 5b a8 03 3f 9c ad 75 bc 4d 80 8d be 5a 8a 6c be
       0.51428765 -0.014995005 -0.27636948 -0.23099652
000180 0b 69 52 bd 8d 50 90 be a6 09 02 3d 79 9f 16 bd
       -0.051369708 -0.28186455 0.031747483 -0.03677318
000190 12 4e 0b be 8d 09 5a 3e 92 a0 be be 25 7d 15 3d
       -0.13604 0.21292706 -0.3723188 0.0364963
0001a0 33 6b 19 bf 63 92 8d 3d 89 5d 34 bd 56 a0 0f be
       -0.599292 0.06912687 -0.044034515 -0.14026007
0001b0 2a 0b 03 bf 03 4b c9 be 46 da 69 3d c8 88 ea 3d
       -0.5118891 -0.39315042 0.057092927 0.1145187
0001c0 fb 7f c8 3d 96 f6 77 bf 38 0d 13 be 28 79 08 bf
       0.09790035 -0.96860635 -0.14360511 -0.5330987
0001d0 19 2a 9f 3e e0 bb ca bd 94 89 0a 3e f3 6d 26 3e
       0.31086805 -0.098991156 0.13529044 0.1625288
0001e0 70 3b 87 3d f5 09 3c 3e 79 81 de bd 05 df 27 3e
       0.06603134 0.18363173 -0.10864539 0.16393669
0001f0 c5 aa d5 3c 14 bd 8c be 6a 88 5b bd f5 7a a4 3e
       0.026082406 -0.27488005 -0.05359689 0.3212506
000200 6b b6 9e bd ed 29 81 be e9 00 aa be 10 13 fd bb
       -0.07749637 -0.252273 -0.3320382 -0.0077232197
000210 42 ae ed bd a1 a7 84 be 91 ae e3 bc 59 03 4d be
       -0.11605503 -0.2590914 -0.0277932 -0.20020808
000220 24 14 6e bc 62 28 51 3d cb 67 41 3e 56 36 70 be
       -0.014531169 0.051063903 0.1888725 -0.23458228
000230 7b 8d c5 bd d1 26 1d 3c bb 06 97 bd a5 eb 0a 3f
       -0.09646126 0.009591774 -0.073743306 0.54265815
000240 04 65 d4 3d 61 51 14 bd b0 77 7d bd 26 33 14 3e
       0.1037083 -0.03621042 -0.06188172 0.14472637
000250 ba f8 73 3e e9 1d 92 bc f9 f6 01 3e 8a 0b aa 3d
       0.2382535 -0.017836528 0.12691869 0.08302982
000260 66 83 3e be e0 e0 f6 be a1 97 7f 3e 2b c9 0f bd
       -0.18604812 -0.4821844 0.24960186 -0.035103958
000270 84 fb 74 3a 9d 9a 8f 3d 6c b0 1a be 02 85 53 be
       0.000934534 0.07011912 -0.15106362 -0.20656207
000280 32 63 0b be 98 ee 11 be 8f bc af bd 4c 93 f8 be
       -0.13612059 -0.14251173 -0.085808866 -0.4854988
000290 ae cd d1 be c0 8b 0c 3e 45 c0 5d bc b5 ef 72 be
       -0.40977234 0.13725185 -0.01353461 -0.23724253
0002a0 c6 1e 16 bf e5 f4 88 3e 18 09 49 3d 17 cb 2e be
       -0.58640707 0.2674934 0.049080938 -0.1706966
0002b0 5a d1 84 be c7 d2 a9 bd de 89 43 bc 7b 5d 5f bf
       -0.25940973 -0.08292156 -0.011934726 -0.87252015
0002c0 3d 18 80 bd 13 4c 0c 3d 8c 03 aa be 97 e6 82 3e
       -0.06254623 0.034252238 -0.3320583 0.2556655
0002d0 de 31 b8 be db 4c 1d 3d 2e db 02 3c 7d dd f4 3e
       -0.35975546 0.038403373 0.007986827 0.47825232
0002e0 3f d0 ae bd d8 c9 1b be 3d d0 c6 be fd d4 1a be
       -0.085358135 -0.15213716 -0.38830748 -0.15120311
0002f0 b7 29 85 be 3d 8c c6 be 60 17 34 bf 45 8a 3f 3e
       -0.26008388 -0.38778868 -0.7034817 0.1870509
000300 5c fc 71 3e e0 41 b8 be d2 2a c4 bd e8 d0 1e bf
       0.23631424 -0.3598776 -0.0957848 -0.62037516
000310 71 16 c5 3d 06 f0 07 bf f5 f3 27 3c 39 d8 18 3e
       0.09623421 -0.5310062 0.010251035 0.14926232
000320 75 5d 1f 3e 86 1c b4 bd ec 97 8f bb 6b 93 b7 be
       0.15562995 -0.08794503 -0.004382124 -0.35854658
000330 ee de ba be a3 9f 33 be fc 25 1d be 13 d1 a2 be
       -0.36498207 -0.17541365 -0.15346521 -0.31800136
000340 51 6c 20 be 30 e2 a6 3e 95 83 b9 bd 18 e4 55 be
       -0.1566632 0.32594442 -0.090583004 -0.20887792
000350 57 f2 95 be 78 5f 51 bc c0 b9 e5 be 44 d5 82 be
       -0.29286453 -0.012779109 -0.44868279 -0.25553334
000360 4c 4d b2 3e 35 d8 20 bc b0 3d b3 bb bb 86 cb be
       0.34824598 -0.009817173 -0.00547 -0.3975123
000370 c1 11 a5 bd 33 d1 dc be 70 56 f3 bc 52 9e cc be
       -0.08060027 -0.43128356 -0.029704303 -0.3996454
000380 74 e4 82 be 85 0a ae 3d 67 24 92 3e 09 f3 55 3d
       -0.2556492 0.084981 0.28543398 0.05223373
000390 1e 40 01 be d8 38 44 3d 59 e7 59 be 56 e9 6b be
       -0.12622115 0.047905773 -0.21279658 -0.2303823
0003a0 fc b8 05 bf a1 40 f8 3d 3c f6 6e bd d2 10 e1 bc
       -0.5223539 0.12121702 -0.058340296 -0.02747384
0003b0 6d d0 1d be 4a b5 87 3d 68 c2 85 bf 12 c6 7f bf
       -0.1541154 0.06626375 -1.0449953 -0.99911606
0003c0 7d 7f 3c 3d 63 c0 ad 3d 07 78 a1 be 7c 2d b5 3f
       0.04602002 0.084839605 -0.31536886 1.4154506
0003d0 e8 6a bf 3d 5b 68 4e 3d ad d6 5b 3c 25 54 cd 3d
       0.093465626 0.05039249 0.013417882 0.10025815
0003e0 80 76 c5 be 35 b6 d4 bb 46 48 c3 be b0 31 4f be
       -0.3856697 -0.0064914473 -0.38141078 -0.20233798
0003f0 d2 64 4d 3e 30 f7 92 3e 6f 71 07 3e 18 4f 14 be
       0.20057991 0.28704214 0.13226865 -0.14483297

l2/W f4 [256, 256]
000000 b1 60 40 3e aa d5 a3 3d 65 75 80 bd 49 b7 04 be
       0.18786885 0.079997376 -0.06272391 -0.12960543
000010 10 b7 30 3d b0 ff ca be 2b e5 48 3d 19 b8 c0 3d
       0.043143332 -0.396482 0.049046677 0.09410114
000020 f4 f9 51 bd 8a c7 83 3d 8e fa 92 bd 89 19 d0 bd
       -0.051263765 0.064345434 -0.07176696 -0.101611204
000030 33 af 54 bb ce c9 38 3d 7c d0 4b 3d 03 96 bb bd
       -0.003245306 0.04511433 0.049759373 -0.09159472
000040 07 33 35 3d 11 3b 00 be 04 43 de 3d b3 18 35 3d
       0.044238117 -0.12522532 0.10852626 0.044213008
000050 b4 24 2f 3d 7c bf 9f 3d c3 e6 b5 3d 49 f4 46 3d
       0.042759612 0.078001946 0.08881905 0.048572812
000060 d3 a2 79 3c 23 00 9e 3d a3 24 c2 3d a8 9b cb bd
       0.015236574 0.0771487 0.09479644 -0.099417984
000070 b3 ae be 3d 58 3b 4b 3e 8f 00 0a 3e b8 4d 81 3d
       0.09310665 0.19846857 0.13476776 0.06313652
000080 35 33 ef 3c eb 66 e6 3c c8 b6 85 3d 16 b9 98 bd
       0.029199222 0.028125247 0.065290034 -0.07457177
000090 4d 71 9c 3d 0c af c6 3d 6a 01 0f 3e 4c 7e 2b 3e
       0.07638798 0.09701356 0.13965383 0.16747397
0000a0 9c 19 fe bb 1b ab a3 bd 88 34 5e bc 2d da 33 bb
       -0.0077545177 -0.0799162 -0.013562329 -0.0027443275
0000b0 39 0d 2e 3e 11 aa 97 3d 3e 4b b1 3d 73 91 35 3d
       0.16997232 0.074054845 0.086569294 0.044328164
0000c0 4e 1b 70 bd 73 af d7 bd 8b ed 31 bd 75 73 c8 3d
       -0.05861979 -0.10531511 -0.04343943 0.09787647
0000d0 e1 2a 57 bc 1a d5 06 3c 73 37 23 b9 4c 21 d8 ba
       -0.013132782 0.008229518 -0.00015565548 -0.0016489415
0000e0 35 2a e6 bc e4 3a f7 bc 86 d6 df bc c6 58 5a bd
       -0.028096298 -0.030179448 -0.027323972 -0.053307317
0000f0 1c 8c 4f 3d 30 ea ff 3d fa 8b c7 3d 67 f2 51 3d
       0.050670728 0.124958396 0.09743495 0.051256564
000100 0a ef b4 3b 16 ac e4 3d d2 04 9b bc 53 ca 05 3e
       0.0055216597 0.11165635 -0.018923197 0.13065462
000110 12 1a 2f bc 74 81 b9 bd d6 5e f7 3c e0 9a 01 3e
       -0.010687368 -0.09057894 0.030196588 0.12656736
000120 67 3c c6 3d 3e 2c 79 bd b3 c0 58 bd 5b ef 6b bc
       0.096794896 -0.06083321 -0.052918147 -0.0144003285
000130 28 28 92 3d 9f a5 1c 3e 35 aa 7d bd 62 2a 9f 3d
       0.071365654 0.15297554 -0.0619299 0.07771756
000140 d0 96 91 bd 1a 7b cb 3d f5 fe a0 bd 6e 17 5e 3d
       -0.07108843 0.09935589 -0.07861129 0.054221563
000150 a9 b2 2a 3e 5d fe 25 3e f3 b9 04 3e 77 9e ac 3d
       0.16669716 0.16210313 0.12961559 0.08428662
000160 f0 30 4a 3d 05 41 9c bc 63 f8 da bd 6c cc 81 3e
       0.049363077 -0.019073972 -0.10691907 0.25351274
000170 c3 c0 94 3b f2 15 29 3d 64 21 5e bc 3a 9c f5 3b
       0.0045395806 0.041280694 -0.013557766 0.0074954303
000180 53 c7 6d bd f0 da 8a 3c 5e 8f 07 3e 44 da 85 be
       -0.05805142 0.0169501 0.13238284 -0.26143086
000190 f6 dc 0c 3e 49 46 20 3e 1c 2e 03 be e2 5a 17 3e
       0.13756165 0.15651812 -0.12810558 0.14780763
0001a0 8a 16 dd 3d 37 12 e5 3d 1a 76 15 bd 39 b2 2c 3c
       0.107953146 0.11185115 -0.036489584 0.0105405385
0001b0 0f d5 36 ba 86 98 ae 3d e1 19 2e 3d 31 74 c3 3b
       -0.0006974497 0.08525185 0.04250515 0.005964779
0001c0 bd 7d 3e 3d df 31 cf 3d c1 82 f2 3d 6b 5d f4 3c
       0.046506632 0.10116934 0.118413456 0.029829701
0001d0 1a e7 b2 3d 9b 30 72 3e 98 cb aa 3d d9 5c 8d bd
       0.087354854 0.23651354 0.08339614 -0.06902475
0001e0 cd de 22 3d c6 94 38 3e a2 8a 49 3a 9f 8a 2f bd
       0.03976326 0.18025503 0.00076881994 -0.04285681
0001f0 fe ff 6e bd 47 a9 a8 3d a2 48 bc bc bb 53 57 3d
       -0.058349602 0.08235412 -0.022983853 0.052570086
000200 35 fc 6c bc ed 47 c9 bd 11 86 17 be d5 8c d8 3d
       -0.014464428 -0.09828172 -0.14797236 0.105737366
000210 59 f8 34 bd 8b 04 cd 3d ba 66 51 3e 93 a3 53 bd
       -0.044182155 0.10010632 0.20449343 -0.05166967
000220 21 e4 e0 3c 61 89 9b bc a7 71 95 bc ea ec b0 3d
       0.02745253 -0.018986406 -0.01824267 0.08638938
000230 b7 f2 24 3a c2 01 5f 3e 82 d1 c4 bc c8 f4 2d be
       0.0006292271 0.21778014 -0.024025682 -0.16987908
000240 a7 96 d2 bc 9b df c7 3d 9d 9f 3b 3d 3e d8 b2 3c
       -0.025706602 0.09759446 0.045806516 0.021831628
000250 56 6a 1c be e5 81 8e bb 4d 83 b7 bc 5b 12 c3 3d
       -0.15274939 -0.0043489807 -0.022401476 0.095249854
000260 da 8c 65 bc 40 87 0e be d7 bd 5b 3d b9 2b 61 3d
       -0.014010632 -0.13918781 0.053647842 0.054973338
000270 13 c2 07 3d 61 4b 0b 3e 0b eb 90 3d 27 9f d1 3b
       0.033144068 0.13602974 0.07076081 0.0063971463
000280 d9 a4 c3 bd 1a 00 90 bd c4 5b 06 be 4f c1 20 bd
       -0.095529266 -0.07031269 -0.13120943 -0.039246853
000290 85 1d 15 bc 51 68 7a 3d da 9d 88 3d b0 97 9a 3d
       -0.009101276 0.06113464 0.06670733 0.07548463
0002a0 05 d5 ba 3d f4 b9 2e 3d 3f 0a 05 be 44 f5 0c 3d
       0.091226615 0.042657807 -0.1299219 0.03441359
0002b0 e4 10 d6 bc 67 c4 28 bd 9c 33 63 3d 78 1a dd 3c
       -0.026131101 -0.04120293 0.05546914 0.02699016
0002c0 b4 78 31 3d 33 f1 fc bd 6e 69 2a 3e 54 89 91 bd
       0.043328002 -0.123506926 0.1664178 -0.071062714
0002d0 4f 7f fe 3c 76 5e 7c bc 31 2e 74 bd dc 0c 92 3d
       0.031066565 -0.015403381 -0.059614364 0.07131359
0002e0 fd 05 f0 bd e7 34 fb bd d4 fc 2e bc 11 86 87 bd
       -0.11719892 -0.1226595 -0.010680396 -0.06617368
0002f0 f3 fb a6 3c 0e d5 e3 bd 29 0a bf bd 91 04 18 3e
       0.02038381 -0.11124621 -0.0932811 0.14845492
000300 96 4b 2b bb 5e f0 83 3b d9 1c 1c 3c 4d 73 04 be
       -0.0026137582 0.0040264567 0.009528362 -0.12934609
000310 d1 fd f0 bd 80 7c 85 bd da 3b bc bd e0 cf 4a bd
       -0.11767162 -0.06517887 -0.09191103 -0.04951465
000320 07 b7 45 bc 4a d6 d4 bd 77 ec 00 3b b0 bc 9d bd
       -0.012067563 -0.10392435 0.0019672194 -0.07702005
000330 9a 2e 8d 3d e2 30 11 be 90 cf 80 bd 8e 84 e5 3d
       0.06893654 -0.14178804 -0.062895894 0.112069234
000340 8a 79 06 be b8 e6 09 bc 8c 3e 9a 3d 90 f2 89 3d
       -0.13132301 -0.008416824 0.07531461 0.06735718
000350 5f 7f d1 3b 96 a2 dc bd 2e 37 21 3c 7b db 1a 3c
       0.0063933576 -0.10773198 0.009839816 0.009451742
000360 7d 0f 7d bc 88 e2 3b be 5c 4f d8 3c 04 7d 28 be
       -0.015445587 -0.18348134 0.026405029 -0.1645394
000370 11 db 67 3d a7 83 d0 3d dc 9b 16 3d 73 46 11 3d
       0.056605402 0.10181361 0.036769733 0.035467576
000380 44 77 f7 bc 7a 62 3f 3e 95 ca 6c bd a7 b7 e3 bd
       -0.030208237 0.1868991 -0.057810385 -0.11119013
000390 fa 65 16 be 56 21 5c bd d2 ab 13 3e c1 b8 3b 3b
       -0.14687338 -0.05374273 0.14421013 0.0028644057
0003a0 b0 2a 1c bc c7 b3 94 3d a0 68 46 3e e1 2d aa bd
       -0.009531662 0.07260852 0.19375849 -0.08309532
0003b0 fd 72 91 3d 4a 37 ac 3d b4 9a ae 3d 85 64 ad bc
       0.071020104 0.08408983 0.08525601 -0.021166096
0003c0 7f 6f 1a 3d a1 7a b0 39 1d be fe 3c 64 00 40 3e
       0.037703987 0.00033660702 0.031096512 0.18750149
0003d0 41 79 12 3e 15 b3 c5 bd e1 3e 1f bd af 2a 1d 3d
       0.14304067 -0.09653298 -0.038878325 0.038370784
0003e0 91 80 03 3e c2 41 bb 3d b5 6a 24 be 73 ad 47 bd
       0.12842013 0.09143402 -0.1605633 -0.0487494
0003f0 2e 3a c4 3c 67 c6 62 3c 75 ae cc 3d 90 f2 de 3d
       0.023953523 0.013841248 0.099942125 0.10886109

l1/b f4 [256]
000000 19 58 44 be 1e 5b 0f be fc e4 15 3d 7b 57 80 be
       -0.19174232 -0.13999602 0.03659533 -0.25066742
000010 b4 31 8c be 84 68 0a 40 9f 02 89 be 2f eb 68 bc
       -0.2738167 2.1626291 -0.26759812 -0.014216228
000020 c4 12 9d be 48 d9 cd be 3d f8 5b 3e 33 ad c5 bd
       -0.3067838 -0.40204835 0.21481414 -0.09652176
000030 22 76 4c bf a4 7e 00 3d 8c 76 fe be 1f 60 0e 3e
       -0.79867756 0.031370774 -0.4969982 0.13903855
000040 5e bf 33 bf 08 dc b7 bd 5f bd 54 bd 69 c0 50 bf
       -0.7021388 -0.089775145 -0.05193841 -0.81543595
000050 ba d9 e0 bd d0 97 b8 bd b7 54 95 bc 68 c3 b9 bc
       -0.10979028 -0.09013331 -0.018228872 -0.022676185
000060 e8 f3 9d be aa 3f 83 be f7 e6 ee be a0 a0 44 3d
       -0.30850148 -0.2563451 -0.46660587 0.048004746
000070 ab 8f 43 3e 58 e8 36 be 38 08 cd bc 58 95 c3 3c
       0.19097774 -0.1786207 -0.025028333 0.023874924
000080 d1 11 a2 be 01 45 8e be ce ce 8e be 94 5f dc bb
       -0.31654218 -0.2778702 -0.27892154 -0.006725261
000090 5b 9a 07 3d 42 32 f9 bd ad 74 73 3d 58 e5 3c 3e
       0.03310619 -0.12167789 0.059437443 0.18446863
0000a0 15 de a3 bd 25 58 04 3f 74 67 28 3c e5 36 62 be
       -0.08001343 0.51697 0.010278571 -0.22091253
0000b0 b5 06 f9 bd 4c 72 1c bf 49 92 aa bd 9e 0a a9 be
       -0.121594824 -0.61111903 -0.08328683 -0.33015913
0000c0 ba 3e a4 3e dc fc 52 3d a4 c1 50 bf 2c 34 4f be
       0.32079107 0.051510677 -0.8154547 -0.20234746
0000d0 86 0b 95 be d2 31 34 bf 48 b3 b7 be 80 d5 38 3a
       -0.29110354 -0.7038852 -0.35878968 0.0007050857
0000e0 c2 68 8b bf 31 61 82 3d e3 ec b6 be 61 e4 fd 3b
       -1.0891345 0.06366194 -0.35727605 0.007748172
0000f0 3f 35 b6 3e 1f e3 23 be 2d 76 b4 bf e2 23 15 be
       0.355875 -0.16004609 -1.4098564 -0.1456447
000100 db 61 e7 be 76 fb 17 bf 1b ff 83 be 0c bf 49 3d
       -0.45191845 -0.59368074 -0.25780568 0.049254462
000110 e3 d4 a1 3d cb 69 b3 bc 09 41 b1 be cf 3f 88 bd
       0.07901933 -0.021901032 -0.3461993 -0.066527955
000120 c7 1c 78 be 40 02 f2 3d c7 10 ab bc c7 fd 38 3f
       -0.24229728 0.118168354 -0.020882023 0.72262233
000130 22 70 40 bd b3 2f 84 be 53 87 ee 3c 63 15 fc 3d
       -0.04698194 -0.25817642 0.029117262 0.12308767
000140 66 36 21 3d 07 71 b4 bf fa 9a 19 bd 51 aa 0c bd
       0.03935852 -1.4096993 -0.037501313 -0.034342114
000150 ed de 7c be 71 c6 5c bf a0 80 0a 3f 93 3e 00 bf
       -0.24694414 -0.862403 0.54102516 -0.5009548
000160 7c 93 9c 3c 96 04 31 3f 52 bc 0c bd 8a 68 c3 bd
       0.019113295 0.6914762 -0.034359284 -0.095414236
000170 bb 8b ce 3d 71 07 0a be 94 26 8f 3e a9 a4 19 bf
       0.10085245 -0.13479401 0.2795912 -0.60016876
000180 1d 0f 6f 3b 43 e8 7e be 67 2c 7e 3f 85 cf a8 bb
       0.0036477514 -0.24893288 0.992865 -0.0051516914
000190 8e 84 80 3e 4f 0f 05 bf 07 5d f9 bd a1 ee 00 bf
       0.2510113 -0.51976484 -0.12175947 -0.5036412
0001a0 6b 7f 42 be d2 f4 b9 3c 98 85 71 3b 51 a3 eb be
       -0.18993919 0.022699747 0.003685331 -0.46023038
0001b0 a4 e6 af 3c 25 02 ea be 7f 5d ad be 45 ca 25 bf
       0.021472283 -0.4570476 -0.33860394 -0.64761764
0001c0 62 6a cc bd 7a e4 6d bd c9 0b e3 be a0 7f 2d bc
       -0.099812284 -0.05807922 -0.4434493 -0.01058951
0001d0 c7 d2 b5 3c e8 a8 98 bf 9f 13 69 3c fb 02 d4 bd
       0.022195233 -1.1926546 0.014225869 -0.10352131
0001e0 20 9b f5 be 9d e6 dd be 3d 2a a3 3d ca 3d de 3d
       -0.47969913 -0.43340006 0.07967041 0.10851629
0001f0 f2 b5 23 be 81 96 8d bd aa ea 93 be 30 5d 21 bf
       -0.15987375 -0.06913472 -0.28889972 -0.6303282
000200 fe ee a0 be 5b 46 2c 3c 63 37 3f 3f 53 47 1f be
       -0.31432337 0.010514821 0.7469389 -0.15554552
000210 e9 34 8b be a5 f2 0d bf 86 78 3d be bc ae 88 bd
       -0.27188805 -0.5544837 -0.18503007 -0.06673953
000220 b8 2e 5d bf 88 12 9a 3d 3b 3d af 3d cb c7 ce 3c
       -0.8639941 0.07523066 0.08556601 0.025241753
000230 5b 2c 57 bf 4b 54 82 be 6e 2c be 3d fd 03 05 bf
       -0.84052056 -0.25454935 0.09285818 -0.5195921
000240 60 82 91 3c f7 df 97 bd 57 39 e2 be c7 fc 76 be
       0.017762363 -0.07415765 -0.44184372 -0.24119864
000250 22 14 e3 be ba c2 dc bd 20 e5 13 be 6b 1e 08 bf
       -0.44351298 -0.10779329 -0.14442873 -0.53171414
000260 ba 86 30 bd 0b 61 c1 3c d1 b3 1a 3e ff 6e 6c be
       -0.043097235 0.023605844 0.15107657 -0.23089217
000270 9e 6d b3 be 31 65 2c 3e 68 47 89 3e 92 19 80 be
       -0.3504457 0.16835476 0.2681229 -0.2501951
000280 7c ee a0 3d d6 5a ad 3c 16 77 02 be 17 87 ec be
       0.07857987 0.021161478 -0.1274074 -0.46196815
000290 10 d9 13 be e2 7f 7c bc 5c d9 96 3e 2a 88 0e be
       -0.14438272 -0.015411349 0.29462707 -0.1391913
0002a0 bc 2f 0d bf 6a bc b9 3f 56 0a e9 3e 7e 46 1a bd
       -0.5515096 1.4510624 0.45515698 -0.037664883
0002b0 55 28 7b 3e 11 74 49 bc 39 da e4 3c b2 9d 13 3d
       0.24527104 -0.012295739 0.027936088 0.03603906
0002c0 f4 c8 bb bb ef 45 3a bf c2 d5 b9 be 80 90 67 be
       -0.0057307426 -0.7276296 -0.36295897 -0.22613716
0002d0 29 07 31 3a 6d 32 4f be d7 fe 8f be 4b 33 d7 3c
       0.0006753081 -0.2023408 -0.28124115 0.026269576
0002e0 00 b6 04 bf 0e ef 9b be a0 a8 51 bf 0c 37 82 be
       -0.5184021 -0.30455822 -0.81897926 -0.25432622
0002f0 b0 85 97 be ed 8e ef bc 39 32 26 3d ce 1c 51 be
       -0.29594183 -0.029242957 0.04057524 -0.20421144
000300 6f 24 53 be da 07 e5 3d 4b 18 6e bc a5 f3 fc be
       -0.20619367 0.11183138 -0.014532159 -0.49404636
000310 a1 bc c9 bd c5 1c 19 be 98 45 6c bd 99 a3 2c bf
       -0.09850431 -0.14952381 -0.057683557 -0.6743713
000320 8a f3 1b be 49 05 91 bd 3d 70 f1 3c e9 58 00 3e
       -0.15229622 -0.07081086 0.029472465 0.12533917
000330 d4 b8 d0 3c d0 78 7d bd 5c 5c af bc 7c 26 4d be
       0.025478758 -0.061882794 -0.021406345 -0.20034212
000340 ef 3c ae 3d 13 d8 23 bf 16 65 33 3f ea 2c 95 be
       0.08507716 -0.6400158 0.7007612 -0.2913583
000350 f7 4b 41 bf e2 7b e9 3d 45 10 eb be e6 7d 4b 3d
       -0.7550654 0.11400582 -0.4591085 0.049680613
000360 62 b6 b7 be 7c 79 e3 bc 72 e6 ff be 92 4b 1c bf
       -0.35881335 -0.02776789 -0.49980503 -0.6105281
000370 5b 7c 0f bf e3 67 cd bd cd 05 cf be b4 98 b5 bc
       -0.56049126 -0.100295804 -0.40434113 -0.022167541
000380 23 5d ed be 46 3e 90 3d 8d 28 3a be 89 bd de bd
       -0.4636012 0.07043128 -0.18179531 -0.10875995
000390 ea 52 2b bd 19 01 15 be 1f ff cc bd 99 77 cd bd
       -0.04182712 -0.145512 -0.10009598 -0.10032577
0003a0 62 57 a6 be 54 83 49 3d 93 3f df bd 1d e9 1e 3e
       -0.32488543 0.04919751 -0.10900798 0.15518613
0003b0 fc 19 a6 3d ab 63 a1 bf 4b e6 b1 be f8 54 18 bb
       0.08110425 -1.2608541 -0.34746012 -0.0023244005
0003c0 6e a0 e4 be e0 64 a2 bd b3 ed 92 bd b3 b6 36 bf
       -0.44653648 -0.07929397 -0.07174244 -0.71372527
0003d0 b2 8f c9 3d 85 f1 59 be f8 f5 54 3f 4b 86 9b 3e
       0.09841861 -0.21283539 0.8318782 0.30375895
0003e0 a1 8d d6 3d 36 72 ca 3d c4 02 30 bf fa 02 4c bf
       0.10476232 0.09885065 -0.6875422 -0.7969204
0003f0 47 45 e1 bd 11 51 b3 be e4 de 39 3f f7 e5 f0 3d
       -0.10999542 -0.35022786 0.7260573 0.11762612

l1/W f4 [256, 36]
000000 0c 7a b5 3e 45 ec e1 be d6 c9 50 be d1 8f 06 3d
       0.35444677 -0.44125572 -0.20389494 0.032851998
000010 5e 16 24 be f0 a2 c7 3e 6e 61 a6 bd c2 e4 bc 3d
       -0.16024157 0.389915 -0.08124052 0.092233196
000020 05 a0 a0 3d a7 f6 02 3f ff dd 75 bd 74 95 91 be
       0.07843021 0.5115761 -0.060026165 -0.28434336
000030 b0 2f d2 3d 9c 2a 46 3e 45 c3 70 3e eb a5 f6 bd
       0.10263002 0.19352192 0.2351199 -0.12043365
000040 46 04 6c 3e 93 08 89 3e 44 ad 0d bf dc 84 23 bf
       0.23048505 0.26764354 -0.5534251 -0.638746
000050 69 12 93 3e ca 03 a4 bd b5 50 a3 be c9 b9 31 bd
       0.28724983 -0.08008535 -0.31897512 -0.04339007
000060 db 05 c8 3e 22 5a d6 3e d7 c1 1b be 72 30 fc bc
       0.39066967 0.4186564 -0.15210663 -0.03078482
000070 5a f3 14 bf 14 54 74 3d b4 17 47 3e 14 02 b5 3e
       -0.58183825 0.059650496 0.19442636 0.35353148
000080 d9 d4 be 3d 46 d3 b5 be 2f f3 30 be b3 bd 74 bd
       0.09317941 -0.3551275 -0.17280267 -0.059751224
000090 de c5 d8 bd fe 68 97 be e6 ef 46 be eb 33 0a 3d
       -0.10584615 -0.2957229 -0.19427451 0.03374092
0000a0 73 ce 09 3e d8 0f a3 3e b1 94 04 be c8 58 ae 3e
       0.1345766 0.31848025 -0.12947346 0.3405211
0000b0 35 67 12 3f 56 28 34 bd b4 d3 26 bd 45 0a aa be
       0.5718873 -0.04398378 -0.04072924 -0.3321096
0000c0 19 7c 97 bd 49 fa 38 3f e2 78 73 bd 83 1f a8 bd
       -0.073967166 0.72256905 -0.059441455 -0.082091354
0000d0 07 56 eb bd 17 23 c0 3d 8b 38 ae be ed ff a9 be
       -0.11491018 0.09381693 -0.34027514 -0.33203068
0000e0 25 b2 72 be cb e1 30 3e b2 5b 19 be ab 4e ca 3d
       -0.23700769 0.17273633 -0.14976385 0.09878286
0000f0 a1 4c 24 bd 29 ce f0 be 8d f0 0e be a9 2f cf be
       -0.04011214 -0.47032288 -0.1395895 -0.4046605
000100 97 94 05 bd ba ab ab 3e bc 33 8f 3e 3d 93 8b 3e
       -0.03261241 0.33529454 0.27969158 0.2726077
000110 f7 89 e6 bd c0 1a 05 3f b7 d9 1e 3e cc 78 80 be
       -0.112567835 0.5199394 0.15512739 -0.2509216
000120 e2 35 d5 3e 6d 0b 1b be f2 56 cf 3d 1b ea d2 3d
       0.41642672 -0.15141077 0.101240054 0.10298558
000130 02 2a d9 bd 28 48 5d bd 06 e3 c8 be 26 2f 85 bd
       -0.106037155 -0.05402389 -0.39235705 -0.065031335
000140 08 79 81 be 8d 25 20 3e 01 fe f6 3e 97 11 a4 bd
       -0.25287652 0.15639324 0.48240665 -0.080111675
000150 cb 0b 15 be be 07 35 bc 23 d4 53 bd 23 02 b0 3d
       -0.1455528 -0.011049209 -0.05171598 0.085941575
000160 02 4c 0c bd 5c ca 08 bf 64 ad a6 bc 8d 1e f4 3d
       -0.034252174 -0.53433776 -0.020346351 0.119198896
000170 cf 94 df be fa 5e 30 be fa 4b 7f 3e bb d5 d3 be
       -0.4366822 -0.1722373 0.24931327 -0.41374
000180 83 63 3c be d9 a0 73 be 08 95 e1 3a 31 7d 92 3d
       -0.18397336 -0.23791827 0.0017210552 0.071527846
000190 d3 05 8b 3e 8a db cb be ff e0 76 3c 52 d9 8f bd
       0.2715288 -0.39815933 0.015068292 -0.070238724
0001a0 cd da 87 3e b2 c8 88 be 41 f9 38 be d8 d7 95 be
       0.2653412 -0.26715618 -0.18063833 -0.29266238
0001b0 5f d2 3a 3e 2e 62 fc bd f5 b2 9d 3d b9 63 ab 3e
       0.18244313 -0.12323414 0.07700149 0.3347452
0001c0 89 ef 9b bd 13 28 1a bd 2c c7 08 bf 0d 7a c9 bd
       -0.07614047 -0.037635874 -0.5342891 -0.098377325
0001d0 96 b9 ba 3e fa 6f 5d 3e e5 b3 d3 3e e0 f6 72 bd
       0.36469716 0.21624747 0.41348186 -0.05931747
0001e0 21 a9 11 bf a8 4e 1c 3f 93 a9 ce 3c 17 c7 8f 3e
       -0.56898695 0.6105752 0.025227344 0.2808158
0001f0 9e f2 de bb 6a ef 5f be a1 58 b8 be e6 2c cf 3d
       -0.0068038246 -0.21868673 -0.36005118 0.101159856
000200 4f f3 36 3d 8f 56 d2 be b0 31 6b be ca ab 92 3e
       0.04466563 -0.41081664 -0.22968173 0.2864669
000210 50 8c 96 be 6c 4c 12 3e ee 98 d2 bc ef 37 85 3e
       -0.29403925 0.14286965 -0.025707688 0.26019236
000220 87 61 87 be 3f ce ea 3e f5 e2 82 be c6 53 86 bc
       -0.26441595 0.45860478 -0.2556378 -0.016397368
000230 da af 4b 3c 87 d5 0f be 69 62 e7 bd d9 e1 16 be
       0.012432063 -0.14046298 -0.11298067 -0.14734592
000240 d2 de 80 3e cc 02 0e be 3b 9f ab 3e cd 27 ed 3e
       0.25169998 -0.13868254 0.3351992 0.46319428
000250 95 28 93 3e 13 4b de 3c 21 80 6a be 26 7d 9a be
       0.287419 0.027135408 -0.2290044 -0.30173606
000260 85 a8 14 3e b9 31 90 3d 7b 2d 9e bc 05 d0 e6 3d
       0.1451741 0.07040734 -0.019308796 0.11270145
000270 3b 92 03 3e 23 6d 37 3e 71 97 75 be 21 b8 9a be
       0.12848751 0.17912726 -0.23983552 -0.30218604
000280 a2 95 a3 be 66 08 a9 3e 60 be 46 3e 8b 94 8d be
       -0.31950098 0.3301422 0.1940856 -0.27652392
000290 1a 83 44 3c da 7f 1b bf 60 ee 97 3e ce 33 2c be
       0.011994148 -0.6074196 0.29674053 -0.16816637
0002a0 22 06 ba bc 46 90 27 3e 60 b9 a7 3e 3f 3f 29 bd
       -0.022708002 0.1636363 0.32758617 -0.04132008
0002b0 8c f3 57 be 8c 98 0f 3a 23 82 33 3e 45 b0 1e be
       -0.21089 0.00054777483 0.17530112 -0.15496929
0002c0 7e c6 fb bd 9f 4d d1 be 80 9c 75 be e1 d4 04 3f
       -0.12293719 -0.40879533 -0.23985481 0.5188733
0002d0 aa 44 a1 bc 52 e5 00 be a1 68 5b 3e a1 e0 d9 bd
       -0.019686062 -0.12587479 0.21426632 -0.10638548
0002e0 a0 ed 16 be a0 bc 68 bd 2b b4 cd 3c 28 e7 e8 bd
       -0.14739084 -0.05682051 0.025110325 -0.113722146
0002f0 31 e8 b5 be 2b 04 51 3d 4d f1 59 3e a7 1b 43 3e
       -0.3552871 0.051029366 0.21283455 0.19053517
000300 5b a0 07 bd 8e c7 9a bd 58 94 89 3c 99 eb 0d 3e
       -0.03311191 -0.07557593 0.016794369 0.13859405
000310 2b a8 52 be 1c b6 c2 bd be e0 e8 bd a3 6a 3f 3e
       -0.20571963 -0.09507391 -0.11370991 0.18693022
000320 51 f6 48 3e 95 0c f9 bc 06 02 a5 bd 8c 92 b2 bd
       0.19625212 -0.030401507 -0.080570266 -0.08719358
000330 da d7 6c 3d a7 ff 04 bd b7 79 72 3d 7e ee 1f be
       0.05782304 -0.03247037 0.059198108 -0.15618321
000340 1b 97 82 be 07 6d 0e 3e 5b 00 11 3d be f5 87 bd
       -0.2550591 0.13908778 0.03540073 -0.066386685
000350 f2 0c c1 3d f8 28 23 3d 14 80 28 3d 60 05 81 3d
       0.09426297 0.039833993 0.04113777 0.06299853
000360 0a 7f e4 bd e6 d2 99 bd 04 59 23 3f e2 99 8e be
       -0.11157043 -0.07510929 0.638077 -0.27851778
000370 9b 06 9f 3c 37 80 ef 3e ed 2c 21 3c 93 d5 93 bc
       0.01941233 0.46777508 0.009837371 -0.018046176
000380 52 ad 6d be 1a 30 29 be 04 52 ad be a6 15 4c 3f
       -0.23210648 -0.16522256 -0.33851635 0.7972053
000390 b0 3a a1 3e e1 6b 42 3e 8d a0 bc bc bc 6b a2 bd
       0.31490088 0.18986465 -0.023025775 -0.07930705
0003a0 60 8d b2 3d c8 e3 9f be ef 83 a1 bd 2e 1c ee bd
       0.087183714 -0.3122847 -0.078864925 -0.116264686
0003b0 ed 49 b2 3c 02 43 07 be 5f 11 5f 3d b6 04 61 3e
       0.021763766 -0.13209155 0.054459926 0.21974453
0003c0 96 56 6c be 15 31 06 3b 31 01 97 3e c9 68 a5 be
       -0.23079905 0.0020476033 0.29493096 -0.32306507
0003d0 0f 27 ec 3e 2c 8a a1 3d ee 31 01 bf fb 71 23 3e
       0.4612355 0.07887682 -0.5046681 0.15961449
0003e0 87 d3 cb be 39 41 93 be 2b d7 cd be f2 c7 a3 bc
       -0.3980982 -0.28760698 -0.40203223 -0.019992802
0003f0 8f f6 09 3e a9 70 99 3e 8d 2f 59 3e a0 52 f2 be
       0.13472961 0.29968765 0.21209545 -0.47328663

l4/b f4 [36]
000000 db 65 fa be ab 65 f4 be c3 0c ad be cc ca 1c bf
       -0.48905835 -0.47733817 -0.337988 -0.61246943
000010 ac 9f 1f bf fa e6 0a bf 8d b1 d6 be 3c cf e1 be
       -0.62353015 -0.5425869 -0.41932335 -0.4410342
000020 00 17 00 bf 75 7f 04 bf f2 76 c0 be 42 c4 d9 be
       -0.50035095 -0.51756984 -0.37590748 -0.42532545
000030 1d c6 12 bf 6a f7 d0 be a1 4f ec bd e0 33 c8 bd
       -0.57333547 -0.40813762 -0.115386255 -0.09775519
000040 dd b7 ee be e2 81 f6 be 98 c6 a6 be 05 85 f8 be
       -0.46624652 -0.48145968 -0.3257339 -0.48538986
000050 08 14 2c be 5a 1e 25 be 72 7f f8 be a0 a2 1f bf
       -0.16804516 -0.1612486 -0.48534733 -0.6235752
000060 be 9e 06 bf b9 da bf be ea 82 05 bf b1 13 e7 be
       -0.5258597 -0.3747156 -0.52152884 -0.4513221
000070 92 63 01 bf 03 00 14 bf 1e c2 f7 be 4a 99 e6 be
       -0.5054256 -0.5781252 -0.48390287 -0.45038825
000080 ff 5f b5 be 20 e3 df be 9b 73 0b bf 27 4c c7 be
       -0.35424802 -0.4372797 -0.54473275 -0.38925287

l4/W f4 [36, 256]
000000 17 9e 3c bd 32 0c f3 bd 84 2b 08 3d 59 54 0b bc
       -0.046049204 -0.118675604 0.033244625 -0.008503997
000010 3f 1e ad 3c 2c dc 87 3d e4 89 5d be 78 25 ac 3d
       0.021132587 0.06633791 -0.21634632 0.08405584
000020 a5 67 20 3d 2b 92 43 bd 33 ab 81 3d 7a 00 26 3e
       0.039161343 -0.04774682 0.06331482 0.1621112
000030 78 06 b7 3d 47 1d 0f 3d 4a 3b b5 3e 69 99 d0 bd
       0.08936781 0.03494003 0.35396796 -0.10185511
000040 6d b8 a3 3c 3c 09 c1 3d 7a 57 36 bd 20 7b 0f 3d
       0.019985402 0.094255894 -0.044517018 0.03502953
000050 2f 2c 85 3e 1e 60 01 3e ac dc aa 3d 3d 5b cb bd
       0.26010272 0.12634322 0.08342871 -0.09929512
000060 3f 27 a0 bd 98 0b 06 3e 53 c5 90 be 47 13 cf bc
       -0.078199856 0.1309036 -0.28275546 -0.025277747
000070 09 a2 ed bc a9 7b a5 3d 25 d3 32 be 2f a7 b9 3d
       -0.029007928 0.08080227 -0.17463358 0.09065091
000080 db 76 51 3d 17 86 e9 bc 98 cd e5 3c b0 89 35 be
       0.05113874 -0.028506322 0.028052136 -0.17728305
000090 2e 15 0e be 38 a4 1f 3d 13 e9 af bb ed 20 94 bb
       -0.13875267 0.03897497 -0.005368361 -0.0045205266
0000a0 16 ad fd bd 50 9d 00 be 1c 8c 2c 3e 39 e1 8b 3c
       -0.12386529 -0.1256001 0.16850322 0.017075168
0000b0 0d 13 42 ba 42 42 ad be 80 81 0a bc 9d f3 2b bd
       -0.00074033515 -0.33839613 -0.008453727 -0.041980375
0000c0 d1 9f e9 3d 5e 11 9e bd 98 b0 a0 be 51 a2 e4 bd
       0.11407436 -0.07718156 -0.3138473 -0.11163772
0000d0 68 63 00 bf e9 89 e4 3c 21 44 31 3e f4 d9 f9 bd
       -0.5015168 0.027897792 0.17311145 -0.121997744
0000e0 e3 1f 9d 3e f2 3f bd be 75 13 93 3d 06 77 de 3d
       0.3068839 -0.3696285 0.071814455 0.10862546
0000f0 96 d6 92 3c aa fd 6f bd ad d5 ea bd 06 2e eb 3c
       0.017924588 -0.058591522 -0.11466537 0.02870847
000100 f2 2e 86 be 72 2a 9b be 23 65 1e 3d 32 cf 9d 3d
       -0.2620769 -0.3030582 0.03867067 0.07705535
000110 2f 2f 1f be e1 e4 4d 3e 8a f6 61 3c 69 16 29 3d
       -0.15545343 0.20106842 0.01379169 0.041281138
000120 1a 3b 60 bc bb 36 ca be e5 65 8f 3b f1 f7 e2 3c
       -0.013685966 -0.3949488 0.0043761604 0.027706118
000130 c5 d1 29 3d a8 27 5c 3e 81 2d 5e 3e 81 9b 9a 3e
       0.041459817 0.21499503 0.21697046 0.30196765
000140 62 e3 fc be e7 3a 95 bc c7 6b b5 be b6 37 5b 3c
       -0.4939223 -0.018216563 -0.3543379 0.013379982
000150 66 2b f1 be 95 94 ea be fa c3 08 3e d1 9f 87 3c
       -0.47103423 -0.45816484 0.13356009 0.016555699
000160 ec f6 80 be be c6 75 bd 19 be 3e 3c b7 6e 8f bd
       -0.25188386 -0.06000399 0.0116420025 -0.07003539
000170 8b 2d b4 3c 65 e3 a4 bc 65 d4 66 3d 56 27 1e 3d
       0.021994373 -0.020127961 0.0563549 0.038611732
000180 e6 85 62 be 92 09 72 bd 92 1b 2e bc 5a 84 4f be
       -0.2212139 -0.05909116 -0.01062669 -0.20265332
000190 e5 70 15 be 66 44 9d 3e 85 c8 ab 3c ea 17 b4 3d
       -0.14593847 0.30716246 0.020969639 0.08793624
0001a0 70 6f 00 3e 50 66 22 bb f0 36 18 3e 20 98 20 be
       0.1254251 -0.0024780221 0.14864707 -0.15683031
0001b0 2c bc d6 be 1a f2 62 bd 06 79 12 be 5d eb 2a be
       -0.4194044 -0.055406667 -0.1430398 -0.16691346
0001c0 35 67 9c be d2 d5 b5 bc 62 d6 51 bd 6b 78 20 3a
       -0.3054749 -0.022196684 -0.051229842 0.00061214593
0001d0 54 e3 ea bd ac 11 52 3d fd 0b c9 be ab 44 7f 3d
       -0.11469141 0.051286384 -0.3926696 0.062321346
0001e0 77 93 6e bd c7 fc 1c 3e 43 5c 17 3d 04 4c b8 3c
       -0.058246102 0.15330802 0.036953222 0.022497185
0001f0 bb 35 c5 bd e1 27 08 3d 40 e8 21 3d f0 dd 8a be
       -0.09629389 0.033241156 0.03952813 -0.2712245
000200 18 70 a3 3d 08 cd 44 3e d5 84 c9 be e8 77 00 3c
       0.079803646 0.19218838 -0.39359155 0.007841088
000210 ec a3 fc bd da 27 09 bc 00 8a ef bd ce 99 14 3e
       -0.12335953 -0.008371318 -0.11696243 0.14511797
000220 a2 1a 8b bd c2 a5 c7 3d 97 47 00 3e 13 71 c8 bc
       -0.06792189 0.09748413 0.1252731 -0.02446798
000230 8f 89 b1 3d ce 36 42 be 45 cf 05 3d 3b 25 81 be
       0.08668815 -0.18966219 0.03266837 -0.25223717
000240 f4 e5 ab 3e 65 1d 08 be 5e 03 9a bd 27 93 09 3d
       0.33573878 -0.13292463 -0.075201735 0.0335876
000250 88 f6 84 3e 9b 6e 8c 3d 3b 77 19 3e eb ad 7c be
       0.25969338 0.06857034 0.14986889 -0.2467572
000260 04 95 9e bc e5 48 71 3b df 48 d4 3d 7d 82 04 bd
       -0.019358166 0.003681713 0.103654616 -0.032351006
000270 93 c7 ef bc 2c 90 fe 3d bb 20 89 bd 21 a3 b6 3d
       -0.02926997 0.12429842 -0.06695696 0.08917833
000280 90 c5 3e 3d 55 f4 29 be d3 17 1e be d2 42 7f bd
       0.04657513 -0.16597112 -0.15438776 -0.062319584
000290 7d 5f aa bc 19 b0 a4 3d cd 63 47 3d 1c a3 9c 3e
       -0.020797485 0.080414005 0.04867916 0.30593193
0002a0 63 14 e8 be 6e 68 9b bd 58 40 86 3d 2f 00 58 bd
       -0.45328054 -0.07588278 0.06555241 -0.05273455
0002b0 cb 34 df 3b 3a 86 67 3e 7c 94 41 3d 6c 95 25 bd
       0.0068117133 0.22609797 0.047260746 -0.040425703
0002c0 7b b1 24 bd f6 75 d7 3c a8 7f da be bd e9 08 3e
       -0.04020832 0.026301365 -0.4267552 0.13370414
0002d0 04 70 8e 3c 67 08 38 3e ee a2 21 3e ff af cc bd
       0.017387398 0.17971955 0.15784809 -0.09994506
0002e0 39 5e 28 bd c7 7c 9b 3e 58 b2 30 be d2 54 dc be
       -0.041105483 0.30368635 -0.17255533 -0.43033463
0002f0 38 ec ab 3d d2 b1 46 3d a6 43 9a be 32 27 80 bd
       0.083946645 0.048509426 -0.30129737 -0.06257476
000300 35 16 ba be c6 ca f0 3c 2a 0f f6 bb 41 d4 00 3b
       -0.36345068 0.029393565 -0.007509132 0.0019657763
000310 8f 9f a6 be d1 bf e5 3b 04 66 c2 3b cc 00 b8 bc
       -0.3254361 0.0070113917 0.0059325714 -0.022461317
000320 58 19 09 bf 88 fd 43 bd 88 2d 01 3e e6 e8 6e bd
       -0.53554296 -0.047849208 0.12615025 -0.058327578
000330 ed 6e 57 be 80 09 c5 3b ec 96 c4 bd 1c 7c 3f 3e
       -0.21038409 0.0060130954 -0.095990986 0.18699688
000340 22 b9 42 3b 7f 25 ee 3c 99 a3 18 3d 64 b5 db 3d
       0.0029712399 0.029070614 0.037265394 0.10727957
000350 3a 23 ac 3d fa c5 87 be 8a 76 8b 3c bb de e1 3c
       0.084051564 -0.26518232 0.017024297 0.027572026
000360 2d bd 85 bd 8a 9e 8f 3e 26 c7 e3 3c 66 0c a6 bc
       -0.06530223 0.28050643 0.027804922 -0.020269584
000370 c0 3c 61 3d 36 6b 8c 3c 6d f6 40 3e 49 ba 02 3c
       0.054989576 0.017140966 0.18844004 0.007978984
000380 17 e7 9f bd 8a 9e 49 3c 8b 2f cf 3d 76 9d 8b 3d
       -0.07807749 0.012305865 0.1011649 0.06817143
000390 39 7f 59 3d fa 69 4d 3d 25 a0 80 bd 3b a0 d8 bc
       0.053099845 0.050149895 -0.06280545 -0.026443591
0003a0 45 77 3a 3e c7 24 2a bd 22 fd 59 bc 3b cb 70 bd
       0.1820956 -0.04153898 -0.0133049805 -0.058787566
0003b0 39 96 28 bd 52 05 b1 3d 0a 52 47 bb 5b dc 78 3d
       -0.04115889 0.08643593 -0.003041389 0.060757022
0003c0 6b b7 50 3d 17 54 6a bd 58 36 03 3d 68 a0 ca bd
       0.05095617 -0.0572091 0.032034248 -0.09893876
0003d0 36 d8 25 bd 72 3b dd 3d c1 7c 88 bd 27 6c 9c 3d
       -0.040489398 0.10802354 -0.0666442 0.07637816
0003e0 9a 0a c4 3b e7 23 26 be 11 2c d3 be 4b df 15 be
       0.005982709 -0.16224633 -0.41244557 -0.14635961
0003f0 f1 8e 0c 3d e7 28 1b 3e 5f a2 9a bd 9e bd ee 3c
       0.034316007 0.15152322 -0.07550501 0.02914315

l3/b f4 [256]
000000 17 3f 68 3e 6a 84 a3 3c fa 22 99 bc 17 b0 de bc
       0.22680317 0.0199606 -0.018693436 -0.027183576
000010 6e ff b1 bd 48 63 58 be 99 3d 0b 3e 52 72 40 3e
       -0.086912975 -0.21131623 0.13597716 0.1879361
000020 20 73 31 3e 56 47 33 3e 45 61 ce 3e e0 db be 3b
       0.17329073 0.17507681 0.40308586 0.005824551
000030 76 a9 a9 be 15 ba a9 be cc 81 29 bc 11 61 dc bd
       -0.331371 -0.33149782 -0.010345887 -0.107607014
000040 6e ee 21 3b 07 f3 ff 3d 6e 2a 80 be 42 4a 5a 3d
       0.0024708766 0.12497526 -0.2503237 0.053293474
000050 9c b4 7f bc 26 66 f6 3d f2 7a 04 be 4f b8 0a 3e
       -0.0156070255 0.12031202 -0.12937525 0.1354687
000060 d6 8d 13 3e 54 86 aa 3d 17 78 39 3d 88 02 d7 3c
       0.14409575 0.08326402 0.045280542 0.026246324
000070 ac 84 8f bb 31 7a 84 bd 62 ad 4a 3d 73 a8 a2 3d
       -0.0043798294 -0.06468619 0.049481757 0.079422854
000080 95 ef 74 3e d4 32 3f 3e 2c 08 28 bd 14 23 57 3d
       0.23919518 0.18671733 -0.04102342 0.052523687
000090 7b 86 6c 3d 4f 57 19 3e 64 b1 06 be 86 c9 24 be
       0.057745438 0.14974712 -0.13153607 -0.160925
0000a0 66 75 09 3c 98 87 b4 3e a2 2c 29 be 34 03 d8 bd
       0.008389806 0.352597 -0.16520932 -0.10547486
0000b0 e9 c4 e8 3d 0c 2e c4 3d 90 06 0f 3e 90 3c 73 3e
       0.11365683 0.09579095 0.13967347 0.23753572
0000c0 00 06 b5 3d aa c4 8f 3d cb f4 75 3d 14 11 45 3e
       0.08839035 0.070199326 0.060047906 0.19244796
0000d0 4b 79 c2 3e 14 2d 79 3d c0 c5 9e bd a7 c7 82 3e
       0.37983164 0.060834005 -0.077525616 0.25542948
0000e0 14 c5 37 3c 6d 6b ae 3d 2f d3 b2 3d b7 7b a6 3c
       0.011216421 0.085165836 0.08731686 0.020322664
0000f0 52 46 95 3e f1 fc 8a 3e 78 d5 2d 3d e7 81 4a 3d
       0.29155213 0.27146104 0.042439908 0.04944029
000100 4a f2 84 3e 7e 7d 12 3e 89 dc 36 bd d7 c8 9e 3c
       0.25966102 0.14305684 -0.044643912 0.019382877
000110 06 bf 3f 3e 4c ab 9a bc d1 ff 08 bc 8a 34 7e 3b
       0.18725213 -0.018880509 -0.008361773 0.003878864
000120 c7 37 a5 bd 36 53 af bd af b9 e1 3d 71 4b c0 bc
       -0.08067279 -0.08560793 0.110217445 -0.023473473
000130 b7 e4 87 be 97 81 6f 3d 85 85 fb 3d 25 3f a5 3d
       -0.26541683 0.058473196 0.12281326 0.080686845
000140 db 5a 1d 3e fc 6c 42 3d 41 bf c3 3d 26 af 9b be
       0.1536669 0.047467217 0.09557963 -0.30407065
000150 79 e6 2f 3d 7b 98 8a 3d ef 39 5b bc 9f 75 44 3d
       0.042944405 0.067673646 -0.013380512 0.047963735
000160 ea 60 be bd 30 ef b5 3f b0 52 e0 3c d1 71 ca 3d
       -0.09295829 1.4213619 0.027383178 0.0988499
000170 90 22 38 be c1 af e6 3e f8 48 be be c6 cd 7f be
       -0.17981935 0.45055965 -0.37165046 -0.2498084
000180 77 60 e7 3c 4b 31 c1 3d 4b 63 bc 3d 15 d5 02 be
       0.02824424 0.0943323 0.09198626 -0.12776597
000190 cd 6f f2 3e 6a 96 89 3c e1 bb 75 3e 2d 6e 1d be
       0.47350922 0.016795356 0.23997451 -0.1537406
0001a0 78 8a a6 3a ca 0d 38 bd e1 d5 69 3d 6d 23 75 3b
       0.0012706062 -0.044935025 0.057088736 0.0037405149
0001b0 8e 13 01 3e df f2 1d 3e 71 6e 44 3e df 35 09 3e
       0.12605116 0.15424679 0.19182755 0.13399456
0001c0 97 a2 48 3e 1f 40 be be 1d 3b 35 3e 16 48 a2 bd
       0.19593273 -0.37158296 0.17698331 -0.079239056
0001d0 d2 9b 61 3d 26 ae 09 be 77 91 8f 3e aa 1f 5b 3d
       0.055080242 -0.13445339 0.28040668 0.053496994
0001e0 4f 0d 96 be 50 04 ed 3c 83 4d 94 3e 0a 77 88 3d
       -0.2930703 0.02893272 0.28965387 0.0666333
0001f0 a1 21 0d bd ed 5b 9b be e4 c2 14 3e b8 76 63 3e
       -0.0344559 -0.3034357 0.1452747 0.22213256
000200 49 1e 53 bd 27 ae f1 3c a7 75 4b 3e b8 a3 16 bd
       -0.051542554 0.029501988 0.198691 -0.036777228
000210 24 f3 45 3e 66 66 09 3e 0f c0 9b 3e a8 3f ea 3b
       0.19331032 0.13417968 0.30419967 0.0071487017
000220 bf 44 0f 3e 53 dc 45 be 33 5d 60 be 67 fb 86 be
       0.13991068 -0.19322328 -0.21910553 -0.2636368
000230 53 b3 13 bd ac a5 00 3d 12 70 22 be ce 43 81 bd
       -0.03605969 0.031407997 -0.15863064 -0.06311761
000240 33 ff 01 bd 1d 82 3f 3d 09 d4 b2 3e a6 ea 97 3d
       -0.031737518 0.046754945 0.34927395 0.074178025
000250 36 d7 8c 3d 0a 53 bd 3c c5 3a 35 3e 05 29 ac 3d
       0.06876986 0.023110885 0.176982 0.08406261
000260 75 b6 a2 bd 8b f3 80 bd ac 07 56 3c c2 99 71 be
       -0.07944957 -0.06296452 0.013063353 -0.2359381
000270 46 e3 15 bd 92 ea c3 ba f5 37 8a bc 93 ac 74 3e
       -0.036593698 -0.0014947227 -0.016872386 0.23893957
000280 be 5f c5 be 19 53 0b 3e 26 2a b3 3c 93 7c a0 3d
       -0.38549608 0.13605918 0.021870684 0.07836261
000290 4b de 70 3e b0 ce ee 3b 5e 4a 71 be fd 6d a5 3c
       0.23522298 0.0072878227 -0.23563525 0.020194048
0002a0 82 00 fd 3d 78 91 83 3e 45 2d 2c 3d c5 be 05 3e
       0.123536125 0.2569692 0.04203536 0.13061054
0002b0 85 c6 cd bc af 18 9b bd 2d 8a bd 3d db 1c 6a be
       -0.025119076 -0.075730674 0.092548706 -0.2286257
0002c0 51 af 34 bd 28 1e 90 3e f4 ab 60 3e 27 28 66 bc
       -0.044112507 0.28148007 0.21940595 -0.014047659
0002d0 e3 49 1d 3e ce b6 aa bd f1 08 6d 3d 14 85 9f bc
       0.15360217 -0.083356485 0.057869855 -0.019472636
0002e0 92 97 85 bd 7a 24 c5 bd 0f a5 db 3d 11 6b dc 3b
       -0.0652305 -0.09626098 0.10724842 0.0067266305
0002f0 72 f4 5b be be 83 d4 bd ff 9e 58 3d 6b 01 20 3e
       -0.21479967 -0.1037669 0.052886005 0.15625541
000300 f8 fc 75 3d 57 db 20 3e 2f a8 9e 3d a5 0d 2e 3e
       0.060055703 0.15708672 0.07746922 0.16997392
000310 18 d0 3b 3e c4 a5 72 3e fa 16 40 bd 4a cb 9f be
       0.183411 0.23696047 -0.046896912 -0.31209785
000320 25 3b cb 3d d4 f9 8d be e2 71 4a be 97 8f 8f 3d
       0.0992339 -0.27729666 -0.19770005 0.070098095
000330 72 c1 c2 3d 6d 95 ed be 5d b0 99 bd 85 6f 99 be
       0.09509553 -0.46403065 -0.07504342 -0.29967895
000340 8d af c8 bd 61 2a 16 be ea 24 78 be 63 45 d9 3c
       -0.09799109 -0.14664604 -0.24232832 0.026522344
000350 98 6e 7e 3c bc 72 8c 3e c6 f9 e3 bd 28 fc 72 3d
       0.015529297 0.27431285 -0.11131625 0.059322506
000360 ac 01 38 3e d8 0b ee 3a 2a 78 93 be 8f 39 0b be
       0.17969388 0.0018161489 -0.28802615 -0.13596176
000370 b3 4b 19 3c cd 8f 0f bd 8c 16 9e bc ca 47 94 be
       0.009356427 -0.03504925 -0.01929786 -0.2896102
000380 ca 6d ad 3d 04 49 e8 3d e3 2d dc bb 02 b3 a9 bd
       0.08468206 0.113420516 -0.0067193373 -0.08286096
000390 c5 cb 93 3d 68 f9 55 3e 1a a2 94 3d c5 b8 2a 3e
       0.072166 0.20895922 0.07257481 0.16672046
0003a0 e6 ea 76 3d d9 63 b0 3d a6 9f 61 bd fd 6d 5c 3d
       0.06028261 0.086127944 -0.055083893 0.05381583
0003b0 74 19 f7 3b ff 38 03 3d 66 52 36 3d 3d c7 48 be
       0.007540876 0.032036778 0.044512175 -0.19607253
0003c0 b3 d3 3b 3d c5 77 0f be 71 d3 71 3c 92 52 a9 bb
       0.04585619 -0.14010532 0.014759884 -0.005167314
0003d0 a0 37 b7 3d 0b 6d 88 be 36 55 d0 bd 58 5e 39 3e
       0.089461565 -0.26645693 -0.10172503 0.18102396
0003e0 24 28 44 3d f8 47 03 3e 20 01 f9 3d b1 bd 3e 3f
       0.047889844 0.12820423 0.12158418 0.74508196
0003f0 5b 2f 27 bd b9 e8 bb 3d 45 d4 e6 3a fd 83 b4 3c
       -0.040816646 0.09175248 0.0017610869 0.022035593

l3/W f4 [256, 256]
000000 3d 8d 17 be 1f e6 3e be 5f 2d fa bd 36 0f fc bc
       -0.14799972 -0.18642472 -0.12215685 -0.030768972
000010 36 40 24 be dc bd 2f bd 05 6b fb bd 8e 35 3c 3e
       -0.1604012 -0.042905673 -0.12276272 0.18379804
000020 04 29 27 bc 49 b3 3c 3d c6 cd b8 3d f3 18 33 bd
       -0.01020265 0.046069417 0.09023623 -0.043724965
000030 e5 83 ac bd d9 4f d2 3d 85 23 9a 3d 08 7a 23 bd
       -0.084235944 0.10269136 0.07526306 -0.0399113
000040 1f 47 78 bd 2b 03 a9 bd 4d b3 6b 3e 1d dc 36 3e
       -0.0606147 -0.08252557 0.23017617 0.17857404
000050 d6 9c b6 3e e4 21 c6 bd ce 2e 9a bd 24 9f 05 3e
       0.3566653 -0.09674433 -0.075284585 0.13048989
000060 51 f9 58 be 88 b7 5b bb 49 2b e7 3b 0d a3 c4 be
       -0.21188857 -0.0033526141 0.0070547205 -0.38405648
000070 63 d7 77 3d da a9 05 bd 4e a6 20 3d 9c 66 17 3e
       0.060508143 -0.032632686 0.0392211 0.14785236
000080 ab 41 ac bd 4f 0d b6 bd f7 ac a2 3d 29 b3 23 be
       -0.08410963 -0.08889257 0.07943147 -0.15986313
000090 40 69 14 3d 6d b2 07 3e f1 b4 d8 bd c7 5f 71 3d
       0.036233187 0.13251658 -0.10581387 0.05892923
0000a0 ae 54 ed bd 5b 49 d7 3d bd 6a 74 3d 7d d8 68 3e
       -0.11588417 0.10512038 0.059672106 0.22738834
0000b0 ce 2d af 3d 3c 87 be 3c 05 18 c3 bd 91 ff 47 be
       0.085536584 0.023257844 -0.09526066 -0.19531085
0000c0 7c 25 6f 3d b8 ce c8 bd 34 bf c0 3d 2d 1b ee bd
       0.058385357 -0.098050535 0.09411469 -0.11626277
0000d0 a3 c8 8b bd 11 32 7c bd f6 0d b1 bd fd db 16 be
       -0.06825378 -0.061571185 -0.08645241 -0.14732356
0000e0 99 ad 91 bd 18 f0 05 3e 34 cb f1 3d 89 f9 dc 3d
       -0.07113189 0.1307987 0.11806336 0.107897826
0000f0 bf 5a 02 3e 44 d1 6a bd 1f a5 54 3c c1 2d 0b be
       0.1272993 -0.057328478 0.012978821 -0.13591672
000100 98 61 45 3e ce 0f e0 3d da 41 6c bd 2a 9d 25 3d
       0.1927551 0.109405145 -0.05767999 0.040433086
000110 7f e9 c4 bd 72 10 02 bd 3e 43 8d 3c ed e9 07 3e
       -0.09614848 -0.031753965 0.017243978 0.1327283
000120 5a 29 16 be 06 5a b9 3c f8 63 04 3e ee 28 5c be
       -0.14664212 0.022625934 0.1292876 -0.21499988
000130 68 8e 1c be 99 75 78 3e 8f c5 17 3e 71 d8 7f 3d
       -0.15288699 0.2426361 0.14821456 0.062462274
000140 04 5a c6 3c 7c b6 8e 3d 48 5d 8c bd 9c aa 68 be
       0.024212845 0.069684 -0.068537295 -0.22721332
000150 87 f0 0a be 66 0e 19 3d 09 6c 13 be 82 9a 1d be
       -0.13568316 0.037367247 -0.14396681 -0.15390971
000160 35 09 d5 3d 67 f7 8f 3b 8b 5b e2 bd cc 7d 1f be
       0.10402147 0.0043935063 -0.11052617 -0.15575331
000170 96 42 bf 3d d6 8e 00 3c 83 33 15 be 1b a8 4e 3e
       0.09338872 0.007846555 -0.14570431 0.20181315
000180 cb 76 15 3e ec 95 e1 bd 0f 27 82 3d b8 34 78 be
       0.14596097 -0.110149235 0.06355106 -0.2423886
000190 4c aa 36 bd 76 a1 f8 bd 9b a9 e4 bb 92 3c 83 3d
       -0.044596 -0.12140171 -0.0069782264 0.06408037
0001a0 fc 4b d9 3c 32 17 30 3b 03 a2 de 3c 24 91 3a be
       0.02652549 0.0026869294 0.027176863 -0.18219429
0001b0 db de b9 3c 4b 89 58 3c 6a f2 89 3d 73 e8 85 bd
       0.022689274 0.013216327 0.0673569 -0.06538477
0001c0 9e f3 88 3d 71 ec 3b be 52 5e 2b 3c ed 64 be be
       0.06687091 -0.18351914 0.010459499 -0.37186375
0001d0 ab 8b 02 3e 22 1a 75 3e aa 63 f3 bd 1d 5c ce 3d
       0.12748592 0.2393575 -0.11884244 0.10076163
0001e0 f3 9e a8 3c 5e 4e 9a 3d d1 c6 3f 3e fd 29 30 be
       0.020583605 0.075344786 0.18728186 -0.17203517
0001f0 3c 54 d2 bd 91 09 86 bc 17 74 35 3d cd 91 03 3e
       -0.10269973 -0.016361983 0.044300165 0.12848587
000200 8f 29 97 3d c6 15 f0 3d 43 f9 57 3d d0 88 50 be
       0.073809735 0.11722903 0.05272795 -0.2036469
000210 f8 78 07 3d cf 42 05 be d7 20 e6 bb 0a 15 fb bd
       0.03307435 -0.13013767 -0.007022958 -0.12259872
000220 82 5a 02 be 50 75 f8 bc bd 11 af 3d 1c 6a 17 3e
       -0.12729838 -0.030329376 0.08548305 0.14786571
000230 18 15 a4 bd 3f ae 64 3e f3 75 cf bd 2d 3f fb 3d
       -0.08011836 0.22332095 -0.10129919 0.12267909
000240 6e 48 04 3d 97 36 bb bb 7e 5b 0d be 74 cb c3 3c
       0.032295637 -0.0057132947 -0.13804433 0.023900725
000250 28 46 18 3e d1 da 26 3c 1a 93 e4 bd bd 0a 44 3d
       0.14870512 0.010184006 -0.1116087 0.047861803
000260 6c cf a7 be 24 23 78 be 5a b0 7c 3d a9 86 21 bc
       -0.32775438 -0.24232155 0.06169162 -0.009858766
000270 cc d0 3b bd bd 87 2d 3e 61 9f de bd 07 65 ec 39
       -0.04585342 0.16946311 -0.10870243 0.000450887
000280 04 7a c3 bd 3d 54 19 be 60 24 2b be 71 9b 04 be
       -0.09544757 -0.1497354 -0.16713095 -0.12949921
000290 84 78 ae bc 15 a6 98 bd 4d 26 10 3c 17 8d 3e be
       -0.0212977 -0.07453553 0.008798194 -0.18608509
0002a0 c4 fe ec bd b4 85 5b 3e 13 f2 bf 3c a9 12 b5 3d
       -0.1157203 0.21437722 0.02343086 0.0884145
0002b0 29 1b 2a bc ae eb 95 bd cd aa 0a bd 11 c6 21 bc
       -0.010382452 -0.07320343 -0.033854295 -0.009873883
0002c0 7a 3c 96 3c ee 85 7c 3d 65 d9 86 3c 86 11 0f 3e
       0.018339384 0.061651163 0.016461084 0.13971528
0002d0 10 ae 52 3d 1a 55 c8 bd 7d a7 72 be c3 77 7f 3e
       0.05143553 -0.09781857 -0.23696704 0.24948029
0002e0 49 69 12 bd 55 87 d1 3d 68 46 a8 bb 4d da 41 3e
       -0.03574494 0.10230891 -0.005135346 0.18930931
0002f0 08 75 75 bc 70 de 37 be cb b5 44 be 96 6b 4e bd
       -0.014981516 -0.17955947 -0.19209974 -0.05039557
000300 8b b9 54 bd c4 ab b3 bc 38 29 51 3d ec ec 0e be
       -0.05193476 -0.02193249 0.0510647 -0.13957566
000310 b6 ad 12 be 5c e2 d4 bc f7 84 e4 bc 57 8a 2d be
       -0.14324078 -0.025986843 -0.027895434 -0.16947304
000320 68 02 98 bd 06 8a e9 3d 1a f9 1d bd 8e 3c 22 bd
       -0.07422334 0.11403279 -0.03856764 -0.03960853
000330 83 a9 0a 3d ec b6 a0 bd 52 8a 20 bc 9f 51 ed 3c
       0.033853065 -0.078473896 -0.009798603 0.028969584
000340 b3 e7 3f 3d 25 a0 09 be 9e 6e 28 be 2d db 18 3e
       0.046851825 -0.13439997 -0.16448447 0.14927359
000350 35 7f d4 3b 89 23 e3 bd 02 ad 2b 3d 47 f5 c7 3d
       0.006484891 -0.11090762 0.04191304 0.0976358
000360 c9 89 75 bd 7c 7a 68 bd ca 2c fd 3d a6 1d 68 bd
       -0.059945855 -0.056757435 0.123620585 -0.0566689
000370 e0 95 44 3b 07 46 9d be 65 13 0c be 0b 4c 52 bd
       0.002999656 -0.3071749 -0.13679273 -0.05134205
000380 26 69 67 bd d6 a2 1e be cd 82 be bd 06 3f a7 bd
       -0.05649676 -0.15491804 -0.09302292 -0.08166318
000390 cf af 80 bd 3a 9f b5 3c bc 23 fb bc df d6 7e bd
       -0.06283533 0.022170652 -0.030656688 -0.062216636
0003a0 a3 9b 7e be 97 a2 03 3e 41 cb 19 bd 40 c1 0c bd
       -0.24864058 0.12854992 -0.037547354 -0.034363985
0003b0 0b ec c7 bd f0 10 ca 3d de 84 4a 3c d2 45 b6 bd
       -0.097618185 0.09866512 0.01236078 -0.08900036
0003c0 70 75 83 bd 6b d7 89 3d 47 d1 53 3e 33 44 4c 3e
       -0.06418884 0.06730541 0.20685302 0.19947891
0003d0 e3 ba 24 be c4 11 85 bb 55 06 0a 3e b2 da 0b bd
       -0.16086917 -0.0040609557 0.13478978 -0.03414411
0003e0 be ed 17 be eb 09 88 3e 1c 91 e3 3d 1d 34 57 bd
       -0.14836785 0.26570067 0.11111662 -0.052539933
0003f0 40 1f 7a 3e 1a 6d 0f be 2a 51 ad 3e 62 a3 2b bd
       0.24425983 -0.14006463 0.33850986 -0.04190386
