static/ai/4/agent_black_20000/target_model.npz (npz, 521803 bytes, 8 tensors)

l2/b f4 [256]
0	0xbc8caa23	-0.017170971
1	0xbd2e5547	-0.042561796
2	0x3d6c9eef	0.05776876
3	0x3cd80dfc	0.026373856
4	0x3c1760a2	0.009239348
5	0xbd3d756c	-0.04625456
6	0xbcaaebd6	-0.020864408
7	0xbc870c40	-0.016485333
8	0xbc615ac7	-0.013754553
9	0x3d2b9749	0.041892324
10	0xbc550480	-0.013001561
11	0x3d714cb3	0.058911037
12	0xbcae450a	-0.021273155
13	0xbbbb61b7	-0.0057184356
14	0x3da75258	0.08170003
15	0x3c96c301	0.018403532
16	0xbc6f0792	-0.014589207
17	0x3c18a0f7	0.009315721
18	0xbd2a5077	-0.041580644
19	0x3ccd3738	0.025050744
20	0xbb34f2dc	-0.0027610576
21	0xbc99e60c	-0.018786453
22	0xbcc9ee78	-0.024649844
23	0xbc013f34	-0.007888604
24	0xbcf51a22	-0.029919688
25	0xbd1edf21	-0.03878701
26	0x3d1c620a	0.038179435
27	0xbc8f321e	-0.017479952
28	0xbd7344f1	-0.05939192
29	0x3d2e7491	0.042591635
30	0x3baf2885	0.0053454065
31	0x3d100e73	0.03517003
32	0x3cb870e5	0.02251477
33	0xbd0ce76b	-0.034400385
34	0xbcf8b484	-0.030359514
35	0xbbedc8b7	-0.007256593
36	0x3c3e44d1	0.011613087
37	0xbc43d7b8	-0.011953287
38	0x3d6f0d80	0.058362484
39	0xbc02b8b7	-0.00797861
40	0xbdfd588a	-0.12370403
41	0xbd38f7c1	-0.04515815
42	0x3c819225	0.015816757
43	0xba47689c	-0.00076068356
44	0x3d22da87	0.039759185
45	0xbc17b5a2	-0.009259613
46	0x3ced27e7	0.028949691
47	0xbd212d6e	-0.039349966
48	0x3c812201	0.015763285
49	0x3c32e974	0.010919917
50	0x3b3c23fe	0.0028707976
51	0xbc81e6ce	-0.015857127
52	0xbc0c2750	-0.008554295
53	0xbc4b7cb4	-0.012419868
54	0xbd3ca046	-0.046051286
55	0x3d7d401f	0.06182873
56	0xbd6af1bc	-0.057359442
57	0xbc295c03	-0.010336879
58	0xbcc372de	-0.023858484
59	0xbbbc335b	-0.0057434267
60	0xbbb7361b	-0.0055911667
61	0xbd370172	-0.044679113
62	0x3b6d936d	0.0036251203
63	0x3c670ee8	0.014102675
64	0xbcde1865	-0.027111242
65	0x3a4151ec	0.0007374573
66	0x3ce8de5e	0.028426345
67	0xbc001fbc	-0.007820066
68	0x3d685982	0.056725986
69	0xbd03d8fc	-0.032189354
70	0xbc2d7144	-0.010586087
71	0xbc9e6f4a	-0.019340176
72	0xbca5ccd9	-0.02023928
73	0x3c598ade	0.013277737
74	0x3c9ff71f	0.019527016
75	0x3c681f5a	0.014167631
76	0x3cf91c56	0.03040902
77	0x3ba75f97	0.0051078307
78	0xbc90a465	-0.017656514
79	0xbc3b4293	-0.011429447
80	0xbd86df1a	-0.06585522
81	0xbd2636fe	-0.04057979
82	0xbce69f98	-0.028152272
83	0x3d2cecb2	0.042217918
84	0x3b549069	0.0032434708
85	0x3d709dca	0.05874423
86	0xbbf3534a	-0.0074257003
87	0xbd25a395	-0.040439207
88	0xbc3b742d	-0.011441273
89	0xbd2cad62	-0.04215754
90	0xbd3b2287	-0.045687225
91	0x3bb5c038	0.005546596
92	0x3c8cd87a	0.017193068
93	0xbbf740d1	-0.0075455685
94	0xbdb4c4e6	-0.08826618
95	0xbc1b387f	-0.009473919
96	0x3d62d75b	0.05538116
97	0xbb0a73d5	-0.002112617
98	0x3d3fe4ba	0.04684899
99	0xbc5b93ed	-0.0134019675
100	0x3b59d46f	0.0033238193
101	0xbc27f6b6	-0.010251692
102	0xbb90b612	-0.0044162357
103	0x3c3c231b	0.011482979
104	0xbc82d910	-0.015972644
105	0xbca8221d	-0.020524079
106	0xb908f2d0	-0.00013060425
107	0x3d8d742e	0.06906925
108	0xbd2c7132	-0.04210014
109	0x3c808a23	0.015690869
110	0x3ce63bd7	0.028104706
111	0xbc09756f	-0.008389815
112	0x3cc18e97	0.023627562
113	0x3c0a29b5	0.008432795
114	0x3c8d2855	0.017231146
115	0x3d3eaab8	0.04654953
116	0xbcd24dd2	-0.025671873
117	0xbd59f82a	-0.053215183
118	0xbd88b355	-0.0667483
119	0x3c8a6d74	0.016897894
120	0xbc338afc	-0.010958429
121	0x3d3c422f	0.045961555
122	0xbc6cc833	-0.014452028
123	0x3cdb5ead	0.026778543
124	0xbcaa88d5	-0.0208172
125	0xbb4042a6	-0.00293366
126	0x3ca22e61	0.019797506
127	0x3c9e10b6	0.019295078
128	0xbd3919b6	-0.045190535
129	0xbc8ad2ed	-0.01694628
130	0xbdb93813	-0.090438984
131	0x3dbfa8d2	0.09358372
132	0x3d545461	0.051838282
133	0x3ce43ab1	0.027860017
134	0xbd720ae9	-0.059092436
135	0x3d70d216	0.058794104
136	0xbcd4e5db	-0.02598851
137	0xbc040f8e	-0.008060349
138	0x3d00d466	0.03145256
139	0xbbd831d2	-0.006597736
140	0x3da01c77	0.07817929
141	0x3a2c8ae4	0.00065819756
142	0xbc14f59a	-0.009091759
143	0x3caea8e7	0.021320773
144	0x3d882d9c	0.06649324
145	0x3d137e27	0.03600898
146	0xbb952a99	-0.004552197
147	0xbdb422a7	-0.08795672
148	0xbd18b9a9	-0.037286434
149	0xbcd74f5a	-0.026282955
150	0x386baab2	5.618734e-05
151	0xb941cbdd	-0.0001848186
152	0xbceb15bd	-0.028696889
153	0xbcd927ca	-0.02650823
154	0xbc83475c	-0.016025238
155	0x3c9aac1c	0.018880896
156	0x3d5c27cc	0.05374889
157	0x3d74d21d	0.059770692
158	0xbc4cc20b	-0.012497435
159	0x3d004858	0.031318992
160	0xbdb3ff5e	-0.08788942
161	0x39bacf54	0.00035631156
162	0xbcbb0a80	-0.022832155
163	0x3d031a7f	0.03200769
164	0x3cadf32d	0.02123412
165	0xbaba8f0f	-0.0014233309
166	0xbd173973	-0.036920022
167	0x3be68669	0.007035066
168	0x3cb9433d	0.02261507
169	0x38752622	5.8448066e-05
170	0xbc6e3bcb	-0.014540623
171	0xbd15fe04	-0.0366192
172	0xbd0e1654	-0.034689263
173	0x3a357526	0.00069220585
174	0xbd2fa80f	-0.042884883
175	0xbd4688b2	-0.048470207
176	0x3d890be0	0.06691718
177	0xbc897cf6	-0.016783219
178	0xbc12c719	-0.008958601
179	0xbc90f55e	-0.017695125
180	0x3d6c39d9	0.057672355
181	0xbce20c51	-0.027593764
182	0xbd9eb00a	-0.077484205
183	0x3c6549ca	0.013994643
184	0x00000000	0.0
185	0x3cfbdd9b	0.030745318
186	0xbd893aa3	-0.06700637
187	0xbcc0a750	-0.02351728
188	0x3cdbc5bd	0.026827687
189	0x3ca5805e	0.020202812
190	0x3e21cf02	0.15801623
191	0xbd3083e5	-0.043094534
192	0x3cfdc0ce	0.030975726
193	0x3cc76c32	0.024343584
194	0x3c04ac15	0.008097668
195	0x3d1765c8	0.0369623
196	0x3b0cae6a	0.0021466264
197	0x3d1d8a5c	0.038462028
198	0xbbc43564	-0.00598781
199	0xbc9d870f	-0.01922944
200	0x3c9cd569	0.01914473
201	0xbcb52687	-0.022113098
202	0x3b972e16	0.004613648
203	0xbcb4d64f	-0.022074847
204	0x3c14bd49	0.009078332
205	0xbc6e90fd	-0.014560935
206	0xbdbad749	-0.09123094
207	0x3c46b8c1	0.01212901
208	0xbc7e6555	-0.015527089
209	0xbc19fc7f	-0.009398579
210	0x3cc97942	0.024593953
211	0x3c61f2f1	0.013790832
212	0x3c0453fd	0.008076665
213	0x3d95f4ed	0.073221065
214	0xbd146e0b	-0.036237758
215	0xbd039248	-0.032121927
216	0xbcdec3ff	-0.027193068
217	0x3cff4b40	0.031163812
218	0xbd25666b	-0.040380877
219	0x3c25b01f	0.010112791
220	0x3d6304ff	0.055424687
221	0xbca1100c	-0.019660972
222	0x3d2a3299	0.04155216
223	0xbcabd51d	-0.020975644
224	0xbd589b08	-0.052882224
225	0xbce2e16d	-0.027695382
226	0xbcc2ddbf	-0.023787377
227	0x3c2c122f	0.010502382
228	0xbd886528	-0.06659919
229	0x3c94e51f	0.01817566
230	0xbba2fba4	-0.0049738456
231	0x3ceec2da	0.029145647
232	0xbd6ab6f5	-0.057303388
233	0xbbe31890	-0.0069304183
234	0x3cf276d3	0.029597675
235	0x3b25e231	0.0025311823
236	0x3cd5738b	0.026056072
237	0x3ba0a2a0	0.004902199
238	0xbba3605d	-0.0049858526
239	0xbcf7c82e	-0.03024682
240	0x3b56c64f	0.003277201
241	0xbccefecd	-0.025267983
242	0xbdb68b77	-0.089133196
243	0x3c1e2722	0.009652885
244	0x3c943106	0.018089782
245	0xbda7419a	-0.081668094
246	0xbc63508f	-0.013874187
247	0xbd01c4f0	-0.031681955
248	0xbb404aed	-0.0029341534
249	0x3c93f610	0.018061668
250	0x3d84f206	0.06491475
251	0x3b49ddef	0.0030802449
252	0x3cb5a89c	0.022175126
253	0xbda4c51a	-0.08045407
254	0x3d5f7f76	0.054564916
255	0x3d431b30	0.04763335

l2/W f4 [256, 256]
0	0xbd8d9a04	-0.06914142
1	0xbd497f63	-0.04919375
2	0x3ca3e9e9	0.020008998
3	0xbcdcaf1e	-0.026938971
4	0xbd85b189	-0.06528003
5	0xbc0bdeeb	-0.0085370345
6	0xba1553e1	-0.0005696398
7	0x3e48d477	0.19612299
8	0x3dd32196	0.103091404
9	0xbda1cf68	-0.07900888
10	0x3cc7f1c9	0.024407284
11	0xbcd0cfa7	-0.025489641
12	0x3d298927	0.041390564
13	0xbe2310d9	-0.15924396
14	0x3d1dda22	0.038538106
15	0xbd326014	-0.04354866
16	0x3d2f9637	0.042867865
17	0x3cea37be	0.028591033
18	0x3de20486	0.11036019
19	0xbe2aef21	-0.16692783
20	0xbd44942a	-0.047992863
21	0x3d023887	0.03179219
22	0xbe100ea6	-0.14068088
23	0x3eb409ef	0.3516383
24	0x3daa9631	0.08329428
25	0x3db0092a	0.08595498
26	0xbb1c3939	-0.0023837818
27	0xbd727c57	-0.05920061
28	0x3e5d3141	0.2160082
29	0x3d6f81b2	0.058473296
30	0x3da36aca	0.07979353
31	0x3e4b6841	0.19863988
32	0x3bd31e06	0.006442788
33	0xbdb2c88c	-0.087296575
34	0x3e67ae4b	0.22625081
35	0x3d8cd382	0.068762794
36	0xbb32706c	-0.0027227653
37	0xbca0080b	-0.019535085
38	0xbd4f2e93	-0.050581526
39	0x3da43a97	0.080189876
40	0x3e05c9c9	0.13065256
41	0x3e276f21	0.16350986
42	0xbe3df8ec	-0.18551987
43	0x3d7df06b	0.06199686
44	0x3cb5e731	0.022204967
45	0xbd128b00	-0.035777092
46	0x3c9eb5be	0.01937377
47	0x3e92bb25	0.28658405
48	0x3d508ae3	0.050913703
49	0xbd646768	-0.05576268
50	0xbd1a0293	-0.03760011
51	0xbd4f1e5e	-0.05056607
52	0xbd56aaa9	-0.052408848
53	0x3d8ad47a	0.06778808
54	0x3b42a153	0.0029698208
55	0x3ca8f1e9	0.020623164
56	0xbdc3f95e	-0.095690474
57	0x3c2e877a	0.010652417
58	0x3e76eac7	0.24112998
59	0x3dcdc559	0.10047407
60	0xbe11bc04	-0.14231879
61	0xbe1f4a30	-0.15555644
62	0x3c10e513	0.008843678
63	0xbe192dd6	-0.14958891
64	0x3ccf2165	0.025284478
65	0x3a385fd2	0.00070333213
66	0x3dd381c8	0.10327488
67	0x3d4844a6	0.048893593
68	0xbc6b6e3c	-0.014369544
69	0xbda7bc4a	-0.0819021
70	0xbd7a26ff	-0.061072346
71	0xbe24399b	-0.160376
72	0xbe2a8138	-0.16650856
73	0xbde8bf53	-0.11364617
74	0x3e2e105c	0.16998428
75	0xbe1b412e	-0.15161583
76	0xbda1e7e0	-0.07905555
77	0x3dbb0b7c	0.0913305
78	0xbd8d1f6b	-0.06890758
79	0x3d92ffe4	0.071777135
80	0xbcc42b83	-0.02394653
81	0xbd2a2bf6	-0.04154583
82	0xbd9932a3	-0.07480361
83	0x3ca93c53	0.020658648
84	0x3c90798e	0.017636087
85	0x3e10d4aa	0.14143625
86	0x3cd99c65	0.026563833
87	0xbdbf8af9	-0.09352679
88	0xbcd65d9a	-0.02616768
89	0xbead3979	-0.3383291
90	0x3e0b3771	0.13595368
91	0x3e0e71ac	0.1391055
92	0x3be13577	0.0068728286
93	0xbd4eb715	-0.05046757
94	0xbe426928	-0.18985426
95	0xbca68211	-0.020325692
96	0xbd7325ed	-0.05936234
97	0x3d0b1c41	0.033962492
98	0x3cd2be77	0.025725586
99	0x3d23c6d0	0.039984524
100	0x3c5352e2	0.012898179
101	0xbd6ed717	-0.058310594
102	0xbdc1fb66	-0.094717786
103	0xbc4ec62f	-0.012620493
104	0xbe284996	-0.16434321
105	0xbdc0428c	-0.09387693
106	0xbe1c022e	-0.15235206
107	0x3e19ee88	0.15032399
108	0xbcc2b207	-0.02376653
109	0x3e14b341	0.14521505
110	0xbd82c481	-0.063851364
111	0x3e1fd8c8	0.15610039
112	0x3e1acf40	0.15118122
113	0x3d9bc06b	0.0760506
114	0x3da95e08	0.08269888
115	0x3e28d873	0.16488819
116	0xbe0e0e4a	-0.13872638
117	0x3d0545d2	0.03253729
118	0x3dbf68f7	0.09346192
119	0x3dd570d1	0.10421909
120	0xbda2eaf6	-0.079549715
121	0xbc9fe798	-0.019519612
122	0x3d898aad	0.067159034
123	0x3e75e2c2	0.24012282
124	0xbdc04a1b	-0.093891345
125	0xbe2d9f1c	-0.16955227
126	0xbd856725	-0.06513814
127	0xbc1f82c6	-0.009735769
128	0x3a106cb7	0.0005509364
129	0xbd47edaa	-0.04881064
130	0x3cf9dc18	0.030500457
131	0xba8808c7	-0.0010378592
132	0x3e229e59	0.15880717
133	0xbdd42eb8	-0.103604734
134	0x3dadaedd	0.08480618
135	0x3ccfebb8	0.025380954
136	0xbd681ef7	-0.056670155
137	0x3cbfb58d	0.023402
138	0x3dd22c00	0.102622986
139	0x3d814a8d	0.063130476
140	0x3e3fdfb6	0.18737683
141	0x3ce6d5e4	0.028178163
142	0x3d95d2ea	0.07315619
143	0x3e2ddf29	0.1697966
144	0xbdffb19f	-0.124850504
145	0xbde20e9f	-0.11037945
146	0xbc7d265d	-0.015451041
147	0xbdbcd568	-0.092203915
148	0xbdddcfb5	-0.108306326
149	0xbe24c334	-0.16090089
150	0x3c03003c	0.007995661
151	0xbc5648c9	-0.013078877
152	0x3d86a0a9	0.06573612
153	0xbc8d4952	-0.017246876
154	0xbde702bd	-0.11279819
155	0xbda175cc	-0.07883796
156	0xbe153eb7	-0.14574705
157	0x3c1ccefc	0.009570833
158	0xbde72863	-0.11287
159	0xbcd24878	-0.025669321
160	0xbd2d56f5	-0.042319257
161	0x3e35c2ea	0.17750135
162	0xbd152326	-0.036410473
163	0x3d4c9ae5	0.049952406
164	0x3d5bf714	0.05370243
165	0xbd8b4461	-0.068001516
166	0x3de8ef83	0.11373808
167	0x3c55b049	0.013042518
168	0x3d5521e1	0.052034263
169	0x3d469fd2	0.04849226
170	0x3db2514e	0.08706914
171	0xbdbf1f57	-0.093321495
172	0xbc17bd92	-0.009261506
173	0x3c9032c9	0.017602341
174	0x3d9f4c6e	0.0777825
175	0xbde75357	-0.11295193
176	0x3d669782	0.056296833
177	0x3d937af4	0.07201186
178	0xbc17bcd3	-0.009261328
179	0x3d5f7762	0.05455721
180	0xbdaff666	-0.08591919
181	0x3d047969	0.03234235
182	0xbcd64a24	-0.0261584
183	0xbe29b646	-0.16573438
184	0x3d1563c7	0.03647211
185	0x3dfed6e5	0.12443332
186	0xbdcf23c4	-0.101142436
187	0xbe55e554	-0.20888263
188	0xbdc84efd	-0.09780691
189	0x3ca871a3	0.020561999
190	0x3e3ace2c	0.18242711
191	0x3e1096ae	0.1411998
192	0x3ba9e0db	0.0051842756
193	0xbdaeb046	-0.08529715
194	0x3e20e3f1	0.15711953
195	0x3d0983cb	0.033572953
196	0x3d8ee670	0.06977546
197	0xbc1ae910	-0.0094549805
198	0x3dd75f93	0.10516276
199	0x3d034a5a	0.03205333
200	0xbd694604	-0.056951538
201	0x3e5b3d51	0.21410109
202	0x3df43d01	0.11925698
203	0xbdbcb2b7	-0.09213775
204	0xbc6ed076	-0.014576068
205	0xbdb7927c	-0.089634866
206	0x3cb1d735	0.021709064
207	0x3d05ff3d	0.032714117
208	0xbc4a9feb	-0.012367229
209	0x3c6aeb53	0.014338332
210	0x3da349f9	0.079730935
211	0xbccd53df	-0.025064407
212	0xbe056224	-0.13025719
213	0xbd83c1c9	-0.06433446
214	0xbd630dea	-0.05543319
215	0xbd941de9	-0.072322674
216	0xbca5a23b	-0.02021896
217	0x3e07741f	0.1322789
218	0x3e0a8f76	0.13531289
219	0xbd215412	-0.039386816
220	0xbd0aff69	-0.033934984
221	0x3d0fbc19	0.035091493
222	0x3ded67e1	0.11592079
223	0xbe4e8bb2	-0.20170477
224	0xbdbe7145	-0.09298948
225	0xbe2d87f9	-0.169464
226	0x3e1b259f	0.1515107
227	0xbdf9c0de	-0.121949896
228	0x3d36e545	0.044652242
229	0xbe127d42	-0.14305595
230	0x3d9b76f8	0.07591051
231	0xbd87780c	-0.06614694
232	0x3d314b22	0.043284543
233	0xbce6079f	-0.028079806
234	0x3d01a4e6	0.0316514
235	0x3c26fea7	0.01019255
236	0x3e5076b2	0.20357779
237	0xbd046af2	-0.032328553
238	0x3da66c50	0.08126128
239	0xbd5ec325	-0.054385323
240	0xbd8a3b55	-0.06749598
241	0x3e0f8313	0.14014845
242	0xbd4d8124	-0.050171986
243	0x3da291cd	0.079379655
244	0xbd875d58	-0.06609601
245	0x3e2bffdb	0.1679682
246	0x3b8b757a	0.0042559477
247	0x3db5d5c9	0.08878667
248	0xbd576cfc	-0.05259417
249	0xbd59b34f	-0.053149518
250	0x3cec4a1d	0.028843934
251	0x3d1278b5	0.035759646
252	0xbde6f029	-0.11276276
253	0x3d9ce4ae	0.07660805
254	0x3d1e9f49	0.038726125
255	0x39663fc7	0.00021958268

l3/b f4 [256]
0	0x3db185a1	0.08668066
1	0xbc413495	-0.011792322
2	0xbc82c381	-0.015962364
3	0xbc984e8f	-0.018592147
4	0x3bb70571	0.0055853655
5	0x3d72779d	0.059196103
6	0x3c8411bd	0.01612174
7	0x3d18b5ad	0.037282635
8	0x3cb5683e	0.022144433
9	0x3d0b067e	0.03394174
10	0x3e14dc7d	0.14537235
11	0xbcbba152	-0.022904072
12	0x3c3cdea9	0.011527696
13	0x3bd84487	0.006599966
14	0x3d1957fe	0.03743743
15	0xbd0449b9	-0.03229687
16	0x3d4d9299	0.050188635
17	0xbc82ffaa	-0.01599105
18	0xbc54bb36	-0.012984088
19	0xbd1b67e0	-0.03794086
20	0x3c4ef7d8	0.012632333
21	0x3d2432ab	0.040087383
22	0x3cff4453	0.03116051
23	0x3cf0947a	0.029367674
24	0x3ca2e88d	0.01988628
25	0x3d11fd77	0.035642114
26	0x3ce8d8ee	0.028423753
27	0x3c078153	0.008270579
28	0xbd24f893	-0.04027612
29	0x3cfaf6dd	0.030635292
30	0xbcac4e76	-0.021033507
31	0xbd0403dc	-0.032230243
32	0x3d8070cd	0.06271515
33	0x3d2541f0	0.040346086
34	0x3c6db638	0.014508776
35	0xbcbfb68c	-0.023402475
36	0x3dc537e8	0.09629804
37	0x3db7078e	0.08936988
38	0xbcf811d7	-0.030281944
39	0xbd7786e0	-0.06043136
40	0x3d130117	0.03588971
41	0x3a7016c0	0.00091586635
42	0xbbbee52f	-0.0058256607
43	0x3d298a31	0.041391555
44	0x3cfa428b	0.030549308
45	0x3d618664	0.055059806
46	0x3d52fc6f	0.05151027
47	0xbd994d25	-0.07485417
48	0xbd462c4c	-0.04838209
49	0xbc44a02d	-0.0120010795
50	0xbd4a00fc	-0.049317345
51	0xbd42cad1	-0.047556702
52	0x3d87ff5b	0.06640502
53	0x3d1cf7e3	0.03832234
54	0xbc0f329a	-0.008740092
55	0x3d1de59a	0.038549043
56	0x3d0146cb	0.031561654
57	0x3d14c64a	0.036321916
58	0xbd867e83	-0.06567099
59	0xbc42b6aa	-0.011884371
60	0xbd42da16	-0.047571264
61	0xbd4722ea	-0.04861728
62	0x3cb6b3c2	0.022302512
63	0x3dc5e11b	0.09662076
64	0x3d9f7c21	0.077873476
65	0xbda56d59	-0.08077497
66	0xbab3d293	-0.0013719372
67	0xbd669a3d	-0.056299437
68	0xbdab074d	-0.08351002
69	0xbcfe86e2	-0.031070177
70	0x3cfbaa42	0.030720834
71	0xbd030c45	-0.031994123
72	0xbc337c7c	-0.010954972
73	0xbcc30fe0	-0.02381128
74	0x3bc890bb	0.006120769
75	0x3b87f115	0.0041486123
76	0x3d0951af	0.033525165
77	0x3d8b79ff	0.06810378
78	0xbd3d8219	-0.04626665
79	0xbd298685	-0.041388053
80	0xbd159f1f	-0.036528703
81	0xbd590191	-0.05298001
82	0xbb894a46	-0.0041897623
83	0xbc7949df	-0.015215366
84	0xbd76daa4	-0.060267106
85	0x3ca05c8f	0.019575385
86	0xbd838d38	-0.0642342
87	0xbcd85976	-0.026409846
88	0xbd34892c	-0.04407613
89	0xbcf89926	-0.030346464
90	0x3d0338cd	0.03203659
91	0x3b0d55a0	0.002156593
92	0x3c3eb8c2	0.011640729
93	0xbcf21b46	-0.02955402
94	0x3d49ce41	0.049268965
95	0xbc1ba36e	-0.009499414
96	0xbc55aefc	-0.013042208
97	0x3d89d91c	0.067308635
98	0xbbc68051	-0.006057777
99	0x3e13a363	0.14417796
100	0xbd73dc90	-0.059536517
101	0xbe1c4591	-0.15260912
102	0x3d14dda5	0.03634419
103	0xbcc540ca	-0.024078745
104	0xbd8da0b1	-0.06915415
105	0x3affc0d4	0.0019512423
106	0x3dd0f11c	0.10202238
107	0x3a82008c	0.0009918376
108	0xbd7e440e	-0.06207662
109	0xbcd8e091	-0.02647427
110	0x3e00077b	0.12502854
111	0xbbbe754b	-0.0058123223
112	0x3cb843b8	0.022493228
113	0xbdda0504	-0.10645488
114	0x3dba847f	0.09107303
115	0x3cec8607	0.028872503
116	0xbdf57951	-0.1198603
117	0xbd08ebc7	-0.03342798
118	0xbc801883	-0.015636688
119	0x3db65e7e	0.08904742
120	0x3cbbc689	0.022921817
121	0x3da54e9f	0.080716364
122	0x3d1c41bd	0.03814863
123	0x3ae1bf9d	0.0017223243
124	0xbdbdc497	-0.09266012
125	0xbcf8a162	-0.03035039
126	0xbd33922d	-0.043840576
127	0xba36b6a8	-0.0006969967
128	0x3e1908a7	0.14944707
129	0xbdcc666d	-0.09980474
130	0xbd39ae16	-0.045332037
131	0x3bf6a003	0.007526399
132	0x3b801214	0.003908405
133	0xbb17457f	-0.0023082194
134	0x3d524f0d	0.05134492
135	0xbcf5417f	-0.029938458
136	0xbd815f5e	-0.06317018
137	0xbd173417	-0.03691491
138	0x3d3b6333	0.0457489
139	0x3cd31d53	0.025770819
140	0xbcf9b383	-0.030481106
141	0xbd3f6b88	-0.04673341
142	0xbc0685ed	-0.008210641
143	0x3c957f30	0.018249124
144	0x3daa0ccb	0.08303221
145	0xbd03566e	-0.032064848
146	0xbcb1ffa8	-0.021728352
147	0xbd1baedc	-0.038008556
148	0x3d38a855	0.04508241
149	0xbc6d3548	-0.014478035
150	0xbc75253f	-0.014962493
151	0x3c28a1cf	0.010292484
152	0xbbd41ff3	-0.006473535
153	0xbc214327	-0.0098426705
154	0xbc72e5dd	-0.0148253115
155	0xbce8167a	-0.02833103
156	0xbd9e4d06	-0.07729535
157	0x3d8ec119	0.06970424
158	0x3df0d8d3	0.11760106
159	0xbd2b3335	-0.04179688
160	0x3bdd2e58	0.0067499094
161	0x3ce3f388	0.027826086
162	0xbcf2026f	-0.029542176
163	0xbb0ac03e	-0.0021171714
164	0x3c9ec5d6	0.019381445
165	0xbcc29067	-0.023750497
166	0x3e2231be	0.15839288
167	0x3e068365	0.1313606
168	0x3c5a424b	0.01332147
169	0x3c384159	0.011246049
170	0x3dc70098	0.0971691
171	0x3da57178	0.08078283
172	0x3d27d5f6	0.040975533
173	0x3c04343a	0.008069092
174	0xbd2b3d32	-0.041806407
175	0xbdaf1eb7	-0.0855078
176	0x3d8d2361	0.068915136
177	0x3c52ebaa	0.0128735695
178	0xbcb382ab	-0.021912893
179	0x3ca30a30	0.019902319
180	0xbd80dbd8	-0.06291932
181	0x3d9b1752	0.07572807
182	0xbd0bb4c1	-0.034107927
183	0xbd1091df	-0.035295364
184	0x3c91b392	0.017785821
185	0x3c430a60	0.011904329
186	0xbd0d0b41	-0.03443456
187	0x3cd654fe	0.026163574
188	0xbd331664	-0.043722525
189	0x3dd66a43	0.104694866
190	0xbba298fd	-0.0049620853
191	0x3a47f43e	0.00076276425
192	0xbd1f8cfe	-0.03895282
193	0xbd67b73c	-0.05657123
194	0x3d6d99c6	0.058007978
195	0xbb5bfe05	-0.0033568155
196	0xbd1aa2d3	-0.037752938
197	0x3d231a11	0.03981978
198	0xbd83090b	-0.06398209
199	0xbd09bdc0	-0.033628225
200	0xbcde2201	-0.027115824
201	0x39ad0cc1	0.00033006634
202	0x3d8d8e0a	0.069118574
203	0xbc94bf4f	-0.01815763
204	0x3c2487b4	0.01004212
205	0x3cf4e3d0	0.029893786
206	0xbd0c1161	-0.03419626
207	0xbcf9c5f7	-0.030489905
208	0xbd5a16bd	-0.05324434
209	0xbc376c2f	-0.011195227
210	0x3db23a9f	0.08702587
211	0xbdd4144c	-0.10355434
212	0xbd0f9b54	-0.03506024
213	0xbcee6033	-0.029098606
214	0x3d8178d7	0.063218765
215	0xbc4fffc9	-0.012695261
216	0x3cbe8ea1	0.02326137
217	0x3cf1d2ed	0.029519523
218	0x3d23714f	0.03990298
219	0xbd1063dd	-0.035251487
220	0xbc28d418	-0.010304473
221	0xbcd0b6ef	-0.025477855
222	0x3bce23a3	0.0062908693
223	0x3d59b315	0.0531493
224	0xbce96a90	-0.028493196
225	0xbcbca9f9	-0.023030268
226	0xbda8ea4a	-0.08247812
227	0xbca00a19	-0.019536065
228	0xbc184b09	-0.0092952335
229	0x3dc0df5b	0.09417602
230	0x3d889e36	0.06670801
231	0xbd939ea6	-0.07207994
232	0xbc8661da	-0.016404081
233	0x3dbc6d58	0.09200543
234	0xbc702f5a	-0.014659727
235	0x3b019402	0.0019772057
236	0xbd24beea	-0.040221132
237	0x3c2402f5	0.010010471
238	0xbd135404	-0.035968795
239	0x3d2cb7c0	0.042167425
240	0x3d2c1961	0.04201639
241	0xba3586a8	-0.00069246674
242	0xbccf04b3	-0.025270795
243	0xbcd88ca0	-0.026434243
244	0x3bcd89ce	0.006272531
245	0xbc88e88c	-0.01671245
246	0x3d4d1777	0.050071206
247	0x3d5353f5	0.05159374
248	0x3daf881b	0.08570882
249	0xbd15f438	-0.03660986
250	0xbd002005	-0.031280536
251	0xbc1ede51	-0.009696559
252	0x3d56fc6c	0.052486822
253	0xbd152e46	-0.036421083
254	0xb9ed1c9c	-0.00045225478
255	0x3d06a4e3	0.032872092

l3/W f4 [256, 256]
0	0xbcc4d1b1	-0.02402577
1	0x3d94dbb9	0.07268471
2	0xbd938ee5	-0.07204989
3	0x3d45b7eb	0.0482711
4	0x3c2f5578	0.01070153
5	0xbcfe9a45	-0.03107942
6	0x3c2c489e	0.01051536
7	0x3deb6f01	0.11495782
8	0x3d2695c0	0.040670156
9	0xbd55f364	-0.05223407
10	0x3d568ee2	0.052382357
11	0xbd55b5fa	-0.0521755
12	0xbe3b1473	-0.1826952
13	0x3ce45e20	0.027876914
14	0x3dbd44f3	0.09241667
15	0x3d476877	0.04868361
16	0xbd8b3e98	-0.06799048
17	0x3d88a99b	0.06672975
18	0x3c8f56ae	0.017497387
19	0x3b8623bd	0.004093616
20	0x3d5ca0f1	0.053864423
21	0x3d552be4	0.05204381
22	0xbdfad4d9	-0.12247629
23	0xbd8be6fe	-0.06831168
24	0x3d062cd1	0.032757584
25	0xbe0ab910	-0.13547158
26	0xbca93fb3	-0.020660257
27	0x3bf98fcc	0.007616019
28	0x3dcf95ac	0.101359695
29	0xbe115afc	-0.14194864
30	0x3d9acdb7	0.07558768
31	0x3da128d0	0.078691125
32	0x3e058cc0	0.13041973
33	0xbd4c8b8f	-0.04993778
34	0xbc5b350b	-0.013379346
35	0x3d669bba	0.056300856
36	0xbe0dcb13	-0.13846998
37	0x3d8d36e5	0.06895236
38	0xbbdf5314	-0.0068153236
39	0xbd9e42fc	-0.0772762
40	0xbdb51978	-0.088427484
41	0x3db62dba	0.088954404
42	0x39ed6bdc	0.00045284524
43	0x3d506973	0.050881814
44	0x3e033f67	0.12817155
45	0xbe05c836	-0.13064656
46	0xbd685016	-0.056717
47	0x3b99d1d9	0.0046942052
48	0x3de2dc6d	0.11077199
49	0x3cc81bb6	0.024427276
50	0x3de20d08	0.11037642
51	0xbd8ef018	-0.06979388
52	0xbd59225d	-0.053011287
53	0xbd989f08	-0.07452208
54	0xb93775b0	-0.00017496082
55	0x3db80237	0.089847974
56	0xbe1b524e	-0.15168115
57	0xbb8cb993	-0.004294583
58	0xbd4f2f4d	-0.05058222
59	0x3d496848	0.049171716
60	0xbd95855a	-0.073008254
61	0x3d8d34c7	0.06894832
62	0x3cc00c39	0.023443328
63	0xbe480b07	-0.19535457
64	0x3d3c3dc0	0.045957327
65	0x3c6b2637	0.014352373
66	0xbd2f0e28	-0.04273811
67	0x3e04b3e8	0.12959254
68	0x3d132810	0.03592688
69	0xbd7b85fe	-0.06140708
70	0xbd9e057b	-0.07715889
71	0xbd1fdaa1	-0.03902686
72	0x3e08f22a	0.13373628
73	0xbdbbd4bf	-0.091714375
74	0xbe46ae2b	-0.19402377
75	0x3d0ab85f	0.033867236
76	0xbd18dc61	-0.037319545
77	0xbe18df63	-0.14928965
78	0xbdb31994	-0.08745113
79	0x3c0c36d4	0.008557994
80	0x3e5aa1a0	0.21350718
81	0x3dc85333	0.09781494
82	0xbdce0f9b	-0.1006157
83	0xbd6a69da	-0.057229854
84	0x3c760c68	0.015017606
85	0x3c53594a	0.012899706
86	0x3e09292a	0.13394609
87	0x3dba3453	0.09092011
88	0x3dc4c114	0.09607139
89	0x3afe4fbd	0.0019402426
90	0xbccf8d19	-0.025335835
91	0x3dde8c85	0.10866646
92	0x3da6f8fc	0.08152959
93	0x3ddfcee8	0.10928136
94	0xbddde2a5	-0.10834245
95	0xbdb76314	-0.089544445
96	0x3e05a4c6	0.13051137
97	0xbe310ade	-0.17289302
98	0xbe0970ba	-0.13421908
99	0x3cdce132	0.02696285
100	0xbd180c15	-0.037120897
101	0x398cc87d	0.00026852256
102	0xbcca8707	-0.02472259
103	0xbd1afa7c	-0.037836537
104	0x3d618f08	0.055068046
105	0xbc72c332	-0.014817046
106	0xbdfcff32	-0.12353362
107	0xbc4b3788	-0.012403376
108	0xbdb29127	-0.08719092
109	0xbdfc9e30	-0.12334859
110	0xbe9b9f04	-0.30394757
111	0xbc50237b	-0.012703772
112	0x3e16b115	0.14715989
113	0x3dde1361	0.1084354
114	0xbdc5e732	-0.09663238
115	0xbc3cc1fc	-0.011520859
116	0x3db0c758	0.08631772
117	0x3ddd97ba	0.10819955
118	0x3dce8223	0.10083415
119	0x3d7dcbd6	0.06196197
120	0xbd7a6dfa	-0.061140038
121	0x3dae5b24	0.085134774
122	0x3db8b82d	0.09019504
123	0x3d34ed41	0.044171575
124	0xbd2fb874	-0.042900518
125	0xbdd2adf4	-0.10287085
126	0x3c78836a	0.01516805
127	0x3c110419	0.008851075
128	0x3ccdde27	0.025130345
129	0x3d1e1f09	0.038603816
130	0xbda8d4aa	-0.082436875
131	0x3df03245	0.11728338
132	0x3d57d743	0.052695524
133	0x3e0d2689	0.13784231
134	0x3e07b09f	0.1325097
135	0xbe03f877	-0.1288775
136	0xbdb7101c	-0.089386195
137	0xbda4c7b2	-0.08045901
138	0xbe295c3b	-0.1653909
139	0x3d0f082e	0.03491991
140	0x3c36ac66	0.011149501
141	0xbd8f4294	-0.06995121
142	0x3e0364c6	0.12831411
143	0x3d88d94a	0.066820696
144	0x3b4d6067	0.0031337978
145	0x3d331aaf	0.04372662
146	0xbd6a38e9	-0.05718318
147	0x3a1fb373	0.00060921087
148	0x3ced4e39	0.028967964
149	0xbdd788db	-0.1052415
150	0x3d274f97	0.040847387
151	0xbb0a17b6	-0.0021071262
152	0x3d3c1ca9	0.04592577
153	0x3d3ecb64	0.046580687
154	0xbe75fec7	-0.24022971
155	0xbc98971f	-0.018626748
156	0xbdd04352	-0.1016909
157	0xbdba3472	-0.090920344
158	0xbd9add1a	-0.07561703
159	0xbc1f09c3	-0.009706917
160	0xbc9013c3	-0.017587548
161	0xbd823712	-0.0635816
162	0x3e475c80	0.1946888
163	0xbd0e08cb	-0.034676354
164	0xb926914a	-0.00015885118
165	0x3dd6799c	0.10472414
166	0x3e6c8f7d	0.23101611
167	0xbcb19a37	-0.02167998
168	0xbcb38823	-0.021915501
169	0x3e421cbe	0.18956277
170	0x3d9c064c	0.076183885
171	0xbd085a53	-0.033289265
172	0xbd97507b	-0.07388397
173	0x3cd6db7f	0.02622771
174	0x3def7e01	0.11693955
175	0x3cb9f8db	0.022701671
176	0xbe015e16	-0.12633547
177	0x3d355bba	0.04427693
178	0x3dc698bf	0.09697103
179	0xbe1424e9	-0.14467205
180	0x3e4a1a77	0.19736658
181	0x3e7f22f8	0.24915683
182	0xbdb57786	-0.08860688
183	0xbd81745f	-0.06321024
184	0xbcc5b7b7	-0.024135454
185	0xbdc400e0	-0.095704794
186	0xbdec48da	-0.11537333
187	0xbdd750dd	-0.1051347
188	0xbd0b8f65	-0.0340723
189	0x3c071349	0.008244344
190	0x3c32fdf6	0.010924807
191	0x3d94cbbe	0.07265423
192	0xbd73f03b	-0.059555274
193	0xbd02c5fb	-0.03192709
194	0x3d0b9246	0.034075044
195	0xbdd389fd	-0.103290536
196	0xbce9aa97	-0.028523726
197	0xbda7ab95	-0.081870236
198	0x3d8cf312	0.068822995
199	0xbc5242ca	-0.012833307
200	0x3ca86b8e	0.020559099
201	0xbe3a2fe7	-0.18182336
202	0x3d2c6717	0.0420905
203	0x3e0226f4	0.12710172
204	0xbd96d14c	-0.07364139
205	0x3d262b0b	0.040568393
206	0xbc84e200	-0.016221046
207	0x3b6bf627	0.0036004873
208	0xbd8c13a1	-0.068396814
209	0xbb5b22af	-0.003343742
210	0xbcc2f7d5	-0.023799816
211	0xbd0bbb65	-0.03411426
212	0xbdb261f3	-0.087100886
213	0x3da8e1d4	0.08246198
214	0xbd8d3944	-0.06895688
215	0x3d629e2b	0.055326622
216	0xbc83556d	-0.016031945
217	0x3baaf57e	0.005217253
218	0x3dd1ce8f	0.10244476
219	0xbdcb1e2c	-0.09917864
220	0x3e3370db	0.1752352
221	0x3dbe0277	0.09277814
222	0xbe2aa4b8	-0.16664398
223	0xbcdd04c6	-0.026979815
224	0x3d940ac3	0.07228615
225	0x3d40d736	0.04708024
226	0x3c0b9aad	0.008520764
227	0xbdf24ccb	-0.11831053
228	0x3d7ffd8c	0.06249766
229	0xbe28d260	-0.16486502
230	0xbd40d4aa	-0.047077812
231	0xbdacf6ce	-0.08445512
232	0xbcb1dfaf	-0.021713106
233	0xbde1e481	-0.11029912
234	0x3d5e86b2	0.054327674
235	0x3d316145	0.043305654
236	0xbd89a178	-0.06720251
237	0xbcb40ea0	-0.02197963
238	0x3dea2003	0.11431887
239	0x3bee6179	0.0072748032
240	0xbe1cf444	-0.15327555
241	0xbce0d569	-0.027445512
242	0xbd5d7087	-0.054062393
243	0x3d2b43c7	0.041812684
244	0x3dd4c2e1	0.10388733
245	0x3e0ac288	0.1355077
246	0xbc0724b4	-0.008248497
247	0x3df02ede	0.11727689
248	0xbe4cc521	-0.19997074
249	0xbd2efc8c	-0.042721316
250	0x3b8a0627	0.004212159
251	0x3d86cb6d	0.06581769
252	0x3d75b0a6	0.05998292
253	0x3e289e1d	0.16466565
254	0x3d985afb	0.07439228
255	0x3d986869	0.0744179

l1/b f4 [256]
0	0x3c8eeea8	0.017447785
1	0xbdbd011d	-0.09228728
2	0xbd3c2d8b	-0.04594187
3	0x3ce597d7	0.028026504
4	0xbcfe0ee4	-0.03101296
5	0x3ba78d54	0.005113283
6	0xbbac8bf4	-0.005265707
7	0xbcae6c41	-0.021291854
8	0xbc27fae8	-0.010252692
9	0xbd82b6e9	-0.063825436
10	0xbd593cbd	-0.05303644
11	0xbbc355d9	-0.0059611616
12	0xbc8a5be0	-0.016889513
13	0xbe60b707	-0.2194482
14	0x3d2ab323	0.041674744
15	0x3c491705	0.012273555
16	0xbd6f380d	-0.058403064
17	0xbdb5199a	-0.08842774
18	0x3d3272bf	0.04356646
19	0xbe07a97f	-0.13248251
20	0x3d2d2dc9	0.042279992
21	0xbe194332	-0.14967039
22	0x3d357cce	0.044308476
23	0x3d7d408d	0.06182914
24	0x3ca6a285	0.020341167
25	0xbca45a8e	-0.020062711
26	0x3d2eb89b	0.042656522
27	0xbd5a8d1d	-0.053357232
28	0xbcbc26e5	-0.022967765
29	0x3d72f588	0.059316188
30	0x3d4c3def	0.049863752
31	0x3d1127c6	0.03543832
32	0x3c34f5a0	0.01104489
33	0x3c94d5da	0.018168379
34	0xbc82a4d2	-0.015947733
35	0x3c8644a5	0.016390154
36	0xbcb86a84	-0.022511728
37	0x3c9eef19	0.01940112
38	0xbe17757a	-0.14790908
39	0xbcc96c80	-0.02458787
40	0xbd9243a3	-0.07141807
41	0x3ce3c1ba	0.027802337
42	0x3bc89897	0.0061217058
43	0xbdc23433	-0.094826125
44	0x3cff4a68	0.03116341
45	0xbd68b3cb	-0.05681209
46	0xbc08e8bd	-0.00835627
47	0xbdba586d	-0.09098897
48	0x3dd8cff6	0.105865404
49	0x3c5c4853	0.013444978
50	0x3c27cafe	0.010241268
51	0xbd69269a	-0.05692158
52	0xbd83360c	-0.06406793
53	0x3cd65dec	0.026167832
54	0xbbbcf5d5	-0.00576661
55	0x3d17037e	0.036868565
56	0xbd9bcea9	-0.07607777
57	0x3c8070ec	0.015678845
58	0x3c55c6ed	0.013047916
59	0xbe200780	-0.15627861
60	0x3bc8160e	0.0061061447
61	0x3d0d36b5	0.034476
62	0x3d0823d3	0.03323729
63	0xbe2233c9	-0.15840067
64	0xbbcb211c	-0.0061990153
65	0x3c7c65b4	0.015405107
66	0xbd38ab7d	-0.04508542
67	0x3d3abfdc	0.045593128
68	0xbea8aacc	-0.32942808
69	0xbcd75056	-0.026283424
70	0xbaf1c24e	-0.0018444748
71	0x3d624f23	0.055251252
72	0x3c6afa96	0.014341971
73	0xbc768e8c	-0.015048634
74	0x3cc37486	0.023859274
75	0x3d44b368	0.048022658
76	0x3d845d38	0.064630926
77	0xbe26ed24	-0.163014
78	0x3d2e0a63	0.042490374
79	0xbdcbf6a2	-0.09959151
80	0x3d121ca1	0.035671834
81	0xbd23f069	-0.040024195
82	0xbd814cd2	-0.063134804
83	0x3d9bc112	0.076051846
84	0x3d82674f	0.06367361
85	0x3c9a9077	0.018867714
86	0x3d319209	0.04335216
87	0xbe191321	-0.14948703
88	0x3db0f9b3	0.08641376
89	0xbc0d9287	-0.008640892
90	0xbb95a25f	-0.0045664753
91	0xbc485137	-0.012226394
92	0x3c0c81fe	0.008575914
93	0x3d5b7ac8	0.05358389
94	0xbc10b395	-0.008831878
95	0x3c075f15	0.008262415
96	0xbdd6f32e	-0.104956016
97	0x3d886eaa	0.066617325
98	0x3d589c68	0.052883536
99	0x3d038fef	0.032119688
100	0x3d592980	0.053018093
101	0xbd7b08b5	-0.0612876
102	0xbe560df6	-0.20903763
103	0x3c46e78f	0.012140169
104	0x3ce7751b	0.028254082
105	0xbcda26bc	-0.026629798
106	0x3d1b1711	0.037863795
107	0xbb620274	-0.0034486325
108	0xbc1f01c0	-0.009705007
109	0x3cbac619	0.022799538
110	0x3d4e52b3	0.050371837
111	0x3d759495	0.059956152
112	0xbda17177	-0.0788297
113	0xbd9e371d	-0.07725356
114	0xbd1e6d79	-0.03867862
115	0x3dbd7642	0.092510715
116	0xbd29942b	-0.04140107
117	0xbd94141e	-0.072303995
118	0xbbba7b57	-0.005690973
119	0xbdb9ed3b	-0.09078451
120	0xbbd14752	-0.006386676
121	0x3cea479d	0.028598601
122	0x3ce2e825	0.027698586
123	0xbd68ef90	-0.05686909
124	0xbddf71ce	-0.109103784
125	0x3c86a2e8	0.016435102
126	0x3b7c4581	0.0038493576
127	0xbe1bed4b	-0.15227239
128	0xbd8da2e9	-0.06915838
129	0xbda49334	-0.08035889
130	0xbbe9b66b	-0.0071323416
131	0xbdd4c96d	-0.103899814
132	0xbb722f52	-0.0036954475
133	0xbca2753c	-0.019831292
134	0x3b9810d2	0.004640677
135	0x3c3e85a7	0.011628545
136	0xbb3c032d	-0.0028688416
137	0xbd59f314	-0.053210333
138	0xbc809204	-0.015694626
139	0xbc974a4f	-0.01846805
140	0x3bb47cda	0.0055080475
141	0xbd14fd86	-0.03637459
142	0x3d1e57de	0.038658015
143	0x3cc0c17f	0.023529766
144	0x3d596c81	0.053081993
145	0x3bc85b83	0.0061144247
146	0x3d04b924	0.032403126
147	0xbdcb3b98	-0.09923476
148	0xbd9bd410	-0.07608807
149	0xbcb956bd	-0.022624368
150	0xbd881d45	-0.06646208
151	0xbc154726	-0.009111201
152	0xbdda141a	-0.10648365
153	0xbc8ad288	-0.016946092
154	0x3d01d131	0.03169364
155	0xbc729e33	-0.014808225
156	0xbe239f13	-0.15978651
157	0x399b5040	0.00029623695
158	0xbe134d23	-0.14384894
159	0xbd78aedb	-0.06071363
160	0xbe15de0e	-0.14635488
161	0x3c4d91db	0.012546982
162	0x3d27fc32	0.041011997
163	0x3d49cbe9	0.04926673
164	0x3c6d301e	0.014476804
165	0x3d1be41c	0.03805934
166	0x3d17582a	0.036949314
167	0x3c9d9ec1	0.019240739
168	0xbc0c88ad	-0.008577508
169	0x3d0757e0	0.03304279
170	0xbdbeadc2	-0.093104854
171	0xbe0288ba	-0.1274747
172	0xbc0e81b7	-0.008697919
173	0x3d3ccaf7	0.046092
174	0x3ccc312b	0.024925789
175	0xbdca7728	-0.098860085
176	0xbc258820	-0.0101032555
177	0x00000000	0.0
178	0x396dd982	0.0002268311
179	0xbc5f715f	-0.01363787
180	0x3d493c87	0.04912999
181	0xbe4929f8	-0.19644916
182	0x3bb0fce3	0.00540124
183	0xbd2a4988	-0.04157403
184	0xbc681a64	-0.014166448
185	0x3dda6f4c	0.106657594
186	0xbd1f1aea	-0.038844027
187	0x3c139fb5	0.009010245
188	0xbd2a8b32	-0.041636653
189	0xbe18b1e9	-0.14911617
190	0xbdeadb87	-0.11467653
191	0x3d9379c2	0.07200958
192	0x3d4a880b	0.049446147
193	0xb9ee301d	-0.00045430745
194	0xbbfc77f0	-0.0077047274
195	0xbe13378c	-0.14376658
196	0x3cdf53c5	0.027261624
197	0xbd901620	-0.0703547
198	0x3ca7399e	0.020413216
199	0x3ce72d33	0.028219795
200	0xbd829b44	-0.06377271
201	0xbdd05f2f	-0.10174405
202	0x3df6fb3c	0.12059638
203	0xbc89ec83	-0.01683641
204	0xbdf2c8e4	-0.11854723
205	0xbd26562e	-0.04060953
206	0x3caa4d54	0.020788826
207	0x3c019be8	0.007910706
208	0x3c941160	0.018074691
209	0xbd5d602a	-0.054046787
210	0xbc2fb583	-0.010724428
211	0x3d36a646	0.044592164
212	0xbb7e444f	-0.003879804
213	0x3da157c2	0.078780666
214	0x3d3d1ec0	0.046171904
215	0xbd21e5fd	-0.039525975
216	0xbd8c2af7	-0.068441324
217	0x3bc27612	0.0059344852
218	0x3ce9c3b2	0.028535698
219	0x3c8aea93	0.016957557
220	0x3c99d00b	0.01877596
221	0xba62b4e4	-0.00086481706
222	0x3d39aa6a	0.045328535
223	0xbe0529c3	-0.13004212
224	0xbd7e29f9	-0.062051747
225	0xbc9ac51d	-0.018892819
226	0xbe099507	-0.13435756
227	0x3b1630eb	0.002291734
228	0xbd0e0b0c	-0.034678504
229	0x3c077123	0.00826672
230	0x3b36ce23	0.0027893863
231	0xbc74cebe	-0.014941869
232	0xbcd5b446	-0.026086938
233	0x3aa58f17	0.0012631145
234	0xbce95192	-0.028481279
235	0x3bd2cd00	0.0064331293
236	0xbd1eae27	-0.038740303
237	0xbcec9217	-0.028878255
238	0x3d0ca8ca	0.034340657
239	0xbc99151d	-0.018686825
240	0x3da08494	0.07837787
241	0x3d095e4a	0.033537187
242	0xbbf4e8ed	-0.007474056
243	0xbd95103c	-0.07278487
244	0x3d1549ca	0.036447324
245	0xbd93fa04	-0.07225421
246	0x3d0553cc	0.032550618
247	0xbd98b219	-0.074558444
248	0x3b6c7388	0.0036079604
249	0xbc940517	-0.018068833
250	0xbe3458b6	-0.17611966
251	0xbd91f82a	-0.07127412
252	0x3b18c9a4	0.0023313547
253	0x3d20586f	0.039146837
254	0xbae8a18a	-0.0017748338
255	0x3cf07640	0.029353261

l1/W f4 [256, 16]
0	0x3eff8822	0.4990855
1	0xbda3803b	-0.079834424
2	0x3e016de3	0.12639575
3	0xbe2881fd	-0.16455837
4	0x3f07b0b8	0.53004026
5	0x3c5c4dcf	0.013446285
6	0xbf8db101	-1.1069642
7	0x3f3e8ad3	0.7443058
8	0xbeda8957	-0.42682907
9	0x3eb28020	0.34863377
10	0x3d805666	0.06266479
11	0xbf57dd38	-0.8432193
12	0x3e607552	0.21919754
13	0xbc876f46	-0.016532551
14	0x3eeba05b	0.4602078
15	0x3eb35797	0.35027763
16	0xbe6d25c6	-0.2315894
17	0x3f156e66	0.5837158
18	0xbdf75cb1	-0.12078226
19	0x3e9deb79	0.30843714
20	0x3f2c4344	0.6729014
21	0xbe53e420	-0.20692492
22	0x3eff8d86	0.4991266
23	0x3e452f95	0.19256432
24	0xbf0749da	-0.52847064
25	0x3ebc6fda	0.36804086
26	0x3ed06e64	0.4070922
27	0xbe7b5d26	-0.24547252
28	0xbd840a90	-0.06447327
29	0x3deb605c	0.114929885
30	0xbe1c647c	-0.15272707
31	0xbeaac431	-0.33352807
32	0x3e7a0bc3	0.24418549
33	0x3dbf389d	0.0933697
34	0xbdda6fdb	-0.10665866
35	0x3e6d1a6e	0.23154613
36	0x3d64d1b2	0.055864044
37	0xbf17b1b9	-0.5925556
38	0x3dfc5a5e	0.12321924
39	0x3d5ecf47	0.054396894
40	0xbf34a22f	-0.7055997
41	0x3ef03454	0.46914923
42	0xbe5c914d	-0.21539803
43	0x3e2f3089	0.17108358
44	0x3f058cf3	0.52168196
45	0x3d8d3bec	0.06896195
46	0x3dc1a206	0.09454732
47	0x3e43c4d1	0.19118048
48	0xbf141be3	-0.5785505
49	0x3e4225e5	0.18959768
50	0xbee26a1c	-0.4422158
51	0x3e6fb838	0.23410118
52	0xbecfdd5d	-0.40598574
53	0xbed57c99	-0.41696623
54	0x3ea202b8	0.316427
55	0x3f6cd9bc	0.92519736
56	0x3ec45bad	0.38351193
57	0xbee1d07d	-0.44104376
58	0x3dc079b2	0.093982115
59	0xbd03d362	-0.032184012
60	0xbe0ef93b	-0.13962261
61	0xbee76217	-0.45192024
62	0x3e153cd1	0.14573981
63	0x3f0de553	0.55428046
64	0xbccdcdf8	-0.025122628
65	0xbd71ed55	-0.059064228
66	0x3f40d147	0.7531933
67	0x3e992feb	0.2991937
68	0x3e3c8fb8	0.184142
69	0x3e0e0db2	0.13872412
70	0x3e46929b	0.19391863
71	0x3e8b93b8	0.27261138
72	0xbea21291	-0.3165479
73	0xbe4b6714	-0.1986354
74	0xbf03ea84	-0.5152972
75	0xbf18a0fa	-0.5962063
76	0x3e23e908	0.16006863
77	0x3e078146	0.13232908
78	0xbf06f0ce	-0.5271119
79	0x3e434d48	0.19072449
80	0x3f05a2bd	0.52201444
81	0xbea7a98d	-0.32746544
82	0x3d0dc6e7	0.034613516
83	0x3d732cc3	0.05936886
84	0xbe1065cc	-0.14101332
85	0xbf1d45ab	-0.6143443
86	0x3e8d12de	0.27553457
87	0xbeb3fec4	-0.35155308
88	0xbd9cf84f	-0.076645486
89	0xbc57eb28	-0.013178624
90	0xbe8afabd	-0.27144423
91	0xbec00eeb	-0.37511382
92	0xbdcdac76	-0.1004266
93	0xbdf9d9c2	-0.12199737
94	0xbeafdc33	-0.34347686
95	0x3c8f456e	0.017489161
96	0xbf78bd7d	-0.97164136
97	0xbeb51dce	-0.35374302
98	0xbdd15393	-0.10221019
99	0x3e6f354a	0.23360172
100	0x3e5df413	0.21675138
101	0xbee396c0	-0.4445095
102	0xbe036bcc	-0.1283409
103	0xbd6df602	-0.05809594
104	0x3d2f6ec8	0.04283026
105	0x3f3e53b2	0.7434646
106	0x3eeb3d4a	0.45945197
107	0xbeeea8dc	-0.46613204
108	0xbe4b4141	-0.19849111
109	0x3dc0f206	0.09421162
110	0xbdf9e6a8	-0.12202197
111	0x3a239df9	0.00062414963
112	0x3d0abe86	0.033873104
113	0x3e09459c	0.1340546
114	0x3f15e795	0.5855649
115	0xbf4cdef2	-0.8002769
116	0x3eeaa032	0.45825344
117	0x3e9b7c09	0.3036807
118	0xbee8f9b4	-0.45503008
119	0xbdc0f6e0	-0.09422088
120	0xbef14562	-0.47123247
121	0x3d998a30	0.0749706
122	0xbebbb376	-0.36660355
123	0x3d1d214e	0.03836184
124	0x3eefb3eb	0.46816954
125	0xbef9d563	-0.48795614
126	0x3e126bb3	0.14298896
127	0x3e8f7deb	0.28025755
128	0x3dc16cb2	0.0944456
129	0x3eaaf73d	0.33391753
130	0xbe34da38	-0.17661369
131	0x3ecbb5a3	0.39787015
132	0x3e4105e9	0.18849911
133	0x3e93f1f4	0.28895533
134	0x3d0958fc	0.033532128
135	0x3d44bdd0	0.04803258
136	0xbd298ac2	-0.041392095
137	0xbe8f86d6	-0.2803256
138	0xbee2d6b8	-0.44304442
139	0xbe6dd64d	-0.2322628
140	0xbf2529cc	-0.645169
141	0xbea13b77	-0.3149068
142	0xbe0bb25a	-0.13642254
143	0xbd0315d7	-0.03200325
144	0x3eadd8eb	0.33954558
145	0x3ec850ce	0.3912415
146	0x3f0ceb27	0.55046314
147	0x3d6fd857	0.058555927
148	0xbe6c44d0	-0.23073125
149	0xbeb4780a	-0.35247833
150	0x3f676692	0.90390885
151	0xbe8663cf	-0.26248023
152	0xbeecc6fe	-0.4624557
153	0x3ec5abbd	0.38607588
154	0xbe1ad045	-0.15118511
155	0xbdf18371	-0.117926486
156	0xbf695e8d	-0.911599
157	0xbdbc7708	-0.09202391
158	0x3f165b13	0.5873272
159	0xbd8e06f1	-0.06934918
160	0xbdb5fe40	-0.08886385
161	0x3e9eac6f	0.3099093
162	0x3e114d08	0.14189541
163	0xbdaedac9	-0.08537824
164	0xbf4f47b3	-0.8096878
165	0x3f33349c	0.7000215
166	0xbec8fa53	-0.39253482
167	0x3e88e33f	0.26735875
168	0x3e4697e3	0.19393878
169	0xbf010a29	-0.5040613
170	0x3eb9f900	0.36322784
171	0xbe158ad9	-0.14603747
172	0xbf1edb9e	-0.6205386
173	0x3ebeb940	0.3725071
174	0x3db07c73	0.08617487
175	0x3e152f49	0.14568819
176	0xbe59899d	-0.21243902
177	0xbebdb264	-0.37050164
178	0x3eb4a1f8	0.35279822
179	0xbf1d9ae5	-0.61564475
180	0xbeb92c9d	-0.3616685
181	0xbea6c747	-0.32573912
182	0xbf567cb5	-0.8378404
183	0xbd32625a	-0.043550827
184	0xbe6ae5cc	-0.22939223
185	0xbf1e691d	-0.6187914
186	0x3f171f59	0.5903221
187	0x3ea5e5b1	0.32401803
188	0xbe73c440	-0.23805332
189	0xbea9b362	-0.3314467
190	0xbec66830	-0.38751364
191	0xbb8372dc	-0.004011495
192	0xbdf27f95	-0.118407406
193	0x3e6ee934	0.23331147
194	0xbe8cb62e	-0.27482742
195	0x3efbac91	0.49155095
196	0xbe26c60c	-0.16286486
197	0xbd1e0c50	-0.03858596
198	0x3e87ade8	0.26499867
199	0xbf118b7f	-0.5685348
200	0xbeddcd85	-0.4332086
201	0xbf0a5763	-0.5403959
202	0x3e8cdad0	0.2751069
203	0xbea3009a	-0.31836396
204	0x3d0de0b8	0.034638137
205	0xbd6780f6	-0.05651947
206	0xbeac7b9c	-0.33688056
207	0x3f2b29ac	0.6686046
208	0xbbece624	-0.0072295833
209	0x3e39b70f	0.18136238
210	0xbed58b4a	-0.41707832
211	0x3e0b71a5	0.1361757
212	0x3f53c169	0.82716995
213	0xbe023f6f	-0.1271951
214	0xbe570e8c	-0.21001643
215	0xbc8cd119	-0.01718955
216	0x3dbeedf4	0.0932273
217	0x3c5b8396	0.013398072
218	0x3ebe096e	0.3711657
219	0xbdce3517	-0.1006872
220	0x3e3c9a58	0.18418252
221	0xbd04936a	-0.032367148
222	0x3edc4fee	0.43029732
223	0xbccb514b	-0.024819037
224	0xbf16c31b	-0.5889146
225	0xbe840722	-0.25786692
226	0x3eb981c3	0.36231813
227	0xbed4703c	-0.41491878
228	0xbe2f5bea	-0.17124906
229	0x3e675fa1	0.22595073
230	0x3c19d7f6	0.009389868
231	0xbeb06e2a	-0.34459049
232	0xbcacf494	-0.021112718
233	0xbdc0ad2b	-0.09408029
234	0xbdd43184	-0.10361007
235	0xbc44a11e	-0.012001304
236	0xbe73fc34	-0.23826677
237	0xbe8f0ab2	-0.27937847
238	0x3eb291c9	0.3487685
239	0xbc4ff4cb	-0.012692641
240	0x3e340473	0.17579822
241	0xbecafd13	-0.39646205
242	0x3e7c2307	0.24622737
243	0x3cb8e04c	0.02256789
244	0x3e92e4a9	0.2869008
245	0x3f177963	0.59169596
246	0xbe744195	-0.23853143
247	0x3df016d1	0.11723102
248	0xbe1ed0aa	-0.15509287
249	0xbed6b7ff	-0.41937253
250	0x3e6fadd0	0.23406148
251	0x3e8923e2	0.2678519
252	0x3e0a1dc5	0.13487919
253	0x3dee15ac	0.11625227
254	0xbe483e54	-0.19555026
255	0xbec364cd	-0.38162842

l4/b f4 [16]
0	0x3d880066	0.06640701
1	0xbb78d6d3	-0.0037969842
2	0x3ca842ed	0.020539725
3	0x3dd629dd	0.104572035
4	0x3da060d7	0.07830971
5	0xbc88dbf6	-0.016706448
6	0xbd32dbbc	-0.043666586
7	0x3d6f54c1	0.058430437
8	0x3da637df	0.08116125
9	0x3c91d60e	0.017802265
10	0xbd10ab7a	-0.035319783
11	0x3ddc2346	0.107489154
12	0x3d66cd04	0.056347862
13	0x3ce864fb	0.028368464
14	0x3d7f7223	0.06236471
15	0x3dba23c3	0.09088852

l4/W f4 [16, 256]
0	0xbd3796f1	-0.044821683
1	0x3be14295	0.0068743923
2	0x3c14aae0	0.009073943
3	0x3d05b8e8	0.032647043
4	0x3cc972b7	0.024590833
5	0x3e5b7729	0.21432175
6	0x3d9ba6b6	0.07600157
7	0xbcc8b473	-0.024500107
8	0xbdc2c737	-0.095106535
9	0xbea10731	-0.314508
10	0x3dee9d2c	0.11651072
11	0xbe597ed0	-0.21239781
12	0x3cea3bfa	0.028593052
13	0x3da61750	0.08109915
14	0xbcc3a317	-0.023881478
15	0x3d9e094e	0.077166185
16	0x3e0a42e9	0.13502087
17	0x3d0c6e8f	0.034285124
18	0xbe17de1e	-0.14830825
19	0x3d34a59b	0.044103246
20	0x3d64e7e6	0.055885218
21	0x3d9de3a9	0.07709438
22	0x3e3f0361	0.18653633
23	0xbe0d25db	-0.13783972
24	0x3dd233da	0.10263796
25	0xbe31ca2f	-0.17362283
26	0xbdb19e10	-0.08672726
27	0x3e713fe6	0.23559532
28	0xbe469bbe	-0.19395348
29	0xbd5724bd	-0.05252527
30	0xbd8964b4	-0.06708661
31	0x3ddb72a4	0.10715225
32	0x3de92f3b	0.113859616
33	0xbdad9873	-0.08476343
34	0x3e8ab486	0.27090853
35	0xbd482712	-0.048865385
36	0x3dc9c12f	0.098513
37	0x3e34ad13	0.17644148
38	0xbe5b2858	-0.21402109
39	0x3c2f4a0a	0.010698805
40	0xbe0b1054	-0.13580447
41	0xbb3fd57e	-0.0029271538
42	0x3d1c69d5	0.038186867
43	0x3c89e61f	0.016833363
44	0x3b34c9ec	0.0027586175
45	0x3e6d7c5f	0.23191975
46	0x3ce7efa8	0.02831252
47	0xbde3267a	-0.11091323
48	0x3e1652c6	0.14680013
49	0x3c87f410	0.01659587
50	0xbd1a4fb8	-0.037673682
51	0x3df51ba0	0.1196816
52	0x3d7b8a64	0.061411276
53	0x3e108494	0.14113075
54	0x3d8c2fd7	0.06845062
55	0x3d9316cd	0.07182083
56	0xbd87283d	-0.06599472
57	0x3e62dce0	0.2215457
58	0xbe3ee801	-0.1864319
59	0x3dea2aa8	0.11433917
60	0x3d4b9694	0.04970415
61	0x3e6bd66c	0.23031014
62	0x3db01764	0.085982114
63	0x3c73a055	0.014869769
64	0xbd1462a1	-0.036226872
65	0xbeae6134	-0.34058535
66	0x3dd29f32	0.1028427
67	0x3cfe3760	0.031032264
68	0xbc075b94	-0.00826158
69	0x3e105959	0.14096583
70	0x3bb4e0fe	0.005519985
71	0xbda0191a	-0.07817288
72	0xbe0714d4	-0.13191539
73	0xbc8c743f	-0.017145274
74	0xbe83005e	-0.25586218
75	0xbd592ca6	-0.053021096
76	0x3d21af2f	0.03947371
77	0xbd8d9827	-0.069137864
78	0x3d1c26d9	0.038122986
79	0xbe43715e	-0.19086215
80	0xbd0cbb1b	-0.034358125
81	0x3d371a51	0.04470283
82	0xbe1bd4b6	-0.15217862
83	0x3e3510a2	0.17682126
84	0x3dede88b	0.1161662
85	0xbe57d265	-0.21076353
86	0xbe53310a	-0.20624176
87	0xbe94217b	-0.28931794
88	0xbd1ab78f	-0.03777271
89	0x3e8549a2	0.2603274
90	0xbe10ae43	-0.14128976
91	0x3d10c288	0.03534177
92	0x3ce46d42	0.02788413
93	0xbd2602da	-0.040530063
94	0xbcbb1672	-0.022837851
95	0x3d306d8f	0.043073233
96	0xbdcf817b	-0.10132118
97	0x3d7bcdb4	0.06147547
98	0xbe10e0e3	-0.14148287
99	0x3cb5dd2d	0.022200191
100	0xbdc73ecf	-0.09728777
101	0xbd646c6f	-0.055767473
102	0x3d8c030f	0.06836521
103	0xbd9ad2da	-0.07559748
104	0x3e25200a	0.16125503
105	0xbd9e6f07	-0.077360205
106	0x3d7f3e0a	0.062315024
107	0xbd9496b3	-0.07255306
108	0xbe381c07	-0.17979442
109	0x3ea42c14	0.3206488
110	0x3e281b5a	0.16416684
111	0xbe210f2c	-0.15728444
112	0x3e0a14b9	0.13484468
113	0xbda7090a	-0.08156021
114	0x3e593e5b	0.21215193
115	0x3cd121ea	0.025528867
116	0xbd6d739a	-0.057971574
117	0xbe4b1f3c	-0.19836134
118	0x3db7eec8	0.08981091
119	0x3e40e2f3	0.18836574
120	0x3dac49c8	0.0841251
121	0x3e10c5b2	0.14137915
122	0x3e809df9	0.25120524
123	0x3dfa30ca	0.12216337
124	0xbdc12818	-0.094314754
125	0xbbc31812	-0.005953797
126	0xbeae0f60	-0.33996105
127	0xbe15e82e	-0.14639351
128	0x3e618c26	0.22026119
129	0xbd5bf505	-0.053700466
130	0x3db27116	0.08712976
131	0xbd995a14	-0.07487884
132	0x3dced4a1	0.100991495
133	0x3e727b3b	0.23679821
134	0xbd8ce1c9	-0.068790026
135	0x3d564144	0.052308336
136	0xbe2eb4ef	-0.17061208
137	0xbe05d58a	-0.1306974
138	0x3d9ccf7d	0.07656763
139	0xbeb4b7bf	-0.35296437
140	0xbe484480	-0.1955738
141	0x3d34e05b	0.044159275
142	0x3e16de7d	0.1473331
143	0x3e48b137	0.19598852
144	0x3d540710	0.051764548
145	0xbe32bdfb	-0.17455284
146	0xbd62497b	-0.055245858
147	0xbe802b0b	-0.2503284
148	0x3da23ef3	0.07922163
149	0xbd814068	-0.06311113
150	0xbd85ec92	-0.06539263
151	0x3d4ae11c	0.049531087
152	0xbec639cf	-0.3871598
153	0x3c6c4a02	0.014421942
154	0x3e35d432	0.17756727
155	0xbea40198	-0.32032466
156	0xbe4fd59e	-0.20296332
157	0xbd1f76d7	-0.038931694
158	0x3e6b39bf	0.22971247
159	0x3cefae8c	0.029258035
160	0xbd8b5d73	-0.068049334
161	0x3cafa822	0.021442477
162	0x3d2f529c	0.04280339
163	0x3df5014a	0.119631365
164	0x3b9664fe	0.004589676
165	0xbe19c5a8	-0.15016806
166	0x3e17bcb0	0.14818072
167	0x3dff5ba8	0.12468654
168	0x3dc63ea6	0.09679918
169	0x3e828489	0.2549174
170	0xbd817f42	-0.063231006
171	0x3d913c81	0.07091618
172	0x3c42a8db	0.011881079
173	0xbc75e8d4	-0.015009124
174	0x3cf54741	0.029941203
175	0xbe96b026	-0.29431266
176	0x3d1375a9	0.03600088
177	0xbd3a8b75	-0.045543153
178	0xbc97b7ae	-0.018520202
179	0x3df16666	0.11787109
180	0x3e2dc99e	0.16971442
181	0x3e7abb3f	0.24485491
182	0xbde9a999	-0.11409301
183	0x3e24ec9d	0.16105886
184	0xbcfdda5a	-0.030987907
185	0x3e01ecd8	0.12688005
186	0xbdd00654	-0.10157457
187	0x3c8f0f7c	0.017463438
188	0xbe3513d6	-0.17683348
189	0x3ea11cb6	0.31467217
190	0x3e5d27bf	0.21597193
191	0xbdcef734	-0.10105744
192	0x3eb67e67	0.35643312
193	0x3d9168fd	0.07100103
194	0x3c94d144	0.018166192
195	0xbc95417d	-0.018219704
196	0xbd42c4f8	-0.047551125
197	0x3e7f80a8	0.24951422
198	0xbda1cf5a	-0.07900877
199	0xbe6f0069	-0.2334
200	0x3da0ebc7	0.07857471
201	0xbe09586b	-0.13412635
202	0x3d849562	0.06473805
203	0xbe5c4227	-0.2150961
204	0x3d2814bc	0.0410354
205	0xbd17304b	-0.03691129
206	0xbd803625	-0.06260327
207	0xbe4e1c53	-0.20127992
208	0x3bf6d9ff	0.0075333114
209	0xbe859b02	-0.26094824
210	0x3e6de547	0.23231994
211	0xbdf5666d	-0.11982427
212	0xbe09c7a8	-0.13455069
213	0x3cf905eb	0.03039833
214	0x3e467bfa	0.19383231
215	0x3da14d62	0.07876088
216	0xbde416be	-0.1113715
217	0x3e3607e8	0.17776453
218	0x3e0854ce	0.133136
219	0xbd38a54b	-0.04507951
220	0xbd2f9f98	-0.04287681
221	0xbccd88db	-0.025089672
222	0xbe0c6bd7	-0.13713013
223	0xbc101bd3	-0.008795696
224	0x3ea1aedd	0.31578723
225	0xbe21690c	-0.15762728
226	0xbce4613a	-0.027878392
227	0xbe0d600e	-0.13806173
228	0x3e103e89	0.14086355
229	0x3d51c072	0.05120892
230	0x3e0126e2	0.12612489
231	0xbe403ce8	-0.18773234
232	0xbcd2fba0	-0.02575475
233	0xbcfb7d0b	-0.030699274
234	0xbc85d436	-0.016336542
235	0xbe160024	-0.14648491
236	0xbe3a53dc	-0.18196052
237	0x3a176f67	0.0005776793
238	0xbc26c4ba	-0.010178739
239	0x3e93fd36	0.28904122
240	0xbd8366c3	-0.064160846
241	0xbd7ff113	-0.062485766
242	0xbcc370bc	-0.023857467
243	0x3d007149	0.031358037
244	0xbc1cb41d	-0.009564427
245	0x3d2b479c	0.04181634
246	0x3d933577	0.07187932
247	0x3d281e7a	0.04104469
248	0xbb0ddfae	-0.0021648216
249	0x3e0f97a3	0.14022689
250	0xbca43ec3	-0.020049458
251	0x3d0f2c2d	0.03495424
252	0xbda3aeb3	-0.079923056
253	0x3c8d795e	0.017269786
254	0xbda1a6bc	-0.0789313
255	0x3dbed2a4	0.0931752
