static/ai/8/agent_white_30000/model.npz (npz, 605436 bytes, 8 tensors)

l2/W f4 [256, 256]
00000000: 725b 4ac1 5191 abc0 4714 ccc0 434f 82c0
00000010: 5a12 2041 aa21 24bc 5ec4 adbf f365 5bc1
00000020: 729e 5ac1 312c 0cbf c249 7fbf ad26 be40
00000030: 0a2f 22c1 ffd8 4b40 722e 93c1 3acc 4fc0
00000040: 952d 9e3f 71c9 553e 3330 7cbf b687 1841
00000050: 0612 6fc0 3bf2 c13e 8e9a 3cc0 9def 89c0
00000060: 5b7b 0440 3c81 babe a001 3241 f96b 4d40
00000070: 3c59 98c1 f5e9 6741 d262 8e3f 90b1 4cc0
00000080: 11b1 b2c0 820b 81bf c8de df3f f8b3 fdc0
00000090: 44fa 853f 5784 d5c0 d8d5 f140 15cd 1b40
000000a0: 2df9 98c0 67e4 7cc0 02d8 eec0 f18b b4c0
000000b0: 605f 9ac1 7135 00be 494f 0c41 e456 15c0
000000c0: 8e63 68c1 cff8 07c1 0a9b 8d40 e507 4f41
000000d0: 9b92 1ebf 3887 9240 9591 bac1 0e3a bf3f
000000e0: 8de9 d240 f45c 09c0 a368 ddc0 68f4 80c1
000000f0: 5fe4 84c1 e438 60c1 30b0 81c1 5bee 62c0
00000100: 9d58 2c3f 9718 98c1 78f4 3f40 df91 bc40
00000110: d0c4 14c1 b8c0 0641 a91f c040 d26e a03c
00000120: f84f 54c0 384c 1841 7f6c 8c40 46a4 c4c0
00000130: e6e6 84c0 19b9 8cc1 084e cfc0 37d0 08c1
00000140: 6a68 93c1 d258 943f 9229 9641 b883 65c0
00000150: 8f34 d1bf 14ca 36c1 aa0b 91bf 0d8a 70be
00000160: 04e1 2d41 73f3 88c0 430b 02c1 8c62 ba3f
00000170: 2a85 7e40 9fd3 66c0 08c6 763b 9390 fc40
00000180: 39cd 0cc1 06f7 72c0 e3df 0d41 00b1 8a40
00000190: 4a3b 7ec1 6848 e83f 3fd2 e240 a709 a0c0
000001a0: 023c 78c1 7a6f 2141 bee8 d4c0 aa12 e4c0
000001b0: 3065 1bc1 1dea 8240 e896 8cc0 f768 9240
000001c0: 309e 0f40 e79c 1cc1 dd57 9fc1 7b77 97bd
000001d0: fe4a 81c1 6226 8abf 8fec d9c0 b4e8 e0c0
000001e0: d395 84c0 fd83 3ec1 050e 14c1 fb7c 3bc1
000001f0: f1d0 81c1 e599 ae40 ed6e efc0 30e0 bbbf
00000200: 7567 ce40 43f9 52c1 e2f5 17be 105b 0fc1
00000210: 09ae b43f 7148 afc0 1fa5 77c0 9fd3 b440
00000220: 0cbf bebe 107f 1141 aac1 0a41 a944 91c0
00000230: 69f8 7dbe be08 fcc0 effd 4540 d710 a0c0
00000240: 252a 1740 705f 66c1 beb3 8ac1 bc08 c0c0
00000250: 8230 d540 820c 93bf cb17 1ac0 0bc9 7d40
00000260: 92f2 bec0 896b 31c1 0353 1b41 5da0 39c1
00000270: e5dc d2c0 5374 dec0 dee3 5bbe ded9 303f
00000280: cfd4 3cc0 5304 06c1 bc4e 3f3f 173e bd40
00000290: db57 34c1 7f99 5bc0 b866 7dc0 20f3 cebf
000002a0: d718 b9c0 b4a7 d1bf d10e 98c0 35e1 04c1
000002b0: f23d 55c1 bd04 52c0 e58e 00c1 bf35 43c1
000002c0: f464 b9c0 f032 843f b228 04bf ac40 a4bf
000002d0: 5dfc cd3f 1838 eabf fd23 af40 1a10 abc0
000002e0: 22d6 47c1 8666 dcbe 1b43 b9c0 eeb6 02c1
000002f0: f793 b7c0 4d0d 8ac1 2b73 44c1 9fa3 5d40
00000300: 2d78 5a3f 78f0 1241 7677 7bc1 13a6 9ec1
00000310: e2bc ffc0 3af5 1741 a737 1fc0 04ee 2dc1
00000320: 43c7 ffc0 edc5 9dc1 8357 98bd e63e 47bf
00000330: 8163 96c0 5022 d040 e79c e03e 1090 ae40
00000340: 495e 7dbd a379 61c1 d1b5 10c1 f210 4541
00000350: a882 f73e d87f 373d 1908 42c1 aff7 1b40
00000360: 0879 9fc0 d626 a0c1 0405 12c1 83be fbc0
00000370: d1bf 00c1 96cc 7ec1 17bd 46c0 376a 9abf
00000380: 45bd e740 2e3a 14c1 7f91 cbc0 8d13 a740
00000390: b39e 223f 0756 cf40 e8a4 a2be 9d97 f7bf
000003a0: d50f 9ec0 e093 7fc0 7cb3 5dc0 5a04 ae40
000003b0: 5040 b140 a7cf 80c0 2a42 d93f 8513 6ec1
000003c0: 8e4c d340 15b6 cdc0 f348 fcc0 d92b 9540
000003d0: 87ab 8b40 0feb 91bf 9f76 f5c0 6c6b 0dc1
000003e0: 7e87 c440 2546 5140 fab6 1441 e588 c2c1
000003f0: 5742 f0c0 aaae 7540 99f1 a63f 02a7 f040
-12.6473255 -5.361489 -6.3774753 -4.0721755 10.00448 -0.010017792 -1.3575552 -13.71239
-13.663683 -0.5475493 -0.9972192 5.942221 -10.136484 3.1851194 -18.397678 -3.24684
1.235766 0.20877625 -0.98511046 9.533133 -3.735475 0.3788012 -2.9469333 -4.3104997
2.070029 -0.36426723 11.125397 3.2097151 -19.043571 14.494618 1.1123908 -3.1983376
-5.5841146 -1.0081637 1.7489862 -7.928219 1.0467 -6.672405 7.557354 2.4343922
-4.780417 -3.9514406 -7.463868 -5.6420827 -19.29657 -0.12520386 8.769357 -2.3334284
-14.524305 -8.498244 4.4251757 12.939427 -0.6194245 4.579006 -23.321085 1.4939592
6.5910096 -2.1462984 -6.919023 -16.119339 -16.61151 -14.013889 -16.21103 -3.545798
0.67322713 -19.012007 2.9992962 5.8928065 -9.29805 8.42205 6.003865 0.019584093
-3.317381 9.518608 4.388244 -6.145053 -4.153186 -17.59038 -6.4782753 -8.550834
-18.425983 1.1589606 18.770298 -3.5861645 -1.6344165 -11.4243355 -1.1331685 -0.23490162
10.867435 -4.279718 -8.127749 1.4561324 3.9768777 -3.6066663 0.0037654657 7.892648
-8.800103 -3.796327 8.86716 4.3341064 -15.889475 1.8147097 7.088165 -5.0011783
-15.51465 10.089716 -6.653411 -7.1272783 -9.712204 4.0910783 -4.393421 4.575313
2.24403 -9.788306 -19.917902 -0.07395836 -16.161617 -1.0792964 -6.810127 -7.028406
-4.143289 -11.907224 -9.253423 -11.718013 -16.227022 5.456286 -7.4822907 -1.4677792
6.450129 -13.185855 -0.1483989 -8.959732 1.4115611 -5.477593 -3.8694532 5.6508327
-0.37255132 9.093521 8.672281 -4.5396314 -0.24801792 -7.876067 3.0936239 -5.0020556
2.3619473 -14.3983 -17.337765 -6.001066 6.6621714 -1.1488192 -2.4077022 3.9653957
-5.9671106 -11.088754 9.707767 -11.601651 -6.5894647 -6.9516997 -0.21473643 0.6908244
-2.9504888 -8.376056 0.74729514 5.9138293 -11.271449 -3.4312437 -3.9593945 -1.6167946
-5.784282 -1.6379304 -4.7518086 -8.304982 -13.327623 -3.2815392 -8.034886 -12.200622
-5.7935734 1.0328045 -0.51624596 -1.2832236 1.609264 -1.8298368 5.473143 -5.3457155
-12.4897785 -0.4304697 -5.7894416 -8.169661 -5.736812 -17.256495 -12.278117 3.4631116
0.85339624 9.183708 -15.716665 -19.83109 -7.991807 9.49737 -2.4877717 -10.870609
-7.993074 -19.721643 -0.074385665 -0.7783035 -4.6996465 6.5041885 0.43869707 5.4550858
-0.061857495 -14.092196 -9.044389 12.316637 0.4834187 0.044799656 -12.126977 2.4369924
-4.9835243 -20.018963 -9.1262245 -7.867006 -8.04683 -15.924948 -3.1052911 -1.2063664
7.241854 -9.264204 -6.3615108 5.2211366 0.63523406 6.4792514 -0.31766438 -1.9343144
-4.9394326 -3.9934006 -3.4640799 5.438031 5.5391006 -4.025348 1.6973317 -14.8797655
6.603095 -6.428477 -7.883905 4.6616025 4.3646884 -1.1399859 -7.67073 -8.838726
6.1415396 3.2699063 9.294672 -24.316843 -7.508098 3.8387856 1.304248 7.5203867

l2/b f4 [256]
00000000: d9c0 3f40 6a91 743f a992 9740 0d44 8340
00000010: 6b93 e2bf 5d42 0840 6ea0 34bf cf72 ba40
00000020: 186f 073f 3361 7c40 3f08 b540 07f1 813f
00000030: 216d c240 1f5c 8e3e bc22 bf3f 8f31 39bf
00000040: 8886 ba40 b0ab c6bf 77c5 20bf c1b5 ed3f
00000050: d825 6b40 da39 e740 d281 8540 3c1c 1b40
00000060: 7987 1bbd fa5c aa40 f3a5 c040 230b bb40
00000070: 8466 4a40 bc7c 733f 99ab a73f 7a2b 8641
00000080: 68d4 953f d40d aa41 525c 7c40 3192 823f
00000090: 62d2 cd3f 9ab8 2c3f 0c94 dd3f ab1d 1240
000000a0: b0f1 9c40 8cec e140 0f29 e440 a8dc 9f3f
000000b0: 6327 7740 735c 7c40 531b ee40 a60c 1840
000000c0: 9acc e13e 1d6f 2d40 841c 6a40 18d2 7bbe
000000d0: 2fff 58bf 318c 39bf bdf5 c240 4e7e f740
000000e0: 21b2 d440 4dc3 a840 a5c0 7140 5911 fa3f
000000f0: 348a 753e 0b69 a440 0510 0340 bfdf 8a3f
00000100: 75c5 04be 7566 5cc0 43b6 cdbf 432f 7f3f
00000110: 6219 a43f 1d88 2040 8ca1 7f40 93d0 69bf
00000120: 658a 0e40 00b2 81be 0004 b43f e8ae 4dbe
00000130: b590 5840 1df5 1b3e 98f8 a1bf 23c2 9f3f
00000140: d521 8940 5fbc 3c3f 81e9 d83e 7730 2dbf
00000150: 2464 0cc0 ebc5 b740 8db7 b33e 2fb7 8740
00000160: 3c41 4140 e2a3 aa3e f001 7c40 2f9b c440
00000170: e58c 5340 0f84 4840 51c3 b240 8964 6740
00000180: 85c6 0640 96fb 9e3f aa72 4440 e990 29c0
00000190: 156e cb3f 0c20 c4bf 7b76 9740 9ea9 cc40
000001a0: d89e 8240 f20a 7a40 c5a4 6140 e2d8 4e40
000001b0: 414b 78be f1b5 ab40 dbfc 1240 5a49 8e3d
000001c0: 17a6 3cbf 4000 0440 02cf f1be b317 a740
000001d0: bb54 c540 9139 f8bf 6dfc 4440 2125 9f3f
000001e0: abd7 9640 f067 2540 fa5d 9140 7ae0 24bf
000001f0: de90 40c0 d934 b940 d3a3 893f d6f3 be3e
00000200: b1f7 9040 501f 4140 ab6b 463f f639 5440
00000210: b572 2140 e66b 4740 2467 3040 dfcc 42bd
00000220: 8c0c 3b40 9b2c a23e 8ab1 4440 9f31 37c0
00000230: 92e7 8e40 d176 3c40 6d2c 4f40 c457 c3bd
00000240: 3a0b f03d e29f d33f 242d 7e40 c25e a9bf
00000250: 8bde e03f 5d55 10c0 13e0 9940 e19b a73f
00000260: 4051 8540 0313 6d3d d834 8940 0d62 3040
00000270: 96cf f33f 83c4 2a40 c72e b040 dce9 7c3f
00000280: e880 3c40 c6a4 653e a6dc 113f 5c46 a640
00000290: 4b9c 913e 6555 25bf 8d73 9140 2e42 5cc0
000002a0: 51a1 8140 dca4 013f 1e98 ec40 250a 0e40
000002b0: 5cd9 20bf c128 5c40 0f05 1c40 8504 d740
000002c0: 672f 1c40 60c8 3cbf 561d bb40 c19f 1fbf
000002d0: 7e52 79bf fbff a63f 2954 193f d2de 5840
000002e0: 2e54 3f40 1d5f 7dc0 147c 7c40 e989 8240
000002f0: 6820 3b40 3e65 7d40 7fd1 4a40 9344 2dbf
00000300: 25aa 0740 05a8 0b40 1152 4540 1b4d cc3f
00000310: 9a96 e7bf 1c26 ce40 1b26 ac3f 2a24 1d3f
00000320: e3ba 7f3f 44af c340 199b 0b40 176a 6340
00000330: 9cf9 c3bf a82a 9340 8ae0 2bbf 215e a63f
00000340: 9487 e63f ee36 983d 07e2 5f40 7d9d 1a40
00000350: ac1d b73f e113 80bd 01e9 6740 c533 0f40
00000360: bd40 253f 6638 1840 074b a540 2036 5f40
00000370: 1368 2e40 7e41 8f40 03ce 6b3f 937b debf
00000380: bfa4 5f40 9439 12c0 84bd bc40 93e2 d340
00000390: 9306 1241 3883 cf3d 6a9d 45be 7433 323d
000003a0: b17d a740 6953 7a3f 0668 9740 c923 0d40
000003b0: 6a4a 5c40 6c49 1b40 9d0a f23f a976 9540
000003c0: 5f96 913f 4468 4740 a20f 8540 e6eb 0d3f
000003d0: 823a e640 521f 9c40 0260 8940 1147 783f
000003e0: a9fe 5540 db23 6c40 6b34 d8be 73fb 0240
000003f0: 17dd a7be b1d6 9940 2551 8240 3e35 9940
2.9961455 0.95534384 4.736653 4.102057 -1.7701238 2.1290505 -0.70557296 5.8265147
0.5290389 3.9434326 5.6572566 1.0151681 6.0758214 0.27804658 1.4932475 -0.72341245
5.8289223 -1.5521145 -0.6280131 1.8571092 3.6741848 7.225812 4.172097 2.4235983
-0.037970994 5.3238497 6.0202575 5.8451095 3.162507 0.95112205 1.3099242 16.771229
1.1705446 21.256752 3.9431348 1.0200864 1.6079829 0.6746918 1.7310805 2.2830608
4.904503 7.0601254 7.130012 1.2489214 3.861779 3.9431427 7.4408355 2.375772
0.4410141 2.7099068 3.6579905 -0.24591863 -0.8476438 -0.7247954 6.0924973 7.734168
6.6467443 5.2738404 3.777383 1.9536544 0.23978502 5.1378226 2.0478528 1.0849532
-0.12965949 -3.4437535 -1.6071247 0.9968149 1.2820246 2.5083077 3.994235 -0.91333884
2.227197 -0.25331116 1.4063721 -0.20086253 3.3838322 0.15230222 -1.265399 1.2481121
4.28538 0.7372493 0.4236565 -0.67652076 -2.193612 5.74291 0.35100976 4.2411113
3.0196066 0.33328158 3.9376183 6.1439433 3.3054745 3.1330602 5.5863423 3.6155112
2.1058667 1.2420528 3.0694985 -2.6494696 1.5892969 -1.532228 4.733213 6.395705
4.08189 3.906918 3.5256817 3.2319875 -0.24247457 5.3659596 2.296683 0.069475845
-0.73690933 2.0625153 -0.47228247 5.221643 6.166593 -1.9392568 3.0779068 1.2433206
4.7138267 2.5844688 4.5427217 -0.64405024 -3.008842 5.787701 1.075312 0.37295407
4.530236 3.0175362 0.7750804 3.3160377 2.5226262 3.1159606 2.7562952 -0.04755866
2.9226408 0.31674656 3.0733361 -2.8624036 4.465768 2.944752 3.2370865 -0.09538224
0.11720891 1.6533167 3.9715052 -1.3232043 1.7567915 -2.2552102 4.808603 1.3094445
4.166168 0.05787946 4.2877007 2.7559845 1.9047725 2.6682441 5.50571 0.9879434
2.9453678 0.22426137 0.5697731 5.196089 0.28439555 -0.64583427 4.5453553 -3.4415393
4.050942 0.5064218 7.393569 2.2193692 -0.62831664 3.4399874 2.4378088 6.7193017
2.4403932 -0.7374325 5.847331 -0.6235314 -0.973915 1.3046869 0.59894043 3.3885999
2.989513 -3.9589303 3.9450731 4.0793347 2.923853 3.9593043 3.1690366 -0.6768276
2.1197598 2.18213 3.083134 1.5961031 -1.8092835 6.442152 1.3449129 0.61383307
0.9989454 6.1151447 2.1813414 3.5533502 -1.531055 4.598957 -0.67139494 1.2997476
1.8010125 0.07432352 3.4981706 2.4158623 1.430593 -0.062537916 3.6235964 2.2375348
0.6455191 2.3784423 5.1654086 3.4876785 2.7251022 4.4767447 0.92111224 -1.7381462
3.4944303 -2.2847643 5.898134 6.621408 9.126605 0.1013245 -0.1929833 0.0435061
5.234093 0.97783524 4.731448 2.2053092 3.4420419 2.4263563 1.8909489 4.670735
1.1374015 3.1157389 4.1581583 0.5543808 7.194642 4.8788233 4.2929697 0.9698344
3.3436682 3.6896884 -0.42227492 2.0465972 -0.32785866 4.8074574 4.0724053 4.7877493

l4/W f4 [64, 256]
00000000: b146 c141 ea9b ad41 07f1 cb41 b469 c741
00000010: 37c6 9441 0d92 9f41 96a9 d141 5c63 ba41
00000020: 59e0 ac41 8b6a af41 a5ca b241 9ddc 1041
00000030: 8132 8341 3736 9a41 ecb2 b041 b315 b241
00000040: 9e6e be41 0c4c cf41 6640 e041 b74f b041
00000050: 4a86 2a41 655a 7c41 3d92 c341 5a86 b341
00000060: d946 ac41 b0fe b641 11ae a841 6f1e d941
00000070: 0967 cb41 a58d bf41 3f34 b541 bb29 9541
00000080: 7f61 c641 e186 ce41 b587 b541 0c5f bd41
00000090: 0d38 a441 9a38 aa41 266f c241 9ea4 a741
000000a0: d39d 4741 7dc0 c641 f3de a541 bfed d041
000000b0: c849 c041 8a37 c041 bc7c c341 24e3 9941
000000c0: ba39 ad41 28a0 d341 efef e341 a204 af41
000000d0: aca5 aa41 5256 b041 a9f4 a841 8a54 a841
000000e0: 69f3 ce41 a9e8 be41 4eeb e041 baf3 ab41
000000f0: f27e bc41 8968 a241 a5f5 b341 5c54 a541
00000100: 921c 1b41 12bf eb41 81ba b841 aa81 b141
00000110: 3fe2 cc41 6e72 a741 5aaf 9441 6931 6a41
00000120: 0ba4 b141 9293 b041 e018 ac41 82c1 cb41
00000130: 090f a541 0726 d441 350a ba41 b188 bf41
00000140: 77ea a841 138b cc41 ee3d e541 4b8d b641
00000150: 8cf6 a141 2d55 8841 9c97 ca41 011c 1d41
00000160: 4650 c741 2642 ba41 5d50 b341 e7b0 b941
00000170: 9fe2 a541 c196 bd41 e59b b941 31b6 9d41
00000180: 18d8 0c41 a408 c641 3827 b441 36fc cf41
00000190: 46be a241 f6d8 d741 64d0 d441 f32a a241
000001a0: a6de bc41 e51f b241 be24 8e41 e597 b641
000001b0: deef c641 7007 bf41 7d3e c141 4b5c a641
000001c0: ee2d a941 a98f a341 0d00 c141 e739 cd41
000001d0: 61bb f641 2098 d041 c631 8b41 8af6 3241
000001e0: a01a aa41 004b de41 30b7 b441 5565 b041
000001f0: b6db b241 929b bc41 ee25 c641 45f7 a541
00000200: 6ea0 a341 97c2 a241 b920 c941 865d c041
00000210: 156b af41 d11d b341 fd1b ce41 8e2c ca41
00000220: b682 b141 37ef d441 e2a9 7c41 3af0 bb41
00000230: f934 ac41 2859 b941 27a8 a041 cebf ab41
00000240: 2a62 c141 f793 ca41 b814 d841 4ea8 a141
00000250: 988d b841 5f43 7e41 2b92 0d41 beae c641
00000260: a1f1 aa41 54fe af41 6aa9 b941 7eef 8d41
00000270: ef56 3d41 8ec5 b141 573c b641 4bd8 a641
00000280: 594c 3841 2660 ad41 e734 c641 b47e f141
00000290: 0493 1240 1c02 5e41 a0b7 b641 120b be41
000002a0: 0e1f c840 041a e041 3da7 a241 37dc bc41
000002b0: 5afc bf41 9dfc c141 d5d7 ae41 ab5b 8c41
000002c0: 8d5a 9d41 d5e8 bd41 b5f6 a441 4ac7 aa41
000002d0: 5623 a641 9a03 af41 97a5 a941 4c70 cf41
000002e0: 0a99 9b41 31e8 ad41 2094 d841 0813 5441
000002f0: e176 c641 fe1a d041 6a12 9a41 1ef1 1e41
00000300: 758c b141 67fe aa41 b6a9 a441 7205 d841
00000310: 9d02 6541 87bd e041 38d1 9c41 75e2 b241
00000320: dd4a bc41 7f5d b841 45b7 b541 20d1 b041
00000330: 6ea4 9341 e7bf b841 f0ba 9640 f00d ba41
00000340: c00c c941 34df 1a41 893e c241 9882 b641
00000350: 7025 5f41 a260 c641 473f e041 34a2 b641
00000360: 7a29 cf41 e812 8341 75f9 9f41 85ca 9e41
00000370: 8673 4841 ff8d c941 a939 a041 3b4f bf41
00000380: 361f b241 20e1 cb41 4900 b041 3545 c341
00000390: b890 a641 d43c bc41 462b 9e41 7052 c341
000003a0: 94a9 ca41 b464 c841 a7e8 e13d 7ffd 5941
000003b0: 4201 af41 f565 c241 f2f5 9741 3f1a 4741
000003c0: c3b5 c141 fa6b ba41 5a07 bf41 2367 cb41
000003d0: f7ff ae41 72bd b041 a0c8 b341 77ea ad41
000003e0: e44f d741 8d57 a741 17b3 9241 711a 3a40
000003f0: b591 d741 c7c4 ce41 53b6 ae41 55b7 c041
24.159517 21.70113 25.49269 24.926613 18.596785 19.946314 26.207806 23.298515
21.609545 21.927023 22.348948 9.053861 16.39966 19.276472 22.087364 22.260595
23.804012 25.912132 28.031445 22.038923 10.657785 15.772069 24.446405 22.440601
21.534594 22.87436 21.084993 27.13986 25.42531 23.944162 22.65051 18.645376
24.797606 25.815859 22.691263 23.67141 20.527369 21.277637 24.304272 20.95538
12.476031 24.843988 20.733862 26.116087 24.036026 24.027119 24.435905 19.235909
21.653187 26.453201 28.492155 21.877262 21.330894 22.042149 21.119463 21.041279
25.868853 23.863604 28.114895 21.494007 23.561985 20.301043 22.494944 20.666191
9.694475 29.468296 23.091066 22.188313 25.610472 20.930874 18.58562 14.637063
22.2051 22.072056 21.512146 25.469486 20.632341 26.518568 23.254984 23.941744
21.114485 25.567907 28.65524 22.81899 20.245384 17.04159 25.324028 9.819337
24.914196 23.282299 22.41424 23.211378 20.735655 23.69861 23.20112 19.71396
8.802757 24.75422 22.51915 25.99815 20.342907 26.980938 26.601753 20.270971
23.608715 22.265574 17.76794 22.824167 24.867123 23.878632 24.155512 20.795065
21.147427 20.445147 24.125025 25.653273 30.841494 26.07428 17.399303 11.18519
21.263 27.786621 22.589447 22.049479 22.35728 23.575962 24.76852 20.745737
20.453335 20.345015 25.140978 24.045666 21.927286 22.389559 25.763666 25.271755
22.188824 26.616804 15.791475 23.492298 21.525866 23.168533 20.082106 21.468655
24.172932 25.322248 27.010117 20.20718 23.069138 15.891448 8.848186 24.835323
21.367983 21.999184 23.207722 17.74194 11.833724 22.221462 22.779463 20.855612
11.51864 21.671947 24.775831 30.186867 2.2902231 13.875515 22.83966 23.755405
6.253791 28.012703 20.33166 23.607527 23.998219 24.248346 21.855387 17.54476
19.669214 23.738688 20.620462 21.34731 20.767254 21.876759 21.205854 25.929832
19.449726 21.738375 27.072327 13.254646 24.808046 26.01318 19.258991 9.9338665
22.193583 21.37422 20.582867 27.002659 14.313138 28.092543 19.602158 22.360575
23.536554 23.045652 22.714487 22.102112 18.455288 23.093702 4.7103195 23.256805
25.131226 9.679493 24.280535 22.813766 13.94664 24.797184 28.030897 22.8292
25.895252 16.384232 19.996805 19.848886 12.528204 25.194334 20.028154 23.913687
22.26524 25.484924 22.00014 24.408792 20.820663 23.529701 19.77113 24.415253
25.332802 25.049171 0.11030703 13.624389 21.875614 24.299784 18.99509 12.443908
24.21375 23.302723 23.87859 25.42536 21.874983 22.092503 22.472961 21.739485
26.91401 20.91775 18.337446 2.9078639 26.946146 25.846083 21.839025 24.089518

l4/b f4 [64]
00000000: 7e76 bbc2 b67d bbc2 5274 bbc2 397e bbc2
00000010: ec7f bbc2 7d82 bbc2 4f82 bbc2 da78 bbc2
00000020: 217a bbc2 678c bbc2 7475 bbc2 da77 bbc2
00000030: f88f bbc2 f886 bbc2 8d8a bbc2 d17b bbc2
00000040: 337f bbc2 6990 bbc2 ef87 bbc2 106b bbc2
00000050: 4c87 bbc2 e877 bbc2 458a bbc2 f17d bbc2
00000060: 0d79 bbc2 fd7f bbc2 a17c bbc2 b880 bbc2
00000070: 3579 bbc2 6381 bbc2 7c6d bbc2 fb88 bbc2
00000080: 8483 bbc2 e08b bbc2 fa78 bbc2 957e bbc2
00000090: 3585 bbc2 d179 bbc2 3478 bbc2 e07a bbc2
000000a0: 0c81 bbc2 b084 bbc2 4d79 bbc2 5c80 bbc2
000000b0: eb71 bbc2 be7b bbc2 da7d bbc2 2681 bbc2
000000c0: fe72 bbc2 0b7e bbc2 c097 bbc2 4d81 bbc2
000000d0: a089 bbc2 317d bbc2 278f bbc2 c482 bbc2
000000e0: ff79 bbc2 da7a bbc2 e177 bbc2 0485 bbc2
000000f0: 4f82 bbc2 9485 bbc2 3877 bbc2 4c78 bbc2
-93.73143 -93.74553 -93.72719 -93.74653 -93.74985 -93.75486 -93.75451 -93.73604
-93.73853 -93.77422 -93.7294 -93.734085 -93.78119 -93.76361 -93.77061 -93.74183
-93.748436 -93.78205 -93.765495 -93.70911 -93.76425 -93.73419 -93.77006 -93.74598
-93.73643 -93.74998 -93.743416 -93.7514 -93.73673 -93.75271 -93.71384 -93.76754
-93.75687 -93.77319 -93.73628 -93.74723 -93.76017 -93.73792 -93.73477 -93.73999
-93.752045 -93.759155 -93.736916 -93.7507 -93.722496 -93.741684 -93.745804 -93.75224
-93.724594 -93.74618 -93.79639 -93.75254 -93.7688 -93.744514 -93.779594 -93.7554
-93.73827 -93.739944 -93.73414 -93.759796 -93.75451 -93.760895 -93.73285 -93.734955

l3/W f4 [256, 256]
00000000: 6b44 4441 eb71 bf3f f61b 8440 e2c4 7241
00000010: 3a71 7ec1 8346 6641 de6c 0a41 226f 7a41
00000020: c38c 6b41 e944 0042 20c0 11c0 1016 fc40
00000030: 92d6 0f41 8d37 01c1 ed40 bb40 04aa c0c1
00000040: 961f 04be 0bc8 67c1 bab1 ecc1 f948 d2c0
00000050: 5c61 e141 f453 4d41 8d67 1741 8245 dd40
00000060: 5cd8 8041 faac 8241 091b b541 c213 5741
00000070: a52a 4041 ecf6 cac0 df49 4841 8405 6041
00000080: e110 fec0 5b72 0941 a4a2 6341 4b69 4141
00000090: c00b 9f3d 8c3b 2d41 3e46 5341 ee49 0041
000000a0: 87e2 32bf ae5c 3b41 90b3 8ac0 f8ce 4f41
000000b0: 292a a941 9677 5041 d761 cdc0 69cd be41
000000c0: b066 0840 d89f aa40 d984 a041 a8e3 46c1
000000d0: 0365 2e41 0667 9c40 b7b9 7741 a5b1 6b41
000000e0: 41bd 2e41 8799 9a41 7c39 5341 328e 0541
000000f0: f347 53c0 2062 1ac1 498a 0241 342d f340
00000100: 0dda c640 d292 85c1 6f1f 24c0 1ba5 2dc1
00000110: e558 c73e acc8 7141 83ed 0341 922b 0bc1
00000120: 99c1 d640 c280 a241 9d03 6e41 6b24 1741
00000130: 4403 5f41 6cf6 a441 4c2c 7641 a23e 6641
00000140: e307 0e41 473c 3241 3561 d3c0 f09b 0fc1
00000150: 99e3 c6c0 0ce3 9841 fb05 5d41 2ad3 f441
00000160: f0f2 7b41 1c66 3e41 9ad1 b741 5926 4b40
00000170: 5488 5a41 9078 8041 0c62 4b41 a5d4 1f41
00000180: 1a04 5641 9ffb 0abf e494 6041 3fff bac1
00000190: ce3f 0741 32fa 3041 3e9e 5641 9e71 5f40
000001a0: 55df a741 cf97 0442 1908 9141 9a92 8f41
000001b0: 337e 6641 6d71 fe40 0ed5 07c1 c45d 93c1
000001c0: db35 34c2 bbff 5a41 c8e2 fd40 512e 1940
000001d0: 03e0 84c0 7220 bdc1 82d2 9a41 f7c5 06c1
000001e0: c751 ec41 f7ae 9941 ee2a 99c0 e900 1a41
000001f0: 4ce2 21c2 04b5 7b41 4744 bb40 df95 d4c1
00000200: c34c 4d41 0512 2241 56ef f540 676e 8640
00000210: 2d7a 5341 9066 0041 a703 7141 6173 5b41
00000220: 10a4 a340 6bcb 14c1 d999 d0c0 4212 8cc1
00000230: f6ee 8741 6411 c841 e8d9 9341 31cb 71c0
00000240: 6e8a 25c2 f8d5 5540 b6e8 0041 f4c6 86c0
00000250: 7fc4 2d40 e6a8 73c1 4097 2a41 0491 bb40
00000260: c162 9a41 48bf 4b41 2552 6841 1f1b 4641
00000270: 394c c340 16d1 8441 f3b2 9b41 ba42 4341
00000280: bbec 44c1 9926 bcbf 09ab 82c1 4cda b441
00000290: b44a 1741 d4db 4641 f3f2 5441 62b2 17c0
000002a0: a443 d5bf 9db7 2740 4141 5c40 d7f3 a540
000002b0: f8b2 3d40 4848 9dbe 48e0 9341 3bec 6541
000002c0: 594d d33c b04f 8fc1 4212 3241 72c3 80c1
000002d0: 283f e2c1 2597 6141 f405 5e41 4ec7 1441
000002e0: b828 cc40 2dc9 36bf 8ef5 f540 536c 0540
000002f0: bc4d 98c1 3d0b 5141 97ed ad40 b396 bbc1
00000300: 06ba a841 2f1c 80c1 3b4e 1ec1 76f5 e841
00000310: 2926 4cc1 8006 7141 cd22 5141 d28f 1b41
00000320: eea7 6e40 7dd8 5941 ed37 3941 ce48 6341
00000330: ae4a d3c0 e09c 9b41 9e81 2841 7f8f b0c1
00000340: 4d07 b040 8571 0b41 0e4c 6fc1 816c ab40
00000350: 2148 2b41 b269 3a41 adef ae41 b3bf a041
00000360: 1326 71c1 9977 8dc1 b0a9 3441 0106 8741
00000370: f75f 4841 2a53 1941 4577 92c0 3d45 5841
00000380: 2126 2641 bc42 64c1 b88d 1a41 8e0d 7c41
00000390: 7620 3041 b6ee 4041 bd71 d9c0 c3c1 9d41
000003a0: 0836 8b41 74db b9c1 8b44 cd40 46fc a341
000003b0: 948f b241 b88a 8d41 9afc b741 0998 4f41
000003c0: 2d68 4741 00c4 2e41 54c2 9340 cfb7 2f41
000003d0: 7252 2641 b93c 2a41 9975 6841 976d 8041
000003e0: ccac 6d41 7de6 6d41 6ffb 1141 803a f241
000003f0: 3106 2f41 c9ce 9b41 dff0 1140 d503 4941
12.266704 1.495664 4.128413 15.173067 -15.902643 14.392215 8.651579 15.652132
14.721866 32.067295 -2.2773514 7.877693 8.989885 -8.076062 5.8516755 -24.083015
-0.12902674 -14.486339 -29.58678 -6.571408 28.172539 12.832996 9.462781 6.914735
16.105644 16.334461 22.6382 13.442324 12.010411 -6.342642 12.518035 14.001347
-7.9395604 8.590419 14.227207 12.088206 0.07765913 10.827038 13.204649 8.018049
-0.69876903 11.710127 -4.3344193 12.9880295 21.145586 13.029196 -6.4181933 23.850298
2.1312675 5.332012 20.064867 -12.43058 10.899661 4.887576 15.482841 14.73087
10.921205 19.324965 13.201534 8.347216 -3.3012664 -9.648956 8.158761 7.599268
6.2141175 -16.69669 -2.5644186 -10.852809 0.3893501 15.111492 8.245486 -8.698137
6.7111325 20.31287 14.875882 9.446391 13.938297 20.620323 15.385815 14.390291
8.876925 11.139716 -6.605616 -8.975571 -6.215283 19.110863 13.81396 30.603107
15.746811 11.899929 22.977345 3.1742156 13.658283 16.058868 12.711437 9.989415
13.376001 -0.54290193 14.03635 -23.374632 8.453077 11.061083 13.413633 3.4913096
20.984049 33.14825 18.128954 17.946583 14.40581 7.951346 -8.489515 -18.420784
-45.052593 13.687434 7.9339333 2.393452 -4.152345 -23.640842 19.352787 -8.423331
29.53993 19.210432 -4.7864904 9.625222 -40.470993 15.731693 5.8520846 -26.57318
12.831241 10.129399 7.685466 4.200977 13.217328 8.02504 15.063392 13.715669
5.113777 -9.299663 -6.51878 -17.508915 16.99168 25.008492 18.4814 -3.7780268
-41.385185 3.3411846 8.056814 -4.2117863 2.7151182 -15.228735 10.661926 5.861452
19.29822 12.7342 14.520055 12.381621 6.1030545 16.602093 19.462378 12.203791
-12.307796 -1.4699279 -16.333513 22.60659 9.455738 12.428669 13.309314 -2.3702626
-1.6661267 2.6205819 3.4414828 5.1860156 2.9640484 -0.3071921 18.484512 14.370173
0.025793718 -17.91391 11.129457 -16.095432 -28.280838 14.0994005 13.876453 9.298658
6.3799706 -0.7140072 7.686225 2.0847366 -19.037956 13.065244 5.4352527 -23.448584
21.090832 -16.013762 -9.894099 29.119854 -12.759316 15.064087 13.070996 9.722612
3.7289996 13.615354 11.576154 14.205275 -6.602866 19.4516 10.531645 -22.070066
5.500891 8.715215 -14.956068 5.356995 10.70511 11.6508045 21.86703 20.093603
-15.071795 -17.683397 11.291428 16.877932 12.523429 9.582804 -4.5770593 13.516904
10.384309 -14.266293 9.659599 15.753309 11.007925 12.058279 -6.795134 19.71961
17.401382 -23.232155 6.414617 20.49818 22.320107 17.692734 22.99834 12.974618
12.462934 10.922852 4.6174717 10.982375 10.395128 10.639825 14.52871 16.05351
14.854687 14.868772 9.123885 30.278564 10.939012 19.47597 2.2803266 12.563436

l3/b f4 [256]
00000000: e2d7 6a41 8381 b2c0 fe94 b140 95ad 9141
00000010: 2c71 2bc0 437b 8041 975a 8840 c1bf 10bf
00000020: c6dd 8c40 e832 1c41 6c2e abbf 98f2 c541
00000030: 8f24 14c0 0c0a 4cbe 3967 4041 58c9 cdbf
00000040: 3716 0ac0 3660 1741 a49d 333f cfc0 ed40
00000050: 963c 6e41 cf4f 9d3f 660d 80bf f288 7441
00000060: 5391 ee40 d611 3c41 62b8 3e41 59e5 8140
00000070: 8c23 4dbf 6dc3 0441 b4ae 6541 b8b9 a53f
00000080: 67b5 1541 cfce 3b3f 3ae2 f840 a6b9 3641
00000090: 57f4 7341 733d 5b41 f3af 0740 4296 1a41
000000a0: 3304 aa40 adc9 6141 69bd 6c41 0fe8 bf40
000000b0: af36 64bf a55c 8141 1ffb d6c0 b587 0041
000000c0: 2464 8e3f 1a0e 1641 248e 3840 5dc5 883f
000000d0: 13ac 7441 21dc 6141 8b77 d8bf 4d9c 3b41
000000e0: dccd 26bf 2cee 6741 f302 8840 4b1d b440
000000f0: 205d 1e41 79bc 0541 0ddf 1f41 1663 99c0
00000100: 216a 4841 7c02 9c40 e10d 6840 a348 8241
00000110: b762 8d40 19db 4741 59f6 ca40 a0b5 4f41
00000120: d6bf a2c0 249f 0d3f d1ad 0d41 a4f3 de40
00000130: 8da2 453f 3fc1 6541 bdd4 bc40 951a 5241
00000140: 9c39 4341 2074 1041 dcc0 8b40 39e7 6541
00000150: ad6d 5340 4eac 3fc0 e432 ec40 135a 94c0
00000160: 8fd3 95bf 738c 0c41 aa3b 53c0 1c9c 07c0
00000170: b3c2 7741 5078 6640 0761 7d41 402a 7841
00000180: 3c05 da41 4f60 0141 e36e a041 9b9d e040
00000190: b1a2 03bf ecd0 9140 450b 92c0 1420 0741
000001a0: 5fa4 d4bf 84b8 a940 1fd7 c3c0 1a78 3141
000001b0: 5117 5c41 1d64 6e41 ef7c 90c0 5e97 0fc0
000001c0: 45f5 2941 4278 1541 8762 06c0 3e92 f6be
000001d0: 2161 8dbf cc42 dd40 e180 5840 9d5e 21c1
000001e0: 2e7f 1c41 3e4a 8840 995d 723f b032 6641
000001f0: ecc6 aac0 c21e ea40 3cf4 fa40 7081 2241
00000200: 5339 7741 038b 3c41 6832 9c3f d895 8fbf
00000210: 6385 0841 1652 3fc0 cd57 f540 a59b 6b3f
00000220: 2b64 1c41 7589 5640 3420 c640 1d70 8041
00000230: 0d3a 103f 80f7 ef40 131a 3dbe f9d9 7740
00000240: 906f 1e41 285c 2340 4fe5 77bf 04c7 c1c0
00000250: a052 58c0 3517 4ac0 2c1b 0141 6e4f 15c1
00000260: 1e60 7241 111b 2141 7bd7 4841 0b37 c240
00000270: 5487 d641 c451 0a41 00aa b140 9e30 e240
00000280: d5c8 8b41 a492 7441 4774 c8c0 97ff 41c0
00000290: 0e63 ed40 3b5f 39c0 2b56 373f 771f 8041
000002a0: fd25 e040 3fea 0c40 4561 2541 898b 5a41
000002b0: 0099 7041 129a 8c40 b8e7 6641 ef30 4bbe
000002c0: fb23 3641 1c9e 0541 4a1c 14c0 72e0 1d41
000002d0: 82e2 84bf 8d4c ff40 80ff 2741 be05 0540
000002e0: 09e2 1c41 4775 3441 b9a6 00c0 f0c1 8641
000002f0: 1c5f 5a41 c264 6041 d9e6 26bf 3f32 1e41
00000300: 2b35 7741 5a08 5141 f4eb 7641 f791 1fc0
00000310: 61c0 0641 0ff6 a3be fbaa 6d41 4743 5f41
00000320: 28cd 8ebf 7b7c b340 e83c 8c40 da1e 8240
00000330: 7ec2 7341 4840 c9bf f2b4 2641 a837 0841
00000340: ea95 e640 a4f6 9c41 da0f 483f a749 8640
00000350: a091 473f da95 a640 2326 b03f 906b 8341
00000360: 9518 2941 2739 36be de80 7941 486d 1041
00000370: 1d36 1241 70ff 0441 4c5b 4e41 4753 8c40
00000380: 3673 7b41 7cda b8bc c786 8141 1713 1d41
00000390: 547a 7541 83a9 9e40 7ad2 d5c0 2ccc c840
000003a0: f1d8 9340 e8a0 51be 16ec 4041 ccf9 6a41
000003b0: 1a81 7741 2ee2 5741 41aa c840 026c 5641
000003c0: c50b 2341 057e 8041 4add 60bf 7993 f440
000003d0: e3b7 4941 3290 3741 9aff 6e41 c3f0 4241
000003e0: a3e4 0841 f530 b53f 91c2 2641 478d 4742
000003f0: 298d 853f 5a4a 8141 ced2 5341 567f c640
14.677706 -5.5783095 5.5494375 18.209757 -2.6787825 16.060186 4.2610583 -0.56542593
4.402072 9.762428 -1.3373542 24.743454 -2.3147314 -0.19925708 12.025201 -1.607707
-2.157606 9.460989 0.70162416 7.429786 14.8897915 1.2289981 -1.0004089 15.283434
7.45524 11.7543545 11.920015 4.0592465 -0.80132365 8.297711 14.355152 1.2947302
9.356788 0.7336244 7.7776155 11.420324 15.247153 13.702502 2.120114 9.661684
5.3130126 14.111737 14.796243 5.9970775 -0.8914594 16.170237 -6.7181544 8.033132
1.112431 9.378443 2.8836756 1.068523 15.29201 14.116242 -1.6911482 11.725659
-0.65157866 14.495647 4.25036 5.628576 9.897736 8.358514 9.991956 -4.7933455
12.52591 4.8753033 3.625847 16.285467 4.4183 12.490991 6.3425717 12.981842
-5.0859175 0.55320954 8.854936 6.9672413 0.7720116 14.359679 5.900969 13.13149
12.201565 9.028351 4.3672924 14.368951 3.303569 -2.9948916 7.381212 -4.6359954
-1.1705188 8.784289 -3.3005166 -2.1189032 15.485034 3.6010933 15.836188 15.510315
27.252556 8.086013 20.054144 7.019239 -0.5142012 4.556753 -4.5638757 8.445332
-1.6612662 5.303774 -6.12001 11.091822 13.7556925 14.899442 -4.5152507 -2.2436137
10.62238 9.34186 -2.0997636 -0.4815845 -1.1045266 6.914404 3.3828661 -10.085599
9.78105 4.259063 0.9467407 14.387375 -5.3367825 7.3162546 7.842314 10.156601
15.451495 11.783938 1.2202883 -1.1217604 8.532565 -2.9893851 7.666968 0.9203437
9.774455 3.3521397 6.191431 16.054743 0.5633858 7.4989624 -0.18466978 3.872679
9.902237 2.5524998 -0.9683427 -6.055544 -3.380043 -3.1576664 8.069134 -9.331892
15.148466 10.069108 12.552608 6.069219 26.816078 8.644962 5.552002 7.0684347
17.473063 15.285801 -6.264194 -3.031225 7.4183416 -2.8964374 0.71615857 16.015364
7.0046372 2.2017972 10.336247 13.659066 15.0373535 4.3938074 14.431572 -0.19842885
11.383784 8.351101 -2.3142266 9.867296 -1.0381625 7.9780946 10.499878 2.0784755
9.805184 11.278632 -2.010176 16.844696 13.64822 14.024599 -0.65195996 9.887267
15.45048 13.064539 15.432606 -2.493284 8.4219675 -0.32023665 14.854243 13.953925
-1.1156359 5.6089454 4.382435 4.066266 15.234983 -1.5722742 10.419176 8.513588
7.2058 19.62043 0.7814919 4.196491 0.7795658 5.2057924 1.3761638 16.42752
10.568501 -0.1779524 15.593962 9.02668 9.138211 8.312363 12.897289 4.3851657
15.715628 -0.022565119 16.19081 9.817161 15.342365 4.9581923 -6.681943 6.2749233
4.620232 -0.20471537 12.057638 14.685986 15.469019 13.49272 6.270783 13.401369
10.190373 16.061533 -0.8783766 7.643002 12.607394 11.472704 14.937403 12.18378
8.5558195 1.4155566 10.422502 49.887966 1.0433704 16.161304 13.238966 6.203044

l1/W f4 [256, 64]
00000000: 4ce2 8ec0 85a0 8bc0 7fcb b340 50b1 a340
00000010: bdac d0c0 18a8 6c40 3082 b9bf 341a 2ac0
00000020: b8e0 2541 f6f3 bd3f f6fd ba3f 26a7 b3c0
00000030: 14e2 7c40 abad 85c0 5250 2a3f bc53 3a41
00000040: ba7a 0dc1 253d bbc0 bee4 82bf f9b3 f03f
00000050: 2205 1c40 1764 32c1 6466 3741 ccb5 fec0
00000060: a491 02c1 1b54 50bf fcfd 713d 9c1c 0341
00000070: bab5 f13f ca01 3040 deb4 0dc1 14ec f3c0
00000080: 0078 2bc1 14a8 f33f 5976 5640 fc85 50bf
00000090: 3aa0 6340 cb80 e2c0 81ee 80c0 1b45 b6c0
000000a0: 0fb7 4040 dd31 e940 77ef c7c0 42da aabf
000000b0: e9ce 61bf 0310 ec40 7b65 7dc1 0ec9 83c0
000000c0: bab1 c1c0 a9ac d4c0 0b44 a7c0 1c7d 49c0
000000d0: 3a33 d240 7a38 2cbf ff7f c23f 1244 abc1
000000e0: 4d57 64c1 3204 bcc0 4b23 bfc0 cbc3 513f
000000f0: 616f b33f 9c28 6740 eca1 8040 38e5 c8c0
00000100: 77dd 36c1 f891 d8bd 5c33 28c0 b5f0 2140
00000110: 74d8 05c1 12a8 8940 b9ab 90bf 1c04 0f41
00000120: afa7 a0c1 9bd7 52c0 5f8c 93c0 7762 c940
00000130: 9dff 7540 a2d4 51bf 7a1e 7840 eb07 d0c0
00000140: 4f1f a040 647e 3240 fbb7 09c0 560d febe
00000150: 993c 9cbe d47e afbf 73d3 8440 5528 67c1
00000160: 9306 993f 29c9 163f e6cb 8840 ee88 8b3f
00000170: e457 81c0 d1d7 1a40 d061 c2c0 bf3f 1fc1
00000180: 2cb5 6f40 4709 2741 e42a 3941 1249 3540
00000190: b2e9 07bf 1451 1bc0 cd37 d93f 7732 4740
000001a0: 9ae7 1941 ccd6 cfc1 0995 05c1 049d 1fc0
000001b0: f167 09c1 0a13 8240 e02f d840 a5ba e83f
000001c0: 944d 13c1 fd0a 5cc1 9ff7 3dc1 1b18 3941
000001d0: e416 1d41 b417 6b40 6248 9bc0 bb18 7ec1
000001e0: 1e1b e3c0 2be8 92c1 e842 cdc0 b399 8540
000001f0: 9491 9141 4073 3840 107e e83e 849a bbbf
00000200: d17b 5040 7fdc abc0 1589 893f 63c1 6b40
00000210: 2d23 e93f 9c41 1741 18f0 9f41 45ba 4c41
00000220: 38cc 1241 5547 9840 e811 26bf ba0c f6bf
00000230: 5775 983f 1cc4 bbbf 7a49 8240 841a 9b40
00000240: 9d86 8fc0 d166 d83f 1a03 3340 aed9 b4c0
00000250: 67eb bdbf 03a0 47bf b7e1 2341 c465 783f
00000260: 0a8d aabf 534a 8240 72ab 3140 22d2 f1c0
00000270: 762d 5ebf ae29 c6c0 607d 93c0 c86b 7dbe
00000280: 00f1 0d41 c030 7240 940a 2cc0 738d 0dc0
00000290: afcc 3fc0 c336 8540 adfa bf3f 2cb5 813f
000002a0: 3d1e 9c3f 0847 2341 c5ba b0bf 7bb6 0ec0
000002b0: 5a96 9940 57cf 8bc0 c94c 1740 c9df 3abf
000002c0: 6bc9 9940 4c78 d93f 36ac d13f c806 c8bf
000002d0: 1c42 ed40 c67a b5bf fb6a f2bf 592a c3bd
000002e0: cbb0 9ac0 4228 f340 eb11 7cbf bee9 8a40
000002f0: ca02 5dc1 6f21 9c40 5b2b c640 5b4b f140
00000300: 515c dcbf 208f 6140 9460 d1c1 f9df 14c1
00000310: cdcd 82bf 000b 84c1 1d05 84bf da0e c5c0
00000320: 41be 3341 eaa0 fec0 db35 6c40 481e a03d
00000330: 981a cb40 ab0f 8fc0 ee88 b8c1 7d73 d740
00000340: 9999 0ec1 285b d240 94ae e240 fa66 adb8
00000350: 6df1 083f 6e3a 23c1 a414 17be 9efe 86c1
00000360: a144 d8c0 cf5b 8440 8962 01bf aab4 1bc0
00000370: 57ef 4640 fcd2 4a40 b12d 3140 4555 46c0
00000380: d6e5 d23f 695a 7740 48f2 5a40 ebf0 67bf
00000390: 1bdf 3ec0 625d e3c0 ff77 acc0 46db 1bc0
000003a0: 8f6c e2c0 fd81 1841 dd4e 70c0 edbd 1b40
000003b0: 5c58 b8bf ee14 72c0 1b1a 09bf 38be ce3f
000003c0: 8c09 5b40 4098 2440 54ce 3340 4181 ec40
000003d0: ab1e 22bf 1021 9e40 99f9 f8bc bd25 6bc1
000003e0: a2ad 3fc0 c961 5fc0 232c 20c0 0008 8d40
000003f0: 330b 0c41 f446 3d40 46ec dac0 6bc6 8041
-4.465124 -4.3633447 5.618591 5.1153946 -6.521086 3.6977596 -1.4492855 -2.6578493
10.367363 1.4840076 1.4608753 -5.614154 3.9512987 -4.1774497 0.6652881 11.645443
-8.842463 -5.851214 -1.0226057 1.8804923 2.4378133 -11.149436 11.462498 -7.959692
-8.160557 -0.81378335 0.05908011 8.194485 1.8883584 2.7501092 -8.856657 -7.622568
-10.716797 1.9035668 3.3509734 -0.81454444 3.5566545 -7.078222 -4.0291142 -5.6959357
3.011173 7.287337 -6.2479815 -1.3347857 -0.88206345 7.3769546 -15.8372755 -4.118293
-6.052945 -6.6460767 -5.227056 -3.148261 6.5687532 -0.67273676 1.5195311 -21.408237
-14.271314 -5.875512 -5.973058 0.8193938 1.4018365 3.6118536 4.019766 -6.277981
-11.429069 -0.10574716 -2.6281347 2.5303166 -8.365345 4.3017664 -1.1302406 8.938503
-20.081877 -3.2944095 -4.610885 6.2932696 3.8437264 -0.81965077 3.8768601 -6.5009665
5.003822 2.7889643 -2.1518543 -0.4961955 -0.30514982 -1.371058 4.1508117 -14.447347
1.1955131 0.58900696 4.27489 1.0901163 -4.041979 2.4194224 -6.07444 -9.953063
3.7454329 10.439765 11.572971 2.8325849 -0.53090966 -2.4268236 1.6970154 3.1124551
9.619043 -25.979881 -8.348886 -2.4939585 -8.587876 4.064824 6.755844 1.8181959
-9.20644 -13.752683 -11.872954 11.568385 9.818089 3.6733217 -4.852586 -15.881038
-7.09706 -18.363363 -6.4144173 4.175012 18.196083 2.8820343 0.45408678 -1.465653
3.2575572 -5.370666 1.0744959 3.6836784 1.821386 9.453518 19.992233 12.795476
9.174858 4.7587075 -0.6487107 -1.9222634 1.1910809 -1.4669223 4.0714693 4.846987
-4.4851823 1.6906377 2.7970643 -5.651572 -1.4837464 -0.77978534 10.242606 0.9703028
-1.3324292 4.071573 2.7760892 -7.556901 -0.8678812 -6.192588 -4.6090546 -0.24748147
8.871338 3.7842255 -2.6881456 -2.2117584 -2.996868 4.162935 1.4998375 1.0133414
1.2196728 10.204842 -1.3806998 -2.2298877 4.7996035 -4.36906 2.3640616 -0.7299772
4.805837 1.6989837 1.638068 -1.562707 7.41432 -1.4178092 -1.8938898 -0.095295615
-4.834081 7.5986643 -0.9846484 4.341033 -13.813181 4.8790812 6.1927924 7.5404487
-1.7215673 3.5243607 -26.172157 -9.304681 -1.0219055 -16.505371 -1.031406 -6.158063
11.233949 -7.957143 3.690787 0.07818276 6.3469963 -4.4706626 -23.06686 6.7328477
-8.912499 6.5736275 7.083811 -8.268464e-05 0.53493387 -10.201765 -0.14753968 -16.874325
-6.7583776 4.136207 -0.5054098 -2.4329019 3.1083581 3.1691275 2.7684138 -3.0989544
1.647639 3.8648932 3.4210377 -0.90601987 -2.9823673 -7.1051493 -5.389648 -2.4352584
-7.075752 9.531735 -3.7548134 2.4334671 -1.4401965 -3.7825274 -0.5355546 1.61518
3.4224577 2.5717926 2.8094683 7.390778 -0.63328046 4.941536 -0.030392455 -14.696713
-2.9949727 -3.4903433 -2.502694 4.4072266 8.752734 2.9574556 -6.841342 16.096884

l1/b f4 [256]
00000000: 7914 cb40 218c 6a40 a891 7bc0 7d2c f83f
00000010: db42 f640 b4c8 2d40 1167 903f 6f13 bec0
00000020: 995c cbbf 2522 c03f dd56 66c0 a0b3 94c0
00000030: 2204 a740 4469 1440 511c cac0 b5d9 8b3f
00000040: bacb 093f af43 2ec0 0f65 933f 0722 0bc0
00000050: 8335 f8c0 f9f3 8f3f 7672 4940 d952 37c0
00000060: aa57 9940 7e02 dbc0 a2cd 383f 5b21 22c0
00000070: 2bec 9bc0 ccba ee3f 4648 b8bf 1fe2 8040
00000080: 6193 5e3d 8ad0 c6c0 4199 4ac0 f5c8 48be
00000090: e499 05c0 6cfa 803e be83 ad40 667b 7c40
000000a0: 7951 29c0 e9d3 73c0 34da 8640 00aa b1be
000000b0: c80c aabe 6bad ec40 2456 4840 031f 9ac0
000000c0: 77a1 8bbf e0f7 5140 b73f 8e40 0630 8ac0
000000d0: 1c9b b9bf 8a48 fc3f b55a 083f 7590 e1c0
000000e0: 1993 b73f 6a97 cb40 0c2c 04c1 7265 02c0
000000f0: 21a2 623f 139c d1c0 1278 24bf 97d4 62c0
00000100: 6e82 223f 8b7e 1040 f012 e9be 2ec4 adbf
00000110: 8a6a 31c0 a557 88c0 0a5d 6740 3f41 093f
00000120: 493f 71be f6b4 0640 02de b840 c6d1 293d
00000130: 56e6 1dc0 50ad b93e b6ec f0be 4787 37c0
00000140: d943 ab40 5dd2 143f 07c4 8ebe ff61 37c0
00000150: 2029 26c1 83ad bf3f f893 a9c0 abf2 f1c0
00000160: 69bf 1840 a19b 59c0 01b1 c7bf 4f3f 4a40
00000170: ba08 f6be 1ba0 7d40 f1c8 e23e 8903 8840
00000180: 2cec e63d ef3d a1bf f4fb a5c0 3ec6 0440
00000190: 3885 14bf 54aa 7c40 f6ee fd3e fbcf b040
000001a0: 7a9b 543f f950 8ec0 9700 6e40 a116 00bd
000001b0: 6f5a bcbf 085b 243e d99c 8dc0 8fc0 1d3e
000001c0: 2fde 3a40 608b 73c0 ce27 8a3f e6f3 8040
000001d0: 7407 95c0 a978 96bf cdad 8e40 3d9d 17be
000001e0: 8b5d c83f 40e5 c3bf c52d 8d40 7468 5740
000001f0: 097b e93f 10ca e940 e5e9 bec0 b284 afc0
00000200: e844 15c0 f2c9 9c3f 5073 8c3f 7eba 0b3e
00000210: 60fe e9bf f3d6 8440 cfb8 19c0 78d3 92bf
00000220: 7cfb 4a40 aeb0 9340 bff3 1140 26ad 1040
00000230: 1e55 5ac0 8ed8 a43f 727a f7be 47bc 5b3e
00000240: cddc 12bf 7038 07bf 9ac3 19c0 c311 91bf
00000250: d991 e4bf 9546 0441 b2d7 18c0 0161 823f
00000260: 1cc5 3540 3834 5040 bf42 37c0 acc4 c1c0
00000270: 2a40 9140 72e8 dc3f 2aca 8440 e263 553f
00000280: 57c5 49bf eb35 97bc 5e6e 263e eeb1 8140
00000290: fca7 32bf 8d14 093f 7f92 0040 21f0 d03f
000002a0: d682 f43d 3357 9e40 029a 39bf d3e2 8a3c
000002b0: af65 fcbf bb93 a53e a7f1 98bf bdc6 28c0
000002c0: e004 d340 73de 34c0 b505 463f 1b0e 5240
000002d0: c2c8 cfbf a1ae 2140 625a 19c0 35d1 bfc0
000002e0: 82f0 b840 5fb2 0dc1 30a7 093f 90c3 313f
000002f0: 3e99 26c0 224b 563f 9141 fd3f 9802 1f40
00000300: bb1b ad3f 8ca3 60c0 f333 b3c0 b445 d13f
00000310: 45af dfbd f74e 75be 5a2c 0f40 0a36 d2c0
00000320: 9d9b 0140 f1a6 bac0 d4d4 48c0 8f7b 3240
00000330: a45f bd3e 7212 c23f bbe8 e8bf e0ea 203f
00000340: 1197 3d40 ac45 393f 87dc 6abf 1c52 8940
00000350: f3b4 a1bf cf7c 2340 4c88 1940 fdb2 26c1
00000360: 977c 6740 0897 9abf 7cdd b3be e491 d5c0
00000370: 4458 08bf b4bb 4f40 0b3d bf3f 2a83 cfbe
00000380: 7b5d d2c0 6f37 ed40 845b 22bf e34b 54c0
00000390: 05e7 34bf 9761 0cc0 25aa d5bf 463b d3c0
000003a0: 119c 12bf 1669 f840 a1de c6bf 1ea9 2dc1
000003b0: 79a3 9a40 6dbc 8940 3b56 cd40 42cc c83e
000003c0: fe57 d83f 4e8b 8cc0 f10a 003f ee10 1ec0
000003d0: ab8f 41c0 db63 a63f 5737 7940 af31 8cc0
000003e0: fd44 5940 553b 37c0 d76f d4be 5349 e5c0
000003f0: 7dda ca40 0bed 0bc0 aaec 7ec0 22ef 2b3e
6.346249 3.6648028 -3.9307652 1.9388577 7.695661 2.715375 1.1281453 -5.9398723
-1.5887634 1.501042 -3.5990517 -4.646927 5.2192545 2.318925 -6.3159566 1.0925814
0.5382649 -2.722881 1.1515216 -2.1739519 -7.756532 1.124633 3.1476111 -2.8644316
4.791951 -6.844054 0.7218877 -2.5332859 -4.872579 1.8650756 -1.4397056 4.0276027
0.05433977 -6.2129564 -3.1656039 -0.19607909 -2.0875177 0.25191057 5.422332 3.9450316
-2.6455977 -3.809809 4.214136 -0.34700012 -0.33212876 7.396169 3.1302576 -4.8162856
-1.090865 3.280754 4.4452777 -4.318362 -1.4500461 1.9709637 0.5326341 -7.048884
1.4341766 6.362233 -8.260754 -2.0374417 0.8852864 -6.550302 -0.6424571 -3.5442255
0.6348027 2.2577236 -0.4552226 -1.3575494 -2.7721276 -4.260699 3.6150537 0.5361518
-0.23559298 2.104795 5.7771006 0.04145982 -2.4671836 0.3626504 -0.47055596 -2.8676317
5.352032 0.5813349 -0.27883932 -2.8653562 -10.38504 1.4974827 -5.2993126 -7.5608726
2.3866827 -3.4001238 -1.5600892 3.160114 -0.48053533 3.962897 0.4429393 4.2504315
0.11275515 -1.2597026 -5.187006 2.0745997 -0.58015776 3.947896 0.49596375 5.5253882
0.8304974 -4.4473844 3.718786 -0.03127158 -1.4715098 0.1605035 -4.4253964 0.15405487
2.919811 -3.8053818 1.0793397 4.0297728 -4.65716 -1.1755573 4.458716 -0.14806075
1.5653547 -1.5304337 4.411837 3.3657503 1.8240672 7.305916 -5.9660516 -5.484948
-2.3323307 1.2249129 1.097269 0.1364536 -1.8280754 4.151239 -2.4019048 -1.1470785
3.1715994 4.6153173 2.280502 2.2605681 -3.4114451 1.2878587 -0.48335606 0.21458541
-0.57368165 -0.5282049 -2.4025636 -1.1333545 -1.7857009 8.267232 -2.388165 1.0185853
2.8401556 3.2531872 -2.8634489 -6.055258 4.5390825 1.7258437 4.149678 0.83355534
-0.7881674 -0.018458327 0.16253039 4.05297 -0.69787574 0.53546983 2.0089414 1.6323282
0.119390175 4.9481444 -0.7250062 0.016953861 -1.9718531 0.32339272 -1.1948746 -2.63713
6.594345 -2.8260772 0.7735246 3.282111 -1.6233141 2.5262835 -2.3961415 -5.994288
5.779359 -8.856048 0.5377073 0.6943903 -2.6031032 0.83708394 1.9785634 2.4845333
1.3524088 -3.509982 -5.6000915 1.6349397 -0.10922102 -0.23955904 2.237082 -6.5690966
2.025123 -5.8328786 -3.13799 2.7887914 0.3698703 1.5161879 -1.8196024 0.6285839
2.9623454 0.72371936 -0.9174275 4.291273 -1.2633346 2.5544927 2.398944 -10.418698
3.6169794 -1.2077341 -0.35129917 -6.674059 -0.5325968 3.2458315 1.4940504 -0.40529758
-6.573911 7.413017 -0.6342089 -3.3171318 -0.7066501 -2.1934564 -1.6692549 -6.6009855
-0.5726939 7.762828 -1.5536691 -10.853788 4.832455 4.304251 6.416776 0.39218336
1.6901853 -4.392005 0.50016695 -2.4697833 -3.0243938 1.2999223 3.8940027 -4.381065
3.3948357 -2.8629963 -0.41491577 -7.1652007 6.339171 -2.186343 -3.9831948 0.1679044
