static/ai/8/agent_white_65000/target_model.npz (npz, 608987 bytes, 8 tensors)

l2/W f4 [256, 256]
-5.6791196 2.0244968 13.434106 -28.601715 0.26976946 7.1508083 -9.124915 -22.100855
-10.709908 7.332262 7.2471604 -12.805269 -14.472381 5.6949377 -46.694225 -2.108862
2.598946 8.08043 7.255119 8.874793 -20.639444 -11.058494 -0.96198094 -22.92702
-8.73665 -4.8998375 -6.164433 -2.0014567 -38.384514 13.874029 2.0098193 -17.056955
6.8397665 -9.122156 -10.986218 -16.117819 -3.6225662 -7.130192 15.659318 -6.92718
-12.615918 -10.508693 -6.1094275 -14.564639 -12.638368 -17.091324 7.9068108 -8.305065
-2.1478932 -37.705833 -13.584887 9.684467 9.115452 8.276594 -27.381208 7.18756
4.160305 -17.227219 -6.1440697 -7.835977 -16.95202 -24.496313 -22.237368 -22.32076
-7.777253 -23.69018 -13.240152 5.794881 -8.831742 0.8902748 -19.371416 -12.229842
-3.5351617 3.3559182 10.773571 -8.380228 4.2359138 -8.568003 -26.613289 -10.889141
-14.637722 10.39478 20.597689 -10.767447 -3.183215 -20.555567 20.082167 -11.899135
-12.237089 3.2649288 -16.180279 -1.2594602 -5.292796 9.264922 -9.820114 -14.581864
-28.465483 -6.7236214 -7.1676617 3.636358 -46.99939 -7.758315 20.002804 -12.120129
-1.5108268 22.385052 -19.37954 -4.220502 -4.0918794 8.457079 -12.543261 7.3794556
-13.708427 -15.850968 -22.772999 -4.990014 -39.014477 -31.105146 -20.599854 -8.387424
4.4464107 -18.120945 1.0264975 -23.591124 -28.358423 5.226767 -7.5043187 6.3760796
2.3800046 -37.78401 -20.842295 -16.468655 -12.61914 -26.799274 -17.39565 9.731545
20.000593 0.60598505 11.99994 4.162323 10.622789 -19.12972 0.6154086 -0.7678999
10.16772 -18.903671 -20.91702 -5.387729 10.356338 10.723956 -2.428785 10.378462
6.6355615 -7.431162 14.83039 -26.48515 -10.635972 -2.8569598 -2.0911877 -16.38251
-26.911373 -11.535675 -0.018346548 4.8934336 -4.1427803 -0.3545827 -23.525066 13.694919
14.052097 -30.933836 -25.752184 -28.482492 -16.346426 -0.01606693 -22.93659 -12.923175
1.1111374 -1.6973624 -16.48428 -8.812651 9.007398 -25.66561 -0.57891005 1.4433899
-8.505024 8.4724045 -22.871367 -9.542562 -28.326902 -25.631052 -23.324934 -16.942781
-8.6160965 14.334402 -27.740797 -28.28107 8.148021 11.9063425 -23.222237 -26.760462
-33.610043 -28.575327 23.556835 -4.7490935 -5.8002424 11.750821 -13.292815 -9.477917
-27.030365 -25.976648 -7.94754 14.299879 1.118536 -0.94731534 -32.022255 5.3191414
-5.4913735 -35.159077 -4.129615 -13.211377 -12.892417 -35.69951 -8.509891 11.697616
18.305372 -23.425682 -20.041506 -9.331025 -0.26245078 7.0693235 0.9550841 -15.806769
-10.479587 4.7014966 4.175543 8.063589 -0.6905856 -25.183933 -11.168744 -28.610445
-0.9476988 -16.40702 -7.7105136 -10.16879 4.4255013 11.807437 -9.894697 -19.111708
15.40379 10.200112 -4.3554564 -50.8869 -20.956663 12.770088 -23.766031 5.001067
00000000: 59bb b5c0 5b91 0140 19f2 5641 50d0 e4c1
00000010: 391f 8a3e 6cd3 e440 a7ff 11c1 8dce b0c1
00000020: c85b 2bc1 e4a1 ea40 bde8 e740 62e2 4cc1
00000030: df8e 67c1 ee3c b640 e3c6 3ac2 98f7 06c0
00000040: 2255 2640 7149 0141 ef29 e840 27ff 0d41
00000050: 951d a5c1 97ef 30c1 6244 76bf 896a b7c1
00000060: 52c9 0bc1 78cb 9cc0 0943 c5c0 de17 00c0
00000070: be89 19c2 06fc 5d41 e1a0 0040 a574 88c1
00000080: 5edf da40 5af4 11c1 8dc7 2fc1 4bf1 80c1
00000090: 20d8 67c0 882a e4c0 918c 7a41 75ab ddc0
000000a0: cdda 49c1 9b23 28c1 6e80 c3c0 c308 69c1
000000b0: c136 4ac1 08bb 88c1 9804 fd40 8ce1 04c1
000000c0: 1577 09c0 c6d2 16c2 b25b 59c1 94f3 1a41
000000d0: e4d8 1141 ee6c 0441 b70c dbc1 7e00 e640
000000e0: 3821 8540 58d1 89c1 389c c4c0 53c0 fac0
000000f0: bd9d 87c1 73f8 c3c1 21e6 b1c1 eb90 b2c1
00000100: 42df f8c0 7d85 bdc1 aad7 53c1 aa6f b940
00000110: d14e 0dc1 0de9 633f a9f8 9ac1 6fad 43c1
00000120: 1740 62c0 5dc7 5640 8c60 2c41 6a15 06c1
00000130: 9b8c 8740 8a16 09c1 04e8 d4c1 ec39 2ec1
00000140: 1c34 6ac1 0551 2641 11c8 a441 7747 2cc1
00000150: cbb9 4bc0 cd71 a4c1 47a8 a041 db62 3ec1
00000160: 1ecb 43c1 98f4 5040 3671 81c1 fe35 a1bf
00000170: 965e a9c0 1f3d 1441 301f 1dc1 514f 69c1
00000180: 4fb9 e3c1 e827 d7c0 7c5d e5c0 17ba 6840
00000190: 60ff 3bc2 1e44 f8c0 be05 a041 0cec 41c1
000001a0: c662 c1bf 9614 b341 4c09 9bc1 5a0e 87c0
000001b0: adf0 82c0 3250 0741 32b1 48c1 8024 ec40
000001c0: b855 5bc1 919d 7dc1 1a2f b6c1 32ae 9fc0
000001d0: d30e 1cc2 57d7 f8c1 80cc a4c1 e432 06c1
000001e0: ff48 8e40 b2f7 90c1 4564 833f 9fba bcc1
000001f0: 0dde e2c1 ad41 a740 6123 f0c0 d808 cc40
00000200: ff51 1840 d422 17c2 05bd a6c1 cebf 83c1
00000210: ffe7 49c1 ea64 d6c1 4b2a 8bc1 69b4 1b41
00000220: 3701 a041 d621 1b3f c1ff 3f41 c031 8540
00000230: f2f6 2941 ab09 99c1 6b8b 1d3f 1695 44bf
00000240: fbae 2241 b83a 97c1 0f56 a7c1 4768 acc0
00000250: 8fb3 2541 5395 2b41 3771 1bc0 2e0e 2641
00000260: 8556 d440 14cc edc0 4749 6d41 96e1 d3c1
00000270: f12c 2ac1 6ed8 36c0 05d6 05c0 610f 83c1
00000280: 7e4a d7c1 2092 38c1 804b 96bc 0297 9c40
00000290: a891 84c0 dd8b b5be 5633 bcc1 631e 5b41
000002a0: 64d5 6041 7f78 f7c1 7904 cec1 25dc e3c1
000002b0: 7bc5 82c1 cb9e 83bc 237e b7c1 53c5 4ec1
000002c0: c039 8e3f 2c43 d9bf cedf 83c1 9e00 0dc1
000002d0: 4d1e 1041 2b53 cdc1 7333 14bf 00c1 b83f
000002e0: 9414 08c1 f88e 0741 8ff8 b6c1 55ae 18c1
000002f0: 7f9d e2c1 650c cdc1 7799 bac1 d18a 87c1
00000300: 88db 09c1 b659 6541 27ed ddc1 a23f e2c1
00000310: 4b5e 0241 6180 3e41 24c7 b9c1 6d15 d6c1
00000320: af70 06c2 459a e4c1 6674 bc41 93f8 97c0
00000330: 969b b9c0 5d03 3c41 5faf 54c1 8ca5 17c1
00000340: 303e d8c1 2dd0 cfc1 3f52 fec0 4ecc 6441
00000350: 302c 8f3f 4283 72bf ca16 00c2 6836 aa40
00000360: 55b9 afc0 e5a2 0cc2 ce25 84c0 cd61 53c1
00000370: 5747 4ec1 4ccc 0ec2 8328 08c1 6f29 3b41
00000380: 6771 9241 cc67 bbc1 0155 a0c1 e14b 15c1
00000390: f35f 86be e637 e240 6480 743f 87e8 7cc1
000003a0: 63ac 27c1 a972 9640 0c9e 8540 7604 0141
000003b0: 38ca 30bf b278 c9c1 2db3 32c1 31e2 e4c1
000003c0: 639c 72bf 9441 83c1 87bc f6c0 5db3 22c1
000003d0: b59d 8d40 43eb 3c41 ae50 1ec1 c7e4 98c1
000003e0: ed75 7641 a933 2341 e65f 8bc0 308c 4bc2
000003f0: 3fa7 a7c1 4852 4c41 d520 bec1 be08 a040

l2/b f4 [256]
5.6277766 5.611297 2.8260343 12.315574 0.47211385 2.3824942 -0.70557296 5.3909707
1.7079675 3.9434326 12.921623 1.0151681 6.1730185 -0.16500361 4.5054436 1.2979183
3.1738408 -5.335952 -2.921543 -4.3412733 9.12677 12.648295 8.344042 7.471961
-0.037970994 9.047551 15.251664 11.476997 12.436524 -0.016635403 0.31424263 17.937408
-2.2975397 21.833855 9.625704 6.5217237 8.524623 0.6746918 1.644483 2.9159722
10.366406 9.698891 6.3830366 1.2489214 5.8067636 16.483086 8.397377 6.4188275
-4.44678 3.7386346 9.90342 -1.0246898 -0.8476438 -0.7247954 10.186896 14.274293
16.2062 3.1673834 13.592657 6.388904 0.41790944 5.8912873 2.0478528 1.0849532
8.934289 -6.3617024 -2.623092 6.0862074 0.724478 -0.18261296 7.383403 -4.4318295
3.5050638 -0.25331116 1.4063721 5.907918 5.2736526 5.7179613 -5.702061 9.038449
3.2026656 0.7372493 -2.1658602 -0.5157087 -2.470163 11.519971 0.35100976 13.757585
11.20656 0.33328158 8.293895 5.2265573 9.369795 4.72112 6.686622 8.071951
2.1058667 4.562242 0.5489146 -6.973774 9.865003 -3.548029 3.8080883 9.812846
11.380771 8.125388 4.3008513 4.70436 -0.7896939 12.274285 6.9499993 -1.200109
-1.2160292 7.549226 -0.47228247 8.32932 8.382589 -2.5798824 13.758731 1.0903326
4.7138267 6.6704583 2.2165098 0.67095745 -7.276255 7.584861 6.782384 -3.0162556
1.3634027 5.50501 -2.6676605 2.0095787 6.2815003 10.81479 2.7562952 7.539338
8.9908085 -1.901134 0.6251858 -2.9962733 11.411151 3.5497377 3.8232002 -2.9880636
-1.5980704 5.0020514 9.763325 -7.3809166 -0.76212496 -5.790324 3.9371967 6.5419
9.809611 0.05787946 6.3596816 8.503967 3.5205271 3.2663612 4.650511 7.6842303
1.4071126 6.5296006 0.008360467 8.519238 0.28439555 6.4509954 11.658552 -7.1790476
8.473039 -2.875277 5.490224 8.61898 6.173172 2.44489 6.5852904 15.774591
1.3512747 -2.245546 12.606965 -2.513193 -0.8422643 1.3046869 0.59894043 6.8921833
7.3058834 -9.885479 13.531042 11.87102 2.766546 7.8303347 2.2083335 0.39902687
8.162324 -1.945221 6.6719513 7.232051 -0.940108 8.885632 9.365464 0.61383307
0.26315844 5.9068236 2.1813414 7.9551854 5.458728 5.8613224 3.631971 -1.2372782
4.3509803 -0.11942616 0.7064743 2.1814976 0.33535352 -0.062537916 8.324504 9.63005
1.6435459 0.06142139 2.366917 4.8396893 10.953586 12.195078 9.0075655 -1.7381462
0.71750945 -2.2498763 11.690561 10.24162 9.480029 0.1013245 -2.334472 4.573074
10.402308 -2.428942 4.5875883 2.2053092 7.217607 4.926798 6.173953 7.3231583
2.7019567 6.581183 11.555424 0.5543808 12.982432 4.8788233 8.037074 0.9698344
8.815102 2.7104526 -0.42227492 7.123987 6.876749 15.138941 12.451336 11.04261
00000000: bf16 b440 bf8f b340 bfdd 3440 970c 4541
00000010: e8b8 f13e c97a 1840 6ea0 34bf d582 ac40
00000020: ae9e da3f 3361 7c40 f8be 4e41 07f1 813f
00000030: 5e89 c540 b5f6 28be 982c 9040 3022 a63f
00000040: 3520 4b40 1ec0 aac0 8ffa 3ac0 b6eb 8ac0
00000050: 4007 1241 6b5f 4a41 3281 0541 4e1a ef40
00000060: 7987 1bbd c5c2 1041 d106 7441 c8a1 3741
00000070: 01fc 4641 f846 88bc 69e4 a03e d07f 8f41
00000080: e40a 13c0 bcab ae41 e202 1a41 f6b1 d040
00000090: db64 0841 9ab8 2c3f 6b7e d23f 4a9f 3a40
000000a0: cddc 2541 a82e 1b41 d641 cc40 a8dc 9f3f
000000b0: 02d1 b940 5cdd 8341 a85b 0641 0967 cd40
000000c0: 064c 8ec0 ca45 6f40 6974 1e41 0929 83bf
000000d0: 2fff 58bf 318c 39bf 87fd 2241 8163 6441
000000e0: 4ca6 8141 69b6 4a40 867b 5941 e771 cc40
000000f0: 3af8 d53e 6d85 bc40 0510 0340 bfdf 8a3f
00000100: d9f2 0e41 1193 cbc0 bde0 27c0 36c2 c240
00000110: 6477 393f e4fe 3abe d644 ec40 8cd1 8dc0
00000120: f752 6040 00b2 81be 0004 b43f aa0d bd40
00000130: c3c1 a840 8af9 b640 4977 b6c0 7d9d 1041
00000140: 79f8 4c40 5fbc 3c3f 749d 0ac0 7c05 04bf
00000150: 2717 1ec0 cd51 3841 8db7 b33e 111f 5c41
00000160: 124e 3341 e2a3 aa3e cbb3 0441 f53f a740
00000170: aeea 1541 6a13 9740 cff8 d540 b626 0141
00000180: 85c6 0640 e3fd 9140 ab85 0c3f 2829 dfc0
00000190: 0dd7 1d41 e812 63c0 b8b7 7340 6b01 1d41
000001a0: a317 3641 9701 0241 93a0 8940 1e8a 9640
000001b0: 6129 4abf 7963 4441 6566 de40 2c9d 99bf
000001c0: d8a6 9bbf 4293 f140 02cf f1be e544 0541
000001d0: 161f 0641 cb1c 25c0 c323 5c41 0590 8b3f
000001e0: abd7 9640 6574 d540 4cdb 0d40 dec3 2b3f
000001f0: 15d7 e8c0 2eb7 f240 4a09 d940 550a 41c0
00000200: fb83 ae3f 0b29 b040 f3ba 2ac0 f09c 0040
00000210: 0d02 c940 6109 2d41 2467 3040 4242 f140
00000220: 5ada 0f41 5c58 f3bf 2d0c 203f f1c2 3fc0
00000230: 1394 3641 e72e 6340 50af 7440 6f3c 3fc0
00000240: 928d ccbf ce10 a040 9436 1c41 7830 ecc0
00000250: 9f1a 43bf 564a b9c0 08fb 7b40 3f57 d140
00000260: 2bf4 1c41 0313 6d3d 8382 cb40 4010 0841
00000270: 5150 6140 100c 5140 fcd0 9440 37e5 f540
00000280: 441c b43f 7df2 d040 57fa 083c cd4e 0841
00000290: 4b9c 913e 8e6e ce40 6e89 3a41 c2ba e5c0
000002a0: 9191 0741 8a04 38c0 eaaf af40 58e7 0941
000002b0: a08a c540 1479 1c40 b3ba d240 ba64 7c41
000002c0: 92f6 ac3f 07b7 0fc0 21b6 4941 27d8 20c0
000002d0: a29e 57bf fbff a63f 2954 193f c48c dc40
000002e0: ccc9 e940 ec2a 1ec1 267f 5841 b3ef 3d41
000002f0: 170f 3140 1a92 fa40 5655 0d40 404d cc3e
00000300: e198 0241 00fd f8bf a080 d540 f66c e740
00000310: ebaa 70bf 8c2b 0e41 f1d8 1541 2a24 1d3f
00000320: b4bc 863e b304 bd40 199b 0b40 e190 fe40
00000330: e6ad ae40 f48f bb40 3672 6840 225f 9ebf
00000340: 3b3b 8b40 b495 f4bd 80db 343f a89d 0b40
00000350: 75b3 ab3e e113 80bd 2b31 0541 af14 1a41
00000360: b65f d23f ff94 7b3d 917b 1740 bcde 9a40
00000370: e341 2f41 0a1f 4341 fd1e 1041 937b debf
00000380: b3ae 373f f9fd 0fc0 8a0c 3b41 addd 2341
00000390: 33ae 1741 3883 cf3d fd67 15c0 9f56 9240
000003a0: db6f 2641 c973 1bc0 86cd 9240 c923 0d40
000003b0: a3f6 e640 54a8 9d40 0691 c540 5057 ea40
000003c0: dcec 2c40 0d99 d240 04e3 3841 e6eb 0d3f
000003d0: 0bb8 4f41 521f 9c40 db97 0041 1147 783f
000003e0: a80a 0d41 0e78 2d40 6b34 d8be b4f7 e340
000003f0: 540e dc40 1a39 7241 ac38 4741 88ae 3041

l4/W f4 [64, 256]
42.179707 32.21968 34.394897 45.226894 29.219093 37.1878 35.58529 36.320866
27.455769 36.081818 30.907244 11.814874 26.659584 30.634277 45.389122 30.029907
34.367752 37.08139 33.653973 31.946976 10.52681 22.565956 30.884386 37.43668
43.37634 43.15097 42.02752 36.215214 35.901615 38.574364 37.48784 19.065687
39.70759 34.62991 47.809444 34.31543 38.979538 38.307266 33.540455 30.31478
16.700394 44.76795 34.522587 50.80027 36.58487 40.505917 32.310074 29.385118
37.22553 40.541203 39.149326 28.899467 43.186047 45.15621 35.070446 44.502636
40.031708 37.81559 41.95189 27.245258 43.983673 33.831093 39.440434 26.250647
14.716229 43.15015 30.154625 40.66497 39.351906 44.71814 32.974598 19.74849
38.937756 33.86405 34.592857 52.30988 31.309536 42.64671 30.391407 40.698067
31.83453 50.99549 32.939617 40.37801 28.516403 21.706867 46.953003 13.287017
35.21484 38.536987 39.795334 33.21724 23.270538 31.977049 39.89521 24.799875
31.310951 37.74418 40.64331 37.94518 30.46611 34.58542 35.108364 32.66521
33.857113 35.772705 21.5301 37.029037 38.818287 45.20663 35.085228 34.18086
35.812267 30.676628 33.27216 38.910416 42.34042 39.450943 25.698412 14.056534
30.75674 37.315147 28.762323 42.331192 33.06813 44.007412 42.43539 36.76769
40.166916 29.303614 35.742847 32.99112 35.629604 30.974188 44.581482 37.604656
34.097008 37.67976 22.923422 36.555508 38.518436 37.33951 27.50231 27.795202
37.754135 38.408813 36.64221 27.46554 34.32043 19.887323 7.923248 34.53556
43.92473 34.583508 39.781815 24.848988 13.670629 34.329197 41.40539 37.543015
19.596212 40.266937 39.901623 41.67292 4.9511847 20.166319 35.813965 43.55053
9.997903 38.215824 33.362385 44.11842 38.66538 40.2583 30.913784 22.352945
40.204376 39.838207 33.845295 38.247204 31.424152 39.371048 30.199837 35.97684
43.16943 32.9586 37.303303 15.781765 42.164276 46.14761 31.704683 13.594597
35.391922 37.68175 34.895824 37.63949 33.4905 41.33006 40.016914 35.965572
27.013826 40.273117 27.995886 37.240253 45.115196 29.460762 5.705798 36.471134
53.681465 12.926634 37.592957 39.006634 16.930803 44.519478 39.477844 40.17752
39.911366 22.503216 37.44776 36.949318 18.347692 39.009907 34.56469 34.536705
37.58529 34.82372 42.6162 40.094467 41.338547 35.175816 32.894035 45.13696
40.097565 42.69452 14.953938 21.11475 43.433273 42.761055 26.327644 15.534142
36.8232 36.564865 31.705069 43.073994 36.762886 41.895596 38.694263 37.41342
37.222454 33.20777 35.72022 2.4580617 40.479942 46.265335 36.824013 36.69673
00000000: 05b8 2842 f4e0 0042 6094 0942 57e8 3442
00000010: b4c0 e941 4fc0 1442 5657 0e42 9148 1142
00000020: 6aa5 db41 c853 1042 0942 f741 b909 3d41
00000030: d446 d541 0013 f541 768e 3542 403d f041
00000040: 9478 0942 5853 1442 ab9d 0642 6893 ff41
00000050: d06d 2841 1487 b441 3913 f741 29bf 1542
00000060: 5f81 2d42 989a 2c42 2e1c 2842 61dc 1042
00000070: 419b 0f42 264c 1a42 8cf3 1542 8786 9841
00000080: 92d4 1e42 0785 0a42 df3c 3f42 0043 0942
00000090: 0ceb 1b42 a43a 1942 6d29 0642 ab84 f241
000000a0: 689a 8541 6112 3342 2117 0a42 7a33 4b42
000000b0: e856 1242 0f06 2242 843d 0142 b914 eb41
000000c0: f1e6 1442 312a 2242 e998 1c42 1c32 e741
000000d0: 83be 2c42 f69f 3442 2348 0c42 b302 3242
000000e0: 7820 2042 2a43 1742 bcce 2742 4af6 d941
000000f0: 48ef 2f42 0a53 0742 01c3 1d42 5301 d241
00000100: ad75 6b41 c199 2c42 ac3c f141 eea8 2242
00000110: 5a68 1d42 60df 3242 fde5 0342 e8fc 9d41
00000120: 43c0 1b42 ca74 0742 165f 0a42 513d 5142
00000130: ee79 fa41 3b96 2a42 9a21 f341 d2ca 2242
00000140: 1ead fe41 62fb 4b42 2bc2 0342 1583 2142
00000150: 9821 e441 aaa7 ad41 e0cf 3b42 9f97 5441
00000160: ffdb 0c42 e025 1a42 6c2e 1f42 74de 0442
00000170: 102a ba41 ffd0 ff41 b294 1f42 2566 c641
00000180: d47c fa41 0afa 1642 c092 2242 ddc7 1742
00000190: 98ba f341 7857 0a42 f76e 0c42 2da9 0242
000001a0: af6d 0742 4017 0f42 a53d ac41 bc1d 1442
000001b0: ed45 1b42 97d3 3442 4657 0c42 33b9 0842
000001c0: c33f 0f42 bc69 f541 b116 0542 44a4 1b42
000001d0: 975c 2942 c4cd 1d42 5996 cd41 90e7 6041
000001e0: ce0d f641 b642 1542 3d19 e641 2453 2942
000001f0: c445 0442 9707 3042 d7bd 2942 1d12 1342
00000200: ecaa 2042 cd6d ea41 adf8 0e42 e8f6 0342
00000210: b784 0e42 23cb f741 7053 3242 2b6b 1642
00000220: 5663 0842 13b8 1642 2b63 b741 d738 1242
00000230: e112 1a42 a95b 1542 bb04 dc41 935c de41
00000240: 3c04 1742 a0a2 1942 9f91 1242 6db9 db41
00000250: 1f48 0942 3d19 9f41 3f8b fd40 6a24 0a42
00000260: ecb2 2f42 8355 0a42 9420 1f42 baca c641
00000270: e5ba 5a41 1951 0942 1f9f 2542 0c2c 1642
00000280: 0bc5 9c41 5811 2142 439b 1f42 12b1 2642
00000290: 1b70 9e40 9f54 a141 8041 0f42 be33 2e42
000002a0: 69f7 1f41 01dd 1842 1573 0542 4379 3042
000002b0: 59a9 1a42 8008 2142 6e4f f741 d5d2 b241
000002c0: 48d1 2042 535a 1f42 9561 0742 23fd 1842
000002d0: aa64 fb41 f47b 1d42 4499 f141 49e8 0f42
000002e0: 7fad 2c42 9bd5 0342 9536 1542 1c82 7c41
000002f0: 38a8 2842 2797 3842 31a3 fd41 7883 5941
00000300: 5491 0d42 1dba 1642 5395 0b42 d68e 1642
00000310: 46f6 0542 fb51 2542 5211 2042 bfdc 0f42
00000320: 511c d841 ac17 2142 93f7 df41 05f6 1442
00000330: f675 3442 a4af eb41 e695 b640 71e2 1142
00000340: d2b9 5642 7ed3 4e41 305f 1642 cb06 1c42
00000350: 4972 8741 f213 3242 50e9 1d42 c8b5 2042
00000360: 3da5 1f42 9606 b441 82ca 1542 1acc 1342
00000370: 13c8 9241 250a 1c42 3e42 0a42 9625 0a42
00000380: 5657 1642 7d4b 0b42 fd76 2a42 bc60 2042
00000390: ac5a 2542 09b4 0c42 7e93 0342 3f8c 3442
000003a0: e863 2042 30c7 2a42 5443 6f41 02eb a841
000003b0: acbb 2d42 520b 2b42 049f d241 d88b 7841
000003c0: f54a 1342 6c42 1242 fba3 fd41 c54b 2c42
000003d0: 320d 1342 1795 2742 edc6 1a42 58a7 1542
000003e0: cbe3 1442 c2d4 0442 81e1 0e42 e250 1d40
000003f0: 76eb 2142 b40f 3942 ca4b 1342 74c9 1242

l4/b f4 [64]
-94.94324 -94.939606 -94.93892 -94.955246 -94.95029 -94.93033 -94.95424 -94.93567
-94.92821 -94.93615 -94.9566 -94.98347 -94.959206 -94.94369 -94.93911 -94.96157
-94.930084 -94.96666 -94.96098 -94.93313 -94.95137 -94.963875 -94.920044 -94.92683
-94.92755 -94.97116 -94.95976 -94.958374 -94.94907 -94.946884 -94.97543 -94.94786
-94.962425 -94.952614 -94.94192 -94.94528 -94.93875 -94.94704 -94.95541 -94.95265
-94.97267 -94.95361 -94.94445 -94.967186 -94.94635 -94.945175 -94.95817 -94.949524
-94.94176 -94.96703 -94.936775 -94.94555 -94.96926 -94.95619 -95.00554 -94.93876
-94.92402 -94.92949 -94.95936 -94.97161 -94.91657 -94.94193 -94.95698 -94.938065
00000000: f0e2 bdc2 14e1 bdc2 bae0 bdc2 16e9 bdc2
00000010: 8ce6 bdc2 54dc bdc2 92e8 bdc2 10df bdc2
00000020: 3edb bdc2 4fdf bdc2 c7e9 bdc2 89f7 bdc2
00000030: 1deb bdc2 2be3 bdc2 d3e0 bdc2 53ec bdc2
00000040: 34dc bdc2 eeee bdc2 06ec bdc2 c3dd bdc2
00000050: 1ae7 bdc2 81ed bdc2 10d7 bdc2 89da bdc2
00000060: e8da bdc2 3cf1 bdc2 66eb bdc2 b0ea bdc2
00000070: ede5 bdc2 cee4 bdc2 6cf3 bdc2 4ee5 bdc2
00000080: c3ec bdc2 bde7 bdc2 43e2 bdc2 fce3 bdc2
00000090: a4e0 bdc2 e2e4 bdc2 2be9 bdc2 c2e7 bdc2
000000a0: 02f2 bdc2 40e8 bdc2 8fe3 bdc2 33ef bdc2
000000b0: 88e4 bdc2 eee3 bdc2 95ea bdc2 28e6 bdc2
000000c0: 2ee2 bdc2 1fef bdc2 a1df bdc2 1fe4 bdc2
000000d0: 43f0 bdc2 92e9 bdc2 d602 bec2 a5e0 bdc2
000000e0: 19d9 bdc2 e6db bdc2 31eb bdc2 77f1 bdc2
000000f0: 49d5 bdc2 45e2 bdc2 f9e9 bdc2 4ae0 bdc2

l3/W f4 [256, 256]
6.895491 7.1640577 4.086336 27.26966 -33.39283 9.571433 8.651579 14.715237
16.77706 32.067295 -3.8691843 7.877693 17.97479 -6.1099677 16.261017 -17.125563
-0.12902674 -26.2279 -33.95072 -9.511045 31.26705 25.847742 20.695805 9.883269
16.105644 11.837056 44.940983 8.564657 38.803543 -2.02769 12.549388 9.143385
-16.931135 11.477372 13.455892 16.640444 -13.001082 10.827038 13.204649 18.08205
1.634809 18.83688 -6.979727 12.9880295 19.00081 8.462775 -14.292166 23.98949
-8.390667 -2.7741165 28.10091 -17.362207 10.899661 4.887576 10.841736 31.712088
20.058456 22.541592 10.277689 10.575386 -1.1052564 -9.343408 8.158761 7.599268
7.1422906 7.166651 20.26661 -43.171837 11.2574625 25.297861 16.879097 -17.732843
-2.8837883 20.31287 14.875882 24.122395 -1.5486448 17.356037 19.85754 33.097103
7.9676595 11.139716 -7.0675006 -30.020294 16.452734 34.730713 13.81396 36.054684
27.40191 11.899929 55.17782 7.6746607 6.876977 11.609864 6.5770297 29.203249
13.376001 22.520418 17.304974 -6.9261255 1.4466567 8.09015 11.3569765 7.153248
22.123383 40.443672 9.473322 38.31515 14.40581 6.959236 -25.67503 -7.8475385
-50.496536 21.484772 7.9339333 1.7305065 8.4866905 -40.09419 26.709473 -14.917615
29.53993 17.024115 -20.429237 -4.1573634 -38.69312 15.148498 -1.1063955 -28.523373
16.251656 14.141149 21.35039 5.138259 6.768595 -2.2342956 15.063392 9.447387
19.73773 -22.211782 -4.5969114 -30.719957 -10.074378 38.76973 26.109545 2.3106718
-44.887383 -3.3243454 7.71437 -2.49466 1.4775532 -41.603027 10.661926 23.06299
33.582 12.7342 13.148862 9.279382 10.509116 21.269253 16.610558 11.766192
-21.382868 -12.328063 -14.016463 14.220842 9.455738 22.262396 27.244595 -15.942051
2.2112832 41.123177 -0.8596445 5.6485453 5.031186 14.281748 0.35349536 18.886602
6.226844 -17.306799 1.6460683 -0.11312011 -57.370064 14.0994005 13.876453 17.70777
-5.526972 -10.485594 2.4074981 4.4262247 -33.09197 7.662201 0.5387548 -18.477507
32.111122 4.398127 -11.276791 28.113132 -10.983095 11.997402 5.5592685 9.722612
5.2752504 11.775691 11.576154 14.94199 -7.174396 22.761808 11.275358 -36.516068
43.229733 35.123444 -17.901274 1.8042591 10.288722 11.6508045 25.339823 19.961939
-13.803801 -20.563435 -0.5060386 25.527609 14.87537 19.618502 13.5477705 13.516904
8.863412 -8.518336 -1.2562568 18.98107 12.452878 12.058279 -30.956888 15.751682
24.844463 -28.82071 16.613556 20.49818 64.35356 36.698387 17.065437 11.764179
18.96831 30.230011 6.269034 10.982375 3.3328216 10.639825 27.56403 16.05351
12.893777 16.5023 9.123885 33.61909 19.623816 20.098692 5.9167013 13.037925
00000000: dda7 dc40 f63f e540 44c3 8240 4428 da41
00000010: 4292 05c2 9724 1941 de6c 0a41 9c71 6b41
00000020: 6b37 8641 e944 0042 b7a0 77c0 1016 fc40
00000030: 5fcc 8f41 db84 c3c0 9016 8241 2701 89c1
00000040: 961f 04be bdd2 d1c1 8acd 07c2 3e2d 18c1
00000050: eb22 fa41 2dc8 ce41 0291 a541 df21 1e41
00000060: 5cd8 8041 9564 3d41 91c3 3342 d608 0941
00000070: d436 1b42 acc5 01c0 4bca 4841 4e4b 1241
00000080: f772 87c1 51a3 3741 554b 5741 a11f 8541
00000090: 6f04 50c1 8c3b 2d41 3e46 5341 0aa8 9041
000000a0: 6c41 d13f eeb1 9641 ec59 dfc0 f8ce 4f41
000000b0: a901 9841 8767 0741 b6ac 64c1 7aea bf41
000000c0: 2c40 06c1 208b 31c0 aace e041 cde5 8ac1
000000d0: 0365 2e41 0667 9c40 c077 2d41 5bb2 fd41
000000e0: b877 a041 2e55 b441 6a71 2441 c834 2941
000000f0: 0b79 8dbf 997e 15c1 498a 0241 342d f340
00000100: a58d e440 3455 e540 0422 a241 f6af 2cc2
00000110: 911e 3441 0562 ca41 6408 8741 dddc 8dc1
00000120: fd8f 38c0 c280 a241 9d03 6e41 aafa c041
00000130: fe39 c6bf 2ad9 8a41 3edc 9e41 6f63 0442
00000140: 11f7 fe40 473c 3241 f728 e2c0 9029 f0c1
00000150: 339f 8341 40ec 0a42 fb05 5d41 ff37 1042
00000160: 1d37 db41 1c66 3e41 16b6 5c42 d296 f540
00000170: 3210 dc40 01c2 3941 0777 d240 41a0 e941
00000180: 1a04 5641 d129 b441 9670 8a41 d2a2 ddc0
00000190: 0c2c b93f 4171 0141 2db6 3541 68e7 e440
000001a0: b0fc b041 52c6 2142 ba92 1741 b742 1942
000001b0: 337e 6641 10b2 de40 7666 cdc1 091f fbc0
000001c0: 74fc 49c2 d0e0 ab41 c8e2 fd40 3d81 dd3f
000001d0: 7cc9 0741 7360 20c2 00ad d541 8dae 6ec1
000001e0: c751 ec41 6331 8841 146f a3c1 1f09 85c0
000001f0: c1c5 1ac2 3f60 7241 5e9e 8dbf de2f e4c1
00000200: 6403 8241 2542 6241 99cd aa41 9e6c a440
00000210: 5598 d840 b3fe 0ec0 a703 7141 7f28 1741
00000220: dfe6 9d41 bbb1 b1c1 e619 93c0 79c2 f5c1
00000230: a730 21c1 3414 1b42 59e0 d041 0ce2 1340
00000240: ae8c 33c2 13c2 54c0 1edc f640 82a8 1fc0
00000250: 7720 bd3f 8069 26c2 4097 2a41 0181 b841
00000260: f853 0642 48bf 4b41 bd61 5241 5978 1441
00000270: 5725 2841 6e27 aa41 6ce2 8441 5342 3c41
00000280: 1d10 abc1 bf3f 45c1 6f43 60c1 9288 6341
00000290: b44a 1741 6319 b241 eef4 d941 a412 7fc1
000002a0: aa85 0d40 227e 2442 a911 5cbf e2c0 b440
000002b0: 7aff a040 0a82 6441 58fd b43e c317 9741
000002c0: 4e42 c740 5374 8ac1 5eb2 d23f 84ab e7bd
000002d0: f27a 65c2 2597 6141 f405 5e41 83a9 8d41
000002e0: f4dc b0c0 fec4 27c1 7314 1a40 a2a3 8d40
000002f0: 2d5e 04c2 c030 f540 d6eb 093f efd1 93c1
00000300: ca71 0042 75bd 8c40 bc6d 34c1 b2e7 e041
00000310: c2ba 2fc1 5cf5 3f41 87e5 b140 d28f 1b41
00000320: dace a840 3b69 3c41 ed37 3941 6412 6f41
00000330: a794 e5c0 2f18 b641 de67 3441 7410 12c2
00000340: 3feb 2c42 687e 0c42 cf35 8fc1 f6f1 e63f
00000350: 9b9e 2441 b269 3a41 f5b7 ca41 0db2 9f41
00000360: 5edc 5cc1 ea81 a4c1 bf8b 01bf 8b38 cc41
00000370: 8401 6e41 b1f2 9c41 abc3 5841 3d45 5841
00000380: 89d0 0d41 1b4b 08c1 06cd a0bf 3bd9 9741
00000390: fd3e 4741 b6ee 4041 b5a7 f7c1 e406 7c41
000003a0: 76c1 c641 d090 e6c1 90e8 8441 46fc a341
000003b0: 06b5 8042 26cb 1242 0486 8841 143a 3c41
000003c0: 19bf 9741 10d7 f141 ed9b c840 cfb7 2f41
000003d0: f34c 5540 b93c 2a41 2283 dc41 976d 8041
000003e0: e94c 4e41 b604 8441 6ffb 1141 f379 0642
000003f0: 93fd 9c41 1fca a041 9e55 bd40 579b 5041

l3/b f4 [256]
19.029652 -3.5804503 1.0215183 20.635122 -3.6424954 18.73896 9.690562 0.09119446
9.537265 12.993589 -2.884371 28.8551 -0.17113361 4.2508354 14.68456 1.1263419
1.1046289 19.154066 9.345086 13.354692 18.898235 4.1633916 1.816877 15.80759
7.583272 13.128574 13.237072 4.222287 2.3708568 11.2231865 19.158922 4.529724
8.336138 5.4999905 10.744641 8.893168 24.106243 19.341446 6.7463803 11.202443
11.687305 17.493423 15.229901 12.248413 0.46047026 19.877644 -7.0973406 8.737556
4.4080944 10.258549 4.0615115 7.0751777 14.4330225 20.09184 -0.9348439 15.144348
-0.19640896 17.695637 3.463284 8.330304 14.133985 10.4025955 17.128298 0.7674155
20.188402 7.724423 7.249355 21.436869 11.417502 11.976777 14.44083 16.58468
-5.494178 3.5224874 13.634759 8.364299 8.56078 20.07075 12.156367 18.897774
13.1334305 10.126441 6.429138 21.226402 1.0904901 2.4500897 9.6379175 3.1060553
2.9404817 8.853968 6.57213 5.6444955 19.271845 12.935229 19.21302 13.47218
21.40657 10.694027 21.364964 1.597897 3.7561018 11.837521 -6.797319 16.011492
2.767488 4.7172713 3.4982996 19.245039 12.916319 18.318047 -2.7109706 -2.2933004
12.296892 13.392867 -0.7693882 0.31858444 5.520474 12.357663 9.151024 -11.114418
14.580399 2.5960145 5.177608 17.933937 -0.09860118 8.106139 7.634653 11.858213
16.75364 17.981388 6.1247554 -2.485379 8.8088255 5.602559 13.570895 8.776713
11.705941 0.5284105 8.007421 23.23524 5.218356 11.82758 -4.101266 6.842082
14.016164 2.8915877 4.4866085 -5.49285 -0.94639474 -1.1208272 10.914242 0.15926567
21.210752 7.12107 19.839903 13.985806 30.589174 11.516858 10.40931 10.153057
25.86357 24.18553 -5.096695 -5.0744343 14.978211 2.3577838 5.4056706 17.631987
17.080172 3.622651 18.097008 17.344788 24.933815 5.436318 15.437541 8.150795
18.216904 11.591893 3.560547 9.882889 7.058019 13.0396805 12.908126 6.2016234
15.56361 10.9974985 7.9147396 22.31702 10.882607 16.637081 3.4903166 14.203726
24.439518 18.835869 18.748283 -7.2425594 12.265587 1.2052609 21.498394 10.321766
2.2008615 3.8067245 10.046454 2.0765243 24.11892 -0.012001872 17.709324 6.954824
9.745644 24.335997 2.7668698 6.827713 -4.030611 8.456908 3.4229465 19.426065
17.86072 5.98954 19.202255 14.393988 18.606283 5.1029634 12.942403 10.578808
24.103376 2.2471716 21.522911 13.5850725 23.67003 6.8879495 -3.4794292 9.243706
7.5242114 3.7241366 16.683693 17.226904 20.703094 15.502978 6.692646 18.520027
14.240737 22.102768 -1.2570524 13.253819 10.750081 12.947696 19.561277 14.642658
10.709047 6.821959 17.418745 109.36143 5.3945594 22.566532 16.35111 12.548789
00000000: ba3c 9841 1926 65c0 1dc1 823f bb14 a541
00000010: a51e 69c0 64e9 9541 8b0c 1b41 29c4 ba3d
00000020: a398 1841 bee5 4f41 8999 38c0 3fd7 e641
00000030: a63d 2fbe d806 8840 f5f3 6a41 f92b 903f
00000040: 7b64 8d3f 873b 9941 7985 1541 d2ac 5541
00000050: 962f 9741 813a 8540 6d8f e83f e3eb 7c41
00000060: 2aaa f240 a40e 5241 0ccb 5341 fa1c 8740
00000070: 1ebc 1740 2c92 3341 7945 9941 80f3 9040
00000080: d260 0541 ecff af40 0dea 2b41 6b4a 0e41
00000090: 96d9 c041 48bb 9a41 59e2 d740 353d 3341
000000a0: 34ff 3a41 88f2 8b41 adad 7341 80f9 4341
000000b0: c2c2 eb3e 6a05 9f41 6a1d e3c0 08cd 0b41
000000c0: 1c0f 8d40 0423 2441 e7f7 8140 db67 e240
000000d0: a9ed 6641 17bc a041 ee51 6fbf 404f 7241
000000e0: 6e1f 49be aa90 8d41 72a6 5d40 ed48 0541
000000f0: cd24 6241 0871 2641 c106 8941 5875 443f
00000100: d981 a141 792e f740 b7fa e740 b57e ab41
00000110: 17ae 3641 e1a0 3f41 a40d 6741 6dad 8441
00000120: 4ed0 afc0 6f70 6140 f927 5a41 2bd4 0541
00000130: f4f8 0841 e590 a041 7b80 4241 a42e 9741
00000140: 8822 5241 e705 2241 80bb cd40 accf a941
00000150: 2e95 8b3f 45ce 1c40 e934 1a41 9cc9 4640
00000160: da30 3c40 daa9 0d41 e44e d240 b59f b440
00000170: bd2c 9a41 b3f6 4e41 44b4 9941 0d8e 5741
00000180: a840 ab41 bc1a 2b41 72eb aa41 e487 cc3f
00000190: f963 7040 7c66 3d41 a383 d9c0 8917 8041
000001a0: 861e 3140 e3f3 9640 24e4 5f40 d7f5 9941
000001b0: 3ea9 4e41 5c8b 9241 8b80 2dc0 6fc5 12c0
000001c0: 12c0 4441 2f49 5641 a0f6 44bf 801d a33e
000001d0: b9a7 b040 fdb8 4541 986a 1241 a8d4 31c1
000001e0: 5049 6941 1a25 2640 f7ae a540 b478 8f41
000001f0: 6aef c9bd bfb2 0141 144f f440 3ebb 3d41
00000200: 7407 8641 e2d9 8f41 fffd c340 7310 1fc0
00000210: f3f0 0c41 2a48 b340 6322 5941 6b6d 0c41
00000220: 894b 3b41 e945 073f 651e 0041 c6e1 b941
00000230: c6fc a640 c53d 3d41 923d 83c0 56f2 da40
00000240: 3542 6041 c60f 3940 4c92 8f40 6dc5 afc0
00000250: ed46 72bf 4477 8fbf bca0 2e41 8a16 233e
00000260: 9faf a941 cedf e340 1fb8 9e41 ddc5 5f41
00000270: a1b6 f441 0d45 3841 898c 2641 ec72 2241
00000280: 97e8 ce41 f77b c141 2018 a3c0 c461 a2c0
00000290: c1a6 6f41 eee5 1640 41fb ac40 4f0e 8d41
000002a0: 31a4 8841 84d9 6740 acc6 9041 20c2 8a41
000002b0: 7478 c741 51f6 ad40 2b00 7741 a869 0241
000002c0: 38bc 9141 6578 3941 01e0 6340 5020 1e41
000002d0: 4bdb e140 88a2 5041 af87 4e41 b373 c640
000002e0: 8c04 7941 c1f5 2f41 8c45 fd40 4289 b241
000002f0: 291f 2e41 be18 8541 5961 5f40 7642 6341
00000300: 2284 c341 dcaf 9641 7cfc 9541 0cc3 e7c0
00000310: d83f 4441 fd45 9a3f b6fc ab41 f425 2541
00000320: eada 0c40 60a1 7340 47be 2041 c6e5 0440
00000330: 8cf3 c041 80a3 44bc b2ac 8d41 eb8d de40
00000340: 28ee 1b41 1fb0 c241 6514 3140 a07c da40
00000350: c4fa 80c0 7f4f 0741 8e11 5b40 9568 9b41
00000360: c1e2 8e41 50aa bf40 389e 9941 c64d 6641
00000370: abd9 9441 7a4b a340 1514 4f41 cc42 2941
00000380: b7d3 c041 a9d1 0f40 ec2e ac41 755c 5941
00000390: 395c bd41 156a dc40 f8ae 5ec0 38e6 1341
000003a0: 57c6 f040 4158 6e40 3478 8541 b3d0 8941
000003b0: f09f a541 330c 7841 282a d640 0429 9441
000003c0: 0fda 6341 78d2 b041 18e7 a0bf a50f 5441
000003d0: 5500 2c41 c329 4f41 7f7d 9c41 5448 6a41
000003e0: 4258 2b41 7d4d da40 9759 8b41 0db9 da42
000003f0: 3ba0 ac40 4288 b441 13cf 8241 d7c7 4841

l1/W f4 [256, 64]
-3.4490309 -6.7623534 19.494299 6.408682 -8.809913 -0.749023 -12.761601 -12.375337
7.6199226 7.6596494 3.6023772 -3.4917088 -2.7724538 -6.43441 2.7567067 20.46407
-19.701588 -10.788946 10.752429 4.0235634 15.000743 -3.9871314 8.995149 -9.074354
-8.44526 2.5760696 -2.3232505 7.842027 -6.746144 6.718362 -14.548246 -1.7251854
-11.863547 3.503219 3.0481768 -7.0855603 1.0604701 -8.192518 -12.304296 9.838718
12.09325 7.052142 -14.163917 -1.4982747 8.685268 10.665492 -15.412535 -5.546337
-10.852041 -1.0936902 -8.583319 -8.535765 8.475066 -0.6756329 -1.8764073 -27.92748
-8.500143 -4.0017877 -9.700596 -2.1435106 0.83676994 15.71921 1.4553941 -5.4834833
-7.976956 2.890506 12.655861 -2.6013718 -12.352236 9.1963005 4.7886124 5.5172215
-20.926243 1.94773 12.197279 5.9047933 10.883956 2.1882076 8.481432 -4.812807
6.6851606 7.6317987 7.335106 5.284347 6.9388475 -15.830408 1.4775786 -12.153195
23.74441 11.467803 10.380944 1.2810433 -3.004073 5.652648 -24.231758 -19.295937
13.206463 16.990608 5.6299424 0.4661048 -1.4457473 4.612719 -17.40684 -0.34653524
4.4687967 -23.416574 -7.0703783 -2.2241275 -14.120146 4.925271 11.780126 4.71111
-17.239382 -19.89255 -9.592276 7.317295 15.865954 5.3401217 -5.490957 -5.71232
-21.810541 -28.989384 -15.890288 -4.8893633 20.123543 5.977584 3.4477413 -11.959261
10.408675 1.9901766 10.596992 16.29102 4.319472 17.962326 21.34638 18.285698
13.64209 7.70315 2.0763505 -0.14442629 -6.14504 2.905398 4.624001 -11.719979
-2.7828944 1.1889579 10.9971075 -3.0333903 3.5407746 -1.9836516 13.570445 -7.97373
12.416315 8.210175 7.338747 -10.359805 -6.0868807 -1.8344046 4.136358 -7.17444
12.73507 1.6813405 -5.541447 -1.5761367 -3.1055403 -2.3432095 -5.7293587 3.3788025
8.5240135 16.503263 1.3505789 -3.8964438 4.4193764 -10.7702055 0.37026608 5.2653418
1.6144392 2.5728846 8.945651 -4.7826495 6.581111 -0.3657528 -12.27403 -2.7726657
-23.640015 -1.393928 -1.9734281 19.267908 -7.028926 17.622803 28.205029 12.392757
-22.69705 13.761205 -43.30543 10.530558 6.373198 -24.12432 5.0582256 -1.4105992
-2.4453008 0.0012605843 -6.5003743 -2.227789 1.4639242 -14.593457 -16.439108 10.886487
-38.050625 -3.8043864 8.601004 -1.2032192 -6.8693314 -16.257048 -6.514568 -8.33922
6.4566445 18.429024 3.8401423 -5.098567 12.610449 -4.07608 5.0850754 -7.1875587
-1.0756408 -4.2598324 7.9328523 2.5182602 0.053453557 2.077595 -7.163656 -0.15033242
-20.038557 5.8785186 2.1144047 2.109373 -9.755421 -5.731094 -10.194961 -7.498815
1.9954705 3.5550258 6.2928767 -0.712354 5.657112 15.79262 6.681959 -0.840931
2.9188685 3.4733849 -29.290174 8.398789 9.178087 3.146373 -13.9465685 20.517578
00000000: ecbc 5cc0 3365 d8c0 53f4 9b41 ec13 cd40
00000010: 67f5 0cc1 f9bf 3fbf 852f 4cc1 6101 46c1
00000020: 68d6 f340 d91b f540 598d 6640 2878 5fc0
00000030: e26f 31c0 b0e6 cdc0 e26d 3040 6ab6 a341
00000040: da9c 9dc1 869f 2cc1 f309 2c41 08c1 8040
00000050: 0b03 7041 292d 7fc0 21ec 0f41 8e30 11c1
00000060: c91f 07c1 53de 2440 23b0 14c0 e3f1 fa40
00000070: 69e0 d7c0 d2fc d640 9ec5 68c1 e0d2 dcbf
00000080: 17d1 3dc1 bd34 6040 5415 4340 e9bc e2c0
00000090: 7cbd 873f 8e14 03c1 65de 44c1 646b 1d41
000000a0: f47d 4141 26ab e140 679f 62c1 77c7 bfbf
000000b0: dcf6 0a41 dba5 2a41 be99 76c1 987b b1c0
000000c0: f6a1 2dc1 0afe 8bbf 4655 09c1 7e92 08c1
000000d0: df99 0741 47f6 2cbf 1d2e f0bf 7b6b dfc1
000000e0: 9600 08c1 a50e 80c0 a435 1bc1 472f 09c0
000000f0: 8e36 563f e281 7b41 5b4a ba3f b278 afc0
00000100: 3943 ffc0 0dfe 3840 687e 4a41 e07c 26c0
00000110: c2a2 45c1 0c24 1341 503c 9940 148d b040
00000120: f268 a7c1 374f f93f 0e28 4341 11f4 bc40
00000130: af24 2e41 980b 0c40 f2b3 0741 8402 9ac0
00000140: d6ec d540 b237 f440 30b9 ea40 5f19 a940
00000150: 0a0b de40 5a49 7dc1 4c21 bd3f 7d73 42c1
00000160: 8df4 bd41 1f7c 3741 5918 2641 3af9 a33f
00000170: bb42 40c0 7ee2 b440 a4da c1c1 145e 9ac1
00000180: ac4d 5341 c4ec 8741 7d28 b440 4aa5 ee3e
00000190: 3f0e b9bf 659b 9340 3541 8bc1 116d b1be
000001a0: 6200 8f40 2555 bbc1 8a40 e2c0 1b58 0ec0
000001b0: 1eec 61c1 d29b 9d40 657b 3c41 6ac1 9640
000001c0: 41ea 89c1 f123 9fc1 f679 19c1 4827 ea40
000001d0: f3da 7d41 47e2 aa40 ebb5 afc0 53cb b6c0
000001e0: fd7b aec1 42ea e7c1 9f3e 7ec1 aa75 9cc0
000001f0: 04fd a041 5e48 bf40 cba7 5c40 2259 3fc1
00000200: ef89 2641 1bbe fe3f 478d 2941 0254 8241
00000210: 1d39 8a40 d8b2 8f41 63c5 aa41 1c49 9241
00000220: 0046 5a41 3480 f640 ede2 0440 7ce4 13be
00000230: 2ba4 c4c0 0af2 3940 d1f7 9340 0985 3bc1
00000240: f11a 32c0 c62f 983f 27f4 2f41 1123 42c0
00000250: 0d9c 6240 4ce8 fdbf 8b20 5941 cc28 ffc0
00000260: 3aa9 4641 e05c 0341 04d7 ea40 c3c1 25c1
00000270: bac7 c2c0 c5cd eabf 0b5d 8440 0395 e5c0
00000280: d9c2 4b41 2a36 d73f 8953 b1c0 d9be c9bf
00000290: 2cc1 46c0 25f7 15c0 e856 b7c0 4d3e 5840
000002a0: 5c62 0841 af06 8441 c5df ac3f 565f 79c0
000002b0: 886b 8d40 c352 2cc1 8493 bd3e ae7d a840
000002c0: f2a5 ce3f 24aa 2440 6321 0f41 770b 99c0
000002d0: 7698 d240 f343 bbbe 6d62 44c1 5b73 31c0
000002e0: c01e bdc1 3c6c b2bf 4b99 fcbf ad24 9a41
000002f0: f6ec e0c0 80fb 8c41 e6a3 e141 bc48 4641
00000300: 8f93 b5c1 e52d 5c41 c338 2dc2 2a7d 2841
00000310: 3df1 cb40 9bfe c0c1 fcdc a140 848e b4bf
00000320: cf7f 1cc0 313a a53a 1103 d0c0 1894 0ec0
00000330: de61 bb3f cd7e 69c1 4b83 83c1 0d2f 2e41
00000340: d733 18c2 117b 73c0 b69d 0941 1603 9abf
00000350: 90d1 dbc0 6f0e 82c1 5777 d0c0 726d 05c1
00000360: d59c ce40 a46e 9341 e4c4 7540 7627 a3c0
00000370: 66c4 4941 3f6f 82c0 f0b8 a240 7b00 e6c0
00000380: 99ae 89bf 8c50 88c0 edd9 fd40 2d2b 2140
00000390: 1ef2 5a3d 51f7 0440 ac3c e5c0 bef0 19be
000003a0: f74e a0c1 d31c bc40 6852 0740 f8ff 0640
000003b0: 3416 1cc1 1f65 b7c0 8f1e 23c1 4bf6 efc0
000003c0: 946b ff3f 8b85 6340 3f5f c940 d55c 36bf
000003d0: 1007 b540 92ae 7c41 9cd2 d540 4147 57bf
000003e0: bece 3a40 f04b 5e40 4752 eac1 7161 0641
000003f0: 72d9 1241 2d5e 4940 2525 5fc1 0024 a441

l1/b f4 [256]
6.3718576 8.041749 -6.5789933 5.472545 6.888003 2.068368 2.6689186 -5.458555
-3.8589268 0.56049275 -3.4149587 -6.1663394 7.393444 5.1340733 -13.967627 -1.917793
3.4508715 -11.932779 -0.44534454 -4.5560827 -10.884863 -2.4907243 0.7220968 -4.6093335
1.164445 -15.024366 -0.38169643 -2.0703137 -9.692874 0.761911 -1.02462 7.230401
2.083542 -7.754818 -3.7438676 -1.3864213 -1.3254901 -0.5365472 6.021764 7.58092
-6.610983 -1.784863 2.3026142 -0.10199964 -3.2380767 9.610088 9.204355 -7.258917
-0.27111506 3.788024 7.7537904 -8.628009 -0.82407814 -0.5910727 2.847182 -10.27668
2.7827044 7.542686 -8.868181 -1.2258943 4.6238475 -8.935792 -2.021627 -11.48161
2.28368 8.057799 1.0718378 -2.3683574 -7.374447 -0.86558247 2.642729 -3.6257305
-4.4077673 3.0754473 13.472441 0.7399909 1.2920908 1.5438778 -4.5247602 -5.9478483
6.164253 3.287302 0.7470665 -2.9710329 -8.936849 5.0278306 -17.50842 -10.947017
4.086611 -9.826664 -8.65893 3.2702737 -0.74875176 7.24298 -0.550977 9.059391
2.1494184 -3.0054824 -4.6203175 2.2199738 -4.006581 6.84551 -1.1865634 4.145852
-1.3237948 -3.6072683 6.0306067 -1.0863118 -4.525385 -2.4099243 -7.68745 -1.3176169
4.673698 -4.1596227 1.4226749 4.160211 -8.385342 -4.2376842 1.9558944 3.3347354
1.4389907 0.63748354 8.725096 -0.48299497 5.692359 9.608358 -11.085097 -12.088082
-3.248862 0.08840001 -0.6035914 -1.6958272 1.2689728 6.100191 -4.829681 -0.7276389
4.200776 10.76898 2.726595 1.2164583 -6.4111753 1.1708115 -1.9481225 -2.6433606
-4.826714 6.4856024 -7.6290226 0.14101762 2.308052 11.083185 -3.0541925 0.46677378
4.196098 8.658936 -8.086324 -9.91157 2.1767933 2.6204069 8.360633 -0.9011388
-2.5305562 0.022974305 2.2452664 6.193027 2.3529384 4.4191837 -0.6883785 2.499768
2.5458975 8.133248 2.1472425 4.3004675 -3.2560391 -3.764382 -5.1514792 -1.1411746
7.4107103 -4.3191733 0.8642529 -0.9407668 3.3162365 -1.2318845 -6.8518496 -10.819367
8.096114 -12.986341 1.2533597 -1.766737 -2.1339936 2.7908027 -1.1760068 3.0184107
2.2149966 -6.690465 -4.2420588 4.3706827 0.9335254 -3.2537453 0.09424009 -11.597932
1.299176 -14.191697 -3.541323 0.091685 3.7314484 1.2944059 -1.2496157 -1.0423101
1.3189247 -1.3765625 2.027299 3.469405 -1.7624226 2.3070455 5.5157833 -17.530396
6.534561 0.14833671 -4.8433642 -4.876396 -2.4257524 8.131923 1.5840636 -3.3928342
-3.9832604 7.535241 -6.273173 -2.8064778 -2.907303 -3.6621196 2.5697172 -13.094432
4.1264424 7.6094484 -3.351962 -15.404494 7.7142854 3.2881072 4.3783855 3.528828
1.6338081 -7.1889157 -0.90880066 -8.998092 -3.2416983 -2.0353765 3.988602 -6.8106003
-1.1901821 -6.6721573 -2.314896 -10.624109 7.26528 0.36077216 -2.0096056 1.7444929
00000000: 42e6 cb40 01ab 0041 1d87 d2c0 171f af40
00000010: 856a dc40 2460 0440 90cf 2a40 7cac aec0
00000020: a8f8 76c0 747c 0f3f af8e 5ac0 a752 c5c0
00000030: 1897 ec40 544a a440 667b 5fc1 3e7a f5bf
00000040: 14db 5c40 aaec 3ec1 3304 e4be 6ecb 91c0
00000050: 6628 2ec1 0768 1fc0 56db 383f a97f 93c0
00000060: 890c 953f ce63 70c1 b76d c3be 0580 04c0
00000070: 0316 1bc1 990c 433f c026 83bf 725f e740
00000080: c158 0540 7827 f8c0 879b 6fc0 4176 b1bf
00000090: a9a9 a9bf 285b 09bf 4ab2 c040 e696 f240
000000a0: 2c8d d3c0 6476 e4bf 085e 1340 30e5 d0bd
000000b0: a63c 4fc0 ecc2 1941 0a45 1341 0c49 e8c0
000000c0: 98cf 8abe fc6e 7240 0d1f f840 530c 0ac1
000000d0: c9f6 52bf 8a50 17bf 3b38 3640 486d 24c1
000000e0: d417 3240 af5d f140 12e4 0dc1 1bea 9cbf
000000f0: 8ff6 9340 01f9 0ec1 5662 01c0 adb4 37c1
00000100: d027 1240 bfec 0041 fb31 893f 2b93 17c0
00000110: 78fb ebc0 d096 5dbf 7922 2940 f80b 68c0
00000120: 6e0c 8dc0 21d4 4440 1e8f 5741 0b70 3d3f
00000130: 3b63 a53f ca9d c53f d6ca 90c0 c654 bec0
00000140: 9041 c540 2863 5240 c03f 3f3f 6725 3ec0
00000150: 55fd 0ec1 fde3 a040 3f11 8cc1 fb26 2fc1
00000160: 84c5 8240 043a 1dc1 fa8a 0ac1 2a4c 5140
00000170: 32ae 3fbf 7ec6 e740 d40c 0dbf 44f3 1041
00000180: 1290 0940 d359 40c0 a4d9 93c0 0d14 0e40
00000190: e935 80c0 6b0e db40 4fe1 97bf d2aa 8440
000001a0: 1c72 a9bf 7cdd 66c0 bbfa c040 440c 8bbf
000001b0: f4cf 90c0 333c 1ac0 97ff f5c0 aca7 a8bf
000001c0: ef8e 9540 a11b 85c0 361a b63f 7320 8540
000001d0: 5c2a 06c1 1c9b 87c0 bf5a fa3f 4e6c 5540
000001e0: d930 b83f 1f32 233f fe99 0b41 1e4b f7be
000001f0: ce27 b640 d6bb 1941 8f5c 31c1 c968 41c1
00000200: 5bed 4fc0 100b b53d f784 1abf de10 d9bf
00000210: b36d a23f c434 c340 bf8c 9ac0 8b46 3abf
00000220: c26c 8640 be4d 2c41 8880 2e40 e8b4 9b3f
00000230: 5928 cdc0 27dd 953f 145c f9bf d22c 29c0
00000240: 7174 9ac0 0e8a cf40 f420 f4c0 ec66 103e
00000250: 20b7 1340 ba54 3141 e477 43c0 f9fc ee3e
00000260: 6f46 8640 008b 0a41 9561 01c1 ca95 1ec1
00000270: 9550 0b40 bfb4 2740 27c5 0541 08b1 66bf
00000280: a2f4 21c0 9c34 bc3c 72b2 0f40 472d c640
00000290: 8b96 1640 f469 8d40 9339 30bf 33fc 1f40
000002a0: fcef 2240 c921 0241 6c6c 0940 6e9d 8940
000002b0: f262 50c0 a2eb 70c0 ebd8 a4c0 0212 92bf
000002c0: 8a24 ed40 ab36 8ac0 ae3f 5d3f 18d6 70bf
000002d0: 383d 5440 64ae 9dbf 5a42 dbc0 211c 2dc1
000002e0: af89 0141 0ec8 4fc1 176e a03f 7024 e2bf
000002f0: 5a93 08c0 839c 3240 6487 96bf a42d 4140
00000300: 81c2 0d40 4a18 d6c0 f2be 87c0 a2dc 8b40
00000310: 85fb 6e3f 5d3d 50c0 f300 c13d 2191 39c1
00000320: 664b a63f 3111 63c1 09a5 62c0 58c5 bb3d
00000330: 0dd0 6e40 18af a53f 68f3 9fbf 6b6a 85bf
00000340: 86d2 a83f 3333 b0bf 44bf 0140 bb0a 5e40
00000350: 1097 e1bf a2a6 1340 4c81 b040 403e 8cc1
00000360: 201b d140 94e5 173e d7fc 9ac0 700b 9cc0
00000370: 873f 1bc0 5b1c 0241 99c2 ca3f 3224 59c0
00000380: bded 7ec0 b220 f140 d5bd c8c0 559d 33c0
00000390: 4111 3ac0 2b60 6ac0 3f76 2440 cb82 51c1
000003a0: d10b 8440 9a80 f340 8c86 56c0 cf78 76c1
000003b0: 6ddb f640 5970 5240 bc1b 8c40 51d8 6140
000003c0: a020 d13f 990b e6c0 29a7 68bf 2ff8 0fc1
000003d0: fc77 4fc0 9c43 02c0 4145 7f40 70f0 d9c0
000003e0: e357 98bf 5082 d5c0 4227 14c0 5afc 29c1
000003f0: 2c7d e840 21b7 b83e 619d 00c0 8b4b df3f
