static/ai/4/agent_black_16000/target_model.npz (npz, 521783 bytes, 8 tensors)

l2/b f4 [256]
000000 cb 06 2c bc c0 b3 26 bd 6a 71 61 3d 42 c2 d1 3c
       -0.010499666 -0.040698767 0.0550398 0.025605325
000010 e0 0d f2 3b 64 17 23 bd 56 9a 77 bc 4b 9c 5b bc
       0.007386908 -0.03981723 -0.01511248 -0.013403962
000020 07 62 92 bc 1b fc 2a 3d 80 12 02 bc 84 2c 57 3d
       -0.017869009 0.041744333 -0.007938981 0.052532688
000030 ca 23 80 bc 59 06 98 bb d7 cc ad 3d 4b c2 82 3c
       -0.015642066 -0.0046394286 0.08486336 0.015961787
000040 25 e4 49 bc ca e5 37 3c 97 ec 33 bd 92 47 ca 3c
       -0.01232246 0.01122422 -0.0439268 0.02469233
000050 6c 40 12 3b 88 9e 56 bc bd 96 99 bc e3 6f f4 bb
       0.002231623 -0.01309932 -0.018748635 -0.007459627
000060 8a 3e fd bc fe 08 1a bd 3c 2b 27 3d cd bc 7f bc
       -0.03091361 -0.037606232 0.040812716 -0.015608978
000070 7d a5 78 bd dc 36 31 3d a2 54 88 3b 8a b8 03 3d
       -0.060704697 0.04326521 0.0041604796 0.032158412
000080 21 6b 7b 3c fc 0a 02 bd df a3 ec bc c6 aa 0d bc
       0.015345366 -0.031748757 -0.028886734 -0.008646673
000090 af 25 57 3c 8d 84 6f bc e4 e4 70 3d 1d 90 fa bb
       0.013131543 -0.014619005 0.058812037 -0.007646574
0000a0 04 a5 fe bd f8 ed 35 bd 8b 4b aa 3c 62 f3 41 ba
       -0.12433818 -0.044416398 0.020787975 -0.00073986326
0000b0 79 0a 0a 3d 50 e1 30 bc 97 98 f0 3c af 6c 17 bd
       0.033701394 -0.010795906 0.029369636 -0.036968883
0000c0 a0 e9 7e 3c cb 20 8c 3b 08 f5 9b 3b 6f 07 94 bc
       0.01555863 0.00427637 0.0047594346 -0.01806995
0000d0 07 31 5c bc 24 36 4e bc ab 9c 18 bd af 3a 6c 3d
       -0.013439423 -0.01258615 -0.037258785 0.057673153
0000e0 4d 4a 66 bd 77 48 17 bc c8 ea c4 bc 53 2e cf bb
       -0.056223202 -0.009233586 -0.024037734 -0.006322661
0000f0 6c 41 6d bb 77 a8 39 bd 78 d9 07 3b 1a 68 76 3c
       -0.0036202325 -0.045326676 0.0020728987 0.015039468
000100 30 cd cf bc ed 71 d0 3a e1 c6 b9 3c fb 78 c7 bb
       -0.025366396 0.0015903093 0.02267784 -0.00608742
000110 6b 2c 69 3d de 75 01 bd 77 c1 12 bc af 3d 9c bc
       0.056927126 -0.031606548 -0.008957258 -0.019072382
000120 70 cc b6 bc ff 4f 71 3c 5b 1b 98 3c 35 18 48 3c
       -0.02231428 0.014728545 0.018567732 0.012212803
000130 4b f8 d9 3c ea f0 b5 3b d9 e4 97 bc 1a 26 41 bc
       0.026607653 0.005552401 -0.01854174 -0.011788869
000140 db f4 92 bd c4 2b 17 bd 8a 0a 0d bd 5e 36 2b 3d
       -0.07175609 -0.036906973 -0.03443388 0.041799895
000150 e5 f4 ad 3b 61 fc 61 3d 40 6f d4 bb 8f 23 1f bd
       0.0053087347 0.055172328 -0.0064829886 -0.03885227
000160 d4 fd 42 bc 3c a3 2d bd 22 ef 25 bd 7f 6f 92 3b
       -0.011901338 -0.042392 -0.040511258 0.004468858
000170 b1 a9 75 3c fb 3a 93 bb 0f fa b0 bd bb 74 c0 bb
       0.014994071 -0.004493115 -0.08641445 -0.0058732904
000180 0c b4 50 3d cc e1 e1 ba 95 76 36 3d 68 9e 4e bc
       0.050952956 -0.001723343 0.044546682 -0.012611009
000190 6b f2 9e 3b 0d 17 67 bc ca 5e 22 bb 36 03 4d 3c
       0.004850676 -0.014104617 -0.0024775737 0.012512973
0001a0 1a 35 97 bc 8c 4b 9c bc f0 7c 31 3a a0 0f 8f 3d
       -0.018457938 -0.019078992 0.00067706313 0.06985402
0001b0 69 f8 1e bd e8 a8 72 3c 05 40 df 3c 76 83 0b bc
       -0.03881112 0.014810778 0.027252207 -0.008515229
0001c0 ca 39 b4 3c f1 de 03 3c 25 14 92 3c 37 37 3c 3d
       0.022000212 0.008048759 0.017831871 0.045951094
0001d0 63 96 db bc 50 2f 60 bd 0d 36 88 bd e2 06 8f 3c
       -0.026805108 -0.05473262 -0.06650934 0.017459337
0001e0 68 21 57 bc ae 3d 2e 3d 8c 04 56 bc 9c 2a a1 3c
       -0.013130523 0.04253929 -0.0130626075 0.019673638
0001f0 84 bd 98 bc 98 a7 1a ba c0 ff d5 3c e9 a3 87 3c
       -0.018645056 -0.0005899607 0.026122928 0.01655765
000200 df 6f 48 bd b5 91 87 bc e7 0e aa bd 0c 3b bc 3d
       -0.048934814 -0.01654897 -0.08303624 0.0919095
000210 a8 fa 3b 3d d5 50 f0 3c d4 ac 60 bd a5 8e 62 3d
       0.04589334 0.029335419 -0.05485232 0.055311818
000220 6a 4b c3 bc b7 47 ae 3a 21 65 eb 3c bb 15 e4 bb
       -0.023839671 0.0013296519 0.028734745 -0.0069605983
000230 9d 10 96 3d 35 97 82 bb 06 61 18 bc 66 b8 97 3c
       0.073273875 -0.0039853104 -0.009300476 0.018520545
000240 67 99 83 3d 81 43 17 3d fd 51 01 bc 1a 76 ab bd
       0.064257436 0.03692961 -0.007893083 -0.083721355
000250 7d 7f 15 bd ef dd cd bc 23 20 54 bb a7 86 6e ba
       -0.036498535 -0.02513024 -0.0032367788 -0.0009099044
000260 33 c9 f2 bc d9 93 fe bc 3d 1e 5f bc d3 82 a5 3c
       -0.029636955 -0.031076359 -0.013618049 0.020203983
000270 d3 6c 5c 3d 9b c2 6d 3d db 24 4c bc e4 de 0f 3d
       0.05381472 0.05804692 -0.012459959 0.035124674
000280 6b 11 aa bd 24 8f 9b ba 5c 63 b9 bc d0 8c 00 3d
       -0.083041035 -0.0011868221 -0.022630386 0.03138429
000290 bb f3 b7 3c 7b e4 80 ba f3 77 15 bd 8d 06 06 3c
       0.022455087 -0.0009833717 -0.036491346 0.008180273
0002a0 f0 f3 df 3c fc 0b 83 bb ce 86 5e bc 05 b4 13 bd
       0.027337998 -0.0039992314 -0.013581945 -0.036060352
0002b0 0d fb 1d bd 52 a1 95 3a 15 84 20 bd 67 f8 34 bd
       -0.0385695 0.0011415875 -0.039188463 -0.044182207
0002c0 25 f0 92 3d 88 ae 8c bc 5a 43 df bb 9a fe 35 bc
       0.0717471 -0.017173067 -0.006813449 -0.011108065
0002d0 e9 dc 67 3d 18 19 e6 bc 47 11 9f bd 09 f5 a3 3c
       0.05660716 -0.028088138 -0.07766967 0.020014303
0002e0 00 00 00 00 66 94 fc 3c c5 3f 81 bd 7d 57 d1 bc
       0.0 0.03083248 -0.06310991 -0.025554413
0002f0 c8 64 eb 3c 54 76 80 3c 03 58 1c 3e 21 bc 2f bd
       0.02873458 0.015681423 0.15267949 -0.042904023
000300 56 b1 e1 3c 94 e2 aa 3c d8 65 c8 3b d2 d7 19 3d
       0.02755038 0.020859994 0.0061156563 0.037559338
000310 11 41 05 bb 53 c9 0b 3d 24 12 f9 bb 5e e5 8a bc
       -0.0020332972 0.034127545 -0.0076010395 -0.016955074
000320 92 e0 81 3c ed d9 83 bc 08 de 06 3c 9d 84 9d bc
       0.015854154 -0.016095126 0.008231647 -0.019228274
000330 2d 21 30 3c 15 31 7b bc c2 f3 b3 bd c5 f4 94 3c
       0.010750097 -0.015331526 -0.087867275 0.018183121
000340 a4 4b 26 bc 00 c8 30 bc 61 e6 d6 3c 13 b4 86 3c
       -0.01014987 -0.010789871 0.0262329 0.016443288
000350 44 e2 91 3a 0f 1d 95 3d 9c 3a 0b bd 5b 01 f7 bc
       0.0011130054 0.07280933 -0.03399144 -0.030152014
000360 60 0d d5 bc ea 56 0d 3d 84 a4 15 bd e5 10 0c 3c
       -0.026007354 0.034506716 -0.036533847 0.00854895
000370 c2 cf 45 3d 04 d8 bc bc df b2 25 3d ec f8 9c bc
       0.048293836 -0.023052223 0.040453788 -0.019161664
000380 f2 1c 4b bd 50 73 f1 bc d3 9e cb bc f9 e0 17 3c
       -0.04958815 -0.02947393 -0.024856007 0.009269946
000390 73 b4 7a bd 79 8b 5f 3c 57 62 ea bb 71 e9 fa 3c
       -0.061207246 0.013644093 -0.0071528363 0.030628892
0003a0 72 00 5a bd 42 1d c4 bb e7 12 06 3d 59 c8 bd 3b
       -0.05322308 -0.005984933 0.03273287 0.0057917056
0003b0 f5 c6 ba 3c 71 51 e2 3b ee 2b 59 bb 1f 03 eb bc
       0.022799948 0.006906681 -0.0033137756 -0.028688012
0003c0 d9 22 25 3b 8a af d4 bc c0 4b b5 bd 5e 3f 38 3c
       0.0025197773 -0.02596261 -0.08852339 0.011245577
0003d0 76 41 c7 3c f4 49 a7 bd f7 ba 71 bc e6 94 17 bd
       0.024323206 -0.08168402 -0.014754049 -0.037007235
0003e0 0b 93 13 bb 70 ad 96 3c db 7c 74 3d 38 8c 28 3a
       -0.0022518064 0.018393248 0.059689384 0.00064295856
0003f0 c0 3d f0 3c 79 bb a2 bd 9a 41 60 3d 96 e6 30 3d
       0.02932632 -0.07945914 0.054750063 0.043188654

l2/W f4 [256, 256]
000000 19 35 93 bd fa 3e 51 bd 16 47 c0 3c 2d a9 fc bc
       -0.07187862 -0.05108545 0.023471396 -0.030842388
000010 14 ca 8e bd fa 00 0c bc d1 33 94 ba a5 09 4d 3e
       -0.06972137 -0.008545155 -0.0011306946 0.2002321
000020 77 4d d1 3d 8f 08 ac bd ff 21 e0 3c ff d1 d0 bc
       0.10219853 -0.0840007 0.02735996 -0.025490759
000030 f6 cb 2b 3d 83 5e 24 be 68 0f 16 3d fe 29 25 bd
       0.04194256 -0.16051678 0.036635786 -0.04032325
000040 fc 7d 48 3d c4 c0 02 3d 58 ee f4 3d 38 87 29 be
       0.048948273 0.031922117 0.11959523 -0.16555488
000050 b0 ea 59 bd c4 bc 04 3d 14 79 13 be ef 77 b3 3e
       -0.05320233 0.032406583 -0.14401656 0.3505244
000060 71 0a a9 3d 54 4e ae 3d b0 ee a0 39 a1 71 71 bd
       0.08253945 0.08511034 0.00030695414 -0.058946256
000070 9c 3e 60 3e da 56 84 3d 1c c8 96 3d 49 aa 49 3e
       0.21898884 0.06461878 0.073623866 0.19693865
000080 49 20 e7 3b a7 f0 b1 bd a5 40 67 3e e1 fc 83 3d
       0.0070534092 -0.08688479 0.22583254 0.06444717
000090 86 0d 62 3b d9 2e 57 bc 14 60 55 bd 12 ba ae 3d
       0.0034492924 -0.013133728 -0.05209358 0.08531584
0000a0 1d 28 0c 3e e0 cc 22 3e 72 95 49 be 5b 71 85 3d
       0.13687177 0.15898466 -0.19685915 0.065157615
0000b0 fc 4b e9 3c b5 7f 01 bd 69 28 d2 3c c6 35 94 3e
       0.028478615 -0.03161593 0.025654035 0.28947276
0000c0 70 72 25 3d a1 3e 67 bd 26 4f 38 bd 71 59 59 bd
       0.04039234 -0.056456212 -0.044997357 -0.053063814
0000d0 27 05 49 bd 26 01 7d 3d f3 b7 7e 3b 4a c7 b2 3c
       -0.04907718 0.061768673 0.0038866966 0.021823544
0000e0 43 2c c1 bd 0f 0c 30 3c ac 09 75 3e ec de b3 3d
       -0.094322704 0.0107450625 0.23929471 0.08782753
0000f0 c8 28 0d be 77 aa 1e be 83 15 22 3c 40 aa 19 be
       -0.13785088 -0.15494715 0.009892824 -0.15006351
000100 aa c2 a2 3c c6 56 a1 bb 21 e9 d4 3d c6 31 39 3d
       0.019868214 -0.0049236743 0.10396028 0.045213483
000110 8f 24 9e bc d4 29 ab bd f2 34 72 bd 16 99 28 be
       -0.019304542 -0.083575875 -0.059132524 -0.16464648
000120 18 ff 28 be 4a 17 e1 bd b6 6f 25 3e a3 6b 1f be
       -0.1650356 -0.1099077 0.16155896 -0.15568404
000130 ee ac 9f bd 9b 3a ba 3d df b4 86 bd 15 ff 8d 3d
       -0.077966556 0.09093209 -0.06577467 0.06933419
000140 50 70 9e bc 63 3e 38 bd b2 51 a2 bd 90 9f e2 3c
       -0.019340664 -0.04498137 -0.079257384 0.027663976
000150 42 0c 14 3c 2a 85 0e 3e ac eb b3 3c d2 f3 c9 bd
       0.009036126 0.13917986 0.021962963 -0.09860958
000160 b7 40 c2 bc 2e 44 aa be 71 37 0b 3e 64 70 0b 3e
       -0.023712499 -0.33255142 0.13595368 0.13617092
000170 66 99 34 3c ac d4 43 bd 6d 6b 3f be b8 ae b3 bc
       0.011022901 -0.04781024 -0.18693323 -0.021933898
000180 ec 8e 5b bd 1e bc f6 3c 28 62 d3 3c 0f 2a 1e 3d
       -0.053603098 0.030118998 0.02580364 0.03861433
000190 b6 db 70 3b 8f 17 72 bd a5 cd b3 bd da 02 94 bc
       0.0036752052 -0.0591045 -0.08779458 -0.018067766
0001a0 86 17 25 be 50 a6 b7 bd 3a 15 21 be ac ea 19 3e
       -0.16122255 -0.089672685 -0.15730754 0.15030926
0001b0 7d 17 ae bc 15 3a 07 3e 9c b4 6d bd c8 8c 20 3e
       -0.021251434 0.1320575 -0.05803357 0.15678704
0001c0 14 94 18 3e 80 64 93 3d a1 9d b0 3d c8 2b 2b 3e
       0.14900237 0.07196903 0.08623815 0.1671592
0001d0 b7 06 15 be 7e bb eb 3c 9e 92 be 3d 68 44 cb 3d
       -0.14553343 0.028775927 0.09305309 0.09925157
0001e0 65 2a aa bd 82 18 a1 bc 95 a5 94 3d 74 70 70 3e
       -0.08308867 -0.019665007 0.07258145 0.23480397
0001f0 c6 92 b3 bd eb d1 30 be 69 d2 8e bd 3d 4b 0d bc
       -0.08768229 -0.17267577 -0.06973726 -0.008623895
000200 d3 02 84 3a 9c 29 26 bd 70 57 f0 3c ad d5 3a bb
       0.0010071642 -0.040567026 0.029338568 -0.0028508708
000210 5b 9d 22 3e 31 83 c3 bd 4a 45 ad 3d 9c 5f 01 3d
       0.15880339 -0.09546507 0.084604815 0.03158532
000220 9b 15 74 bd f7 d9 d0 3c 2d 51 d5 3d e7 98 7b 3d
       -0.059590917 0.025494559 0.10415874 0.061425116
000230 3c fd 40 3e 32 7d f8 3c 99 96 a1 3d 73 26 32 3e
       0.18846601 0.030333135 0.07890052 0.1739748
000240 79 09 f6 bd e9 83 ef bd 61 54 94 bc 6f cf bb bd
       -0.120135255 -0.11695082 -0.018106641 -0.09170424
000250 2d 7a ea bd 3e df 1c be f6 43 2b 3c 19 9d 73 bc
       -0.114490844 -0.15319535 0.010453215 -0.014868998
000260 05 67 84 3d 78 9f 8c bc 18 fa e7 bd 4f 99 a1 bd
       0.06464962 -0.017165884 -0.113269985 -0.078905694
000270 b9 6f 17 be 3e db 6a 3c 24 d1 d2 bd ac 92 fd bc
       -0.14788713 0.014334498 -0.10293797 -0.030953728
000280 23 f1 39 bd ad d5 2d 3e 4c 9c 0f bd 75 94 41 3d
       -0.04539598 0.16976042 -0.035061166 0.04726072
000290 21 c3 57 3d 20 c1 91 bd 18 45 e9 3d 9a 2e 7b 3c
       0.052676324 -0.07116914 0.11390132 0.015330935
0002a0 de 4a 5f 3d 64 b7 70 3d ab 86 bc 3d 6d 80 b8 bd
       0.05451476 0.058768645 0.092053734 -0.0900887
0002b0 23 ae 17 bc db 44 e8 3c 2b 71 a3 3d 1a 48 e9 bd
       -0.009257826 0.028353145 0.079805695 -0.113907054
0002c0 24 b8 69 3d f4 7a 93 3d 13 33 a9 3a dd 20 5c 3d
       0.057060376 0.07201186 0.0012908898 0.05374228
0002d0 21 25 ae bd 19 38 e5 3c 2e 73 da bc fc 9e 24 be
       -0.085031755 0.027980851 -0.02666625 -0.16076273
0002e0 a6 14 18 3d e6 2f 00 3e 31 ad c8 bd 60 c3 55 be
       0.037129067 0.12518272 -0.09798659 -0.20875311
0002f0 86 5f c2 bd 84 9c b7 3c 2d 3b 3c 3e 74 70 13 3e
       -0.09490876 0.0224135 0.18381949 0.14398366
000300 fe 34 7b b9 f5 2c af bd b6 53 28 3e 01 2f 04 3d
       -0.00023956966 -0.08553497 0.16438183 0.03227139
000310 4c a8 91 3d a3 bd 10 bc 54 d8 d3 3d 1f 2e 04 3d
       0.07112178 -0.008834275 0.10343996 0.032270547
000320 f0 ae 85 bd 86 d8 59 3e 4b 49 f7 3d 84 2e b4 bd
       -0.06527507 0.21274003 0.120745264 -0.08797935
000330 cf 5f 38 bc b7 67 b3 bd e1 91 a0 3c 18 e4 e8 3c
       -0.011253311 -0.087600164 0.01960081 0.028429076
000340 89 29 61 bc d3 99 75 3c c7 d4 9a 3d 79 2b d3 bc
       -0.013742813 0.014990288 0.07560115 -0.025777565
000350 e5 47 04 be de b5 94 bd 17 f3 61 bd bf 3b 94 bd
       -0.1291805 -0.07261251 -0.05516347 -0.07237958
000360 6e 53 41 bc 17 a0 04 3e b4 91 07 3e 67 ef 27 bd
       -0.011799676 0.12951694 0.13239175 -0.040999796
000370 3b f4 00 bd 54 5b 0f 3d cd aa f7 3d 75 ef 4f be
       -0.031482916 0.034999207 0.120931245 -0.2030619
000380 7c 6b b1 bd 6b 1f 2f be e0 2d 1c 3e 8f ab fd bd
       -0.08663079 -0.17101829 0.15251875 -0.12386238
000390 19 67 1d 3d 69 96 16 be 90 27 95 3d 91 e4 6e bd
       0.0384284 -0.14705814 0.072829366 -0.058323447
0003a0 05 47 31 3d d8 a6 e7 bc 8e 25 12 3d 18 45 27 3c
       0.04328062 -0.0282778 0.035680346 0.010209344
0003b0 63 54 59 3e 91 36 07 bd f6 ff 99 3d be ba 69 bd
       0.21223597 -0.033011023 0.07519524 -0.057062857
0003c0 4e cf 77 bd 8f 5a 0c 3e 21 b7 47 bd d6 32 a1 3d
       -0.060500436 0.1370642 -0.04875863 0.07871024
0003d0 29 b2 74 bd f4 51 27 3e 53 11 19 3c 5b 4d bd 3d
       -0.05974022 0.16339856 0.009342509 0.0924327
0003e0 03 e2 6d bd ab 16 50 bd 40 30 d8 3c 7a 7c 0e 3d
       -0.05807687 -0.050802868 0.026390195 0.03478668
0003f0 d4 98 e8 bd 84 15 8d 3d 29 98 11 3d 6a 49 99 39
       -0.11357275 0.068888694 0.0355455 0.00029237132

l3/b f4 [256]
000000 e6 8d ad 3d 30 57 5e bc 33 7a 90 bc 68 8e 5a bc
       0.084743306 -0.013570592 -0.017636394 -0.013339616
000010 87 8a 61 3b 5a 21 6b 3d f4 e6 7e 3c ea 82 04 3d
       0.0034414844 0.057404853 0.015557993 0.032351412
000020 29 df b0 3c 84 48 12 3d e2 7a 10 3e 88 17 ad bc
       0.021590786 0.035713688 0.14109376 -0.021129385
000030 7e 71 49 3c cd ba de 3b f1 e0 04 3d e2 79 04 bd
       0.012295125 0.0067971707 0.032441083 -0.0323428
000040 ad a1 47 3d ac 7e 73 bc 84 ac 93 bc 56 99 22 bd
       0.04873817 -0.014861744 -0.018026598 -0.039697014
000050 39 50 a2 3c 22 56 2a 3d bc 49 e2 3c 51 28 d2 3c
       0.019813644 0.04158605 0.02762305 0.02565399
000060 58 f7 9d 3c 08 89 12 3d e0 84 f2 3c fc c2 3d 3c
       0.019282982 0.035775214 0.029604375 0.011582132
000070 d1 e4 1b bd a5 aa f0 3c 7e 69 a3 bc a7 c0 ca bc
       -0.038060013 0.029378245 -0.019947764 -0.024750067
000080 48 ab 7a 3d 1a 81 2c 3d 09 c2 94 3c c1 cf bf bc
       0.061198503 0.04211531 0.01815893 -0.023414494
000090 f4 9b c5 3d 90 fb b3 3d cd ab e3 bc 30 08 7e bd
       0.09648886 0.08788216 -0.027791882 -0.062019527
0000a0 e2 1b 11 3d 00 91 8f 3b 3d e2 f3 bb 23 16 23 3d
       0.03542698 0.004381299 -0.007442741 0.039816033
0000b0 6c eb db 3c 0f 1b 57 3d ba f0 52 3d 31 8b 90 bd
       0.026845656 0.05251604 0.051499106 -0.07057799
0000c0 40 38 34 bd d2 95 7d bc 74 8c 42 bd ca 84 34 bd
       -0.043998957 -0.0154776145 -0.047497228 -0.04407195
0000d0 7d 16 85 3d 1f 22 05 3d ad dc 4b bc 9c 66 2c 3d
       0.0649843 0.032503244 -0.01244275 0.042090043
0000e0 1e b4 18 3d 62 1b 25 3d 4f b8 78 bd e3 5e 80 bc
       0.037281148 0.040309317 -0.060722645 -0.015670246
0000f0 9f 0b 4e bd 51 85 4a bd 30 0f 9c 3c b6 16 c9 3d
       -0.05030405 -0.049443547 0.01905021 0.09818785
000100 c2 cb 97 3d cf 81 9e bd f4 78 ca 3b de f2 5e bd
       0.074119106 -0.07739603 0.0061789695 -0.054430835
000110 b8 18 a9 bd fc a9 04 bd 2a 0c ca 3c 79 bc 05 bd
       -0.08256668 -0.032388672 0.024664003 -0.032650445
000120 8a ee 28 bc 4f 84 bf bc 68 a2 ef 3b 9c c8 53 3a
       -0.010310778 -0.02337852 0.0073130615 0.00080789044
000130 eb 12 12 3d 6c 37 8c 3d 25 02 30 bd 16 3c 22 bd
       0.035662573 0.068465084 -0.042970795 -0.039608084
000140 ec 54 16 bd 0b 08 44 bd a9 c3 47 bb 5f 1a 75 bc
       -0.03670208 -0.047859233 -0.0030481613 -0.014959901
000150 c4 19 6c bd e1 5c 96 3c 2f 68 57 bd 2d 8a e7 bc
       -0.05764176 0.018354835 -0.05258959 -0.02826413
000160 37 8b 34 bd 6a 5e fb bc 83 e5 f4 3c 33 09 72 39
       -0.044078078 -0.030684669 0.029894596 0.00023082345
000170 47 e6 22 3c 10 66 09 bd 38 c5 52 3d 2c 69 e4 bb
       0.009942598 -0.0335446 0.051457614 -0.0069705453
000180 22 d4 55 bc ea 79 95 3d d4 6f b4 bb 6a f8 0d 3e
       -0.013051065 0.07298644 -0.005506495 0.13864294
000190 f8 e0 7a bd 98 4c 1f be b9 ac 2a 3d ae 5e 97 bc
       -0.061249703 -0.15556562 0.041668627 -0.018477764
0001a0 da 55 8b bd 8c 20 65 3b 0f be cd 3d 6b 37 c0 3b
       -0.06803484 0.0034962026 0.100460164 0.0058659813
0001b0 20 5f 73 bd c5 3c dd bc bc 3a 00 3e 23 86 6a bb
       -0.05941689 -0.027006516 0.12522405 -0.0035785518
0001c0 29 84 c2 3c 55 e5 d9 bd 1e 44 b3 3d 70 25 ef 3c
       0.02374466 -0.10639445 0.08753227 0.029192656
0001d0 c9 14 de bd cd 7b f4 bc 9b 90 6f bc 68 b1 bb 3d
       -0.10843808 -0.029844189 -0.014621879 0.09164697
0001e0 a4 ff dd 3c b7 52 a2 3d 30 08 12 3d 3e cf d8 bb
       0.027099438 0.07925933 0.03565234 -0.006616502
0001f0 86 92 b3 bd 13 84 e1 bc fc c3 26 bd e9 e3 04 bb
       -0.087681815 -0.027528798 -0.04071425 -0.0020277447
000200 7b 6a 1f 3e 54 01 ca bd fb e1 29 bd 4f 59 04 3c
       0.15567963 -0.098635346 -0.041475277 0.008077933
000210 2c 56 ae 3b c1 68 92 ba 23 6c 39 3d cb 5a c2 bc
       0.005320331 -0.0011170135 0.045269143 -0.023724934
000220 9b 79 95 bd bc 10 0b bd 28 2d 4b 3d e2 17 b7 3c
       -0.07298585 -0.033951506 0.04960361 0.022350255
000230 78 1f 05 bd 17 c0 3e bd c6 b1 0c bc 54 1a 8a 3c
       -0.032500714 -0.04656991 -0.008587306 0.016858257
000240 71 30 a7 3d 60 17 08 bd e5 0f a9 bc aa a5 12 bd
       0.08163536 -0.033225417 -0.020637462 -0.03580252
000250 1c a6 48 3d 5a c7 6d bc 6b e7 85 bc 9f 8f 76 3c
       0.04898654 -0.014512861 -0.0163457 0.01504889
000260 57 f4 10 bc b7 c0 09 bc dd 48 4d bc af c1 eb bc
       -0.008847318 -0.008407763 -0.012529579 -0.028778879
000270 2e b3 96 bd 7c 76 89 3d 3c 0d ed 3d 4f 1a 18 bd
       -0.073583946 0.06712052 0.1157479 -0.037134465
000280 1c ad fc 3b 36 12 be 3c e4 f3 d2 bc c5 bf 91 ba
       0.007711066 0.023202043 -0.025751062 -0.0011119774
000290 b0 fb 94 3c c8 44 b0 bc 00 37 1c 3e 58 b9 f9 3d
       0.01818642 -0.021517172 0.15255356 0.12193555
0002a0 d6 d3 42 3c 71 61 2f 3c 5a 06 c3 3d e9 df a6 3d
       0.011891326 0.010704384 0.09522696 0.08148176
0002b0 21 78 21 3d c1 fe bd 3a e2 db 1f bd 7b f5 9a bd
       0.039421204 0.0014495478 -0.039028056 -0.07566353
0002c0 32 f2 91 3d 76 fe 96 3c 08 36 a6 bc 51 fd a2 3c
       0.07126273 0.018431883 -0.020289436 0.019896181
0002d0 6e 0e 86 bd aa 48 95 3d 84 6a f0 bc 01 8e d0 bc
       -0.06545721 0.0728925 -0.029347666 -0.025458338
0002e0 9a 1b 9d 3c ff 1d 3f 3c a5 cb 12 bd 98 5a b8 3c
       0.0191782 0.0116648665 -0.03583874 0.022504136
0002f0 a2 89 17 bd b9 a5 c9 3d 2b 41 b8 bb fd 3a 18 bb
       -0.03699649 0.09846062 -0.005623003 -0.002322852
000300 05 f7 11 bd 86 ed 75 bd d7 59 64 3d 7c 8c cc b9
       -0.035635967 -0.060040973 0.05574974 -0.0003901458
000310 71 9e 1d bd 9c e7 1e 3d 42 20 79 bd 6c 47 08 bd
       -0.03848118 0.0387951 -0.06082178 -0.03327124
000320 0d 26 ce bc 19 27 f3 bb be 6b 94 3d ac 94 83 bc
       -0.025164628 -0.0074204323 0.07247113 -0.016062103
000330 a1 07 20 3c 4c a0 e6 3c 04 75 09 bd f4 d1 00 bd
       0.009767444 0.028152607 -0.03355886 -0.031450227
000340 f5 59 39 bd 72 42 3a bc 01 3a bf 3d 4f 08 c9 bd
       -0.045251805 -0.011368381 0.09337235 -0.09816038
000350 24 8a 10 bd c8 4d ed bc de f4 84 3d ff 9f 4f bc
       -0.03528799 -0.028967753 0.06492017 -0.012672423
000360 6c 58 92 3c 01 8a e8 3c 59 10 16 3d 37 95 ef bc
       0.017864428 0.028386118 0.036636684 -0.029245956
000370 0d ff 0a bc 18 cc b9 bc d2 49 6b 3b 5a 02 6a 3d
       -0.00848366 -0.022680327 0.0035902155 0.05713115
000380 6c 16 c4 bc 9c 97 ae bc 51 5d b0 bd 4f 26 ab bc
       -0.023936473 -0.021312527 -0.08611549 -0.02089229
000390 c5 05 2a bc 08 33 c2 3d 5e d4 7b 3d d6 eb 7a bd
       -0.010377352 0.0948239 0.061481826 -0.061260067
0003a0 51 be 2b bc 5e 4e ad 3d be bb 62 bc 0d e6 32 3b
       -0.010482387 0.08462213 -0.013838707 0.0027297765
0003b0 42 11 24 bd 01 ae fc 3b cc 92 1a bd 29 58 31 3d
       -0.04005552 0.0077111726 -0.037737653 0.043296967
0003c0 3a f6 2c 3d 9e 3f 1d 39 4d f5 02 bd 47 8e d4 bc
       0.042227007 0.00014996386 -0.03197222 -0.02594675
0003d0 af bf 88 3b 4a 44 16 bc 1d 10 4b 3d 69 f1 59 3d
       0.004173241 -0.009171555 0.049575914 0.053208742
0003e0 62 cf b4 3d 42 43 06 bd c1 6a 0b bd b5 c7 6e bc
       0.08828618 -0.032778986 -0.034037355 -0.014573981
0003f0 ba 34 4e 3d af b3 0b bd d3 63 7a bb 75 b8 08 3d
       0.050343253 -0.034106907 -0.0038206473 0.033379037

l3/W f4 [256, 256]
000000 e3 c5 e8 bc 1a e7 8e 3d b6 05 8e bd 18 3e 6d 3d
       -0.028414672 0.06977673 -0.06934683 0.057920545
000010 6e 1e 1e 3c 53 28 f0 bc 24 bc 50 3c 43 41 e6 3d
       0.00965081 -0.029316103 0.012740169 0.112429164
000020 8b f8 02 3d 81 6d 52 bd cd 74 5d 3d d2 5b 4b bd
       0.03197531 -0.051373962 0.054066468 -0.049648114
000030 f4 fb 36 be 6e cd 24 3d 93 28 bb 3d e0 9b 77 3d
       -0.1786955 0.040234976 0.09138598 0.06045139
000040 28 7e 8e bd 45 a6 88 3d 91 20 f6 3c 41 45 38 3c
       -0.06957656 0.066723384 0.030044826 0.01124698
000050 f5 5f 44 3d 29 4a 53 3d 86 44 f4 bd b2 cb 88 bd
       0.047943074 0.051584397 -0.11927132 -0.06679477
000060 25 07 12 3d 77 19 0c be 0c ba cc bc 07 eb 4b ba
       0.035651345 -0.13681589 -0.024991058 -0.0007778857
000070 cc b8 c3 3d 30 71 1a be b1 36 ab 3d be e7 97 3d
       0.095567316 -0.1508224 0.08360041 0.07417248
000080 89 ce 03 3e c4 ee 58 bd 0d 66 99 bc 22 85 47 3d
       0.12871756 -0.05296208 -0.01872542 0.04871095
000090 e2 af 0e be 7e de 75 3d e6 56 06 bc 9b 10 9e bd
       -0.13934281 0.06002664 -0.008199429 -0.07718011
0000a0 5e bd c1 bd 67 92 b1 3d a8 a5 4b bb 9f db 51 3d
       -0.09459947 0.08670502 -0.003107408 0.051234838
0000b0 97 e7 01 3e 51 0d ff bd 69 11 81 bd 5e 43 1c ba
       0.12686001 -0.12453712 -0.06302149 -0.0005960966
0000c0 98 89 f5 3d 17 ee f5 3c a1 9e e1 3d 21 2e 9b bd
       0.119891346 0.030020757 0.11016584 -0.07577158
0000d0 0d be 6f bd ad 51 93 bd 88 00 af 38 59 93 b1 3d
       -0.058530856 -0.07193313 8.344749e-05 0.086706825
0000e0 6a 59 25 be 63 50 33 bb c0 79 61 bd 9f 5a 28 3d
       -0.1614739 -0.0027361147 -0.05504775 0.041102048
0000f0 b2 49 8d bd eb 28 78 3d e6 da e2 3c b3 cc 4a be
       -0.06898822 0.060585897 0.02769227 -0.19804649
000100 0f 7d 59 3d d2 13 ae 3c e7 d0 09 bd eb 58 04 3e
       0.05309778 0.021249685 -0.03364649 0.12924545
000110 cc c6 22 3d 8e 30 71 bd ab 0d a8 bd ec 64 30 bd
       0.03974037 -0.058884196 -0.08205732 -0.043064997
000120 67 d2 08 3e d0 26 ca bd cd e4 47 be be ff 09 3d
       0.13361512 -0.09870684 -0.19520874 0.03369116
000130 8b 79 09 bd 29 55 1b be 00 f8 92 bd 4c e7 eb 3b
       -0.033563178 -0.15169205 -0.071762085 0.0071992036
000140 d8 76 52 3e 40 0d c5 3d 78 51 cd bd dd 69 84 bd
       0.20553148 0.09621668 -0.100253046 -0.06465504
000150 57 8e 0d 3d ef b5 ca 3c 18 8b 08 3e 44 2b b5 3d
       0.034559574 0.024744956 0.1333431 0.08846143
000160 f5 f2 c6 3d 31 ab 0f bc c5 5e c1 bc 42 c9 e0 3d
       0.09714309 -0.008768843 -0.02360476 0.10975887
000170 92 8c 9f 3d fa 5e c1 3d f6 1b d8 bd 69 dd c1 bd
       0.077904835 0.094419435 -0.10552208 -0.09466059
000180 f8 7d ff 3d 5b 63 2e be a1 bb 06 be 63 8d 07 3d
       0.124751985 -0.17030089 -0.13157512 0.03309382
000190 42 11 24 bd 3b 5a 59 bb 3b cf af bc 28 09 da bc
       -0.04005552 -0.0033165354 -0.02146112 -0.026615694
0001a0 88 84 68 3d 2b 61 8d bc 5e a3 fb bd 17 0f 2b bb
       0.056767017 -0.017258247 -0.12287019 -0.0026101524
0001b0 3e 75 b5 bd 4e 60 07 be 9f b7 9d be 1f 80 b8 bc
       -0.08860253 -0.13220331 -0.30804154 -0.02252203
0001c0 8f eb 19 3e be 66 d8 3d 99 e2 ca bd bb 8a 5c bc
       0.15031265 0.105664715 -0.09906501 -0.01346081
0001d0 57 c9 be 3d 59 d6 c8 3d 07 8c ba 3d 37 6d 87 3d
       0.09315746 0.098065086 0.09108739 0.06612628
0001e0 5f 9d 88 bd dc 94 a3 3d bd 66 ab 3d 9b 7c 27 3d
       -0.06670641 0.07987377 0.08369205 0.040890317
0001f0 c3 ea 32 bd cb e3 c6 bd d2 2f a9 3c ab 24 74 3c
       -0.043680917 -0.09711417 0.020652685 0.01490132
000200 0e 77 85 3c 7d fd 1b 3d a7 20 a9 bd 1b 39 f9 3d
       0.016292121 0.038083542 -0.08258181 0.12169095
000210 25 5d 69 3d c2 90 13 3e e1 a0 fb 3d f6 96 f5 bd
       0.056973595 0.1441069 0.122865446 -0.11991684
000220 26 47 c1 bd 9c 02 ac bd fc c7 26 be 07 e5 dd 3c
       -0.094373986 -0.08398935 -0.16287225 0.027086748
000230 4d be b7 3c ae ed 90 bd b1 be 0a 3e 1e 72 70 3d
       0.02242961 -0.07076584 0.13549305 0.05870258
000240 76 76 89 3b 98 d7 16 3d d1 60 6b bd c3 41 d8 bb
       0.00419503 0.0368267 -0.05746538 -0.0065996363
000250 27 c8 05 3d 39 cd d9 bd 29 8d 1c 3d c7 85 70 bb
       0.032661583 -0.10634846 0.03822056 -0.0036700831
000260 0c d7 26 3d 9f b6 14 3d 30 c7 74 be 6a ec 34 bc
       0.04073243 0.036306974 -0.23904109 -0.011042694
000270 9f 13 ca bd 03 76 b3 bd c1 e5 9a bd f3 1f 75 bc
       -0.09867024 -0.08762743 -0.07563353 -0.014961231
000280 99 8e 45 bc b1 6a 83 bd 73 6a 43 3e 7e a5 14 bd
       -0.012057924 -0.06416834 0.19083576 -0.03629064
000290 4d a4 12 b9 87 99 d3 3d 42 e4 66 3e f5 c9 c3 bc
       -0.00013984852 0.103320174 0.22548011 -0.023900012
0002a0 5a 3b cd bc 55 96 45 3e 36 05 9a 3d a1 3b 04 bd
       -0.025052715 0.19295628 0.07520525 -0.03228343
0002b0 05 31 9c bd f0 b4 d4 3c b6 21 e4 3d b9 00 c8 3c
       -0.07626537 0.025965184 0.11139242 0.024414407
0002c0 6a 71 fd bd 55 9d 3c 3d 70 a6 ae 3d df 2f 20 be
       -0.12375148 0.04604848 0.08527839 -0.15643261
0002d0 c2 5e 51 3e 86 e8 80 3e c2 35 a6 bd f8 ca 81 bd
       0.20446303 0.251774 -0.08115722 -0.06337541
0002e0 b7 b7 c5 bc 48 6b b9 bd 18 94 dd bd 65 1c da bd
       -0.024135454 -0.090536654 -0.10819262 -0.10649947
0002f0 f0 73 d8 bc cc 3e 5e 3c 4b a6 39 3c 6b b8 91 3d
       -0.02642247 0.013564777 0.011331151 0.07115253
000300 69 61 79 bd f0 71 14 bd da 8e 06 3d 83 3a c1 bd
       -0.060883913 -0.03624147 0.032851078 -0.09434988
000310 ab c0 dd bc 75 59 a1 bd 03 06 95 3d 46 5d 56 bc
       -0.02706941 -0.07878391 0.07276537 -0.013083762
000320 4b 46 2d 3c 31 05 33 be e8 ce 21 3d 85 23 f0 3d
       0.010575841 -0.17482449 0.03950396 0.11725525
000330 02 3e a2 bd f4 59 43 3d 5a b9 8d bc 2a b0 0c 3c
       -0.07921983 0.047693208 -0.017300297 0.008586923
000340 3a 69 8b bd f7 96 94 bb 20 c3 c7 bc 7a 8b 20 bd
       -0.0680718 -0.004534598 -0.024385035 -0.039195515
000350 e5 b9 a6 bd 1b fc ae 3d 25 69 78 bd 9c a5 66 3d
       -0.08140925 0.08544179 -0.06064715 0.05631028
000360 b7 fb 99 bc a3 28 e0 ba ce de dd 3d 81 e5 c2 bd
       -0.018796785 -0.0017101954 0.10833512 -0.09516431
000370 57 00 32 3e ba 70 d9 3d fd 6d 2a be ef 60 bf bc
       0.17382942 0.10617204 -0.1664352 -0.023361651
000380 d8 25 9f 3d 9a 8d 4a 3d f0 34 73 3c 71 55 f1 bd
       0.0777089 0.049451448 0.014844164 -0.11783875
000390 e0 8f 8e 3d 0a 1a 29 be 39 eb 3f bd ed c9 9b bd
       0.06961036 -0.1651384 -0.046855185 -0.07606874
0003a0 93 91 a5 bc 5d 57 ef bd 73 96 73 3d e7 c5 1f 3d
       -0.020211017 -0.11686585 0.05946965 0.039007094
0003b0 59 92 9f bd 64 fa a4 bc e0 12 db 3d 69 e1 74 3c
       -0.077915855 -0.020138927 0.106969595 0.01494632
0003c0 56 89 1f be 4c a0 9a bc 8b cc 58 bd d6 f6 31 3d
       -0.15579733 -0.018875264 -0.052929442 0.04344829
0003d0 0c 32 ce 3d 91 91 0b 3e 0d fa a3 bb 12 b9 eb 3d
       0.100681394 0.13629748 -0.0050041736 0.11509909
0003e0 3b bb 51 be 94 03 38 bd 79 38 2e bc 88 dd 7a 3d
       -0.20481579 -0.044925287 -0.010633581 0.061246425
0003f0 6f 4d 88 3d ca 98 23 3e 85 f3 84 3d bb 1a 93 3d
       0.06655394 0.15976253 0.0649176 0.07182833

l1/b f4 [256]
000000 0a 9c 9a 3c 47 84 b6 bd ab 9c 2f bd 80 85 bc 3c
       0.018873233 -0.08911949 -0.04287402 0.023012877
000010 23 9a ce bc 77 f0 b3 3b 6a 49 b5 ba da 00 a9 bc
       -0.025219982 0.005491312 -0.0013831083 -0.020630289
000020 27 ac 03 bc 09 3c 7d bd f0 b6 65 bd bb cf d4 bb
       -0.00803665 -0.061824832 -0.056082666 -0.00649449
000030 6c 21 78 bc ed 59 60 be ae 31 2d 3d 67 1a 12 3c
       -0.015144687 -0.21909304 0.042283706 0.008917428
000040 e5 b4 59 bd 7d c6 9a bd 48 b3 23 3d 78 b8 07 be
       -0.05315103 -0.0755739 0.039965898 -0.13253963
000050 3f 44 2d 3d 5e 3b 17 be 82 35 2f 3d 19 29 80 3d
       0.042301413 -0.1476874 0.04277564 0.06257839
000060 53 5d a0 3c ed f3 39 bc 1d 7e 04 3d d4 04 73 bd
       0.01957575 -0.01134966 0.032346833 -0.059330776
000070 2c 48 7c bc 9c 7f 69 3d f2 64 58 3d 40 ba 15 3d
       -0.0153980665 0.057006463 0.052830644 0.036554575
000080 65 ac 53 3c c5 16 8b 3c fb 0b a9 bc ee 3d 46 3c
       0.01291952 0.01697863 -0.020635596 0.012099726
000090 7d 8c c1 bc 34 6f 9d 3c 19 b2 09 be 93 59 a5 bc
       -0.02362656 0.019218065 -0.13446845 -0.020184314
0000a0 51 f0 92 bd fc 97 ee 3c 0b 3c 01 3c 47 a9 b9 bd
       -0.07174743 0.029125206 0.0078878505 -0.0906549
0000b0 a9 93 fd 3c 24 c8 88 bd ec 60 0c bc 7a a8 b2 bd
       0.030954199 -0.06678799 -0.00856803 -0.087235406
0000c0 d4 8e e3 3d 17 f1 32 3c 04 2e 91 3b 71 38 4e bd
       0.11111227 0.010921738 0.0044305343 -0.050346795
0000d0 7d aa 7f bd 54 01 db 3c a3 ba 6e bb 2e 29 2d 3d
       -0.06241845 0.026734032 -0.0036427162 0.0422756
0000e0 ae ae a3 bd 3d 5c 76 3c 54 6c 81 3c 31 0f 1c be
       -0.07992302 0.01503664 0.015798725 -0.1524017
0000f0 17 ad bb 3b 3b 3f f8 3c 8c 99 02 3d 11 b4 16 be
       0.005727421 0.030303588 0.031884715 -0.14717127
000100 9c 5a ee bb bc 25 9d 3c bb a0 39 bd b8 df 30 3d
       -0.007273985 0.019183032 -0.0453193 0.043182105
000110 95 99 a4 be ab cc e1 bc 02 aa 1d bb aa 68 56 3d
       -0.32148424 -0.027563414 -0.0024057631 0.05234591
000120 f3 e5 40 3b 46 5f 7b bc 6a 77 e7 3c 03 29 4f 3d
       0.0029433935 -0.015342539 0.028255183 0.05057622
000130 8f 1e 67 3d 5f df 1f be 14 07 36 3d 8e 77 d0 bd
       0.056425627 -0.15612553 0.044440344 -0.10179053
000140 c1 ea 14 3d e8 e2 1f bd 64 b5 7b bd 96 bf a1 3d
       0.03635669 -0.039034754 -0.061452284 0.0789787
000150 6a c8 7a 3d c2 c8 b1 3c 21 ca 2f 3d 9b 61 19 be
       0.061226286 0.021702174 0.042917375 -0.1497864
000160 53 bf b7 3d e0 44 e1 bb a4 30 93 bb a0 2c 6f bc
       0.08972039 -0.0068746656 -0.0044918824 -0.014598042
000170 3a c5 fb 3b f3 44 3a 3d 7b 46 f1 bb 12 b4 02 3c
       0.0076834233 0.04547591 -0.0073631383 0.007977502
000180 f0 86 dc bd fa 37 81 3d ee fa 4d 3d d8 12 05 3d
       -0.10767925 0.06309505 0.050288133 0.032488674
000190 31 c3 4e 3d ae b5 75 bd ad 5f 59 be c3 0d 27 3c
       0.050479118 -0.059987716 -0.21227904 0.010196152
0001a0 f3 eb ef 3c b6 57 98 bc 29 78 04 3d ad 3f 34 bb
       0.029287314 -0.018596511 0.032341156 -0.0027503774
0001b0 2e e5 db bb 3a b5 dc 3c 00 3e 44 3d 8d 7e 71 3d
       -0.00671067 0.026941884 0.04791069 0.05895858
0001c0 72 5c ae bd 26 87 91 bd e6 c0 15 bd fc 70 bd 3d
       -0.08513726 -0.07105856 -0.036560915 0.09250066
0001d0 76 a3 2d bd 8f 5f 8e bd 26 3f d2 bb 99 69 b7 bd
       -0.042392217 -0.0695182 -0.0064162193 -0.08955688
0001e0 d8 1c 82 bb a0 95 02 3d e6 90 dd 3c 3e e8 4d bd
       -0.0039707236 0.031880975 0.027046632 -0.05027031
0001f0 48 ef de bd 55 bd d0 3c 31 84 92 3b 77 75 1a be
       -0.10885483 0.025480906 0.004471325 -0.15083872
000200 4e 0a 94 bd 52 78 96 bd b6 5c 04 bc 48 e9 e0 bd
       -0.07228528 -0.07347168 -0.008078745 -0.10981995
000210 aa b9 6b bb eb 37 d9 bc d1 38 8d 3b fc 66 4d 3c
       -0.0035968819 -0.026515922 0.0043097516 0.01253676
000220 85 47 90 bb 91 a7 6b bd 9a 09 48 bc f9 8c 93 bc
       -0.004403057 -0.05753285 -0.01220932 -0.018011557
000230 86 48 c7 3b 4c 9a 03 bd 60 c1 0d 3d fb 04 d0 3c
       0.0060816435 -0.03212957 0.034608245 0.025393
000240 f2 b6 59 3d e1 42 33 b9 63 a5 15 3d 0c 39 ba bd
       0.053152986 -0.00017095685 0.03653468 -0.09092912
000250 e9 58 a0 bd 54 a2 b2 bc 20 a7 82 bd b7 d6 53 bc
       -0.07829458 -0.02180592 -0.06379533 -0.01292961
000260 67 90 d3 bd 06 d0 27 bc 58 e0 fa 3c 5f 5a 63 bc
       -0.10330277 -0.010242468 0.030624554 -0.013876527
000270 e6 e2 1a be ff a9 56 3a c4 f5 10 be 2e a7 6a bd
       -0.15125617 0.00081887835 -0.14156252 -0.05728834
000280 16 7b 1a be 59 a4 40 3c 97 94 20 3d 8e 92 43 3d
       -0.15086016 0.011757934 0.039204206 0.047747187
000290 a6 20 af 3c 91 12 16 3d bf 49 0d 3d 4b 96 b6 3c
       0.021377873 0.0366388 0.034494158 0.022288462
0002a0 a2 f5 18 bc b2 cc 16 3d 78 61 ac bd 88 93 01 be
       -0.009335907 0.036816306 -0.08417028 -0.12653935
0002b0 71 ca 0c bc 20 87 68 3d ac c2 b0 3c 69 c1 c0 bd
       -0.008593188 0.05676949 0.021577202 -0.0941189
0002c0 34 9b fd bb 00 00 00 00 f5 e1 6c bb 1b e6 37 bc
       -0.007739449 0.0 -0.0036145423 -0.011224295
0002d0 b7 18 63 3d 86 53 46 be 34 ce ef 3b 1b b6 1c bd
       0.05544349 -0.19367799 0.0073182825 -0.038259607
0002e0 6c 4a 83 bc 71 9e d1 3d 41 28 11 bd ba 79 44 3c
       -0.016026698 0.102352984 -0.03543878 0.0119919125
0002f0 67 8b 2c bd 3f 78 08 be 0b b5 d9 bd 91 76 91 3d
       -0.042125132 -0.1332712 -0.10630234 0.07102693
000300 db 66 5f 3d 66 44 c4 3a 57 65 7a bc 64 ed 0e be
       0.05454145 0.0014973998 -0.01528295 -0.13957745
000310 fe ed dc 3c 6f 93 84 bd c9 6d a5 3c 1d f9 01 3d
       0.026968952 -0.06473433 0.020193951 0.031731714
000320 07 a3 88 bd 35 d0 c6 bd e3 b9 01 3e b6 5f 9f bc
       -0.0667172 -0.09707681 0.12668566 -0.019454818
000330 38 41 f1 bd fb 1c 16 bd 9d 55 72 3c c5 77 a1 3c
       -0.117800176 -0.03664873 0.01479092 0.01971043
000340 30 09 9a 3c 66 ba 5c bd d5 18 f2 bb 58 61 28 3d
       0.018803209 -0.0538887 -0.007388214 0.04110846
000350 b7 f3 f3 ba a1 e6 97 3d 22 e3 4b 3d 97 80 29 bd
       -0.0018612061 0.07417036 0.049777158 -0.0413824
000360 13 6a 78 bd 48 60 80 3b 6b 35 e5 3c 7b 3e 93 3c
       -0.060648035 0.0039177276 0.027979573 0.017974129
000370 78 85 84 3c 89 c5 e7 b9 d9 e5 3d 3d a6 20 00 be
       0.016176924 -0.0004420693 0.046361778 -0.12512454
000380 62 c5 65 bd 44 59 60 bc 9b dc 0a be 2f 7f 8d 3b
       -0.056096442 -0.013693158 -0.13560717 0.00431814
000390 44 c5 0c bd 68 69 d8 3b 02 f2 ec 3b 55 18 a1 bb
       -0.034367815 0.0066043623 0.007230998 -0.0049162307
0003a0 cd 30 d4 bc fb c8 05 bb 9b 94 cb bc 5d 50 cf 3b
       -0.025902176 -0.0020413983 -0.024851134 0.0063267187
0003b0 74 2b 19 bd 6a b0 d9 bc 8d 85 23 3d b2 67 35 bc
       -0.037394956 -0.026573379 0.039922286 -0.011072086
0003c0 84 bd 9c 3d 3c c4 10 3d 2e f7 06 bc 11 c0 90 bd
       0.07653335 0.035343394 -0.008237643 -0.07067884
0003d0 9b e8 15 3d e7 be 91 bd ad f7 0b 3d 64 eb 8c bd
       0.036598783 -0.0711649 0.03417175 -0.06880835
0003e0 04 2a bf 3b 63 06 95 bc 1c 91 28 be 3e b0 89 bd
       0.005833866 -0.018191522 -0.16461605 -0.06723069
0003f0 f4 b5 97 3b 40 a3 33 3d 6b 72 1e 3b b2 d3 de 3c
       0.004629845 0.04385686 0.0024177085 0.027200554

l1/W f4 [256, 16]
000000 f8 30 01 3f 37 c3 af bd 51 90 0e 3e 5e a4 25 be
       0.50465345 -0.08582156 0.1392224 -0.16175982
000010 37 c9 08 3f 75 b6 83 3c fb ce 8d bf ee 2a 3d 3f
       0.5343203 0.016078213 -1.107879 0.7389363
000020 60 28 d7 be 2d 4f b3 3e 7d 46 77 3d bc be 55 bf
       -0.4202299 0.35021344 0.060369957 -0.8349416
000030 08 a3 54 3e 56 06 a2 bc 2f e4 ed 3e 5b 47 b0 3e
       0.20765316 -0.019778412 0.46463153 0.3442944
000040 34 c5 71 be 92 6a 17 3f d8 cc f8 bd 84 57 9e 3e
       -0.23610383 0.5914699 -0.12148446 0.30926144
000050 3b 48 30 3f 9d 0d 55 be 50 07 01 3f 1c a1 46 3e
       0.68860215 -0.20805974 0.50401783 0.19397396
000060 49 44 06 bf 11 42 c2 3e 2b 9d d3 3e ce c6 81 be
       -0.52447945 0.3794103 0.41330847 -0.25346988
000070 03 81 82 bd 43 e2 f0 3d 66 fc 24 be 25 80 ab be
       -0.06372263 0.11761906 -0.16111907 -0.33496204
000080 42 be 81 3e 81 4c b7 3d 91 da d8 bd 66 45 65 3e
       0.25340468 0.08950139 -0.10588563 0.22389755
000090 a1 c7 42 3d 7d 85 14 bf 93 3e 05 3e da 1b 66 3d
       0.047553662 -0.58016187 0.13012151 0.056178905
0000a0 33 67 35 bf 7e 09 ec 3e c7 e0 65 be 12 6c 2d 3e
       -0.70860595 0.46100992 -0.22449027 0.16935757
0000b0 fc 79 06 3f 73 23 9c 3d af 0d a9 3d 9b 09 3b 3e
       0.52529883 0.07623949 0.08254563 0.18265383
0000c0 bc 5e 11 bf b3 c4 3d 3e f8 15 e8 be 62 21 72 3e
       -0.5678518 0.18532066 -0.4532926 0.23645547
0000d0 17 67 d1 be 0d c1 d2 be 7f bd a3 3e af 3d 6c 3f
       -0.40898964 -0.4116291 0.31980512 0.9228162
0000e0 f6 dc c3 3e e8 07 e5 be ad 9b b8 3d d9 0b 8a bc
       0.38254517 -0.44732594 0.09014068 -0.016851353
0000f0 47 80 11 be 0c d5 e7 be 6e 5d 11 3e ff c6 0f 3f
       -0.1420909 -0.4527973 0.14195797 0.5616302
000100 1b b6 cf bc fb f2 81 bd 83 f9 3e 3f ee 65 9c 3e
       -0.02535539 -0.06345173 0.74599475 0.30546516
000110 2d 25 37 3e ae 14 0f 3e 93 68 47 3e c0 0e 88 3e
       0.17885275 0.13972732 0.19473486 0.26573753
000120 48 8a 9d be 14 37 3c be c4 7b 02 bf ce 86 15 bf
       -0.30769563 -0.18380386 -0.509701 -0.5840882
000130 74 2d 25 3e 60 af ec 3d 1f 7d 06 bf 9e c5 45 3e
       0.1613062 0.115568876 -0.5253467 0.19313666
000140 ae d1 05 3f 9b 8e a8 be ab 5f 14 3d 69 24 6d 3d
       0.5227307 -0.329213 0.03622405 0.05789605
000150 6b e4 0e be e1 2c 1d bf e4 87 8d 3e c4 fe b3 be
       -0.13954322 -0.61396605 0.2764274 -0.35155308
000160 27 e3 99 bd 1f 29 62 bc 7c c9 8a be eb 0e c0 be
       -0.07514029 -0.013803749 -0.27106845 -0.37511382
000170 bc 7e c7 bd 0d fd fa bd 5e 8f af be f2 5d 92 3c
       -0.097409695 -0.12255297 -0.34289068 0.017867062
000180 94 47 74 bf 25 ba b2 be b8 fb d2 bd 27 26 66 3e
       -0.9542172 -0.34907642 -0.10301918 0.22475491
000190 22 35 55 3e 43 9d e2 be e7 64 0c be ee 70 83 bd
       0.2082105 -0.44260606 -0.13710366 -0.06418024
0001a0 85 32 18 3d ae 49 3b 3f 13 9d f5 3e 91 99 ef be
       0.037157554 0.731593 0.479714 -0.4679685
0001b0 78 e0 50 be 37 22 d5 3d 9f df fc bd 39 15 f2 3b
       -0.20398128 0.104069166 -0.1234734 0.007387784
0001c0 06 f6 46 3d 89 7c 0a 3e db 6e 13 3f 89 33 4b bf
       0.04857447 0.13524069 0.5759103 -0.7937551
0001d0 31 05 e9 3e cf 49 96 3e d7 df e6 be 82 ef ca bd
       0.45511773 0.29353186 -0.4509265 -0.09908964
0001e0 fd 28 ee be eb b8 ae 3d c9 84 be be 2d 0f 31 3d
       -0.46515647 0.08531364 -0.37210682 0.043227363
0001f0 37 35 f4 3e c6 5c f6 be 08 b2 0f 3e 9c 0a 8d 3e
       0.4769685 -0.48117656 0.14032757 0.27547157
000200 f7 83 b5 3d ed 00 a8 3e 19 16 38 be e5 bc cf 3e
       0.08863061 0.32813206 -0.1797718 0.40573803
000210 3b a4 46 3e ba 8e 92 3e 0c b6 d9 3c c2 22 3b 3d
       0.19398586 0.28624517 0.026576065 0.045687445
000220 93 c8 28 bd 9d 35 8d be 00 9f e0 be ca 47 66 be
       -0.041206907 -0.27579966 -0.43871307 -0.22488323
000230 a3 f7 24 bf 7e d9 9a be 8d fc 09 be 63 60 1e bd
       -0.64440364 -0.30244058 -0.13475247 -0.03866614
000240 70 4c b1 3e a0 ec c7 3e b0 83 0e 3f a1 e8 1e 3d
       0.3462863 0.39047718 0.5566969 0.03879607
000250 0d d3 71 be 11 95 b2 be 76 7c 66 3f cd 25 8d be
       -0.23615666 -0.34879354 0.9003366 -0.27567902
000260 a7 57 eb be f2 a2 cc 3e 7c be 14 be 3b 6e 03 be
       -0.4596531 0.39968067 -0.14525789 -0.12835018
000270 42 cc 66 bf 44 d0 b7 bd cb d1 1a 3f 48 b1 7b bd
       -0.9015542 -0.089752704 0.6047637 -0.061448365
000280 e1 09 ad bd c1 bd 9a 3e a1 27 17 3e ea 68 c2 bd
       -0.0844915 0.30222896 0.14761211 -0.09492667
000290 92 90 4e bf d1 b7 31 3f 39 43 be be 4f d0 82 3e
       -0.80689347 0.69421107 -0.37160662 0.25549552
0002a0 90 bb 44 3e d5 66 01 bf ba c4 bd 3e e6 fa 14 be
       0.19212174 -0.50547534 0.37064153 -0.14548835
0002b0 bf 39 20 bf fe d4 b9 3e c6 48 a1 3d de 92 10 3e
       -0.62588114 0.36295313 0.078752086 0.14118525
0002c0 9d 89 59 be ac b5 bd be eb 5b b4 3e e5 9a 1d bf
       -0.21243902 -0.37052667 0.35226378 -0.61564475
0002d0 94 29 b9 be 94 0d a7 be 1e a0 56 bf d4 c3 36 bd
       -0.36164534 -0.32627547 -0.8383807 -0.04462035
0002e0 33 72 6b be 86 8c 1e bf 11 d9 16 3f 27 59 a5 3e
       -0.22992782 -0.6193317 0.5892497 0.3229458
0002f0 40 c4 73 be 62 b3 a9 be 30 68 c6 be 23 60 a6 bb
       -0.23805332 -0.3314467 -0.38751364 -0.0050773784
000300 f2 02 f4 bd a4 6e 74 3e 15 e1 86 be 7b 98 f7 3e
       -0.11914624 0.23870331 -0.263436 0.4835852
000310 b2 bd 2f be 40 ff 39 bd 95 bf 86 3e 1f 03 0e bf
       -0.17162207 -0.04540944 0.2631804 -0.5547351
000320 fe eb dc be de 6c 0c bf d3 bf 90 3e 6b d7 9f be
       -0.43148798 -0.5485362 0.2827135 -0.31219038
000330 35 22 27 3d c4 85 62 bd ac 4f a5 be d9 6b 2b 3f
       0.040804107 -0.05530335 -0.32287347 0.6696144
000340 9b 8e ed bb da c9 38 3e 06 ca d2 be bd eb 15 3e
       -0.007249666 0.1804575 -0.41169757 0.14640708
000350 15 d0 56 3f dd 7c 00 be ec f7 4c be 60 17 a4 bb
       0.8391126 -0.12547632 -0.2001645 -0.0050076693
000360 52 fb c4 3d cf fa 97 3c 0e c2 bf 3e 3a 8c ce bd
       0.09618248 0.018552212 0.3745274 -0.1008534
000370 17 f1 35 3e ed 32 0b bd 4e e5 de 3e 10 91 5a bc
       0.1776775 -0.033984113 0.4353432 -0.01334025
000380 ef be 16 bf 47 d6 83 be 77 45 b6 3e 2b 65 d3 be
       -0.5888509 -0.25749418 0.35599872 -0.41288123
000390 e9 9e 2b be d4 27 60 3e d5 71 8a 3b fb f5 b0 be
       -0.16759838 0.21890193 0.0042249956 -0.34562668
0003a0 3f d3 dd bc 19 9b af bd 90 fa d1 bd 4c 9a 88 bc
       -0.027078269 -0.085745044 -0.10252869 -0.016675137
0003b0 9e 1e 80 be 68 8a 8f be 4c 49 b4 3e e0 76 aa bb
       -0.2502336 -0.28035283 0.3521217 -0.0052021593
0003c0 70 64 3b 3e ed d0 ce be 40 0f 77 3e b6 c1 3a 3c
       0.18300033 -0.40393773 0.24126911 0.011398723
0003d0 9d a5 94 3e 27 31 16 3f c8 56 77 be 5b 0b f1 3d
       0.29032603 0.5866875 -0.24154198 0.11769744
0003e0 b4 94 29 be ea 81 d6 be a1 3e 76 3e 6c 5a 88 3e
       -0.16560632 -0.41895992 0.24047329 0.26631486
0003f0 b6 6d 0f 3e 4e 3d e8 3d 8b 98 34 be a6 40 bf be
       0.14006695 0.11339818 -0.17636316 -0.3735401

l4/b f4 [16]
000000 40 60 96 3d 92 bd 4c 3b 8a 23 95 3c 99 70 d9 3d
       0.07342577 0.0031240922 0.018205423 0.106171794
000010 f8 56 a8 3d fa 2c 96 bc fd 37 27 bd 35 d0 94 3d
       0.08219713 -0.018331993 -0.04082488 0.07266275
000020 4a 13 bd 3d 93 ca ce 3c 49 38 fd bc 3f d0 d8 3d
       0.09232195 0.02524308 -0.030910628 0.10586595
000030 c7 35 68 3d 04 18 23 3d 31 bd 8e 3d 76 d2 d4 3d
       0.05669191 0.039817825 0.06969679 0.10391705

l4/W f4 [16, 256]
000000 7d c5 52 bd 53 1e 3d 3b 18 64 d7 3b 2e c1 f4 3c
       -0.05145787 0.0028857186 0.0065732114 0.029877272
000010 ba 4c 37 3c 56 1f 54 3e 33 f2 85 3d 46 cf 71 bc
       0.011187727 0.20715079 0.065403365 -0.0147588905
000020 2a ca c0 bd dc 7f 9d be ad ae da 3d 16 0a 60 be
       -0.0941356 -0.3076161 0.10677848 -0.21878847
000030 03 8a 09 3d 36 55 9f 3d 71 b7 9e bc d4 01 a9 3d
       0.033578884 0.077799246 -0.019374581 0.08252302
000040 3c c5 0a 3e 2f ad fb 3c 9e 68 20 be 74 da 6e 3d
       0.13551801 0.030722229 -0.15664908 0.058313802
000050 f3 ef 61 3d b1 8e ac 3d f5 25 38 3e e2 ac 0e be
       0.055160474 0.08425654 0.1798323 -0.13933137
000060 d5 ab df 3d 7b 13 37 be ab 3f c7 bd c2 87 74 3e
       0.10921446 -0.17878525 -0.097289406 0.23879912
000070 99 33 44 be 6d c8 85 bd ce 11 5a bd 04 b8 c9 3d
       -0.19160308 -0.06532369 -0.053239636 0.09849551
000080 3e 33 ef 3d 55 22 ac bd 09 f5 86 3e bc a2 39 bd
       0.116796955 -0.08404986 0.26358822 -0.04532121
000090 57 04 d1 3d 66 9b 27 3e c1 fb 56 be 70 33 1a 3c
       0.10205906 0.16367874 -0.20994474 0.009411678
0000a0 90 bd 10 be b1 63 2c bc 82 29 44 3d 9b 2b 43 3c
       -0.14134812 -0.010521815 0.047891147 0.011912252
0000b0 a2 68 5b bc 36 fe 73 3e 72 5d b9 3c 24 e2 d1 bd
       -0.013391646 0.23827443 0.022627566 -0.10248211
0000c0 11 9c 18 3e 0e fe bd 3c 22 00 d8 bc 71 47 ef 3d
       0.14903285 0.023192432 -0.02636725 0.11683548
0000d0 52 b1 8c 3d 7e 8c 0e 3e cb 7d 92 3d a0 a0 9f 3d
       0.06869759 0.13920781 0.07152899 0.07794309
0000e0 1f 3c 83 bd 0e 84 57 3e da 70 38 be d2 ef e1 3d
       -0.064079516 0.21046469 -0.180118 0.1103207
0000f0 3d d6 49 3d 53 07 6b 3e ff b9 af 3d b6 c1 14 3b
       0.04927658 0.22952013 0.08580398 0.0022698469
000100 55 e0 2b bd af 01 ad be b7 e8 cc 3d e2 e6 f6 3c
       -0.041961987 -0.33790347 0.10005324 0.03013939
000110 89 d0 db 3a 2f 4d 08 3e 2d 5a 26 bb eb db 9c bd
       0.0016770522 0.13310693 -0.0025383339 -0.076591335
000120 f0 ce 04 be 98 11 dc bc 58 4b 83 be 1d 0c 51 bd
       -0.12969565 -0.026863858 -0.2564342 -0.051036943
000130 c9 c2 50 3d 2f 35 8f bd f9 08 f3 3c ff 44 3b be
       0.05096701 -0.06992566 0.029667364 -0.18288039
000140 18 6f 0c bd 36 fd 32 3d 66 f4 14 be 62 8a 3c 3e
       -0.034285635 0.043698512 -0.14546356 0.18412164
000150 2a 31 ed 3d eb 2a 54 be 2e 6f 44 be 2f 88 90 be
       0.11581643 -0.20719497 -0.19183037 -0.282289
000160 49 21 1b bd 3c 8e 86 3e 5b c3 0b be f7 32 25 3d
       -0.03787354 0.2628039 -0.13648741 0.040331807
000170 7a 47 ef 3c fd c3 ef bc 34 75 16 bc 82 6b 14 3d
       0.029208887 -0.02926826 -0.009183217 0.03623534
000180 fa b1 b2 bd dc a7 79 3d 36 cb 00 be f6 ef a2 3c
       -0.087253526 0.0609511 -0.12577519 0.019889813
000190 c8 4c ba bd 73 df 27 bd 5c 6a 7a 3d 3d 8b 93 bd
       -0.09096676 -0.040984582 0.06113659 -0.07204292
0001a0 92 19 1b 3e 1c 0a 71 bd 5e 04 7c 3d 8a 50 80 bd
       0.15146473 -0.05884753 0.061527602 -0.062653616
0001b0 ba 51 31 be 5f e7 a1 3e cd 24 20 3e f4 0d 1c be
       -0.17316332 0.31621835 0.15639038 -0.15239698
0001c0 3b 0e 02 3e ab e4 93 bd a2 c6 57 3e a7 3f 9e 3c
       0.12700741 -0.07221349 0.21071866 0.019317461
0001d0 67 4f 56 bd 38 de 3f be dd 7d b1 3d 0d 70 46 3e
       -0.052321818 -0.18737113 0.08666585 0.19378681
0001e0 67 d4 8c 3d 3c 36 0b 3e e0 12 7d 3e d3 90 f0 3d
       0.0687645 0.13594908 0.24714231 0.11746373
0001f0 1c bc ad bd a3 63 13 3a db de ac be 1a 14 16 be
       -0.08483145 0.0005622452 -0.33763775 -0.14656106
000200 f0 a9 5b 3e 93 26 3c bd e6 d9 ba 3d ed b7 8f bd
       0.21451545 -0.045935225 0.09123592 -0.07017503
000210 43 61 db 3d 26 96 71 3e 54 88 89 bd 05 cc 47 3d
       0.107119106 0.23592433 -0.06715456 0.048778553
000220 77 3b 22 be 4c 88 08 be 2c c5 78 3d fc 16 b5 be
       -0.15842997 -0.13333243 0.060734913 -0.35369098
000230 07 3e 4d be 00 86 21 3d 9f d9 16 3e b3 fd 4a 3e
       -0.20043193 0.039434433 0.14731453 0.19823341
000240 b2 bd 44 3d 85 70 2d be be 68 80 bd 79 b7 80 be
       0.04803247 -0.16937454 -0.06269978 -0.2513998
000250 bc 18 ac 3d 90 b5 53 bd c2 8e 94 bd 56 a6 23 3d
       0.08403155 -0.051686823 -0.072537914 0.039953552
000260 f7 4f c1 be a5 b1 51 3c 91 8c 40 3e 89 e4 9d be
       -0.3775632 0.012798701 0.18803622 -0.3083842
000270 59 61 50 be a1 da 62 bd 35 7b 5c 3e 34 6e 16 3d
       -0.20349635 -0.055384282 0.21531375 0.03672619
000280 dc fa 6e bd 70 92 a8 3c 1c 27 39 3d 5a 1a d5 3d
       -0.058344707 0.02057764 0.045203313 0.10405417
000290 da a3 00 3b f1 54 21 be e6 bf 07 3e 43 48 f0 3d
       0.0019628913 -0.15755059 0.13256797 0.11732533
0002a0 fb 96 c3 3d de f6 84 3e d0 ce 76 bd 2a 4a 92 3d
       0.095502816 0.25969595 -0.060255826 0.07143052
0002b0 ff 0c 4b 3b 8f 6d 51 bc d4 4e 27 3d 1f 5b 9b be
       0.0030983088 -0.012782468 0.04084666 -0.30342957
0002c0 21 82 06 3d b5 bc 32 bd 12 ef c1 bc 92 19 e4 3d
       0.032838944 -0.043636996 -0.023673568 0.1113769
0002d0 8d 0d 32 3e c0 8a 6e 3e 3f 95 ec bd 61 85 1d 3e
       0.17387982 0.23295116 -0.11551904 0.15382911
0002e0 09 9a 3f bd c5 bb f4 3d ee 2e e0 bd a2 73 cc 3c
       -0.04677776 0.11949877 -0.10946451 0.024957482
0002f0 68 81 31 be 61 f2 a0 3e f3 83 51 3e a2 ed c3 bd
       -0.17334521 0.3143492 0.20460491 -0.09566809
000300 eb bf b1 3e af 76 9f 3d 2f 2b 10 3c 88 af cd bc
       0.34716734 0.07786309 0.008799358 -0.025108114
000310 72 36 47 bd 9d a0 70 3e f4 12 8b bd b1 f5 69 be
       -0.048635907 0.23498769 -0.067907244 -0.2284763
000320 b3 75 9d 3d c3 47 06 be 0f 1e 80 3d 30 10 62 be
       0.07688465 -0.13113312 0.06255733 -0.22076488
000330 67 05 df 3c 55 ae 19 bd 39 87 9b bd f9 f1 52 be
       0.027224256 -0.03751977 -0.07594151 -0.20600118
000340 58 10 71 3c 16 2d 86 be 65 ba 59 3e e8 06 e5 bd
       0.014713369 -0.26206273 0.2126251 -0.11182958
000350 cc 92 02 be 48 c3 3e 3d 5a 2d 47 3e 65 21 a7 3d
       -0.12751311 0.046572953 0.19450894 0.081606664
000360 42 1e ef bd ba f6 34 3e 88 28 03 3e 9a 93 fe bc
       -0.11675693 0.17672244 0.1280843 -0.031076241
000370 b7 c8 2f bd e8 e3 0c bd 63 cf 04 be 0c ca 5f bc
       -0.042916026 -0.034397036 -0.12969737 -0.013659012
000380 62 50 9c 3e 5a 6d 1d be ae 92 84 bc 0b 84 0b be
       0.30530077 -0.15373746 -0.016183224 -0.13624589
000390 a5 cc 0a 3e 62 f5 3d 3d d3 ce f6 3d 0b 0b 38 be
       0.13554628 0.046376593 0.12051167 -0.17972963
0003a0 3e 99 d6 bc ef a2 0e bd 05 1b e0 bb ba f8 1b be
       -0.026196118 -0.034823354 -0.0068391585 -0.152316
0003b0 88 8f 41 be ab e3 37 3c 3e ec b8 3a c2 3a 93 3e
       -0.18902409 0.011223714 0.0014108492 0.28755766
0003c0 30 cc 95 bd a4 6a 93 bd 1e b6 0f bd da 2f ed 3c
       -0.07314336 -0.071980745 -0.03508579 0.028953481
0003d0 0b 88 89 bb 77 32 63 3d cd 40 92 3d 70 96 f1 3c
       -0.004197126 0.05546805 0.07141266 0.02949068
0003e0 86 22 78 bb 8d ec 0a 3e 8a d9 9b bc bf 61 1d 3d
       -0.0037862374 0.135668 -0.01902463 0.038423296
0003f0 d0 bc aa bd 41 27 7e 3c b4 b2 89 bd 04 5b d9 3d
       -0.083367944 0.015512289 -0.06723538 0.10613063
