static/ai/8/agent_black_80000/model.npz (npz, 609120 bytes, 8 tensors)

l2/W f4 [256, 256]
00000000: 1acb e7c0 17e6 84bf e7a2 3141 2e9b fcc1
00000010: a34b e2bf 85b7 2541 a7ff 11c1 42e7 97c1
00000020: 29cf 81c1 ef41 0441 2710 fc40 a9eb adc1
00000030: 468d 4bc1 ee3c b640 8f20 54c2 b3a4 a5bf
00000040: 46d3 7840 7be1 8940 8102 5640 6626 2141
00000050: bc39 ecc1 b0be 24c1 a6aa e8c0 e2a1 b3c1
00000060: c1ea b5c0 d628 0ec1 c146 7bc0 3645 7cbf
00000070: ae8d 27c2 3803 6141 e1a0 0040 ce70 8ac1
00000080: 513f 2d40 f33d dfc0 e8c2 1fc1 6325 91c1
00000090: dac6 10c1 76c1 c5c0 6e43 8c41 5b5e b2c0
000000a0: 316c 57c1 97dc 17c1 a2e5 13bf 410b 93c1
000000b0: b397 27c1 c0f8 8ac1 b6ef d940 c86c 83c1
000000c0: 7df2 b5bf 01b9 0fc2 58d5 74c1 8fbe c03f
000000d0: d60d b040 4a94 c540 9ec4 bbc1 b3a0 2f41
000000e0: d284 e040 c47b 97c1 3203 50c1 cf0f 40c1
000000f0: bb4d 44c1 4914 d3c1 0e1f 95c1 a943 acc1
00000100: e4fd d9c0 7d85 bdc1 a181 49c1 87ad 5840
00000110: bece fabf fb5a 53c0 8d2a bac1 66e7 8dc1
00000120: 3a42 3dbf a54e 2e41 0026 1941 80ff 45c1
00000130: 0a81 383f bbd1 b9c0 2679 04c2 86b2 14c1
00000140: 7376 2ac1 359f 2b41 251c b741 a122 7cc1
00000150: 539e dcc0 563e 76c1 e553 8741 f3f7 19c1
00000160: 008b 97c1 0b1a c7bf c6cf 80c1 d1de 6cc0
00000170: c943 2cc0 30de e040 8c72 58c1 53b1 62c1
00000180: c23f eec1 779a 30c1 ba43 03c0 586b 8540
00000190: 314c 42c2 d9e2 88c0 e84b 7241 f82e 36c1
000001a0: 9d66 89c0 53c6 c541 4276 a0c1 2774 fdbf
000001b0: fad9 cfc0 7d64 0541 3aa5 9ec1 5145 e040
000001c0: 8126 a6c1 7b1f 90c1 a8bd e6c1 8275 c9c0
000001d0: 8b44 43c2 8ae9 0bc2 01d6 b4c1 d5fd 29c0
000001e0: ffa9 92be 5376 b7c1 8b31 6f40 3ab3 b9c1
000001f0: 3764 fec1 ee57 4dbe d188 25c1 095c 213f
00000200: e467 ef3e 48a8 1ec2 ee6a ddc1 fff4 bbc1
00000210: ffe7 49c1 6e5f dec1 2260 81c1 aa14 7d41
00000220: 69fe b141 1ceb 12c0 be6b 6441 c031 8540
00000230: 4a5c 4841 c9fd 85c1 1888 4ec0 1584 ecc0
00000240: 81ee 6a41 b683 8fc1 6f31 cac1 760c 8a40
00000250: 7948 2241 7514 8641 c9c9 10c0 3f5a 2641
00000260: 5edf 453f 57f5 c9c0 06ad 4041 f31c e9c1
00000270: 3c30 ffc0 36e9 acc0 3bf9 dcbf 0137 3ac1
00000280: fb5a d0c1 62f2 ecc0 7ae5 6d40 7baf 9740
00000290: 0d70 23c1 fb40 5440 7917 98c1 22c9 9141
000002a0: 512d 8741 bd46 0ec2 6fef f4c1 0759 e6c1
000002b0: 8552 79c1 f912 9840 6b5e d8c1 5ba5 93c1
000002c0: ebae f73f 3bcb 3ac1 0389 a0c1 25c5 4ac1
000002d0: d579 4441 0f7e f5c1 35cf 4ac0 15f1 b2c0
000002e0: ea07 0bc1 8e46 2e41 60f8 cbc1 e858 6dc1
000002f0: 783b e4c1 4b59 cec1 d617 f2c1 fccd 7cc1
00000300: 2b3e 0fc1 1589 5041 c3af 09c2 af45 ebc1
00000310: 95e5 1741 829a 7241 efcb dac1 cd3b 00c2
00000320: 7b43 03c2 234e fcc1 edfd e441 8822 0bc0
00000330: 84da debf 21ad 2441 9ea0 42c1 814c 51c0
00000340: 3d9a 04c2 a3da eec1 47ce 82c1 18b7 7841
00000350: 171f 4840 5d3b fbbd ea48 06c2 646b ddbf
00000360: 2ad0 b9c0 faea 29c2 58e3 09c0 b303 92c1
00000370: 7f5f cdc0 9b98 17c2 53af 10c0 b9ae 9e40
00000380: ea62 ae41 3d59 a7c1 ccb7 98c1 fbbf 25c1
00000390: 9359 2ec0 86c0 6b40 23bc 4340 fd20 62c1
000003a0: d576 10c1 0a96 e140 9db8 9740 587f 2e41
000003b0: 5679 54c0 752b efc1 3cbb 29c1 70b9 b3c1
000003c0: 977c 9fc0 d9f6 abc1 fc5c b2c0 457a e1c0
000003d0: 9201 cb40 df6e dd40 d909 19c1 755c 9ec1
000003e0: 92b4 3041 8190 4741 235f 08c0 6897 63c2
000003f0: 309d 91c1 6c33 9741 e915 f3c1 c093 af40
-7.2435427 -1.0382718 11.102271 -31.575771 -1.7679332 10.357305 -9.124915 -18.987919
-16.226152 8.266097 7.8769717 -21.740068 -12.721991 5.6949377 -53.031796 -1.2940887
3.887895 4.3087745 3.3439028 10.071875 -29.52819 -10.296555 -7.270831 -22.454044
-5.6849065 -8.88497 -3.9261935 -0.9854311 -41.88836 14.063286 2.0098193 -17.30508
2.7069895 -6.976312 -9.985085 -18.143255 -9.048548 -6.179866 17.532925 -5.574018
-13.463914 -9.491355 -0.57772267 -18.380495 -10.474536 -17.37146 6.8105116 -16.428116
-1.4214627 -35.930668 -15.302086 1.5058154 5.501689 6.1743517 -23.471004 10.976733
7.0162134 -18.935432 -13.00078 -12.0038595 -12.268977 -26.384905 -18.640163 -21.533037
-6.8122425 -23.69018 -12.594148 3.3855913 -1.9594343 -3.302428 -23.270777 -17.737988
-0.7392918 10.8942 9.571777 -12.374878 0.720719 -5.806852 -33.11831 -9.293585
-10.653918 10.726369 22.888742 -15.758454 -6.8943267 -15.390219 16.915964 -9.6230345
-18.942871 -1.5554823 -16.101452 -3.7010996 -2.6916373 7.0271225 -13.527966 -14.168292
-29.781132 -11.037711 -2.0510087 4.1693535 -48.574406 -4.2776914 15.143532 -11.386467
-4.293776 24.721838 -20.057743 -1.9801072 -6.4953585 8.337033 -19.830677 7.0084615
-20.7688 -18.015371 -28.842606 -6.295594 -48.816936 -34.978065 -22.604494 -2.6561177
-0.28645322 -22.932775 3.7373989 -23.212513 -31.798933 -0.20053074 -10.345902 0.6303106
0.4675895 -39.664337 -27.677212 -23.494627 -12.61914 -27.796597 -16.17194 15.817545
22.249224 -2.2956 14.276304 4.162323 12.5225315 -16.748919 -3.2270565 -7.3911233
14.6832285 -17.939312 -25.274137 4.314021 10.1426935 16.759989 -2.262316 10.397033
0.77293956 -6.3111987 12.042242 -29.139135 -7.974638 -5.403468 -1.7263559 -11.638429
-26.044424 -7.4045877 3.7171311 4.740171 -10.214856 3.316466 -19.011461 18.22321
16.897127 -35.56908 -30.61691 -28.79347 -15.582646 4.752316 -27.046103 -18.45574
1.9350256 -11.674617 -20.0669 -12.673131 12.279744 -30.686552 -3.168897 -5.591929
-8.689432 10.892225 -25.496277 -14.834206 -28.529037 -25.7936 -30.261639 -15.800289
-8.952678 13.033467 -34.421642 -29.409025 9.49355 15.162722 -27.349577 -32.0584
-32.8159 -31.538153 28.623987 -2.1739826 -1.7410436 10.292268 -12.164213 -3.2702944
-33.150623 -29.856756 -16.350721 15.544701 3.1268976 -0.12267182 -33.571205 -1.7298398
-5.8066607 -42.47947 -2.154501 -18.251806 -6.417907 -37.89903 -2.260701 4.9588284
21.798298 -20.918573 -19.089745 -10.35937 -2.7242172 3.6836257 3.058358 -14.133054
-9.029012 7.0495653 4.741286 10.90609 -3.3199058 -29.89622 -10.6082115 -22.465546
-4.9839587 -21.495531 -5.5738506 -7.0461755 6.3439417 6.919784 -9.564904 -19.795145
11.044085 12.472779 -2.1308067 -56.897858 -18.201752 18.900108 -30.385698 5.486786

l2/b f4 [256]
00000000: 41d7 fb40 738d ec40 bfdd 3440 98a5 4d41
00000010: 814d 983f acc8 1340 6ea0 34bf d582 ac40
00000020: a4ba 9c40 3361 7c40 1d43 6e41 07f1 813f
00000030: 65d9 a640 3ece 84bf 2f55 de40 b4e3 99bf
00000040: 3520 4b40 0fc1 04c1 14d9 88c0 e508 fec0
00000050: 6419 3a41 cc09 6f41 5b20 4141 9147 2841
00000060: 7987 1bbd 1260 6f41 4e78 8941 d7e9 9841
00000070: 5d8e 6741 5214 3abf 69e4 a03e ee8c 9741
00000080: 84c5 97c0 0511 bf41 07e8 2641 bbc1 e140
00000090: d189 1b41 9ab8 2c3f 6b7e d23f 4a9f 3a40
000000a0: ebe9 4e41 a82e 1b41 eb1a 0a41 a8dc 9f3f
000000b0: 5ab0 d740 127f 8841 c9d8 2641 35d5 f340
000000c0: 0ac9 c2c0 12e8 1341 8423 5141 460d 25c0
000000d0: 2fff 58bf 318c 39bf 3535 2b41 189b 8541
000000e0: afbd 6d41 69b6 4a40 6309 6141 576f 1141
000000f0: fac6 7340 3a98 6540 0510 0340 bfdf 8a3f
00000100: 7a9d 4541 eee1 f8c0 eaaf 93c0 5ebe fb40
00000110: 79e0 943f b019 25c0 d644 ec40 116a d1c0
00000120: d49a 5140 00b2 81be 0004 b43f 4e69 0241
00000130: c16b be40 1a2c 0241 d82d cec0 e7c7 2441
00000140: 79f8 4c40 5fbc 3c3f c6e0 48c0 981b c1bf
00000150: 32bc 3fc0 123f 4741 8db7 b33e c001 7541
00000160: b8dd 3f41 e2a3 aa3e 4ca1 1741 f53f a740
00000170: dc8d 8241 0d45 0a41 6e4b 2341 2958 3941
00000180: 85c6 0640 b7d5 b040 7d3d 3f40 138b 16c1
00000190: 52e9 2b41 e812 63c0 b8b7 7340 8054 2141
000001a0: 076d 8c41 88ad 7941 93a0 8940 379f 1441
000001b0: 6129 4abf 6767 5f41 9490 0341 f43f 64c0
000001c0: 7cb3 79c0 6513 2e41 02cf f1be 67d8 1a41
000001d0: 54aa e940 c58b c0c0 3eb9 4141 6a25 3fbe
000001e0: abd7 9640 64ca 0341 bb8a 1c40 b0a8 163f
000001f0: 9232 0ec1 a1bb 1f41 5a7a 1141 7f4b 84c0
00000200: f599 3040 bfbd ac40 4a47 56be afce ec3f
00000210: b222 c040 5e20 5841 2467 3040 1a9a 4541
00000220: c8ed 4441 c061 80c0 23c4 673e ee6b 8ec0
00000230: f47f 3441 6e24 fc40 3de8 a440 9d2b 9ac0
00000240: 798e 47c0 1a72 fb40 708f 4b41 4f83 f8c0
00000250: db86 d4bf c74c ffc0 08fb 7b40 0a7c 1441
00000260: 06f8 2c41 0313 6d3d 8382 cb40 5e32 5641
00000270: 5d87 cf40 100c 5140 fcd0 9440 942f 0541
00000280: 2f9a 41bf 0c9c 2641 8073 24be ed20 0541
00000290: 4b9c 913e 952d 2541 ba8b 7741 94f4 05c1
000002a0: 4a14 2341 4771 80c0 eaaf af40 0a81 0a41
000002b0: 3b3c 2141 d12e 1d40 0695 2041 8c81 a541
000002c0: ae08 0c40 bab7 94c0 180a 6941 c417 8fc0
000002d0: 9b70 18c0 fbff a63f 2954 193f 7eec 1d41
000002e0: 76b7 2941 e92d 4cc1 031d 6741 d3b6 5c41
000002f0: a572 b23f dd9e 1f41 7400 c540 0492 d7bf
00000300: 6364 2641 0761 a0c0 80d1 0641 96c5 2041
00000310: ddca edbe 961d cc40 7061 5741 2a24 1d3f
00000320: a0fe 85bf b304 bd40 199b 0b40 5d0e 3641
00000330: 6640 d440 3652 b640 dc30 b540 02b1 6fc0
00000340: a489 c240 2601 14bf 739d 81bf 615e 2440
00000350: 75b3 ab3e e113 80bd 628f 3d41 9f07 5641
00000360: eba9 9d3d 96de a4bf 917b 1740 bcde 9a40
00000370: 38b6 4741 543f 7b41 d9f6 3b41 937b debf
00000380: 773d 0c40 0d8c 61c0 d5e9 7241 45ab 3b41
00000390: 9915 2341 3883 cf3d c620 58c0 cbbd fa40
000003a0: 0e42 1b41 e159 24c0 86cd 9240 c923 0d40
000003b0: e743 2141 5d91 f440 7671 1a41 bd06 1d41
000003c0: 1c62 8340 884c 1441 0c11 5e41 e6eb 0d3f
000003d0: 8382 4c41 521f 9c40 e896 5a41 1147 783f
000003e0: cb75 4241 0e78 2d40 6b34 d8be 4e71 1941
000003f0: 7572 ef40 875d 9341 82ad 7441 1b86 1f41
7.870026 7.3922668 2.8260343 12.852928 1.1898652 2.309123 -0.70557296 5.3909707
4.8977833 3.9434326 14.891385 1.0151681 5.2140374 -1.037544 6.9478984 -1.2022614
3.1738408 -8.297133 -4.276499 -7.9385858 11.631199 14.939892 12.070399 10.517472
-0.037970994 14.960955 17.183743 19.11418 14.472257 -0.72687256 0.31424263 18.943813
-4.742861 23.88331 10.431647 7.0548987 9.721147 0.6746918 1.644483 2.9159722
12.932109 9.698891 8.631572 1.2489214 6.7402773 17.062046 10.427926 7.6197762
-6.087041 9.244158 13.071171 -2.5789351 -0.8476438 -0.7247954 10.70049 16.70073
14.858809 3.1673834 14.064792 9.089683 3.8090196 3.5874162 2.0478528 1.0849532
12.350946 -7.7775793 -4.615224 7.866988 1.1631004 -2.5796928 7.383403 -6.5441976
3.275075 -0.25331116 1.4063721 8.150709 5.9506536 8.135767 -6.443096 10.298804
3.2026656 0.7372493 -3.138719 -1.5086546 -2.9958615 12.452898 0.35100976 15.312927
11.991631 0.33328158 9.476879 5.2265573 16.319267 8.641858 10.205915 11.584023
2.1058667 5.526088 2.988128 -9.408954 10.744463 -3.548029 3.8080883 10.08313
17.553236 15.604866 4.3008513 9.288871 -0.7896939 13.962745 8.222797 -3.5664034
-3.9015799 10.879735 -0.47228247 9.677833 7.302042 -6.0170617 12.107725 -0.18666616
4.7138267 8.236912 2.4459674 0.58851147 -8.887346 9.983308 9.092371 -4.134216
2.7593968 5.3981624 -0.20925632 1.8500575 6.0042353 13.507902 2.7562952 12.350122
12.308052 -4.0119324 0.22633414 -4.450675 11.281239 7.879447 5.1533494 -4.817824
-3.1180708 7.8576784 12.722519 -7.766029 -1.6603655 -7.978122 3.9371967 9.280283
10.810553 0.05787946 6.3596816 13.387297 6.485274 3.2663612 4.650511 8.324116
-0.7562589 10.413097 -0.16059685 8.3205385 0.28439555 10.323628 15.471613 -8.372211
10.192453 -4.013828 5.490224 8.656504 10.077205 2.4559824 10.036383 20.688255
2.1880298 -4.6474276 14.564964 -4.471651 -2.381873 1.3046869 0.59894043 9.870237
10.60729 -12.761209 14.444583 13.794635 1.3941237 9.976285 6.1563053 -1.6841435
10.399508 -5.011844 8.426147 10.048239 -0.46443835 6.3786116 13.461288 0.61383307
-1.046833 5.9068236 2.1813414 11.378507 6.632861 5.6975355 5.6622143 -3.7451787
6.079302 -0.5781425 -1.0126175 2.5682604 0.33535352 -0.062537916 11.847506 13.376861
0.07698425 -1.2880428 2.366917 4.8396893 12.481987 15.702961 11.747766 -1.7381462
2.1912515 -3.524173 15.182088 11.729314 10.192773 0.1013245 -3.3770003 7.835668
9.703627 -2.5679858 4.5875883 2.2053092 10.079078 7.6427445 9.6527 9.814145
4.1057262 9.268684 13.879162 0.5543808 12.781863 4.8788233 13.661842 0.9698344
12.153758 2.7104526 -0.42227492 9.590162 7.482722 18.420668 15.29236 9.970241

l4/W f4 [64, 256]
00000000: b038 3e42 6715 1a42 ece6 1242 224e 5c42
00000010: fc79 f141 8690 4742 600e 1b42 6f2d 1242
00000020: ea02 e741 0a07 3642 7b8c 0c42 6443 4541
00000030: 25f8 e641 9b04 0f42 3990 5f42 e4b9 0442
00000040: 1555 2242 ea1a 2642 38a6 1b42 54bb 1742
00000050: fc85 1f41 8e1b cd41 4a30 0c42 a3d1 1442
00000060: b9de 5442 dc9c 4942 203b 3642 789b 1d42
00000070: df6e 2542 60e2 4542 8d7e 4742 9acb af41
00000080: d4c8 3c42 ce45 1042 5807 5f42 08d9 1c42
00000090: 19ed 3642 b5a1 2f42 21e5 1f42 d46e fa41
000000a0: 9594 9641 b945 5242 7ad3 2942 4c51 7242
000000b0: c77b 2442 88fa 4742 2d43 0942 5868 0f42
000000c0: 3295 2b42 d5c6 3542 242b 2b42 138b 0942
000000d0: 1b02 5c42 a563 4542 6339 2042 93d0 5642
000000e0: c118 2b42 aa9a 3e42 3fd9 3342 cc63 0142
000000f0: 0315 2f42 8dff 2542 f554 2142 a5f3 e641
00000100: 4a2d 5341 9c7e 3a42 8758 0442 01dd 4142
00000110: 87c3 2742 e7d9 5742 9ecb 1042 2a32 c041
00000120: 95eb 3142 e268 1d42 1469 1d42 fb5a 7542
00000130: 144c 0242 30bd 4342 86b2 0942 1a38 4842
00000140: b376 1242 6b5d 6b42 bda0 0b42 8ec8 3a42
00000150: 85b3 fa41 6f4e c341 bffe 5742 8f77 6541
00000160: 5160 1a42 0205 3742 988f 2e42 2ab6 1042
00000170: 35b2 3842 d125 0b42 3b66 4642 d37d 1042
00000180: e067 0442 a882 2a42 92ad 4642 ddc7 1742
00000190: bc39 0042 975e 1642 9399 1642 6130 2d42
000001a0: 496d 1642 78ea 8941 9379 b741 e0c9 2b42
000001b0: 213a 2f42 9e21 5442 5d78 2342 2f67 1942
000001c0: 2d9a 2742 bdcc fe41 d503 1042 7f5f 2242
000001d0: eea0 3342 7fe7 3b42 8c62 e041 d3be 8d41
000001e0: 6bc2 0742 5c38 5142 9b9c 0042 5335 5642
000001f0: 9179 2342 942d 4142 fecb 4842 f2be 4042
00000200: c1b4 3f42 7263 5d41 6467 2542 63d0 1042
00000210: b1c4 1f42 2bed 0e42 7c8f 4a42 a796 2a42
00000220: 5fdc 1542 02a9 1b42 366a cb41 9b42 3742
00000230: ef88 3142 d221 2942 50a6 d741 e48c f941
00000240: 914f 1c42 7fbe 2442 49ea 2842 3c86 f641
00000250: 1d4c 1542 a0f5 a241 e587 f640 4a11 1042
00000260: d75d 4c42 5a55 2442 db58 4842 b1d7 d841
00000270: 9e1e a341 35fc 1c42 3ee2 4542 ac3f 1942
00000280: 27f8 b541 14d5 3c42 b419 3042 e42d 3942
00000290: d76f 30bb fd2e b741 f20c 1e42 8400 4b42
000002a0: 1c29 2941 aac4 2642 7d3b 1b42 649a 5742
000002b0: 9867 3942 fed0 3842 05ba 0c42 3cbc ca41
000002c0: 3365 2c42 4bff 3e42 057d 0e42 f606 3442
000002d0: 330b 0e42 607e 3442 fe19 0142 e9b4 1442
000002e0: 0e72 3842 4a40 1342 926a 2b42 4bb1 8b41
000002f0: f96a 5342 6de2 5a42 056a 0542 6a41 5041
00000300: be05 2842 3d55 3c42 36e3 1c42 69d3 1c42
00000310: e03e 1642 b0f6 3542 7f6b 4342 27f4 2c42
00000320: b00a f841 9d2f 3c42 da8e f141 86ba 1842
00000330: 4ea5 4842 dd69 0442 d3ea af40 91ce 2242
00000340: c4a7 7942 9891 3a41 66b6 2542 ddf1 4342
00000350: 554e 9941 c04d 5242 ac1f 2742 b04b 4042
00000360: db3f 2a42 aa5b d441 19ca 4642 3910 2a42
00000370: a7da 9e41 1a79 3142 c83b 2342 766b 2042
00000380: b35c 3142 d1de 0a42 dfee 2d42 5f30 2842
00000390: 9a38 3742 ca39 1f42 d78f 0942 bacc 5642
000003a0: 6071 3342 26e1 3142 729d 5e41 83ec ce41
000003b0: 7d34 3a42 c763 5342 3ac6 ea41 6757 9641
000003c0: f684 2d42 e388 3c42 951b 0842 df52 2b42
000003d0: 61fa 2142 9880 4e42 8dce ec41 d934 2942
000003e0: d978 2a42 3ece 1642 3fc2 2f42 6c6d 1840
000003f0: 3a80 3342 d684 5942 57a5 1a42 dd0b 3042
47.55536 38.5209 36.72551 55.0763 30.184563 49.891136 38.764038 36.54437
28.876423 45.506874 35.137188 12.328953 28.871164 35.754498 55.890842 33.181534
40.583088 41.526283 38.912323 37.932938 9.970211 25.638454 35.047157 37.204723
53.217503 50.403183 45.55774 39.401825 41.358273 49.47107 49.873585 21.974415
47.19612 36.06817 55.75717 39.211945 45.73154 43.907917 39.97376 31.304115
18.82255 52.56809 42.45652 60.57939 41.120876 49.99466 34.3156 35.8519
42.8957 45.44417 42.79213 34.385815 55.002056 49.34731 40.05604 53.703686
42.774174 47.65104 44.962154 32.347458 43.77052 41.49956 40.332966 28.868967
13.198557 46.623642 33.086452 48.465824 41.940945 53.962795 36.198845 24.024494
44.48006 39.352425 39.352615 61.33885 32.574295 48.934753 34.42434 50.054787
36.615917 58.84123 34.90697 46.695854 31.337656 24.413298 53.998775 14.341689
38.59406 45.75489 43.64023 36.177895 46.17403 34.78693 49.599834 36.122875
33.10144 42.627594 49.669502 37.94518 32.05638 37.592373 37.649975 43.297245
37.606724 17.239487 22.934362 42.947144 43.806767 53.03283 40.867542 38.350765
41.900562 31.84997 36.003742 40.593258 44.907158 46.97607 28.048119 17.718176
33.93986 52.30504 32.152935 53.552074 40.868717 48.29451 50.19921 48.18647
47.926517 13.836779 41.350967 36.203503 39.94208 35.73161 50.64012 42.64712
37.465206 38.915047 25.42686 45.815044 44.383724 42.283028 26.956207 31.193794
39.0777 41.18603 42.228794 30.815544 37.32433 20.369934 7.7040887 36.016884
51.09164 41.08335 50.086773 27.105318 20.38995 39.246296 49.47094 38.31218
22.746168 47.208084 44.0251 46.294815 -0.002692213 22.897943 39.51264 50.750504
10.572536 41.692055 38.808094 53.900772 46.351166 46.204094 35.18166 25.341911
43.098827 47.74931 35.62209 45.006798 35.510937 45.123413 32.275383 37.17667
46.11138 36.812782 42.854073 17.461569 52.854465 54.72112 33.353535 13.01597
42.005608 47.08324 39.221886 39.206455 37.5614 45.490906 48.854977 43.23843
31.005219 47.046497 30.194752 38.18215 50.16143 33.103382 5.497415 40.701725
62.413834 11.660545 41.428123 48.986195 19.163248 52.575928 41.78093 48.073914
42.56236 26.544758 49.69736 42.515842 19.856764 44.368263 40.80838 40.104942
44.340527 34.717594 43.483273 42.047237 45.805275 39.806435 34.39047 53.69993
44.860718 44.46987 13.913439 25.865484 46.551258 52.84744 29.34679 18.792677
43.379845 47.13368 34.026936 42.83093 40.49451 51.62558 29.600855 42.30161
42.618015 37.70141 43.939693 2.3816786 44.87522 54.379723 38.661465 44.011585

l4/b f4 [64]
00000000: 7b4d bfc2 095d bfc2 0f5c bfc2 8450 bfc2
00000010: 7a57 bfc2 7a50 bfc2 bd58 bfc2 3d4d bfc2
00000020: 5f5d bfc2 1866 bfc2 a558 bfc2 ee53 bfc2
00000030: 385a bfc2 cd56 bfc2 ff50 bfc2 8a5a bfc2
00000040: ff53 bfc2 785c bfc2 4065 bfc2 0762 bfc2
00000050: 8f4f bfc2 575d bfc2 2652 bfc2 8d54 bfc2
00000060: 9553 bfc2 ee4f bfc2 ae60 bfc2 6554 bfc2
00000070: f15b bfc2 2254 bfc2 0a50 bfc2 7456 bfc2
00000080: e159 bfc2 925d bfc2 3b69 bfc2 4a56 bfc2
00000090: aa5a bfc2 ec55 bfc2 8057 bfc2 de4c bfc2
000000a0: f050 bfc2 1056 bfc2 615e bfc2 4759 bfc2
000000b0: 9c58 bfc2 f35d bfc2 4458 bfc2 424b bfc2
000000c0: 2252 bfc2 9751 bfc2 645f bfc2 b151 bfc2
000000d0: 304f bfc2 e857 bfc2 b950 bfc2 b653 bfc2
000000e0: 1d55 bfc2 7c50 bfc2 2d58 bfc2 d351 bfc2
000000f0: a051 bfc2 d753 bfc2 2a52 bfc2 8b52 bfc2
-95.65133 -95.68171 -95.6798 -95.65726 -95.67085 -95.65718 -95.67332 -95.650856
-95.682365 -95.6994 -95.673134 -95.663925 -95.67621 -95.66953 -95.658195 -95.676834
-95.664055 -95.6806 -95.697754 -95.69146 -95.65539 -95.682304 -95.660446 -95.66514
-95.663246 -95.65611 -95.68883 -95.66483 -95.67957 -95.66432 -95.65633 -95.66885
-95.675545 -95.682755 -95.70553 -95.66853 -95.67708 -95.667816 -95.6709 -95.65013
-95.65808 -95.66809 -95.68433 -95.67437 -95.673065 -95.683495 -95.67239 -95.64699
-95.660416 -95.659355 -95.68631 -95.65955 -95.65466 -95.67169 -95.65766 -95.6635
-95.66624 -95.657196 -95.67222 -95.65981 -95.659424 -95.66375 -95.66048 -95.66122

l3/W f4 [256, 256]
00000000: dda7 dc40 a6f6 bc40 44c3 8240 ef04 7241
00000010: 5936 1dc2 6c45 0141 de6c 0a41 9c71 6b41
00000020: f2a9 8241 e944 0042 e44d cdc0 1016 fc40
00000030: 0f5c a941 fa8a e6c0 86bf f13f d7b2 46c1
00000040: 961f 04be 141e 2ec2 e3c1 20c2 8e1c 9dc1
00000050: ea34 4542 3306 8641 2453 cb3f f32d 7041
00000060: 5cd8 8041 f0e2 5e41 c9ca f141 2623 4541
00000070: f7c1 5242 bbf6 12c1 4bca 4841 0607 ac41
00000080: c168 a9c1 0b52 4c41 554b 5741 b1f6 7041
00000090: 314d b0c1 8c3b 2d41 3e46 5341 0aa8 9041
000000a0: 98b2 9040 eeb1 9641 7748 c5bf f8ce 4f41
000000b0: 5587 c741 8c93 8840 f95d bac1 1543 bb41
000000c0: 6ee9 05c1 0076 2fc1 af04 0f42 6098 0ac1
000000d0: 0365 2e41 0667 9c40 3289 ecbf d605 0742
000000e0: 20bf 9f41 2e55 b441 b8c8 4041 3666 6a41
000000f0: 4b03 7cc0 4c82 84c1 498a 0241 342d f340
00000100: 155b 9441 a2d1 4641 eece e341 d8ca 2ec2
00000110: 970a 6f40 f508 c141 6408 8741 2426 3dc1
00000120: fd8f 38c0 c280 a241 9d03 6e41 0845 c441
00000130: 9ca0 d1bd bb0d f140 eb17 9f41 0cc7 1142
00000140: 11f7 fe40 473c 3241 fa26 90c0 17df 0dc2
00000150: e5bc ba41 b0af 2f42 fb05 5d41 32e8 1742
00000160: 4fed de41 1c66 3e41 6784 7342 d296 f540
00000170: 4a3b b340 1873 8041 b6d9 27c0 1383 e341
00000180: 1a04 5641 30b7 a141 51e0 4a41 6cee 86c1
00000190: 4fd4 40c1 4171 0141 2db6 3541 68e7 e440
000001a0: b2b5 c841 5f36 3642 ba92 1741 a09b 3842
000001b0: 337e 6641 568d c340 5079 51c1 c6f9 3cc1
000001c0: 0d21 5dc2 f7af a141 c8e2 fd40 3d81 dd3f
000001d0: e43c 9cc0 36ad 44c2 cdd3 cc41 3106 04c1
000001e0: c751 ec41 3fda f341 14d8 8cc1 8b32 dfc0
000001f0: 826f 06c2 fd6c 2a41 a253 2540 295d ebc1
00000200: e356 6741 853e 6041 f484 9941 9e6c a440
00000210: 5598 d840 1e89 88c0 a703 7141 5e9d 5241
00000220: fcf9 9841 d4f4 0ec2 5503 a9c0 729d adc1
00000230: 5029 f9bf ad9b 5242 3688 a841 a2ef bebf
00000240: 8830 50c2 b186 3cc0 bdac e040 ec7e 8240
00000250: 7743 33c1 35fa 2cc2 4097 2a41 c1b8 8641
00000260: 288f 0042 48bf 4b41 bd61 5241 ebd4 0741
00000270: a27e 0141 6e27 aa41 6ce2 8441 5342 3c41
00000280: 38a0 a1c1 86b1 3640 6156 d1c1 9288 6341
00000290: b44a 1741 cfb2 7a41 a916 e541 1090 bcc1
000002a0: d17a be40 1a23 1b42 a911 5cbf fd3a f740
000002b0: 821f a140 c3e2 d141 7d39 9f40 e5b3 8e41
000002c0: 1a59 1641 eed4 c0c1 a8a2 f740 2fca ee40
000002d0: bf17 80c2 2597 6141 f405 5e41 a291 8a41
000002e0: be2d 2ec0 bdf5 63c1 2214 6540 f8ba e93f
000002f0: 5c2b f2c1 6385 2e41 f737 043e 86c8 97c1
00000300: e2c6 f141 99b3 6cbf e639 f0c1 bdb5 fa41
00000310: 9c48 49c1 5cf5 3f41 a2e6 0941 d28f 1b41
00000320: f97c 6b40 3b69 3c41 ed37 3941 191b 9441
00000330: 9ae9 5dc1 2f18 b641 9e2d 5b41 d7aa 24c2
00000340: 2b6e 4742 2b18 0f42 0225 a4c1 07c8 64bf
00000350: 9b9e 2441 b269 3a41 0dd7 9e41 6c43 2d42
00000360: 2acf 4ec1 5bf2 d0c1 bf8b 01bf 8b38 cc41
00000370: c983 b741 c6f6 d441 95fb 4741 3d45 5841
00000380: 83e2 0e40 3119 5dc1 e7ab 60c1 4c60 7941
00000390: 68ac 3e41 b6ee 4041 a943 cdc1 09a0 7241
000003a0: 39a7 c841 9041 bfc1 90e8 8441 46fc a341
000003b0: 03bd 4f42 5686 0e42 d461 8b41 1d84 1641
000003c0: 3443 7f41 ec38 ea41 c428 bb41 cfb7 2f41
000003d0: 2601 ac40 b93c 2a41 9b51 0642 976d 8041
000003e0: e47e a440 b604 8441 6ffb 1141 1631 ee41
000003f0: a7d5 cc41 2118 c341 9ad7 6f41 9b1f 4641
6.895491 5.9051085 4.086336 15.1262045 -39.303074 8.079449 8.651579 14.715237
16.332981 32.067295 -6.415758 7.877693 21.16995 -7.204465 1.8886573 -12.418662
-0.12902674 -43.529373 -40.189342 -19.638943 49.301674 16.753027 1.5884748 15.011218
16.105644 13.930405 30.224016 12.321081 52.68942 -9.185237 12.549388 21.50343
-21.17615 12.77003 13.455892 15.060227 -22.037691 10.827038 13.204649 18.08205
4.521801 18.83688 -1.541274 12.9880295 24.94108 4.268011 -23.295885 23.407755
-8.36949 -10.966309 35.754574 -8.662201 10.899661 4.887576 -1.8479369 33.7557
19.968323 22.541592 12.049004 14.649954 -3.937701 -16.563622 8.158761 7.599268
18.544474 12.42618 28.47604 -43.69809 3.7350214 24.129374 16.879097 -11.821812
-2.8837883 20.31287 14.875882 24.533707 -0.10235712 7.532926 19.886679 36.44438
7.9676595 11.139716 -4.504758 -35.46786 23.342234 43.92157 13.81396 37.976753
27.865873 11.899929 60.8793 7.6746607 5.6009874 16.056198 -2.622663 28.439001
13.376001 20.214447 12.679765 -16.866417 -12.051833 8.09015 11.3569765 7.153248
25.088718 45.553097 9.473322 46.151978 14.40581 6.111003 -13.092117 -11.81098
-55.282276 20.21092 7.9339333 1.7305065 -4.882433 -49.16915 25.603418 -8.251512
29.53993 30.481565 -17.605507 -6.97492 -33.608894 10.651608 2.5832295 -29.420488
14.458713 14.015264 19.189919 5.138259 6.768595 -4.266738 15.063392 13.16342
19.122063 -35.73909 -5.2816567 -21.701878 -1.9465733 52.652027 21.06651 -1.491688
-52.047394 -2.945721 7.021086 4.0779934 -11.203971 -43.244343 10.661926 16.840212
32.1398 12.7342 13.148862 8.489482 8.093416 21.269253 16.610558 11.766192
-20.203232 2.8545852 -26.167177 14.220842 9.455738 15.668654 28.636065 -23.570343
5.952492 38.78428 -0.8596445 7.7259507 5.035096 26.235723 4.9757676 17.83784
9.396753 -24.10397 7.7386055 7.4621806 -64.04638 14.0994005 13.876453 17.32111
-2.721542 -14.247495 3.5793538 1.8260183 -30.271172 10.907565 0.12911974 -18.972912
30.22211 -0.92461544 -30.02827 31.33874 -12.580227 11.997402 8.618807 9.722612
3.6795027 11.775691 11.576154 18.513231 -13.869532 22.761808 13.698637 -41.166836
49.857586 35.7736 -20.51807 -0.8936772 10.288722 11.6508045 19.855005 43.31584
-12.925577 -26.118338 -0.5060386 25.527609 22.939348 26.620495 12.498921 13.516904
2.2325752 -13.81865 -14.041968 15.58601 11.917091 12.058279 -25.658037 15.164071
25.081652 -23.907013 16.613556 20.49818 51.93458 35.631187 17.422768 9.407254
15.953907 29.277794 23.394905 10.982375 5.37514 10.639825 33.579693 16.05351
5.1404896 16.5023 9.123885 29.773968 25.604322 24.386782 14.990137 12.382716

l3/b f4 [256]
00000000: 21e4 9941 0be3 edc0 60e7 853f d315 9b41
00000010: 99d3 9fbd 0bbf a641 af33 4e41 c146 9d40
00000020: 2503 5f41 1059 6a41 76a4 87c0 9637 f841
00000030: 93ba 5840 96ed 0141 10ab 3741 a18f 2e3e
00000040: 031b 3940 ca38 ae41 1324 4041 1b48 6341
00000050: aa0c 8f41 32c3 eb3f decf 8240 4912 9441
00000060: 143d e740 925a 5141 8611 4041 b216 b940
00000070: c18f bd3e dcb5 6741 b6d6 9841 123f 1641
00000080: 24aa 0e41 a807 2041 e0a7 1a41 70c8 0b41
00000090: e7d9 bf41 9aeb c541 813e 0741 c5b4 4741
000000a0: 8f76 ef40 3b7d af41 932a 6341 7fa5 3f41
000000b0: b698 4340 8269 bb41 31c9 e0c0 45bc da40
000000c0: 14f0 0b40 ba28 2341 afe1 a740 b837 0341
000000d0: 527f 8241 da5e bf41 9ea4 1540 c27d 6741
000000e0: 3c9b cf3e b647 ba41 3e13 0941 cad9 f640
000000f0: d476 7441 ad13 3641 0494 7a41 61cf 81bf
00000100: c88f ad41 9967 0a41 d6a8 1e41 a1e7 c841
00000110: 427b 4841 1522 8641 4380 af41 4f4b a441
00000120: 3400 42c0 fb4c d040 a739 3641 f806 5f40
00000130: f479 4d41 c38d b141 ae46 3c41 8493 8c41
00000140: 7bc7 2441 832c 2641 40b0 f040 745a b741
00000150: 20fd 5540 4bad 1e40 d5b3 2f41 1189 8340
00000160: ee1c 5740 4bad 5a41 375a 2541 b2f6 ad40
00000170: c75a cb41 c3ff 3a41 8f45 c341 ba4d 6441
00000180: ca94 b441 29bc 4e41 fb66 d741 654f 6e3f
00000190: d847 463f fa37 4a41 4ad8 1ec1 d426 8d41
000001a0: 3eda b93f d744 f640 587c 983f c12d da41
000001b0: 60a6 8941 934c a841 9402 ed3f d466 64c0
000001c0: a847 6641 c8e4 6d41 2c6f 4fc0 111f 2bc0
000001d0: 55f2 f840 e800 6b41 3c0e 3641 e9ec 0bc1
000001e0: a07d 6d41 b2f8 1340 6992 e040 b63a 7c41
000001f0: 70f5 98bf 80f4 df40 9768 ea40 48e1 8941
00000200: b1d1 9441 1520 9841 82cd f1bf b77a 80c0
00000210: 216c 1041 94e7 ac40 6ae7 3b41 f220 3441
00000220: 3065 2941 a11c 9040 cba9 ff40 4cc8 ca41
00000230: 0df1 a040 c43f 1141 57b5 00c1 4528 e240
00000240: a086 a841 c45f b7be fa59 8040 59c8 eec0
00000250: bf62 2240 3956 23c0 4bee 5541 56e4 2d40
00000260: 9e93 c441 f547 4a41 9acb b841 8f59 9e41
00000270: e589 0942 ad30 0a41 dbea 2c41 0497 c640
00000280: ab1e cc41 74b1 c741 3296 b2c0 8004 97c0
00000290: a327 9c41 fa65 bb40 c6ea 8a40 78fb bf41
000002a0: 8cd8 ba41 2a02 2641 5e18 c341 571c 8f41
000002b0: b2f2 ca41 3a4f e540 4385 8241 0e25 d540
000002c0: fb1a a241 d3ff 3641 6736 c140 9635 6841
000002d0: 7276 4d41 752e 4e41 7be0 0641 d0cc 0541
000002e0: d26b 9341 6e13 3e41 c599 b640 6f9f c741
000002f0: d96a 2c41 f46c 8741 51e7 aa40 1960 9c41
00000300: 569a c341 acde 8141 4af5 a241 3a0d 73c0
00000310: 60d1 5341 618b 2540 19ed b141 f0cf 0c41
00000320: 537e 3040 f82e ad40 0f08 4141 546e 17c0
00000330: 4b23 cf41 bec9 a03f 1b55 b841 d170 e340
00000340: 2b88 3341 eddd c141 aba6 a640 8438 5241
00000350: 80cd c0c0 78d6 ec40 8663 d140 8ba1 b241
00000360: 2315 8641 db3c 0e41 47bd b841 74f6 6441
00000370: 0d15 cf41 3060 2f41 4995 8541 a054 5741
00000380: 4275 d041 db3c 973f 1675 bc41 79d0 2f41
00000390: efe4 c941 a093 9740 cc9b 843d 3271 6f41
000003a0: 7c81 1a41 5e55 aa40 afe9 6741 c9b4 9841
000003b0: d21d ce41 8032 8b41 808c 4841 0eb5 bd41
000003c0: 5696 8c41 3880 b841 d4a2 4fc0 5358 8141
000003d0: ad00 2c41 2a05 9a41 b816 b241 f154 7c41
000003e0: 4d47 2941 9bf4 1441 52e0 8741 f76b 0343
000003f0: 730a 9b40 e401 cf41 ed53 5641 8483 8841
19.236391 -7.433965 1.0461235 19.385656 -0.07804031 20.843283 12.887618 4.914887
13.938268 14.646744 -4.238826 31.027142 3.3863876 8.120504 11.479263 0.17046978
2.8922737 21.777729 12.008807 14.205104 17.881184 1.8418944 4.0878744 18.508928
7.226206 13.084612 12.004278 5.7840204 0.37023738 14.481899 19.10484 9.390398
8.916538 10.001869 9.665985 8.736435 23.981398 24.74004 8.45276 12.481633
7.4832225 21.936148 14.197894 11.977904 3.0561957 23.426517 -7.0245595 6.835482
2.1865282 10.197443 5.2462993 8.201103 16.312168 23.921314 2.3381724 14.468203
0.40548122 23.285015 8.567198 7.7140856 15.279011 11.379804 15.661137 -1.0141412
21.695206 8.650292 9.91622 25.1131 12.530092 16.766642 21.937628 20.536772
-3.0312624 6.509397 11.389075 3.4848003 12.842274 22.19422 11.767256 17.57203
10.298701 10.385867 7.521515 22.919167 3.3435745 2.479327 10.981404 4.1104817
3.3611407 13.667308 10.334525 5.436364 25.419325 11.687442 24.408964 14.268976
22.57265 12.920938 26.925283 0.93089896 0.77453375 12.638666 -9.927805 17.643959
1.4519727 7.6959033 1.1912947 27.27234 17.206238 21.03739 1.8516412 -3.5687761
14.392494 14.868355 -3.2411604 -2.6737711 7.7795815 14.687721 11.378475 -8.745339
14.84317 2.3120542 7.0178723 15.764334 -1.1949902 6.998596 7.3252673 17.235
18.602388 19.015665 -1.8890841 -4.01498 9.026399 5.403269 11.743998 11.258043
10.587204 4.5034947 7.9894767 25.347801 5.029425 9.078068 -8.044272 7.0674157
21.065735 -0.3581525 4.0109835 -7.4619565 2.537277 -2.5521376 13.370677 2.7170615
24.572079 12.642568 23.099415 19.79373 34.384663 8.636884 10.807338 6.2059345
25.514975 24.961647 -5.5808344 -4.7192993 19.519354 5.8561983 4.341159 23.997787
23.355736 10.375528 24.386898 17.888838 25.368504 7.165921 16.31507 6.6607733
20.263174 11.437457 6.037891 14.5130825 12.841417 12.886342 8.429805 8.362503
18.427647 11.879744 5.7062707 24.952848 10.776086 16.9282 5.340737 19.546923
24.45036 16.233727 20.36977 -3.7976823 13.238617 2.586632 22.24077 8.800766
2.7577102 5.4119835 12.064467 -2.366109 25.892233 1.2561567 23.041555 7.1075215
11.220744 24.233362 5.207845 13.138798 -6.0250854 7.4011803 6.543399 22.328878
16.76032 8.889857 23.09242 14.310169 25.885279 10.960983 16.697893 13.45816
26.057255 1.1815447 23.55717 10.988397 25.236784 4.7367706 0.064750284 14.965136
9.656612 5.322921 14.494552 19.088274 25.76456 17.399658 12.534302 23.713406
17.573406 23.062607 -3.2443132 16.168127 10.750165 19.252522 22.261093 15.770738
10.579907 9.309718 16.984531 131.42174 4.8450255 25.875923 13.39549 17.064217

l1/W f4 [256, 64]
00000000: e26f bdbf b66e 3cc1 40cf ae41 791f 1d41
00000010: f302 07c1 f144 a6c0 c70c 82c1 e92d 39c0
00000020: 269b 1e41 9496 c5be fd71 be3f 4ed8 28c0
00000030: 6776 8bc0 6703 fdc0 64e3 afc0 7bee 7241
00000040: 6c9a 02c2 0078 3fc1 5095 2841 683f 8ec0
00000050: ebf2 a541 605b fbc0 1b80 4541 9660 70c1
00000060: 1ca1 87c1 67eb d240 c213 adc0 1a8c d240
00000070: ad3f 01c1 18c1 0741 14c5 d2c1 0547 02c0
00000080: b255 b5c1 cec4 d0c0 9b9c aa40 924d ffc0
00000090: d55a d8be b935 0bc1 03bc 4bc1 837c 1ac0
000000a0: 3a90 1c41 29af c53f e432 6dc1 85c0 d63f
000000b0: 5bb8 4441 a3ce 1041 8c04 aec1 37c8 31c1
000000c0: b6fe 09c1 8a36 b640 b73b 08c1 a859 25c1
000000d0: 284c 3c41 d59c c740 eabc 94c0 89db 38c2
000000e0: 02eb 04c1 fb59 65be dad7 0f40 6b90 af3f
000000f0: 2da1 7640 d5be 5c41 dd1e b640 29fa 78c1
00000100: ef7d 5ac1 827f 7c3f d724 0241 1ffa fb3e
00000110: 00c8 93c1 53ae 7640 1161 ef40 cb6a f640
00000120: 719f fac1 5fe3 963d 464c e640 35a8 6140
00000130: f996 7241 1e54 553f 43f0 3441 8b1b ecc0
00000140: 9406 a040 996b 1d41 025b ec40 b21a b340
00000150: b4c3 8c40 78c8 8ec1 49b1 7a40 40b7 75c1
00000160: 9cb5 c441 f1cb 4041 e10c cc40 a51b 89c0
00000170: d4ef 2ac0 34b7 3240 821c d8c1 f7f2 94c1
00000180: d417 a141 41d8 6741 0e3d 8440 42fc c13f
00000190: aade 25c0 6489 d440 64fc 84c1 c4a9 c540
000001a0: 968d 0d41 5187 b0c1 7318 43c1 d4c5 0440
000001b0: c42e 75c1 8836 7140 e55e 7c41 a047 0941
000001c0: 99d1 94c1 a888 99c1 3872 25c1 8c21 1440
000001d0: 1864 9041 9489 f040 9224 4ac1 7c93 e3c0
000001e0: 1789 efc1 2bb4 05c2 2552 91c1 1df5 84c0
000001f0: a3d7 9f41 710f 0641 8be5 8e40 2f2b f3c0
00000200: e220 9a41 1707 3cc0 3ad4 7240 b2a8 6f41
00000210: fee3 9140 0f45 5241 87d8 9d41 1bbc 9440
00000220: 0ea7 3241 1262 0d41 3225 36bc ac83 f33f
00000230: d8b0 f8c0 cad6 5dc0 704f 6540 098a 67c1
00000240: 8376 aac0 c851 ef3f 2696 ac40 f869 11c1
00000250: 9c13 c040 b183 1cc0 49cb 6541 3804 93c1
00000260: e9b3 9241 dfc6 9041 ddde 9540 bf5a e2c0
00000270: c62d 84bf 2900 e1bf 0ea5 24c0 2f96 6840
00000280: 2ada 0341 14d3 a640 e32c b6bf 42bb 8fc0
00000290: 19dd 86c0 21ff f7c0 9c86 a2c0 5aaf 1640
000002a0: f501 2741 cd6f 8041 19d1 0441 2644 65c0
000002b0: fbe1 56bf 6201 18c1 5cb8 a0bf 0c3f 9740
000002c0: 243c e2be 65cb 1741 6195 2941 e245 86c0
000002d0: 06c5 7241 fc80 26bf 2be1 62c1 bf62 fa3f
000002e0: e32c a0c1 d079 ae40 0b5c 29c1 a2ce a841
000002f0: 3499 e9c0 078c cd41 87ef e341 af0b 3941
00000300: 3210 95c1 cffa be3c e8ef 41c2 a99b 5241
00000310: 96d6 9640 b628 bec1 c873 0541 664f 11c1
00000320: 59aa a240 5f3b a2bf e663 2fc1 e98e b1bf
00000330: 13f6 9140 bb0a 9cc1 db39 67c1 7349 9f40
00000340: 8b15 f5c1 b0d2 60c0 7424 6740 3249 37c0
00000350: 36d5 b0c0 0b1b 2fc1 410e 15c1 bb58 13c1
00000360: fcd7 8cbf 284e a441 e524 7b40 8efc e13e
00000370: b404 8041 8c97 75c1 1b3f ea40 a3fb 8bc1
00000380: 1840 c840 5a2d 63c0 c8b2 b240 a26d 5b3d
00000390: fb34 0a3f 0895 5cc0 122c 35c1 0019 5940
000003a0: 287c 85c1 4749 4e41 77a9 9340 f08c 1e3f
000003b0: 78c9 e6bf 0e3c 7fbf 7a41 40c1 5762 3bc0
000003c0: bf73 2441 59c1 113d 35d1 e8c0 b2e5 a7be
000003d0: ad1f e140 47a5 f540 d95b f440 96da 0541
000003e0: 776c 9f40 a4e9 8940 de65 e9c1 89c2 5941
000003f0: ac0e de40 f512 4e40 8ac2 d2c1 d30d 0942
-1.4799769 -11.777029 21.851196 9.820184 -8.43822 -5.1959157 -16.256239 -2.8934271
9.912878 -0.38591444 1.4878536 -2.6382022 -4.3582034 -7.9066653 -5.4965076 15.183223
-32.650803 -11.966797 10.536453 -4.44524 20.743612 -7.854904 12.343776 -15.023581
-16.953667 6.5912356 -5.408662 6.5796022 -8.078046 8.484642 -26.34623 -2.0355847
-22.666843 -6.524024 5.331617 -7.978219 -0.422568 -8.700616 -12.733401 -2.4138496
9.785212 1.544408 -14.824924 1.6777502 12.295009 9.050448 -21.75222 -11.111381
-8.624685 5.6941576 -8.514579 -10.334389 11.768593 6.2378945 -4.648061 -46.21439
-8.307375 -0.22397606 2.2475495 1.3715948 3.8535874 13.79659 5.6912675 -15.561074
-13.6557455 0.9863206 8.133994 0.49214265 -18.472656 3.85439 7.480599 7.7005363
-31.327852 0.07367586 7.1968107 3.5258915 15.161859 0.8333148 11.308658 -7.378362
5.000803 9.838769 7.3861094 5.5970087 4.3988895 -17.847885 3.9170706 -15.357239
24.588676 12.04979 6.376572 -4.2846246 -2.670888 2.7924318 -27.01392 -18.618635
20.136635 14.490296 4.132453 1.5155108 -2.5917153 6.6417713 -16.623238 6.1769733
8.847067 -22.066072 -12.193469 2.0745745 -15.323917 3.7689533 15.773168 8.579987
-18.602343 -19.191727 -10.340385 2.3145475 18.048874 7.516794 -12.633928 -7.1117535
-29.941938 -33.425945 -18.16511 -4.154921 19.980291 8.37877 4.4655204 -7.5990214
19.266056 -2.9379327 3.7942033 14.978685 4.559081 13.14186 19.730726 4.647962
11.165785 8.836443 -0.0111172665 1.9024558 -7.7715874 -3.4662347 3.5829735 -14.4712
-5.326967 1.8696833 5.3933287 -9.088371 6.0023937 -2.4455378 14.36213 -18.37706
18.337847 18.097105 4.683455 -7.0735774 -1.0326469 -1.7578174 -2.5725741 3.6341665
8.240763 5.2132664 -1.4232448 -4.4916086 -4.2144895 -7.7498937 -5.078932 2.3544526
10.437978 16.05459 8.301049 -3.5822845 -0.8393857 -9.500338 -1.2556262 4.726446
-0.4418651 9.487157 10.598969 -4.1960306 15.173101 -0.65040565 -14.179973 1.9561385
-20.021917 5.4523697 -10.584971 21.100895 -7.2999516 25.693373 28.491957 11.565352
-18.632908 0.023312954 -48.484283 13.163003 4.7136946 -23.769878 8.340767 -9.081884
5.0832944 -1.2674369 -10.961889 -1.3871738 4.5612884 -19.50524 -14.451625 4.977716
-30.635519 -3.5128593 3.6116 -2.8638425 -5.5260267 -10.944102 -9.31598 -9.209163
-1.1003413 20.538162 3.9241269 0.44137996 16.002296 -15.349499 7.3202033 -17.49787
6.257824 -3.549643 5.584324 0.05357135 0.5398709 -3.4465961 -11.323259 3.3921509
-16.685623 12.89289 4.6144366 0.61933804 -1.8030233 -0.9970101 -12.0159855 -2.9278772
10.278258 0.03558478 -7.275538 -0.3279243 7.0351167 7.6764255 7.636212 8.365866
4.9819903 4.3097706 -29.17474 13.609994 6.939291 3.219907 -26.34499 34.2635

l1/b f4 [256]
00000000: e29a 8540 aa13 0741 2f0f ffc0 f128 ba40
00000010: 4c6e 1e41 d194 b33f b12d 4040 c138 68c0
00000020: a86b aebf 084c 593d a679 81c0 9c28 4dc0
00000030: 4d27 da40 ffbf 2541 4ee7 74c1 13a9 e03e
00000040: 902f e03f 138f 76c1 6255 f53f 688c adc0
00000050: 6ef5 47c1 ada1 27c0 8d14 ff3f 4a97 98c0
00000060: 4e6e 6abf e27f 95c1 44d9 1440 48e4 efbf
00000070: 44cc 1fc1 f684 ab3f a705 98bf d7f2 d540
00000080: 1447 0540 06b4 0cc1 5604 82c0 29ea bcbf
00000090: 8599 6bc0 a2b1 d23f ffc4 b940 ffca c440
000000a0: 88b2 01c1 88e1 89c0 c5b2 c23e 4698 31bf
000000b0: 31f7 3bbf bfcd ea40 6bd5 0341 facf 03c1
000000c0: f880 1fc0 8a5c 3840 ddd3 e740 a27a 0ac1
000000d0: ccb4 02bf 7181 8f3f ab55 0e40 bf2b 2dc1
000000e0: 4f3f 3a40 cb93 1a41 d765 f2c0 80f9 ccbf
000000f0: 3041 0a40 172a c7c0 24b9 42c0 3406 4ac1
00000100: 4d09 1b40 1ba4 0141 acc2 1840 0071 a4c0
00000110: a10b 17c1 ea38 c9bf e184 a53f 0424 c8c0
00000120: 47ae c3c0 76da 5340 dd60 8b41 e459 1640
00000130: 790d d23f 49ac 6a40 9eff 0ec1 2fda d7c0
00000140: 52c3 8e40 0893 9540 2d64 4c40 b34a 3ac0
00000150: 7bb5 16c1 a9e6 bb40 a046 a3c1 facb 27c1
00000160: c290 3640 0cdb 22c1 2956 24c1 3ab4 5f40
00000170: f9a9 e83f 04d1 0341 14bf 903d 0a05 2441
00000180: f6b4 8a40 ff0f 6fc0 16f1 05c1 7fb9 4f40
00000190: 949b e0c0 6fce 2241 7748 f3be d172 9940
000001a0: a6f3 f5bf 9156 90c0 8b06 0641 05d3 5cc0
000001b0: e70d 8dc0 924a 87c0 d413 99c0 84f8 f8bf
000001c0: aaab 9e40 c14d 63c0 5d0c 1e40 e774 b140
000001d0: fb65 09c1 ddda edc0 90b1 5f40 c2d7 2640
000001e0: a8a0 5340 d924 8ebe 1660 1941 012c 3bc0
000001f0: d1d0 1541 3ee2 2541 4b48 38c1 14a0 29c1
00000200: 63ec 00c0 b160 f1bd 8af3 973f 1623 f5bf
00000210: 92e5 a33e 8361 f740 7df4 3fbf 6cdb e4be
00000220: 8854 7b40 c618 1641 52c3 8f40 a3f4 9b3f
00000230: 2aac 8bc0 c92e 27bf 9e9b 20c0 e857 25c0
00000240: 0939 aec0 0606 f140 e6a8 1ec1 e46a 9bbf
00000250: 3c6d 4840 f9f8 6041 dd00 27c0 55a0 83bf
00000260: 941c a13f 05c7 2441 398c 07c1 4f9e 60c1
00000270: 4991 cf3f d527 8b40 6c69 1041 3a59 253d
00000280: e277 2140 70a6 63bf 037c 2e40 94cc 8240
00000290: b34e 6f40 c5e9 4940 b0cd a8bf 08d9 0e40
000002a0: bbd7 6ebf 4765 c040 7b73 fc3f c1a9 6040
000002b0: b846 dec0 e23b 1ec0 105b 5cc0 94cf 83c0
000002c0: c502 f540 4658 b0c0 1f5e d03f fcb5 81bf
000002d0: b5e3 6f40 26ed 843e c14a aec0 ed96 5cc1
000002e0: 94f1 d940 4626 41c1 7b37 26bf 7bee 25c0
000002f0: f08f 8c3f 56be c33f 80b5 62c0 85dc aa40
00000300: 6549 3e40 e0d1 33c1 c431 0cc0 4d1c 9340
00000310: 5bb1 be3d a663 1d3d dd6e cf3f e790 44c1
00000320: f612 c43f 1bc5 2ac1 d19b f7c0 c8b7 493f
00000330: ed6e c340 45e1 1440 8e82 403f 616f bb3f
00000340: 56a0 8abf 5fc2 b2bf 35a0 8040 5add 9a3f
00000350: c9f4 83c0 37c6 d83f 5513 a640 9d4e 90c1
00000360: 9d78 e140 4b92 7cbf b619 8bc0 17af a2c0
00000370: 1017 17c0 975e 1b41 d0c2 4740 db36 92c0
00000380: 10d5 16c0 4c2a fc40 8c68 bac0 439c d6c0
00000390: feb5 bdbf 97b3 87c0 8abf cf3f b641 3dc1
000003a0: 8c93 c040 12a3 e140 68e3 ccc0 f80c 85c1
000003b0: 9cf1 cb40 f028 8240 a694 1040 5d37 b540
000003c0: f378 2540 4e54 e8c0 1562 7abf dcfe 29c1
000003d0: b09d 12c0 9575 08bf 5d86 9b40 3d29 bdc0
000003e0: 028b 26c0 ae52 e9c0 27be 29c0 323f 46c1
000003f0: 9f9d f740 d6e7 4ac0 c4a0 8ac0 94c6 0e40
4.1751566 8.442301 -7.9706035 5.8174977 9.901928 1.402979 3.0027888 -3.628464
-1.3626604 0.053051025 -4.0460997 -3.2056036 6.8172975 10.359374 -15.306471 0.43878993
1.7514515 -15.40993 1.9166682 -5.4233894 -12.497419 -2.619243 1.9928147 -4.768468
-0.9157456 -18.687443 2.3257608 -1.8741541 -9.98737 1.3399951 -1.1876725 6.6858935
2.0824633 -8.793951 -4.0630293 -1.475896 -3.681245 1.6460459 5.8052974 6.14978
-8.106087 -4.3087807 0.38027015 -0.69372976 -0.7342406 7.3376155 8.239604 -8.238276
-2.4922466 2.8806481 7.244612 -8.65494 -0.51057124 1.1211377 2.2239788 -10.82318
2.910114 9.661082 -7.5749316 -1.6013641 2.1602287 -6.223888 -3.04255 -12.626514
2.4224427 8.102565 2.3868818 -5.138794 -9.440339 -1.5720494 1.2931176 -6.2543964
-6.115024 3.3102088 17.422297 2.3492365 1.6410362 3.6667655 -8.937407 -6.7453837
4.461343 4.674198 3.1936142 -2.9108093 -9.419307 5.8719068 -20.409485 -10.487299
2.8525853 -10.178478 -10.271035 3.4953752 1.8176872 8.238529 0.07067695 10.25123
4.33459 -3.7353513 -8.371359 3.2456968 -7.0189915 10.175399 -0.47516224 4.7952657
-1.9214981 -4.510567 8.376597 -3.4503796 -4.407947 -4.227853 -4.7836704 -1.9450841
4.958455 -3.5516207 2.4695046 5.5455203 -8.587398 -7.4329667 3.4952126 2.6069188
3.3066807 -0.27762488 9.5859585 -2.9245608 9.363481 10.367735 -11.51765 -10.601582
-2.014428 -0.117860205 1.1871197 -1.9151332 0.32011086 7.7306533 -0.74982435 -0.44698656
3.9270344 9.381048 4.492593 1.2184032 -4.364766 -0.65305763 -2.5094981 -2.5834904
-5.4444623 7.5319853 -9.916235 -1.2141995 3.1316671 14.060784 -2.6094277 -1.0283304
1.2586846 10.298589 -8.471734 -14.03865 1.6216213 4.3486123 9.025738 0.040368296
2.522942 -0.8892584 2.726319 4.087473 3.7391784 3.1548932 -1.3187771 2.2319965
-0.9329793 6.012363 1.9722742 3.510361 -6.9461327 -2.472405 -3.443058 -4.119089
7.656588 -5.5107756 1.6278723 -1.0133662 3.7482731 0.2596218 -5.446625 -13.786847
6.8107395 -12.071844 -0.64928406 -2.5926807 1.0981426 1.5292461 -3.542328 5.339419
2.9732296 -11.238739 -2.1905375 4.5972047 0.093111716 0.03842511 1.6205708 -12.285377
1.5318286 -10.673121 -7.7377706 0.7879605 6.1072907 2.3262494 0.7519921 1.4643365
-1.0830181 -1.3965567 4.0195565 1.2098801 -4.123631 1.693549 5.18986 -18.038385
7.0459733 -0.98660725 -4.3468885 -5.0838733 -2.3607826 9.710593 3.1212654 -4.569196
-2.3567543 7.880163 -5.825262 -6.706575 -1.4821165 -4.2406726 1.6230328 -11.828543
6.018011 7.051156 -6.4027596 -16.631332 6.3732433 4.0674973 2.2590728 5.663008
2.5855072 -7.260291 -0.9780591 -10.624722 -2.2908745 -0.53304416 4.860152 -5.911284
-2.6022344 -7.2913427 -2.652231 -12.390429 7.737991 -3.1704001 -4.3321247 2.2308702
