static/ai/6/agent_black_2000/model.npz (npz, 560028 bytes, 8 tensors)

l3/b f4 [256]
0.1112653 -0.026641978 -0.036654584 -0.10515983 -0.17466256 -0.11067167 0.06574783 0.07302268
0.032292116 -0.017320696 0.21522014 0.0006747691 -0.30237553 -0.27827737 -0.008753589 -0.1794861
-0.027947785 0.09150209 -0.2017147 -0.0075612054 0.03381722 0.1402208 -0.15355983 0.025238872
-0.004754482 0.0023040446 0.018094597 -0.03787446 -0.047037147 -0.06332085 0.023319652 0.03738729
0.06767804 0.054412235 -0.09434427 -0.024267703 -0.0091818655 0.019821884 -0.18043362 -0.12613118
0.006223283 0.16773239 -0.16700919 -0.084030025 0.027823117 0.011035341 0.08378462 0.062606655
0.016369611 0.019078527 0.013714949 0.043251075 0.2629299 -0.033185884 -0.08291725 0.075433746
-0.010892916 0.03830137 0.0015083232 -0.09340986 0.10769048 0.09258438 -0.010938595 0.020623203
0.1299274 0.10269904 -0.071994744 0.0009424192 0.059441667 -0.039343957 -0.07959517 0.021767328
-0.12427346 -0.08245749 0.06395548 -0.025425212 -0.18262886 0.024134438 0.0338526 0.018148676
0.08032884 -0.04779313 0.012226757 -0.28882822 -0.013957377 -0.011169469 -0.03804638 -0.006119175
-0.10768795 0.607793 -0.0188063 0.028619256 -0.20832163 0.11057637 -0.303067 -0.2000584
-0.028035082 0.048489336 0.04612968 -0.08895597 0.26561466 0.032989565 0.07481154 -0.098182954
-0.014124024 -0.20748562 0.004774248 -0.05578931 0.05569461 0.038037837 -0.03534894 0.027332967
0.052814517 -0.32555762 0.035086848 -0.16432396 0.0036704543 -0.21839766 0.13256569 -0.033337772
-0.29420325 0.007379942 0.17933148 0.052250266 -0.0011949681 -0.31559917 0.035796765 0.06979161
-0.08986248 0.00014064329 0.064071335 -0.076928854 0.008993878 -0.0051868767 0.110367395 -0.016650477
-0.07981851 -0.12779817 -0.1885485 -0.27410653 -0.05023981 0.017330473 -0.094299786 -0.07661306
-0.069949836 0.004778851 0.09203752 -0.018099988 0.03158752 0.011877974 0.07524247 0.017132035
-0.15247105 -0.17610686 -0.0056399014 -0.18843868 -0.0942132 -0.061758574 -0.014123631 0.15132406
-0.2651872 0.010294989 -0.02232161 -0.07291732 -0.00065034174 0.0020930169 -0.22868101 0.006314014
0.06878549 0.12113365 0.0029816353 -0.013309871 -0.065691374 -0.047499742 0.007023311 -0.1665623
-0.08707669 0.06919761 0.08003107 -0.03803655 0.11576201 -0.14397572 0.024380973 -0.110740535
-0.048893712 -0.11631079 -0.0012046664 0.039580364 -0.18289682 -0.16538371 0.027931685 0.071159035
0.03401901 0.044488728 0.011689951 0.052694585 0.07724641 0.06805288 -0.1266101 -0.30121234
0.10574126 -0.20457551 -0.112340294 0.0161594 0.026271537 -0.3710343 -0.21855672 -0.29980215
-0.15242942 -0.19866028 -0.22764204 -0.025459535 -0.006568937 0.08265082 -0.08275366 0.0010249808
-0.018771362 -0.046072964 -0.19656359 -0.1750467 -0.0129472455 -0.020392196 -0.049746674 -0.29634038
-0.011108968 -0.02368496 -0.017796922 -0.1427699 0.008334042 0.027730074 -0.018082587 0.03169694
0.03506483 -0.03988013 -0.09882728 0.021811027 0.008836821 0.0016138129 -0.057573818 -0.13065448
0.019888446 -0.16923672 -0.060384832 0.0037724893 0.015950063 -0.20358604 -0.1397918 0.03393763
-0.065519504 0.043262966 0.034330405 0.30001923 -0.1453776 0.016862672 0.0015657551 -0.0035947734
00000000: 10df e33d 4740 dabc 1e23 16bd 095e d7bd
00000010: beda 32be d4a7 e2bd cca6 863d ea8c 953d
00000020: bd44 043d 22e4 8dbc ab62 5c3e fde2 303a
00000030: f7d0 9abe 5f7a 8ebe 376b 0fbc 34cb 37be
00000040: c1f2 e4bc 7365 bb3d 4c8e 4ebe fdc3 f7bb
00000050: ed83 0a3d 0b96 0f3e ca3e 1dbe c0c1 ce3c
00000060: 7ccb 9bbb 74ff 163b 1f3b 943c 4022 1bbd
00000070: 06aa 40bd 5dae 81bd db08 bf3c 6a23 193d
00000080: c99a 8a3d 5ddf 5e3d 9237 c1bd 10cd c6bc
00000090: 896f 16bc 8161 a23c 97c3 38be 8828 01be
000000a0: aeec cb3b 0ac2 2b3e 7504 2bbe ef17 acbd
000000b0: 4eed e33c 93cd 343c 4597 ab3d eb37 803d
000000c0: 9019 863c 924a 9c3c aab4 603c 0a28 313d
000000d0: bf9e 863e eced 07bd 85d0 a9bd 027d 9a3d
000000e0: 3378 32bc e6e1 1c3d eeb2 c53a ab4d bfbd
000000f0: d48c dc3d e19c bd3d cb37 33bc fef1 a83c
00000100: b00b 053e e053 d23d fb71 93bd af0c 773a
00000110: 1b79 733d 2127 21bd cb02 a3bd 6551 b23c
00000120: 1583 febd 79df a8bd 17fb 823d 8948 d0bc
00000130: 0f03 3bbe 96b5 c53c 06a9 0a3d 88ac 943c
00000140: 7283 a43d bbc2 43bd bc52 483c 4be1 93be
00000150: 7bad 64bc 2600 37bc 85d6 1bbd 5c83 c8bb
00000160: 808b dcbd 5298 1b3f ab0f 9abc ee72 ea3c
00000170: 4452 55be dd75 e23d 992b 9bbe 1cdc 4cbe
00000180: d4a9 e5bc c19c 463d 7af2 3c3d 8c2e b6bd
00000190: a5fe 873e 1120 073d cb36 993d 2514 c9bd
000001a0: 7368 67bc 1c77 54be 4c71 9c3b 5583 64bd
000001b0: 0820 643d 90cd 1b3d 0dca 10bd 63e9 df3c
000001c0: 0954 583d 7daf a6be 3ab7 0f3d 8a44 28be
000001d0: 018c 703b a3a3 5fbe 4dbf 073e 308d 08bd
000001e0: cfa1 96be 71d3 f13b aca2 373e 6004 563d
000001f0: 7aa0 9cba 3796 a1be a19f 123d e7ee 8e3d
00000200: d209 b8bd a579 1339 d537 833d e08c 9dbd
00000210: 0f5b 133c adf6 a9bb 4d08 e23d 9566 88bc
00000220: e377 a3bd 86dd 02be dc12 41be b157 8cbe
00000230: 42c8 4dbd a3f8 8d3c 3f20 c1bd 4fe7 9cbd
00000240: dc41 8fbd e897 9c3b 2b7e bc3d 6d46 94bc
00000250: ea61 013d d59b 423c b918 9a3d 7b58 8c3c
00000260: 5f21 1cbe 5b55 34be ecce b8bb 12f6 40be
00000270: daf2 c0bd 8ff6 7cbd cd66 67bc b2f4 1a3e
00000280: 9ec6 87be 50ac 283c cfdb b6bc ad55 95bd
00000290: b27b 2aba ff2a 093b 5b2b 6abe cae5 ce3b
000002a0: 68df 8c3d eb14 f83d 8a67 433b a511 5abc
000002b0: 3389 86bd 178f 42bd ce23 e63b 4f8f 2abe
000002c0: 4355 b2bd 7ab7 8d3d 54e7 a33d 37cc 1bbd
000002d0: a214 ed3d 5f6e 13be 9bba c73c efcb e2bd
000002e0: c644 48bd 5a34 eebd e6e5 9dba 051f 223d
000002f0: 4e49 3bbe 595a 29be fdd0 e43c d4bb 913d
00000300: 8457 0b3d d039 363d 3587 3f3c 47d6 573d
00000310: 5e33 9e3d 4f5f 8b3d 14a6 01be 8138 9abe
00000320: e08e d83d 3e7c 51be ab12 e6bd b860 843c
00000330: 6837 d73c 35f8 bdbe 55cd 5fbe ab7f 99be
00000340: 7516 1cbe 9a6d 4bbe ff1a 69be 8490 d0bc
00000350: 3d40 d7bb d544 a93d c07a a9bd a658 863a
00000360: 66c6 99bc 01b7 3cbd f747 49be 713f 33be
00000370: af20 54bc 890d a7bc 2bc3 4bbd edb9 97be
00000380: 6402 36bc f606 c2bc daca 91bc 4632 12be
00000390: 818b 083c 2e2a e33c ef21 94bc a7d4 013d
000003a0: 24a0 0f3d 5959 23bd f565 cabd 0aad b23c
000003b0: 50c8 103c 9386 d33a 86d2 6bbd 4aca 05be
000003c0: 18ed a23c 644c 2dbe 1656 77bd de3b 773b
000003d0: b5a9 823c dc78 50be 9525 0fbe 2f02 0b3d
000003e0: 172f 86bd 8234 313d 0a9e 0c3d 1f9c 993e
000003f0: dedd 14be 9623 8a3c 063a cd3a 4a96 6bbb

l3/W f4 [256, 256]
-0.11476239 -0.09212389 -0.102473736 -0.055968773 -0.11871978 0.085056685 -0.13755411 0.16355011
0.011978916 0.0019280293 0.020310832 -0.0017279816 -0.08301777 0.008415865 0.053557776 -0.16123468
-0.06559427 -0.21282758 0.16834861 0.10984451 0.22449677 -0.0514352 0.041164424 0.09806319
-0.10140587 0.03201913 0.041919474 -0.21263497 0.0748194 0.049097262 0.085415564 0.029736444
0.030761927 -0.10151971 0.068010755 -0.19486694 -0.11870229 0.048624326 -0.05366924 -0.07691781
-0.02062227 0.1644357 0.090806395 0.015862597 0.03701204 -0.019093292 -0.0993101 0.028410496
0.07345924 0.016790153 0.0041325875 -0.050238475 0.031467445 0.045167997 0.00823696 -0.003263534
0.0083902385 0.09928162 -0.00675583 0.13642567 0.03329837 0.03129855 -0.0005448173 0.06823454
0.09839017 0.03660986 -0.051167797 0.013191466 -0.060466554 0.04569795 -0.05608298 0.09645715
-0.15224296 0.11174122 0.14196897 -0.06576488 -0.18681148 0.17554119 0.16009185 -0.0938103
0.043987006 -0.017288392 -0.016459832 -0.22409843 0.06520927 0.04012751 -0.116562724 -0.032203488
0.057956018 -0.00632456 -0.08080995 -0.13211703 0.03824029 0.0075980476 -0.08446768 0.16777594
0.08012053 -0.103239454 0.017421044 -0.19561683 0.057438347 -0.035348218 -0.01622058 -0.02450279
-0.050488222 0.037888985 0.18096146 -0.19471043 -0.012021623 0.085091054 0.027497647 -0.065514155
0.07548622 -0.15649562 0.089281954 -0.25807622 0.08259607 0.12763473 -0.10507529 -0.010403564
0.007031738 0.012076618 0.140507 -0.058365002 -0.11382862 -0.051453687 -0.08472586 0.06944061
0.055973925 0.115083545 -0.13229284 -0.16324657 0.02047968 -0.023777166 -0.0155939 -0.17342284
-0.07404511 -0.10977576 0.011154138 0.18420148 -0.05063962 0.1745553 -0.23211451 0.023403874
0.011496799 0.08937941 -0.052409776 0.014835934 0.083462805 -0.070904724 -0.06639362 0.030674633
-0.21033697 -0.2830948 0.001603294 -0.04696652 0.08859907 0.031457756 -0.1381074 0.012035476
-0.105032645 -0.1211598 -0.21863565 0.063654706 -0.04076083 -0.06536808 0.032921363 -0.08743999
0.0058713104 0.1711031 0.056878004 0.11131318 -0.06990247 -0.13122709 0.0032524278 0.07767213
-0.0130329365 -0.16018699 0.0915134 0.085677646 0.07897734 -0.019632122 -0.13202673 0.14365925
0.020721443 0.05588434 -0.19004376 0.020964522 0.030957578 -0.2362522 -0.09629311 -0.028501768
0.12939487 -0.23715337 -0.039987266 -0.120758615 -0.11663622 0.05003692 -0.024959598 -0.05807093
-0.08291788 0.092151165 -0.029351141 0.021921152 0.15983494 -0.07462974 -0.07013544 0.03502884
0.0014630677 -0.011221608 -0.07893894 0.06834364 0.046203543 -0.08503134 -0.010557022 0.060984626
-0.108776316 -0.09035773 0.101795614 0.005064057 0.021695893 -0.16679357 -0.10088702 -0.006917017
0.06191238 -0.07260088 -0.054566458 -0.023971312 0.09819859 -0.026751425 -0.1251759 -0.01879605
-0.1629653 0.004974308 -0.055088334 -0.047943514 -0.019085063 0.03131961 -0.07345604 0.016755428
0.031793453 -0.025796618 0.0118359 0.21637905 -0.07644552 -0.044207253 0.042401426 -0.042483483
-0.14978608 0.1617843 0.22160824 0.01605175 0.06005773 -0.006540846 0.20589416 0.0013370342
00000000: 8b08 ebbd 73ab bcbd c0dd d1bd 833f 65bd
00000010: 5b23 f3bd 3332 ae3d fcda 0cbe ae79 273e
00000020: 3743 443c eeb5 fc3a e762 a63c 717d e2ba
00000030: 3805 aabd b2e2 093c 665f 5b3d b41a 25be
00000040: 4a56 86bd 79ef 59be 9463 2c3e 29f6 e03d
00000050: 7be2 653e b7ad 52bd 079c 283d 5bd5 c83d
00000060: e1ad cfbd 7e26 033d c1b3 2b3d fbbc 59be
00000070: ea3a 993d 361a 493d 5bee ae3d d899 f33c
00000080: 7000 fc3c 91e9 cfbd 3949 8b3d 338b 47be
00000090: 301a f3bd 4d2a 473d 47d4 5bbd 1687 9dbd
000000a0: 09f0 a8bc d561 283e b4f8 b93d 47f2 813c
000000b0: f099 173d 8969 9cbc 1863 cbbd 21bd e83c
000000c0: cc71 963d 818b 893c a86a 873b dcc6 4dbd
000000d0: 02e4 003d 1402 393d 50f4 063c 04e1 55bb
000000e0: 3677 093c 2954 cb3d 0260 ddbb 2cb3 0b3e
000000f0: df63 083d e932 003d 12d2 0eba 8dbe 8b3d
00000100: c980 c93d 38f4 153d 5395 51bd 0521 583c
00000110: c7ab 77bd c62d 3b3d 44b7 65bd 548b c53d
00000120: 94e5 1bbe 95d8 e43d 5060 113e bdaf 86bd
00000130: 824b 3fbe 12c1 333e 1eef 233e 9d1f c0bd
00000140: b82b 343d 63a0 8dbc c5d6 86bc 0f7a 65be
00000150: 708c 853d be5c 243d 70b8 eebd cee7 03bd
00000160: 4a63 6d3d 413e cfbb b07f a5bd b049 07be
00000170: daa1 1c3d 0bf9 f83b 64fd acbd 75cd 2b3e
00000180: 3c16 a43d 356f d3bd 94b6 8e3c c74f 48be
00000190: 7944 6b3d 4bc9 10bd 06e1 84bc 13ba c8bc
000001a0: bdcc 4ebd 7b31 1b3d f64d 393e 2c62 47be
000001b0: 57f6 44bc 3844 ae3d bf42 e13c 492c 86bd
000001c0: 8598 9a3d 6340 20be 75d9 b63d 9122 84be
000001d0: 2128 a93d aeb2 023e b731 d7bd b673 2abc
000001e0: 7e6a e63b 02dd 453c 11e1 0f3e 2410 6fbd
000001f0: fb1e e9bd 1ac1 52bd c084 adbd e136 8e3d
00000200: ea44 653d ecb0 eb3d c677 07be 1c2a 27be
00000210: 00c5 a73c 55c8 c2bc 8f7d 7fbc c295 31be
00000220: f6a4 97bd 1dd2 e0bd d8bf 363c 509f 3c3e
00000230: 7d6b 4fbd a0be 323e 6daf 6dbe 7bb9 bf3c
00000240: 125d 3c3c 8d0c b73d a2ab 56bd 6b12 733c
00000250: 8cee aa3d 7f36 91bd 61f9 87bd 5e49 fb3c
00000260: 9362 57be cdf1 90be 9f25 d23a f75f 40bd
00000270: 6e73 b53d d9d9 003d 076c 0dbe 7230 453c
00000280: 5b1b d7bd a122 f8bd 06e2 5fbe 665d 823d
00000290: d4f4 26bd b3df 85bd 8dd8 063d bd13 b3bd
000002a0: 1f64 c03b a735 2f3e e9f8 683d 2af8 e33d
000002b0: 0729 8fbd 6560 06be af26 553b 9112 9f3d
000002c0: 1988 55bc 0f08 24be 616b bb3d c377 af3d
000002d0: dfbe a13d 8bd3 a0bc 0432 07be 691b 133e
000002e0: 04c0 a93c fae6 643d d59a 42be cabd ab3c
000002f0: bf9a fd3c 19ec 71be 5235 c5bd 8a7c e9bc
00000300: 1780 043e 55d8 72be b0c9 23bd 4b50 f7bd
00000310: f8de eebd 83f3 4c3d 1278 ccbc c9db 6dbd
00000320: d9d0 a9bd c0b9 bc3d ce71 f0bc fd93 b33c
00000330: c5ab 233e 7ad7 98bd 2ba3 8fbd 677a 0f3d
00000340: 68c4 bf3a d6da 37bc bdaa a1bd c0f7 8b3d
00000350: ed3f 3d3d e924 aebd 5cf7 2cbc 04cb 793d
00000360: 1ec6 debd 790d b9bd 387a d03d 64f0 a53b
00000370: 96bb b13c efcb 2abe db9d cebd 25a8 e2bb
00000380: d697 7d3d c5af 94bd 1481 5fbd 7c5f c4bc
00000390: 581c c93d ce25 dbbc 1c2e 00be 2dfa 99bc
000003a0: 60e0 26be 85ff a23b 4ea4 61bd 6b60 44bd
000003b0: 4758 9cbc fe48 003d 1f70 96bd ae42 893c
000003c0: da39 023d 6e53 d3bc 5deb 413c 7892 5d3e
000003d0: 788f 9cbd aa12 35bd 1ead 2d3d 2903 2ebd
000003e0: 8661 19be c9aa 253e 45ed 623e f67e 833c
000003f0: 18ff 753d 9854 d6bb ebd5 523e 6c3f af3a

l1/b f4 [256]
-0.1359403 -0.16662258 0.021670796 -0.103014596 -0.13515416 0.7258808 -0.11468215 -0.0089486595
-0.20045982 -0.2506632 0.20517363 -0.08322531 -0.42978477 0.021554723 -0.22496948 0.059930295
-0.389506 -0.05908342 0.025922092 -0.36413297 0.026673032 -0.07496439 -0.01811801 -0.030332386
-0.17674226 -0.15118502 -0.13510764 0.027173094 0.30385768 -0.08875967 -0.032992013 0.013976699
-0.11337804 -0.12241085 -0.14519423 -0.003566565 0.012783505 -0.064375505 0.029505901 0.09029279
-0.060361963 0.29110217 0.009656176 -0.10342017 -0.13679974 -0.28000686 -0.094603725 -0.1956842
0.24981265 -0.015090263 -0.41332135 -0.15304613 -0.07634162 -0.3107317 -0.12689255 0.00038814908
-0.5091401 0.038254607 -0.21807893 -0.013045879 0.16016674 -0.10976373 -0.59299237 0.0110806795
-0.22220707 -0.20904876 -0.16236787 -0.009417123 -0.0020573044 0.07598368 -0.14979117 -0.08746769
-0.11582653 0.13381138 -0.08647155 0.3951497 -0.018129712 -0.10344522 0.015132297 0.20070419
0.14259908 -0.4705803 -0.097220846 -0.007377989 -0.1768255 -0.19678342 0.38217798 -0.23191144
0.017895538 0.3757201 0.03562183 -0.070689 0.07827381 -0.039590217 0.06676808 -0.27515602
0.019749962 -0.16259909 0.4056583 -0.021111626 0.14994602 -0.30688912 -0.12965286 -0.21865122
-0.04569256 0.0076521044 0.00096140354 -0.22460744 0.020303952 -0.19719237 -0.23724684 -0.37852344
-0.00958985 0.059939392 -0.2309161 -0.0064585623 0.010777062 -0.49655217 0.022267113 -0.003236675
-0.17538717 -0.22624272 0.018432235 0.07036983 -0.015997265 -0.055425867 -0.27782184 -0.23148428
-0.22991012 0.009583767 0.35114855 -0.1862829 -0.13069257 -0.36102587 -0.13875158 -0.10627579
-0.4418636 0.06761484 0.08852052 0.0031901791 -0.45963624 -0.15619929 0.051381182 -0.33736125
-0.047346376 -0.01807639 -0.21195832 -0.24276847 -0.2541188 0.016497381 -0.13774659 -0.25898388
0.008193577 -0.006223008 0.06370608 -0.15412739 -0.2097653 0.032735407 0.21181455 -0.1560573
-0.022769013 -0.017990872 -0.030397817 0.061075546 -0.0694381 -0.012511914 0.1149665 -0.029454669
-0.333894 0.556607 0.23903497 -0.026686918 0.08775233 -0.009307731 0.049468074 0.023472268
-0.015049818 -0.23581079 -0.1762175 -0.037172608 -0.013289457 -0.18699956 -0.132823 -0.0020780605
-0.2790296 -0.2000907 -0.20548423 -0.12305154 -0.1892376 -0.026601095 0.034677766 -0.10386336
-0.10257134 0.05136281 -0.02050047 -0.3164018 -0.092912115 -0.24371311 0.13154596 -0.32269257
-0.0129465135 -0.05871054 0.018982429 0.08397835 -0.07661791 0.0040168012 -0.005319339 -0.1578907
0.05585793 -0.23556714 0.28792876 -0.1442923 -0.26273152 0.0505294 -0.20806997 0.033996318
-0.22222427 -0.07559691 -0.11704221 -0.27678472 -0.20524745 -0.0401735 -0.15220562 -0.08581471
-0.24005884 0.04819087 -0.10937976 -0.0032426438 -0.068340264 -0.13702396 0.0951427 -0.06359781
-0.15648088 0.02609089 -0.048048627 0.08027171 0.043552667 -0.5351526 -0.14297615 0.0120078325
-0.22126225 -0.03286452 -0.10028775 -0.2981413 0.011333868 -0.07594989 0.42370638 0.3182178
0.05317775 0.048241265 -0.2811482 -0.33580035 -0.07122231 0.021192186 0.35526374 0.07675163
00000000: ef33 0bbe 1c9f 2abe f486 b13c 51f9 d2bd
00000010: da65 0abe 53d3 393f 7ade eabd 669d 12bc
00000020: 5745 4dbe ed56 80be 0919 523e 0872 aabd
00000030: c00c dcbe 8893 b03c 665e 66be 7879 753d
00000040: 556d c7be 7501 72bd 915a d43c a36f babe
00000050: 6781 da3c ee86 99bd 396c 94bc a07b f8bc
00000060: ecfb 34be 3fd0 1abe a859 0abe 1c9a de3c
00000070: 3c93 9b3e a1c7 b5bd a222 07bd 86fe 643c
00000080: bf32 e8bd 8ab2 fabd ccad 14be 08bd 69bb
00000090: e871 513c 4ed7 83bd 5cb6 f13c 6deb b83d
000000a0: 1b3e 77bd 580b 953e f034 1e3c f4cd d3bd
000000b0: 3b15 0cbe 0f5d 8fbe 99bf c1bd 7061 48be
000000c0: e3ce 7f3e 273d 77bc db9e d3be 20b8 1cbe
000000d0: ff58 9cbd 3a18 9fbe 1ff0 01be 7d80 cb39
000000e0: 0157 02bf ddb0 1c3d 1550 5fbe 62be 55bc
000000f0: c002 243e cecb e0bd 59ce 17bf bd8b 353c
00000100: 408a 63be e110 56be c343 26be 474a 1abc
00000110: d7d3 06bb 559d 9b3d db62 19be 4322 b3bd
00000120: 7636 edbd da05 093e ff17 b1bd 1051 ca3e
00000130: c384 94bc 16db d3bd 74ed 773c 6685 4d3e
00000140: 7e05 123e e7ef f0be b91b c7bd 0fc3 f1bb
00000150: be11 35be 9881 49be d5ac c33e 317a 6dbe
00000160: aa99 923c 635e c03e 32e8 113d 65c5 90bd
00000170: 054e a03d 5a29 22bd b4bd 883d 40e1 8cbe
00000180: acca a13c 6080 26be 72b2 cf3e 4af2 acbc
00000190: 738b 193e 9220 9dbe b8c3 04be 1be6 5fbe
000001a0: 1f28 3bbd 81be fa3b b306 7c3a 7eff 65be
000001b0: 7954 a63c ccec 49be d6f0 72be d3cd c1be
000001c0: bf1e 1dbc 0283 753d 4575 6cbe 59a2 d3bb
000001d0: 4692 303c 163c febe 8569 b63c 651e 54bb
000001e0: b298 33be 2cac 67be 33ff 963c 0f1e 903d
000001f0: b20c 83bc 3c06 63bd aa3e 8ebe 370a 6dbe
00000200: 8f6d 6bbe 3b05 1d3c bec9 b33e f2c0 3ebe
00000210: 46d4 05be 62d8 b8be e514 0ebe 1fa7 d9bd
00000220: f23b e2be a679 8a3d 3f4a b53d 5312 513b
00000230: 7155 ebbe b5f2 1fbe 1375 523d 9dba acbe
00000240: 46ee 41bd f014 94bc 9a0b 59be 4c98 78be
00000250: dc1b 82be 8425 873c 710d 0dbe 8999 84be
00000260: 5a3e 063c 60ea cbbb 5578 823d 92d3 1dbe
00000270: b7cc 56be 9015 063d eae5 583e 7ccd 1fbe
00000280: 1586 babc 9861 93bc d804 f9bc 5a2a 7a3d
00000290: 9035 8ebd c5fe 4cbc 8e73 eb3d eb4a f1bc
000002a0: 28f4 aabe cc7d 0e3f 95c5 743e 869e dabc
000002b0: 7eb7 b33d 747f 18bc 099f 4a3d ea48 c03c
000002c0: 8393 76bc 6278 71be 5c72 34be 4e42 18bd
000002d0: 06bc 59bc d07c 3fbe c102 08be 1230 08bb
000002e0: f8dc 8ebe 94e4 4cbe 756a 52be 7202 fcbd
000002f0: 80c7 41be 8aea d9bc 460a 0e3d 50b6 d4bd
00000300: ec10 d2bd cf61 523d 9af0 a7bc 6bff a1be
00000310: b548 bebd ee8f 79be fcb3 063e f637 a5be
00000320: 9d1d 54bc 777a 70bd 0a81 9b3c d7fc ab3d
00000330: dae9 9cbd 5f9f 833b da4d aebb 1aae 21be
00000340: 49cb 643d 8338 71be 666b 933e 5cc1 13be
00000350: bf84 86be ebf7 4e3d 4b10 55be b93f 0b3d
00000360: c28e 63be 8ed2 9abd d4b3 efbd bab6 8dbe
00000370: 632c 52be f88c 24bd cadb 1bbe 9fbf afbd
00000380: fcd1 75be ca63 453d 7f02 e0bd 8982 54bb
00000390: fbf5 8bbd 0250 0cbe 2dda c23d 923f 82bd
000003a0: 863c 20be 90bc d53c a3ce 44bd 7f65 a43d
000003b0: 4864 323d c3ff 08bf 5768 12be 80bc 443c
000003c0: 9292 62be f29c 06bd aa63 cdbd faa5 98be
000003d0: b0b1 393c 9e8b 9bbd 0bf0 d83e 72ed a23e
000003e0: ead0 593d a298 453d a8f2 8fbe 06ee abbe
000003f0: 01dd 91bd 3c9b ad3c 21e5 b53e f52f 9d3d

l1/W f4 [256, 36]
0.35255474 -0.44080546 -0.19671014 0.03332122 -0.09071717 0.34798366 0.059715457 0.17956941
-0.044471327 0.37493116 -0.09899708 -0.17375942 0.082218915 0.16168302 0.299324 -0.084277876
0.180005 0.2972964 -0.5569762 -0.47917318 0.24162191 0.029018166 -0.27020645 -0.28816774
0.24558382 0.3412077 0.03251946 -0.055037677 -0.59036785 0.18456578 0.087747954 0.2823659
0.0907317 -0.31273603 -0.16353312 -0.07309188 -0.12617195 -0.31940603 -0.09660779 0.07664911
0.01792435 0.25864205 -0.08401518 0.29398122 0.5645513 -1.9136496e-06 0.023196394 -0.37948588
-0.039172873 0.49641117 0.08497599 -0.09856076 -0.110080734 0.017332042 -0.20242113 -0.24454382
-0.15610097 0.24760102 -0.10242438 0.111500144 -0.031297892 -0.42081857 -0.17996013 -0.3975333
0.021268627 0.39254525 0.26730293 0.29085287 -0.09239989 0.27740592 0.34701225 -0.31092426
0.44604054 -0.19091299 0.041849636 0.089218274 -0.0028338523 0.010796656 -0.4114856 -0.1321805
-0.2021188 0.14204979 0.41267654 -0.03713301 -0.18195589 0.04066704 -0.1526843 0.11344668
-0.16747239 -0.4629336 0.037677776 0.1717057 -0.422608 -0.10677539 0.20596279 -0.3326706
-0.116473444 -0.25851378 -0.03698385 0.062933706 0.2552445 -0.3897854 0.016145274 -0.078955315
0.29162663 -0.21656272 -0.19714628 -0.23372483 0.30007252 -0.029766573 0.18256798 0.24058679
-0.031943627 0.06300293 -0.57706577 -0.021345923 0.31927997 0.15986446 0.19363229 -0.10876552
-0.4888001 0.4133464 0.11843794 0.13752165 -0.06040319 -0.14713629 -0.34072226 0.11152592
-0.018669425 -0.4528082 -0.06644243 0.30270308 -0.30723363 0.14483754 -0.082379185 0.13188893
-0.21093045 0.4503541 -0.2548722 -0.108430825 0.11431668 -0.10880521 -0.08113781 -0.09841258
0.2306987 -0.00017826201 0.3893495 0.49421126 0.20249301 -0.050948933 -0.22350365 -0.30525288
0.35931322 -0.034564752 -0.04482206 0.17281814 0.15427083 0.1136604 -0.28540823 -0.36071768
-0.2743087 0.31074244 0.1476766 -0.21719521 0.12468278 -0.6445038 0.34979784 -0.043232236
-0.0368094 0.15083236 0.16758521 -0.1255458 -0.26041204 0.19368438 0.21592876 -0.04703239
-0.10329531 -0.34666848 -0.22282135 0.43965998 0.010271083 -0.09020231 0.33768377 -0.11502457
-0.29370025 0.13864227 0.06428621 -0.16033046 -0.4582776 0.14980161 0.19223014 0.4555004
-0.001652226 -0.02092179 0.19755104 0.15171026 -0.20356105 -0.09322606 -0.20050323 0.17138278
0.33525178 0.13795526 -0.11467276 0.11456633 0.24694449 0.158452 0.15411451 -0.21597634
-0.28391653 0.17487206 0.037414216 0.010785479 0.06438701 -0.033453323 0.05534796 0.29393065
-0.13403232 -0.047037512 0.47203782 -0.27955216 0.041886095 0.30586314 -0.045912948 0.10226085
-0.07577801 -0.16815753 -0.11541912 0.68476135 0.3320753 0.20420285 -0.12074525 -0.06066527
0.012935557 -0.20410144 -0.04463384 -0.24659787 -0.026481977 -0.10365186 0.12615375 0.02793532
-0.25989628 0.057734944 0.31612217 -0.31200185 0.43184432 0.18608905 -0.41641366 0.12408456
-0.45446375 -0.14482446 -0.48223263 -0.060794953 -0.07585074 0.28390807 0.10249124 -0.42030197
00000000: 0e82 b43e 41b1 e1be 626e 49be d57b 083d
00000010: ecc9 b9bd ea2a b23e 3298 743d 0be1 373e
00000020: 9127 36bd faf6 bf3e fbbe cabd fded 31be
00000030: 6462 a83d 3c90 253e ff40 993e e199 acbd
00000040: 3b53 383e 3c37 983e fe95 0ebf 3056 f5be
00000050: bc6b 773e 81b7 ed3c 8058 8abe b98a 93be
00000060: 537a 7b3e c7b2 ae3e 2033 053d 306f 61bd
00000070: 5922 17bf d0fe 3c3e 33b5 b33d 4392 903e
00000080: 8bd1 b93d f01e a0be 3a75 27be 32b1 95bd
00000090: 3833 01be 3089 a3be 4eda c5bd 35fa 9c3d
000000a0: 16d6 923c bb6c 843e 2710 acbd b584 963e
000000b0: 6f86 103f 406c 00b6 5d06 be3c f94b c2be
000000c0: bc73 20bd 9b29 fe3e e407 ae3d 39da c9bd
000000d0: 0272 e1bd edfb 8d3c 7c47 4fbe b269 7abe
000000e0: efd8 1fbe 1f8b 7d3e e0c3 d1bd 305a e43d
000000f0: 3832 00bd 8875 d7be 7847 38be 7c89 cbbe
00000100: 8b3b ae3c b1fb c83e eedb 883e abea 943e
00000110: 273c bdbd 2608 8e3e 97ab b13e 7731 9fbe
00000120: 6d5f e43e b27e 43be 866a 2b3d 12b8 b63d
00000130: 27b8 39bb 75e4 303c 3eae d2be 535a 07be
00000140: 3bf8 4ebe 8075 113e 574a d33e c818 18bd
00000150: a552 3abe 7b92 263d 4659 1cbe bc56 e83d
00000160: e27d 2bbe a205 edbe 0354 1a3d 9ed3 2f3e
00000170: 1360 d8be 0ead dabd e9e7 523e cd53 aabe
00000180: a189 eebd eb5b 84be 617c 17bd 63e3 803d
00000190: 68af 823e f491 c7be 1843 843c 53b3 a1bd
000001a0: 1650 953e 9ec2 5dbe b7e0 49be 9055 6fbe
000001b0: 1ba3 993e 07d9 f3bc 1af3 3a3e 625c 763e
000001c0: 52d7 02bd ae07 813d 95ba 13bf a5dd aebc
000001d0: aa78 a33e 82b3 233e 8b47 463e 75c0 debd
000001e0: 0244 fabe 24a2 d33e 978f f23d 7ad2 0c3e
000001f0: 5669 77bd e5aa 16be 2673 aebe b467 e43d
00000200: 9ff0 98bc 7ad6 e7be f812 88bd e6fb 9a3e
00000210: ba4d 9dbe 4b50 143e 6bb6 a8bd e40d 073e
00000220: 27fe 57be d094 e63e 9c7e 82be fb10 debd
00000230: dd1e ea3d 44d5 debd 952b a6bd 898c c9bd
00000240: 483c 6c3e d8eb 3ab9 d158 c73e 4209 fd3e
00000250: 545a 4f3e d4af 50bd 24de 64be 1b4a 9cbe
00000260: e7f7 b73e c593 0dbd 5697 37bd 3df7 303e
00000270: 2cf9 1d3e c9c6 e83d 0721 92be fdaf b8be
00000280: 3172 8cbe a219 9f3e 8938 173e 6c68 5ebe
00000290: af59 ff3d 33fe 24bf b418 b33e 4914 31bd
000002a0: 74c5 16bd cc73 1a3e 759b 2b3e 148f 00be
000002b0: ba54 85be 3355 463e 6e1c 5d3e 09a5 40bd
000002c0: 7e8c d3bd 887e b1be 482b 64be 1d1b e13e
000002d0: 0b48 283c fdbb b8bd e3e4 ac3e 0092 ebbd
000002e0: e15f 96be 3df8 0d3e 7da8 833d ab2d 24be
000002f0: 5da3 eabe 9865 193e fad7 443e 5937 e93e
00000300: 818f d8ba 2c64 abbc d24a 4a3e ef59 1b3e
00000310: 4f72 50be 4eed bebd b850 4dbe f87e 2f3e
00000320: 1fa6 ab3e 2544 0d3e 8dd9 eabd c1a1 ea3d
00000330: 04df 7c3e 3e41 223e 32d0 1d3e e728 5dbe
00000340: 825d 91be a911 333e a63f 193d 94b5 303c
00000350: 56dd 833d 5a06 09bd 8bb4 623d 147e 963e
00000360: c53f 09be 68aa 40bd f1ae f13e 7621 8fbe
00000370: c190 2b3d 189a 9c3e 370f 3cbd 236e d13d
00000380: 8031 9bbd 7d31 2cbe dc60 ecbd 854c 2f3f
00000390: c605 aa3e 8d1a 513e 4949 f7bd 257c 78bd
000003a0: a9ef 533c f8ff 50be f9d1 36bd 2784 7cbe
000003b0: bbf0 d8bc 6d47 d4bd 732e 013e 9dd8 e43c
000003c0: 2011 85be 7a7b 6c3d c4da a13e b5be 9fbe
000003d0: b31a dd3e 218e 3e3e 2c34 d5be 0c20 fe3d
000003e0: 79af e8be dd4c 14be 32e7 f6be 2104 79bd
000003f0: a257 9bbd 665c 913e ede6 d13d d231 d7be

l4/b f4 [36]
-0.27066118 -0.32280466 -0.2768353 -0.30351794 -0.2625621 -0.38366744 -0.25480384 -0.17021315
-0.15879954 -0.16166104 -0.1878659 -0.29982856 -0.2688803 -0.19015007 -0.0490943 -0.054666914
-0.17429626 -0.25282454 -0.24223442 -0.22507478 -0.09121508 -0.07991546 -0.14190172 -0.31214225
-0.29652652 -0.06596585 -0.24847585 -0.17767951 -0.19372723 -0.29737562 -0.32685444 -0.27416304
-0.17426562 -0.28264734 -0.24687594 -0.20733576
00000000: 1a94 8abe a746 a5be 5bbd 8dbe b466 9bbe
00000010: 8a6e 86be 0f70 c4be a675 82be 5b4c 2ebe
00000020: 599c 22be 798a 25be eb5f 40be 2183 99be
00000030: aeaa 89be b3b6 42be 1b17 49bd 6aea 5fbd
00000040: b87a 32be 3872 81be 4d0c 78be 017a 66be
00000050: f9ce babd b7aa a3bd af4e 11be 1cd1 9fbe
00000060: 53d2 97be 1b19 87bd 7470 7ebe 9ef1 35be
00000070: 6e60 46be 9e41 98be 7759 a7be 195f 8cbe
00000080: b072 32be 27b7 90be 0ccd 7cbe d34f 54be

l4/W f4 [36, 256]
-0.015100062 0.020843616 0.07604518 -0.0010369419 0.045832753 0.1965856 -0.06000102 0.18032724
-0.131294 -0.03809617 0.005281886 -0.04249965 0.08294895 0.019075828 0.028029446 -0.12354832
0.058360256 0.09668221 -0.017480787 0.09737569 0.19458194 -0.0031025733 0.0791309 -0.0023258585
-0.070310354 0.09146339 -0.17784776 -0.11340378 -0.0043896725 0.04459549 -0.090232514 0.19947948
-0.033488788 -0.0035933196 -0.005196737 -0.093118474 -0.053298503 0.07148675 -0.049255684 0.06771873
-0.08954734 -0.20458636 0.08910746 0.07285523 0.009043212 -0.14399609 0.06272218 -0.018880041
-0.07815167 -0.03415853 -0.039194673 -0.06358945 -0.4533595 0.0035889791 0.10826923 -0.050631035
0.2205775 -0.3120217 -0.04601678 0.08120371 -0.006171429 -0.22542088 -0.15053281 0.017236192
-0.21763219 -0.22027825 0.050416667 0.14860286 -0.16564018 0.14086795 0.042499993 -0.14926372
0.006932112 -0.22300297 0.118526585 -0.114226736 0.2399865 0.23675509 0.20820533 0.11770257
-0.25177106 0.008170535 -0.22313042 0.06176234 -0.21715946 -0.14893176 0.074164554 -0.05400346
-0.082012326 -0.102760755 -0.0037952177 -0.16137706 0.10180067 0.016943408 0.16199322 0.066229716
-0.13286547 -0.09983014 0.16427828 -0.1660823 0.0123794535 0.12760712 0.15426731 0.08976553
0.22718446 0.013592579 0.10519762 0.0219443 -0.23629203 0.02597321 -0.16743442 -0.14824653
-0.2072694 0.048650276 -0.040829785 -0.021081982 -0.2361329 0.058770187 -0.26203802 0.25113788
0.021653568 0.10883397 0.022940068 -0.045710597 -0.04787228 0.08032078 -0.0037720583 -0.1277936
-0.029209826 0.16294834 -0.17414866 0.04015752 -0.23712268 -0.07376995 -0.060116563 0.07905237
0.0449438 -0.0037992962 0.20461418 -0.07309687 0.15635403 -0.14566739 0.053846724 -0.2605485
0.14403586 -0.03254256 -0.032365393 -0.038453817 0.18687262 -0.06032146 0.14668533 -0.16801931
-0.033860277 0.05073536 0.2689276 -0.0066923476 -0.09143319 0.016005218 -0.07209026 0.2694705
0.07465518 -0.12802444 -0.103528604 -0.005799283 -0.034889314 0.08992039 0.12601532 0.13775435
-0.292978 -0.04124538 0.04728499 -0.039758712 0.09125748 0.22623807 0.17047474 -0.0056372904
-0.034918487 0.16873153 -0.22699565 0.069546916 -0.010360052 0.050634958 0.11519229 -0.17612374
-0.054781258 0.20209529 -0.24028237 -0.37051228 0.16061305 0.079173565 -0.11429629 -0.050621055
-0.20787543 0.030006606 0.001790695 -0.04116123 -0.23812458 -0.01511969 0.0121508725 0.06930671
-0.4281218 -0.14206085 0.10473458 -0.08197672 -0.1182127 0.07185885 -0.037788212 0.16760293
-0.045801703 0.05585153 0.07761573 -0.009098977 0.07998542 -0.16928837 -0.056162156 0.005023568
-0.105909206 0.24938987 0.097643815 -0.0009001005 0.047192574 -0.052436832 0.23103814 0.10283614
-0.15792225 0.007731719 0.19582376 0.099635445 -0.011137641 0.012096739 -0.16025656 0.03225212
0.18148547 -0.02354299 -0.06701961 -0.16841428 -0.04397871 0.1269315 0.0652869 0.07281956
0.09971551 -0.059558216 0.054964412 -0.23934543 0.042051338 0.098599695 -0.15803583 0.11036115
0.12293221 -0.11463317 -0.15239982 -0.022488013 0.08944028 0.18053013 -0.05066429 -0.10281976
00000000: 4066 77bc 3bc0 aa3c 93bd 9b3d ffe9 87ba
00000010: 20bb 3b3d bc4d 493e a1c3 75bd b4a7 383e
00000020: ef71 06be bb0a 1cbd ac13 ad3b 1d14 2ebd
00000030: 24e1 a93d e944 9c3c 029e e53c e706 fdbd
00000040: 2a0b 6f3d 5301 c63d de33 8fbc e86c c73d
00000050: 7d40 473e 8b54 4bbb 620f a23d 6e6d 18bb
00000060: e0fe 8fbd 2851 bb3d b91d 36be 3e40 e8bd
00000070: 3ed7 8fbb c3a9 363d d3cb b8bd 5944 4c3e
00000080: 8a2b 09bd e67d 6bbb 6449 aabb e6b4 bebd
00000090: 884f 5abd a567 923d 54c0 49bd 1eb0 8a3d
000000a0: 9964 b7bd 167f 51be f97d b63d 1f35 953d
000000b0: fb29 143c b673 13be 7c74 803d 51aa 9abc
000000c0: fc0d a0bd d1e9 0bbd 988a 20bd 303b 82bd
000000d0: bd1e e8be 1435 6b3b 42bc dd3d 7d62 4fbd
000000e0: 11df 613e 4fc1 9fbe 177c 3cbd 214e a63d
000000f0: b339 cabb bbd4 66be 4625 1abe ea32 8d3c
00000100: f9da 5ebe 9f90 61be b581 4e3d 592b 183e
00000110: 949d 29be b03f 103e 7914 2e3d 97d8 18be
00000120: c526 e33b e45a 64be 11be f23d b5ef e9bd
00000130: 05bf 753e ed6f 723e c733 553e 0c0e f13d
00000140: 23e8 80be b5dd 053c 4d7c 64be 82fa 7c3d
00000150: 0d5f 5ebe 9181 18be 96e3 973d bb32 5dbd
00000160: 14f6 a7bd 3b74 d2bd 30b9 78bb 0740 25be
00000170: df7c d03d e7cc 8a3c 8de1 253e 72a3 873d
00000180: e30d 08be bf73 ccbd 9138 283e 7a11 2abe
00000190: 31d3 4a3c 71ab 023e 40f8 1d3e fdd6 b73d
000001a0: 0ba3 683e 69b3 5e3c da71 d73d 88c4 b33c
000001b0: 8af6 71be c5c5 d43c ee73 2bbe f0cd 17be
000001c0: 6e3e 54be 8345 473d 223d 27bd 1fb4 acbc
000001d0: d3cc 71be 02b9 703d d929 86be 2595 803e
000001e0: d362 b13c 58e4 de3d cfec bb3c 093b 3bbd
000001f0: b915 44bd 397f a43d a334 77bb 53dc 02be
00000200: 7249 efbc eedb 263e 0754 32be 367c 243d
00000210: 4ad0 72be b314 97bd c93c 76bd 35e6 a13d
00000220: fd16 383d 9dfd 78bb 6186 513e d0b3 95bd
00000230: 451b 203e d529 15be 628e 5c3d 9d66 85be
00000240: 237e 133e 594b 05bd 9391 04bd c081 1dbd
00000250: 895b 3f3e a313 77bd ae34 163e 410d 2cbe
00000260: 13b1 0abd e1cf 4f3d e1b0 893e 7b4b dbbb
00000270: 5341 bbbd 601d 833c 0fa4 93bd 0af8 893e
00000280: d1e4 983d d718 03be ce06 d4bd e907 bebb
00000290: 19e8 0ebd 2e28 b83d 290a 013e 7a0f 0d3e
000002a0: 3601 96be eaf0 28bd e8ad 413d 08da 22bd
000002b0: 34e5 ba3d f4aa 673e ee90 2e3e 05b9 b8bb
000002c0: b006 0fbd f5c7 2c3e 8c71 68be 9d6e 8e3d
000002d0: 35bd 29bc 9a66 4f3d efe9 eb3d c859 34be
000002e0: 5062 60bd 11f2 4e3e 950c 76be c9b3 bdbe
000002f0: bf77 243e c025 a23d 2c14 eabd 0658 4fbd
00000300: 4cdd 54be 6ad0 f53c c1b5 ea3a ae98 28bd
00000310: eed6 73be 94b8 77bc 7414 473c adf0 8d3d
00000320: c832 dbbe 6678 11be 157f d63d 69e3 a7bd
00000330: 8019 f2bd bc2a 933d d0c7 1abd 1aa0 2b3e
00000340: 919a 3bbd 93c4 643d fff4 9e3d e013 15bc
00000350: 65cf a33d ee59 2dbe 4a0a 66bd be9c a43b
00000360: ede6 d8bd 0f60 7f3e 7bf9 c73d b9f4 6bba
00000370: 004d 413d 01c8 56bd 4395 6c3e c19b d23d
00000380: 5fb6 21be 5c5a fd3b 0686 483e ab0d cc3d
00000390: a77a 36bc 6731 463c 4c1a 24be cd1a 043d
000003a0: 54d7 393e 3bdd c0bc 9441 89bd cb74 2cbe
000003b0: 0523 34bd 55fa 013e 23b5 853d 6c22 953d
000003c0: a537 cc3d 51f3 73bd 5d22 613d f816 75be
000003d0: 063e 2c3d a3ee c93d 25d4 21be 0705 e23d
000003e0: e2c3 fb3d ccc4 eabd b30e 1cbe c838 b8bc
000003f0: 772c b73d e4dc 383e 5c85 4fbd 2b93 d2bd

l2/b f4 [256]
-0.32871485 -0.077369176 0.015178454 0.09146408 -0.08600934 0.058148522 -0.005685937 0.06618154
0.018987872 -0.046165735 -0.19048198 0.04382831 -0.0013918509 0.04827199 -0.060803138 0.013566338
0.0013784344 -0.029211039 0.089978956 -0.093977794 -0.12773402 0.035757747 -0.017531486 -0.015780628
-0.054428484 -0.072214 -0.048747703 0.06778385 0.03549086 0.109877475 -0.060432352 0.2412219
0.001992271 -0.27315912 -0.019369647 -0.18676184 0.033803277 0.608822 -0.0054495786 0.17347144
0.017511453 0.21778993 0.0028455122 -0.041426305 -0.2422097 -0.039580066 -0.3436408 0.050456032
-0.031791743 -0.15194751 -0.029493848 -0.08212794 -0.04658407 -0.03373201 -0.16341525 0.2595942
-0.069201574 0.095299646 -0.023752065 0.25965786 -0.16429734 -0.11560972 -0.047246803 -0.15158923
-0.07446157 -0.013819452 -0.15368503 0.053534728 0.021708323 -0.0935983 0.009169282 0.048424557
-0.41886362 0.0037466474 -0.014706935 -0.010492352 -0.089737505 0.087845795 -0.05524728 -0.006643727
-0.05538252 0.16669731 0.35535702 -0.20345423 0.2847151 -0.04518743 0.05789506 -0.0009912695
0.009346046 -0.038271174 -0.16299821 -0.14988367 0.2706467 -0.014803445 -0.18845508 -0.15888654
-0.009013225 -0.10096417 0.03351853 -0.07808361 -0.09880238 0.092503786 -0.16697891 -0.00055709726
-0.3078488 0.029906407 0.0107864505 -0.019894803 -0.24241897 -0.12851423 0.01359171 0.037826445
0.0066733444 -0.3659371 0.0048385663 -0.24785094 0.22489096 -0.044304136 0.14129128 0.07607277
0.030114742 0.06967274 -0.05457311 0.03933586 -0.0013354807 -0.13277228 -0.0180977 0.13401613
-0.06544079 -0.12672508 -0.22935979 -0.016582835 -0.060293544 -0.14988352 -0.02622489 -0.16453162
-0.012031746 0.031114845 0.033133212 -0.12910181 -0.05469179 -0.012404353 -0.06504491 0.30156773
-0.040596303 -0.03877292 -0.05054862 0.06913614 0.13289721 -0.04168403 0.12011782 0.022402683
-0.14548442 -0.2569718 0.13466243 -0.04176449 -0.043889366 -0.039269216 -0.11071892 -0.17301595
-0.11372744 -0.09225392 -0.060745835 -0.31223246 -0.25209737 0.02584474 0.001832399 -0.09553728
-0.30456242 0.1263366 -0.0016737718 0.0019367774 -0.106568694 -0.013305723 -0.03722305 -0.35747173
0.029517736 -0.062411092 -0.13369837 0.17901054 -0.19776142 0.010747985 0.017051348 0.31273818
-0.054831926 -0.09435343 -0.2732263 -0.05968873 -0.17380619 -0.16572355 -0.2914136 0.09550932
0.13253771 -0.18502443 -0.021540627 -0.25099793 0.08233879 -0.19351318 0.00015130457 0.004067586
0.035069127 -0.052411325 -0.015376627 -0.18423988 -0.19405158 -0.08284056 -0.043897066 -0.129262
0.0028851808 0.15406881 -0.0081782285 -0.12016988 -0.14450473 0.006649377 -0.24152978 -0.14259402
0.24206598 0.022057509 -0.014774024 -0.2473594 -0.092936896 -0.240243 -0.016448941 -0.27394238
-0.1306592 0.017601771 0.09254554 0.041470274 -0.038400527 0.041699544 -0.13473056 -0.152591
-0.18646215 0.05831423 -0.033498656 -0.017603144 -0.11971667 -0.0007855075 -0.41036022 -0.3755607
-0.005427733 0.006300598 -0.17577237 0.8311874 0.013972709 -0.0003077748 -4.4329707e-05 0.043378584
-0.18972008 -0.013068222 -0.21634711 -0.1390745 0.07000212 0.16057545 0.029772155 -0.06407495
00000000: 504d a8be bb73 9ebd 0daf 783c 8551 bb3d
00000010: aa25 b0bd 252d 6e3d 1951 babb 308a 873d
00000020: 748c 9b3c 4818 3dbd b50d 43be 5085 333d
00000030: c46e b6ba dab8 453d b60c 79bd 5945 5e3c
00000040: 95ac b43a fd4b efbc e346 b83d 6e77 c0bd
00000050: b5cc 02be b776 123d 319e 8fbc 6046 81bc
00000060: 67f0 5ebd efe4 93bd acab 47bd 42d2 8a3d
00000070: dd5e 113d 7107 e13d ea87 77bd e002 773e
00000080: c390 023b 83db 8bbe 18ad 9ebc 7f3e 3fbe
00000090: 4e75 0a3d c2db 1b3f 6192 b2bb 7fa2 313e
000000a0: 2e74 8f3c 5304 5f3e c67b 3a3b a1ae 29bd
000000b0: d205 78be b51e 22bd b0f1 afbe fcaa 4e3d
000000c0: 0f38 02bd 2198 1bbe 159d f1bc b232 a8bd
000000d0: f0ce 3ebd 932a 0abd 5456 27be 88e9 843e
000000e0: 8eb9 8dbd 762c c33d b193 c2bc e0f1 843e
000000f0: 903d 28be cac4 ecbd dd85 41bd 353a 1bbe
00000100: 4f7f 98bd fc6a 62bc 9c5f 1dbe 3b47 5b3d
00000110: a7d5 b13c 77b0 bfbd c23a 163c d458 463d
00000120: 4b75 d6be 508a 753b 5bf5 70bc 1de8 2bbc
00000130: 4cc8 b7bd 7fe8 b33d f94a 62bd 9fb3 d9bb
00000140: c8d8 62bd b3b2 2a3e 5bf1 b53e 4e56 50be
00000150: 2dc6 913e 7416 39bd 5f23 6d3d 7ced 81ba
00000160: 2820 193c 3cc2 1cbd 01e9 26be 1b7b 19be
00000170: 3492 8a3e 268a 72bc 5efa 40be 27b3 22be
00000180: 35ac 13bc 4ec6 cebd ba4a 093d 4dea 9fbd
00000190: e758 cabd a072 bd3d 85fc 2abe 2a0a 12ba
000001a0: 5c9e 9dbe 48fe f43c a7b9 303c 6dfa a2bc
000001b0: ae3c 78be 3c99 03be c3af 5e3c e7ef 1a3d
000001c0: 12ac da3b 1c5c bbbe d68c 9e3b a3cc 7dbe
000001d0: d149 663e 4178 35bd a9ae 103e 0acc 9b3d
000001e0: 31b3 f63c 95b0 8e3d 0e88 5fbd a41e 213d
000001f0: 4c0b afba 75f5 07be a141 94bc 863b 093e
00000200: d205 86bd 38c4 01be 4bdd 6abe bad8 87bc
00000210: 5df6 76bd 117b 19be 95d5 d6bc fa7a 28be
00000220: cd20 45bc 8fe4 fe3c b1b6 073d 4433 04be
00000230: 8004 60bd a13b 4bbc 4436 85bd 1667 9a3e
00000240: 4f48 26bd 5ad0 1ebd 120c 4fbd 4097 8d3d
00000250: 3516 083e e0bc 2abd 5500 f63d d585 b73c
00000260: def9 14be cf91 83be f3e4 093e 3e11 2bbd
00000270: 56c5 33bd c2d8 20bd 9ac0 e2bd 182b 31be
00000280: efe9 e8bd a0ef bcbd a0d0 78bd efdc 9fbe
00000290: e812 81be 59b8 d33c 1c2d f03a 0da9 c3bd
000002a0: 9bef 9bbe 625e 013e 7662 dbba 77db fd3a
000002b0: b040 dabd 3f00 5abc 3277 18bd 8906 b7be
000002c0: 2ecf f13c c6a2 7fbd 3ae8 08be 8a4e 373e
000002d0: f881 4abe 5118 303c 45af 8b3c 381f a03e
000002e0: 7197 60bd 5f3c c1bd 51e4 8bbe 2b7c 74bd
000002f0: 40fa 31be 6fb3 29be 2a34 95be 649a c33d
00000300: f7b7 073e 0b77 3dbe f875 b0bc cd82 80be
00000310: 3da1 a83d 5228 46be 83a7 1e39 6249 853b
00000320: a5a4 0f3d 42ad 56bd 40ee 7bbc 61a9 3cbe
00000330: 75b5 46be 50a8 a9bd 69cd 33bd 425d 04be
00000340: 4d15 3d3b 37c4 1d3e fafd 05bc a01b f6bd
00000350: 0cf9 13be 04e3 d93b 9553 77be 2b04 12be
00000360: 25e0 773e f3b1 b43c bf0e 72bc c84b 7dbe
00000370: b355 bebd 4302 76be eebf 86bc 2d42 8cbe
00000380: 86cb 05be 9731 903c 8488 bd3d bcdc 293d
00000390: df49 1dbd 24cd 2a3d cff6 09be d140 1cbe
000003a0: efef 3ebe e7da 6e3d e335 09bd 7834 90bc
000003b0: 032e f5bd 84ea 4dba bc1a d2be 7e49 c0be
000003c0: 20db b1bb 3f75 ce3b acfd 33be b3c8 543f
000003d0: caed 643c d65c a1b9 a9ee 39b8 bead 313d
000003e0: fb45 42be 191c 56bc 198a 5dbe 8c69 0ebe
000003f0: 465d 8f3d e46d 243e bce4 f33c ba39 83bd

l2/W f4 [256, 256]
0.20012894 0.06664434 -0.05634772 -0.09089539 -0.006588688 -0.24577338 -0.012520521 0.03740665
-0.008025051 0.02527718 -0.069127165 -0.21949358 -0.05002241 0.11179854 -0.11930396 0.07216904
0.030284595 -0.06978829 -0.16972286 0.05394764 0.05242151 -0.066619135 0.06817166 0.03984473
0.11873145 0.18594836 -0.017542623 -0.081508115 0.11702193 0.071718164 0.22411907 0.12083079
0.0943925 -0.054360464 0.11218261 -0.07513918 -0.010801208 0.0635134 0.12464406 0.09326822
0.018966453 -0.03016157 -0.0067453957 -0.13735253 0.0038591598 -0.0036225196 0.11295303 0.07669424
-0.072777756 -0.14433336 -0.019608915 0.12246983 0.0108733885 -0.0069356547 -0.002383093 -0.0010383207
0.023291558 -0.061447863 -0.0035229675 -0.08532171 0.104189485 0.11179455 0.10990253 0.08509871
-0.06559117 0.18626207 -0.0032995292 0.065494284 0.0018736008 0.009504484 -0.020307144 -0.02421809
0.08110598 0.07661569 -0.058808714 -0.050336443 0.021970322 0.13224289 -0.0525524 -0.034631923
-0.022888107 0.07051929 0.0125991255 0.07162294 0.05575832 0.1639455 0.07349325 0.07279307
0.064134195 -0.0333608 -0.1275981 0.28364986 0.11627437 -0.07233504 0.12972604 0.0679277
0.0073680063 0.040443096 0.099504225 -0.06917798 0.04773214 0.1443349 -0.10270137 -0.0090586
0.08355926 0.04880118 -0.032692302 0.0607637 0.0800962 -0.0055699153 0.05020406 0.10142741
0.088432334 -0.043466236 0.010144369 0.051611513 0.10592552 0.1616582 0.043111674 0.04513522
0.0056185466 0.23189488 0.008717601 -0.08934864 -0.11681989 0.015912646 0.045769528 0.042247318
0.023077827 -0.064943776 -0.05281314 0.006088983 0.027788106 0.13747102 0.18726246 -0.08568372
0.17920473 0.019441457 0.011328153 0.095229775 -0.01606603 0.25971624 0.03705527 -0.18226735
0.087682866 0.037856366 0.081565 0.110533394 -0.03595093 -0.032455944 -0.0063164723 0.06961478
-0.036509067 -0.15856384 -0.0057908082 -0.029781254 -0.061379943 0.090258226 0.082871065 0.0020579763
0.0016294686 -0.0059379456 -0.18537213 -0.090743676 0.002372571 -0.062252574 0.10499655 -0.043966398
0.049470715 0.0050373753 -0.18236907 0.032228373 0.06390972 -0.048564702 0.060128015 -0.07470327
0.10181522 -0.10177623 0.068899006 -0.09419166 0.014692599 0.06594953 0.007660359 0.066700675
-0.014160518 -0.06242863 0.01256719 0.015531266 0.027693273 -0.08009333 -0.100313425 0.10290717
0.006494858 0.050199624 -0.04123013 0.0055781053 -0.062476963 -0.05564378 -0.05641061 0.11455695
0.008496107 -0.074050315 -0.03401653 -0.09685139 0.11610184 -0.12950672 0.043304846 -0.010185251
-0.11442576 -0.14831424 -0.043323502 0.017387934 0.060514547 -0.17800608 -0.03432843 0.09310422
-0.055486567 -0.17052537 -0.018211462 -0.11325435 0.18819542 -0.016426718 0.0364151 -0.10024476
0.02936077 0.18230438 0.009645364 -0.025940787 -0.054509073 -0.030060552 0.059420742 -0.05609329
-0.02019159 0.12933263 0.19204138 -0.07743594 0.08000938 0.08741936 0.034166418 0.09582965
0.040855814 -0.00013442607 0.0092569925 0.12330437 -0.028004002 -0.13242061 -0.07201201 0.05583762
0.06195212 0.14812742 -0.10046778 -0.005311986 0.033455987 -0.022841549 0.094709516 0.018344667
00000000: 9aee 4c3e d47c 883d decc 66bd 5d27 babd
00000010: ece5 d7bb 04ac 7bbe df22 4dbc b737 193d
00000020: 817b 03bc 1712 cf3c 8b92 8dbd edc2 60be
00000030: 4ce4 4cbd a2f6 e43d a255 f4bd 5dcd 933d
00000040: 6617 f83c 2aed 8ebd d4cb 2dbe 33f8 5c3d
00000050: f0b7 563d 9d6f 88bd 959d 8b3d 3a34 233d
00000060: 7929 f33d 3f69 3e3e 8cb5 8fbc baed a6bd
00000070: 32a9 ef3d f9e0 923d 787f 653e 2276 f73d
00000080: db50 c13d 14a9 5ebd ffbf e53d 92e2 99bd
00000090: 8df7 30bc 5013 823d 6345 ff3d 6903 bf3d
000000a0: 895f 9b3c 6615 f7bc 7b08 ddbb 24a6 0cbe
000000b0: f5e9 7c3b cb67 6dbb eb53 e73d df11 9d3d
000000c0: 810c 95bd 20cc 13be e0a2 a0bc 76d1 fa3d
000000d0: 4c26 323c 7d44 e3bb aa2d 1cbb 4318 88ba
000000e0: f0cd be3c c1b0 7bbd 96e1 66bb 26bd aebd
000000f0: 4c61 d53d 8bf4 e43d 9414 e13d 3c48 ae3d
00000100: aa54 86bd 7cbb 3e3e ea3c 58bb de21 863d
00000110: 9c93 f53a b2b8 1b3c 2b5b a6bc 0465 c6bc
00000120: e41a a63d b0e8 9c3d 68e1 70bd 962d 4ebd
00000130: 1bfb b33c ae6a 073e 2f41 57bd 34da 0dbd
00000140: d77f bbbc 6b6c 903d 906c 4e3c 0caf 923d
00000150: d662 643d 54e1 273e a183 963d 8814 953d
00000160: ca58 833d 56a5 08bd 14a9 02be 8e3a 913e
00000170: 4221 ee3d 6524 94bd e7d6 043e ae1d 8b3d
00000180: 516f f13b a9a7 253d dfc8 cb3d 2fad 8dbd
00000190: c782 433d 87cc 133e 1955 d2bd 866a 14bc
000001a0: 1e21 ab3d bfe3 473d 5de8 05bd 5ce3 783d
000001b0: 7a09 a43d d683 b6bb c6a2 4d3d 2db9 cf3d
000001c0: 031c b53d a709 32bd 9134 263c 9866 533d
000001d0: 7bef d83d ba89 253e de95 303d b5df 383d
000001e0: c91b b83b da75 6d3e 45d4 0e3c 6bfc b6bd
000001f0: 443f efbd 3d5b 823c d478 3b3d 860b 2d3d
00000200: b60d bd3c 3e01 85bd 9752 58bd 1786 c73b
00000210: e2a3 e33c 34c5 0c3e bbc1 3f3e f27a afbd
00000220: 7281 373e b143 9f3c b899 393c d407 c33d
00000230: e89c 83bc 87f9 843e 44c7 173d 4ba4 3abe
00000240: 1393 b33d 470f 1b3d 8d0b a73d 555f e23d
00000250: 4841 13bd 86f0 04bd 69fa cebb 3292 8e3d
00000260: 888a 15bd 8f5e 22be d2c0 bdbb d1f7 f3bc
00000270: 8969 7bbd 4ed9 b83d 4eb8 a93d 1ddf 063b
00000280: e593 d53a 1993 c2bb 31d2 3dbe d2d7 b9bd
00000290: 237d 1b3b 8efc 7ebd 6e08 d73d 1c16 34bd
000002a0: cea1 4a3d 9110 a53b f5be 3abe e601 043d
000002b0: 19e3 823d c8eb 46bd cb48 763d 07fe 98bd
000002c0: 8084 d03d 0e70 d0bd ec1a 8d3d 8fe7 c0bd
000002d0: 3ab9 703c 8c10 873d c003 fb3b 5d9a 883d
000002e0: 8401 68bc 2ab5 7fbd 9ee6 4d3c da76 7e3c
000002f0: 01dd e23c f907 a4bd 2071 cdbd ffc0 d23d
00000300: d1d2 d43b 1f9e 4d3d ede0 28bd 8ac8 b63b
00000310: d8e7 7fbd bbea 63bd d00e 67bd d69c ea3d
00000320: 4133 0b3c b1a7 97bd eb54 0bbd 065a c6bd
00000330: cdc6 ed3d 699d 04be 6c60 313d 0ae0 26bc
00000340: 0e58 eabd b0df 17be fc73 31bd 2471 8e3c
00000350: 1ade 773d 3a47 36be f89b 0cbd 6dad be3d
00000360: e245 63bd 349e 2ebe 3430 95bc e6f1 e7bd
00000370: 4db6 403e 5391 86bc 0028 153d 204d cdbd
00000380: ff85 f03c 00ae 3a3e 9707 1e3c c681 d4bc
00000390: e844 5fbd 8c41 f6bc 2a63 733d 14c2 65bd
000003a0: d568 a5bc c66f 043e 7fa6 443e bc96 9ebd
000003b0: f5db a33d ec08 b33d 16f2 0b3d 5642 c43d
000003c0: 6d58 273d b9f4 0cb9 a4aa 173c 0087 fc3d
000003d0: a668 e5bc 4599 07be 087b 93bd fdb5 643d
000003e0: 82c1 7d3d b7ae 173e 0dc2 cdbd 2b10 aebb
000003f0: 2509 093d 331e bbbc 10f7 c13d 8e47 963c
