static/ai/6/agent_black_2000/target_model.npz (npz, 559981 bytes, 8 tensors)

l2/b f4 [256]
0	0xbea7d7c5	-0.32781807
1	0xbd9d94e1	-0.07694412
2	0x3c71b98c	0.0147537105
3	0x3dbc0585	0.0918074
4	0xbdaf4832	-0.08558692
5	0x3d687e2b	0.05676095
6	0xbbbe0ebd	-0.005800097
7	0x3d859083	0.06521704
8	0x3c9bbac7	0.01900996
9	0xbd3ce777	-0.04611918
10	0xbe4373aa	-0.19087091
11	0x3d370be3	0.04468907
12	0xba6ed773	-0.0009111084
13	0x3d41bfda	0.047302105
14	0xbd784e9c	-0.060621843
15	0x3c590ab6	0.013247183
16	0x3a8779f2	0.0010336025
17	0xbcf118ec	-0.029430829
18	0x3db80798	0.089858234
19	0xbdc07d12	-0.09398855
20	0xbe035d30	-0.12828517
21	0x3d10194f	0.035180386
22	0xbc8ecda9	-0.01743205
23	0xbc8d6c7d	-0.017263645
24	0xbd5d164c	-0.053976342
25	0xbd9235f5	-0.07139198
26	0xbd4fefe2	-0.05076588
27	0x3d8ad313	0.067785405
28	0x3d0f411a	0.034974195
29	0x3de0c49b	0.109749995
30	0xbd754c49	-0.059887204
31	0x3e76247b	0.24037354
32	0x3aea9f45	0.0017900249
33	0xbe8b7056	-0.27234143
34	0xbca172c1	-0.01970804
35	0xbe3e86bf	-0.18606089
36	0x3d03b884	0.03215839
37	0x3f1b9f2a	0.6078974
38	0xbb9f4bd0	-0.0048613325
39	0x3e30c0d7	0.17261063
40	0x3c87b9cb	0.016568085
41	0x3e5ee3b4	0.2176655
42	0x3b43c4a1	0.0029871839
43	0xbd29ee7f	-0.041487213
44	0xbe77d9a9	-0.24204125
45	0xbd1f7aff	-0.038935658
46	0xbeaf8c4e	-0.3428673
47	0x3d4b73b7	0.0496709
48	0xbd0113bd	-0.031512965
49	0xbe1bbdaf	-0.15209077
50	0xbcfcf952	-0.030880604
51	0xbdaaa7ef	-0.08332812
52	0xbd4143aa	-0.04718367
53	0xbd0b245a	-0.033970214
54	0xbe26e0e5	-0.16296728
55	0x3e84ca30	0.25935507
56	0xbd8bb7c3	-0.06822159
57	0x3dc12d4c	0.09432468
58	0xbcbb7523	-0.022883004
59	0x3e846cc2	0.25864226
60	0xbe290162	-0.16504434
61	0xbded7ffb	-0.11596676
62	0xbd40e895	-0.047096808
63	0xbe1c8447	-0.15284835
64	0xbd97b9e7	-0.07408505
65	0xbc620222	-0.013794454
66	0xbe1d53e1	-0.15364029
67	0x3d5b5fde	0.053558223
68	0x3cb2a32d	0.021806324
69	0xbdbfc5db	-0.0936391
70	0x3c101b82	0.008795621
71	0x3d48a272	0.048983045
72	0xbed6310e	-0.418343
73	0x3b44e5da	0.0030044229
74	0xbc845fac	-0.016158901
75	0xbc25693a	-0.010095889
76	0xbdb7b18e	-0.08969413
77	0x3db23e03	0.08703234
78	0xbd61bf74	-0.055114225
79	0xbbc9ba70	-0.0061562583
80	0xbd5f72c8	-0.054552823
81	0x3e2a584f	0.1663525
82	0x3eb5ae53	0.3548456
83	0xbe4f4a8d	-0.20243283
84	0x3e918670	0.2842288
85	0xbd3c897c	-0.046029553
86	0x3d6ae88d	0.057350684
87	0xba848539	-0.0010110504
88	0x3c1f2082	0.00971234
89	0xbd1ce729	-0.03830639
90	0xbe26cd88	-0.16289341
91	0xbe189ac1	-0.14902784
92	0x3e8a10c6	0.26965922
93	0xbc728f1e	-0.01480463
94	0xbe403173	-0.18768863
95	0xbe21e73f	-0.1581087
96	0xbc0bfa02	-0.008543493
97	0xbdce48e3	-0.10072496
98	0x3d0ab0f0	0.033860147
99	0xbda0ba00	-0.07847977
100	0xbdca737c	-0.09885308
101	0x3dbd2e46	0.092373416
102	0xbe2a9632	-0.16658857
103	0xb9edc60a	-0.00045351713
104	0xbe9d3f07	-0.3071215
105	0x3ced39a4	0.02895815
106	0x3c329c35	0.0109015005
107	0xbc9f156f	-0.0194194
108	0xbe7833a8	-0.24238455
109	0xbe02d969	-0.12778248
110	0x3c5a80f8	0.013336413
111	0x3d18c85c	0.037300453
112	0x3bdd63f4	0.0067563
113	0xbebb6ace	-0.36604923
114	0x3bb39335	0.005480195
115	0xbe7d026f	-0.2470796
116	0x3e65bb69	0.22434773
117	0xbd35e36b	-0.044406336
118	0x3e115b8c	0.14195079
119	0x3d9a884f	0.0754553
120	0x3cf5d453	0.03000847
121	0x3d8c23d0	0.06842768
122	0xbd6055ec	-0.05476944
123	0x3d235075	0.03987165
124	0xbaaa8863	-0.0013010617
125	0xbe079028	-0.13238585
126	0xbc8eeb36	-0.017446142
127	0x3e08ec8d	0.13371487
128	0xbd899d6a	-0.067194775
129	0xbe023bc8	-0.12718117
130	0xbe6a0722	-0.22854283
131	0xbc8d0719	-0.017215298
132	0xbd771ab1	-0.06032819
133	0xbe1b2137	-0.15149389
134	0xbcd45ea1	-0.025924029
135	0xbe27b51e	-0.16377684
136	0xbc424dc4	-0.011859361
137	0x3cfae54d	0.030626917
138	0x3d099e93	0.033598494
139	0xbe040bbc	-0.12895101
140	0xbd61e702	-0.055151947
141	0xbc49711c	-0.012295034
142	0xbd853654	-0.06504503
143	0x3e99e2b4	0.30055773
144	0xbd292755	-0.041297276
145	0xbd1c3147	-0.038132932
146	0xbd4cfc0d	-0.05004506
147	0x3d8ed6c7	0.06974559
148	0x3e0819bd	0.13291068
149	0xbd2aba5e	-0.04168164
150	0x3df57158	0.11984509
151	0x3cb504a8	0.022096947
152	0xbe15bd59	-0.14623012
153	0xbe837162	-0.25672442
154	0x3e095efc	0.1341514
155	0xbd2ae6db	-0.041724067
156	0xbd368b91	-0.044566695
157	0xbd219a66	-0.039453886
158	0xbde052f1	-0.1095332
159	0xbe324a00	-0.17411041
160	0xbde48ca5	-0.11159638
161	0xbdc05b7d	-0.0939245
162	0xbd790d12	-0.06080348
163	0xbea05655	-0.31315866
164	0xbe80f9c1	-0.25190547
165	0x3cdb46e1	0.026767196
166	0x3afb57bc	0.0019175927
167	0xbdc49642	-0.09598972
168	0xbe9be7b7	-0.30450222
169	0x3e008d90	0.12554002
170	0xbb2ca628	-0.0026344154
171	0x3b290d62	0.002579533
172	0xbdda3cf8	-0.1065616
173	0xbc5f5019	-0.013629937
174	0xbd149bf6	-0.03628155
175	0xbeb68ea7	-0.3565571
176	0x3ced1cfd	0.028944487
177	0xbd7f0543	-0.062260877
178	0xbe083383	-0.133009
179	0x3e3660de	0.1781039
180	0xbe4b3e3a	-0.19847956
181	0x3c27f433	0.010251093
182	0x3c8d016a	0.017212588
183	0x3e9fc630	0.31205893
184	0xbd601417	-0.05470666
185	0xbdc2fd85	-0.09521011
186	0xbe8c13bd	-0.2735881
187	0xbd756714	-0.059912756
188	0xbe32d60c	-0.17464465
189	0xbe289820	-0.16464281
190	0xbe94c797	-0.29058525
191	0x3dc3db29	0.09563286
192	0x3e06e079	0.13171567
193	0xbe3d5fd4	-0.18493587
194	0xbcaba3e1	-0.020952167
195	0xbe7f9510	-0.24959207
196	0x3da7e5f0	0.08198154
197	0xbe455ec5	-0.19274433
198	0x39a7610a	0.00031925022
199	0x3b599a57	0.0033203566
200	0x3d0ba856	0.034096085
201	0xbd51db7b	-0.051234704
202	0xbc81d705	-0.0158496
203	0xbe3c1511	-0.18367411
204	0xbe4774dd	-0.19478174
205	0xbda87e37	-0.082271986
206	0xbd34a82c	-0.044105694
207	0xbe03f2e8	-0.1288563
208	0x3b4abca5	0.0030935195
209	0x3e1d683d	0.15371795
210	0xbc0a5d0a	-0.008445034
211	0xbdf508b0	-0.11964548
212	0xbe13a0d6	-0.14416823
213	0x3bcbcbf1	0.00621938
214	0xbe7693e2	-0.2407985
215	0xbe125d76	-0.14293465
216	0x3e77d8b1	0.24203755
217	0x3cb3e374	0.021959044
218	0xbc823928	-0.015896395
219	0xbe7d5dd2	-0.24742821
220	0xbdbf41ce	-0.09338723
221	0xbe7625d0	-0.24037862
222	0xbc8662b4	-0.016404487
223	0xbe8c0130	-0.27344656
224	0xbe04ee7e	-0.12981603
225	0x3c8d31cc	0.017235659
226	0x3dbedf2b	0.0931991
227	0x3d29a811	0.041420046
228	0xbd1b3e69	-0.037901316
229	0x3d2bcc2b	0.041942757
230	0xbe09f90a	-0.13473907
231	0xbe1bb000	-0.15203857
232	0xbe3e11fe	-0.18561551
233	0x3d6d9dfb	0.05801199
234	0xbd0d3904	-0.034478202
235	0xbc8b3c99	-0.016996669
236	0xbdf307a6	-0.11866693
237	0x3956ec28	0.00020496605
238	0xbed1d796	-0.40984792
239	0xbebfe1fc	-0.374771
240	0xbbc1237f	-0.005894124
241	0x3bc32481	0.0059552793
242	0xbe3424df	-0.1759219
243	0x3f54b61f	0.83090395
244	0x3c62f6a4	0.013852749
245	0xba3ce603	-0.0007205905
246	0x39297419	0.00016160346
247	0x3d30c20f	0.04315382
248	0xbe40df3b	-0.18835156
249	0xbc4a7141	-0.012356103
250	0xbe5c0b80	-0.21488762
251	0xbe0dfbd9	-0.13865604
252	0x3d8e0d60	0.06936145
253	0x3e244f26	0.16045818
254	0x3ced646e	0.028978553
255	0xbd824d75	-0.0636243

l2/W f4 [256, 256]
0	0x3e4b7f86	0.19872865
1	0x3d863cf2	0.06554593
2	0xbd663ee8	-0.056212336
3	0xbdc02a24	-0.09383038
4	0xbb72d08f	-0.003705058
5	0xbe79ec3f	-0.24406527
6	0xbc54fbff	-0.012999534
7	0x3d191bd4	0.037380055
8	0xbba3c0ea	-0.0049973624
9	0x3cc95e71	0.024581166
10	0xbd923129	-0.07138283
11	0xbe624745	-0.220975
12	0xbd52a98e	-0.05143123
13	0x3de4c153	0.11169686
14	0xbdf1d39b	-0.11807939
15	0x3d948e50	0.072537065
16	0x3cff970c	0.031199954
17	0xbd8dc76e	-0.06922804
18	0xbe2d4d79	-0.16924085
19	0x3d657529	0.056019936
20	0x3d5082a8	0.050905854
21	0xbd862f4c	-0.0655199
22	0x3d8cbe00	0.06872177
23	0x3d2296dd	0.039694656
24	0x3df111bb	0.1177096
25	0x3e3f6f28	0.18694746
26	0xbc77b3af	-0.0151185235
27	0xbda802cc	-0.082036585
28	0x3df3b475	0.11899654
29	0x3d9233aa	0.071387604
30	0x3e64451d	0.2229199
31	0x3df7cec1	0.12099982
32	0x3dc2ffec	0.095214695
33	0xbd5c5171	-0.053788606
34	0x3de5b9cc	0.112170786
35	0xbd99e27e	-0.07513903
36	0xbc2f9951	-0.010717706
37	0x3d8465c2	0.06464721
38	0x3dfecc88	0.12441355
39	0x3dbe3bf4	0.09288779
40	0x3c97ffeb	0.018554648
41	0xbcf189b5	-0.02948461
42	0xbbdeac54	-0.0067954455
43	0xbe0c0520	-0.1367383
44	0x3a2229b6	0.0006186025
45	0xbb34f9bb	-0.0027614671
46	0x3de6320d	0.11240015
47	0x3d99cd44	0.075098544
48	0xbd8fa4a1	-0.07013822
49	0xbe140cb2	-0.14457968
50	0xbca11446	-0.019662987
51	0x3df79b47	0.12090164
52	0x3c3c6d5c	0.011500683
53	0xbba97ade	-0.0051721176
54	0xbb8ba926	-0.0042621074
55	0xba880d13	-0.0010379873
56	0x3cbe2964	0.023213096
57	0xbd813bae	-0.06310211
58	0xbbb32a20	-0.005467668
59	0xbdaf75bf	-0.0856738
60	0x3dda2d7e	0.10653208
61	0x3ddcef98	0.107878864
62	0x3de24587	0.110484175
63	0x3dac89ce	0.08424722
64	0xbd83463c	-0.064098805
65	0x3e3fb975	0.1872309
66	0xbb4b9828	-0.0031066034
67	0x3d868555	0.065684
68	0x3a89e7bf	0.0010521336
69	0x3c14d515	0.009084006
70	0xbcbd67a1	-0.023120703
71	0xbcc96c16	-0.024587672
72	0x3da6942e	0.08133732
73	0x3d9bb0ba	0.07602067
74	0xbd746c98	-0.059673876
75	0xbd51dead	-0.05123775
76	0x3cc0dc89	0.02354266
77	0x3e06c241	0.1316004
78	0xbd54c048	-0.051941186
79	0xbd056b14	-0.03257282
80	0xbcbe1ec1	-0.023208024
81	0x3d96f326	0.07370596
82	0x3c3192c1	0.0108382115
83	0x3d92b105	0.0716267
84	0x3d65ea70	0.05613178
85	0x3e286dcd	0.16448136
86	0x3d9ad0d7	0.07559364
87	0x3d941853	0.07231202
88	0x3d83db43	0.06438305
89	0xbce2d668	-0.027690127
90	0xbe00a8ac	-0.12564343
91	0x3e91cba3	0.28475675
92	0x3debe4ec	0.11518273
93	0xbd93150d	-0.071817495
94	0x3e02be0f	0.12767814
95	0x3d8b6abb	0.068074666
96	0x3bc6d425	0.00606777
97	0x3d2a9f11	0.041655604
98	0x3dce9f63	0.10088994
99	0xbd8d870a	-0.06910522
100	0x3d3ec4f1	0.046574537
101	0x3e12f1ed	0.143501
102	0xbdd49c81	-0.10381413
103	0xbc36dea7	-0.011161483
104	0x3dad2a05	0.0845528
105	0x3d49b413	0.049243998
106	0xbd05e689	-0.03269056
107	0x3d807459	0.062721916
108	0x3da22be7	0.0791853
109	0xbbf5c0df	-0.0074997987
110	0x3d51a031	0.05117816
111	0x3dd1f97e	0.10252665
112	0x3db6dd87	0.08928972
113	0xbd3226fd	-0.043494213
114	0x3c23a741	0.009988607
115	0x3d53b96a	0.051690497
116	0x3dd8b676	0.10581677
117	0x3e2865fb	0.16445152
118	0x3d2ef71b	0.042716127
119	0x3d3c641d	0.045993913
120	0x3b9b4f30	0.0047396645
121	0x3e6dbf5d	0.2321753
122	0x3c05d5b5	0.0081686275
123	0xbdb7639c	-0.08954546
124	0xbdedbeb1	-0.11608637
125	0x3c88a544	0.016680367
126	0x3d3fdd6d	0.046842027
127	0x3d2f3fc6	0.04278543
128	0x3cc47d7f	0.023985622
129	0xbd84867f	-0.064709656
130	0xbd52dc32	-0.051479526
131	0x3be81a5c	0.0070832204
132	0x3ce93702	0.028468613
133	0x3e0f5826	0.1399847
134	0x3e3e4552	0.18581131
135	0xbdaec9bc	-0.085345715
136	0x3e37aa7c	0.17936128
137	0x3cbc30b5	0.022972444
138	0x3c3158d7	0.010824404
139	0x3dc20db2	0.094752684
140	0xbc7e7859	-0.015531623
141	0x3e84c38c	0.2593044
142	0x3d163d06	0.03667929
143	0xbe369739	-0.17831124
144	0x3db1a4b1	0.086739905
145	0x3d178540	0.03699231
146	0x3dab4dfa	0.08364482
147	0x3de40cf8	0.11135286
148	0xbd0e850a	-0.034794845
149	0xbd0e3409	-0.034717593
150	0xbc0595ad	-0.008153361
151	0x3d8e3867	0.06944352
152	0xbd11cbfd	-0.03559493
153	0xbe20ce13	-0.15703611
154	0xbbea410e	-0.0071488684
155	0xbcfa4074	-0.030548312
156	0xbd80a868	-0.06282121
157	0x3db5b4c3	0.08872368
158	0x3da582de	0.080816016
159	0x3a8ebe4e	0.0010890455
160	0x3b4e12e8	0.0031444374
161	0xbbd8d59a	-0.00661726
162	0xbe40559d	-0.18782659
163	0xbdb71e5f	-0.0894134
164	0x3b637376	0.0034706271
165	0xbd7ee8ad	-0.062233616
166	0x3dda0159	0.10644788
167	0xbd35fbd8	-0.04442963
168	0x3d4b3ea1	0.049620274
169	0x3bdd8710	0.0067604855
170	0xbe396e35	-0.18108447
171	0x3d03fcfb	0.032223683
172	0x3d892598	0.066966236
173	0xbd470aab	-0.04859416
174	0x3d7e9b74	0.06215997
175	0xbd97071f	-0.07374405
176	0x3dd11953	0.10209908
177	0xbdcd2c58	-0.100182235
178	0x3d8b3b13	0.06798377
179	0xbdc0d139	-0.09414906
180	0x3c72762d	0.014798683
181	0x3d8556fa	0.0651073
182	0x3c13aeca	0.009013841
183	0x3d88a0b6	0.06671278
184	0xbc7b4590	-0.015336409
185	0xbd775a91	-0.060389105
186	0x3c4d2f73	0.01252352
187	0x3c87e4bd	0.016588563
188	0x3cdea085	0.027176151
189	0xbda3f0b5	-0.080048956
190	0xbdcfa100	-0.1013813
191	0x3dd097fd	0.101852395
192	0x3ba2e6b5	0.00497135
193	0x3d4de945	0.05027129
194	0xbd22dc7f	-0.039761063
195	0x3bbbad39	0.005727437
196	0xbd832378	-0.064032495
197	0xbd5971bd	-0.053086985
198	0xbd6310fd	-0.055436123
199	0x3de9a724	0.11408833
200	0x3c2e2a82	0.010630252
201	0xbd938be1	-0.07204414
202	0xbd0c28dd	-0.034218658
203	0xbdc81c96	-0.09771077
204	0x3defe170	0.11712921
205	0xbe041987	-0.12900363
206	0x3d295c31	0.041347686
207	0xbc247796	-0.010038277
208	0xbdefbff2	-0.117065325
209	0xbe16a2eb	-0.14710586
210	0xbd302390	-0.043002665
211	0x3c91cd9c	0.017798238
212	0x3d7f585e	0.062340133
213	0xbe37402f	-0.17895578
214	0xbd03653b	-0.032078963
215	0x3dbdeeb8	0.092740476
216	0xbd6804b1	-0.0566451
217	0xbe2ea5ad	-0.17055388
218	0xbc9747b1	-0.018466802
219	0xbde50693	-0.111828946
220	0x3e42c9b9	0.19022264
221	0xbc85d022	-0.016334597
222	0x3d0f027d	0.034914482
223	0xbdceef76	-0.10104267
224	0x3ce2dafb	0.027692309
225	0x3e3a3dc7	0.18187629
226	0x3c0d8709	0.008638152
227	0xbcd4b237	-0.025963886
228	0xbd5f11fb	-0.054460507
229	0xbcff01a8	-0.03112872
230	0x3d6bfeca	0.057616033
231	0xbd631796	-0.055442415
232	0xbca7d73e	-0.020488378
233	0x3e04d41b	0.12971537
234	0x3e44d9c7	0.192237
235	0xbd9ec1ad	-0.077517845
236	0x3da3c8e0	0.07997298
237	0x3db503e5	0.088386334
238	0x3d0471cb	0.032335084
239	0x3dc6c8de	0.09706281
240	0x3d2c8877	0.04212233
241	0x3abd979a	0.0014464736
242	0x3be01954	0.006838957
243	0x3e00056b	0.12502067
244	0xbcda33d9	-0.026636051
245	0xbe0745c9	-0.13210215
246	0xbd8e182c	-0.06938204
247	0x3d647b45	0.05578162
248	0x3d790df7	0.060804334
249	0x3e1644d1	0.14674689
250	0xbdca7963	-0.09886434
251	0xbc044dd8	-0.0080752
252	0x3ce9ef1c	0.028556399
253	0xbcbe763e	-0.023249742
254	0x3dc30504	0.09522441
255	0x3c9936aa	0.018702824

l1/b f4 [256]
0	0xbe0ab326	-0.13544902
1	0xbe2a95bc	-0.16658682
2	0x3cb31c85	0.021864185
3	0xbdd248b0	-0.1026777
4	0xbe0983f2	-0.1342924
5	0x3f396368	0.72417307
6	0xbdeba937	-0.115068845
7	0xbc05b8fb	-0.008161779
8	0xbe4c0388	-0.19923222
9	0xbe8065c3	-0.25077638
10	0x3e519b19	0.20469321
11	0xbdaa7642	-0.08323337
12	0xbedbc931	-0.42926934
13	0x3cb0cda9	0.021582441
14	0xbe671277	-0.22565638
15	0x3d765800	0.060142517
16	0xbec7a169	-0.38990334
17	0xbd72e346	-0.059298776
18	0x3cce59b7	0.025189264
19	0xbeba264c	-0.36357343
20	0x3cd9956f	0.026560513
21	0xbd977ba7	-0.07396632
22	0xbc953f21	-0.018218579
23	0xbcf51fe8	-0.02992244
24	0xbe357a5b	-0.17722456
25	0xbe19eeb1	-0.1503246
26	0xbe0b15df	-0.13582562
27	0x3cdacc77	0.026708825
28	0x3e9c1a13	0.30488643
29	0xbdb68dcc	-0.08913764
30	0xbd0c3dad	-0.034238506
31	0x3c7dd082	0.015491607
32	0xbde8c2dc	-0.113652915
33	0xbdfc8869	-0.12330706
34	0xbe151532	-0.14558867
35	0xbb685a39	-0.0035454168
36	0x3c4cd147	0.0125010675
37	0xbd82e1c0	-0.06390715
38	0x3cf23aa3	0.029568976
39	0x3db889ab	0.09010633
40	0xbd7736f5	-0.060355145
41	0x3e94102b	0.28918585
42	0x3c20c68d	0.009812963
43	0xbdd47178	-0.10373205
44	0xbe0bd89b	-0.13656847
45	0xbe8f371b	-0.2797173
46	0xbdc49429	-0.09598572
47	0xbe478f5f	-0.19488285
48	0x3e7fb2af	0.24970506
49	0xbc7971a0	-0.015224844
50	0xbed30d7b	-0.41221222
51	0xbe1c6282	-0.15271953
52	0xbd9cc306	-0.07654385
53	0xbe9e6cb7	-0.30942318
54	0xbe01cbf6	-0.12675461
55	0x39c79223	0.00038065118
56	0xbf01e67f	-0.50742334
57	0x3d1b372d	0.037894417
58	0xbe5dbc31	-0.2165382
59	0xbc538013	-0.012908953
60	0x3e237f6f	0.15966581
61	0xbddee8dc	-0.10884258
62	0xbf17f164	-0.5935271
63	0x3c266e91	0.010158197
64	0xbe6329e1	-0.22183944
65	0xbe55b9b5	-0.20871623
66	0xbe25d7b1	-0.16195561
67	0xbc22caf0	-0.009936079
68	0xbac152cb	-0.0014749406
69	0x3d9bb99e	0.07603763
70	0xbe1898c8	-0.14902031
71	0xbdb06e43	-0.08614781
72	0xbdea690f	-0.114458196
73	0x3e085753	0.13314562
74	0xbdb13813	-0.086532734
75	0x3ec99449	0.39370945
76	0xbc945e34	-0.018111326
77	0xbdd307da	-0.10304232
78	0x3c7b82cd	0.01535101
79	0x3e4d16ee	0.20028278
80	0x3e11d2eb	0.14240615
81	0xbef03b24	-0.4692012
82	0xbdc6dc17	-0.097099476
83	0xbbfea885	-0.007771554
84	0xbe3380ce	-0.17529604
85	0xbe49611a	-0.19665948
86	0x3ec3223b	0.38112053
87	0xbe6e6117	-0.23279224
88	0x3c924531	0.017855259
89	0x3ec02123	0.3752528
90	0x3d1609e5	0.03663053
91	0xbd930ca3	-0.07180145
92	0x3da0f08d	0.078583814
93	0xbd22b4cd	-0.039723206
94	0x3d886e82	0.06661703
95	0xbe8cbd9e	-0.27488416
96	0x3cac58cb	0.021038434
97	0xbe26b4cb	-0.16279905
98	0x3ecfd5bb	0.4059275
99	0xbcb58131	-0.02215633
100	0x3e196e74	0.14983541
101	0xbe9c6488	-0.3054545
102	0xbe04aa60	-0.12955618
103	0xbe5f9848	-0.21835434
104	0xbd39e643	-0.04538561
105	0x3bfd32f5	0.007727022
106	0x3a6761cd	0.0008826524
107	0xbe64c30a	-0.22340026
108	0x3ca487fe	0.020084377
109	0xbe493881	-0.19650461
110	0xbe71c75f	-0.2361121
111	0xbec19a72	-0.37813145
112	0xbc12d6cb	-0.008962343
113	0x3d74f631	0.0598051
114	0xbe6b632a	-0.22987047
115	0xbbd12dda	-0.0063836398
116	0x3c269157	0.010166488
117	0xbefdcf87	-0.49572393
118	0x3cb69579	0.022288071
119	0xbb10e2fb	-0.0022107947
120	0xbe3407fa	-0.17581168
121	0xbe66f5a5	-0.22554643
122	0x3c961592	0.018320832
123	0x3d90a602	0.070629135
124	0xbc866053	-0.016403353
125	0xbd61f425	-0.055164475
126	0xbe8dd7ff	-0.27703854
127	0xbe6c6574	-0.23085576
128	0xbe6a6897	-0.2289146
129	0x3c26e7e8	0.010187127
130	0x3eb3a9ec	0.35090578
131	0xbe3f2919	-0.18668021
132	0xbe05ba33	-0.1305931
133	0xbeb8a966	-0.3606674
134	0xbe0f21fb	-0.13977806
135	0xbddb07a7	-0.10694819
136	0xbee1f0e1	-0.4412909
137	0x3d87c4c1	0.06629325
138	0x3db50cb9	0.08840317
139	0x3b6e9091	0.0036402086
140	0xbeeada7a	-0.4586981
141	0xbe1fa367	-0.15589677
142	0x3d532918	0.051552862
143	0xbeac814b	-0.33692393
144	0xbd43075c	-0.04761444
145	0xbc913691	-0.017726215
146	0xbe59092a	-0.21194902
147	0xbe777cac	-0.24168652
148	0xbe821f6f	-0.25414607
149	0x3c9455bc	0.018107288
150	0xbe0d5216	-0.13800845
151	0xbe83c8cb	-0.2573913
152	0x3c15794e	0.00912316
153	0xbba9c185	-0.00518054
154	0x3d8267b0	0.06367433
155	0xbe1dde72	-0.15416887
156	0xbe55c11e	-0.2087445
157	0x3d049d25	0.032376427
158	0x3e582645	0.21108349
159	0xbe1f1c31	-0.15538098
160	0xbcbe561b	-0.023234418
161	0xbc93dd87	-0.018049968
162	0xbcf76c1f	-0.030202923
163	0x3d7a03df	0.061038848
164	0xbd8e3e05	-0.06945423
165	0xbc4e1ab0	-0.012579605
166	0x3ded0f2e	0.11575161
167	0xbcf7341d	-0.030176217
168	0xbeaaf9c2	-0.33393675
169	0x3f0deee8	0.55442667
170	0x3e74d8a7	0.23910771
171	0xbcda7769	-0.026668267
172	0x3db64357	0.08899563
173	0xbc18cb17	-0.009325764
174	0x3d49901c	0.0492097
175	0x3cbf7fbb	0.023376336
176	0xbc737321	-0.014858992
177	0xbe717f2c	-0.23583668
178	0xbe3592d8	-0.17731798
179	0xbd1b744d	-0.03795271
180	0xbc588c52	-0.013217049
181	0xbe3e5ffd	-0.18591304
182	0xbe08156d	-0.13289423
183	0xbaf6c3f6	-0.0018826711
184	0xbe8ef580	-0.27921677
185	0xbe4c6530	-0.19960475
186	0xbe529ae1	-0.20566894
187	0xbdfa5bf9	-0.12224574
188	0xbe40fe15	-0.18846925
189	0xbcd4d340	-0.025979638
190	0x3d0cc725	0.034369607
191	0xbdd1d5ee	-0.10245882
192	0xbdd0e4de	-0.10199903
193	0x3d52776b	0.051383417
194	0xbca35fb1	-0.01994309
195	0xbea1802f	-0.3154311
196	0xbdbd591c	-0.09245512
197	0xbe7980ab	-0.24365489
198	0x3e06a449	0.13148607
199	0xbea54261	-0.32277206
200	0xbc58d5c8	-0.013234563
201	0xbd75ba7e	-0.059992306
202	0x3c9e5059	0.019325422
203	0x3dad32e0	0.08456969
204	0xbd9db495	-0.07700459
205	0x3b798471	0.0038073326
206	0xbb9d8502	-0.0048071155
207	0xbe209bee	-0.15684482
208	0x3d6546d8	0.055975765
209	0xbe710d43	-0.23540215
210	0x3e92f8cc	0.28705442
211	0xbe139538	-0.14412391
212	0xbe86d3ef	-0.26333568
213	0x3d4e10be	0.050308935
214	0xbe533eb9	-0.20629396
215	0x3d0b788e	0.034050517
216	0xbe62bb16	-0.2214168
217	0xbd9aa69f	-0.07551312
218	0xbdeef000	-0.1166687
219	0xbe8d0654	-0.2754389
220	0xbe4fb563	-0.20284037
221	0xbd219023	-0.0394441
222	0xbe1e36f5	-0.15450652
223	0xbdade1cb	-0.08490332
224	0xbe762b44	-0.24039942
225	0x3d455273	0.048174333
226	0xbde13f96	-0.10998456
227	0xbb43dd8b	-0.0029886689
228	0xbd8be980	-0.06831646
229	0xbe0b3190	-0.13593125
230	0x3dc3d259	0.09561605
231	0xbd846ad4	-0.06465688
232	0xbe1f6955	-0.15567525
233	0x3cde125b	0.027108362
234	0xbd476ff4	-0.04869075
235	0x3da50e4f	0.0805937
236	0x3d3149e1	0.043283347
237	0xbf092814	-0.5357678
238	0xbe12e6dd	-0.1434588
239	0x3c439c1b	0.011939074
240	0xbe610dae	-0.21977875
241	0xbd0afda0	-0.033933282
242	0xbdccd824	-0.10002163
243	0xbe97ed9e	-0.29673475
244	0x3c3d9117	0.011570237
245	0xbd9cfa7d	-0.07664964
246	0x3ed7f714	0.42180693
247	0x3ea33cdf	0.31882378
248	0x3d5ab33c	0.053393587
249	0x3d442b19	0.047892664
250	0xbe90458f	-0.2817807
251	0xbeab631c	-0.33474052
252	0xbd90479b	-0.07044908
253	0x3cab1e2e	0.020888414
254	0x3eb56bb9	0.35433748
255	0x3d9ee667	0.077587895

l1/W f4 [256, 36]
0	0x3eb58963	0.3545638
1	0xbee0d5e1	-0.43913177
2	0xbe477b99	-0.19480743
3	0x3d04eeef	0.032454427
4	0xbdbd48de	-0.09242414
5	0x3eb2997a	0.34882718
6	0x3d7b5eb8	0.061369628
7	0x3e398472	0.1811693
8	0xbd34df71	-0.044158403
9	0x3ec0b5cc	0.376387
10	0xbdccf91c	-0.10008451
11	0xbe331684	-0.17489058
12	0x3dad5f1c	0.08465406
13	0x3e24d5fd	0.16097255
14	0x3e992952	0.29914337
15	0xbdae1327	-0.08499747
16	0x3e374759	0.1789831
17	0x3e985819	0.29754713
18	0xbf0e8ec8	-0.55686617
19	0xbef55258	-0.47914386
20	0x3e768994	0.2407592
21	0x3cf504d0	0.029909521
22	0xbe89e1a9	-0.26929978
23	0xbe92dd67	-0.28684542
24	0x3e7a1091	0.24420382
25	0x3eaf07cf	0.34185645
26	0x3d043cce	0.03228455
27	0xbd5c95d2	-0.053853817
28	0xbf170450	-0.58990955
29	0x3e3bcdfa	0.18340293
30	0x3daff841	0.085922725
31	0x3e906858	0.28204608
32	0x3dbbb57f	0.09165477
33	0xbea0507f	-0.31311414
34	0xbe27b517	-0.16377674
35	0xbd979eb3	-0.07403316
36	0xbe008970	-0.12552428
37	0xbea2520b	-0.3170322
38	0xbdc6978e	-0.096968755
39	0x3d9e5c28	0.07732421
40	0x3c97141e	0.01844221
41	0x3e853eeb	0.26024565
42	0xbdb40774	-0.08790484
43	0x3e96dac6	0.29463786
44	0x3f1029b9	0.56313664
45	0x38d4a353	0.00010139369
46	0x3cc58f70	0.024116248
47	0xbec1daa0	-0.3786211
48	0xbd22e06f	-0.039764818
49	0x3efda60f	0.49540755
50	0x3daf2b68	0.08553201
51	0xbdc73292	-0.097264424
52	0xbdddc552	-0.108286515
53	0x3c74e780	0.014947772
54	0xbe509a20	-0.20371294
55	0xbe7afd38	-0.24510658
56	0xbe20e2fb	-0.15711586
57	0x3e7f5a61	0.2493682
58	0xbdd0a846	-0.101883456
59	0x3de6870d	0.11256228
60	0xbd002e1f	-0.031293985
61	0xbed7c7ee	-0.42144722
62	0xbe38f129	-0.18060745
63	0xbecac835	-0.3960587
64	0x3cbfd170	0.023415297
65	0x3ec943e7	0.39309618
66	0x3e8993d3	0.26870593
67	0x3e9452f9	0.28969553
68	0xbdba710c	-0.09103593
69	0x3e8df1e7	0.2772362
70	0x3eb111e8	0.34583974
71	0xbe9fed59	-0.3123577
72	0x3ee44969	0.44587258
73	0xbe43b431	-0.19111706
74	0x3d2c3bb7	0.042049136
75	0x3db91652	0.090374604
76	0xbb03f4e2	-0.0020134975
77	0x3c405912	0.011739986
78	0xbed28bdb	-0.41122326
79	0xbe06edc4	-0.13176638
80	0xbe4d81ec	-0.20069093
81	0x3e11f0c2	0.14251998
82	0x3ed3fcbc	0.4140376
83	0xbd16d44e	-0.036823563
84	0xbe3a1f85	-0.18176086
85	0x3d281769	0.04103795
86	0xbe1bf072	-0.15228441
87	0x3de919ba	0.1138186
88	0xbe2b1d80	-0.16710472
89	0xbeed1428	-0.4630444
90	0x3d1c34c4	0.03813626
91	0x3e30b301	0.17255785
92	0xbed822c5	-0.42214027
93	0xbdd9bdda	-0.106319144
94	0x3e535df8	0.20641315
95	0xbeaa2ebb	-0.33238778
96	0xbdef0ea1	-0.11672712
97	0xbe8481fd	-0.25880423
98	0xbd18e92d	-0.03733175
99	0x3d81811c	0.06323454
100	0x3e828291	0.2549024
101	0xbec78e5f	-0.38975808
102	0x3c87b426	0.016565394
103	0xbda112f7	-0.078649454
104	0x3e95d8e8	0.2926705
105	0xbe5d67a2	-0.21621564
106	0xbe48eb09	-0.19620909
107	0xbe6f16ac	-0.23348492
108	0x3e97fafb	0.2968367
109	0xbcf1c55b	-0.029513052
110	0x3e3b1914	0.18271285
111	0x3e73c3c4	0.23805147
112	0xbd03a6ee	-0.03214162
113	0x3d83a0c6	0.064271495
114	0xbf1420ae	-0.57862365
115	0xbcc3bc2c	-0.023893438
116	0x3ea32d9e	0.3187074
117	0x3e2451a9	0.16046776
118	0x3e44851d	0.19191404
119	0xbdde38e0	-0.10850692
120	0xbefb294f	-0.49054953
121	0x3ed3e547	0.41385862
122	0x3df32b5c	0.118735045
123	0x3e0c7c84	0.13719374
124	0xbd79ee89	-0.0610185
125	0xbe160602	-0.1465073
126	0xbeaf3ae9	-0.34224632
127	0x3de2004a	0.110352114
128	0xbc86d7c8	-0.016460314
129	0xbee7b151	-0.4525247
130	0xbd860227	-0.06543379
131	0x3e9b3076	0.3031041
132	0xbe9d3867	-0.30707094
133	0x3e13fe9d	0.14452596
134	0xbda876e9	-0.08225805
135	0x3e0681bb	0.13135426
136	0xbe5770d4	-0.21039134
137	0x3ee70e6f	0.451282
138	0xbe8278de	-0.2548284
139	0xbde1bdb5	-0.11022512
140	0x3de86aee	0.1134852
141	0xbdddf2e2	-0.10837342
142	0xbda41f82	-0.08013822
143	0xbdc56308	-0.09638029
144	0x3e6de124	0.23230416
145	0xb992a5a4	-0.00027970702
146	0x3ec75f16	0.38939732
147	0x3efd0f92	0.49425942
148	0x3e50d2af	0.2039287
149	0xbd4dae61	-0.05021513
150	0xbe64f77c	-0.22360033
151	0xbe9c9655	-0.30583444
152	0x3eb78863	0.35846242
153	0xbd0e1834	-0.03469105
154	0xbd30f77c	-0.04320477
155	0x3e32d79f	0.17465065
156	0x3e1e982b	0.15487735
157	0x3de8cb53	0.11366906
158	0xbe9212b7	-0.28529903
159	0xbeb87d19	-0.36032942
160	0xbe8cb42a	-0.27481204
161	0x3e9f7209	0.3114169
162	0x3e165a82	0.14682963
163	0xbe5d6d37	-0.21623693
164	0x3dff1e23	0.1245692
165	0xbf2507cf	-0.6446504
166	0x3eb37ebc	0.35057628
167	0xbd251926	-0.040307187
168	0xbd17b6cc	-0.037039563
169	0x3e19127c	0.14948457
170	0x3e2c14f5	0.1680487
171	0xbdffdd41	-0.12493373
172	0xbe83d769	-0.25750282
173	0x3e46b945	0.19406612
174	0x3e5c9885	0.21542557
175	0xbd3ce905	-0.046120662
176	0xbdd7697b	-0.10518166
177	0xbeb1cf17	-0.3472831
178	0xbe6299d6	-0.22128996
179	0x3ee24530	0.4419341
180	0x3c054eee	0.008136494
181	0xbdb4af2f	-0.08822476
182	0x3eac94ce	0.3370728
183	0xbdef59cc	-0.11687049
184	0xbe972b0a	-0.29525024
185	0x3e0fa2f5	0.14027007
186	0x3d8a15ce	0.0674244
187	0xbe221154	-0.15826923
188	0xbee9c788	-0.45660043
189	0x3e1a1b01	0.15049364
190	0x3e449dcb	0.19200818
191	0x3ee9fa29	0.4569867
192	0xb9fdf8a8	-0.00048441184
193	0xbc9e8d07	-0.019354356
194	0x3e4aebe2	0.19816545
195	0x3e1c8ee1	0.15288879
196	0xbe4f3e21	-0.20238544
197	0xbdbc2040	-0.09185839
198	0xbe4d1c18	-0.20030248
199	0x3e30127b	0.1719455
200	0x3eac376c	0.33636034
201	0x3e0ea5bc	0.1393041
202	0xbde831c0	-0.11337614
203	0x3decc1ea	0.11560424
204	0x3e7eafa3	0.24871688
205	0x3e24b3c0	0.16084194
206	0x3e1e3280	0.15448952
207	0xbe5c7da3	-0.21532302
208	0xbe905986	-0.281933
209	0x3e363cfc	0.17796701
210	0x3d1cb5c3	0.03825928
211	0x3c4bd6da	0.012441361
212	0x3d8a35a5	0.06748513
213	0xbd07e3fb	-0.033176403
214	0x3d663c68	0.05620995
215	0x3e97e8a0	0.29669666
216	0xbe09b51d	-0.13447995
217	0xbd52e364	-0.051486388
218	0x3ef0ed97	0.47056267
219	0xbe8fad8c	-0.28062093
220	0x3d2cbdd8	0.042173237
221	0x3e9b88e8	0.3037789
222	0xbd42ec86	-0.047588848
223	0x3dd1d7a4	0.10246208
224	0xbd9e9b85	-0.07744507
225	0xbe2bdd8e	-0.16783735
226	0xbdec88ba	-0.11549516
227	0x3f2f4cc9	0.6847654
228	0x3ea993c3	0.33120546
229	0x3e4f3f8f	0.2023909
230	0xbdf6f45e	-0.12058328
231	0xbd7b68fe	-0.061379425
232	0x3c3d86df	0.0115678
233	0xbe510b5f	-0.20414494
234	0xbd3ff627	-0.04686561
235	0xbe7cb175	-0.2467707
236	0xbcdbd990	-0.02683714
237	0xbdd66e44	-0.1047025
238	0x3e00f731	0.12594296
239	0x3ce1aa4e	0.027547028
240	0xbe8646e4	-0.2622596
241	0x3d6acef7	0.057326283
242	0x3ea06f3e	0.3133487
243	0xbe9fe59a	-0.3122986
244	0x3edc1f67	0.42992708
245	0x3e3da8bb	0.18521397
246	0xbed52e61	-0.41636947
247	0x3dfa0542	0.12208034
248	0xbee92cb5	-0.4554192
249	0xbe163f16	-0.14672503
250	0xbef8a81a	-0.4856575
251	0xbd80383c	-0.06260726
252	0xbd9b59ab	-0.07585462
253	0x3e913cf2	0.2836681
254	0x3dd28697	0.10279577
255	0xbed6b451	-0.41934446

l4/b f4 [36]
0	0xbe89eb09	-0.2693713
1	0xbea60903	-0.3242875
2	0xbe8e6233	-0.27809295
3	0xbe9b370e	-0.3031544
4	0xbe8703a8	-0.26369977
5	0xbec3fc2e	-0.38278335
6	0xbe825667	-0.25456545
7	0xbe2bb025	-0.16766413
8	0xbe2311a2	-0.15924695
9	0xbe23bee9	-0.15990795
10	0xbe40f249	-0.18842424
11	0xbe9891a5	-0.29798618
12	0xbe89c175	-0.26905409
13	0xbe41c209	-0.18921675
14	0xbd4275a4	-0.047475472
15	0xbd5ad046	-0.05342128
16	0xbe3195a9	-0.17342247
17	0xbe812802	-0.25225836
18	0xbe74f1b8	-0.23920333
19	0xbe66a270	-0.22522902
20	0xbdbb7513	-0.091531895
21	0xbda57c00	-0.08080292
22	0xbe1049f9	-0.14090718
23	0xbe9f5f03	-0.31127176
24	0xbe975276	-0.295551
25	0xbd81f24a	-0.06345041
26	0xbe7c5cb7	-0.24644743
27	0xbe345d3d	-0.17613693
28	0xbe48217f	-0.19544028
29	0xbe97bff3	-0.29638633
30	0xbea69064	-0.32532036
31	0xbe8a5abe	-0.27022356
32	0xbe31110d	-0.1729166
33	0xbe914f71	-0.2838092
34	0xbe801ce3	-0.2502204
35	0xbe52ea31	-0.2059715

l4/W f4 [36, 256]
0	0xbc847b6b	-0.016172132
1	0x3caaf7ba	0.020870078
2	0x3d9b7315	0.075903095
3	0x3b8d4432	0.004311108
4	0x3d2eaffa	0.042648293
5	0x3e49e1c7	0.19715033
6	0xbd70df91	-0.05880696
7	0x3e367efd	0.1782188
8	0xbe073b94	-0.13206321
9	0xbd189617	-0.03725251
10	0x3ba1c5a4	0.0049368907
11	0xbd31129e	-0.043230645
12	0x3db0fba8	0.086417496
13	0x3cb17049	0.021659987
14	0x3ce7cecb	0.028296849
15	0xbdf9be38	-0.121944845
16	0x3d6d32ff	0.05790996
17	0x3dc2012e	0.09472881
18	0xbcb4361e	-0.021998461
19	0x3dc38108	0.09546095
20	0x3e47748c	0.19478053
21	0xbb7561b4	-0.0037442269
22	0x3da6b6b2	0.08140315
23	0xbb160080	-0.0022888482
24	0xbd8e958d	-0.06962118
25	0x3dbcf0da	0.09225626
26	0xbe3537d4	-0.17697078
27	0xbde9063f	-0.113781445
28	0xbb485480	-0.0030567944
29	0x3d302ead	0.043013263
30	0xbdbf54fa	-0.0934238
31	0x3e4c8196	0.19971308
32	0xbd0f026b	-0.034914415
33	0xbb881587	-0.004152957
34	0xbb9ced55	-0.0047890344
35	0xbdbe75af	-0.0929979
36	0xbd59720c	-0.05308728
37	0x3d9092c1	0.07059241
38	0xbd39511d	-0.04524337
39	0x3d8ab5a7	0.06772929
40	0xbdb7170f	-0.08939945
41	0xbe569ffc	-0.20959467
42	0x3dba2325	0.090887345
43	0x3d95ea0b	0.07320031
44	0x3c197d7c	0.009368297
45	0xbe13216d	-0.1436822
46	0x3d7e93d4	0.0621527
47	0xbca40502	-0.02002192
48	0xbda2c30b	-0.07947358
49	0xbd08e0e4	-0.033417597
50	0xbd1f949e	-0.03896009
51	0xbd844563	-0.06458547
52	0xbee902f0	-0.45510054
53	0x3b511e83	0.0031909056
54	0x3de02699	0.10944862
55	0xbd558fb2	-0.05213899
56	0x3e5f6eb7	0.21819578
57	0xbe9f2884	-0.31085598
58	0xbd36f353	-0.044665646
59	0x3dab15eb	0.0835379
60	0xbbe983e1	-0.007126317
61	0xbe68828d	-0.22706051
62	0xbe19bc2c	-0.15013188
63	0x3c801c88	0.015638605
64	0xbe5e8b0c	-0.2173273
65	0xbe6197ec	-0.2203061
66	0x3d5b6e09	0.053571735
67	0x3e15c577	0.14626108
68	0xbe2a769e	-0.16646811
69	0x3e0fc85b	0.14041273
70	0x3d30bf1f	0.043151017
71	0xbe18f8d4	-0.1493867
72	0x3ba021f5	0.0048868605
73	0xbe63c275	-0.22242148
74	0x3df51acd	0.119680025
75	0xbdeb95a4	-0.11503151
76	0x3e7552c8	0.2395736
77	0x3e6f9a4c	0.23398703
78	0x3e54ee61	0.2079406
79	0x3df53593	0.11973109
80	0xbe80ec4a	-0.25180274
81	0x3c20a152	0.009804087
82	0xbe649bee	-0.22325107
83	0x3d788e43	0.060682546
84	0xbe5e1836	-0.21688923
85	0xbe1a67f5	-0.15078719
86	0x3d96ad7e	0.0735731
87	0xbd63331f	-0.055468675
88	0xbda096a6	-0.07841234
89	0xbdd67ce3	-0.10473039
90	0xbb2285ae	-0.0024798918
91	0xbe22f77c	-0.1591472
92	0x3dd6ed40	0.104944706
93	0x3c914fec	0.017738305
94	0x3e299e40	0.16564274
95	0x3d8f12b3	0.069859885
96	0xbe09cdf8	-0.13457477
97	0xbdcd9a45	-0.1003919
98	0x3e2726a8	0.1632334
99	0xbe267fea	-0.16259733
100	0x3c2ece32	0.010669278
101	0x3e02db91	0.1277907
102	0x3e1e9b8a	0.15489021
103	0x3dba52ff	0.090978615
104	0x3e6a7b61	0.22898628
105	0x3c4b0e46	0.01239354
106	0x3ddae658	0.10688466
107	0x3cab125d	0.02088278
108	0xbe71b05f	-0.23602436
109	0x3cc913f6	0.02454565
110	0xbe2fe392	-0.17176655
111	0xbe17def8	-0.1483115
112	0xbe5551b6	-0.20831951
113	0x3d4cf66d	0.050039697
114	0xbd3008f2	-0.04297728
115	0xbcb11e0a	-0.021620769
116	0xbe72598d	-0.23666973
117	0x3d6f47cb	0.058418076
118	0xbe86698d	-0.26252404
119	0x3e7dbf99	0.2478012
120	0x3cc75238	0.024331197
121	0x3de0db97	0.109793834
122	0x3caecf95	0.021339217
123	0xbd38a51b	-0.04507933
124	0xbd44bff2	-0.048034616
125	0x3da55472	0.08072747
126	0xbb9b4314	-0.004738221
127	0xbe05a1d2	-0.13050011
128	0xbcf8a8cd	-0.030353928
129	0x3e2688a0	0.16263056
130	0xbe326cf6	-0.17424378
131	0x3d26f76f	0.040763315
132	0xbe727927	-0.23679028
133	0xbd992af1	-0.074788935
134	0xbd64869e	-0.055792443
135	0x3da3d421	0.07999445
136	0x3d36ef0b	0.044661563
137	0xbb699883	-0.0035643883
138	0x3e51286e	0.20425579
139	0xbd97e097	-0.07415884
140	0x3e1f39d8	0.1554941
141	0xbe14aec5	-0.14519794
142	0x3d6ca76a	0.057776846
143	0xbe865479	-0.26236323
144	0x3e1135f5	0.14180739
145	0xbd040aec	-0.03223698
146	0xbd059ee8	-0.032622248
147	0xbd20591a	-0.039147474
148	0x3e3e1e49	0.1856624
149	0xbd760dbe	-0.0600717
150	0x3e15b44c	0.14619559
151	0xbe2c5f0c	-0.16833133
152	0xbd0b1ba4	-0.033961907
153	0x3d6db60d	0.058034945
154	0x3e8a791f	0.27045533
155	0xbbca1a11	-0.006167658
156	0xbdb8ef62	-0.09030034
157	0x3c8962bf	0.016770719
158	0xbd93475d	-0.07191346
159	0x3e886302	0.26638037
160	0x3d9a6a33	0.07539787
161	0xbe02ae73	-0.1276186
162	0xbdd73108	-0.10507399
163	0xbb88cf2f	-0.004175089
164	0xbd1d431e	-0.038394086
165	0x3db8c8f0	0.09022701
166	0x3dfa9505	0.122354545
167	0x3e0cd802	0.13754275
168	0xbe96739a	-0.29385072
169	0xbd3133c5	-0.043262262
170	0x3d3f089c	0.04663907
171	0xbd1e6d82	-0.038678654
172	0x3dc0dc21	0.09416986
173	0x3e672d85	0.22575958
174	0x3e2e577a	0.17025557
175	0xbbd354bf	-0.0064493115
176	0xbd0e3dc1	-0.034726862
177	0x3e290b1e	0.16508147
178	0xbe686655	-0.22695287
179	0x3d8c977d	0.068648316
180	0xbc55b83a	-0.013044411
181	0x3d4772f4	0.048693612
182	0x3dea4c00	0.11440277
183	0xbe32bf6d	-0.17455836
184	0xbd601153	-0.05470402
185	0x3e4ca126	0.19983348
186	0xbe773287	-0.24140368
187	0xbebd59ae	-0.36982483
188	0x3e234eff	0.15948103
189	0x3da38453	0.07984223
190	0xbde8b9e0	-0.11363578
191	0xbd49ee19	-0.049299333
192	0xbe54de9f	-0.20788048
193	0x3cf2233d	0.029557819
194	0x3ae948eb	0.001779822
195	0xbd1951f2	-0.037431665
196	0xbe71172b	-0.23543994
197	0xbc7c2941	-0.015390695
198	0x3c61b4cd	0.013776016
199	0x3d8b63e3	0.06806161
200	0xbedadb1d	-0.42745295
201	0xbe132972	-0.14371279
202	0x3dd55ea6	0.104184434
203	0xbda94b78	-0.08266348
204	0xbdf18ce0	-0.11794448
205	0x3d9e45c4	0.077281505
206	0xbd0dd29c	-0.03462468
207	0x3e2ee213	0.17078428
208	0xbd3acf2d	-0.045607734
209	0x3d66e8bc	0.056374297
210	0x3d9c846b	0.07642444
211	0xbc102fc8	-0.008800454
212	0x3da40635	0.080089964
213	0xbe2e3861	-0.17013694
214	0xbd62eaa2	-0.055399545
215	0x3b86fb25	0.004119294
216	0xbdd663f8	-0.10468286
217	0x3e7e6eb5	0.24846919
218	0x3dd0064c	0.10157451
219	0xbb0f7aea	-0.002189333
220	0x3d3bb422	0.045826085
221	0xbd59473f	-0.05304646
222	0x3e6a25c2	0.22865966
223	0x3dd77b2a	0.105215386
224	0xbe1f683e	-0.15567109
225	0x3bffbdd5	0.007804612
226	0x3e4784b6	0.19484219
227	0x3dc92071	0.09820641
228	0xbc2af997	-0.010435483
229	0x3c3643d6	0.011124572
230	0xbe23ca09	-0.15995039
231	0x3d04f41c	0.032459363
232	0x3e3a3a5b	0.18186323
233	0xbcd66df8	-0.026175484
234	0xbd87aded	-0.066249706
235	0xbe2c5f6e	-0.16833279
236	0xbd32f085	-0.04368641
237	0x3e01bb51	0.12669112
238	0x3d8cec42	0.06881
239	0x3d97adb4	0.07406178
240	0x3dc976ba	0.098370984
241	0xbd75c401	-0.060001377
242	0x3d6af6e0	0.057364345
243	0xbe749084	-0.23883253
244	0x3d2b6e26	0.041853093
245	0x3dc3ae70	0.09554756
246	0xbe24304a	-0.16034046
247	0x3de1a309	0.110174246
248	0x3e000b91	0.12504412
249	0xbde8f40f	-0.113746755
250	0xbe1aadfd	-0.15105434
251	0xbcbbbe77	-0.02291797
252	0x3db8254a	0.08991487
253	0x3e3971dd	0.18109842
254	0xbd4d3a91	-0.05010468
255	0xbdd36107	-0.10321241

l3/b f4 [256]
0	0x3de3472f	0.110975616
1	0xbcd899a6	-0.026440453
2	0xbd167e37	-0.03674146
3	0xbdd7124a	-0.10501535
4	0xbe340d87	-0.17583285
5	0xbde2995e	-0.11064409
6	0x3d857138	0.065157354
7	0x3d9134ab	0.07090124
8	0x3cf84d94	0.03031043
9	0xbc97cc40	-0.018530011
10	0x3e5cd98a	0.2156736
11	0x3a24fa89	0.0006293436
12	0xbe9a4c9e	-0.3013658
13	0xbe8e014c	-0.27735364
14	0xbc0ee078	-0.00872051
15	0xbe366513	-0.17811994
16	0xbce28eaf	-0.027655927
17	0x3dbd81ed	0.09253297
18	0xbe4deebf	-0.20110606
19	0xbbe30178	-0.0069276653
20	0x3d092aa8	0.033487946
21	0x3e0f250d	0.13978978
22	0xbe1e0b0c	-0.15433902
23	0x3cce814c	0.025208138
24	0xbb9fda32	-0.004878306
25	0x3b514c01	0.003193617
26	0x3c97f6bb	0.018550267
27	0xbd182ba7	-0.037151005
28	0xbd419a1a	-0.047266103
29	0xbd836169	-0.06415064
30	0x3cb9ada4	0.022665806
31	0x3d15e915	0.036599237
32	0x3d88f753	0.06687798
33	0x3d5c1e5b	0.053739887
34	0xbdc23f09	-0.09484679
35	0xbcc5e2c5	-0.024155984
36	0xbc16a666	-0.009194946
37	0x3ca4e3d4	0.020128168
38	0xbe39283a	-0.18081751
39	0xbe01228d	-0.12610836
40	0x3bc37415	0.005964766
41	0x3e2c87e8	0.16848719
42	0xbe2ad220	-0.16681719
43	0xbdab69b7	-0.08369773
44	0x3cea88a8	0.028629616
45	0x3c254ae4	0.010088656
46	0x3daca3ca	0.08429678
47	0x3d80dd91	0.062922604
48	0x3c89613d	0.01677
49	0x3c98fed6	0.018676203
50	0x3c5aad0d	0.013346923
51	0x3d2fcd0f	0.04292017
52	0x3e867226	0.26258963
53	0xbd058690	-0.032599032
54	0xbda9736a	-0.082739666
55	0x3d9c3f40	0.076292515
56	0xbc32e332	-0.010918425
57	0x3d1c05bd	0.03809141
58	0x3ab4d247	0.0013795578
59	0xbdbd6ce8	-0.09249288
60	0x3dd96cd0	0.106164575
61	0x3dc2bd22	0.095087305
62	0xbc2d474b	-0.01057608
63	0x3ca6223d	0.020279998
64	0x3e0380ab	0.12842052
65	0x3dd0af9f	0.10189747
66	0xbd917fb4	-0.071044356
67	0x3a826f44	0.0009951373
68	0x3d768dab	0.0601937
69	0xbd201da2	-0.03909076
70	0xbda62d18	-0.0811407
71	0x3cbbea00	0.022938728
72	0xbdfe5880	-0.12419224
73	0xbda89210	-0.08230984
74	0x3d836709	0.06416137
75	0xbcc808aa	-0.024418194
76	0xbe3975e2	-0.18111375
77	0x3cc15a7c	0.023602717
78	0x3d07c886	0.03315022
79	0x3c9ea13d	0.019363994
80	0x3da44904	0.08021739
81	0xbd406237	-0.046968665
82	0x3c4a5d05	0.012351279
83	0xbe942ed1	-0.28941968
84	0xbc5d6cb5	-0.013514687
85	0xbc1d3e85	-0.009597425
86	0xbd1dc983	-0.038522255
87	0xbbc3fe0d	-0.005981213
88	0xbddc8aa4	-0.10768631
89	0x3f1b1d95	0.60592014
90	0xbca1bff5	-0.019744853
91	0x3ce81fab	0.028335413
92	0xbe545ce5	-0.20738561
93	0x3dddd7db	0.10832187
94	0xbe9a58e0	-0.3014593
95	0xbe4c3126	-0.19940624
96	0xbce3222e	-0.02772626
97	0x3d471f34	0.048613742
98	0x3d3e38cb	0.04644088
99	0xbdb7cae2	-0.08974244
100	0x3e878634	0.26469576
101	0x3d0384a6	0.032108925
102	0x3d97d43a	0.07413526
103	0xbdc9efdc	-0.09860203
104	0xbc57559e	-0.013142971
105	0xbe54dec2	-0.207881
106	0x3bc3fbd5	0.0059809485
107	0xbd64c396	-0.055850588
108	0x3d624e92	0.05525071
109	0x3d1c12b1	0.038103763
110	0xbd0fc4c5	-0.035099763
111	0x3cdac859	0.026706861
112	0x3d597cba	0.053097464
113	0xbea6c1c7	-0.32569715
114	0x3d0c862f	0.034307655
115	0xbe28c7e8	-0.16482508
116	0x3b9b9692	0.004748174
117	0xbe5d980f	-0.21640037
118	0x3e082d0b	0.13298433
119	0xbd0b6af2	-0.034037538
120	0xbe961ce9	-0.29318932
121	0x3bf03e08	0.0073316135
122	0x3e37bfc0	0.1794424
123	0x3d59092d	0.052987266
124	0xbab0fec4	-0.001350366
125	0xbea1608b	-0.3151897
126	0x3d0ec661	0.034857158
127	0x3d908696	0.0705692
128	0xbdb97cf1	-0.09057034
129	0xba4705d9	-0.0007592119
130	0x3d819463	0.06327131
131	0xbd9d1715	-0.07670418
132	0x3bfa2275	0.007633502
133	0xbb8c9981	-0.00429076
134	0x3de1c0a1	0.11023069
135	0xbc880de1	-0.01660818
136	0xbda2dff5	-0.07952873
137	0xbe043801	-0.12911989
138	0xbe419f29	-0.18908371
139	0xbe8c5a59	-0.2741268
140	0xbd50b03e	-0.050949328
141	0x3c8c1752	0.017100964
142	0xbdc1f27f	-0.094700806
143	0xbd9cf443	-0.07663777
144	0xbd8e1544	-0.0693765
145	0x3b9ec792	0.004845568
146	0x3dba925c	0.09109947
147	0xbc8c2cbe	-0.017111178
148	0x3cfdd04a	0.030983109
149	0x3c4f36d5	0.01264735
150	0x3d9c7893	0.07640185
151	0x3c8ce70e	0.01720002
152	0xbe1b8db5	-0.15190776
153	0xbe35551e	-0.17708251
154	0xbbf3c824	-0.00743963
155	0xbe402175	-0.18762763
156	0xbdbeedb2	-0.093226805
157	0xbd806fbe	-0.06271313
158	0xbc62359d	-0.013806728
159	0x3e1af19f	0.15131234
160	0xbe87e22d	-0.26539746
161	0x3c1939f1	0.009352193
162	0xbcb8483c	-0.022495382
163	0xbd94f352	-0.07272972
164	0xb967102f	-0.00022035906
165	0x3ad95421	0.0016580859
166	0xbe6ab684	-0.22921187
167	0x3bc8dcc3	0.0061298325
168	0x3d8be353	0.06830468
169	0x3df6f438	0.120583
170	0x3b361c56	0.0027787886
171	0xbc65464e	-0.013993813
172	0xbd83a05f	-0.06427073
173	0xbd3aba44	-0.045587793
174	0x3c0d8ba1	0.008639247
175	0xbe2a7162	-0.16644815
176	0xbdb02295	-0.08600346
177	0x3d8e3d57	0.069452934
178	0x3da2c9df	0.0794866
179	0xbd1ceee9	-0.03831378
180	0x3debf3de	0.11521123
181	0xbe138127	-0.14404736
182	0x3cc6cec0	0.024268508
183	0xbde58215	-0.11206452
184	0xbd497a29	-0.049188767
185	0xbdedec77	-0.11617368
186	0xbacdca3d	-0.001570053
187	0x3d252726	0.040320538
188	0xbe3aaa13	-0.1822894
189	0xbe293e55	-0.16527684
190	0x3ce4fd6e	0.027952876
191	0x3d925f1a	0.071470454
192	0x3d0dbd75	0.03460451
193	0x3d37eb34	0.04490204
194	0x3c38bdca	0.011275718
195	0x3d5794bc	0.05263208
196	0x3d9c97a5	0.076461114
197	0x3d8b7abf	0.06810521
198	0xbe00de34	-0.12584764
199	0xbe9a6435	-0.30154577
200	0x3dda5656	0.106609985
201	0xbe51846e	-0.20460674
202	0xbde5b27d	-0.112156846
203	0x3c7b4e6a	0.01533852
204	0x3cc362e8	0.023850873
205	0xbebdb9e8	-0.37055898
206	0xbe5f8fe7	-0.21832238
207	0xbe99dc90	-0.30051088
208	0xbe1cba29	-0.1530539
209	0xbe4af186	-0.19818696
210	0xbe686ab9	-0.22696961
211	0xbcd90ed7	-0.026496334
212	0xbbe6c129	-0.0070420695
213	0x3da718cc	0.081590265
214	0xbda817c2	-0.082076564
215	0x398c4a69	0.0002675832
216	0xbc9de863	-0.01927585
217	0xbd3f9dc7	-0.046781328
218	0xbe484e29	-0.19561066
219	0xbe330a9f	-0.1748452
220	0xbc4ce649	-0.012506076
221	0xbcadee70	-0.02123186
222	0xbd4e5dd9	-0.05038247
223	0xbe98179b	-0.2970551
224	0xbc37aada	-0.011210168
225	0xbcba8428	-0.022768095
226	0xbc96df7d	-0.018417114
227	0xbe142e39	-0.14470758
228	0x3c0f753c	0.008755978
229	0x3ce12430	0.027483076
230	0xbc8e309f	-0.017357169
231	0x3d00413e	0.03131222
232	0x3d0f8550	0.035039246
233	0xbd2475fc	-0.04015158
234	0xbdca0054	-0.09863344
235	0x3cad29c1	0.021138074
236	0x3c1a0c6f	0.009402378
237	0x3b07ba99	0.0020710586
238	0xbd68749a	-0.056751825
239	0xbe05e7fe	-0.13076779
240	0x3ca35a65	0.019940564
241	0xbe2dfe29	-0.16991486
242	0xbd78b931	-0.060723487
243	0x3b140fb9	0.002259238
244	0x3c75d154	0.015003521
245	0xbe50fab7	-0.2040814
246	0xbe0e5d3d	-0.13902755
247	0x3d099772	0.033591695
248	0xbd89c2ad	-0.067265846
249	0x3d300092	0.042969294
250	0x3d0eba73	0.03484578
251	0x3e98ca41	0.29841807
252	0xbe140b49	-0.1445743
253	0x3c92a40a	0.017900486
254	0x3ad8989c	0.0016524973
255	0xbb62dce1	-0.0034616517

l3/W f4 [256, 256]
0	0xbde8f3ba	-0.11374612
1	0xbdc003b9	-0.0937571
2	0xbdd1d784	-0.102461845
3	0xbd6168e0	-0.055031657
4	0xbdf2f0a1	-0.118623026
5	0x3dadbde7	0.084834866
6	0xbe0cbfd0	-0.13745046
7	0x3e2790e5	0.16363867
8	0x3c5631b6	0.013073375
9	0x3b0e9a4a	0.0021759444
10	0x3ca00589	0.01953389
11	0xba8c5fcb	-0.0010709701
12	0xbda92b1a	-0.08260174
13	0x3c0f1b73	0.008734572
14	0x3d601ab3	0.054712962
15	0xbe254046	-0.161378
16	0xbd86555e	-0.06559251
17	0xbe59722b	-0.21234958
18	0x3e2cc7fd	0.16873164
19	0x3de2237e	0.11041926
20	0x3e64b9be	0.2233648
21	0xbd516dd0	-0.051130116
22	0x3d277e95	0.040892202
23	0x3dc843f0	0.09778583
24	0xbdce0997	-0.10060423
25	0x3d054968	0.03254071
26	0x3d27b416	0.040943228
27	0xbe5a58e5	-0.21322973
28	0x3d993937	0.07481616
29	0x3d4d390e	0.05010324
30	0x3dacdcff	0.08440589
31	0x3cec86cf	0.028872875
32	0x3d00e29a	0.031466104
33	0xbdd370d6	-0.10324256
34	0x3d8bbe31	0.068233855
35	0xbe475213	-0.19464903
36	0xbdf362e3	-0.118840955
37	0x3d43c574	0.047795728
38	0xbd599956	-0.05312475
39	0xbd9c2834	-0.07624856
40	0xbc9f1e6d	-0.019423688
41	0x3e2897cd	0.16464157
42	0x3db8be5b	0.090206824
43	0x3c721e7e	0.014777778
44	0x3d1d4dba	0.038404204
45	0xbc915cd5	-0.017744461
46	0xbdcd1e56	-0.10015552
47	0x3cf4a5cc	0.029864214
48	0x3d94671a	0.072462276
49	0x3c87f28e	0.016595151
50	0x3b8cd1d7	0.004297476
51	0xbd4b58d9	-0.04964528
52	0x3d022561	0.03177393
53	0x3d368851	0.044563595
54	0x3c03f021	0.008052857
55	0xbb81a526	-0.003956455
56	0x3bf97fdf	0.0076141204
57	0x3dcb61e8	0.099307835
58	0xbbe705f7	-0.0070502716
59	0x3e0b46ea	0.1360127
60	0x3d05303d	0.032516707
61	0x3d028730	0.031867206
62	0x3923f8d0	0.00015637581
63	0x3d8b28af	0.06794869
64	0x3dc93789	0.098250456
65	0x3d1550c7	0.03645399
66	0xbd5575d8	-0.052114338
67	0x3c676445	0.014123027
68	0xbd7a4c48	-0.061107904
69	0x3d3f6118	0.046723455
70	0xbd62ef25	-0.055403847
71	0x3dc70247	0.09717231
72	0xbe1da587	-0.15395175
73	0x3de471ba	0.11154504
74	0x3e119b07	0.14219294
75	0xbd84b1cf	-0.06479227
76	0xbe3f027d	-0.18653293
77	0x3e340122	0.17578557
78	0x3e235d21	0.15953495
79	0xbdbfee18	-0.09371585
80	0x3d33a2f8	0.04385659
81	0xbc939747	-0.01801647
82	0xbc8a3636	-0.016871553
83	0xbe6772c3	-0.22602372
84	0x3d86815a	0.065676406
85	0x3d20e1a9	0.039277706
86	0xbdee9d22	-0.116510645
87	0xbd04a2a6	-0.032381676
88	0x3d70f0d6	0.05882343
89	0xbb95d349	-0.0045723063
90	0xbda5e6c4	-0.08100656
91	0xbe069069	-0.13141026
92	0x3d1ee0fc	0.03878878
93	0x3bf8d5f1	0.007593863
94	0xbdaea089	-0.085267134
95	0x3e2d65fb	0.16933434
96	0x3da58554	0.08082071
97	0xbdd3cf0f	-0.10342228
98	0x3c8e5fa3	0.017379588
99	0xbe46e2c4	-0.19422442
100	0x3d6d44c2	0.0579269
101	0xbd11d828	-0.035606533
102	0xbc6b53be	-0.014363227
103	0xbcc602f7	-0.024171336
104	0xbd4d2430	-0.05008334
105	0x3d237168	0.039903075
106	0x3e381d0f	0.17979835
107	0xbe47230d	-0.19446965
108	0xbc15c526	-0.009141242
109	0x3dadc18b	0.08484181
110	0x3ce50847	0.027958049
111	0xbd864be4	-0.06557444
112	0x3d9af9c5	0.07567171
113	0xbe2028a6	-0.15640506
114	0x3db793f3	0.08963766
115	0xbe83f277	-0.25770923
116	0x3da8073a	0.08204503
117	0x3e02d178	0.12775218
118	0xbdd688ba	-0.10475297
119	0xbc2adc8b	-0.010428558
120	0x3bdffd9b	0.006835652
121	0x3c3e2468	0.01160536
122	0x3e0feec6	0.14055929
123	0xbd643565	-0.055714983
124	0xbde8f5ec	-0.11375031
125	0xbd5a838f	-0.05334812
126	0xbdab1814	-0.08354202
127	0x3d8c3bc9	0.068473406
128	0x3d656a90	0.05600983
129	0x3deb6cd6	0.11495368
130	0xbe0778ce	-0.13229677
131	0xbe2670ed	-0.16254015
132	0x3cb450a7	0.022011114
133	0xbcce5279	-0.02518581
134	0xbc82afed	-0.015953029
135	0xbe317c66	-0.1733261
136	0xbd977021	-0.07394434
137	0xbde3b92a	-0.111193016
138	0x3c47ff1d	0.01220682
139	0x3e3e82cd	0.18604584
140	0xbd49c1aa	-0.049256958
141	0x3e3336be	0.17501351
142	0xbe6e5853	-0.2327588
143	0x3cbd34b6	0.023096424
144	0x3c3c762a	0.011502782
145	0x3dbcba71	0.092152484
146	0xbd5247b0	-0.051337898
147	0x3c569c02	0.013098719
148	0x3da8b9d9	0.082385726
149	0xbd900b5b	-0.07033416
150	0xbd8ad700	-0.06779289
151	0x3d02157a	0.031758763
152	0xbe57acea	-0.21062055
153	0xbe8fd129	-0.28089264
154	0x3a2b24b4	0.00065286015
155	0xbd3ea5fd	-0.046545018
156	0x3db68967	0.08912926
157	0x3cfd4b0b	0.030919572
158	0xbe0cd2d2	-0.13752297
159	0x3c449198	0.011997603
160	0xbdd3f872	-0.103501216
161	0xbdf44644	-0.119274646
162	0xbe5ea8c7	-0.21744071
163	0x3d8393b2	0.06424655
164	0xbd279b86	-0.040919803
165	0xbd87e6ad	-0.06635795
166	0x3d07ce26	0.033155583
167	0xbdb03582	-0.08603956
168	0x3bc60697	0.006043266
169	0x3e30ff49	0.17284884
170	0x3d6a7966	0.05724468
171	0x3de52546	0.1118875
172	0xbd8cc066	-0.068726346
173	0xbe071bb3	-0.1319416
174	0x3b81a2f7	0.0039561945
175	0x3d9fc689	0.078015395
176	0xbc4722a1	-0.012154252
177	0xbe245f90	-0.16052079
178	0x3dbaddd5	0.09124342
179	0x3db1d2c4	0.086827785
180	0x3da2acab	0.0794309
181	0xbc9711a5	-0.01844103
182	0xbe072da0	-0.13200998
183	0x3e123aec	0.1428029
184	0x3ca76333	0.020433044
185	0x3d641843	0.0556872
186	0xbe408db3	-0.18804054
187	0x3ca4e033	0.020126438
188	0x3cfa706f	0.03057119
189	0xbe70ddf5	-0.2352217
190	0xbdc1b199	-0.09457702
191	0xbcf7f50c	-0.030268215
192	0x3e04e5b7	0.12978254
193	0xbe735b18	-0.23765218
194	0xbd270e05	-0.040784854
195	0xbdf8febd	-0.121579625
196	0xbdec7796	-0.11546247
197	0x3d5008d4	0.05078967
198	0xbccc7812	-0.024959598
199	0xbd6e69f9	-0.058206532
200	0xbdaaf559	-0.083475776
201	0x3dbd03ba	0.092292264
202	0xbcfbbc3f	-0.030729411
203	0x3cb70d55	0.022345224
204	0x3e23fb30	0.16013789
205	0xbd9815e9	-0.07426054
206	0xbd90c53d	-0.0706887
207	0x3d0fcf38	0.03510973
208	0x3a3746fe	0.00069914747
209	0xbc49eb06	-0.0123241
210	0xbda518f3	-0.08061399
211	0x3d8bbfbb	0.06823679
212	0x3d3902bf	0.045168635
213	0xbda856ab	-0.082196556
214	0xbc1c453c	-0.009537991
215	0x3d781bfe	0.06057357
216	0xbde07d73	-0.109614275
217	0xbdb83858	-0.08995122
218	0x3dd0e8ea	0.10200675
219	0x3bae59b1	0.0053207506
220	0x3cb14127	0.021637512
221	0xbe29ac44	-0.1656962
222	0xbdcef583	-0.101054214
223	0xbbe465c2	-0.0069701383
224	0x3d7f4e33	0.062330436
225	0xbd950ee9	-0.072782345
226	0xbd5b6897	-0.05356654
227	0xbcc3dd75	-0.02390931
228	0x3dca8684	0.09888938
229	0xbcd29232	-0.025704477
230	0xbdff3fc1	-0.12463332
231	0xbc9c0686	-0.01904608
232	0xbe265f5a	-0.16247311
233	0x3b8cc08a	0.0042954134
234	0xbd610811	-0.054939333
235	0xbd460b6a	-0.04835073
236	0xbca1d144	-0.019753106
237	0x3d018330	0.03161925
238	0xbd954d68	-0.07290155
239	0x3c8ab27f	0.016930817
240	0x3d03e03c	0.03219627
241	0xbcd4ab32	-0.025960539
242	0x3c60f53c	0.013730343
243	0x3e5f13ec	0.21784943
244	0xbd9bb0b7	-0.07602065
245	0xbd34e646	-0.04416492
246	0x3d2dbd2c	0.042416736
247	0xbd2c25bf	-0.042028185
248	0xbe19e706	-0.15029535
249	0x3e240c48	0.1602031
250	0x3e634e3b	0.22197811
251	0x3c7369c2	0.014856758
252	0x3d6e33a7	0.05815473
253	0xbbec50cd	-0.0072117806
254	0x3e5365e0	0.20644331
255	0x3a81c9bb	0.0009902039
