static/ai/4/agent_white_4000/model.npz (npz, 521755 bytes, 8 tensors)

l2/b f4 [256]
0.027475027 0.0032713416 0.04026513 0.013058076 0.0066992114 0.008097303 0.0062762825 -0.005459701
-0.019084627 0.03974926 0.013184669 0.016587224 -0.008303243 -0.007361012 0.054450627 -0.0149800265
-0.03938058 0.0090656 -0.033164345 0.046532277 -0.0029142296 -0.025206251 -0.008304473 -0.008184383
-0.040180955 -0.01803968 0.023240967 -0.010212825 -0.037540395 0.05649627 0.007941847 0.03771417
0.005258453 -0.025497995 -0.045731615 -0.00487159 0.013270215 0.014841845 0.040124737 -0.0051884884
-0.0605648 -0.0046730065 0.012919131 -0.0043946477 0.007656069 -0.00790819 0.026738424 -0.03472629
0.018774401 -0.018488344 0.0064061633 -0.01653173 -0.013709056 -0.0048785126 -0.011863136 0.043873392
-0.018825386 -0.0046687387 -0.013514507 -0.0013038763 -0.0026340582 -0.03719283 -0.003610526 0.013502601
-0.04117961 0.02394054 0.0033440199 0.00028797888 0.02391927 -0.014843203 -0.00089229236 -0.009717995
-0.024248574 0.017934566 0.009177403 0.028106593 0.030722838 -0.0068789828 0.021516213 -0.003020621
-0.042654134 -0.009044939 -0.026613524 0.010972723 -0.01995237 0.01542286 -0.0025393285 -0.015833577
-0.0056276126 -0.017583778 -0.017993942 0.014302906 0.019955937 -0.0037244197 -0.0319985 0.006764394
0.021880267 -0.0016804524 0.034859728 0.034407 0.013020657 -0.024686491 0.01718057 -0.014663455
-0.02222031 -0.010005776 -0.003667849 0.03102983 -0.024543671 0.020279882 0.013380663 -0.019352576
-0.0029338165 0.009226967 0.0046662968 0.041970838 0.0042894525 -0.029571712 -0.028768802 -0.012648953
-0.008322384 0.025948875 0.0018222175 -0.009907776 -0.008998585 -8.255691e-05 0.022375239 -0.015792688
-0.038029626 -0.012246526 -0.02536029 0.051499795 0.03214619 -0.015065438 -0.004589639 0.02301961
-0.010626858 0.0036798443 0.024062268 -0.0047983183 0.014657553 -0.0014651828 -0.013465034 0.008645029
0.05053539 0.012889327 -0.006900256 -0.024106143 -0.027680766 -0.0079636015 -0.011299802 0.0026230412
-0.029375015 -0.032611944 -0.011991722 -0.0025340326 0.023720847 0.045989506 -0.008961678 0.04093255
-0.05655087 -0.01289295 -0.03425887 -0.0008141085 0.015026305 -0.0039252774 -0.018831106 0.015944624
0.05030586 -0.0070810174 -0.0042155082 -0.009784945 -0.01235641 0.0 0.0035228021 -0.018048665
0.03445737 -0.012357572 -0.0010780148 0.042877693 0.004181689 -0.02453806 -0.030200945 0.02820138
0.0 0.018463688 -0.023920916 -0.017439717 0.016977081 -0.037090704 0.09762214 -0.0151151735
0.0008934302 0.0023609877 0.00886457 0.012244989 -0.013478845 0.0070179235 -0.018417114 -0.013702114
0.0009132869 0.02109662 0.032895286 -0.011568107 0.013358892 -0.019948846 -0.05062848 0.0052996217
-0.0074231504 -0.02079864 0.019251904 0.017819397 -0.010880767 0.038023327 -0.018897854 -0.018768195
-0.023880232 0.04305459 -0.022645324 -0.004272471 0.004118152 -0.040113945 0.026400112 -0.0066892356
-0.035223592 -0.036085315 -0.01156736 0.017029803 -0.024138289 -0.006814876 -0.00575307 0.04598872
-0.024586543 0.0033499182 0.018770168 0.0036478848 0.006130936 0.008325395 -0.0040716194 -0.028936239
-0.0100278035 -0.02388826 -0.06796236 0.0010120303 0.010584957 -0.057664607 -0.0269017 -0.030962154
-0.00030549944 0.01628149 0.010781973 -0.009022509 0.04828462 -0.05339929 0.005606949 0.054165624
00000000: 4f13 e13c 0164 563b 0ded 243d 8af1 553c
00000010: 0f85 db3b 8daa 043c 46a9 cd3b 4be7 b2bb
00000020: 5d57 9cbc 1fd0 223d 8304 583c eee1 873c
00000030: 530a 08bc a534 f1bb 9f07 5f3d c96e 75bc
00000040: 884d 21bd e287 143c 56d7 07bd a198 3e3d
00000050: a9fc 3ebb 577d cebc 7c0f 08bc ca17 06bc
00000060: c994 24bd f3c7 93bc d763 be3c b153 27bc
00000070: f5c3 19bd a268 673d 851e 023c 2c7a 1a3d
00000080: 1a4f ac3b 2ce1 d0bc 1351 3bbd dca1 9fbb
00000090: 516b 593c 362b 733c d659 243d 3204 aabb
000000a0: cc12 78bd 0520 99bb c3aa 533c fa00 90bb
000000b0: c3df fa3b 5a91 01bc 8a0a db3c 273d 0ebd
000000c0: c6cc 993c de74 97bc cbea d13b 8d6d 87bc
000000d0: f39b 60bc eedb 9fbb 995d 42bc 96b4 333d
000000e0: b237 9abc 38fc 98bb f36b 5dbc d4e6 aaba
000000f0: 2aa0 2cbb 8257 18bd 939e 6cbb 033a 5d3c
00000100: f3ab 28bd f41e c43c 5827 5b3b dffb 9639
00000110: 58f2 c33c e830 73bc bae8 69ba 3a38 1fbc
00000120: f2a4 c6bc 83eb 923c d15c 163c cc3f e63c
00000130: 76ae fb3c 1769 e1bb c542 b03c 9cf5 45bb
00000140: 1ab6 2ebd 3931 14bc 9b04 dabc f0c6 333c
00000150: 2773 a3bc 2ab0 7c3c dd6a 26bb 6bb5 81bc
00000160: d667 b8bb db0b 90bc 0868 93bc bc56 6a3c
00000170: a27a a33c 6515 74bb dc10 03bd daa7 dd3b
00000180: 3f3e b33c a042 dcba 13c9 0e3d 5bee 0c3d
00000190: 9854 553c 533b cabc 44be 8c3c fd3e 70bc
000001a0: 5e07 b6bc 44ef 23bc 4c60 70bb 4532 fe3c
000001b0: cf0f c9bc ff21 a63c 913a 5b3c 4b89 9ebc
000001c0: 4645 40bb b42c 173c bce7 983b 9de9 2b3d
000001d0: 898e 8c3b 6040 f2bc 8dac ebbc 8e3d 4fbc
000001e0: 9c5a 08bc bc92 d43c 79d7 ee3a 3954 22bc
000001f0: cd6e 13bc 6722 adb8 474c b73c ab5f 81bc
00000200: f4c4 1bbd a7a5 48bc 62c0 cfbc 73f1 523d
00000210: b9ab 033d 07d5 76bc af64 96bb 9f93 bc3c
00000220: 461c 2ebc 8b29 713b 3c1e c53c 363b 9dbb
00000230: 3c26 703c 600b c0ba 729c 5cbc e1a3 0d3c
00000240: 32fe 4e3d c12d 533c 8b1b e2bb 3f7a c5bc
00000250: c6c2 e2bc c479 02bc ce22 39bc 54e7 2b3b
00000260: dfa3 f0bc 1a94 05bd ed78 44bc 0312 26bb
00000270: 3952 c23c 7e5f 3c3d 00d4 12bc e4a8 273d
00000280: e3a1 67bd f43c 53bc 0753 0cbd e669 55ba
00000290: e430 763c 9d9f 80bb b143 9abc 4d9e 823c
000002a0: 840d 4e3d e107 e8bb 3f22 8abb 0951 20bc
000002b0: 8a72 4abc 0000 0000 d0de 663b cbda 93bc
000002c0: 2c23 0d3d 6a77 4abc 2d4c 8dba 85a0 2f3d
000002d0: 8d06 893b 0b04 c9bc f967 f7bc 9506 e73c
000002e0: 0000 0000 2941 973c ccf5 c3bc bddd 8ebc
000002f0: 8513 8b3c 6cec 17bd 1eee c73d a2a5 77bc
00000300: 1635 6a3a cdba 1a3b b43c 113c 359f 483c
00000310: 60d6 5cbc 9cf6 e53b 7ddf 96bc d57e 60bc
00000320: a569 6f3a d2d2 ac3c 35bd 063d 2888 3dbc
00000330: 41df 5a3c c36b a3bc cf5f 4fbd 73a8 ad3b
00000340: e63d f3bb e961 aabc 2bb6 9d3c fcf9 913c
00000350: 3f45 32bc 59be 1b3d accf 9abc c2bf 99bc
00000360: 7aa0 c3bc 025a 303d b082 b9bc 1600 8cbb
00000370: 90f1 863b 854e 24bd 0c45 d83c 6031 dbbb
00000380: 9d46 10bd 32ce 13bd 0685 3dbc 1682 8b3c
00000390: a9bd c5bc 534f dfbb 4084 bcbb ab5e 3c3d
000003a0: b869 c9bc 4d8a 5b3b e5c3 993c 5a11 6f3b
000003b0: 05e6 c83b 3d67 083c 386b 85bb b10b edbc
000003c0: a84b 24bc 50b1 c3bc da2f 8bbd 1aa6 843a
000003d0: 876c 2d3c b931 6cbd f460 dcbc 58a4 fdbc
000003e0: 712b a0b9 c260 853c dfa6 303c 25d3 13bc
000003f0: 18c6 453d 37b9 5abd 7fba b73b c6dc 5d3d

l2/W f4 [256, 256]
-0.038943168 -0.10852414 0.015718194 -0.06759735 -0.057427328 -0.008263289 -0.014309109 0.21286763
0.097218275 -0.042164244 0.060071055 -0.025476923 0.031088712 -0.1816405 0.040683668 -0.03453118
0.06436425 0.052598115 0.107973784 -0.16884637 -0.10693097 0.024123585 -0.09900465 0.3695359
0.05420419 0.045172255 0.030983057 -0.055007692 0.2565144 0.09888548 0.116465956 0.2008176
0.014321156 -0.08333386 0.22596413 0.06837456 0.040159076 -0.028764475 -0.052396342 0.09327796
0.14634782 0.13150781 -0.1640828 0.050750066 0.045642115 -0.007212826 0.071824215 0.30299845
0.0144050475 -0.060943615 -0.048557702 -0.09910578 -0.018597396 0.00693932 -0.007080535 0.00093519466
-0.08816124 0.013852278 0.22626844 0.06025213 -0.113117725 -0.15489464 0.010778819 -0.16552415
0.03256474 -0.012280747 0.072541356 0.03643053 -0.03103854 -0.09128952 -0.05252303 -0.10650171
-0.16097291 -0.105330445 0.14032488 -0.16587715 -0.09549042 0.050780173 -0.08102338 0.040937636
-0.008366199 -0.0538291 -0.119583555 0.022629807 0.039778113 0.1617029 0.045351546 -0.07883269
-0.0013752674 -0.31025577 0.13595368 0.12999634 0.017136589 -0.06568323 -0.1700529 -0.027335105
-0.06625648 -0.008309658 0.033918966 0.06343575 -0.04496409 -0.0560544 -0.090268075 -0.00018444314
-0.12165118 -0.06340007 -0.1424729 0.13800003 -0.008226967 0.1338903 -0.03551843 0.14784782
0.14661981 0.051977497 0.14214133 0.18942583 -0.16434434 -0.010368021 0.0938023 0.09158079
-0.06346553 -0.018824851 0.06803755 0.2513534 -0.106596924 -0.13652784 -0.079232045 -0.027519898
0.014541875 -0.047216255 -0.011087705 -0.020996133 0.16031355 -0.08839106 0.08427978 0.040397592
-0.07490272 0.032148205 0.1097367 0.032116957 0.1818578 0.0053582457 0.072661735 0.20426491
-0.08052774 -0.09749389 -0.095028326 -0.081396386 -0.11022612 -0.13650994 0.0069985837 -0.00861608
0.09556585 -0.021583537 -0.097711824 -0.07760905 -0.1352908 0.080187656 -0.07368174 -0.012636134
-0.083901204 0.20958896 -0.057249993 0.028288856 0.109498344 -0.035117738 0.10464592 0.02215726
0.075873084 0.11224034 0.06192917 -0.06938395 -0.009242724 0.050317686 0.093012415 -0.06288346
0.07641733 0.07201186 -0.010949436 0.060441278 -0.06853583 0.029600699 -0.010989997 -0.13987263
0.0434969 0.15487343 -0.06745673 -0.1992404 -0.044558987 0.023027992 0.1725638 0.097309746
-0.033160318 -0.08517189 0.13281652 0.035708662 0.074749164 0.037834886 0.06558422 -0.0025527384
-0.0870316 0.18678872 0.09797546 -0.038274538 -0.04930417 -0.06828968 0.008053812 0.069812454
-0.0150838755 0.027109675 0.06644615 -0.05137806 -0.106544144 -0.07360707 -0.0022445447 -0.07077878
0.020602487 0.09752912 0.11181192 -0.05488128 -0.041304313 0.036568426 0.11875034 -0.19210355
-0.05128479 -0.16166575 0.17190874 -0.13694958 0.014237568 -0.11704713 0.09517813 0.012215286
0.0432572 -0.02698212 0.07696592 0.010401233 0.22706611 -0.040307753 0.048233256 -0.0996352
-0.06155071 0.17793271 -0.04555227 0.066113144 -0.08097393 0.1881188 0.025206069 0.067209676
-0.06449831 -0.02874736 0.004051732 -0.04032492 -0.120787255 0.046849772 0.06679204 0.0017545936
00000000: df82 1fbd e841 debd 71c3 803c 7b70 8abd
00000010: eb38 6bbd bf62 07bc c170 6abc f9f9 593e
00000020: 601a c73d 6ab4 2cbd 110d 763d fbb4 d0bc
00000030: c1ad fe3c f8ff 39be eba3 263d 9170 0dbd
00000040: 67d1 833d 1f71 573d 5c21 dd3d 10e6 2cbe
00000050: a0fe dabd d39e c53c f3c2 cabd cf33 bd3e
00000060: 3605 5e3d 8b06 393d 2ed0 fd3c bf4f 61bd
00000070: db55 833e 7884 ca3d b485 ee3d 21a3 4d3e
00000080: 48a3 6a3c f1aa aabd 2463 673e f607 8c3d
00000090: d87d 243d 7aa3 ebbc 8c9d 56bd 8408 bf3d
000000a0: 34dc 153e fca9 063e 5205 28be 4ddf 4f3d
000000b0: 3af3 3a3d 9259 ecbb 9318 933d 9d22 9b3e
000000c0: 2603 6c3c 03a0 79bd 71e4 46bd f9f7 cabd
000000d0: 9159 98bc 3c63 e33b d503 e8bb da27 753a
000000e0: e18d b4bd aaf4 623c eab2 673e f0ca 763d
000000f0: 44aa e7bd b39c 1ebe a599 303c 2a7f 29be
00000100: 9b62 053d 3035 49bc 9090 943d 2e38 153d
00000110: 8944 febc 00f6 babd 6422 57bd 921d dabd
00000120: 15d6 24be 7db7 d7bd 53b1 0f3e b3db 29be
00000130: 7b90 c3bd dffe 4f3d 96ef a5bd 39ae 273d
00000140: 6212 09bc e77b 5cbd 39e8 f4bd 2562 b93c
00000150: 60ee 223d 7295 253e 8bc2 393d 0973 a1bd
00000160: 5142 b4ba d8d9 9ebe 7137 0b3e c31d 053e
00000170: 0862 8c3c ee84 86bd 5922 2ebe dfed dfbc
00000180: 7ab1 87bd 3b25 08bc 9dee 0a3d 9aea 813d
00000190: 442c 38bd 4c99 65bd 78de b8bd 1467 41b9
000001a0: 4124 f9bd e5d7 81bd 6ae4 11be e14f 0d3e
000001b0: 67ca 06bc 8a1a 093e c67b 11bd 6b65 173e
000001c0: 8123 163e 5be6 543d 7f8d 113e d8f8 413e
000001d0: e249 28be a2de 29bc 6c1b c03d b68e bb3d
000001e0: 37fa 81bd 9336 9abc 4557 8b3d 65b1 803e
000001f0: 7d4f dabd f4cd 0bbe 6944 a2bd 6971 e1bc
00000200: 0b41 6e3c d565 41bd 35a9 35bc 1500 acbc
00000210: 3c29 243e 5f06 b5bd e19a ac3d f277 253d
00000220: 9966 99bd d6ad 033d a3bd e03d 128d 033d
00000230: ee38 3a3e 3994 af3b adcf 943d d22a 513e
00000240: baeb a4bd e0aa c7bd 369e c2bd 26b3 a6bd
00000250: 3bbe e1bd 43c9 0bbe 6054 e53b 752a 0dbc
00000260: 07b8 c33d f5cf b0bc 231d c8bd 7ef1 9ebd
00000270: ac89 0abe 6d39 a43d 74e6 96bd ca07 4fbc
00000280: 65d4 abbd 7d9e 563e f87e 6abd 08be e73c
00000290: ab40 e03d 9ed7 0fbd 9a50 d63d 2483 b53c
000002a0: 5963 9b3d 43de e53d 71a9 7d3d 2c19 8ebd
000002b0: cb6e 17bc eb19 4e3d 4b7d be3d 0bc9 80bd
000002c0: b080 9c3d f47a 933d 4365 33bc 4691 773d
000002d0: 835c 8cbd 2a7d f23c 630f 34bc c53a 0fbe
000002e0: ce29 323d 2497 1e3e c126 8abd ad05 4cbe
000002f0: 7c83 36bd 33a5 bc3c 91b4 303e 554a c73d
00000300: 1dd3 07bd 9a6e aebd 0e01 083e 3f43 123d
00000310: 1716 993d c1f8 1a3d 0551 863d d84b 27bb
00000320: a03d b2bd 8b45 3f3e 5ca7 c83d c3c5 1cbd
00000330: 2bf3 49bd 76db 8bbd 23f4 033c d5f9 8e3d
00000340: 5c22 77bc 1c15 de3c eb14 883d cd71 52bd
00000350: d133 dabd 4ebf 96bd 3619 13bb 77f4 90bd
00000360: 8cc6 a83c 59bd c73d a6fd e43d 31cb 60bd
00000370: b62e 29bd c6c8 153d 6133 f33d cbb6 44be
00000380: 0010 52bd b58b 25be d808 303e 833c 0cbe
00000390: b044 693c 68b6 efbd c0ec c23d 9f22 483c
000003a0: 762e 313d 9b09 ddbc 4fa0 9d3d ef69 2a3c
000003b0: 0584 683e be19 25bd 3c90 453d 8a0d ccbd
000003c0: 991c 7cbd fe33 363e 0495 3abd 5466 873d
000003d0: a9d5 a5bd 37a2 403e f57c ce3c 3aa5 893d
000003e0: b117 84bd 957f ebbc 64c4 843b be2b 25bd
000003f0: 4f5f f7bd 8ce5 3f3d 44ca 883d 64fa e53a

l3/b f4 [256]
0.035078187 0.004817578 -0.035314687 -0.00019192361 -0.012196161 0.036045477 -0.0022848737 0.0077564353
0.012043529 0.024280023 0.07498076 -0.027576663 0.009181225 -0.0071151895 0.022110006 -0.020974306
0.013450819 -0.0134419855 0.00031554615 -0.021028064 0.003438767 0.026390854 0.016466053 0.0023919074
0.021016968 0.009610946 0.01418329 0.0036495468 -0.012366887 0.01341581 -0.016553424 0.002276756
0.023760023 0.012535262 0.009219805 -0.018231688 0.058501977 0.038350757 -0.015716882 -0.04138718
-0.0022209382 0.01495971 -0.0056812125 0.02661612 0.018682992 0.05105248 0.032346364 -0.03454815
-0.032004505 -0.015111623 -0.011554974 -0.013595 0.03288215 -0.0017074777 -0.012575442 0.028763793
0.041885212 0.03645748 -0.030492352 -0.0058210664 -0.05179232 -0.023562377 -0.0002865564 0.07480276
0.046905003 -0.027939169 0.011751225 -0.027253097 -0.039329354 -0.010809748 0.016683426 -0.019101227
-0.018083699 -0.0188907 -0.005830475 -0.01665595 0.029633729 0.06112578 -0.032583475 -0.00018533318
-0.010769892 -0.037032474 -0.0037505953 -0.0057095583 -0.013298483 -0.007102538 -0.006120074 -0.015842946
-0.023663284 -0.014717776 0.00047113496 -0.007448695 -0.0030665025 -0.03400322 0.024255719 -0.019412404
-0.0059648855 0.06581525 -0.011657479 0.055981766 -0.023934882 -0.07278469 0.01726192 -0.021542119
-0.029260077 0.0015424937 0.0725675 0.021925906 -0.03848439 -0.012721917 0.088549964 0.005214021
0.007714273 -0.06700022 0.031817485 0.013419319 -0.042549822 -0.017646845 -0.027320838 0.056383047
-0.0005850913 0.039466593 0.0013412932 0.011600616 -0.050774153 -0.009717979 -0.009477442 -0.010045641
0.08433987 -0.037743725 -0.024618693 0.011128292 0.0058363313 0.0132108675 0.027135072 -0.0013620282
-0.051879387 -0.02232198 0.008855042 -0.015478921 -0.028381886 -0.038721465 -0.010035994 0.019740932
0.03821344 -0.024078084 -0.010840937 -0.02053432 0.02354006 -0.013743152 -0.009797738 0.01181056
0.014011789 -0.03524931 -0.022388492 -0.017251868 -0.034897853 0.028879758 0.090211205 -0.023813056
0.011991876 -0.002414959 -0.008575802 -0.0039383634 -0.0060701715 -0.019913482 0.06186906 0.07626268
0.007577233 -0.03135857 0.029498376 0.04809408 0.01709129 -0.0118500795 -0.028157214 -0.025150392
0.037162114 0.0029733002 -0.01684894 0.02174649 -0.03480346 0.039154593 0.0007511994 -0.015681863
0.010205549 0.008083311 -0.00946202 0.006825592 -0.0014168866 0.05030858 -0.01280746 -0.0046331827
-0.014529389 -0.043588683 0.02504366 -0.00016018732 -0.018145347 0.0076841107 -0.022490723 -0.008833446
-0.013619663 -0.037729427 0.047870114 -0.0129708005 -0.0064921915 0.025987089 -0.01088389 -0.0162012
-0.019633127 -0.00778654 0.039041366 -0.047209173 -0.025973761 -0.024259524 0.03752649 0.016762882
0.020046962 -0.015010346 -0.011229503 -0.0030676976 -0.011426199 -0.011055814 -0.0088882325 0.017493555
-0.017383754 -0.019427814 -0.053538382 -0.02450301 -0.007001089 0.07228468 0.033310026 -0.017872116
-0.0005295426 0.04032308 -0.0009071112 0.01690439 0.004216177 -0.0032857715 -0.005498622 0.0075540873
0.050170593 -0.015614377 -0.018845055 -0.0026615928 -0.00811429 0.012564983 0.024487974 0.03605888
0.04699848 -0.016548596 -0.02468016 -0.007863128 0.029260436 -0.025047276 -0.0013440483 0.006179601
00000000: 25ae 0f3d c6dc 9d3b 22a6 10bd 1a3f 49b9
00000010: 68d2 47bc 6ca4 133d d2bd 15bb b229 fe3b
00000020: 3952 453c e6e6 c63c 838f 993d 74e8 e1bc
00000030: d96c 163c 8926 e9bb 0b20 b53c 4fd2 abbc
00000040: d360 5c3c c63b 5cbc e36f a539 0c43 acbc
00000050: f05c 613b a231 d83c d1e3 863c 8cc1 1c3b
00000060: c72b ac3c 3b77 1d3c 0861 683c 3c2d 6f3b
00000070: 7c9e 4abc fccd 5b3c 0c9b 87bc a135 153b
00000080: 61a4 c23c b360 4d3c aa0e 173c 9f5a 95bc
00000090: c59f 6f3d af15 1d3d b1c0 80bc 9b85 29bd
000000a0: 298d 11bb 9219 753c 7729 babb 0d0a da3c
000000b0: 130d 993c 681c 513d 9f7d 043d 5c82 0dbd
000000c0: 2817 03bd be96 77bc 1351 3dbc 90bd 5ebc
000000d0: 6faf 063d 72cd dfba 3a09 4ebc 0ca2 eb3c
000000e0: d48f 2b3d 7054 153d 19cb f9bc a5be bebb
000000f0: 2f24 54bd e305 c1bc f33c 96b9 3032 993d
00000100: 761f 403d afe0 e4bc 3688 403c e341 dfbc
00000110: d117 21bd 5f1b 31bc aeab 883c 2d7a 9cbc
00000120: 4424 94bc abc0 9abc 920d bfbb 0f72 88bc
00000130: 6fc2 f23c 075f 7a3d 4076 05bd ff55 42b9
00000140: 3374 30bc 5daf 17bd 8ccc 75bb 3f17 bbbb
00000150: e1e1 59bc 68bc e8bb e78a c8bb 11c9 81bc
00000160: 81d9 c1bc d422 71bc aa02 f739 2f14 f4bb
00000170: 60f7 48bb f646 0bbd eeb3 c63c c306 9fbc
00000180: 1675 c3bb 25ca 863d 03ff 3ebc 234d 653d
00000190: 1613 c4bc 2410 95bd df68 8d3c 1979 b0bc
000001a0: d4b2 efbc 802d ca3a 459e 943d f59d b33c
000001b0: cfa1 1dbd 966f 50bc af59 b53d 61da aa3b
000001c0: 03c8 fc3b 6937 89bd 0d53 023d b4dc 5b3c
000001d0: b948 2ebd 1e90 90bc f3cf dfbc e9f1 663d
000001e0: d060 19ba b9a7 213d 55ce af3a 8310 3e3c
000001f0: 8ff8 4fbd 2838 1fbc 4647 1bbc 7996 24bc
00000200: 62ba ac3d 2a99 1abd 24ad c9bc 7153 363c
00000210: b23e bf3b 6572 583c 5f4a de3c 1586 b2ba
00000220: 7b7f 54bd 96dc b6bc bd14 113c 4d9b 7dbc
00000230: 2181 e8bc 669a 1ebd 036e 24bc bcb7 a13c
00000240: b285 1c3d 673f c5bc 2f9e 31bc 9737 a8bc
00000250: 15d7 c03c f52a 61bc b186 20bc 1481 413c
00000260: b491 653c 9561 10bd 1268 b7bc ca53 8dbc
00000270: 0df1 0ebd 3e95 ec3c a7c0 b83d 9913 c3bc
00000280: 9379 443c 4a44 1ebb 8581 0cbc 630d 81bb
00000290: 4ae8 c6bb 9921 a3bc 696a 7d3d 9c2f 9c3d
000002a0: 704a f83b d871 00bd 94a6 f13c 4cfe 443d
000002b0: 0803 8c3c d626 42bc f5a9 e6bc 3208 cebc
000002c0: 4d37 183d b3db 423b ca06 8abc b225 b23c
000002d0: 138e 0ebd 9160 203d 23ec 443a 4077 80bc
000002e0: 2d35 273c dd6f 043c 9706 1bbc 37a9 df3b
000002f0: d3b6 b9ba 5f10 4e3d 61d6 51bc f4d1 97bb
00000300: ad0c 6ebc 0c8a 32bd 5d28 cd3c f5f7 27b9
00000310: 8da5 94bc feca fb3b 773e b8bc 28ba 10bc
00000320: 0225 5fbc 2c8a 1abd 7413 443d 7b83 54bc
00000330: 73bc d4bb e0e2 d43c 5852 32bc 61b8 84bc
00000340: a7d5 a0bc 3b26 ffbb d7e9 1f3d 685e 41bd
00000350: edc6 d4bc e9bb c6bc 60b5 193d 5052 893c
00000360: 8739 a43c f4ed 75bc f3fb 37bc 6d0b 49bb
00000370: f434 3bbc 7223 35bc f39f 11bc a54e 8f3c
00000380: 6068 8ebc 1427 9fbc 104b 5bbd 89ba c8bc
00000390: 6469 e5bb fe09 943d 1870 083d 8b68 92bc
000003a0: 01d1 0aba d029 253d 34cb 6dba 137b 8a3c
000003b0: db27 8a3b 1956 57bb c92d b4bb 4788 f73b
000003c0: ae7f 4d3d 72d3 7fbc f260 9abc 1e6e 2ebb
000003d0: cdf1 04bc 5cdd 4d3c 019b c83c 7ab2 133d
000003e0: 7a81 403d ec90 87bc 0c2e cabc 59d4 00bc
000003f0: 95b3 ef3c f22f cdbc c72a b0ba 407e ca3b

l3/W f4 [256, 256]
-0.024587348 0.028939702 -0.05052384 0.110152945 -0.0037386923 -0.058883242 0.021984247 0.06131213
0.07403433 0.006899412 0.06541909 -0.06280631 -0.15393052 0.016455157 0.048142996 0.12788822
-0.05932886 0.077659 0.10455068 0.03118055 0.056647956 -0.014633888 -0.120871305 -0.05527913
-0.020023866 -0.14184166 -0.012269658 -0.0221201 0.019902393 -0.10840512 0.06453916 0.07181956
0.1579506 -0.057692055 0.00033319354 0.042586517 -0.12528075 0.036281634 -0.022755118 -0.08127014
-0.09231841 0.098616175 -0.0066091954 0.03483383 0.16254112 -0.09114691 -0.0798565 0.00877513
0.14738485 0.046444073 0.09198368 -0.0557562 -0.084531985 -0.06424562 0.018743679 0.09943137
-0.2172984 -0.0021374426 -0.074588954 0.021205148 -0.039263614 0.08508087 -0.00089258584 -0.19440453
0.05357875 -0.02238319 -0.026169306 0.11265061 0.010068259 -0.07365897 -0.08920634 -0.054381303
0.09661843 -0.059865132 -0.19049525 0.00813189 -0.02595573 -0.16014957 -0.088382274 0.023724167
0.18393444 0.09578482 -0.0915038 -0.032759693 0.036495753 0.009336912 0.13020274 0.06504862
0.09832569 -0.023678267 0.011091145 0.106918514 0.048464783 0.0745155 -0.07863361 -0.12668513
0.10429691 -0.16190553 -0.1287709 0.0709239 -0.03387991 0.005290176 -0.033554032 0.011387891
0.07168542 -0.021767952 -0.1256291 -0.009799548 -0.11385598 -0.15797478 -0.2612384 -0.05419449
0.14582676 0.1064102 -0.10379005 0.01960208 0.08178595 0.060388915 0.025353752 0.05583041
-0.065705486 0.044094976 0.08976063 0.036346857 -0.058244534 -0.11168411 0.043321177 0.004483517
-0.002478964 0.03347902 -0.11911608 0.0904006 0.028262727 0.1695282 0.13109976 -0.09032956
-0.08267465 -0.12936725 -0.14687559 0.01693774 0.030538622 -0.023673398 0.1830623 0.016886527
0.00574524 0.033111334 -0.08684779 -0.027576536 0.033553865 -0.07792287 0.04718044 -0.0211573
0.017299218 0.07064148 -0.20780344 0.0011240739 -0.0707568 -0.10315101 -0.07566445 -0.031738143
0.03095349 -0.0216204 0.19074832 -0.035762668 -0.010787039 0.09542551 0.18463612 -0.07747192
0.034339055 0.22525804 0.08877294 -0.057395417 -0.08147808 0.025774404 0.09377183 0.029142566
-0.10745925 0.053577002 0.034679547 -0.12892132 0.20866475 0.26204896 -0.10569593 -0.115624234
-0.024135454 -0.091468126 -0.09166262 -0.10082431 0.0269284 0.0046393094 0.05108221 0.06024971
-0.08084072 -0.03917949 0.09080978 -0.06883973 0.0033612854 -0.1042665 0.10462446 0.011004077
0.035385825 -0.1372296 0.014298897 0.12936625 -0.087847054 0.04883438 -0.06318433 0.028461779
-0.042152252 -0.017243087 -0.023417532 -0.021980194 -0.12047546 0.11262776 -0.03969979 0.052985735
-0.041039452 0.02284972 0.14139582 -0.14300866 0.119249865 0.09905369 -0.18816148 -0.015152676
0.08428314 0.07210325 0.056186058 -0.09173735 0.11017474 -0.1954476 0.03151928 -0.0134617975
-0.05309709 -0.07369577 0.09798142 0.008105851 -0.085385345 -0.0016370722 0.074186675 -0.006173905
-0.0793839 -0.00938783 -0.06956058 0.06640372 0.070476435 0.14201823 -0.0069271787 0.14087039
-0.21460867 -0.06282264 -0.01703638 0.07453238 0.0939066 0.12681638 0.04825481 0.04111413
00000000: 686b c9bc f412 ed3c 16f2 4ebd de97 e13d
00000010: d904 75bb 8e2f 71bd 4f18 b43c 6e22 7b3d
00000020: 509f 973d 7614 e23b 72fa 853d 98a0 80bd
00000030: f69f 1dbe f7cc 863c 9731 453d 21f5 023e
00000040: d202 73bd af0b 9f3d ab1e d63d 5a6e ff3c
00000050: b007 683d fac2 6fbc 608b f7bd 5e6c 62bd
00000060: 1709 a4bc f13e 11be ad06 49bc 3635 b5bc
00000070: 580a a33c 8103 debd 1b2d 843d 2216 933d
00000080: cdbd 213e 814e 6cbd 7bb0 ae39 336f 2e3d
00000090: 9949 00be 0d9c 143d f168 babc f670 a6bd
000000a0: 6f11 bdbd 47f7 c93d f391 d8bb ebad 0e3d
000000b0: 2e71 263e 3bab babd ce8b a3bd 90c5 0f3c
000000c0: 0eec 163e 243c 3e3d f161 bc3d 9d60 64bd
000000d0: 1b1f adbd 3593 83bd 588c 993c ada2 cb3d
000000e0: 7983 5ebe 5614 0cbb 18c2 98bd 6bb6 ad3c
000000f0: e2d2 20bd e13e ae3d 6cfc 69ba fb11 47be
00000100: 6475 5b3d f45c b7bc 0361 d6bc 5db5 e63d
00000110: 57f5 243c 84da 96bd d0b1 b6bd eebe 5ebd
00000120: e2df c53d 2435 75bd 3011 43be 9e3b 053c
00000130: 1ca1 d4bc 40fe 23be c401 b5bd 2f59 c23c
00000140: 4f59 3c3e d52a c43d 5866 bbbd 072f 06bd
00000150: 927c 153d d9f9 183c de53 053e 3638 853d
00000160: fb5e c93d edf8 c1bc a2b7 353c 18f8 da3d
00000170: 0283 463d 959b 983d a80a a1bd bfb9 01be
00000180: 9e99 d53d 90ca 25be 85dc 03be 8d40 913d
00000190: a9c5 0abd 3659 ad3b f46f 09bd 4794 3a3c
000001a0: cecf 923d b452 b2bc eaa4 00be 498e 20bc
000001b0: 532d e9bd 24c4 21be 0ac1 85be 0bfb 5dbd
000001c0: 9c53 153e 97ed d93d e18f d4bd 8b94 a03c
000001d0: 647f a73d 5e5a 773d acb2 cf3c 6eae 643d
000001e0: 9990 86bd ef9c 343d 6cd4 b73d 71e0 143d
000001f0: d291 6ebd a3ba e4bd 8c71 313d 77ea 923b
00000200: 1d76 22bb 4c21 093d 22f3 f3bd f323 b93d
00000210: 3c87 e73c cd98 2d3e 043f 063e b4fe b8bd
00000220: 5451 a9bd d978 04be 8e66 16be 04c1 8a3c
00000230: 222c fa3c b7ee c1bc af74 3b3e 9d55 8a3c
00000240: 9142 bc3b c09f 073d 41dd b1bd 30e8 e1bc
00000250: c76f 093d 0796 9fbd 4740 413d 1352 adbc
00000260: 17b7 8d3c 7bac 903d 6dca 54be a955 933a
00000270: f1e8 90bd d640 d3bd f7f5 9abd dbff 01bd
00000280: 2c92 fd3c 441d b1bc 8753 433e e07b 12bd
00000290: 1fbc 30bc 736e c33d 4011 3d3e 99a9 9ebd
000002a0: 1ca7 0c3d 0baa 663e 96ce b53d 7517 6bbd
000002b0: fbdd a6bd d824 d33c 720b c03d 64bc ee3c
000002c0: 9813 dcbd 8f73 5b3d 240c 0e3d f303 04be
000002d0: 36ac 553e 482b 863e 1c77 d8bd 66cc ecbd
000002e0: b7b7 c5bc a453 bbbd 9db9 bbbd fa7c cebd
000002f0: f398 dc3c 5905 983b 943b 513d 66c8 763d
00000300: d28f a5bd ac7a 20bd 7afa b93d d8fb 8cbd
00000310: 0349 5c3b ad89 d5bd 5945 d63d 724a 343c
00000320: baf0 103d eb85 0cbe ec45 6a3c 9678 043e
00000330: 28e9 b3bd 8f06 483d c966 81bd ad28 e93c
00000340: d7a7 2cbd 6041 8dbc 20d6 bfbc cf0f b4bc
00000350: d7bb f6bd 62a9 e63d 3f9c 22bd 9207 593d
00000360: fc18 28bd 562f bb3c 11ca 103e dd70 12be
00000370: 4639 f43d a9dc ca3d 67ad 40be ee42 78bc
00000380: a49c ac3d deaa 933d 5a23 663d cbe0 bbbd
00000390: 4ba3 e13d 6a23 48be 5c1a 013d df8e 5cbc
000003a0: 567c 59bd cfed 96bd 7caa c83d 67ce 043c
000003b0: 83de aebd 0793 d6ba 2fef 973d 784e cabb
000003c0: 0794 a2bd 6acf 19bc c775 8ebd acfe 873d
000003d0: f355 903d 3a6d 113e 63fd e2bb 5440 103e
000003e0: 60c2 5bbe 28a9 80bd e18f 8bbc 6fa4 983d
000003f0: 1a52 c03d 27dc 013e d6a6 453d 4a67 283d

l1/b f4 [256]
-0.006658039 -0.08707281 -0.006509508 0.009603541 0.011785664 0.0058507924 0.009964349 0.009612432
0.0010647227 -0.057057068 -0.038323607 -0.0032244306 0.0035738652 -0.18788053 0.04430702 -0.052369613
-0.016549798 -0.0299646 0.027945608 -0.069332704 0.018414322 -0.12243067 -0.020768818 0.0698832
0.025426958 0.030428765 -0.005400227 -0.06300492 0.00824596 0.04354375 0.024317129 0.046997055
0.01949586 0.0014838451 -0.020534417 0.006980311 -0.03243376 0.045062467 -0.060779396 -0.019828347
-0.0682744 0.042970803 0.027207242 -0.12453993 0.033233754 -0.057489127 0.01218566 -0.019989133
0.10461767 -0.0033061798 0.0014468406 -0.028633764 -0.046300225 0.0084118685 0.008101401 0.06766518
-0.06748327 0.015442249 0.035581604 -0.11158326 0.0041479804 0.009083806 0.01266345 -0.11218765
-7.322926e-05 0.048480965 0.010665077 0.04222571 -0.18934518 -0.016974602 0.008938379 0.034204166
-0.0060653794 -0.022941986 0.04214848 0.04804555 0.04328091 -0.09521649 0.0063237073 -0.08458087
0.03621802 0.0051523363 -0.03285126 0.08138286 0.06624569 0.04089405 0.06798783 -0.08935939
0.062174194 -0.014157148 -0.002325692 -0.003746881 0.004649827 0.037304047 -0.008918235 0.0018526677
-0.093333304 0.042207107 0.035340935 0.05157864 0.035933536 -0.056542646 -0.16173919 0.01018585
0.0012667113 -0.011810285 0.018234706 -0.0117192585 -0.0061738347 0.023922423 0.04773269 0.06969914
-0.07909794 -0.010526826 -0.014749577 0.06356238 -0.021541713 -0.028699914 -0.009507693 -0.07073841
0.0066400967 0.03374481 0.03397366 -0.045594722 -0.08565142 0.027174208 0.0021979788 -0.14558755
-0.04762808 -0.020626146 0.0016504632 -0.0568125 0.0052421764 -0.04250946 -0.0017613679 0.041538883
0.0068100207 -0.06454977 0.0040183095 0.014034644 0.008914963 0.00042165964 0.035576865 0.025632532
0.048282083 -0.008574918 0.045563634 -0.10334864 -0.07508145 0.023880735 -0.042389 -0.011694286
-0.08939306 0.00077707216 0.020857992 -0.014893699 -0.09439519 0.011624845 -0.10502832 -0.0063506304
-0.1400783 0.018319778 0.025213573 0.049476 0.04896918 0.043984484 0.025239915 0.021261547
-0.02424312 0.038358882 -0.031197397 -0.10258215 -0.006319982 0.06512366 0.03354738 -0.038016673
0.016015876 0.0 -0.0022393607 -0.008413628 0.042650755 -0.14024843 0.013292378 -0.036207836
-0.020069955 0.056233946 -0.03619511 0.005799695 -0.04397736 -0.058456723 -0.09602279 0.024378436
0.043036178 -0.008835521 0.02843016 -0.05510518 0.017993096 -0.04422729 0.0139659485 0.045617096
-0.0013415976 -0.03989039 0.089905515 -0.0217131 -0.10371444 -0.054201752 0.016261276 0.03281415
0.020195318 -0.057594817 -0.0016660697 0.03651962 0.010784539 0.06973588 0.014285415 -0.035712726
-0.06491225 0.029767286 0.030618625 0.014970583 -0.00095056405 -0.0011675323 0.025829012 -0.06722206
-0.025161924 0.0027615754 -0.10804437 -0.004498017 -0.0043591047 0.0069128727 0.007480977 0.011440838
-0.02102147 -0.002749635 -0.021157887 0.0031357137 -0.011497333 -0.039518133 0.04226119 -0.0025156667
0.07693817 0.03221716 -0.012015584 -0.053598065 0.016353125 -0.060332336 0.038511448 -0.036890104
-0.04177061 -0.017391378 -0.16097328 -0.027172504 -0.02419187 0.04069653 -0.0050437595 0.031262796
00000000: ae2b dabb 3b53 b2bd b64d d5bb 2c58 1d3c
00000010: a818 413c 01b8 bf3b 8241 233c 767d 1d3c
00000020: 2a8e 8b3a acb4 69bd 37f9 1cbd f850 53bb
00000030: 8237 6a3b c163 40be 477b 353d 8581 56bd
00000040: 7193 87bc 5278 f5bc 30ee e43c 4efe 8dbd
00000050: a2d9 963c eebc fabd 5e23 aabc ec1e 8f3d
00000060: 324c d03c bf45 f93c 63f4 b0bb b908 81bd
00000070: 101a 073c ee5a 323d b734 c73c fc7f 403d
00000080: c8b5 9f3c 947d c23a cb37 a8bc 18bb e43b
00000090: 43d9 04bd 6c93 383d d1f3 78bd 0f6f a2bc
000000a0: 73d3 8bbd 2702 303d b9e1 de3c ca0e ffbd
000000b0: 1e20 083d b879 6bbd 5da6 473c 40c0 a3bc
000000c0: ca41 d63d 7eac 58bb eaa3 bd3a 5b91 eabc
000000d0: 4ea5 3dbd efd1 093c bdbb 043c 0b94 8a3d
000000e0: ab34 8abd 7d01 7d3c 04be 113d c485 e4bd
000000f0: c8eb 873b 3ed4 143c 5c7a 4f3c a3c2 e5bd
00000100: a992 99b8 fa93 463d 93bc 2e3c def4 2c3d
00000110: b4e3 41be 520e 8bbc 4772 123c ab19 0c3d
00000120: 17c0 c6bb d5f0 bbbc e2a3 2c3d 69cb 443d
00000130: 5347 313d dd00 c3bd 1a37 cf3b bc38 adbd
00000140: 5959 143d eed4 a83b 0b8f 06bd 0fac a63d
00000150: d2ab 873d 8580 273d 343d 8b3d 0e02 b7bd
00000160: 5eaa 7e3d 62f3 67bc a36a 18bb 3b8e 75bb
00000170: 935d 983b 21cc 183d ca1d 12bc 36d5 f23a
00000180: 8825 bfbd 5ce1 2c3d a8c1 103d 2044 533d
00000190: 0b2f 133d 4399 67bd f59e 25be 8de2 263c
000001a0: c707 a63a ed7f 41bc f360 953c 2202 40bc
000001b0: e14d cabb f5f8 c33c 5a83 433d 6cbe 8e3d
000001c0: 1afe a1bd b578 2cbc 36a8 71bc fe2c 823d
000001d0: 3f78 b0bc 151c ebbc 28c6 1bbc 4ddf 90bd
000001e0: 2b95 d93b ff37 0a3d f727 0b3d 88c1 3abd
000001f0: 036a afbd 729c de3c f70b 103b e714 15be
00000200: a915 43bd 2af8 a8bc 5b54 d83a 39b4 68bd
00000210: 90c6 ab3b 661e 2ebd b3dd e6ba ad24 2a3d
00000220: 9826 df3b ab32 84bd 06ac 833b 90f1 653c
00000230: 1110 123c 3312 dd39 0cb9 113d 51fb d13c
00000240: 6fc3 453d d07d 0cbc efa0 3a3d 74a8 d3bd
00000250: 4ec4 99bd 88a1 c33c 17a0 2dbd 6499 3fbc
00000260: b513 b7bd 6eb4 4b3a 61de aa3c b404 74bc
00000270: 4452 c1bd 2276 3e3c 1619 d7bd f318 d0bb
00000280: b070 0fbe 5c13 963c b28c ce3c 59a7 4a3d
00000290: e893 483d 1329 343d f0c3 ce3c b22c ae3c
000002a0: 8299 c6bc 341e 1d3d af91 ffbc 9716 d2bd
000002b0: da17 cfbb 8e5f 853d fa68 093d 5fb7 1bbd
000002c0: ba33 833c 0000 0000 3dc2 12bb 50d9 09bc
000002d0: 8fb2 2e3d 499d 0fbe 46c8 593c ab4e 14bd
000002e0: bf69 a4bc 9155 663d 5341 14bd 5e0b be3b
000002f0: 9b21 34bd 5170 6fbd 99a7 c4bd 49b5 c73c
00000300: b446 303d dcc2 10bc 5ee6 e83c f8b5 61bd
00000310: 4266 933c ad27 35bd 6fd1 643c fed8 3a3d
00000320: 8cd8 afba 1b64 23bd 6220 b83d acdf b1bc
00000330: 3c68 d4bd a802 5ebd 5e36 853c 2168 063d
00000340: a770 a53c 8be8 6bbd 0660 daba 9995 153d
00000350: a3b1 303c afd1 8e3d 600d 6a3c 8247 12bd
00000360: b7f0 84bd 86da f33c e9d3 fa3c 2d47 753c
00000370: 462f 79ba e207 99ba 5d97 d33c b8ab 89bd
00000380: 6120 cebc 8cfb 343b 5e46 ddbd 1a64 93bb
00000390: d2d6 8ebb 6185 e23b fc22 f53b 5a72 3b3c
000003a0: 3835 acbc 3833 34bb 4e53 adbc 8c80 4d3b
000003b0: 4f5f 3cbc c4dd 21bd 121a 2d3d e2dd 24bb
000003c0: c291 9d3d 24f6 033d 03dd 44bc a589 5bbd
000003d0: fdf6 853c 0a1f 77bd 2ebe 1d3d 141a 17bd
000003e0: a917 2bbd 5d78 8ebc 2ed6 24be df98 debc
000003f0: 072e c6bc 68b1 263d 1f46 a5bb 6b0d 003d

l1/W f4 [256, 16]
0.4875396 -0.123111494 0.16112143 -0.085312806 0.53209156 0.003332057 -1.0743812 0.72555846
-0.39383546 0.36649832 0.08288694 -0.825204 0.24494085 -0.09464165 0.54474616 0.32194388
-0.19937411 0.6008735 -0.13710769 0.3430465 0.7740207 -0.20087397 0.52658033 0.22483458
-0.55277824 0.47076464 0.48043332 -0.26268482 -0.055299465 0.17541596 -0.20679277 -0.38123047
0.3187601 0.048361506 -0.100669004 0.2506103 0.104703195 -0.5216913 0.12041649 0.08944
-0.71023697 0.43088388 -0.24163575 0.18042679 0.53202945 0.094991595 0.04355385 0.18370372
-0.51680106 0.093232624 -0.43756145 0.27207336 -0.3782229 -0.42772335 0.3721735 0.9268257
0.37191966 -0.43510705 0.090925545 -0.04117286 -0.16044156 -0.46212548 0.1483762 0.55004585
-0.054260477 0.006264831 0.6896683 0.315793 0.15808438 0.08897908 0.20091334 0.21928991
-0.31771204 -0.13298963 -0.51752514 -0.51187366 0.17834054 0.11544207 -0.5470288 0.2310358
0.5267194 -0.33339164 0.025998442 0.06927495 -0.12915015 -0.61360717 0.27362254 -0.3507211
-0.06698657 -0.010560609 -0.270708 -0.37511382 -0.09262694 -0.12157026 -0.34353003 0.018174367
-0.87817043 -0.3960118 -0.09384484 0.2628889 0.17066741 -0.44568133 -0.19900432 -0.043187026
0.06848181 0.65184724 0.5023221 -0.4734209 -0.11591859 0.10002683 -0.1252564 -0.006343962
0.11306483 0.12292659 0.5373895 -0.78905827 0.38602823 0.22625835 -0.44657725 -0.07498437
-0.41005418 0.114783466 -0.40195918 0.114331156 0.48804417 -0.48231155 0.12326358 0.27910674
0.048210304 0.34695172 -0.189109 0.39819208 0.20816924 0.27479357 0.045712166 0.050154775
-0.0880494 -0.25351554 -0.4586817 -0.19100384 -0.60704845 -0.30462134 -0.11690138 -0.072948545
0.2844127 0.38720667 0.6410138 0.03720462 -0.25034726 -0.3608127 0.90823746 -0.3043845
-0.4241328 0.3904167 -0.14927004 -0.15485846 -0.91801846 -0.16258259 0.6143475 -0.02802282
-0.12013857 0.28624782 0.13648257 -0.036524605 -0.76911384 0.6673462 -0.3850346 0.3135132
0.16972002 -0.5120069 0.3677173 -0.15354432 -0.5878587 0.39804977 0.04947067 0.1853622
-0.21243902 -0.3704495 0.35750744 -0.61564475 -0.35973632 -0.32317317 -0.8351377 -0.040077437
-0.22850274 -0.61608875 0.59575045 0.32748035 -0.23805332 -0.3314467 -0.38751364 0.0014491606
-0.14686492 0.2487774 -0.27452362 0.4636398 -0.23372933 -0.101511575 0.268883 -0.48871356
-0.37845865 -0.49743763 0.28803313 -0.3592188 0.019553117 0.022450497 -0.27355117 0.64489985
0.015094392 0.1864703 -0.40756524 0.22476476 0.92506987 -0.12735829 -0.18659243 0.018207928
0.11726573 0.10572901 0.39234415 -0.14333951 0.21555217 0.006565374 0.45157668 0.009697837
-0.5952597 -0.26650423 0.36713776 -0.41428968 -0.13927254 0.20885956 0.006243499 -0.32788566
-0.013263782 -0.0700355 -0.10732678 0.006305301 -0.29673997 -0.29414132 0.30125007 -0.018234892
0.19816558 -0.4065576 0.21711396 -0.028595407 0.2599799 0.6384173 -0.22815657 0.13032357
-0.19257899 -0.41876525 0.2956781 0.26470777 0.09567821 0.1008587 -0.12341251 -0.35435244
00000000: ca9e f93e e121 fcbd 04fd 243e 7bb8 aebd
00000010: 2737 083f a45e 5a3b 5385 89bf 33be 393f
00000020: cda4 c9be aba5 bb3e a1c0 a93d 9240 53bf
00000030: c6d1 7a3e 7bd3 c1bd 7c74 0b3f d4d5 a43e
00000040: ba28 4cbe d8d2 193f f565 0cbe caa3 af3e
00000050: 3826 463f e8b1 4dbe f8cd 063f 093b 663e
00000060: e082 0dbf 1008 f13e 5bfb f53e a07e 86be
00000070: b181 62bd 3ea0 333e 7cc1 53be a430 c3be
00000080: 8634 a33e b716 463d 8d2b cebd fe4f 803e
00000090: a16e d63d 908d 05bf ec9c f63d 522c b73d
000000a0: 17d2 35bf d09c dc3e 5d6f 77be cdc1 383e
000000b0: 1533 083f f48a c23d 8665 323d d41c 3c3e
000000c0: 134d 04bf bff0 be3d 0e08 e0be 334d 8b3e
000000d0: 6fa6 c1be 8efe dabe 868d be3e 7344 6d3f
000000e0: 416c be3e 5ac6 debe 2c37 ba3d dfa4 28bd
000000f0: cb4a 24be b69b ecbe eeef 173e cecf 0c3f
00000100: 3c40 5ebd 3649 cd3b 1a8e 303f 9faf a13e
00000110: dfe0 213e aa3a b63d 3abc 4d3e 898d 603e
00000120: 27ab a2be 6f2e 08be 877c 04bf 270a 03bf
00000130: e79e 363e e46c ec3d 140a 0cbf a694 6c3e
00000140: 15d7 063f 4fb2 aabe affa d43c 06e0 8d3d
00000150: f03f 04be 5c15 1dbf 4118 8c3e b791 b3be
00000160: 4130 89bd 6806 2dbc 3d9a 8abe eb0e c0be
00000170: 31b3 bdbd d4f9 f8bd 2be3 afbe 69e2 943c
00000180: c7cf 60bf 0fc2 cabe b931 c0bd 6099 863e
00000190: 70c3 2e3e 5830 e4be cac7 4bbe e1e4 30bd
000001a0: 3140 8c3d 76df 263f 2e98 003f 3964 f2be
000001b0: ba66 edbd deda cc3d 3743 00be 03e1 cfbb
000001c0: 898e e73d f0c0 fb3d 5c92 093f b9ff 49bf
000001d0: 7ea5 c53e 45b0 673e c6a5 e4be 6891 99bd
000001e0: 9ff2 d1be 9813 eb3d 98cd cdbe 7426 ea3d
000001f0: ede0 f93e 8af1 f6be 9e71 fc3d 14e7 8e3e
00000200: 2b78 453d a8a3 b13e caa5 41be d5df cb3e
00000210: 512a 553e beb1 8c3e ae3c 3b3d 186f 4d3d
00000220: 3e53 b4bd cacc 81be 54d8 eabe 8396 43be
00000230: 8767 1bbf 54f7 9bbe fe69 efbd 0c66 95bd
00000240: 8b9e 913e f43f c63e 7b19 243f df63 183d
00000250: 842d 80be 71bc b8be 4082 683f 49d8 9bbe
00000260: ef27 d9be b3e4 c73e 3fda 18be 3793 1ebe
00000270: 4203 6bbf 0d7c 26be e145 1d3f 1d90 e5bc
00000280: 360b f6bd 138f 923e 16c2 0b3e d39a 15bd
00000290: a5e4 44bf 33d7 2a3f 4123 c5be cd84 a03e
000002a0: 16cb 2d3e e212 03bf 7145 bc3e b93a 1dbe
000002b0: e87d 16bf 2ecd cb3e c2a1 4a3d 97cf 3d3e
000002c0: 9d89 59be 8fab bdbe 370b b73e e59a 1dbf
000002d0: 5c2f b8be f476 a5be 96cb 55bf 3d28 24bd
000002e0: 9ffc 69be feb7 1dbf 1a83 183f 81ab a73e
000002f0: 40c4 73be 62b3 a9be 3068 c6be c3f1 bd3a
00000300: c263 16be 81bf 7e3e 5c8e 8cbe 3262 ed3e
00000310: be56 6fbe 4de5 cfbd 08ab 893e aa38 fabe
00000320: 55c5 c1be 25b0 febe 1479 933e 87eb b7be
00000330: dc2d a03c 1bea b73c e60e 8cbe 2818 253f
00000340: 784e 773c 12f2 3e3e 64ac d0be bc28 663e
00000350: 61d1 6c3f 366a 02be 1612 3fbe cb28 953c
00000360: 0429 f03d 7488 d83d 55e1 c83e 98c7 12be
00000370: b5b9 5c3e 5922 d73b 0f35 e73e ade3 1e3c
00000380: f162 18bf 3e73 88be 7bf9 bb3e c71d d4be
00000390: 769d 0ebe 48df 553e 4496 cc3b a1e0 a7be
000003a0: 5550 59bc c66e 8fbd 25ce dbbd b39c ce3b
000003b0: 4dee 97be b199 96be 733d 9a3e 5761 95bc
000003c0: ebeb 4a3e 5128 d0be 1f53 5e3e ea40 eabc
000003d0: 161c 853e 516f 233f e0a1 69be 8b73 053e
000003e0: 6d33 45be 6668 d6be 1f63 973e c787 873e
000003f0: f0f2 c33d 028f ce3d b3bf fcbd af6d b5be

l4/b f4 [16]
0.056096844 0.0669542 0.027249856 0.14240009 0.06675551 -0.009461791 -0.0042150896 0.07623606
0.062280275 0.017463893 -0.005377144 0.081979 0.0901163 0.08750292 0.10035524 0.0808519
00000000: cec5 653d 491f 893d 173b df3c 54d1 113e
00000010: 1db7 883d a105 1bbc bc1e 8abb a721 9c3d
00000020: 9a19 7f3d 7010 8f3c c132 b0bb 9be4 a73d
00000030: e58e b83d bb34 b33d 0c87 cd3d ae95 a53d

l4/W f4 [16, 256]
-0.0365226 -0.013783189 -0.013367111 -0.013630351 -0.029600836 0.138843 0.05120677 0.013764722
-0.13653448 -0.2838053 0.07867933 -0.19251965 0.0485134 0.03205546 -0.05829807 0.06481051
0.14120325 0.010334479 -0.13572398 0.062461697 0.028402545 0.09022447 0.18723464 -0.1011238
0.10224519 -0.14249885 -0.061812505 0.18929113 -0.176232 -0.06036609 0.042100016 0.032601554
0.06796022 -0.031708807 0.22608371 -0.03188124 0.108974926 0.18131697 -0.19548707 0.101468675
-0.1274328 -0.024791198 0.05003521 0.0079387175 -0.050567277 0.25405422 0.021725837 -0.02988662
0.102400936 0.09567344 0.035863593 0.08548635 0.074206494 0.08560641 0.18400782 0.05200117
-0.05507415 0.21195422 -0.18541609 0.10573155 0.049229495 0.16612661 0.021292266 0.033233844
-0.024243198 -0.27068222 0.06412154 0.0010019607 0.025190737 0.069330126 0.011953474 -0.02657133
-0.1714178 -0.05878355 -0.13192417 -0.0041710236 0.18001471 -0.07848768 0.057019092 -0.14783937
0.016348815 0.042998254 -0.10739084 0.23561718 0.12703547 -0.18800865 -0.1388634 -0.1902899
0.029413255 0.329611 -0.14815515 0.048187528 0.0056346683 -0.064310156 0.03570934 0.070544004
-0.039396208 -0.021425433 -0.10846888 0.06747475 -0.07531104 0.030829046 0.072496474 -0.02148155
0.13136902 -0.048088945 0.0589354 -0.021241577 -0.11812597 0.33089012 0.14940451 -0.11466001
0.03815412 -0.048075 0.16485067 -0.0214214 -0.021876276 -0.17123707 0.1081857 0.18377298
-0.010387568 0.15962818 0.21062355 0.13626382 0.03164184 0.008156268 -0.2874814 -0.14881302
0.1667507 -0.0038087545 0.086475834 -0.096507676 0.092739165 0.20110226 -0.11922738 0.09215738
-0.19162206 -0.10939462 0.027504003 -0.27587497 -0.1270326 0.038326353 0.09691644 0.18580359
0.034123115 -0.1482976 -0.036121186 -0.30655882 0.14948454 -0.07309164 -0.09923708 0.012286751
-0.33535397 0.14190234 0.17672753 -0.31224477 -0.18629612 -0.04575433 0.27198476 0.12376136
-0.034973945 0.024670115 0.14719924 0.064516775 0.009984753 -0.14023927 0.11564748 0.09346916
0.08831832 0.2804218 -0.08856776 0.040905777 -0.09530935 0.014710934 0.07021662 -0.2799563
0.08229703 -0.016573349 -0.059281327 0.06592354 0.20749864 0.17142607 -0.14657623 0.11041226
-0.0032543992 0.13351281 -0.12440391 0.105176166 -0.08869005 0.27895865 0.124160476 -0.10318584
0.32588908 0.043154087 -0.05110276 0.022067104 0.0207842 0.18636765 -0.024146995 -0.16119286
0.05190638 -0.12358536 0.0106490785 -0.18775013 -0.0010084511 -0.058373854 -0.057852503 -0.23804289
0.042137712 -0.26099294 0.088213354 -0.058831397 -0.095032685 0.10666317 0.14540613 0.08656268
-0.11480378 0.2085567 0.08022345 -0.036001492 -0.021316262 0.040720377 -0.13534576 -0.06967895
0.23579398 -0.1521232 -0.005738086 -0.09296835 0.118190676 0.04779479 0.13308908 -0.14313084
-0.052164223 -0.0871156 -0.0047343145 -0.11832293 -0.17817685 0.015084813 0.100090936 0.25757906
-0.08588129 -0.04018319 -0.052167844 -0.016338672 0.019589135 0.073902175 0.04077725 -0.025418902
-0.0013718867 0.18810616 -0.017796878 0.07982447 -0.052211326 -0.007319151 -0.06875938 0.14181337
00000000: b998 15bd e2d2 61bc ba01 5bbc d651 5fbc
00000010: 747d f2bc dc2c 0e3e 31be 513d 6e85 613c
00000020: b2cf 0bbe ee4e 91be a122 a13d df23 45be
00000030: fdb5 463d 964c 033d f5c9 6ebd 5fbb 843d
00000040: 9697 103e f251 293c 3afb 0abe d6d7 7f3d
00000050: 74ac e83c 9bc7 b83d 70ba 3f3e ff19 cfbd
00000060: ed65 d13d 38eb 11be 1c2f 7dbd 89d5 413e
00000070: 2976 34be 6f42 77bd 1171 2c3d 3589 053d
00000080: ba2e 8b3d 18e1 01bd 7d82 673e e795 02bd
00000090: 3f2e df3d 28ab 393e c32d 48be cfce cf3d
000000a0: be7d 02be e916 cbbc b8f1 4c3d 6511 023c
000000b0: a21f 4fbd 6513 823e 62fa b13c c9d4 f4bc
000000c0: 95b7 d13d 70f0 c33d b4e5 123d 7813 af3d
000000d0: 93f9 973d 6a52 af3d 8c6c 3c3e 2eff 543d
000000e0: 6f95 61bd 870a 593e b7dd 3dbe c889 d83d
000000f0: dea4 493d 181d 2a3e 1e6d ae3c 3620 083d
00000100: ac99 c6bc dc96 8abe 2752 833d 3954 833a
00000110: ce5c ce3c f4fc 8d3d 81d8 433c 1eac d9bc
00000120: 2688 2fbe 05c7 70bd 2117 07be 15ad 88bb
00000130: c755 383e 26be a0bd da8c 693d 3463 17be
00000140: f3ed 853c f01e 303d bbef dbbd a145 713e
00000150: 9615 023e 5785 40be 3532 0ebe 5bdb 42be
00000160: 11f4 f03c c6c2 a83e fcb5 17be 4960 453d
00000170: 06a3 b83b 0bb5 83bd f543 123d 6079 903d
00000180: eb5d 21bd 6484 afbc ef24 debd 3430 8a3d
00000190: ad3c 9abd 328d fc3c 0879 943d 13fa afbc
000001a0: 9a85 063e eaf8 44bd 3f66 713d d102 aebc
000001b0: 07ec f1bd 6e6a a93e 7ffd 183e ded2 eabd
000001c0: 7f47 1c3d 4bea 44bd 9dce 283e ef7b afbc
000001d0: e035 b3bc c558 2fbe 7790 dd3d fc2e 3c3e
000001e0: 9e30 2abc 9275 233e b3ad 573e be88 0b3e
000001f0: e09a 013d dea1 053c c330 93be 7162 18be
00000200: b2c0 2a3e 4c9c 79bb 3e1a b13d d1a5 c5bd
00000210: 08ee bd3d c0ed 4d3e 7c2d f4bd 02bd bc3d
00000220: 9338 44be 490a e0bd 1350 e13c 7c3f 8dbe
00000230: d514 02be 18fc 1c3d 207c c63d 4c43 3e3e
00000240: aec4 0b3d 53db 17be cff3 13bd 47f5 9cbe
00000250: 7a12 193e 12b1 95bd cf3c cbbd 5e4e 493c
00000260: 84b3 abbe d94e 113e 10f8 343e 8cde 9fbe
00000270: 69c4 3ebe e468 3bbd 9641 8b3e 9976 fd3d
00000280: d740 0fbd fb18 ca3c 66bb 163e 5f21 843d
00000290: 1797 233c e29a 0fbe 96d8 ec3d c26c bf3d
000002a0: 3ce0 b43d 7293 8f3e 0463 b5bd d18c 273d
000002b0: 8c31 c3bd 2106 713c bbcd 8f3d 6f56 8fbe
000002c0: 588b a83d d5c4 87bc fad0 72bd ec02 873d
000002d0: 867a 543e 518a 2f3e 1418 16be d31f e23d
000002e0: c247 55bb 95b7 083e 7ac7 febd 9a66 d73d
000002f0: 21a3 b5bd abd3 8e3e d947 fe3d 1953 d3bd
00000300: efda a63e 57c2 303d 2151 51bd 12c6 b43c
00000310: a043 aa3c 29d7 3e3e ebcf c5bc be0f 25be
00000320: c99b 543d 521a fdbd 7979 2e3c 9241 40be
00000330: 012e 84ba 6c19 6fbd bff6 6cbd 84c1 73be
00000340: 9898 2c3d dea0 85be 34a9 b43d 31f9 70bd
00000350: 7fa0 c2bd 3872 da3d 58e5 143e c647 b13d
00000360: 3f1e ebbd e38f 553e 314c a43d 4d76 13bd
00000370: 719f aebc 69ca 263d 1498 0abe d6b3 8ebd
00000380: fa73 713e 2fc6 1bbe 8e06 bcbb 3166 bebd
00000390: f40d f23d 78c4 433d 8148 083e e490 12be
000003a0: 27aa 55bd aa69 b2bd 4f22 9bbb 4b53 f2bd
000003b0: fe73 36be 4b26 773c 7afc cc3d 67e1 833e
000003c0: 88e2 afbd 2197 24bd f3ad 55bd aed8 85bc
000003d0: 6579 a03c 065a 973d 0c06 273d 4d3b d0bc
000003e0: e1d0 b3ba e79e 403e c2ca 91bc 037b a33d
000003f0: 8bdb 55bd 7dd5 efbb b8d1 8cbd 8637 113e
