static/ai/6/agent_black_18000/target_model.npz (npz, 560758 bytes, 8 tensors)

l2/b f4 [256]
0	0xbf5e53ac	-0.86846423
1	0xbe0947b7	-0.13406263
2	0x3cb0e5fb	0.021594038
3	0x3e8f1135	0.27942815
4	0xbec0355b	-0.37540707
5	0x3e5556fd	0.20833965
6	0x3d9c11c3	0.07620575
7	0x3ddb6ba2	0.10713889
8	0x3d4223cf	0.04739743
9	0xbe56d811	-0.2098086
10	0xbee7d403	-0.4527894
11	0x3d77463a	0.060369708
12	0x3d3e69e9	0.046487723
13	0x3df4a38e	0.11945258
14	0x3c36d319	0.011158728
15	0xbbe33ed8	-0.006934982
16	0x3dd4cb6e	0.10390364
17	0x3d5980c5	0.05310132
18	0x3da14a43	0.078754924
19	0xbe0b9662	-0.13631585
20	0xbe972020	-0.29516697
21	0x3e1aeb20	0.15128756
22	0xbe3985f1	-0.18117501
23	0x3d84af63	0.06478765
24	0xbdd3ebaf	-0.103476875
25	0xbe0b506a	-0.13604894
26	0xbe0cdc59	-0.13755931
27	0x3dae2918	0.08503932
28	0x3df48c77	0.11940854
29	0x3ea2ecdd	0.31821337
30	0xbd9a983a	-0.07548566
31	0x3f06cb43	0.526539
32	0x3e04ddf6	0.12975296
33	0xbf48464f	-0.7823228
34	0xbc6e7d3e	-0.014556227
35	0xbe98a39d	-0.29812327
36	0x3e178d27	0.14799939
37	0x3f8f98be	1.1218488
38	0x3e2a806b	0.1665055
39	0x3efff8fa	0.49994642
40	0x3e65e1b2	0.22449377
41	0x3eac799f	0.3368654
42	0xb810a394	-3.448462e-05
43	0xbdbb613b	-0.091494046
44	0xbf296c78	-0.66181135
45	0xbe08a487	-0.13344012
46	0xbf44fa62	-0.76944554
47	0xbe26f9eb	-0.16306274
48	0xbd7700de	-0.06030356
49	0xbe466a62	-0.1937652
50	0xbdf764cb	-0.120797716
51	0xbe46bda8	-0.19408286
52	0xbdfc829e	-0.12329601
53	0xbd1530db	-0.036423545
54	0xbe7b6e0e	-0.24553701
55	0x3eca1fc2	0.39477354
56	0xbdef9b72	-0.11699571
57	0x3e117f11	0.14208628
58	0xbd5cc1e3	-0.053895842
59	0x3eed697d	0.46369544
60	0xbeeece54	-0.4664179
61	0xbe99f1f8	-0.3006742
62	0xbdf3b02b	-0.11898836
63	0xbeab4942	-0.3345433
64	0xbd5fb2d4	-0.054613903
65	0x3c633db8	0.013869695
66	0xbe91d79c	-0.2848481
67	0xbc676f79	-0.014125698
68	0xbca9b065	-0.020713994
69	0xbcaa8c7c	-0.020818941
70	0x3cb64271	0.022248479
71	0x3e15140d	0.1455843
72	0xbf976df6	-1.1830432
73	0xbca29b78	-0.019849524
74	0xbcedd628	-0.029032782
75	0x3cd19466	0.025583457
76	0xbe086ea2	-0.13323453
77	0x3e80f60e	0.25187725
78	0xbe099a9e	-0.13437888
79	0x3d430677	0.047613587
80	0xbe3e38a4	-0.18576294
81	0x3e333f50	0.1750462
82	0x3f17c028	0.5927758
83	0xbea92275	-0.330341
84	0x3ee31aa1	0.44356254
85	0xbe0c7b42	-0.13718894
86	0x3e134c15	0.14384492
87	0xbd6c3bff	-0.057674404
88	0x3e571ade	0.21006343
89	0x3da0145d	0.07816384
90	0xbe9533f8	-0.29141212
91	0xbe884a64	-0.26619256
92	0x3f0ea62f	0.55722326
93	0xbc87d1a1	-0.016579451
94	0xbe8fa720	-0.28057194
95	0xbe812263	-0.25221547
96	0xbd923e90	-0.07140839
97	0xbea139aa	-0.31489307
98	0x3c71d353	0.014759856
99	0xbd04e746	-0.032447122
100	0xbe22f162	-0.15912393
101	0x3e697a2b	0.2280051
102	0xbed6cffc	-0.41955554
103	0x3d18336d	0.03715842
104	0xbf304547	-0.6885571
105	0x3dace677	0.08442395
106	0xbd4a076b	-0.04932348
107	0xbe529d92	-0.20567921
108	0xbf1d21b5	-0.6137956
109	0xbef8c1b2	-0.48585278
110	0x3d733626	0.05937781
111	0x3dc9a979	0.098467775
112	0x3dc06237	0.09393733
113	0xbf8dcb3c	-1.1077647
114	0xbe35ae14	-0.17742187
115	0xbf15c772	-0.58507454
116	0x3ea592dc	0.32338607
117	0xbdf222c5	-0.11823038
118	0x3e115eaa	0.14196268
119	0x3e57277b	0.21011154
120	0x3d9736b3	0.0738348
121	0x3e4a077e	0.1972942
122	0xbe17bb4b	-0.1481754
123	0x3e3907ca	0.18069378
124	0x3d519d4e	0.051175408
125	0xbea7d87f	-0.3278236
126	0xbd85bfa8	-0.06530696
127	0x3eac2c4d	0.3362755
128	0xbdf18b36	-0.117941305
129	0xbe8f01c9	-0.2793105
130	0xbeb966d5	-0.36211267
131	0xbc4c4d41	-0.012469591
132	0xbe06ab87	-0.1315137
133	0xbe80194b	-0.25019297
134	0xbc566fcf	-0.013088181
135	0xbe5a733e	-0.21333024
136	0xbc20d8e9	-0.00981734
137	0x3d87b182	0.06625654
138	0x3e52a7c2	0.20571807
139	0xbe7b01c7	-0.24512397
140	0xbdeca4d4	-0.11554876
141	0x3ce415f0	0.027842492
142	0xbdad817d	-0.084719636
143	0x3f18bdd3	0.5966465
144	0x3dee38d6	0.11631934
145	0xbbeb40b9	-0.0071793464
146	0xbd33c164	-0.043885604
147	0x3e276cec	0.16350144
148	0x3e8a7e40	0.27049446
149	0xbce638bf	-0.02810323
150	0x3e0ee41a	0.13954201
151	0x3dc05e18	0.09392947
152	0xbe429f66	-0.19006118
153	0xbf09d77e	-0.5384444
154	0x3e89bd15	0.2690207
155	0xbcfe967a	-0.031077612
156	0xbbee643a	-0.0072751315
157	0x3d9b1953	0.075731896
158	0xbe1f00a3	-0.15527587
159	0xbe6918e0	-0.22763395
160	0xbe071b9e	-0.13194129
161	0xbe157912	-0.14596966
162	0xbdb021bb	-0.086001836
163	0xbf0f83bc	-0.56060386
164	0xbee797e3	-0.45233068
165	0x3e192ba5	0.14958055
166	0xbc1e0e83	-0.009647015
167	0xbe826229	-0.25465515
168	0xbf23ef5c	-0.6403711
169	0x3e9df658	0.30852008
170	0x3d72fda7	0.059323933
171	0xbe594082	-0.21216014
172	0xbe8c67f3	-0.27423057
173	0xbd96bae2	-0.07359864
174	0xbbdaae45	-0.0066736066
175	0xbf82a79f	-1.0207404
176	0xbd789b50	-0.060694993
177	0x3d6a4533	0.0571949
178	0xbed8e234	-0.4236008
179	0x3e898361	0.26858047
180	0xbeda80e1	-0.42676452
181	0x3d53c11f	0.051697847
182	0x3c3b932b	0.011448662
183	0x3f03771e	0.51353633
184	0xbdd1fb96	-0.10253064
185	0xbe3f0584	-0.18654448
186	0xbed1167b	-0.40837464
187	0xbe25564c	-0.16146201
188	0xbe90b7cd	-0.2826523
189	0xbee0f8dc	-0.43939865
190	0xbf505eac	-0.8139446
191	0x3e4e291d	0.20132871
192	0x3e791456	0.24324164
193	0xbee1323c	-0.43983638
194	0xbdeda9c2	-0.11604644
195	0xbf3675cd	-0.712735
196	0x3da135dd	0.07871602
197	0xbf2691f1	-0.6506644
198	0x3c9d9b39	0.019239055
199	0x3e1a6b52	0.15080002
200	0x3e254dd2	0.16142967
201	0xbe063d2b	-0.13109271
202	0xbb88d122	-0.004175321
203	0xbecde98d	-0.40217248
204	0xbec909da	-0.3926533
205	0xbe3febc9	-0.18742289
206	0xbe30af75	-0.17254432
207	0xbeb3a4c1	-0.35086635
208	0xbe530fa3	-0.20611434
209	0x3eb7a3c8	0.35867143
210	0xbdf34e7c	-0.11880204
211	0xbe74e7cd	-0.2391655
212	0xbeaaf281	-0.3338814
213	0xbd11fdb0	-0.035642326
214	0xbf06ceb6	-0.52659166
215	0xbe9e52f4	-0.30922663
216	0x3ebe8128	0.37207913
217	0xbd0ab772	-0.033866353
218	0x3c93b524	0.01803071
219	0xbee1b7b3	-0.44085464
220	0xbdbe9417	-0.0930559
221	0xbef93edd	-0.48680773
222	0xbc9db09a	-0.01924925
223	0xbedbf9b1	-0.42963937
224	0xbe91f616	-0.2850806
225	0x3dc44ccf	0.095849626
226	0x3e9b65a2	0.30350977
227	0x3d7b5305	0.06135847
228	0xbe1f7114	-0.1557048
229	0x3d8bc8e8	0.06825429
230	0xbe7454c3	-0.23860459
231	0xbe76ea9c	-0.24112934
232	0xbf1e6b1a	-0.61882174
233	0x3e152493	0.14564733
234	0xbd6b0f69	-0.057387743
235	0xbca00995	-0.019535819
236	0xbe144368	-0.14478838
237	0x3d88580b	0.06657418
238	0xbf9cefb3	-1.226065
239	0xbf9b7abf	-1.2146834
240	0x3d697bd9	0.057002876
241	0x3d7fe5f6	0.062475167
242	0xbea9b256	-0.33143872
243	0x3fce5e2d	1.612249
244	0x3dff0671	0.124524005
245	0x3db3be9b	0.087765895
246	0x3c75cd43	0.0150025515
247	0x3df4ed8c	0.11959371
248	0xbee01055	-0.4376246
249	0xbb2b1cf5	-0.002610979
250	0xbedc14a2	-0.42984492
251	0xbe506749	-0.203519
252	0x3e558c9a	0.20854416
253	0x3e92b0cc	0.2865051
254	0x3e1c6856	0.15274176
255	0xbe2d2e68	-0.16912234

l2/W f4 [256, 256]
0	0x3e206b99	0.15666045
1	0x3c52cba4	0.0128659345
2	0xbd2d110c	-0.042252585
3	0xbe1e8798	-0.15481412
4	0x3d5170a8	0.051132828
5	0xbef575ce	-0.4794144
6	0x3dcb1225	0.0991557
7	0x3d754943	0.05988432
8	0xbce658a9	-0.028118448
9	0x3daa014d	0.08301029
10	0xbe04cd48	-0.12968934
11	0xbdb3df70	-0.08782852
12	0x3c9feb1e	0.019521292
13	0x3d2031ec	0.03911011
14	0x3dfb5735	0.12272493
15	0xbddb8110	-0.10717976
16	0x3ac4de60	0.0015019886
17	0xbd9ddb98	-0.077079
18	0x3de5fd39	0.11229939
19	0x3d7b6564	0.06137599
20	0xbcfdaa7a	-0.030965079
21	0x3dc4a212	0.09601225
22	0x3d9856f4	0.0743846
23	0x3d286800	0.041114807
24	0x3c863a04	0.016385086
25	0x3cfb83b6	0.030702453
26	0x3da0f09b	0.07858392
27	0xbdd0288e	-0.10163985
28	0x3da8bf1d	0.08239577
29	0x3e52a795	0.2057174
30	0x3e110edf	0.14165829
31	0x3d7466af	0.05966824
32	0xbcecc441	-0.028902175
33	0x3d690669	0.05689088
34	0x3d104f14	0.035231665
35	0xbd9875b4	-0.07444325
36	0x3d267a96	0.04064425
37	0x3db4e2ff	0.088323586
38	0x3e429640	0.19002628
39	0x3e3b9ae3	0.18320803
40	0xbabc6780	-0.0014374107
41	0xbde95a82	-0.11394216
42	0xbb914cf1	-0.004434221
43	0xbcd73688	-0.02627112
44	0x3e1e9117	0.15485035
45	0x3e33b54b	0.17549627
46	0x3d8ce51c	0.06879637
47	0xbbb43ad4	-0.005500177
48	0xbd7b27f2	-0.06131739
49	0xbe0ef33a	-0.13959971
50	0xbdfc1d26	-0.12310247
51	0x3ddf370e	0.10899173
52	0x3cd395b3	0.025828218
53	0x3d24b761	0.040213946
54	0xbca4c3d9	-0.020112919
55	0xbb04feb2	-0.0020293412
56	0xbd435e57	-0.04769739
57	0xbd06306f	-0.032761034
58	0xbd820d86	-0.06350236
59	0xbd4fe2ae	-0.050753288
60	0x3c6b63e7	0.01436708
61	0x3e0b018e	0.13574812
62	0x3e609859	0.21933116
63	0xbb6d0860	-0.0036168322
64	0xbd497262	-0.04918135
65	0x3e1c6ff4	0.15277082
66	0xbbd2cc7c	-0.006433068
67	0x3dd3d645	0.10343603
68	0xbda72bc2	-0.08162643
69	0xbd5ce5f1	-0.053930227
70	0x3ca199fb	0.019726744
71	0x3e4e6418	0.2015537
72	0x3e2bee50	0.16790128
73	0xbd9d30f5	-0.076753534
74	0xbd97e532	-0.074167624
75	0xbcec7a1a	-0.028866816
76	0x3dec8b46	0.11550002
77	0x3da4af77	0.0804128
78	0xbd314d96	-0.043286882
79	0x3da7ccb4	0.08193341
80	0xbd6c5b4a	-0.057704248
81	0x3e1811a1	0.14850475
82	0xbd807ea7	-0.06274157
83	0x3d682738	0.056678027
84	0x3e0a07e9	0.1347958
85	0x3e0d9cf9	0.13829412
86	0x3e2e5ca0	0.17027521
87	0x3dcd3296	0.10019414
88	0x3d44b064	0.04801978
89	0xbc205ccd	-0.00978775
90	0xbdcf6727	-0.101270966
91	0x3e6519b5	0.22373088
92	0x3aa8495e	0.0012839248
93	0x3dbd6629	0.09248001
94	0xbc6bfcba	-0.014403516
95	0xbbe3aa75	-0.0069478103
96	0xbc993b8f	-0.018705158
97	0x3d66b918	0.056328863
98	0x3dbdc5b4	0.092662245
99	0xbe83c121	-0.25733283
100	0x3e12a139	0.14319314
101	0x3e3ba1c8	0.18323433
102	0xbdd0ab86	-0.101889655
103	0x3dfc6622	0.12324168
104	0x3e03b11f	0.12860535
105	0x3df4cf40	0.11953592
106	0xbd076712	-0.03305728
107	0x3c352014	0.011055011
108	0x3b3723ad	0.0027944848
109	0x3dc7e61a	0.09760685
110	0x3cc339eb	0.023831328
111	0xbc588e82	-0.01321757
112	0x3c88f9a0	0.016720593
113	0x3dd4f298	0.103978336
114	0x3e005f34	0.12536317
115	0x3d04141c	0.03224574
116	0x3dc13c75	0.094353594
117	0x3e80990e	0.2511677
118	0x3daa3c03	0.083122276
119	0xbda20c7b	-0.07912537
120	0x3d015c43	0.03158213
121	0x3e071480	0.13191414
122	0xbc44dccf	-0.0120155355
123	0xbd85442e	-0.06507145
124	0xbdce1edc	-0.1006448
125	0x3da0688e	0.07832442
126	0xbc108ee3	-0.008823129
127	0x3d741e71	0.059599344
128	0x3d3e498e	0.046456866
129	0xbdcfef42	-0.10153057
130	0xbe371cf9	-0.17882146
131	0x3dbe150a	0.09281357
132	0xbd9dcd32	-0.077051535
133	0x3d90e2a8	0.07074481
134	0x3e436923	0.19083075
135	0xbd53d6e6	-0.051718615
136	0xbb1aee0d	-0.0023640424
137	0xbd0c97f4	-0.0343246
138	0x3ce085a5	0.027407477
139	0x3e0c5aac	0.13706464
140	0x3cf472c3	0.029839879
141	0x3e67e8ec	0.22647446
142	0xbcd35179	-0.025795685
143	0xbe118473	-0.14210682
144	0x3c682a11	0.014170186
145	0x3d976927	0.07393103
146	0xbd0486a0	-0.03235495
147	0x3c9fb470	0.019495219
148	0xbe1abd1a	-0.15111199
149	0xbd115b45	-0.035487432
150	0xbcda29b5	-0.026631216
151	0x3e38e451	0.18055846
152	0x3d38ca26	0.04511466
153	0xbdcb2eca	-0.09921034
154	0x3d8f1657	0.06986683
155	0x3db02916	0.086015865
156	0x3c0da35a	0.008644903
157	0x3e024a39	0.12723626
158	0x3d9544e3	0.0728853
159	0x3c977bdc	0.018491678
160	0xbdc4b5d7	-0.09604996
161	0x37cee1fd	2.4662348e-05
162	0xbdd7e413	-0.105415486
163	0xbca84745	-0.020541796
164	0xbbd4fbf8	-0.0064997636
165	0x3df996ea	0.12186988
166	0x3d8bfcbd	0.068353154
167	0x3d441397	0.047870245
168	0x3d153658	0.03642878
169	0x3d50c08e	0.050964884
170	0xbdc8f6d6	-0.09812705
171	0x3d12ee50	0.035871804
172	0x3cdc2b50	0.026876122
173	0xbd14d8d6	-0.036339603
174	0x3c2c494e	0.010515524
175	0x3d8e63b6	0.06952612
176	0x3d290f5f	0.041274425
177	0xbd91df39	-0.071226545
178	0x3e3c6dfe	0.18401334
179	0xbdc16463	-0.09442975
180	0xbbfb3b8f	-0.007667012
181	0x3c2cb8d4	0.010542113
182	0xbdc58f68	-0.09646493
183	0x3d8e54b6	0.06949751
184	0xbdb45928	-0.08806068
185	0xbde9c830	-0.11415136
186	0x3aaee11c	0.0013342234
187	0xbce1e1c8	-0.027573481
188	0x3d6434c5	0.055714387
189	0xbda513f8	-0.08060449
190	0xbd99e6c2	-0.07514717
191	0x3e2b2bd3	0.16715936
192	0x3d30f032	0.043197818
193	0x394c0b60	0.00019459194
194	0x3d23beff	0.03997707
195	0xbdfa77ff	-0.12229919
196	0xbd62b541	-0.05534864
197	0xbd2e343d	-0.042530287
198	0xbe0572bc	-0.13032049
199	0xbd861747	-0.065474086
200	0x3c60d2fe	0.013722179
201	0xbd910a6b	-0.07082065
202	0x3b8f5af3	0.0043748557
203	0xbd46208a	-0.048370875
204	0xbc2b8824	-0.01046947
205	0xbe1ad6b1	-0.15120961
206	0xbe074e45	-0.13213451
207	0x3dd93c64	0.10607222
208	0xbda8608b	-0.08221539
209	0xbc3779fe	-0.011198519
210	0x3e01d4c7	0.12678824
211	0x3d0371f9	0.032091115
212	0xbb6261de	-0.0034543197
213	0xbd6e5f6e	-0.058196478
214	0xbced80ff	-0.028992174
215	0xbb076cfb	-0.0020664323
216	0xbbb014f5	-0.005373592
217	0xbe2fbf82	-0.17162898
218	0xbc33f892	-0.010984557
219	0xbd9a0172	-0.07519807
220	0x3cd82300	0.026383877
221	0x3dfbf94a	0.123034075
222	0xbb26e25d	-0.0025464513
223	0x3d3a39b6	0.045465194
224	0xbc02e559	-0.007989251
225	0x3e3f26ad	0.18667097
226	0xbd5360c9	-0.051605973
227	0xbddfc486	-0.10926156
228	0xbe0541f2	-0.13013437
229	0x3bbd8ee9	0.0057848585
230	0x3e31cb7a	0.17362776
231	0x3c0e4d76	0.00868546
232	0xbca9c405	-0.020723352
233	0x3d38860f	0.045049723
234	0x3e3ccb0c	0.18436831
235	0xbdc33036	-0.0953068
236	0x3dc71c9f	0.09722256
237	0x3d8787cf	0.066177
238	0x3ccaacd6	0.024740618
239	0x3ce9d372	0.028543208
240	0x3d652c50	0.055950463
241	0x3d619397	0.055072393
242	0x3c537046	0.012905186
243	0x3e619e7e	0.22033116
244	0x3e05b56d	0.1305749
245	0xbd856543	-0.06513455
246	0xbdbdc6a9	-0.09266407
247	0x3d978613	0.073986195
248	0x3e28f61a	0.1650013
249	0x3d45418d	0.048158217
250	0xbe00239d	-0.12513585
251	0xbd2ab51a	-0.04167662
252	0x3cc749e9	0.024327235
253	0x3c5edd1e	0.013602523
254	0x3dd37598	0.103251636
255	0x3e126fc6	0.1430045

l1/b f4 [256]
0	0xbe556c37	-0.20842062
1	0xbe202814	-0.15640289
2	0x3d3770ea	0.044785418
3	0xbe85dceb	-0.2614511
4	0xbeb0b4f7	-0.34513065
5	0x402820c0	2.626999
6	0xbe9aa9c5	-0.3020765
7	0xbc5fe6f0	-0.0136659
8	0xbe9dbfe9	-0.30810478
9	0xbee5daa3	-0.4489337
10	0x3e2377c3	0.15963654
11	0xbdb79081	-0.08963109
12	0xbf59752a	-0.84944403
13	0x3d0d14c3	0.034443628
14	0xbf14c7b0	-0.581172
15	0x3e0b664a	0.13613239
16	0xbf4d0ec8	-0.8010068
17	0xbda21f33	-0.07916107
18	0xbd8890d7	-0.06668251
19	0xbf6e5fef	-0.93115133
20	0xbe13f2e3	-0.14448123
21	0xbd8206cc	-0.06348953
22	0xbbe857a1	-0.0070905243
23	0xbd12157e	-0.035665028
24	0xbe9f75a6	-0.31144446
25	0xbe910775	-0.28326002
26	0xbf1bb792	-0.6082698
27	0x3d8e8d89	0.069605894
28	0x3dd4d82a	0.103927925
29	0xbe2e48e4	-0.17019993
30	0x3c61c541	0.013779939
31	0xbae3fd1c	-0.0017394158
32	0xbea8c832	-0.32965237
33	0xbe8d3c63	-0.27585134
34	0xbeb03154	-0.34412634
35	0xbbe2f215	-0.006925831
36	0x3d0d186b	0.034447115
37	0xbdbf094b	-0.09327944
38	0x3d9ef2fd	0.0776119
39	0x3e5ade66	0.21373901
40	0xbd9dd6c9	-0.07706983
41	0x3f080aa4	0.53141236
42	0x3c4308d3	0.011903959
43	0xbe79b45f	-0.24385212
44	0xbda074c3	-0.078347705
45	0xbf34ac43	-0.7057535
46	0xbd7ee4b1	-0.062229816
47	0xbea7e06e	-0.32788414
48	0x3e7642eb	0.24048965
49	0x3d43dcba	0.047817923
50	0xbf723437	-0.94610924
51	0xbe42a7a9	-0.1900927
52	0xbec6ce0f	-0.38829085
53	0xbf55550d	-0.833329
54	0xbec8f40e	-0.392487
55	0x39b5080e	0.00034529011
56	0xbf9f8a9e	-1.2464178
57	0x3d9d0942	0.076677814
58	0xbed55096	-0.41663045
59	0x3d168285	0.036745567
60	0x3ec960fa	0.393318
61	0xbe139124	-0.14410836
62	0xbfd187bd	-1.6369549
63	0xbe60a30d	-0.21937199
64	0xbee4634f	-0.44607016
65	0xbf489bda	-0.7836281
66	0xbe8dfa28	-0.27729917
67	0x3d6209ab	0.055185
68	0x3dcb0af1	0.09914196
69	0xbe2419e4	-0.16025501
70	0xbed6926a	-0.4190858
71	0xbcb120aa	-0.02162202
72	0xbe6dcdad	-0.2322299
73	0x3dd2b7a0	0.1028893
74	0x3cdee573	0.02720902
75	0x3f4071e6	0.75173795
76	0xbd200b9e	-0.03907358
77	0xbe8a0ecf	-0.26964423
78	0x3d294e1d	0.04133426
79	0x3dc6849c	0.09693262
80	0xbd29b096	-0.04142817
81	0xbfee5403	-1.8619388
82	0xbc426c2f	-0.011866613
83	0xbd392037	-0.045196738
84	0xbe8216cd	-0.2540802
85	0xbf89f400	-1.0777588
86	0x3f086084	0.5327227
87	0xbf210dca	-0.62911665
88	0x3cb080f1	0.021545859
89	0x3f2a0c7c	0.664253
90	0xbe04be52	-0.12963226
91	0xbda193b3	-0.078894995
92	0x3df24c6a	0.11830981
93	0xbe185bc5	-0.14878757
94	0x3ea513ac	0.3224157
95	0xbf32ec1a	-0.6989151
96	0x3c488071	0.012237654
97	0xbe75c250	-0.23999906
98	0x3f8da867	1.1067017
99	0x3bbfd4b1	0.005854212
100	0x3e91f552	0.28507477
101	0xbf03cbc7	-0.51482815
102	0xbe094a9f	-0.13407372
103	0xbf17b179	-0.59255177
104	0xbe3375d2	-0.17525414
105	0x3ccac4e3	0.024752086
106	0x3b7cb991	0.0038562755
107	0xbf01353a	-0.5047184
108	0x3d236ce2	0.03989876
109	0xbf07c8fe	-0.53041065
110	0xbeb20d62	-0.34775835
111	0xbf3b4004	-0.73144555
112	0xbe13de39	-0.1444024
113	0xbd89b9a6	-0.06724863
114	0xbf035cab	-0.51313275
115	0xbc0f088f	-0.008730068
116	0x3d1b1a08	0.037866622
117	0xbfbe8705	-1.4884955
118	0x3c9a8fdc	0.018867426
119	0xbdabff78	-0.08398336
120	0xbf0acc32	-0.5421783
121	0xbef9f1b2	-0.4881721
122	0x3dafef9c	0.08590624
123	0x3ddc04d0	0.107431054
124	0xbe077939	-0.13229837
125	0xbdb9006b	-0.09033283
126	0xbea57041	-0.32312205
127	0xbf3a41e6	-0.72756803
128	0xbeb15487	-0.34634802
129	0x3bb00d33	0.005372667
130	0x3f566054	0.83740735
131	0xbdfff860	-0.12498546
132	0xbe8981a0	-0.2685671
133	0xbf234e42	-0.63791287
134	0xbe497a4e	-0.19675562
135	0xbd6ff4e8	-0.05858317
136	0xbf82ba15	-1.0213038
137	0x3dccef14	0.10006538
138	0x3de884ae	0.11353432
139	0x3d7cd394	0.061725214
140	0xbf7788b4	-0.9669297
141	0xbe829a24	-0.25508225
142	0x3de9c87c	0.114151925
143	0xbf12071b	-0.5704209
144	0x3d8700bd	0.06591938
145	0xbd8669d8	-0.06563157
146	0xbf104380	-0.56352997
147	0xbe31d635	-0.1736687
148	0xbf0d11d5	-0.55105335
149	0xbe370ecb	-0.17876737
150	0xbe128c5c	-0.14311355
151	0xbf1a1946	-0.60194814
152	0xbda8501c	-0.08218405
153	0x3cff9806	0.03120042
154	0x3e2174a9	0.15767159
155	0xbe6510ab	-0.2236964
156	0xbebbee83	-0.36705408
157	0x3e5e622d	0.21717139
158	0x3e6169ec	0.22013062
159	0xbe765d2d	-0.24058981
160	0x3daa7f40	0.08325052
161	0x3c755979	0.014974945
162	0xbe3041a7	-0.17212544
163	0xbf2400d8	-0.6406379
164	0xbe2ee94f	-0.17081188
165	0xbbc9422f	-0.006141923
166	0x3e99c545	0.30033317
167	0xbe41fc55	-0.18943913
168	0xbf179131	-0.5920592
169	0x3fdf4fa6	1.7446182
170	0x3ee84eee	0.4537272
171	0xbd1c2573	-0.03812165
172	0x3e967a28	0.29390073
173	0xbc3ce680	-0.011529565
174	0x3becfd18	0.0072323196
175	0x3d62f591	0.05540997
176	0xbc2351a0	-0.009968191
177	0xbf5fac50	-0.87372303
178	0xbec4e7ed	-0.38458195
179	0xbe8b68e2	-0.27228457
180	0x3c6eee9f	0.014583259
181	0xbe5a91e4	-0.21344715
182	0xbe9ec422	-0.31009012
183	0x3d1ced31	0.03831214
184	0xbf13ddda	-0.57760394
185	0xbeb16002	-0.3464356
186	0xbf77cccf	-0.9679689
187	0xbe70720b	-0.23481004
188	0xbe9feb25	-0.3123409
189	0xbccf1518	-0.025278613
190	0x3d68d923	0.056847703
191	0xbe511128	-0.20416701
192	0xbe4dea59	-0.20108928
193	0x3dfcd622	0.1234553
194	0xbcdaab49	-0.026693003
195	0xbf0f94c8	-0.560864
196	0xbdad7d4c	-0.08471164
197	0xbe1856e5	-0.14876898
198	0xbe570b2c	-0.21000355
199	0xbf387562	-0.7205411
200	0xbe3bbcef	-0.18333791
201	0xbd4f8b85	-0.050670166
202	0x3cfbff62	0.030761424
203	0x3e17584a	0.14779773
204	0x3cba62ce	0.022752192
205	0xbd4c1e06	-0.04983332
206	0xbc56472a	-0.01307849
207	0xbe81f9aa	-0.2538579
208	0x3e198107	0.14990626
209	0xbf408e2a	-0.75216925
210	0x3f432f9b	0.76244515
211	0xbe966af6	-0.2937848
212	0xbf66b7fd	-0.90124494
213	0x3e210ea0	0.15728235
214	0xbf003613	-0.5008251
215	0x3d6db7bd	0.058036555
216	0xbed7d03e	-0.42151064
217	0xbd33cf19	-0.043898676
218	0xbf14a4bb	-0.5806386
219	0xbf308f8f	-0.68969053
220	0xbf233884	-0.6375811
221	0xbd9d4e14	-0.07680908
222	0xbee4c3b0	-0.44680548
223	0x3c06464d	0.008195472
224	0xbf0de4e6	-0.55427396
225	0x3d884d93	0.06655421
226	0xbe5a85ba	-0.21340075
227	0xbe11b592	-0.1422942
228	0xbd24a258	-0.040193886
229	0xbdcdd798	-0.10050887
230	0xbe46f10c	-0.1942789
231	0xbd82caf5	-0.06386367
232	0xbeb5930b	-0.35463747
233	0x3d382cf0	0.04496473
234	0xbe4dfbd7	-0.201156
235	0x3e36f4e9	0.17866863
236	0x3e207182	0.156683
237	0xbfc43391	-1.5328237
238	0xbedc093b	-0.42975792
239	0x3bbc792a	0.0057517486
240	0xbf045514	-0.5169232
241	0xbdd78467	-0.105233006
242	0xbd323664	-0.043508902
243	0xbf568fe5	-0.83813316
244	0x3d9f4361	0.077765234
245	0xbe6c1047	-0.23053084
246	0x3f78295b	0.96938103
247	0x3e668863	0.22512965
248	0x3e110056	0.14160284
249	0x3def49e5	0.11684016
250	0xbf49a524	-0.7876761
251	0xbf75164e	-0.9573716
252	0xbda45d65	-0.08025626
253	0xbef9c1e7	-0.48780748
254	0x3f4feea5	0.8122352
255	0x3df8b078	0.12143034

l1/W f4 [256, 36]
0	0x3ecbafb8	0.397825
1	0xbed20166	-0.41016692
2	0xbe88f06f	-0.26745936
3	0x3c0cd02a	0.008594552
4	0xbe5cd39b	-0.21565096
5	0x3ee6fff1	0.45117143
6	0xbd69575b	-0.056968074
7	0x3db0e7d0	0.08637965
8	0x3e14e95c	0.14542145
9	0x3ef53cb5	0.47897878
10	0xbdedfc00	-0.11620331
11	0xbea88d96	-0.32920521
12	0x3e31f4f8	0.17378604
13	0x3e3d4d75	0.18486579
14	0x3e541a57	0.20713173
15	0xbe04c050	-0.12963986
16	0x3e721b5e	0.23643252
17	0x3e599cc3	0.21251206
18	0xbf10a599	-0.5650268
19	0xbf2a78d5	-0.66590625
20	0x3e85c963	0.26130208
21	0xbdbf0adc	-0.09328243
22	0xbe7f2c08	-0.2491914
23	0x3aaebd80	0.0013331622
24	0x3ec25d17	0.37961647
25	0x3ef44a53	0.47712955
26	0xbe2c9304	-0.16852957
27	0xbce2b669	-0.02767487
28	0xbf1d777c	-0.61510444
29	0x3d8251e2	0.06363274
30	0x3e345930	0.17612147
31	0x3eb6c49e	0.35696882
32	0x3e3b6144	0.18298823
33	0xbecdb644	-0.4017812
34	0xbe7c519c	-0.24640507
35	0xbd3ba06a	-0.04580728
36	0xbe00e527	-0.12587415
37	0xbeadefb0	-0.3397193
38	0xbe72e702	-0.23720935
39	0x3d363908	0.044487983
40	0x3e41fd5a	0.18944302
41	0x3e9d79f9	0.3075712
42	0xbde26200	-0.11053848
43	0x3eb2c807	0.34918234
44	0x3f1ed2a6	0.62040174
45	0xbceecf13	-0.029151475
46	0xbdeb3663	-0.11484983
47	0xbec2a13f	-0.38013646
48	0xbdbc99a2	-0.09208991
49	0x3f451fca	0.7700163
50	0xbd3d859d	-0.04627
51	0xbbc816d8	-0.006106239
52	0xbdab3606	-0.083599135
53	0x3db3d399	0.087805934
54	0xbed0dd06	-0.40793628
55	0xbea22a29	-0.3167279
56	0xbe8e2ed4	-0.27770102
57	0x3e13e1f5	0.14441665
58	0xbe330a5e	-0.17484424
59	0x3dfa096f	0.122088306
60	0xbd59879e	-0.05310785
61	0xbeeb1d81	-0.45920947
62	0xbda7042b	-0.08155092
63	0xbeb3857f	-0.35062787
64	0xbdb3f3c4	-0.08786729
65	0x3ec5f9de	0.38667196
66	0x3e9327c8	0.28741288
67	0x3e5cd98d	0.21567364
68	0xbdea8b07	-0.114522986
69	0x3f00a038	0.50244474
70	0x3e1791ce	0.14801714
71	0xbe33319d	-0.17499395
72	0x3ebeae83	0.37242517
73	0xbe1608b6	-0.1465176
74	0x3dd8f723	0.105940126
75	0x3e015af5	0.12632354
76	0xbe00f257	-0.12592445
77	0xbcd46174	-0.025925376
78	0xbed33245	-0.4124929
79	0xbd7f65e8	-0.062353045
80	0xbe74cb40	-0.23905659
81	0x3e329083	0.1743794
82	0x3f020be7	0.5079941
83	0xbdd4ef2e	-0.103971824
84	0xbe4e8f7d	-0.20171924
85	0x3c18d6f1	0.00932859
86	0xbd415730	-0.04720229
87	0x3d830282	0.06396963
88	0xbd4f966c	-0.050680563
89	0xbf0940b3	-0.5361435
90	0x3c2a3ca7	0.010390437
91	0x3e11ee9d	0.1425118
92	0xbedf3093	-0.43591747
93	0xbe48de01	-0.19615938
94	0x3e92e484	0.2868997
95	0xbed6dafc	-0.41963947
96	0xbe6636c4	-0.22481829
97	0xbe70b2fa	-0.23505774
98	0x3c182fdf	0.009288757
99	0x3d959c43	0.07305195
100	0x3ea93979	0.3305166
101	0xbece1b0d	-0.40255013
102	0x3cea8cfd	0.028631682
103	0xbdf2507f	-0.1183176
104	0x3e916bdc	0.28402603
105	0xbe641b5a	-0.22276059
106	0xbe27e99c	-0.16397709
107	0xbea6d52f	-0.3258452
108	0x3e33e84e	0.17569086
109	0xbdd6b2cb	-0.10483321
110	0x3e1ea872	0.15493944
111	0x3eb535d0	0.35392618
112	0xbdc50131	-0.09619368
113	0xbd8bda19	-0.06828708
114	0xbf1903b9	-0.59771305
115	0xbe0160a9	-0.12634529
116	0x3eaa8d88	0.33311105
117	0x3e37bdb7	0.17943464
118	0x3ee8e417	0.4548652
119	0xbd48cfeb	-0.04902641
120	0xbf0af934	-0.54286504
121	0x3f262ca1	0.6491185
122	0x3ca2447c	0.019808047
123	0x3eb6abe0	0.35678005
124	0x3d3bd1e0	0.04585445
125	0xbe4d0119	-0.2001995
126	0xbec8ba0c	-0.39204443
127	0x3d24026b	0.04004137
128	0x3d7aaef7	0.061202016
129	0xbee20975	-0.4414784
130	0xbe60d590	-0.21956468
131	0x3e9036c8	0.28166795
132	0xbe826a83	-0.25471887
133	0x3d9d1316	0.07669656
134	0x3c699983	0.014257791
135	0x3e9e1359	0.30874136
136	0xbe916df5	-0.28404203
137	0x3ef05762	0.46941668
138	0xbe883504	-0.26602948
139	0xbb306a0a	-0.0026918673
140	0xbd07c4c5	-0.03314664
141	0xbe26b11a	-0.16278496
142	0xbdfbf392	-0.12302317
143	0xbe1bf27b	-0.15229218
144	0x3e6f03a0	0.23341227
145	0xbdde9fc5	-0.10870317
146	0x3e914876	0.28375596
147	0x3ef1c271	0.4721866
148	0x3e85db19	0.2614372
149	0x3dae3dcc	0.085078806
150	0xbe7a95cb	-0.24471204
151	0xbe5e2b0d	-0.2169611
152	0x3dba6ff6	0.09103386
153	0x3d8b31ef	0.067966335
154	0xbd3bd746	-0.045859598
155	0x3e1a1f5e	0.15051028
156	0x3e038b30	0.12846065
157	0x3e1e54c5	0.15462025
158	0xbe3cb52a	-0.18428484
159	0xbe8c05c9	-0.27348164
160	0xbeaee1f4	-0.34156764
161	0x3ea82d83	0.32847223
162	0x3e81d99b	0.25361332
163	0xbe65a86c	-0.22427529
164	0xbd4df500	-0.05028248
165	0xbf2aaf5f	-0.66673845
166	0x3eb8ac60	0.36069012
167	0xbe037208	-0.12836468
168	0xbd66abfd	-0.056316365
169	0x3e5b67a1	0.2142625
170	0x3ea27292	0.31728035
171	0xbded14ee	-0.11576258
172	0xbe6cbb4b	-0.23118322
173	0x3d0e0c4e	0.034679703
174	0x3e161ef0	0.14660239
175	0xbe17bb4b	-0.1481754
176	0xbe09305a	-0.13397351
177	0xbeb793f5	-0.3585507
178	0xbe934c86	-0.2876932
179	0x3f011bba	0.5043293
180	0xbd0247a6	-0.03180661
181	0xbe19333b	-0.14960949
182	0x3e4c2a2d	0.19937964
183	0xbe0b48fc	-0.1360206
184	0xbde6bf2c	-0.11266932
185	0xbd544c26	-0.051830433
186	0xbc29be4d	-0.010360313
187	0xbe02d948	-0.12778199
188	0xbe9fc46e	-0.3120455
189	0x3d657b1d	0.056025613
190	0x3e50a12b	0.2037398
191	0x3e22adf4	0.1588667
192	0xbd5b5cf2	-0.053555436
193	0xbde1a5d6	-0.11017959
194	0xbc270f6f	-0.010196551
195	0x3e10fbcf	0.14158557
196	0xbe5e40e4	-0.21704441
197	0xbdea18fc	-0.11430547
198	0xbddf4f49	-0.10903794
199	0x3e4378aa	0.19088998
200	0x3e0ebdc8	0.13939583
201	0xbd808464	-0.062752515
202	0xbdbc697e	-0.091998085
203	0xbdcdfd31	-0.10058058
204	0x3d236365	0.039889712
205	0xbc5bdc5c	-0.013419237
206	0x3d30e698	0.04318866
207	0xbe07d1b3	-0.13263588
208	0xbe7e6840	-0.24844456
209	0x3dc780f5	0.097413935
210	0x3d535979	0.051599
211	0xbd997b6e	-0.074942455
212	0x3de16eeb	0.11007484
213	0x3d5eb6ee	0.054373674
214	0x3ce14741	0.027499797
215	0x3d07df0b	0.033171695
216	0xbd656030	-0.055999935
217	0xbdcb86c5	-0.099378146
218	0x3f222cca	0.6334959
219	0xbeac5438	-0.33658004
220	0xbd526158	-0.051362365
221	0x3f018637	0.5059542
222	0xbca24666	-0.01980896
223	0x3a1d82d9	0.00060085725
224	0xbe6c430e	-0.23072454
225	0xbe64dc45	-0.22349651
226	0xbea5d3ed	-0.3238825
227	0x3f5f9470	0.8733587
228	0x3ec26641	0.3796864
229	0x3e816dee	0.25279182
230	0x3cf38e12	0.02973083
231	0xbe052ad7	-0.13004623
232	0x3de3be4e	0.11120282
233	0xbe992264	-0.2990905
234	0xbde99b49	-0.114065714
235	0xbe1e8774	-0.15481359
236	0x3dc4e876	0.09614651
237	0xbe0ae483	-0.13563733
238	0x3d90bcef	0.07067286
239	0x3e340c42	0.17582801
240	0xbe69ba39	-0.22824945
241	0xbcce0742	-0.025149945
242	0x3e9897a5	0.29803196
243	0xbe9cf2f8	-0.3065412
244	0x3eed9d8a	0.46409255
245	0xbc82c92f	-0.015965072
246	0xbf1cf513	-0.61311454
247	0x3e2c1fc2	0.1680899
248	0xbebe21f8	-0.3713529
249	0xbeacaddd	-0.33726397
250	0xbeb1f16d	-0.34754506
251	0x3ceaa74f	0.028644232
252	0x3e5f9f44	0.21838099
253	0x3e8be978	0.2732656
254	0x3e763141	0.24042226
255	0xbf0eb311	-0.55741984

l4/b f4 [36]
0	0xbef703e4	-0.48245156
1	0xbefd99b0	-0.49531317
2	0xbe5429bc	-0.20719045
3	0xbf1562c8	-0.58353853
4	0xbf1b2052	-0.6059619
5	0xbf04064a	-0.51572096
6	0xbebbb3d7	-0.36660644
7	0xbebd065e	-0.3691892
8	0xbeef72ba	-0.46767217
9	0xbf065959	-0.52480084
10	0xbebb98ae	-0.36639923
11	0xbec39c64	-0.38205254
12	0xbf14514d	-0.57936555
13	0xbedeff7b	-0.4355429
14	0xbdf1e3c8	-0.11811024
15	0xbdc94038	-0.09826702
16	0xbee711b6	-0.451307
17	0xbeef7c64	-0.4677459
18	0xbe611fe3	-0.2198482
19	0xbeebeb50	-0.46077967
20	0xbe285a44	-0.16440684
21	0xbe1a836f	-0.150892
22	0xbeea59cc	-0.45771635
23	0xbf1124ad	-0.5669659
24	0xbf075a74	-0.52872396
25	0xbecc3e4a	-0.39891273
26	0xbf033c59	-0.5126396
27	0xbed71296	-0.42006367
28	0xbf06721e	-0.5251788
29	0xbefead1c	-0.49741447
30	0xbeb35699	-0.35027006
31	0xbee17274	-0.44032633
32	0xbed53e46	-0.41649073
33	0xbead2eaa	-0.33824664
34	0xbf08b789	-0.5340505
35	0xbe9fd5a5	-0.31217685

l4/W f4 [36, 256]
0	0xbd8d6d05	-0.069055595
1	0xbdeee7cc	-0.116653055
2	0x3d89294d	0.066973306
3	0xbbb50b57	-0.0055250335
4	0xbb0ec9b8	-0.0021787714
5	0x3dc9b21d	0.098484255
6	0xbe63666b	-0.22207038
7	0x3caf4e38	0.021399602
8	0x3d845898	0.064622104
9	0xbc39eba0	-0.011347681
10	0x3d2d602c	0.042328045
11	0x3e1323e8	0.14369166
12	0x3d9808d8	0.07423562
13	0x3d275414	0.040851668
14	0x3eb54144	0.35401356
15	0xbdc9071e	-0.098158106
16	0x3cd62d6c	0.026144706
17	0x3dab701e	0.08370994
18	0xbd3eacea	-0.046551622
19	0x3d1543c5	0.036441583
20	0x3e964e18	0.29356456
21	0x3ddd4d30	0.10805738
22	0x3d60711b	0.054795366
23	0xbe13dead	-0.14440413
24	0xbcfab8fc	-0.030605786
25	0x3d9562bd	0.072942235
26	0xbe996bcb	-0.29965052
27	0xbccdc8b2	-0.025120113
28	0xbc58d7f4	-0.013235081
29	0x3d49c262	0.049257644
30	0xbe33f34a	-0.17573276
31	0x3d39a3d5	0.045322258
32	0x3daf9b51	0.08574546
33	0xbd974b71	-0.07387436
34	0x3d609537	0.054829802
35	0xbe55af71	-0.20867707
36	0xbe1ed02d	-0.155091
37	0x3c16411a	0.009170795
38	0x3c49a858	0.012308203
39	0xbb704061	-0.0036659467
40	0xbdf44448	-0.11927086
41	0xbddd1061	-0.1079414
42	0x3e491d90	0.19640183
43	0x3b11f10d	0.0022268922
44	0xbb81321f	-0.0039427425
45	0xbec89936	-0.3917939
46	0xbd51bbb9	-0.051204417
47	0xbc68a0ee	-0.014198525
48	0x3df28c2f	0.11843144
49	0xbd818493	-0.06324115
50	0xbeaeb8d5	-0.3412539
51	0xbd975512	-0.07389273
52	0xbf028fe9	-0.5100084
53	0x3da14450	0.07874358
54	0x3e17cc86	0.14824113
55	0xbe231270	-0.15925002
56	0x3e875f5b	0.26439938
57	0xbec8252c	-0.3909086
58	0x3d97bbd1	0.0740887
59	0x3e02f2a0	0.12787867
60	0xbccb24a7	-0.02479775
61	0xbd0c1142	-0.034196146
62	0xbdec8aad	-0.11549888
63	0xbc919329	-0.017770367
64	0xbe8ba375	-0.27273145
65	0xbeb98d14	-0.36240447
66	0x3cca32de	0.024682458
67	0x3cf67f7b	0.030090084
68	0xbe020514	-0.1269725
69	0x3e1546d0	0.14577794
70	0x3c62199b	0.01380005
71	0x3dc760e6	0.09735279
72	0xbad758e4	-0.001642969
73	0xbeba2441	-0.36355785
74	0x3cf62973	0.030049061
75	0x3d894efc	0.06704518
76	0x3d2eb0df	0.042649146
77	0x3de5e448	0.11225182
78	0x3e2b9054	0.16754276
79	0x3e52620e	0.20545217
80	0xbf094624	-0.5362265
81	0xbcb80204	-0.022461899
82	0xbeac4345	-0.33645073
83	0x3c261f77	0.010139338
84	0xbef808fb	-0.48444352
85	0xbf021633	-0.50815123
86	0x3e0140a4	0.12622315
87	0x3dd935f9	0.106059976
88	0xbe9f207f	-0.3107948
89	0xbda12daf	-0.078700416
90	0xbd88499b	-0.06654664
91	0xbcae3c93	-0.021269118
92	0x3ca59437	0.020212276
93	0xbbc7cdc2	-0.0060975263
94	0x3c9bd49b	0.019022277
95	0xbbc49d95	-0.0060002306
96	0xbe3bde08	-0.18346417
97	0xbdc96164	-0.09833029
98	0x3d259aec	0.04043095
99	0xbe6852ef	-0.22687887
100	0xbe3a71cb	-0.18207471
101	0x3e77fc49	0.24217333
102	0x3da14475	0.07874385
103	0x3dbbc854	0.09169069
104	0x3de0030c	0.10938081
105	0xbb1e22a1	-0.0024129527
106	0x3e28403c	0.16430753
107	0xbe23bcab	-0.1598994
108	0xbedf79ad	-0.4364752
109	0xbdaccc92	-0.08437456
110	0xbde9a043	-0.114075206
111	0xbe61fd42	-0.22069266
112	0xbeb3b1e3	-0.35096654
113	0xbca15aaa	-0.019696552
114	0xbc11b5df	-0.008893459
115	0xbc0072cc	-0.00783987
116	0xbd325c30	-0.043544948
117	0x3ceb49b0	0.02872166
118	0xbec69e1f	-0.38792512
119	0x3cfedee8	0.03111215
120	0xbd6a6f6f	-0.057235178
121	0x3dfdf353	0.12399926
122	0x3c31f372	0.010861265
123	0x3d03084e	0.03199034
124	0xbe08d4b6	-0.13362393
125	0x3c87a74b	0.016559264
126	0x3d4f1fa5	0.050567288
127	0xbe7614da	-0.24031392
128	0x3e07892e	0.13235924
129	0x3e3bfbd4	0.18357784
130	0xbeb0de8c	-0.3454479
131	0x3d966fc9	0.0734554
132	0xbdb714db	-0.08939525
133	0xbc872b05	-0.016500005
134	0xbe067932	-0.1313217
135	0x3e0a86e5	0.1352802
136	0xbd67819d	-0.056520093
137	0x3df648f4	0.120256335
138	0x3dde9648	0.108685076
139	0xbcd8a801	-0.026447298
140	0x3db94635	0.09046594
141	0xbe03a21c	-0.12854809
142	0x3cb14e38	0.021643743
143	0xbe552166	-0.20813522
144	0x3eacc818	0.3374641
145	0xbe54f725	-0.20797403
146	0xbd883f94	-0.066527516
147	0x3c803c50	0.01565376
148	0x3e841535	0.2579743
149	0x3d2bd42c	0.04195039
150	0x3df54423	0.11975887
151	0xbea44f49	-0.3209174
152	0xbc628d40	-0.013827622
153	0x3cf2f6dc	0.029658727
154	0x3e00380f	0.12521385
155	0xbbfdcfae	-0.0077457046
156	0xbd28b50c	-0.041188285
157	0x3d7082a0	0.058718324
158	0xbd8428f1	-0.064531215
159	0x3d4a4d43	0.04939009
160	0x3ce3f7cb	0.027828118
161	0xbe0f3543	-0.13985161
162	0xbe1cf4a2	-0.15327695
163	0xbd4392a1	-0.047747258
164	0xbc63d99e	-0.013906864
165	0x3dad4c5d	0.08461831
166	0x3d153fdf	0.036437865
167	0x3ebc217d	0.367443
168	0xbeece908	-0.4627154
169	0xbd4d717e	-0.050157063
170	0x3d98c78f	0.07459938
171	0xbd84b37d	-0.06479547
172	0xbb8e8938	-0.004349854
173	0x3e904cad	0.281835
174	0x3cb9e3db	0.022691658
175	0xbd0f9a8f	-0.035059508
176	0xbc1954c3	-0.009358588
177	0x3b98abe6	0.0046591638
178	0xbed9bbf9	-0.42526224
179	0x3e300336	0.17188725
180	0x3d0a968d	0.033834983
181	0x3e2a5bc1	0.16636564
182	0x3e2d7307	0.1693841
183	0xbd8c1e0f	-0.06841671
184	0xbdabd57f	-0.083903305
185	0x3eacc6bb	0.3374537
186	0xbe24d02e	-0.16095039
187	0xbec0a141	-0.37623027
188	0x3d3b4d6e	0.04572814
189	0x3d01fb3d	0.03173374
190	0xbec87cad	-0.3915762
191	0xbd30bdc3	-0.04314972
192	0xbeceddde	-0.40403646
193	0x3cf11b53	0.029431975
194	0xbc08aa8a	-0.008341441
195	0xbcedb448	-0.029016629
196	0xbeb43198	-0.35194087
197	0x3c73326e	0.014843566
198	0xbcc112d7	-0.023568554
199	0xbd1592dc	-0.03651701
200	0xbef26c68	-0.47348332
201	0x3cb378d9	0.02190821
202	0x3e27897a	0.16361037
203	0xbda8676e	-0.08222853
204	0xbe645e37	-0.22301565
205	0x3c86a28b	0.016434928
206	0xbdad2eda	-0.08456202
207	0x3e5c830c	0.21534365
208	0x3b23f756	0.002501925
209	0x3c82e27b	0.015977135
210	0x3c9be3bc	0.01902949
211	0x3d9571df	0.0729711
212	0x3e0ef4e5	0.13960607
213	0xbec70104	-0.38867962
214	0xbcb48c18	-0.022039458
215	0x3cfc6f7e	0.030814882
216	0xbda7d212	-0.081943646
217	0x3e4d5554	0.20052081
218	0x3b2f952d	0.0026791797
219	0xbb5a0de1	-0.0033272433
220	0xbbde9211	-0.006792315
221	0x3d7be40c	0.06149678
222	0x3e5b4128	0.21411574
223	0x3b8a5d58	0.004222553
224	0xbdce2d19	-0.100671954
225	0xbd00a20d	-0.031404544
226	0x3d7a0a4b	0.061044972
227	0x3d537baa	0.051631607
228	0x3dc78015	0.097412266
229	0x3d240346	0.040042184
230	0xbcb927cd	-0.022601986
231	0x3b97e590	0.0046355203
232	0x3e10775f	0.14108036
233	0xbd0405f2	-0.032232232
234	0xbb815ce9	-0.0039478433
235	0xbd380ef9	-0.044936154
236	0xbd006ca9	-0.031353626
237	0x3dc23f44	0.09484723
238	0xbc05dd9d	-0.0081705125
239	0x3cc38f9a	0.023872185
240	0x3d48afd9	0.048995826
241	0xbd846cd3	-0.06466069
242	0x3cbf6282	0.023362402
243	0xbdd56d98	-0.10421294
244	0x3ccbd7c3	0.024883157
245	0x3dc37531	0.09543837
246	0xbd10d203	-0.035356533
247	0x3d46f154	0.048569992
248	0xbc116821	-0.008874924
249	0xbe511ee4	-0.2042194
250	0xbeecaa23	-0.46223554
251	0xbe0e0317	-0.13868366
252	0x3d06fe7e	0.032957546
253	0x3e01bb4d	0.12669106
254	0xbd5132c1	-0.051073793
255	0x3dc663dc	0.096870154

l3/b f4 [256]
0	0x3e636188	0.22205174
1	0x3d1331b9	0.03593609
2	0x3c70872c	0.014680665
3	0x3b36b17f	0.0027876792
4	0xbcfb3683	-0.030665642
5	0xbe33b5cd	-0.1754982
6	0x3e1434b6	0.14473233
7	0x3e53d92d	0.20688315
8	0x3e27aa88	0.16373646
9	0x3eb17ea9	0.34666947
10	0x3edaaa47	0.42708036
11	0x3bd4b171	0.006490879
12	0xbe9994d2	-0.29996353
13	0xbe9c5925	-0.30536762
14	0x3bf06034	0.007335687
15	0xbd9d7816	-0.0768892
16	0x3c8d13c0	0.017221332
17	0x3e0a946a	0.13533178
18	0xbe4f1331	-0.20222165
19	0x3da3fac4	0.08006814
20	0xbc11f10a	-0.008907566
21	0x3dffab81	0.12483884
22	0xbdd5d22e	-0.10440479
23	0x3e1653f8	0.14680469
24	0x3e406ace	0.18790743
25	0x3d8dc284	0.069218665
26	0x3d0e9771	0.034812395
27	0x3d5dd827	0.054161217
28	0x3d62e2ee	0.0553922
29	0xbd275e34	-0.040861323
30	0x3dade5f8	0.08491129
31	0x3dca0713	0.098646306
32	0x3e8173b0	0.25283575
33	0x3e56ab2b	0.20963733
34	0xbca16e0e	-0.019705798
35	0x3d867dfa	0.06566997
36	0x3d98cc08	0.07460791
37	0x3e3b2ed2	0.1827958
38	0xbdc70840	-0.097183704
39	0xbe0d61f0	-0.13806891
40	0x3bfa9d33	0.007648134
41	0x3ec093f7	0.37612888
42	0xbdef0018	-0.1166994
43	0xbdb928b8	-0.090409696
44	0x3e0fb729	0.14034714
45	0x3e01187b	0.12606995
46	0x3e07a9cf	0.1324837
47	0x3e649503	0.22322468
48	0x3da8b8d3	0.082383774
49	0x3dd695f8	0.10477823
50	0x3d79266a	0.06082765
51	0x3e7beec2	0.24602798
52	0x3ec3668d	0.38164178
53	0x3dbfdffb	0.09368893
54	0xbd107f78	-0.035277814
55	0x3e8d5a46	0.27607936
56	0x3d0a8560	0.033818603
57	0x3db7d693	0.08976474
58	0x3e00a218	0.12561834
59	0x3d8caa55	0.06868426
60	0x3eb3f889	0.35150555
61	0x3e925913	0.28583583
62	0x3d20c3a1	0.039249066
63	0x3d5f544c	0.05452375
64	0x3e796b3b	0.24357311
65	0x3e1273a5	0.14301927
66	0xbb17624a	-0.0023099356
67	0xba9ae2d4	-0.0011816868
68	0x3e4948d0	0.19656682
69	0xbc7513d2	-0.014958339
70	0x3d021a96	0.031763636
71	0x3d24a93f	0.04020047
72	0xbc3e418b	-0.011612306
73	0xbda91053	-0.08255067
74	0x3dcf6f29	0.10128624
75	0xbb81d896	-0.0039625866
76	0xbe6be4c2	-0.23036483
77	0x3db7a6f5	0.089673914
78	0x3e31d72c	0.17367238
79	0x3dc7a17e	0.09747599
80	0x3e212ee1	0.15740539
81	0x3db53ba3	0.088492654
82	0x3dd2b7db	0.10288974
83	0xbe8242bf	-0.25441548
84	0x3d6e9c09	0.058254275
85	0x3d9e39e7	0.07725888
86	0x3c9b5b03	0.018964296
87	0x3d4f16b1	0.05055875
88	0xbd774043	-0.06036402
89	0x3fc3ce91	1.5297414
90	0x3d72ead4	0.05930598
91	0x3e252c9d	0.161303
92	0xbe173e6a	-0.14769903
93	0x3ef2c724	0.47417557
94	0xbea38785	-0.3193933
95	0xbe552bed	-0.20817538
96	0x3d6ff83e	0.05858635
97	0x3de24cc9	0.11049802
98	0x3dd1abed	0.1023787
99	0xbdbd7bf1	-0.092521556
100	0x3ef79848	0.4835837
101	0x3d5754f1	0.05257124
102	0x3e925ca7	0.28586313
103	0xbe0cbaf8	-0.13743198
104	0x3d402296	0.046907984
105	0x3d7229f1	0.05912203
106	0x3daf5055	0.08560244
107	0x3ce8e490	0.0284293
108	0x3ddc6b51	0.107626565
109	0x3e368bc3	0.17826752
110	0x3e79f6da	0.24410573
111	0x3e1baf00	0.15203476
112	0x3e579fd1	0.21057059
113	0xbe96d47a	-0.29458982
114	0x3e54cac1	0.2078047
115	0xbc61898d	-0.013765705
116	0x3d8d06d3	0.06886067
117	0xbd8f8716	-0.070081875
118	0x3e968123	0.29395398
119	0x3d1a533f	0.037677046
120	0xbe810cba	-0.25205022
121	0x3d7b7562	0.06139124
122	0x3e8d5271	0.2760196
123	0x3dbe92e7	0.09305363
124	0xbcd449a5	-0.025914023
125	0xbe7dc99d	-0.2478394
126	0x3e3192b7	0.17341124
127	0x3e7b24cc	0.24525756
128	0xbca8a418	-0.020586058
129	0x3d2eb988	0.042657405
130	0x3e6feb29	0.2342955
131	0x3d0c9453	0.03432114
132	0x3e7826c7	0.24233542
133	0x3e3d2424	0.18470818
134	0x3e9e4285	0.30910125
135	0x3cb81b56	0.022473972
136	0x3e2ef8b7	0.17087065
137	0xbe180009	-0.14843763
138	0xbe29afbd	-0.16570945
139	0xbe4daf00	-0.20086288
140	0xbc13d67b	-0.009023304
141	0x3d48ea59	0.049051616
142	0xbe08c6c9	-0.1335708
143	0xbd0d02c4	-0.034426466
144	0x3b9a3278	0.0047057234
145	0x3d4e3df6	0.05035206
146	0x3ebaa348	0.364527
147	0x3dcdd384	0.10050109
148	0x3db58f9a	0.088652804
149	0x3d16cbf0	0.036815584
150	0x3e4e56df	0.20150326
151	0x3de029c5	0.10945467
152	0xbd1f944f	-0.038959797
153	0xbd06af52	-0.032882042
154	0x3d15d5ef	0.036580976
155	0xbe44462c	-0.19167393
156	0xbbb602f7	-0.0055545527
157	0x3d3d7bdc	0.0462607
158	0xbc886023	-0.016647404
159	0x3e5b57bf	0.21420191
160	0xbeaef5af	-0.34171817
161	0x3e3b59f7	0.18296038
162	0x3d36ec1e	0.044658773
163	0x3decc1d9	0.11560411
164	0x3e78330c	0.24238223
165	0x3d3db7aa	0.046317734
166	0xbe4e58fe	-0.20151135
167	0x3d108a37	0.035288062
168	0x3dfcc485	0.123421706
169	0x3e8acda8	0.27110028
170	0x3d9620e7	0.073304944
171	0x3e2b48e2	0.16727021
172	0x3ca6a027	0.020340038
173	0xbd04b997	-0.032403555
174	0x3df09bc9	0.11748464
175	0xbe4465ea	-0.19179502
176	0xbbd52408	-0.0065045394
177	0x3eb16b61	0.34652236
178	0x3e7010d6	0.23443922
179	0xbb9bdd8c	-0.004756635
180	0x3e28d8fb	0.16489021
181	0xbd78e208	-0.060762435
182	0x3d756784	0.059913173
183	0xbc8faa7b	-0.017537346
184	0xbd505726	-0.05086436
185	0xbd3d346c	-0.04619257
186	0x3e0cf9a5	0.13767107
187	0x3d42e8ab	0.04758517
188	0xbe405744	-0.18783289
189	0xbd993052	-0.074799195
190	0x3d6665b8	0.05624935
191	0x3e0fa907	0.14029323
192	0x3da50ada	0.080587104
193	0x3e3aaeee	0.18230793
194	0x3d94866c	0.072522014
195	0x3e34ef60	0.1766944
196	0x3e46ca1f	0.1941304
197	0x3e8bf8c9	0.27338246
198	0x3cadc851	0.021213682
199	0xbe85cdb1	-0.26133493
200	0x3ddb5070	0.107087016
201	0xbe6e4807	-0.23269664
202	0xbe1c3328	-0.1525389
203	0x3dcd3673	0.10020151
204	0x3de18345	0.11011366
205	0xbee01e1c	-0.43772972
206	0xbd6c1883	-0.057640564
207	0xbe8ecb40	-0.27889442
208	0xbcfc71a6	-0.03081591
209	0xbdd3ed18	-0.103479564
210	0xbe4539d1	-0.19260336
211	0x3cf6ad27	0.030111862
212	0x3d4e0f5e	0.050307624
213	0x3e944b8a	0.28963882
214	0xbda867b3	-0.08222904
215	0x3dab4a15	0.083637394
216	0x3e688925	0.22708566
217	0x3d83a4df	0.06427931
218	0xbe88b724	-0.26702225
219	0xbe04c7c9	-0.12966837
220	0x3d846b57	0.06465786
221	0xbcbe1b7b	-0.023206463
222	0x3d9539bf	0.07286405
223	0xbe76880e	-0.24075338
224	0x3ddb6c92	0.107140675
225	0x3e1f859d	0.15578313
226	0x3b2fb45d	0.0026810386
227	0xbd37a1b6	-0.044831954
228	0x3dd2d80d	0.10295115
229	0x3e623b83	0.22093014
230	0x3dfbd985	0.12297348
231	0x3e3c3563	0.1837974
232	0x3dd0219a	0.10162659
233	0x3e2e0fe4	0.1699825
234	0xbc222782	-0.009897115
235	0x3d3912cc	0.04518394
236	0x3cf67f5c	0.030090027
237	0x3d3ec772	0.046576925
238	0x3db8ab6b	0.090170704
239	0xbe2d94a6	-0.16951236
240	0x3d8728d0	0.06599581
241	0xbe00e90f	-0.12588905
242	0x3d6ccd1c	0.057812795
243	0x3d342005	0.04397585
244	0x3debdda6	0.115168855
245	0xbe8bec7a	-0.27328855
246	0xbdb8ca40	-0.09022951
247	0x3e287812	0.16452053
248	0x3e2595af	0.16170381
249	0x3e09f789	0.13473333
250	0x3e1bd72b	0.15218799
251	0x3f48746d	0.7830265
252	0x3b9b04c0	0.004730791
253	0x3d8d6883	0.069047
254	0x3d6abe98	0.05731067
255	0x3d2c8451	0.042118374

l3/W f4 [256, 256]
0	0xbe31195a	-0.17294827
1	0xbe5d198c	-0.21591777
2	0xbddd0fd9	-0.10794038
3	0x3b1ce9f6	0.0023943163
4	0xbdb42f3d	-0.087980725
5	0xbcdc58c8	-0.026897803
6	0xbdb37bff	-0.08763885
7	0x3e58423b	0.21119015
8	0xbc89732c	-0.016778551
9	0x3c82227b	0.015885582
10	0x3de80671	0.113293536
11	0xbd9e71de	-0.07736562
12	0xbda100ad	-0.07861457
13	0x3dc2eb42	0.09517528
14	0x3e4e7a8d	0.20163937
15	0xbdeab081	-0.11459447
16	0xbc5128a2	-0.012766035
17	0xbdb6a2bb	-0.08917757
18	0x3e6f2dea	0.23357359
19	0x3e54721b	0.20746653
20	0x3ea7646e	0.3269381
21	0xbd8a2f85	-0.06747345
22	0xbd6b3605	-0.057424564
23	0x3e20184a	0.15634266
24	0xbe3ca607	-0.1842271
25	0x3d69b222	0.057054646
26	0xbd8bbd27	-0.06823187
27	0xbed6a55d	-0.41923037
28	0x3d99323e	0.07480286
29	0xbd147817	-0.03624734
30	0x3d7200c4	0.05908276
31	0x3dae017c	0.08496377
32	0xbe08650a	-0.13319793
33	0xbd1580eb	-0.0364999
34	0x3d9289a1	0.07155157
35	0xbe0d1ccf	-0.13780521
36	0x3d682a45	0.056680936
37	0x3dced74e	0.1009966
38	0xbe14c618	-0.14528692
39	0x3d4017f7	0.046897855
40	0xbd5d518c	-0.054032847
41	0x3df952ae	0.12173973
42	0x3de90c28	0.11379272
43	0x3e73d559	0.23811854
44	0x3ddbc34f	0.107306115
45	0x3c20c4f1	0.0098125795
46	0xbd56feb7	-0.05248901
47	0xbe500e94	-0.20318061
48	0x3def0d37	0.116724424
49	0xbdab6c7b	-0.083703004
50	0x3dbb7457	0.091530494
51	0xbd45ed2f	-0.0483219
52	0xbd9c27f4	-0.07624808
53	0xbdd4adab	-0.10384687
54	0xbd5050ad	-0.05085819
55	0xbe17ee1f	-0.1483693
56	0xbd333ddf	-0.043760177
57	0x3dc2f3a0	0.09519124
58	0x3e50a1fc	0.20374292
59	0x3d1dd0b0	0.038529098
60	0x3e2c5d63	0.16832499
61	0xbdf0a5ed	-0.11750398
62	0x3ce0932c	0.027413927
63	0xbe4d8362	-0.2006965
64	0x3e3ac647	0.182397
65	0x3dfa2032	0.12213172
66	0xbdc692d2	-0.096959725
67	0x3c51ee3f	0.01281315
68	0xbe111674	-0.14168721
69	0xbd895648	-0.0670591
70	0xbc161a1f	-0.009161501
71	0x3e3f874a	0.18703952
72	0xbdf9c151	-0.12195075
73	0x3b97d708	0.004633788
74	0x3e24353b	0.16035931
75	0xbe93d1f5	-0.28871122
76	0xbd9c60ef	-0.07635676
77	0x3e53e647	0.20693313
78	0x3e19e1e4	0.15027577
79	0xbadf90fe	-0.0017056761
80	0x3c0e47c8	0.008684106
81	0x3dad7966	0.084704205
82	0xbdf52951	-0.11970771
83	0xbe4e74ce	-0.20161745
84	0xbe240e4f	-0.16021083
85	0xbd64e364	-0.05588092
86	0xbdf553b9	-0.119788595
87	0xbdf88bc2	-0.12136032
88	0x3ddc9f2a	0.10772546
89	0xbd1c2c2e	-0.03812807
90	0xbe082e38	-0.13298881
91	0xbe498797	-0.1968063
92	0x3e197694	0.1498664
93	0x3c068e14	0.008212585
94	0xbe524d63	-0.20537333
95	0x3e52ca54	0.20584995
96	0x3e113a33	0.14182357
97	0xbe090da6	-0.13384113
98	0x3dd91caf	0.10601174
99	0xbea28933	-0.317453
100	0xbde46b48	-0.11153275
101	0xbde76fde	-0.11300634
102	0xbcc749b5	-0.024327138
103	0x3d1a3dfc	0.03765677
104	0x3d9c2ec5	0.07626108
105	0x3bd91aa2	0.0066254893
106	0x3d82a384	0.063788444
107	0xbe2b2588	-0.16713536
108	0x3d3d1a84	0.046167865
109	0x3d587792	0.052848406
110	0x3dc4b502	0.09604837
111	0x3c8d160e	0.01722243
112	0x3d9137cc	0.070907205
113	0xbe4776f4	-0.19478971
114	0xbcde6267	-0.027146531
115	0xbeccebd0	-0.4002366
116	0x3dfbc1ab	0.122927986
117	0x3e5aeb14	0.21378738
118	0xbe02e68b	-0.12783258
119	0x3e143e99	0.14477004
120	0x3c9ded8a	0.019278307
121	0x3cf913a8	0.03040488
122	0x3e135176	0.14386544
123	0xbe336a1d	-0.17520948
124	0xbdce47e0	-0.10072303
125	0x3d32c30d	0.043643046
126	0x39c51f3a	0.00037598034
127	0x3dd3eece	0.10348283
128	0x3d9f3ec2	0.07775642
129	0x3d3eb85c	0.046562538
130	0x3db5638f	0.0885688
131	0xbe7a9cec	-0.24473923
132	0x3cce4ae3	0.025182193
133	0xbe0e67d0	-0.13906789
134	0x3c9d753d	0.019220943
135	0xbdf41a53	-0.119190834
136	0xbe0f64ff	-0.1400337
137	0x3d270b36	0.040782176
138	0x3d718a28	0.058969647
139	0x3e54f809	0.20797743
140	0xbde55caf	-0.111993186
141	0x3e6c4880	0.23074532
142	0xbd19a601	-0.03751183
143	0x3e3f9787	0.18710147
144	0x3d1457d8	0.036216587
145	0xbd01c65d	-0.031683315
146	0xbe4dbe9c	-0.20092243
147	0x3d5df980	0.05419302
148	0x3d4a22d9	0.04934964
149	0x3dbe64ba	0.09296556
150	0xbdf13c6e	-0.11779104
151	0xb9b12452	-0.00033787132
152	0xbe8ef753	-0.27923068
153	0xbe98243d	-0.29715148
154	0x3d19b180	0.037522793
155	0x3d6cb59a	0.057790376
156	0xbd768440	-0.060184717
157	0x3e1db113	0.1539958
158	0xbe157e82	-0.1459904
159	0xbc41b017	-0.011821768
160	0xbdda46d8	-0.106580436
161	0xbe35925d	-0.17731614
162	0xbd7f5875	-0.06234022
163	0xbdf01445	-0.11722616
164	0xbbba8d6a	-0.0056931274
165	0xbda6ee9a	-0.081509784
166	0xbd1d4d06	-0.038403533
167	0xbe46dfb4	-0.19421273
168	0xbdfe0d78	-0.12404913
169	0x3e6370f1	0.22211052
170	0x3dd17e3a	0.10229154
171	0x3dbe1dce	0.092830285
172	0xbd148da2	-0.036267884
173	0xbdedb9a7	-0.11607676
174	0xbcbde98b	-0.023182651
175	0xbb0720c2	-0.002061889
176	0x3ce2c5df	0.027682243
177	0x3c3a8628	0.011384524
178	0x3b27c6d9	0.00256007
179	0x3dd8c10f	0.10583698
180	0x3d32444f	0.043522175
181	0xbe514759	-0.20437373
182	0xbe84a63c	-0.25908077
183	0x3eb8e5e1	0.36112884
184	0xbcbd476a	-0.023105342
185	0x3e109722	0.14120153
186	0xbcd8fa60	-0.026486576
187	0x3e47d4bc	0.19514745
188	0xbd24e1b9	-0.04025433
189	0xbe325a5b	-0.1741728
190	0xbe2d8fd6	-0.169494
191	0xbdd4fda1	-0.103999384
192	0xbb8d6dea	-0.0043160813
193	0xba815b2e	-0.0009869093
194	0x3d423cda	0.047421314
195	0xbdd4200e	-0.103576764
196	0xbe3156cb	-0.17318265
197	0xbce89bd5	-0.028394619
198	0xbcf78716	-0.030215781
199	0xbe0036da	-0.12520924
200	0xbe0cbf58	-0.13744867
201	0x3e0695ab	0.13143031
202	0xbd578453	-0.05261643
203	0x3a4eb5a0	0.00078853406
204	0x3d909c34	0.070610434
205	0xbd50bb01	-0.05095959
206	0xbc63605a	-0.0138779525
207	0xbd5104af	-0.051029857
208	0x3d7973a4	0.0609013
209	0xbdc05fc2	-0.09393264
210	0xbe64918f	-0.22321151
211	0x3de517a6	0.11186151
212	0x3d2d66dd	0.042334426
213	0xbd910bfc	-0.07082364
214	0x3cb9643e	0.022630807
215	0x3df65c75	0.120293535
216	0xbc5cf988	-0.013487227
217	0xbccfc14a	-0.025360722
218	0x3db51320	0.088415384
219	0xbe109c00	-0.1412201
220	0xbcc0df92	-0.023544107
221	0xbea3645a	-0.319125
222	0xbd7b4962	-0.06134928
223	0x3a05d9ae	0.0005105984
224	0xbd1fccb7	-0.03901359
225	0xbe367f6b	-0.17822044
226	0xbdb21f97	-0.086974315
227	0xbdab1fed	-0.08355699
228	0xbddfa433	-0.109199904
229	0x3d705512	0.05867488
230	0xbcfe36f3	-0.031032061
231	0xbd661640	-0.056173563
232	0xbe63e483	-0.22255139
233	0x3e170bf9	0.14750661
234	0xbd689249	-0.056780133
235	0xbcbf9762	-0.023387615
236	0xbdb0e972	-0.08638276
237	0x3e0e229f	0.13880394
238	0xbcaee038	-0.02134715
239	0xbdd10cf5	-0.102075495
240	0xbe27f1cd	-0.16400833
241	0x3bfd653d	0.007733016
242	0x3e60b9f3	0.21945934
243	0x3e6c5f1c	0.23083156
244	0xbe13eaa2	-0.14444974
245	0xbdbcbe02	-0.092159286
246	0x3e17b1ec	0.14813966
247	0xbdcd0b21	-0.10011888
248	0xbda8ff78	-0.08251852
249	0x3e7f55d0	0.24935079
250	0x3de63e5f	0.11242365
251	0xbddc31d6	-0.10751693
252	0x3e75e95b	0.240148
253	0xbe55b67c	-0.20870394
254	0x3ea807c6	0.3281843
255	0xbd42ea22	-0.047586568
