static/ai/8/agent_white_70000/target_model.npz (npz, 609142 bytes, 8 tensors)

l2/W f4 [256, 256]
-7.2435427 -0.14294726 11.873979 -31.575771 -4.3988338 10.8308325 -9.124915 -18.679956
-14.642431 8.266097 8.042114 -20.330511 -12.409913 5.6949377 -51.502823 -1.7700651
3.1098506 6.4804907 5.055581 11.475329 -29.166513 -10.296555 -5.3029613 -22.999125
-6.80827 -8.532514 -4.7244 -1.9253721 -40.60975 13.861963 2.0098193 -17.30508
2.7069895 -7.4339476 -9.985085 -18.143255 -7.046369 -6.5176454 17.261396 -6.142094
-13.463914 -9.449638 -2.7972128 -18.380495 -10.474536 -17.37146 7.1210666 -16.07499
-0.07001006 -35.930668 -14.742728 -1.4759319 4.6303906 6.1743517 -26.6189 10.059001
5.400814 -21.44715 -11.236657 -11.962155 -14.395983 -26.384905 -19.944122 -21.49151
-6.8122425 -23.69018 -13.078074 2.7465878 -3.75915 -3.302428 -22.113401 -15.469036
-1.275356 8.250651 7.96116 -10.011123 3.4517448 -6.2411466 -32.806046 -10.415601
-10.639717 8.997939 22.229677 -17.476463 -6.583101 -16.486277 17.779224 -10.711197
-18.942871 0.5002103 -16.582956 -3.7010996 -2.5819361 6.443885 -13.175175 -13.3134165
-29.739775 -10.103135 -3.2195213 2.5184963 -48.574406 -3.4896615 14.564913 -11.386467
-3.9404378 23.669512 -20.057743 -2.527179 -7.0096025 10.601317 -19.519323 7.050131
-20.7688 -18.015371 -28.562872 -6.0495205 -46.93365 -34.978065 -23.776955 -4.2817535
-0.27865228 -21.799217 3.7373989 -24.089088 -32.318836 1.9653186 -10.384423 2.2951977
-0.21142793 -39.664337 -25.096224 -24.616003 -12.61914 -27.796597 -16.17194 14.638722
21.383726 -2.1060245 13.752387 4.162323 12.326222 -17.064812 -2.6664555 -7.5246854
13.731406 -19.711441 -24.962694 1.8095298 10.495638 15.849996 -3.3601832 10.437416
1.0921807 -6.3111987 12.395188 -29.279264 -10.455034 -8.036189 -2.683395 -11.192954
-26.88796 -7.4045877 1.8593829 6.0159287 -10.214856 0.21819149 -20.348503 17.041592
15.453275 -35.56908 -30.61691 -31.426645 -16.309723 5.063389 -27.046103 -18.144001
2.782547 -9.330734 -20.763866 -10.587555 11.089679 -30.686552 -3.168897 -5.2815185
-8.689432 10.706496 -25.496277 -13.334964 -28.529037 -25.7936 -30.261639 -15.991126
-8.952678 12.637313 -33.683483 -27.619326 9.49355 14.319833 -27.349577 -31.745905
-32.8159 -31.226324 27.879765 -3.7445493 -1.4912663 10.206858 -12.164213 -5.7360883
-33.847015 -30.685823 -16.350721 14.675646 3.6928313 -0.12267182 -33.571205 -0.85084015
-5.8066607 -40.26385 -2.1729152 -16.39817 -8.860199 -37.89903 -5.2670383 7.5529833
20.684248 -20.87716 -19.04833 -10.317974 -3.8640194 4.03707 4.0161347 -16.847975
-8.71569 4.8688664 4.345544 10.028675 -3.3199058 -29.582672 -10.6082115 -25.142448
-6.323546 -20.3552 -5.4856606 -7.70595 6.391922 7.2315493 -9.564904 -19.623281
9.816432 11.6587 -4.0608664 -57.602505 -17.477995 17.004223 -30.344349 5.171573
00000000: 1acb e7c0 c460 12be d1fb 3d41 2e9b fcc1
00000010: 3fc3 8cc0 174b 2d41 a7ff 11c1 8d70 95c1
00000020: 6647 6ac1 ef41 0441 80ac 0041 e3a4 a2c1
00000030: 018f 46c1 ee3c b640 e402 4ec2 7e91 e2bf
00000040: cb07 4740 2e60 cf40 52c7 a140 f39a 3741
00000050: 0555 e9c1 b0be 24c1 dcb1 a9c0 35fe b7c1
00000060: 59dd d9c0 2d85 08c1 492e 97c0 9872 f6bf
00000070: 6270 22c2 9aca 5d41 e1a0 0040 ce70 8ac1
00000080: 513f 2d40 e6e2 edc0 e8c2 1fc1 6325 91c1
00000090: db7b e1c0 8d90 d0c0 5717 8a41 098c c4c0
000000a0: 316c 57c1 b831 17c1 8905 33c0 410b 93c1
000000b0: b397 27c1 c0f8 8ac1 c7df e340 9499 80c1
000000c0: 6f61 8fbd 01b9 0fc2 37e2 6bc1 56eb bcbf
000000d0: 292c 9440 4a94 c540 82f3 d4c1 abf1 2041
000000e0: 78d3 ac40 c393 abc1 59c9 33c1 fd64 3fc1
000000f0: f255 66c1 4914 d3c1 908d 9fc1 9dee abc1
00000100: e4fd d9c0 7d85 bdc1 cb3f 51c1 18c8 2f40
00000110: ea95 70c0 fb5a 53c0 3fe8 b0c1 2c81 77c1
00000120: de3e a3bf ab02 0441 d3c1 fe40 8f2d 20c1
00000130: 63e9 5c40 79b7 c7c0 6439 03c2 4da6 26c1
00000140: 483c 2ac1 8ff7 0f41 61d6 b141 cccf 8bc1
00000150: c3a8 d2c0 e5e3 83c1 da3b 8e41 1061 2bc1
00000160: 008b 97c1 c80d 003f e5a9 84c1 d1de 6cc0
00000170: 713e 25c0 4e34 ce40 84cd 52c1 c103 55c1
00000180: 0feb edc1 71a6 21c1 a30c 4ec0 0b2f 2140
00000190: 314c 42c2 9d56 5fc0 e209 6941 f82e 36c1
000001a0: 2230 7cc0 295b bd41 4276 a0c1 4dbd 21c0
000001b0: aa4e e0c0 ff9e 2941 9327 9cc1 ac9a e140
000001c0: 8126 a6c1 7b1f 90c1 c380 e4c1 ac95 c1c0
000001d0: 0fbc 3bc2 8ae9 0bc2 3437 bec1 2004 89c0
000001e0: 83ab 8ebe cc64 aec1 8b31 6f40 74b6 c0c1
000001f0: 7d46 01c2 8f8f fb3f 9926 26c1 85e4 1240
00000200: 9080 58be 48a8 1ec2 11c5 c8c1 93ed c4c1
00000210: ffe7 49c1 6e5f dec1 2260 81c1 3538 6a41
00000220: df11 ab41 1bc9 06c0 c709 5c41 c031 8540
00000230: 3538 4541 bc84 88c1 35a7 2ac0 39ca f0c0
00000240: d7b3 5b41 08b1 9dc1 99b3 c7c1 ac9e e73f
00000250: 22ee 2741 9599 7d41 3e0d 57c0 a8ff 2641
00000260: 94cc 8b3f 57f5 c9c0 b152 4641 ef3b eac1
00000270: d247 27c1 3b94 00c1 bebc 2bc0 5716 33c1
00000280: 8b1a d7c1 62f2 ecc0 4200 ee3f 7d82 c040
00000290: 0d70 23c1 976d 5f3e bcc9 a2c1 2e55 8841
000002a0: 9d40 7741 bd46 0ec2 6fef f4c1 c569 fbc1
000002b0: 507a 82c1 4807 a240 6b5e d8c1 ea26 91c1
000002c0: 4015 3240 b04a 15c1 661c a6c1 a066 29c1
000002d0: 536f 3141 0f7e f5c1 35cf 4ac0 3302 a9c0
000002e0: ea07 0bc1 cf4d 2b41 60f8 cbc1 035c 55c1
000002f0: 783b e4c1 4b59 cec1 d617 f2c1 a7db 7fc1
00000300: 2b3e 0fc1 6f32 4a41 e3bb 06c2 61f4 dcc1
00000310: 95e5 1741 091e 6541 efcb dac1 9df7 fdc1
00000320: 7b43 03c2 83cf f9c1 c209 df41 b2a6 6fc0
00000330: d0e1 bebf 4a4f 2341 9ea0 42c1 098e b7c0
00000340: 5863 07c2 917c f5c1 47ce 82c1 72cf 6a41
00000350: 5957 6c40 5d3b fbbd ea48 06c2 a9d0 59bf
00000360: 2ad0 b9c0 2f0e 21c2 0b11 0bc0 742f 83c1
00000370: 60c3 0dc1 9b98 17c2 948b a8c0 0ab2 f140
00000380: 5779 a541 6c04 a7c1 fb62 98c1 6c16 25c1
00000390: 184c 77c0 ad2f 8140 2d84 8040 a7c8 86c1
000003a0: 7773 0bc1 c1cd 9b40 b20e 8b40 7475 2041
000003b0: 5679 54c0 50a9 ecc1 3cbb 29c1 bc23 c9c1
000003c0: 7d5a cac0 73d7 a2c1 888a afc0 2497 f6c0
000003d0: a08a cc40 da68 e740 d909 19c1 7bfc 9cc1
000003e0: 1b10 1d41 098a 3a41 9ef2 81c0 f768 66c2
000003f0: efd2 8bc1 a608 8841 3ac1 f2c1 877d a540

l2/b f4 [256]
7.0090933 6.916855 2.8260343 12.012786 0.8051431 3.241152 -0.70557296 5.3909707
2.607834 3.9434326 14.793555 1.0151681 7.6603594 0.61494505 4.0645437 1.1446666
3.1738408 -6.1094155 -3.5238988 -5.002369 9.845048 14.27026 10.261821 9.152941
-0.037970994 11.0543785 15.860544 14.470054 11.87892 0.8873324 0.31424263 17.871927
-2.7181902 21.688007 7.8854957 7.6750846 9.415141 0.6746918 1.644483 2.9159722
10.464258 9.698891 6.026739 1.2489214 6.8201756 17.406967 8.453951 8.748046
-5.3019686 5.166997 12.447618 -1.2614477 -0.8476438 -0.7247954 9.688445 14.753137
14.658751 3.1673834 14.49652 7.1180053 1.7405393 4.582675 2.0478528 1.0849532
10.20046 -6.3511467 -2.8711872 6.0746145 2.225817 0.06342068 7.383403 -4.6329412
3.410709 -0.25331116 1.4063721 7.7923427 4.7500277 6.319954 -5.843865 9.112227
3.2026656 0.7372493 -1.8765029 -1.4282085 -3.473913 12.733356 0.35100976 15.537755
11.197805 0.33328158 8.887134 5.2265573 12.426624 6.5573454 7.234749 9.495145
2.1058667 5.645012 0.7668281 -7.2931485 10.166129 -3.548029 3.8080883 10.344292
12.687223 11.118718 4.3008513 5.2680607 -0.7896939 12.889492 6.8751554 -1.263423
-1.5812786 7.5249934 -0.47228247 7.9162083 7.8079114 -3.358599 11.993829 0.9359132
4.7138267 7.170283 3.6088998 1.0087874 -6.888228 8.157121 6.0408893 -2.8200662
3.069949 5.3981624 -2.1664667 1.8500575 6.0042353 12.022381 2.7562952 8.200923
9.918439 -2.6877468 0.47802225 -2.5738795 11.706279 5.8061 3.7326546 -2.548045
-2.0891583 6.813189 11.086212 -7.3243012 -1.3318778 -6.705897 3.9371967 7.514728
10.850946 0.05787946 6.3596816 8.903157 3.4925876 3.2663612 4.650511 9.817063
1.2448518 6.899846 0.13599974 8.639781 0.28439555 8.246523 13.952459 -7.8180227
8.222358 -4.0017056 5.490224 9.319932 7.389128 1.7771077 8.117924 16.825724
2.646737 -2.210615 15.537544 -3.1400104 -0.28825 1.3046869 0.59894043 8.021302
9.601178 -10.8409815 13.692963 12.038856 1.8376753 8.104595 4.6032896 -0.11532353
6.07028 -2.6299396 7.0056043 7.438787 -0.31390077 6.643615 12.2681675 0.61383307
0.4744507 5.9068236 2.1813414 8.590177 5.6504974 5.6975355 4.220657 -2.65909
5.3564596 0.88854665 0.8174204 2.5115695 0.33535352 -0.062537916 9.840274 11.090614
2.39759 0.38607663 2.366917 4.8396893 11.142145 13.302837 8.564536 -1.7381462
1.1896619 -3.5344436 13.313431 10.6844845 8.992642 0.1013245 -1.751586 3.3189213
8.570022 -2.2354531 4.5875883 2.2053092 8.021499 4.6487927 5.8255095 8.202433
2.843068 7.8248253 12.573454 0.5543808 14.036134 4.8788233 9.008526 0.9698344
8.811842 2.7104526 -0.42227492 8.298638 6.375215 16.57311 12.572516 10.196486
00000000: 7e4a e040 e056 dd40 bfdd 3440 5f34 4041
00000010: dc1d 4e3f 096f 4f40 6ea0 34bf d582 ac40
00000020: c1e6 2640 3361 7c40 67b2 6c41 07f1 813f
00000030: aa21 f540 0a6d 1d3f be10 8240 6f84 923f
00000040: 3520 4b40 5580 c3c0 8f87 61c0 6813 a0c0
00000050: 5185 1d41 fc52 6441 6b30 2441 7272 1241
00000060: 7987 1bbd bcde 3041 cac4 7d41 5785 6741
00000070: 0e10 3e41 3728 633f 69e4 a03e b5f9 8e41
00000080: d4f6 2dc0 0a81 ad41 fb55 fc40 4b9a f540
00000090: 6ba4 1641 9ab8 2c3f 6b7e d23f 4a9f 3a40
000000a0: 9a6d 2741 a82e 1b41 0cdb c040 a8dc 9f3f
000000b0: e13e da40 7841 8b41 6243 0741 fff7 0b41
000000c0: baa9 a9c0 0a58 a540 7129 4741 1e77 a1bf
000000d0: 2fff 58bf 318c 39bf df03 1b41 d90c 6c41
000000e0: 3e8a 6a41 69b6 4a40 bff1 6741 b3c6 e340
000000f0: fec9 de3f 46a5 9240 0510 0340 bfdf 8a3f
00000100: 1635 2341 983c cbc0 88c1 37c0 3e63 c240
00000110: c973 0e40 b4e2 813d d644 ec40 0e41 94c0
00000120: 0e49 5a40 00b2 81be 0004 b43f df5a f940
00000130: 3a00 9840 103d ca40 f100 bbc0 afcb 1141
00000140: 79f8 4c40 5fbc 3c3f 3f31 f0bf 89cf b6bf
00000150: 9754 5ec0 d4bb 4b41 8db7 b33e a59a 7841
00000160: 362a 3341 e2a3 aa3e b331 0e41 f53f a740
00000170: 74d3 4641 c6d5 d140 1083 e740 1dec 1741
00000180: 85c6 0640 f0a3 b440 d94e 443f 7961 e9c0
00000190: 77a8 2241 e812 63c0 b8b7 7340 3882 2541
000001a0: defe 4a41 45e6 3141 93a0 8940 f493 a840
000001b0: 6129 4abf 5c3b 4e41 4601 dc40 d8b7 a1bf
000001c0: 5667 cabf bfcc f040 02cf f1be 9451 fd40
000001d0: 69da f940 49f3 56c0 b9e6 3f41 0298 6f3f
000001e0: abd7 9640 f572 e540 37f8 6640 f21f 813f
000001f0: 5d6c dcc0 9183 0241 f74e c140 f77b 34c0
00000200: 0b7a 4440 bfbd ac40 64a7 0ac0 afce ec3f
00000210: b222 c040 ac5b 4041 2467 3040 fb36 0341
00000220: edb1 1e41 0b04 2cc0 55bf f43e 71ba 24c0
00000230: eb4c 3b41 92cb b940 d0e3 6e40 2b13 23c0
00000240: c5b4 05c0 a505 da40 2061 3141 ad60 eac0
00000250: f97a aabf b596 d6c0 08fb 7b40 a778 f040
00000260: 7a9d 2d41 0313 6d3d 8382 cb40 5573 0e41
00000270: 8e86 5f40 100c 5140 fcd0 9440 b112 1d41
00000280: 4e57 9f3f 8acb dc40 8443 0b3e 8b3c 0a41
00000290: 4b9c 913e c2f1 0341 463d 5f41 3e2d fac0
000002a0: c78e 0341 f90d 80c0 eaaf af40 711e 1541
000002b0: bd73 ec40 4478 e33f 04e3 0141 159b 8641
000002c0: 2464 2940 b77a 0dc0 c899 7841 eef5 48c0
000002d0: 8195 93be fbff a63f 2954 193f 4157 0041
000002e0: 6d9e 1941 a974 2dc1 6016 5b41 279f 4041
000002f0: f238 eb3f 6cac 0141 264e 9340 be2e ecbd
00000300: bc3f c240 ee50 28c0 e92d e040 8b0a ee40
00000310: 9ab7 a0be 7e98 d440 6a4a 4441 2a24 1d3f
00000320: 34eb f23e b304 bd40 199b 0b40 5d71 0941
00000330: e0d0 b440 3652 b640 9f0f 8740 882e 2ac0
00000340: 1e68 ab40 cb77 633f 7742 513f 8ebd 2040
00000350: 75b3 ab3e e113 80bd c371 1d41 2873 3141
00000360: 1d72 1940 d6ab c53e 917b 1740 bcde 9a40
00000370: 3a46 3241 6cd8 5441 5708 0941 937b debf
00000380: d746 983f 5334 62c0 d003 5541 a6f3 2a41
00000390: dde1 0f41 3883 cf3d f833 e0bf 3569 5440
000003a0: cf1e 0941 aa11 0fc0 86cd 9240 c923 0d40
000003b0: 0f58 0041 e9c2 9440 936a ba40 2a3d 0341
000003c0: d3f4 3540 f864 fa40 de2c 4941 e6eb 0d3f
000003d0: 0194 6041 521f 9c40 ec22 1041 1147 783f
000003e0: 4efd 0c41 0e78 2d40 6b34 d8be 39c7 0441
000003f0: c301 cc40 bb95 8441 0729 4941 cf24 2341

l4/W f4 [64, 256]
43.197254 34.50091 35.600403 46.032417 29.378412 41.987667 35.88654 37.101467
28.244583 39.47964 32.341557 12.309346 28.07719 33.602703 49.874424 31.950603
30.878714 40.139977 36.83006 35.684254 11.843673 23.078104 31.049332 41.29499
46.70787 46.130756 45.146797 36.564503 39.969654 42.713055 44.285732 20.884163
42.200863 33.505 50.171616 37.04676 46.221676 40.072983 36.801395 30.850073
17.513287 49.407906 38.810417 52.19174 38.228745 42.248184 32.635254 30.667389
39.348797 40.874928 38.15717 30.53829 47.08443 48.261288 37.88298 48.72412
39.976063 41.40101 42.900314 30.026049 46.264454 36.488216 41.412197 27.683527
13.322218 44.827564 31.252445 43.42101 39.97007 47.324604 34.159485 20.399742
41.72383 35.693966 36.092205 54.988094 32.850044 45.135735 30.9741 45.337643
33.71642 54.246735 30.94752 46.8671 28.89632 22.112267 49.758137 12.549144
35.254612 40.073032 42.163437 34.81973 33.948433 33.038773 39.395336 32.741283
34.134758 39.358765 43.271263 37.94518 30.999458 36.51932 36.445957 38.777973
36.566566 -1.1425314 23.363516 38.68068 37.747265 48.114666 39.359512 35.567913
38.78206 31.527815 35.250008 37.61278 43.126247 39.80949 26.206612 14.75799
31.683998 47.780033 30.384865 47.408478 33.375072 46.239437 42.956238 41.127613
40.137096 33.276665 36.94419 33.895752 39.049 32.468533 45.035065 42.322453
35.08613 38.441124 23.374962 43.80601 42.16995 38.838425 28.851912 25.563118
38.016407 38.78152 38.28752 27.85972 36.093483 19.721727 7.7515845 34.170624
46.813408 37.88654 44.386833 26.351528 15.276297 37.06517 44.64983 38.87628
20.41763 46.577248 40.55884 43.544598 6.4866757 21.396788 36.087482 42.634777
10.732247 40.969284 33.347473 49.51811 36.77442 42.276928 31.534084 22.526375
41.55374 43.004726 34.191555 40.581123 33.642094 41.78306 28.94153 38.051968
44.593422 33.491737 41.189827 17.30139 44.509 49.141666 31.49201 14.42855
38.95145 40.657127 35.023277 37.216568 36.767895 41.79703 42.807014 37.907547
29.000769 43.757427 29.066652 37.614105 46.915848 30.74757 6.4869804 38.562847
56.001892 13.372913 38.957638 41.89442 18.475313 47.052883 41.156094 47.336033
41.56306 24.250118 44.378082 37.967617 18.966074 40.997543 37.316673 35.32855
44.08409 33.897266 43.22855 40.25413 46.08981 37.583714 34.59636 48.34134
42.21663 42.914013 14.389857 23.100807 45.858715 39.866558 26.793049 16.807268
40.63709 44.07085 32.800407 35.33174 38.27054 44.460785 40.265007 40.80506
39.318935 31.940825 38.370907 2.7402852 42.27928 48.70447 36.77399 39.111828
00000000: fdc9 2c42 ef00 0a42 d066 0e42 3221 3842
00000010: fd06 eb41 5ff3 2742 d18b 0f42 e767 1442
00000020: e8f4 e141 27eb 1d42 c15d 0142 15f3 4441
00000030: 169e e041 2b69 0642 697f 4742 d69a ff41
00000040: 9b07 f741 568f 2042 fb51 1342 adbc 0e42
00000050: af7f 3d41 f59f b841 0865 f841 122e 2542
00000060: dcd4 3a42 e585 3842 5296 3442 0d42 1242
00000070: ede0 1f42 2bda 2a42 9724 3142 c412 a741
00000080: afcd 2842 1f05 0642 bcaf 4842 e22f 1442
00000090: ffe2 3842 bc4a 2042 a134 1342 f3cc f641
000000a0: 361b 8c41 b2a1 4542 de3d 1b42 57c4 5042
000000b0: 3cea 1842 24fe 2842 808a 0242 d056 f541
000000c0: 2b65 1d42 ed7f 2342 f1a0 1842 6b4e f441
000000d0: 7556 3c42 8f0b 4142 2c88 1742 80e5 4242
000000e0: 7de7 1f42 a29a 2542 ec99 2b42 5935 f041
000000f0: cd0e 3942 eff3 1142 17a6 2542 dd77 dd41
00000100: ce27 5541 6d4f 3342 0205 fa41 1daf 2d42
00000110: 5ae1 1f42 654c 3d42 50a3 0842 ac32 a341
00000120: 34e5 2642 9fc6 0e42 6b5e 1042 cff3 5b42
00000130: 7266 0342 fe8a 3442 f5ca f741 bf59 3542
00000140: 9ddd 0642 a8fc 5842 8594 f741 e977 3b42
00000150: aa2b e741 ece5 b041 5508 4742 4bc9 4841
00000160: b904 0d42 c94a 2042 5ca7 2842 6747 0b42
00000170: 32cb 0742 b427 0442 d394 1d42 13f7 0242
00000180: fe89 0842 606f 1d42 c615 2d42 ddc7 1742
00000190: e4fe f741 c913 1242 a9c8 1142 a51c 1b42
000001a0: 2a44 1242 783e 92bf 7be8 ba41 04b9 1a42
000001b0: 33fd 1642 6b75 4042 2470 1d42 8b45 0e42
000001c0: d420 1b42 f738 fc41 0200 0d42 7d73 1642
000001d0: 4781 2c42 eb3c 1f42 24a7 d141 ba20 6c41
000001e0: d478 fd41 c11e 3f42 3414 f341 48a2 3d42
000001f0: 1380 0542 2ff5 3842 30d3 2b42 ad82 2442
00000200: 638c 2042 4e1b 0542 dac6 1342 4095 0742
00000210: 2d32 1c42 c7df 0142 e823 3442 314a 2942
00000220: 3258 0c42 b6c3 1942 ecff ba41 5b39 2f42
00000230: 07ae 2842 8c5a 1b42 b7d0 e641 4481 cc41
00000240: cd10 1842 4720 1b42 6c26 1942 b5e0 de41
00000250: ba5f 1042 19c6 9d41 fb0c f840 b8ae 0842
00000260: ee40 3b42 d18b 1742 1e8c 3142 eecf d241
00000270: b66b 7441 bc42 1442 6d99 3242 5081 1b42
00000280: 4e57 a341 1a4f 3a42 413c 2242 ab2d 2e42
00000290: d992 cf40 9f2c ab41 9559 1042 038a 2a42
000002a0: 49b7 2b41 8ce0 2342 d063 0542 8b12 4642
000002b0: 0219 1342 931b 2942 ce45 fc41 0436 b441
000002c0: 0837 2642 d704 2c42 27c4 0842 1253 2242
000002d0: 8191 0642 da21 2742 4188 e741 3735 1842
000002e0: aa5f 3242 8af7 0542 62c2 2442 3f69 8a41
000002f0: 3709 3242 1191 4442 a3ef fb41 57db 6641
00000300: 49ce 1b42 e6a0 2242 d617 0c42 c4dd 1442
00000310: 5312 1342 2930 2742 623a 2b42 54a1 1742
00000320: 9301 e841 9b07 2f42 8188 e841 d874 1642
00000330: d4a9 3b42 06fb f541 5895 cf40 5b40 1a42
00000340: f001 6042 74f7 5541 9fd4 1b42 e393 2742
00000350: 71cd 9341 2736 3c42 d79f 2442 1958 3d42
00000360: 9340 2642 3e00 c241 2883 3142 d7de 1742
00000370: 85ba 9741 7cfd 2342 4644 1542 6f50 0d42
00000380: 1c56 3042 cd96 0742 09ea 2c42 3b04 2142
00000390: f75b 3842 b955 1642 ac62 0a42 885d 4142
000003a0: d4dd 2842 f3a7 2b42 db3c 6641 74ce b841
000003b0: 536f 3742 5b77 1f42 2a58 d641 4975 8641
000003c0: 618c 2242 8d48 3042 9e33 0342 b453 0d42
000003d0: 0815 1942 d8d7 3142 5e0f 2142 6238 2342
000003e0: 9746 1d42 cf86 ff41 cf7b 1942 d560 2f40
000003f0: fc1d 2942 61d1 4242 9118 1342 8372 1c42

l4/b f4 [64]
-94.95234 -94.95269 -94.95166 -94.987236 -94.96417 -94.96435 -94.95684 -94.94944
-94.962204 -94.98702 -94.97664 -94.97676 -94.968994 -94.97152 -94.96424 -94.95909
-94.95872 -94.963066 -94.94925 -94.95329 -94.9787 -94.98437 -94.94987 -94.96429
-94.95051 -94.94774 -94.98256 -94.973526 -95.000015 -94.95314 -94.96291 -94.96678
-94.977554 -94.96988 -94.94678 -94.97057 -94.96388 -94.971596 -94.977585 -94.94994
-94.97323 -94.98494 -94.9649 -94.97418 -94.97893 -94.97565 -94.95686 -94.9529
-94.96843 -94.94429 -94.99235 -94.96157 -94.95381 -94.96744 -95.02487 -94.95581
-94.943375 -94.94437 -94.943886 -94.96708 -94.947815 -94.96868 -94.96305 -94.94154
00000000: 99e7 bdc2 c7e7 bdc2 40e7 bdc2 77f9 bdc2
00000010: a8ed bdc2 bfed bdc2 e7e9 bdc2 1de6 bdc2
00000020: a6ec bdc2 5bf9 bdc2 0af4 bdc2 1af4 bdc2
00000030: 20f0 bdc2 6bf1 bdc2 b1ed bdc2 0eeb bdc2
00000040: ddea bdc2 17ed bdc2 04e6 bdc2 16e8 bdc2
00000050: 18f5 bdc2 fff7 bdc2 55e6 bdc2 b7ed bdc2
00000060: a9e6 bdc2 3ee5 bdc2 12f7 bdc2 72f2 bdc2
00000070: 0200 bec2 02e8 bdc2 03ed bdc2 feee bdc2
00000080: 82f4 bdc2 94f0 bdc2 c0e4 bdc2 eff0 bdc2
00000090: 82ed bdc2 75f1 bdc2 86f4 bdc2 5fe6 bdc2
000000a0: 4bf2 bdc2 4af8 bdc2 07ee bdc2 c8f2 bdc2
000000b0: 36f5 bdc2 88f3 bdc2 eae9 bdc2 e3e7 bdc2
000000c0: d6ef bdc2 7ae3 bdc2 15fc bdc2 53ec bdc2
000000d0: 5ae8 bdc2 54ef bdc2 bc0c bec2 60e9 bdc2
000000e0: 02e3 bdc2 84e3 bdc2 45e3 bdc2 25ef bdc2
000000f0: 48e5 bdc2 f7ef bdc2 15ed bdc2 12e2 bdc2

l3/W f4 [256, 256]
6.895491 6.275757 4.086336 22.388443 -26.232584 10.163603 8.651579 14.715237
16.332981 32.067295 -0.5507016 7.877693 17.188406 -13.454609 11.548618 -10.95205
-0.12902674 -31.400608 -33.77316 -8.02353 35.45614 24.23057 18.790354 11.139742
16.105644 15.769354 47.58019 7.696694 44.2005 -2.4265726 12.549388 12.2357435
-16.560791 11.825829 13.455892 10.173859 -15.61038 10.827038 13.204649 18.08205
2.3416626 18.83688 -4.4250298 12.9880295 19.425005 7.596072 -17.17166 23.98949
-6.6578445 -7.8767486 36.64129 -13.41737 10.899661 4.887576 9.376029 29.805845
19.968323 22.541592 12.503958 12.31503 -0.25324968 -7.330048 8.158761 7.599268
6.1684375 8.147042 22.87832 -46.27339 3.439898 25.18103 16.879097 -15.379708
-2.8837883 20.31287 14.875882 25.978441 0.30625498 17.391933 22.601612 36.33089
7.9676595 11.139716 -6.2105455 -30.23094 20.51371 35.529076 13.81396 42.318047
38.117218 11.899929 60.427227 7.6746607 4.0063534 8.667595 7.183536 23.955772
13.376001 18.48326 18.839827 -12.038133 -0.90008944 8.09015 11.3569765 7.153248
24.992565 46.350956 9.473322 42.6314 14.40581 6.959603 -23.177158 -9.525439
-50.258713 21.669422 7.9339333 1.7305065 7.554623 -39.088028 25.603418 -7.2929077
29.53993 23.982664 -13.497282 -2.6292753 -36.842087 11.657612 0.18575045 -27.642515
13.338197 14.015264 21.167994 5.138259 6.768595 -6.970358 15.063392 19.677786
25.053505 -29.098711 -4.5017157 -24.69696 -8.49228 44.300632 24.071781 -4.685548
-52.576412 -3.5037835 14.719982 -0.25953233 -2.0769303 -40.042103 10.661926 21.763664
35.555634 12.7342 13.148862 4.027303 9.703669 21.269253 16.610558 11.766192
-18.64244 -10.153576 -23.458082 14.220842 9.455738 18.569017 26.830788 -17.043386
6.0567336 41.691505 -0.8596445 9.841425 4.4245896 17.056368 4.525124 24.70003
-1.4152268 -17.255993 5.338822 1.0742915 -59.83357 14.0994005 13.876453 19.661392
-4.8017426 -9.160637 4.800961 1.9660287 -27.66819 9.697162 1.965837 -19.492878
31.135193 3.774275 -12.409858 25.001944 -14.808088 11.997402 10.38938 9.722612
6.2182827 11.775691 11.576154 18.70543 -5.907454 22.761808 9.74909 -36.395206
47.155273 35.943745 -15.665583 1.7783425 10.288722 11.6508045 32.181427 30.239271
-16.553143 -27.7718 -0.5060386 25.527609 14.9061985 19.304306 9.671856 13.516904
6.886408 -10.299884 -7.430165 16.69516 13.224924 12.058279 -24.427681 16.091534
25.081652 -26.17908 16.613556 20.49818 62.233746 33.33229 17.129805 12.658227
15.959125 32.814957 13.206576 10.982375 10.500513 10.639825 31.392357 16.05351
13.395922 16.5023 9.123885 24.969906 22.051365 23.861444 6.0861325 12.382716
00000000: dda7 dc40 00d3 c840 44c3 8240 881b b341
00000010: 55dc d1c1 1e9e 2241 de6c 0a41 9c71 6b41
00000020: f2a9 8241 e944 0042 c8fa 0cbf 1016 fc40
00000030: db81 8941 1446 57c1 24c7 3841 993b 2fc1
00000040: 961f 04be 7234 fbc1 b717 07c2 6160 00c1
00000050: 16d3 0d42 35d8 c141 a552 9641 623c 3241
00000060: 5cd8 8041 464f 7c41 1d52 3e42 514b f640
00000070: 50cd 3042 f74c 1bc0 4bca 4841 9bc5 4341
00000080: 807c 84c1 9836 3d41 554b 5741 20c8 2241
00000090: 1ec4 79c1 8c3b 2d41 3e46 5341 0aa8 9041
000000a0: cddd 1540 eeb1 9641 d899 8dc0 f8ce 4f41
000000b0: 6966 9b41 0613 f340 8f5f 89c1 7aea bf41
000000c0: 100d d5c0 530e fcc0 ae90 1242 8cad 56c1
000000d0: 0365 2e41 0667 9c40 3704 1641 5f72 ee41
000000e0: 20bf 9f41 2e55 b441 3610 4841 5d0a 4541
000000f0: f1a9 81be c18f eac0 498a 0241 342d f340
00000100: d763 c540 495a 0241 cd06 b741 f417 39c2
00000110: 4a27 5c40 c072 c941 6408 8741 4913 76c1
00000120: fd8f 38c0 c280 a241 9d03 6e41 d9d3 cf41
00000130: 74cd 9c3e ae22 8b41 1ad0 b441 d552 1142
00000140: 11f7 fe40 473c 3241 cabc c6c0 f7d8 f1c1
00000150: 141c a441 c61d 0e42 fb05 5d41 ae45 2942
00000160: 0878 1842 1c66 3e41 7bb5 7142 d296 f540
00000170: 0c34 8040 78ae 0a41 87df e540 6ca5 bf41
00000180: 1a04 5641 b7dd 9341 f7b7 9641 319c 40c1
00000190: 436c 66bf 4171 0141 2db6 3541 68e7 e440
000001a0: c6f0 c741 6167 3942 ba92 1741 8e86 2a42
000001b0: 337e 6641 11b5 de40 d26a b9c1 3368 18c1
000001c0: ec08 49c2 fa5a ad41 c8e2 fd40 3d81 dd3f
000001d0: 79bf f140 245a 1cc2 cdd3 cc41 805f e9c0
000001e0: c751 ec41 7fdc bf41 def4 57c1 0c46 28c0
000001f0: 4c5e 13c2 9485 3a41 5e35 3e3e df23 ddc1
00000200: 4169 5541 853e 6041 0d58 a941 9e6c a440
00000210: 5598 d840 2c0d dfc0 a703 7141 1b6c 9d41
00000220: 946d c841 29ca e8c1 0e0e 90c0 6093 c5c1
00000230: 61e0 07c1 d933 3142 0293 c041 02f0 95c0
00000240: 3f4e 52c2 fd3d 60c0 0c85 6b41 6ce1 84be
00000250: 6dec 04c0 1d2b 20c2 4097 2a41 fc1b ae41
00000260: f838 0e42 48bf 4b41 bd61 5241 abdf 8040
00000270: 3a42 1b41 6e27 aa41 6ce2 8441 5342 3c41
00000280: b823 95c1 0c75 22c1 27aa bbc1 9288 6341
00000290: b44a 1741 598d 9441 74a5 d641 db58 88c1
000002a0: c3d0 c140 1ac4 2642 a911 5cbf 7a76 1d41
000002b0: 3d96 8d40 7173 8841 d1cd 9040 a999 c541
000002c0: 2726 b5bf 460c 8ac1 a1d7 aa40 6282 893f
000002d0: 9355 6fc2 2597 6141 f405 5e41 884a 9d41
000002e0: e0a7 99c0 f891 12c1 79a1 9940 d4a6 fb3f
000002f0: 7458 ddc1 9327 1b41 8ca0 fb3f 6af1 9bc1
00000300: e014 f941 b98d 7140 c78e 46c1 fb03 c841
00000310: eeed 6cc1 5cf5 3f41 e73a 2641 d28f 1b41
00000320: 2cfc c640 3b69 3c41 ed37 3941 b8a4 9541
00000330: dd09 bdc0 2f18 b641 46fc 1b41 b194 11c2
00000340: 009f 3c42 65c6 0f42 3aa6 7ac1 baa0 e33f
00000350: 9b9e 2441 b269 3a41 c8b9 0042 07ea f141
00000360: d66c 84c1 a52c dec1 bf8b 01bf 8b38 cc41
00000370: ca7f 6e41 386f 9a41 ecbf 1a41 3d45 5841
00000380: 745d dc40 53cc 24c1 e9c3 edc0 b08f 8541
00000390: 4a99 5341 b6ee 4041 e46b c3c1 76bb 8041
000003a0: 39a7 c841 c16e d1c1 90e8 8441 46fc a341
000003b0: 5bef 7842 4454 0542 d709 8941 1988 4a41
000003c0: 9358 7f41 8442 0342 234e 5341 cfb7 2f41
000003d0: 1a02 2841 b93c 2a41 8c23 fb41 976d 8041
000003e0: b255 5641 b604 8441 6ffb 1141 5ec2 c741
000003f0: 3269 b041 3de4 be41 99c1 c240 9b1f 4641

l3/b f4 [256]
17.375158 -5.6663837 2.1998332 19.275919 -1.3836169 20.614197 9.256499 0.5213267
10.28937 11.110677 -2.418945 30.406437 2.199981 5.1765857 15.921271 -1.3496026
0.04653245 21.168911 9.691584 12.46066 18.210262 2.872159 1.1494712 13.599135
6.9959354 12.407331 12.96711 4.3461285 1.1691208 13.957911 20.841272 7.0799375
10.407246 7.8094797 8.789948 8.58534 22.814713 21.237286 5.302868 11.873846
10.749761 18.314665 14.522664 13.548934 2.6134155 22.22772 -6.8954587 4.743468
4.9463716 9.002857 4.195678 9.080292 13.716357 20.554369 0.23067698 16.132187
0.2761027 18.382988 5.6961737 9.747967 11.765305 9.92187 17.11981 0.5460988
20.483398 6.767922 9.994671 23.336222 11.501455 13.404995 17.699642 17.833004
-5.534647 4.4299884 13.7412195 9.110824 8.793105 19.043858 11.93353 16.35803
9.717026 10.870885 5.3521886 21.969702 -0.4546882 2.293251 11.507038 1.356966
3.9753513 11.516346 8.179586 6.488373 21.043152 11.723576 21.533293 15.780022
24.269157 10.3476925 23.73352 1.2411629 2.6608224 10.697462 -9.079346 15.815456
3.7174828 3.917871 0.036399517 22.158607 14.650081 17.764254 0.70152193 -1.876438
12.317254 14.013463 -5.0446167 -0.3520805 4.8345876 13.167746 11.136219 -11.596943
15.089224 4.000988 3.6831236 18.125399 -2.186863 6.8886223 7.407636 11.16336
16.303333 18.325684 3.0911684 -2.0740721 7.8490243 5.1523495 13.146555 9.562255
10.072631 -0.87371075 7.391698 23.4012 3.9277992 11.12584 -5.6552253 6.537793
15.911755 0.99536747 5.83903 -6.0330005 -1.4348333 -0.9845529 11.210908 1.7730234
20.809809 10.665529 20.934221 16.663412 31.97642 10.841193 10.900008 8.51333
26.359009 24.132057 -6.6381536 -6.1828227 16.397175 1.6631117 5.890758 17.609642
18.189844 5.938527 19.766619 16.741823 22.245537 3.579209 13.2314415 7.8714657
21.165165 12.349979 4.57602 12.737479 8.655379 12.2182045 8.250958 6.620725
15.714063 11.658467 8.333884 24.211937 9.231964 16.626118 4.421588 16.48836
24.314106 15.508486 18.982182 -5.954901 13.087608 0.8253122 19.508648 9.711846
4.306247 4.9808025 11.742631 0.90301454 27.172071 2.125857 20.38499 6.35458
10.090368 23.11337 0.5535739 9.589793 -4.581244 8.380868 3.6615934 21.377892
18.7243 8.570362 21.199839 14.891871 22.178785 9.767878 14.42406 12.106223
24.74453 1.9598325 21.724072 12.432523 24.630177 7.4012327 -2.736679 11.284985
9.360754 4.9981027 15.180201 18.366087 21.1326 14.063029 7.553676 18.13454
13.736736 22.9367 -3.3353336 13.759105 8.580394 14.194824 18.86428 15.584624
14.555147 4.655421 14.771316 117.80845 5.566314 22.933676 14.653094 15.520957
00000000: 5300 8b41 0453 b5c0 11ca 0c40 1535 9a41
00000010: 5c1a b1bf e0e9 a441 9f1a 1441 ab75 053f
00000020: 42a1 2441 55c5 3141 ffcf 1ac0 6240 f341
00000030: 7dcc 0c40 97a6 a540 87bd 7e41 c7bf acbf
00000040: cf98 3e3d ee59 a941 ba10 1b41 dd5e 4741
00000050: 9eae 9141 74d1 3740 df21 933f 0f96 5941
00000060: b4de df40 6e84 4641 4879 4f41 7c13 8b40
00000070: c0a5 953f 9a53 5f41 edba a641 d98e e240
00000080: 1484 2641 42e7 f940 a1a3 0c41 8d5d 0941
00000090: 8884 b641 f6e5 a941 18b1 a940 46fb 3d41
000000a0: 05ff 2b41 6f84 9241 d55c 6841 6fc8 5841
000000b0: 3342 2740 5fd2 b141 99a7 dcc0 7dca 9740
000000c0: ad48 9e40 b40b 1041 ff42 8640 e048 1141
000000d0: 3376 5b41 596f a441 9636 6c3e b80e 8141
000000e0: 555d 8d3e 5c10 9341 0e47 b640 acf7 1b41
000000f0: b03e 3c41 fbbf 1e41 5ff5 8841 22cd 0b3f
00000100: 00de a341 d192 d840 2cea 1f41 95b0 ba41
00000110: f605 3841 dc7a 5641 de98 8d41 fea9 8e41
00000120: d41b b1c0 77c2 8d40 09dc 5b41 efc5 1141
00000130: 8fb0 0c41 d259 9841 bdef 3e41 3fdd 8241
00000140: f078 1b41 25ef 2d41 2145 ab40 f3c1 af41
00000150: e4cc e8be a0c4 1240 d41c 3841 10b1 ad3f
00000160: 286c 7e40 f442 3841 96df 0241 c0a0 cf40
00000170: 6058 a841 c493 3b41 2f44 ac41 f87a 7c41
00000180: 3c27 c241 2690 2541 40de bd41 6dde 9e3f
00000190: ea4a 2a40 ce28 2b41 0045 11c1 1c0c 7d41
000001a0: 3deb 6d40 66be 7a40 a917 153d d444 b141
000001b0: bb66 6a41 311d 8e41 f196 333f 1f2f f0bf
000001c0: 7913 4541 2537 6041 806d a1c0 e543 b4be
000001d0: f1b4 9a40 16af 5241 f42d 3241 148d 39c1
000001e0: 766d 7141 1808 8040 4cb8 6b40 d100 9141
000001f0: 90f5 0bc0 986f dc40 5b0b ed40 1f9d 3241
00000200: 3a6d 8241 009b 9241 b4d5 4540 99bd 04c0
00000210: 352b fb40 0ce0 a440 4a58 5241 fffe 1841
00000220: 7f29 2141 82ab 5fbf ca88 ec40 a835 bb41
00000230: 1061 7b40 7103 3241 9bf7 b4c0 9a35 d140
00000240: 8c96 7e41 67d0 7e3f 55d9 ba40 570e c1c0
00000250: 9ea8 b7bf a90b 7cbf e15f 3341 6ef2 e23f
00000260: 7d7a a641 02a6 2a41 4979 a741 ab4e 8541
00000270: b5cf ff41 8775 2d41 6f66 2e41 9a36 0841
00000280: 40df d241 740e c141 c16b d4c0 afd9 c5c0
00000290: 6a2d 8341 d8e0 d43f 1781 bc40 8ce0 8c41
000002a0: cd84 9141 6a08 be40 0922 9e41 41ef 8541
000002b0: dcf6 b141 c311 6540 fcb3 5341 0ce3 fb40
000002c0: 4252 a941 8499 4541 c16e 9240 b7cc 4b41
000002d0: 6f7c 0a41 c47d 4341 ed03 0441 fbdc d340
000002e0: cd6c 7b41 1589 3a41 9757 0541 0cb2 c141
000002f0: 20b6 1341 4a02 8541 a67d 8d40 29e8 8341
00000300: 4a83 c241 c222 7841 82db 9741 8d8e bec0
00000310: d866 5141 a947 533f b611 9c41 b963 1b41
00000320: c7cc 8940 bc62 9f40 d1e1 3b41 f62b 673f
00000330: 6760 d941 0b0e 0840 7614 a341 b858 cb40
00000340: 2672 2141 2fe8 b841 05b7 0d3f cb6f 1941
00000350: 8d99 92c0 0918 0641 8c57 6a40 ec05 ab41
00000360: 5ecb 9541 3420 0941 4599 a941 1b45 6e41
00000370: 276e b141 3a49 1c41 f3c8 6641 17b3 4141
00000380: ccf4 c541 cbdb fa3f e6ca ad41 9deb 4641
00000390: 9a0a c541 e6d6 ec40 c025 2fc0 4c8f 3441
000003a0: a6c5 1541 75f0 9f40 1ae2 7241 bfed 9241
000003b0: 910f a941 2b02 6141 b7b7 f140 8a13 9141
000003c0: acc9 5b41 5d7e b741 1b76 55c0 4b25 5c41
000003d0: 4b49 0941 001e 6341 0cea 9641 9f5a 7941
000003e0: e2e1 6841 35f9 9440 4f57 6c41 ed9d eb42
000003f0: 3f1f b240 2b78 b741 1373 6a41 d755 7841

l1/W f4 [256, 64]
1.2927904 -5.0369782 19.045277 7.1747923 -12.724283 0.52541846 -13.534967 -15.75568
10.1057415 2.8187609 4.214053 -7.7192507 -5.0965576 -2.7672832 3.677931 19.114916
-23.282633 -10.61772 9.927078 -2.5912673 18.073591 -4.239434 10.045508 -20.205523
-10.64882 5.6994004 -4.966322 9.680726 -8.435977 9.241491 -22.626373 -3.0610466
-13.184374 -0.4520401 2.3638783 -7.6590176 0.3347062 -7.9463835 -13.848425 5.597559
9.613173 3.4167278 -13.859504 -2.3232415 8.871373 8.426642 -15.338185 -6.4113708
-8.985923 1.1311665 -16.993465 -6.777748 7.6544485 2.3069236 -4.4885993 -34.820457
-7.841433 4.0126505 -4.1477494 0.9194027 1.5409545 14.580222 1.8632317 -3.404538
-7.549216 2.8316023 9.212747 -2.7265346 -13.216246 8.034305 6.736383 8.876825
-24.74799 -1.0809277 12.775095 6.9893713 12.3386545 4.542008 9.068387 -0.37504104
6.6117373 10.05165 7.5302334 5.7865295 5.9930367 -18.404524 2.4613612 -12.802249
25.732918 12.336488 6.9762692 -1.8756433 -3.342645 3.9482243 -26.612534 -18.479122
15.255812 16.540041 4.6451173 0.32947677 -0.85816896 4.513567 -17.218433 4.20468
6.1978526 -21.94607 -5.2620077 -1.614841 -13.870923 7.2461805 13.305099 7.959616
-19.784107 -21.76075 -8.085989 7.8785295 16.294544 4.6416845 -6.7156563 -6.9813395
-23.345675 -31.809147 -14.91424 -1.3082246 18.21018 6.9468126 -0.62642556 -9.4405365
19.773054 2.9017951 9.546366 14.689515 5.194424 17.034721 19.693417 8.490945
13.670828 7.4842863 3.6985843 1.1005771 -6.032871 2.4634604 1.9342988 -11.678277
-8.026097 -1.3613836 9.305054 -4.654865 5.6231623 -1.6059499 13.442462 -8.900199
9.444804 11.781171 5.519537 -7.809362 -4.059232 -2.590386 0.6658042 -5.5101132
8.308735 0.49707898 -5.137162 -3.0468905 -1.9337786 -6.870565 -5.3346367 2.9857838
12.373099 17.636547 3.5990467 -1.7703304 6.78428 -10.610818 1.071305 -0.4206878
1.7998174 2.3298562 6.6233397 -4.0534077 6.6607494 -2.8271966 -14.1204 2.1582634
-18.58945 1.4748684 -3.2084925 20.901426 -7.0910897 19.990158 29.561121 11.396958
-21.489262 4.088178 -43.753582 7.41261 -0.91453373 -22.92812 5.2703934 -5.156823
-0.8232636 -3.6607373 -8.405282 -5.93679 2.0421937 -14.556927 -12.389443 10.729226
-36.858963 -6.1347466 7.755955 -2.2001173 -6.4236126 -14.029925 -5.930707 -17.974365
3.814303 23.638702 7.289467 -4.643229 13.478387 -11.251934 11.007186 -8.835577
4.5400925 -6.4080873 8.53856 0.92612416 -1.4183294 0.109570384 -12.255376 -5.562461
-12.658803 11.130953 2.4162705 3.858126 -7.23734 -6.0467725 -14.76456 -6.55364
3.07581 4.7889185 1.106404 -2.5671659 5.1781216 10.341076 5.8921757 0.027558988
3.432585 1.0799717 -26.302423 6.5659833 3.1099403 4.060827 -16.886274 22.512476
00000000: 287a a53f ed2e a1c0 ba5c 9841 e697 e540
00000010: aa96 4bc1 d381 063f 3a8f 58c1 4417 7cc1
00000020: 1eb1 2141 9466 3440 86d9 8640 1a04 f7c0
00000030: 0017 a3c0 2b1b 31c0 3963 6b40 59eb 9841
00000040: d542 bac1 2ee2 29c1 50d5 1e41 53d7 25c0
00000050: b796 9041 71a9 87c0 67ba 2041 e9a4 a1c1
00000060: 9161 2ac1 7d61 b640 1cec 9ec0 41e4 1a41
00000070: c3f9 06c1 26dd 1341 d002 b5c1 30e8 43c0
00000080: 32f3 52c1 cd71 e7be c849 1740 ac16 f5c0
00000090: 9c5e ab3e c648 fec0 2693 5dc1 341f b340
000000a0: 8ecf 1941 abab 5a40 87c0 5dc1 fdaf 14c0
000000b0: 25f1 0d41 87d3 0641 3569 75c1 f329 cdc0
000000c0: 57c6 0fc1 10ca 903f 9ef2 87c1 50e3 d8c0
000000d0: 3ef1 f440 a3a4 1340 9ba2 8fc0 2648 0bc2
000000e0: 05ed fac0 a267 8040 5dba 84c0 fa5d 6b3f
000000f0: ff3d c53f 9748 6941 607e ee3f f3e3 59c0
00000100: 2d93 f1c0 f938 3540 6967 1341 8b7f 2ec0
00000110: be75 53c1 838c 0041 7390 d740 7a07 0e41
00000120: e2fb c5c1 d75b 8abf ca66 4c41 eea8 df40
00000130: 216b 4541 2158 9140 1d18 1141 6105 c0be
00000140: 5a93 d340 8fd3 2041 acf7 f040 402b b940
00000150: f5c6 bf40 773c 93c1 f186 1d40 03d6 4cc1
00000160: 04dd cd41 4162 4541 993d df40 1415 f0bf
00000170: e5ed 55c0 b5af 7c40 78e6 d4c1 3ed5 93c1
00000180: ce17 7441 0152 8441 cda4 9440 2eb1 a83e
00000190: f6b0 5bbf 246f 9040 5abf 89c1 bd8c 8640
000001a0: cf54 c640 8d91 afc1 5e62 a8c0 1cb3 cebf
000001b0: 4def 5dc1 b6e0 e740 afe1 5441 2db5 fe40
000001c0: da45 9ec1 0416 aec1 3660 01c1 ea1c fc40
000001d0: 3a5b 8241 ae88 9440 a8e6 d6c0 2267 dfc0
000001e0: f1c3 bac1 2279 fec1 baa0 6ec1 e773 a7bf
000001f0: 73ae 9141 4a4c de40 6d5d 20bf 700c 17c1
00000200: 372f 9e41 03b7 3940 eabd 1841 4108 6b41
00000210: b938 a640 1c47 8841 1e8c 9d41 e9da 0741
00000220: b6bb 5a41 467f ef40 9bb5 6c40 b6df 8c3f
00000230: 470d c1c0 56a9 1d40 1a97 f73f 39da 3ac1
00000240: e56a 00c1 d141 aebf 80e1 1441 a7f4 94c0
00000250: f2f0 b340 c48f cdbf 5314 5741 3767 0ec1
00000260: eb1d 1741 ad7f 3c41 0ca0 b040 4be6 f9c0
00000270: 3be5 81c0 e2c8 25c0 2572 2a3f d952 b0c0
00000280: 94f0 0441 2381 fe3e a263 a4c0 4100 43c0
00000290: 0f86 f7bf abdb dbc0 58b5 aac0 1517 3f40
000002a0: 37f8 4541 a617 8d41 c856 6640 309a e2bf
000002b0: d218 d940 e9c5 29c1 8620 893f 6464 d7be
000002c0: 6b60 e63f 5d1c 1540 66f2 d340 84b5 81c0
000002d0: dc24 d540 caf0 34c0 29ed 61c1 fd20 0a40
000002e0: 32b7 94c1 7dc8 bc3f f157 4dc0 1f36 a741
000002f0: 35ea e2c0 d8eb 9f41 2d7d ec41 f159 3641
00000300: 02ea abc1 5bd2 8240 ab03 2fc2 1a34 ed40
00000310: e21e 6abf ca6c b7c1 10a7 a840 b204 a5c0
00000320: 67c1 52bf 8549 6ac0 097c 06c1 2ffa bdc0
00000330: 4db3 0240 2ce9 68c1 293b 46c1 e9aa 2b41
00000340: 946f 13c2 d84f c4c0 c930 f840 b9ce 0cc0
00000350: 3c8e cdc0 937a 60c1 5ac8 bdc0 80cb 8fc1
00000360: 8a1d 7440 101c bd41 5043 e940 5595 94c0
00000370: 79a7 5741 ec07 34c1 6f1d 3041 865e 0dc1
00000380: 7048 9140 0d0f cdc0 f19d 0841 7916 6d3f
00000390: d18b b5bf 7066 e03d 0516 44c1 aeff b1c0
000003a0: 758a 4ac1 6218 3241 2da4 1a40 89eb 7640
000003b0: 4a98 e7c0 297f c1c0 a33b 6cc1 6bb7 d1c0
000003c0: 12da 4440 d23e 9940 a59e 8d3f 724c 24c0
000003d0: 2cb3 a540 0c75 2541 b48c bc40 63c3 e13c
000003e0: 79af 5b40 833c 8a3f 5d6b d2c1 891c d240
000003f0: 4309 4740 4bf2 8140 1717 87c1 8d19 b441

l1/b f4 [256]
5.8060327 7.8608804 -6.3611736 6.359623 8.371687 0.8656969 2.754307 -5.0525637
-2.9614875 -0.33831435 -2.9056313 -5.830194 7.4815283 6.7591004 -14.997015 -1.5112836
2.4996068 -14.104424 0.5179744 -4.4280624 -11.5254345 -1.4623716 0.9279199 -4.3409224
0.9861904 -15.713007 1.4698265 -3.3871665 -9.522381 2.1487048 -0.19023152 7.5440125
1.520058 -7.8949037 -4.2040634 -1.4854921 -1.7733012 -0.8839396 5.406336 6.075857
-6.438141 -4.184674 1.7669983 -1.2983716 -2.9106617 8.439077 8.490093 -7.7509623
-0.6380662 3.9219253 9.048749 -8.762004 -1.1677649 -2.444278 2.769491 -10.214496
2.4113357 8.677466 -9.098777 -0.9113458 4.020165 -8.005803 -1.8691597 -11.016639
3.5378664 8.254245 2.4467442 -3.2791781 -8.812434 -1.0077218 0.9732948 -4.8568273
-5.836976 3.3241308 15.273088 2.0854683 2.595573 2.5387802 -5.5993 -5.541615
6.840844 4.5732207 2.0325594 -3.266703 -8.25142 4.7259564 -17.346899 -10.29991
4.4253163 -10.304516 -9.55778 2.2439249 -0.08612769 7.2569637 -1.5329283 8.648138
2.8914526 -3.8466089 -6.0013943 2.8266156 -5.6783857 7.317304 -0.538705 4.3072114
-1.5472084 -3.791394 7.4110193 -2.021059 -3.424248 -3.3886673 -7.205321 -2.3700736
4.5996685 -5.2721267 2.3604805 4.3841944 -8.791318 -4.0666485 3.4838915 2.904059
1.3184967 0.37130585 10.734308 -2.5728197 7.3308315 8.766715 -12.077496 -11.420234
-3.6749513 -0.8662434 0.90920025 -2.431774 0.88818747 6.7647347 -3.49109 -1.138105
5.2285395 9.508084 3.1474357 2.7494576 -6.1569633 -0.55060834 -1.957832 -2.7763443
-3.8266096 7.555001 -8.461849 0.70552415 3.3931077 12.169064 -2.684979 0.37149817
3.3667147 9.319569 -7.9917135 -11.018585 2.4341333 3.1568656 8.591739 -0.49873418
0.9441295 0.19775343 1.196713 6.104052 2.6352122 3.5373046 -0.48547113 4.2463784
2.7487376 7.7529244 2.3756833 3.5451608 -5.165601 -3.9583235 -5.258735 -1.9951018
6.967871 -5.273398 1.320782 -1.8053463 2.9460251 0.19414641 -6.106573 -11.353634
8.062775 -12.320093 0.7263527 -0.9285958 0.04873069 2.2376127 -1.3550175 4.0547247
2.717634 -8.035984 -4.321619 3.2906108 1.9730177 -1.3776183 0.3113643 -11.19406
1.3432616 -13.187245 -3.2296877 0.52841246 5.833226 2.1457791 -0.91967404 0.4162828
-0.73687875 -1.8450167 2.2881353 2.2862933 -2.2416036 1.679126 5.098104 -18.20579
5.976221 -1.1194066 -4.4511714 -5.041764 -2.4735458 8.283069 2.795125 -3.0296474
-2.9712646 7.1391068 -5.753497 -4.730513 -2.6927452 -2.596496 2.3945956 -12.57785
5.89503 6.108658 -4.5278244 -14.774118 8.500961 3.899891 3.6537476 5.4421535
1.7640998 -5.5837913 -1.2105693 -10.135199 -3.483819 -0.67468566 4.7726817 -7.60126
-1.3381064 -5.624515 -3.1436307 -12.385083 6.652009 -1.2203215 -2.9012709 2.6549325
00000000: 05cb b940 558c fb40 bc8e cbc0 0882 cb40
00000010: 6ef2 0541 509e 5d3f 9146 3040 9aae a1c0
00000020: 0389 3dc0 8a37 adbe ddf5 39c0 f390 bac0
00000030: ae68 ef40 8d4a d840 c6f3 6fc1 be71 c1bf
00000040: 8ff9 1f40 b9ab 61c1 f899 043f b0b2 8dc0
00000050: 2e68 38c1 fe2e bbbf 298c 6d3f d6e8 8ac0
00000060: f976 7c3f 7a68 7bc1 4623 bc3f 56c7 58c0
00000070: ac5b 18c1 6184 0940 0dcc 42be 8d68 f140
00000080: 4391 c23f 0da3 fcc0 b087 86c0 9b24 bebf
00000090: 89fb e2bf de49 62bf b400 ad40 6c6d c240
000000a0: 4005 cec0 d9e8 85c0 002d e23f 0a31 a6bf
000000b0: 4848 3ac0 7606 0741 6cd7 0741 e207 f8c0
000000c0: 4e58 23bf d300 7b40 adc7 1041 2b31 0cc1
000000d0: 5279 95bf 0d6f 1cc0 573f 3140 936e 23c1
000000e0: 5353 1a40 e7d6 0a41 9794 11c1 f54d 69bf
000000f0: 31a5 8040 c517 00c1 a040 efbf 2744 30c1
00000100: 676c 6240 6311 0441 7597 1c40 0ede 51c0
00000110: bbff 0cc1 07fd 80bf d929 793f 216b 9bc0
00000120: 82c8 bac0 8fbe 5440 925e 7441 5078 0540
00000130: de1d 2640 607b 2240 772d b3c0 e954 b1c0
00000140: 32e8 da40 d357 9240 7415 0240 a911 51c0
00000150: d105 04c1 093b 9740 73c6 8ac1 6ecc 24c1
00000160: 319c 8d40 4cdf 24c1 abec 18c1 779c 0f40
00000170: b763 b0bd 0c39 e840 ff36 c4bf c65e 0a41
00000180: 8f0d 3940 d72e 76c0 6c0b c0c0 45e7 3440
00000190: 56b5 b5c0 5b27 ea40 92e8 09bf add4 8940
000001a0: ed0a c6bf 33a6 72c0 1227 ed40 0859 01c0
000001b0: e126 5bc0 eddf 58c0 fd91 e6c0 49af 17c0
000001c0: 7c30 9340 43b5 a8c0 1d12 1740 524b 8c40
000001d0: 3da9 0cc1 fc21 82c0 14f8 5e40 1adc 3940
000001e0: 80c4 a83f cd1b be3e babf 2b41 14a9 24c0
000001f0: 2c96 ea40 7744 0c41 6c3d 41c1 47b9 36c1
00000200: 6732 6bc0 21c2 5dbf 59c1 683f 2fa2 1bc0
00000210: 4160 633f b578 d840 056e 5fc0 6dad 91bf
00000220: 3250 a740 1d21 1841 966f 4940 1df7 2f40
00000230: d805 c5c0 abf4 0cbf 3d9a fabf a0af 31c0
00000240: 2ce7 74c0 91c2 f140 bc63 07c1 3b9d 343f
00000250: ad28 5940 7cb4 4241 b2d6 2bc0 0235 be3e
00000260: 4178 5740 f41c 1541 1ebc ffc0 204c 30c1
00000270: d7c8 1b40 160a 4a40 c377 0941 165a ffbe
00000280: 79b2 713f e07f 4a3e e42d 993f 6554 c340
00000290: 51a7 2840 3363 6240 ac8f f8be 55e2 8740
000002a0: 51eb 2f40 f517 f840 320b 1840 eae3 6240
000002b0: 9a4c a5c0 2c55 7dc0 8f47 a8c0 7f5f ffbf
000002c0: cdf8 de40 adbf a8c0 620f a93f 9615 e7bf
000002d0: ad8b 3c40 51ce 463e 0c69 c3c0 7ca8 35c1
000002e0: 2001 0141 1a1f 45c1 40f2 393f 74b8 6dbf
000002f0: d599 473d 0c35 0f40 3771 adbf 4ec0 8140
00000300: b7ed 2d40 6493 00c1 b44a 8ac0 5e99 5240
00000310: d88b fc3f cc55 b0bf 246b 9f3e df1a 33c1
00000320: ffef ab3f f5fe 52c1 34b3 4ec0 0a46 073f
00000330: caa9 ba40 7254 0940 c26f 6bbf 0523 d53e
00000340: 16a4 3cbf 8229 ecbf cf70 1240 a152 1240
00000350: 6f76 0fc0 9aed d63f ab23 a340 75a5 91c1
00000360: 343d bf40 b748 8fbf ff6f 8ec0 2156 a1c0
00000370: 934e 1ec0 7387 0441 54e3 3240 bee5 41c0
00000380: 3329 3ec0 9073 e440 a61c b8c0 5d60 97c0
00000390: f055 2cc0 fe2c 26c0 0e41 1940 e03e 49c1
000003a0: 16a4 bc40 207a c340 f0e3 90c0 ca62 6cc1
000003b0: f003 0841 d097 7940 00d7 6940 1f26 ae40
000003c0: 06ce e13f 6bae b2c0 eff3 9abf c629 22c1
000003d0: e4f6 5ec0 33b8 2cbf cfb9 9840 863d f3c0
000003e0: 1247 abbf 07fc b3c0 3f31 49c0 4d29 46c1
000003f0: 42dd d440 7f33 9cbf 6cae 39c0 6aea 2940
