static/ai/8/agent_black_95000/model.npz (npz, 609334 bytes, 8 tensors)

l2/W f4 [256, 256]
-7.2435427 -1.0382718 11.102271 -31.575771 -1.7679332 10.357305 -9.124915 -18.987919
-16.226152 8.266097 7.8769717 -21.740068 -12.721991 5.6949377 -53.031796 -1.2940887
3.887895 4.3087745 3.3439028 10.071875 -29.52819 -10.296555 -7.270831 -22.454044
-5.6849065 -8.88497 -3.9261935 -0.9854311 -41.88836 14.063286 2.0098193 -17.30508
2.7069895 -6.976312 -9.985085 -18.143255 -9.048548 -6.179866 17.532925 -5.574018
-13.463914 -9.491355 -0.57772267 -18.380495 -10.474536 -17.37146 6.8105116 -16.428116
-1.4214627 -35.930668 -15.302086 1.5058154 5.501689 6.1743517 -23.471004 10.976733
7.0162134 -18.935432 -13.00078 -12.0038595 -12.268977 -26.384905 -18.640163 -21.533037
-6.8122425 -23.69018 -12.594148 3.3855913 -1.9594343 -3.302428 -23.270777 -17.737988
-0.7392918 10.8942 9.571777 -12.374878 0.720719 -5.806852 -33.11831 -9.293585
-10.653918 10.726369 22.888742 -15.758454 -6.8943267 -15.390219 16.915964 -9.6230345
-18.942871 -1.5554823 -16.101452 -3.7010996 -2.6916373 7.0271225 -13.527966 -14.168292
-29.781132 -11.037711 -2.0510087 4.1693535 -48.574406 -4.2776914 15.143532 -11.386467
-4.293776 24.721838 -20.057743 -1.9801072 -6.4953585 8.337033 -19.830677 7.0084615
-20.7688 -18.015371 -28.842606 -6.295594 -48.816936 -34.978065 -22.604494 -2.6561177
-0.28645322 -22.932775 3.7373989 -23.212513 -31.798933 -0.20053074 -10.345902 0.6303106
0.4675895 -39.664337 -27.677212 -23.494627 -12.61914 -27.796597 -16.17194 15.817545
22.249224 -2.2956 14.276304 4.162323 12.5225315 -16.748919 -3.2270565 -7.3911233
14.6832285 -17.939312 -25.274137 4.314021 10.1426935 16.759989 -2.262316 10.397033
0.77293956 -6.3111987 12.042242 -29.139135 -7.974638 -5.403468 -1.7263559 -11.638429
-26.044424 -7.4045877 3.7171311 4.740171 -10.214856 3.316466 -19.011461 18.22321
16.897127 -35.56908 -30.61691 -28.79347 -15.582646 4.752316 -27.046103 -18.45574
1.9350256 -11.674617 -20.0669 -12.673131 12.279744 -30.686552 -3.168897 -5.591929
-8.689432 10.892225 -25.496277 -14.834206 -28.529037 -25.7936 -30.261639 -15.800289
-8.952678 13.033467 -34.421642 -29.409025 9.49355 15.162722 -27.349577 -32.0584
-32.8159 -31.538153 28.623987 -2.1739826 -1.7410436 10.292268 -12.164213 -3.2702944
-33.150623 -29.856756 -16.350721 15.544701 3.1268976 -0.12267182 -33.571205 -1.7298398
-5.8066607 -42.47947 -2.154501 -18.251806 -6.417907 -37.89903 -2.260701 4.9588284
21.798298 -20.918573 -19.089745 -10.35937 -2.7242172 3.6836257 3.058358 -14.133054
-9.029012 7.0495653 4.741286 10.90609 -3.3199058 -29.89622 -10.6082115 -22.465546
-4.9839587 -21.495531 -5.5738506 -7.0461755 6.3439417 6.919784 -9.564904 -19.795145
11.044085 12.472779 -2.1308067 -56.897858 -18.201752 18.900108 -30.385698 5.486786
00000000: 1acb e7c0 17e6 84bf e7a2 3141 2e9b fcc1
00000010: a34b e2bf 85b7 2541 a7ff 11c1 42e7 97c1
00000020: 29cf 81c1 ef41 0441 2710 fc40 a9eb adc1
00000030: 468d 4bc1 ee3c b640 8f20 54c2 b3a4 a5bf
00000040: 46d3 7840 7be1 8940 8102 5640 6626 2141
00000050: bc39 ecc1 b0be 24c1 a6aa e8c0 e2a1 b3c1
00000060: c1ea b5c0 d628 0ec1 c146 7bc0 3645 7cbf
00000070: ae8d 27c2 3803 6141 e1a0 0040 ce70 8ac1
00000080: 513f 2d40 f33d dfc0 e8c2 1fc1 6325 91c1
00000090: dac6 10c1 76c1 c5c0 6e43 8c41 5b5e b2c0
000000a0: 316c 57c1 97dc 17c1 a2e5 13bf 410b 93c1
000000b0: b397 27c1 c0f8 8ac1 b6ef d940 c86c 83c1
000000c0: 7df2 b5bf 01b9 0fc2 58d5 74c1 8fbe c03f
000000d0: d60d b040 4a94 c540 9ec4 bbc1 b3a0 2f41
000000e0: d284 e040 c47b 97c1 3203 50c1 cf0f 40c1
000000f0: bb4d 44c1 4914 d3c1 0e1f 95c1 a943 acc1
00000100: e4fd d9c0 7d85 bdc1 a181 49c1 87ad 5840
00000110: bece fabf fb5a 53c0 8d2a bac1 66e7 8dc1
00000120: 3a42 3dbf a54e 2e41 0026 1941 80ff 45c1
00000130: 0a81 383f bbd1 b9c0 2679 04c2 86b2 14c1
00000140: 7376 2ac1 359f 2b41 251c b741 a122 7cc1
00000150: 539e dcc0 563e 76c1 e553 8741 f3f7 19c1
00000160: 008b 97c1 0b1a c7bf c6cf 80c1 d1de 6cc0
00000170: c943 2cc0 30de e040 8c72 58c1 53b1 62c1
00000180: c23f eec1 779a 30c1 ba43 03c0 586b 8540
00000190: 314c 42c2 d9e2 88c0 e84b 7241 f82e 36c1
000001a0: 9d66 89c0 53c6 c541 4276 a0c1 2774 fdbf
000001b0: fad9 cfc0 7d64 0541 3aa5 9ec1 5145 e040
000001c0: 8126 a6c1 7b1f 90c1 a8bd e6c1 8275 c9c0
000001d0: 8b44 43c2 8ae9 0bc2 01d6 b4c1 d5fd 29c0
000001e0: ffa9 92be 5376 b7c1 8b31 6f40 3ab3 b9c1
000001f0: 3764 fec1 ee57 4dbe d188 25c1 095c 213f
00000200: e467 ef3e 48a8 1ec2 ee6a ddc1 fff4 bbc1
00000210: ffe7 49c1 6e5f dec1 2260 81c1 aa14 7d41
00000220: 69fe b141 1ceb 12c0 be6b 6441 c031 8540
00000230: 4a5c 4841 c9fd 85c1 1888 4ec0 1584 ecc0
00000240: 81ee 6a41 b683 8fc1 6f31 cac1 760c 8a40
00000250: 7948 2241 7514 8641 c9c9 10c0 3f5a 2641
00000260: 5edf 453f 57f5 c9c0 06ad 4041 f31c e9c1
00000270: 3c30 ffc0 36e9 acc0 3bf9 dcbf 0137 3ac1
00000280: fb5a d0c1 62f2 ecc0 7ae5 6d40 7baf 9740
00000290: 0d70 23c1 fb40 5440 7917 98c1 22c9 9141
000002a0: 512d 8741 bd46 0ec2 6fef f4c1 0759 e6c1
000002b0: 8552 79c1 f912 9840 6b5e d8c1 5ba5 93c1
000002c0: ebae f73f 3bcb 3ac1 0389 a0c1 25c5 4ac1
000002d0: d579 4441 0f7e f5c1 35cf 4ac0 15f1 b2c0
000002e0: ea07 0bc1 8e46 2e41 60f8 cbc1 e858 6dc1
000002f0: 783b e4c1 4b59 cec1 d617 f2c1 fccd 7cc1
00000300: 2b3e 0fc1 1589 5041 c3af 09c2 af45 ebc1
00000310: 95e5 1741 829a 7241 efcb dac1 cd3b 00c2
00000320: 7b43 03c2 234e fcc1 edfd e441 8822 0bc0
00000330: 84da debf 21ad 2441 9ea0 42c1 814c 51c0
00000340: 3d9a 04c2 a3da eec1 47ce 82c1 18b7 7841
00000350: 171f 4840 5d3b fbbd ea48 06c2 646b ddbf
00000360: 2ad0 b9c0 faea 29c2 58e3 09c0 b303 92c1
00000370: 7f5f cdc0 9b98 17c2 53af 10c0 b9ae 9e40
00000380: ea62 ae41 3d59 a7c1 ccb7 98c1 fbbf 25c1
00000390: 9359 2ec0 86c0 6b40 23bc 4340 fd20 62c1
000003a0: d576 10c1 0a96 e140 9db8 9740 587f 2e41
000003b0: 5679 54c0 752b efc1 3cbb 29c1 70b9 b3c1
000003c0: 977c 9fc0 d9f6 abc1 fc5c b2c0 457a e1c0
000003d0: 9201 cb40 df6e dd40 d909 19c1 755c 9ec1
000003e0: 92b4 3041 8190 4741 235f 08c0 6897 63c2
000003f0: 309d 91c1 6c33 9741 e915 f3c1 c093 af40

l2/b f4 [256]
7.870026 10.744578 2.8260343 16.765589 0.659479 1.9203249 -0.70557296 5.3909707
6.183338 3.9434326 12.032406 1.0151681 5.2140374 -1.8307533 6.7834735 -1.2151409
3.1738408 -9.114794 -5.1549096 -7.1305 14.976269 17.167297 10.517154 12.990129
-0.037970994 19.812933 19.776043 22.883001 16.475685 -1.2980226 0.31424263 18.864243
-3.8164785 24.207344 12.5422735 5.8223314 10.837012 0.6746918 1.644483 2.9159722
13.221552 9.698891 8.556016 1.2489214 12.021015 19.424557 12.087937 6.351605
-4.180139 6.725391 17.36299 -3.774083 -0.8476438 -0.7247954 10.865217 14.7223835
14.858809 3.1673834 13.67106 10.632387 3.7999187 4.0169153 2.0478528 1.0849532
15.065232 -6.886736 -4.732663 8.810696 3.0662923 -2.9758914 7.383403 -8.587847
3.275075 -0.25331116 1.4063721 9.520327 12.40472 10.332231 -5.10809 13.665013
3.2026656 0.7372493 -4.3633437 -1.2384888 -3.5309322 12.610685 0.35100976 12.926805
12.56244 0.33328158 12.876588 5.2265573 16.973743 10.526085 11.8290205 13.5168085
2.1058667 6.157244 4.197478 -10.4025545 18.830133 -3.548029 3.8080883 11.058379
20.768688 22.088112 4.3008513 11.264821 -0.7896939 15.04848 11.6312 -4.3431354
-3.7521434 14.826349 -0.47228247 12.361357 5.8621235 -5.1777945 11.475608 1.3916959
4.7138267 11.509395 1.2598828 1.9363502 -8.579409 10.929975 9.491475 -5.4393673
3.2592926 5.3981624 1.8471265 1.8500575 6.0042353 14.059648 2.7562952 14.48858
15.339236 -3.1367385 0.745079 -5.1963854 14.145586 13.236443 3.9409955 -3.141877
-3.805215 9.780205 14.745038 -7.3454213 -0.5353184 -9.089174 3.9371967 10.325377
10.5223255 0.05787946 6.3596816 16.472216 7.5281024 3.2663612 4.650511 8.324116
-0.8002014 14.254957 -0.5885587 8.3205385 0.28439555 13.936058 17.583647 -8.156028
13.917122 -4.9662113 5.490224 12.093795 12.321588 2.2691953 13.974778 20.600298
4.227397 -6.7451196 23.04422 -6.3496795 -2.1851068 1.3046869 0.59894043 16.658611
14.044279 -12.568714 19.700165 12.572334 1.1282161 9.461534 8.198251 -1.7009482
14.327692 -4.0003543 10.614722 11.85711 0.7986253 6.3786116 15.965107 0.61383307
-0.3521172 5.9068236 2.1813414 14.397476 8.728392 5.6975355 5.895881 -3.7824585
8.785761 0.9530243 -2.3806748 2.0165334 0.33535352 -0.062537916 13.677901 16.189636
-0.62517416 -2.6487083 2.366917 4.8396893 16.521862 17.26923 13.938171 -1.7381462
2.4560444 -4.4792523 22.270147 11.7313595 10.443653 0.1013245 -3.9034688 9.672883
10.98311 -1.3194277 4.5875883 2.2053092 8.494652 5.67583 7.6062574 10.441702
5.257187 13.335299 13.752101 0.5543808 16.947033 4.8788233 18.407482 0.9698344
12.660616 2.7104526 -0.42227492 12.913867 11.384382 22.746588 19.359568 9.970241
00000000: 41d7 fb40 cbe9 2b41 bfdd 3440 ed1f 8641
00000010: 9ed3 283f 35cd f53f 6ea0 34bf d582 ac40
00000020: e8dd c540 3361 7c40 bc84 4041 07f1 813f
00000030: 65d9 a640 2056 eabf 3712 d940 bd89 9bbf
00000040: 3520 4b40 32d6 11c1 05f5 a4c0 0e2d e4c0
00000050: cc9e 6f41 a056 8941 4346 2841 92d7 4f41
00000060: 7987 1bbd e380 9e41 5635 9e41 6310 b741
00000070: 34ce 8341 9b25 a6bf 69e4 a03e f8e9 9641
00000080: 2f41 74c0 a4a8 c141 27ad 4841 8a50 ba40
00000090: 6764 2d41 9ab8 2c3f 6b7e d23f 4a9f 3a40
000000a0: 7a8b 5341 a82e 1b41 71e5 0841 a8dc 9f3f
000000b0: 1456 4041 7e65 9b41 3168 4141 5940 cb40
000000c0: b3c3 85c0 6736 d740 67e7 8a41 938a 71c0
000000d0: 2fff 58bf 318c 39bf eed7 2d41 e28e 6b41
000000e0: afbd 6d41 69b6 4a40 a9bc 5a41 421e 2a41
000000f0: de31 7340 928a 8040 0510 0340 bfdf 8a3f
00000100: 310b 7141 2460 dcc0 fa71 97c0 9cf8 0c41
00000110: 223e 4440 0175 3ec0 d644 ec40 d267 09c1
00000120: d49a 5140 00b2 81be 0004 b43f 4253 1841
00000130: bc79 4641 d150 2541 7975 a3c0 e5a3 5a41
00000140: 79f8 4c40 5fbc 3c3f 83a0 8bc0 cd86 9ebf
00000150: cbfa 61c0 5ec5 4941 8db7 b33e 31d4 4e41
00000160: c1ff 4841 e2a3 aa3e 8106 4e41 f53f a740
00000170: 3aca 8741 d86a 2841 ab43 3d41 d944 5841
00000180: 85c6 0640 2508 c540 bd51 8640 dd70 26c1
00000190: 1da4 9641 e812 63c0 b8b7 7340 1fef 3041
000001a0: 4626 a641 74b4 b041 93a0 8940 b53c 3441
000001b0: 6129 4abf 93c6 7041 6519 3a41 f7fa 8ac0
000001c0: 1e23 70c0 ba38 6d41 02cf f1be 1ec8 4541
000001d0: 8496 bb40 7eb0 a5c0 179c 3741 1723 b23f
000001e0: abd7 9640 7b26 3841 d743 a13f 53da f73f
000001f0: 4245 09c1 2de1 2e41 15dd 1741 4c0f aec0
00000200: 4098 5040 bfbd ac40 a46e ec3f afce ec3f
00000210: b222 c040 51f4 6041 2467 3040 39d1 6741
00000220: 836d 7541 53c0 48c0 7fbd 3e3f ca48 a6c0
00000230: 5254 6241 78c8 5341 4539 7c40 8314 49c0
00000240: a488 73c0 b87b 1c41 adeb 6b41 b10d ebc0
00000250: a00a 09bf 426d 11c1 08fb 7b40 bf34 2541
00000260: 725b 2841 0313 6d3d 8382 cb40 19c7 8341
00000270: 37e6 f040 100c 5140 fcd0 9440 942f 0541
00000280: 00da 4cbf 4e14 6441 c8ab 16bf ed20 0541
00000290: 4b9c 913e 18fa 5e41 4fab 8c41 177f 02c1
000002a0: 88ac 5e41 34eb 9ec0 eaaf af40 2f80 4141
000002b0: 3925 4541 7f3a 1140 b198 5f41 69cd a441
000002c0: d646 8740 05d8 d7c0 905a b841 9330 cbc0
000002d0: cad8 0bc0 fbff a63f 2954 193f d644 8541
000002e0: 5eb5 6041 7419 49c1 f099 9d41 4828 4941
000002f0: 6369 903f 7162 1741 092c 0341 acb8 d9bf
00000300: 3a3e 6541 e702 80c0 e7d5 2941 b9b6 3d41
00000310: b572 4c3f 961d cc40 1471 7f41 2a24 1d3f
00000320: b548 b4be b304 bd40 199b 0b40 105c 6641
00000330: 7ea7 0b41 3652 b640 0fab bc40 cd13 72c0
00000340: 7a92 0c41 67f9 733f fa5c 18c0 e20e 0140
00000350: 75b3 ab3e e113 80bd afd8 5a41 6084 8141
00000360: 6a0b 20bf 7084 29c0 917b 1740 bcde 9a40
00000370: c62c 8441 6227 8a41 c002 5f41 937b debf
00000380: d52f 1d40 0956 8fc0 4329 b241 a6b3 3b41
00000390: 3419 2741 3883 cf3d 6fd2 79c0 21c4 1a41
000003a0: d2ba 2f41 02e3 a8bf 86cd 9240 c923 0d40
000003b0: 18ea 0741 66a0 b540 7666 f340 3611 2741
000003c0: e03a a840 625d 5541 9b08 5c41 e6eb 0d3f
000003d0: 8693 8741 521f 9c40 8642 9341 1147 783f
000003e0: e291 4a41 0e78 2d40 6b34 d8be 339f 4e41
000003f0: 6e26 3641 03f9 b541 65e0 9a41 1b86 1f41

l4/W f4 [64, 256]
49.59045 39.67177 39.533398 59.948772 31.36502 51.59717 43.02862 39.00818
32.200363 50.65351 40.56762 15.20953 30.806261 38.344734 59.236874 38.469517
43.030437 45.01506 41.41833 47.546513 6.762897 27.696394 34.717026 53.487213
56.80619 55.45382 50.82438 39.894093 44.432587 54.41196 57.243423 23.929743
53.52063 40.369373 63.01376 43.38374 51.126163 50.700493 45.358818 33.53159
21.171623 59.422913 48.70896 61.9865 45.825756 55.72477 40.017136 38.039875
43.29916 50.84965 44.46192 38.341137 60.992016 57.140778 43.67935 56.341606
45.160725 56.00188 48.87607 36.46834 53.68554 46.251198 48.814568 29.124044
14.576273 50.045025 36.09733 54.42039 46.774387 61.046207 36.821964 25.125587
48.002483 41.80186 42.208374 63.17991 35.8259 56.463978 40.44615 55.54482
42.366447 68.28161 44.233635 50.72782 29.651428 27.501286 57.744614 15.788074
38.59313 51.92227 46.926723 37.759617 53.010273 38.72729 53.756016 37.413185
35.58574 45.245247 55.951477 37.94518 35.35593 37.34184 39.9648 48.745426
37.33595 40.266964 24.345825 45.422394 45.81875 57.906265 42.18748 40.1527
45.108234 31.03314 42.07847 44.713352 46.89987 51.884243 30.795712 18.988571
38.848385 55.667355 32.922733 57.397995 47.6188 46.329105 50.293976 51.68451
58.80329 32.127743 43.969902 39.2458 47.501175 42.443375 53.181652 46.722866
41.434227 39.484844 29.846846 52.72217 45.400234 45.72188 29.317753 33.784557
45.41498 44.749023 46.849194 32.07728 36.186523 28.882278 9.507655 38.244263
51.49144 45.01529 52.696606 29.333803 23.571749 44.142822 53.708515 35.22756
26.455574 50.348904 46.076263 48.312065 5.1218815 26.102926 43.181015 55.585854
12.568739 45.47966 45.003464 62.09597 47.900276 50.848072 34.500732 27.188799
50.48383 53.810455 37.009304 53.798954 38.33756 49.2151 35.12987 46.33736
53.563107 39.762047 45.339737 19.47856 63.673523 64.249054 38.423664 13.839216
47.33756 47.50964 42.389294 42.517838 40.906868 47.691895 53.98769 50.901173
36.014435 49.07164 36.54977 25.434164 57.79752 35.720264 6.840507 44.3203
64.731575 13.04048 41.77625 53.01094 20.639374 55.286446 45.042446 52.831856
43.30703 28.251013 53.59058 44.11057 19.476734 44.95759 44.93147 42.256935
50.62594 38.392918 47.55782 46.10115 49.810677 47.62416 36.91357 53.904373
51.639385 46.212456 15.722385 29.133165 53.54594 60.71606 27.137512 23.346836
43.95156 52.86254 37.79417 53.79377 44.394993 58.741188 52.03788 47.957348
45.59744 42.21166 48.559826 1.9385663 49.798325 59.924976 41.9348 46.89113
00000000: 9f5c 4642 e4af 1e42 3322 1e42 8bcb 6f42
00000010: 90eb fa41 8163 4e42 4f1d 2c42 6008 1c42
00000020: 2ccd 0042 329d 4a42 3e45 2242 3c5a 7341
00000030: 3973 f641 0261 1942 8ff2 6c42 c9e0 1942
00000040: 2b1f 2c42 6c0f 3442 5fac 2542 a12f 3e42
00000050: a769 d840 3792 dd41 3cde 0a42 e8f2 5542
00000060: 8a39 6342 b6d0 5d42 2a4c 4b42 8d93 1f42
00000070: f8ba 3142 d9a5 5942 44f9 6442 1d70 bf41
00000080: 2015 5642 3d7a 2142 170e 7c42 f388 2d42
00000090: 3181 4c42 4ecd 4a42 6e6f 3542 5920 0642
000000a0: 7c5f a941 10b1 6d42 fad5 4242 2df2 7742
000000b0: 934d 3742 2ae6 5e42 8c11 2042 d528 1842
000000c0: 5732 2d42 0b66 4b42 02d9 3142 535d 1942
000000d0: d3f7 7342 2890 6442 a8b7 2e42 ce5d 6142
000000e0: 95a4 3442 ed01 6042 1881 4342 95df 1142
000000f0: febd 5642 3a01 3942 1e42 4342 0bfe e841
00000100: 6a38 6941 1b2e 4842 aa63 1042 7bae 5942
00000110: f918 3b42 512f 7442 b149 1342 3401 c941
00000120: 8b02 4042 1b35 2742 60d5 2842 3ab8 7c42
00000130: b94d 0f42 1ddb 6142 dcc8 2142 e52d 5e42
00000140: 3e77 2942 2f90 8842 3eef 3042 4ae9 4a42
00000150: 2036 ed41 a202 dc41 7cfa 6642 f39b 7c41
00000160: 5d5f 1a42 68b0 4f42 f7b4 3b42 d909 1742
00000170: 850a 5442 bfe8 1a42 2906 5742 1aa7 1542
00000180: cc57 0e42 22fb 3442 50ce 5f42 ddc7 1742
00000190: 796c 0d42 0b5e 1542 f5db 1f42 51fb 4242
000001a0: 0358 1542 5f11 2142 40c4 c241 88b0 3542
000001b0: 6646 3742 04a0 6742 fbbf 2842 5d9c 2042
000001c0: d56e 3442 df43 f841 5a50 2842 79da 3242
000001d0: 7899 3b42 7789 4f42 9e5d f641 98e8 9741
000001e0: bf64 1b42 5fab 5e42 e1b0 0342 8c97 6542
000001f0: a779 3e42 0151 3942 082d 4942 f0bc 4e42
00000200: 9236 6b42 cf82 0042 2ee1 2f42 b3fb 1c42
00000210: 3401 3e42 04c6 2942 03ba 5442 37e4 3a42
00000220: a6bc 2542 7bf0 1d42 57c6 ee41 81e3 5242
00000230: d799 3542 35e3 3642 c28a ea41 6323 0742
00000240: f1a8 3542 00ff 3242 9365 3b42 224f 0042
00000250: 00bf 1042 e80e e741 5b1f 1841 20fa 1842
00000260: 3cf7 4d42 a80f 3442 53c9 5242 a1ab ea41
00000270: f192 bc41 4092 3042 85d5 5642 05e9 0c42
00000280: 04a5 d341 4765 4942 184e 3842 8e3f 4142
00000290: 74e6 a340 cbd2 d041 5cb9 2c42 ea57 5e42
000002a0: 8e19 4941 2ceb 3542 8c03 3442 4662 7842
000002b0: e299 3f42 6d64 4b42 c000 0a42 a982 d941
000002c0: 71ef 4942 e83d 5742 8709 1442 2132 5742
000002d0: a959 1942 43dc 4442 fd84 0c42 7559 3942
000002e0: 9f40 5642 560c 1f42 e45b 3542 17d4 9b41
000002f0: b0b1 7e42 847f 8042 d5b1 1942 6e6d 5d41
00000300: a959 3d42 df09 3e42 a38e 2942 4412 2a42
00000310: a2a0 2342 80c4 3e42 65f3 5742 cd9a 4b42
00000320: c80e 1042 5c49 4442 f732 1242 2b79 cb41
00000330: a930 6742 8de1 0e42 6fe5 da40 fd47 3142
00000340: 9176 8142 cea5 5041 e11a 2742 340b 5442
00000350: 701d a541 5225 5d42 772b 3442 d253 5342
00000360: 663a 2d42 1302 e241 c15c 5642 3971 3042
00000370: 5ad0 9b41 92d4 3342 d3b9 3342 1a07 2942
00000380: f680 4a42 5992 1942 353b 3e42 9467 3842
00000390: 223e 4742 247f 3e42 7fa7 1342 149e 5742
000003a0: bb8e 4e42 8ed9 3842 e48e 7b41 b910 e941
000003b0: 0b2f 5642 3fdd 7242 a019 d941 52c6 ba41
000003c0: 66ce 2f42 3e73 5342 3b2d 1742 d22c 5742
000003d0: 7994 3142 faf6 6a42 ca26 5042 53d4 3f42
000003e0: c763 3642 bdd8 2842 433d 4242 f122 f83f
000003f0: 7c31 4742 2db3 6f42 3cbd 2742 8490 3b42

l4/b f4 [64]
-95.94707 -95.94402 -95.9511 -95.963326 -95.93807 -95.95363 -95.93873 -95.94441
-95.95193 -95.95701 -95.96098 -95.95812 -95.93291 -95.96965 -95.95892 -95.95186
-95.97375 -95.94503 -95.94162 -95.94697 -95.95566 -95.95076 -95.96852 -95.95316
-95.96487 -95.934235 -95.94811 -95.94588 -95.98253 -95.96567 -95.94991 -95.93416
-95.951805 -95.95431 -95.95237 -95.97835 -95.955124 -95.950806 -95.93733 -95.97022
-95.94823 -95.95711 -95.95412 -95.94985 -95.97367 -95.9331 -95.95114 -95.95117
-95.94298 -95.97815 -95.96004 -95.96168 -95.95847 -95.9633 -95.94963 -95.93816
-95.95403 -95.96028 -95.96002 -95.95152 -95.962685 -95.9647 -95.93277 -95.92693
00000000: e6e4 bfc2 57e3 bfc2 f7e6 bfc2 39ed bfc2
00000010: 4be0 bfc2 42e8 bfc2 a1e0 bfc2 8ae3 bfc2
00000020: 63e7 bfc2 fde9 bfc2 06ec bfc2 8fea bfc2
00000030: a6dd bfc2 76f0 bfc2 f8ea bfc2 5ae7 bfc2
00000040: 8ff2 bfc2 dbe3 bfc2 1ce2 bfc2 d9e4 bfc2
00000050: 4ce9 bfc2 cae6 bfc2 e2ef bfc2 05e8 bfc2
00000060: 03ee bfc2 54de bfc2 6fe5 bfc2 4ae4 bfc2
00000070: 0ef7 bfc2 6cee bfc2 5be6 bfc2 4ade bfc2
00000080: 53e7 bfc2 9be8 bfc2 9de7 bfc2 eaf4 bfc2
00000090: 06e9 bfc2 d0e6 bfc2 eadf bfc2 c1f0 bfc2
000000a0: 7ee5 bfc2 0aea bfc2 82e8 bfc2 53e6 bfc2
000000b0: 85f2 bfc2 bfdd bfc2 fce6 bfc2 00e7 bfc2
000000c0: cee2 bfc2 d0f4 bfc2 8aeb bfc2 61ec bfc2
000000d0: bdea bfc2 36ed bfc2 36e6 bfc2 57e0 bfc2
000000e0: 77e8 bfc2 aaeb bfc2 88eb bfc2 2ee7 bfc2
000000f0: e5ec bfc2 eded bfc2 94dd bfc2 97da bfc2

l3/W f4 [256, 256]
6.895491 6.043301 4.086336 27.026052 -34.2379 2.5846999 8.651579 14.715237
16.842537 32.067295 -7.5618143 7.877693 21.16995 -16.042767 -13.684286 -11.961375
-0.12902674 -41.873142 -60.314938 -20.494595 36.943123 13.071962 4.972223 21.812399
16.105644 31.929138 29.998503 10.937251 60.560574 -8.377262 12.549388 21.73681
-22.687822 14.2773485 19.443481 12.489931 -24.191847 10.827038 13.204649 18.08205
2.2676513 18.83688 -9.510054 12.9880295 14.956085 3.2639713 -30.000217 23.442425
-14.102181 -10.966309 34.33719 -5.7798176 10.899661 4.887576 6.730372 33.7557
19.968323 22.541592 12.359144 15.6342125 0.46868706 -11.407523 8.158761 7.599268
19.150835 19.749235 37.170986 -32.889423 3.9356024 12.690835 16.879097 -18.168432
-2.8837883 20.31287 14.875882 21.509207 -18.316216 4.5286274 13.901557 30.68933
7.9676595 11.139716 -15.343048 -37.604435 21.39603 44.845207 13.81396 37.976753
40.947315 11.899929 49.071854 7.6746607 9.406125 22.033232 -3.0505383 41.9419
13.376001 18.275915 5.291615 -23.029053 -26.471786 8.09015 11.3569765 5.8044925
26.408308 51.618744 9.473322 39.998554 14.40581 5.01849 -9.8975935 -38.074703
-62.92562 28.115767 7.9339333 -0.24858527 8.556847 -45.04676 25.603418 -10.266301
29.53993 17.071592 -35.669018 0.7164907 -38.269638 7.2311425 -10.40011 -38.015984
24.07724 14.015264 17.193518 5.138259 6.768595 -2.1427836 15.063392 24.197794
2.0868099 -18.08414 -5.472025 -14.739349 -3.880151 46.795296 14.997529 -1.932889
-45.403713 -11.933547 -4.740448 -5.4258313 -15.10034 -57.505974 10.661926 19.517729
40.84663 12.7342 13.148862 8.832635 0.91531837 21.269253 16.610558 11.766192
-23.687311 10.550113 -25.33841 14.220842 9.455738 17.083218 29.916739 -29.479343
13.341194 41.39303 -0.8596445 5.647141 6.7136655 35.91038 -7.600501 16.169142
10.284301 -37.440895 -0.024238525 1.0954318 -63.54033 14.0994005 13.876453 19.917858
-16.304379 -14.980523 4.3006473 -8.462169 -29.202593 18.91534 -5.1558294 -15.999629
34.561543 9.209029 -24.120842 24.291138 -15.840057 11.997402 11.398029 9.722612
0.112484865 11.775691 11.576154 19.186165 -13.903091 22.761808 3.26363 -31.287754
47.55993 31.365942 -3.7528098 4.4326735 10.288722 11.6508045 5.0808954 39.909893
-14.666447 -41.204395 -0.5060386 25.527609 22.469107 14.52075 14.102482 13.516904
1.1060314 -11.439475 -16.513292 0.64449805 0.11535363 12.058279 -31.86742 9.767933
23.356586 -37.1697 16.613556 20.49818 54.461018 15.544795 2.3928244 11.500529
17.29222 17.23638 17.564898 10.982375 5.37514 10.639825 37.421455 16.05351
7.9370275 16.5023 9.123885 31.154922 29.155136 24.94746 15.18006 12.382716
00000000: dda7 dc40 b962 c140 44c3 8240 5b35 d841
00000010: 9cf3 08c2 b96b 2540 de6c 0a41 9c71 6b41
00000020: 84bd 8641 e944 0042 62fa f1c0 1016 fc40
00000030: 0f5c a941 9657 80c1 d6f2 5ac1 cb61 3fc1
00000040: 961f 04be 197e 27c2 7f42 71c2 eef4 a3c1
00000050: c2c5 1342 c226 5141 731c 9f40 cb7f ae41
00000060: 5cd8 8041 e06e ff41 effc ef41 fbfe 2e41
00000070: 073e 7242 4409 06c1 4bca 4841 fde4 ad41
00000080: a980 b5c1 0570 6441 408c 9b41 c2d6 4741
00000090: e788 c1c1 8c3b 2d41 3e46 5341 0aa8 9041
000000a0: 3321 1140 eeb1 9641 2e29 18c1 f8ce 4f41
000000b0: 204c 6f41 e8e4 5040 7200 f0c1 168a bb41
000000c0: 89a2 61c1 0076 2fc1 4859 0942 44f4 b8c0
000000d0: 0365 2e41 0667 9c40 355f d740 d605 0742
000000e0: 20bf 9f41 2e55 b441 0ebf 4541 bc25 7a41
000000f0: c0f7 ef3e 3785 36c1 498a 0241 342d f340
00000100: e934 9941 6ffe 9d41 17af 1442 c58e 03c2
00000110: e9e0 7b40 a90d 4b41 6408 8741 f358 91c1
00000120: fd8f 38c0 c280 a241 9d03 6e41 db12 ac41
00000130: 9c87 92c1 84ea 9040 c76c 5e41 bf83 f541
00000140: 11f7 fe40 473c 3241 207d 75c1 f16a 16c2
00000150: 122b ab41 7e61 3342 fb05 5d41 32e8 1742
00000160: 0dca 2342 1c66 3e41 9449 4442 d296 f540
00000170: 7d7f 1641 0f44 b041 053c 43c0 81c4 2742
00000180: 1a04 5641 1335 9241 e954 a940 803b b8c1
00000190: 38c6 d3c1 4171 0141 2db6 3541 67be b940
000001a0: 3744 d341 9879 4e42 ba92 1741 85fe 1f42
000001b0: 337e 6641 7897 a040 8b5c 1ec1 7f4c 18c2
000001c0: d6b3 7bc2 17ed e041 c8e2 fd40 238d 7ebe
000001d0: d8e8 0841 e22f 34c2 cdd3 cc41 c542 24c1
000001e0: c751 ec41 9f92 8841 13ad 0ec2 ef6b 373f
000001f0: 1c14 19c2 8565 e740 da66 26c1 5e10 18c2
00000200: 309e c041 853e 6041 538c 8941 9e6c a440
00000210: 5598 d840 5e23 09c0 a703 7141 1595 c141
00000220: 4b8e 0540 52ac 90c1 d41a afc0 60d4 6bc1
00000230: 6554 78c0 622e 3b42 e1f5 6f41 e868 f7bf
00000240: 679d 35c2 cfef 3ec1 c0b1 97c0 69a0 adc0
00000250: fe9a 71c1 1e06 66c2 4097 2a41 4f24 9c41
00000260: f362 2342 48bf 4b41 bd61 5241 7952 0d41
00000270: 4e52 6a3f 6e27 aa41 6ce2 8441 5342 3c41
00000280: 9d7f bdc1 43cd 2841 10b5 cac1 9288 6341
00000290: b44a 1741 6eaa 8841 7b55 ef41 b2d5 ebc1
000002a0: 8875 5541 7692 2542 a911 5cbf 61b5 b440
000002b0: 59d6 d640 3ba4 0f42 4e37 f3c0 675a 8141
000002c0: 7f8c 2441 7ac3 15c2 df8f c6bc 1c37 8c3f
000002d0: 4c29 7ec2 2597 6141 f405 5e41 c657 9f41
000002e0: 5e6f 82c1 39b0 6fc1 e79e 8940 0b65 07c1
000002f0: e99e e9c1 9e52 9741 8efc a4c0 7bfe 7fc1
00000300: 053f 0a42 2f58 1341 7cf7 c0c1 4054 c241
00000310: e070 7dc1 5cf5 3f41 545e 3641 d28f 1b41
00000320: 775e e63d 3b69 3c41 ed37 3941 447d 9941
00000330: 1073 5ec1 2f18 b641 50df 5040 524d fac1
00000340: 5e3d 3e42 73ed fa41 092e 70c0 76d8 8d40
00000350: 9b9e 2441 b269 3a41 b296 a240 bba3 1f42
00000360: c4a9 6ac1 4dd1 24c2 bf8b 01bf 8b38 cc41
00000370: bbc0 b341 fe54 6841 c4a3 6141 3d45 5841
00000380: 7092 8d3f 1708 37c1 391b 84c1 d3fd 243f
00000390: 863e ec3d b6ee 4041 7af0 fec1 7449 1c41
000003a0: 4ada ba41 c6ad 14c2 90e8 8441 46fc a341
000003b0: 15d8 5942 7bb7 7841 0924 1940 2b02 3841
000003c0: 7756 8a41 1be4 8941 e984 8c41 cfb7 2f41
000003d0: 2601 ac40 b93c 2a41 92af 1542 976d 8041
000003e0: 21fc fd40 b604 8441 6ffb 1141 483d f941
000003f0: b83d e941 6694 c741 87e1 7241 9b1f 4641

l3/b f4 [256]
22.27569 -7.589515 0.68921703 19.108332 5.765663 21.40046 9.524829 2.7160733
11.728276 12.789243 -4.4001503 35.718727 2.839344 10.659353 10.653997 0.9641051
0.17845812 17.398676 11.856495 11.871219 15.881222 6.612155 3.1168966 22.765629
4.017818 11.426522 15.550192 5.5580087 -1.6668977 10.717325 20.769989 9.982207
13.593091 8.917308 11.469173 6.1454268 26.528103 23.902308 6.1942573 13.944491
2.969146 22.75916 13.573585 10.101256 0.23761554 27.47973 -8.595342 8.848216
0.3573443 9.254074 4.4738827 6.633919 17.694654 28.09823 4.3158965 13.424529
-2.831614 25.803577 5.920722 5.611963 15.532862 9.348905 11.147795 1.6833537
20.22564 10.557508 10.635974 27.112286 13.466584 18.388376 21.906612 23.152763
0.32755134 4.5388803 11.429812 -0.7911724 14.630063 24.727188 12.556688 18.24261
8.684097 10.776963 10.01946 24.71553 5.6940455 3.8915343 13.2561245 5.6313267
5.082363 16.192692 8.641608 6.423472 29.65025 14.190397 26.12935 17.868721
27.584639 11.6324005 23.176968 1.3257326 -0.9293179 10.7435255 -13.348173 24.460241
-0.42106247 7.9217887 1.451758 32.30731 19.77266 24.063576 4.80769 -2.2393947
10.787943 17.419102 -3.9327278 -4.700631 7.002914 16.118856 12.310856 -6.490244
18.804716 2.6856189 5.3790207 18.546295 3.28858 9.763325 8.677794 15.228488
25.747684 20.77761 0.9230894 -7.633829 11.411889 8.32145 15.749944 10.918625
11.478049 7.581533 7.9912696 26.90117 6.299863 8.894424 -5.5760617 4.44823
24.7186 2.5835824 6.841691 -9.783017 6.194272 -0.5220054 11.158277 2.4074078
29.332642 10.854172 18.932034 18.104836 28.16422 9.247337 8.8328495 3.0417163
21.921593 26.460913 -2.1921976 -4.661553 23.41159 6.2001925 5.414289 20.291626
27.27823 8.962815 26.542992 17.097448 23.583963 10.078188 14.052481 9.9345045
21.98033 8.666303 6.272803 16.553995 14.422551 14.132239 9.81941 9.164564
14.59519 8.571363 5.364857 24.019995 8.14274 20.947111 7.244825 22.426548
23.867008 20.69577 22.089655 -6.640282 17.016314 1.408509 20.22336 13.969204
2.8007495 3.918101 14.69071 -0.89988756 23.685074 3.7232385 23.869673 8.268234
9.583058 28.708265 5.603304 12.220346 -2.871782 6.4908943 7.2563705 24.105883
11.70545 7.3275046 24.94267 10.027872 25.480207 13.026259 13.3134775 13.7089615
27.621544 5.755343 26.049318 10.326732 26.959797 4.9542003 0.21286774 14.007477
12.834059 9.181963 15.299785 24.245085 31.747671 19.930866 16.22929 24.586403
15.639313 26.027685 -4.472921 19.450752 15.233618 13.616995 26.60721 16.694384
12.0089445 8.077638 14.331781 147.49184 6.1659493 32.49784 11.1897335 17.667936
00000000: 9d34 b241 4fdd f2c0 8770 303f dddd 9841
00000010: 5080 b840 2434 ab41 b365 1841 25d4 2d40
00000020: 05a7 3b41 bda0 4c41 08ce 8cc0 fadf 0e42
00000030: d0b7 3540 b68c 2a41 c676 2a41 98cf 763f
00000040: babd 363e 7d30 8b41 34b4 3d41 83f0 3d41
00000050: 7c19 7e41 c696 d340 3c7b 4740 0220 b641
00000060: f791 8040 09d3 3641 96cd 7841 35db b140
00000070: e75c d5bf 2a7a 2b41 f028 a641 1fb7 1f41
00000080: 4d7d 5941 4bad 0e41 bc81 3741 56a7 c440
00000090: 8e39 d441 ed37 bf41 5b37 c640 a31c 5f41
000000a0: 7d06 3e40 c212 b641 672d 5941 bf9e 2141
000000b0: 7d51 733e 7dd6 db41 8586 09c1 4b92 0d41
000000c0: d5f5 b63e b010 1441 0c2a 8f40 1049 d440
000000d0: a78e 8d41 2dc9 e041 d31b 8a40 dfca 5641
000000e0: 2a39 35c0 ba6d ce41 8e76 bd40 3395 b340
000000f0: 9a86 7841 1d95 1541 5e5d 3241 2278 d73f
00000100: 1cce a141 8eeb 2841 f32c 2a41 f6e5 d841
00000110: 2177 5741 651b 9341 be40 af41 dc38 b941
00000120: cfb4 a73e 823e 9140 83e0 3641 468a 4abf
00000130: bd14 6a41 48d1 c541 32e8 4841 def0 9141
00000140: 10f2 0a41 716e 2c41 b54f 2041 68b9 c541
00000150: 9f35 b640 e60e 7940 1619 5441 d433 b440
00000160: b8a2 a240 a28a 8141 0744 0a41 158d cd40
00000170: b633 ed41 de0b 6341 e908 d141 24f3 8e41
00000180: 57ad dc41 501e 3a41 6e6a b941 9bb1 a93f
00000190: c7e7 6dbf 7be5 2b41 1e92 55c1 93ae c341
000001a0: 8095 d7be 4b7f fd40 35d3 b93f af3a 0142
000001b0: 682e 9e41 3482 c041 99d8 9940 3e52 0fc0
000001c0: 6a9b 2c41 525a 8b41 d0b1 7bc0 926b 96c0
000001d0: df17 e040 6bf3 8041 44f9 4441 14b0 cfc0
000001e0: 0f70 9641 2ee1 2b40 f020 ac40 d05e 9441
000001f0: 1878 5240 9436 1c41 3fd8 0a41 e3a7 7341
00000200: 42fb cd41 8c38 a641 964f 6c3f 5448 f4c0
00000210: 1997 3641 a924 0541 c5ff 7b41 b0b2 2e41
00000220: 17a6 3741 eb9b f240 7bb8 ff40 9935 d741
00000230: 7a98 c940 904f 0e41 196f b2c0 e657 8e40
00000240: b1bf c541 6a59 2540 22ef da40 3d87 1cc1
00000250: 7a37 c640 25a2 05bf 4d88 3241 f812 1a40
00000260: 40a9 ea41 b0aa 2d41 ce74 9741 b4d6 9041
00000270: 5350 e141 18f5 1341 5a53 0d41 7bab 4240
00000280: 6c5f af41 f3af d341 f74c 0cc0 712b 95c0
00000290: f04a bb41 fa67 c640 db41 ad40 4055 a241
000002a0: d139 da41 b167 0f41 0c58 d441 93c7 8841
000002b0: f5ab bc41 4240 2141 f6d6 6041 bbf3 1e41
000002c0: b7d7 af41 2da9 0a41 cdba c840 956e 8441
000002d0: c5c2 6641 a71d 6241 4e1c 1d41 0ea2 1241
000002e0: e685 6941 4e24 0941 e9ac ab40 f328 c041
000002f0: aa48 0241 af93 a741 9bd5 e740 9269 b341
00000300: a2ef be41 f090 a541 9db7 b041 317d d4c0
00000310: 6921 8841 064a b43f 71c9 a141 dc81 5f41
00000320: 7b3f 3340 2bc2 7a40 260d 6b41 085f 66bf
00000330: 087b bd41 8a49 6e40 17f5 be41 b04a 0441
00000340: 3554 1941 87aa e541 444e b340 8a86 4341
00000350: 47cb 37c0 68b5 cf40 3034 e840 d9d8 c041
00000360: 8649 3b41 eb7a ea40 978a c741 2a72 2041
00000370: 77d7 cb41 8f6b 5041 0104 5541 e857 5b41
00000380: ecf8 dc41 c52b b840 0165 d041 4b3a 2541
00000390: aaad d741 cf88 9e40 00fa 593e a01e 6041
000003a0: 4e58 4d41 52e9 1241 ebcb 7441 eff5 c141
000003b0: 3bfb fd41 6a72 9f41 96d5 8141 f4b0 c441
000003c0: a03a 7a41 b338 d041 2b22 8fc0 249b 9b41
000003d0: e6bc 7341 36df 5941 91db d441 198e 8541
000003e0: a324 4041 013e 0141 fa4e 6541 e97d 1343
000003f0: 754f c540 cafd 0142 2609 3341 ef57 8d41

l1/W f4 [256, 64]
-19.156252 -35.978874 14.42018 0.946309 -8.875076 -4.091166 -1.966844 8.574577
10.109764 -0.9168557 -6.54889 -6.4647098 -7.9028788 -1.3030522 4.9244976 11.528486
-48.001408 -17.824062 11.529066 -2.6268582 23.805609 -11.323168 2.108994 -16.20754
-10.410873 3.2544029 -3.9034126 9.565828 -11.7427435 2.6827104 -53.034023 -12.890255
-17.100723 -5.8970966 4.379029 -3.9815788 -2.239032 -15.049125 -22.953388 -14.43402
16.003874 -3.9423535 -8.182837 2.7836304 13.944006 2.0072746 -40.19097 -24.07989
-17.439783 12.812112 -6.810939 -4.990222 7.663522 8.091116 -8.238683 -50.11489
-8.618328 0.3248695 13.315243 -0.8026067 0.13668005 10.682224 6.505972 -21.487738
-4.276141 10.311345 14.11274 -3.0165079 -19.525639 2.0048172 6.875087 -1.7528977
-30.900204 5.1762857 7.976917 3.5118966 9.385821 4.774566 7.8372416 -21.45267
1.374184 10.18074 8.211786 0.66641986 4.554066 -15.116044 2.1539092 -18.533594
32.58259 10.392819 5.132519 0.39143965 -1.309712 7.264303 -43.228546 -32.447514
17.691813 16.638435 -1.6375475 1.2731917 -0.054195125 8.8077755 -19.60859 -8.73026
8.5504675 -13.938555 -19.187431 5.5861254 -12.174436 8.520174 23.048567 15.027954
-18.226564 -28.457891 -9.548044 8.613153 18.116743 -2.3363514 -12.374125 -3.777774
-40.628605 -19.819344 -25.193354 -4.6742387 19.406818 4.839383 7.3424745 -15.204961
29.05293 -3.7974417 -3.257217 16.954552 10.314395 23.350054 24.53059 10.83083
10.2257185 9.416299 -1.7892627 6.9932203 -6.6533074 -2.6179416 2.8445652 -7.1659513
6.810233 2.720579 10.653864 -13.248542 15.028041 -1.3670415 22.003668 -14.678983
16.903513 18.246408 1.1217339 -11.353889 1.0396187 -5.1640644 2.9364948 6.5781345
3.0744097 1.5976137 -3.935321 -4.4551854 -4.8691645 -11.328332 1.5696809 14.8846245
11.43247 10.880973 2.8486967 -6.9352264 -1.8250356 -4.5651293 1.211357 10.043366
-6.5572314 6.233887 10.561807 -5.9592366 15.267377 10.089959 -13.1190605 1.7248622
-11.294547 1.3349583 -17.723297 15.60356 1.3149065 20.16467 29.733803 8.9015255
-23.44123 -2.3126376 -37.710945 8.814337 0.05727036 -14.904498 2.4501035 -2.730736
-8.116866 0.72239107 -12.659792 0.17892323 7.8388824 -25.170757 -16.560543 4.132213
-37.328335 -6.2530723 4.4143767 -1.8898491 -6.0022655 -7.8825216 -7.158948 -14.726525
-4.289539 16.835533 -0.07874958 -2.6371841 12.509014 -9.780481 11.814657 -26.315794
16.405235 -11.1711855 7.43815 -2.4872575 1.462491 -10.871954 -22.459162 -0.32986394
-25.725143 10.788651 -3.3168833 -5.5137987 4.4593816 1.9030626 -9.7657385 -6.912717
6.6389656 -3.0949187 1.4706548 -0.7299466 8.703352 13.058209 11.198668 9.48791
9.594369 -0.111049145 -26.191917 13.5737915 12.778935 12.927101 -17.27863 28.490196
00000000: 0140 99c1 5eea 0fc2 0fb9 6641 4e41 723f
00000010: 5000 0ec1 d5ea 82c0 8bc1 fbbf 7831 0941
00000020: 98c1 2141 0eb7 6abf 8290 d1c0 e7de cec0
00000030: 62e4 fcc0 6aca a6bf 7c95 9d40 ae74 3841
00000040: 7101 40c2 ae97 8ec1 0e77 3841 721e 28c0
00000050: e371 be41 b22b 35c1 c2f9 0640 0ba9 81c1
00000060: f092 26c1 2348 5040 83d1 79c0 a20d 1941
00000070: 47e2 3bc1 87b1 2b40 d722 54c2 7c3e 4ec1
00000080: 48ce 88c1 04b5 bcc0 0121 8c40 30d2 7ec0
00000090: 4d4c 0fc0 37c9 70c1 8aa0 b7c1 bff1 66c1
000000a0: ef07 8041 854f 7cc0 e6ec 02c1 0027 3240
000000b0: a61a 5f41 3077 0040 8ec3 20c2 9da3 c0c1
000000c0: ad84 8bc1 69fe 4c41 36f3 d9c0 e6af 9fc0
000000d0: 923b f540 3675 0141 a5d1 03c1 a675 48c2
000000e0: ace4 09c1 4c55 a63e 3c0b 5541 a277 4dbf
000000f0: dbf5 0b3e 64ea 2a41 ec30 d040 e3e6 abc1
00000100: 26d6 88c0 45fb 2441 c8cd 6141 770e 41c0
00000110: 8234 9cc1 ed4e 0040 b600 dc40 f45e e0bf
00000120: 9e33 f7c1 22a4 a540 e742 ff40 eac2 6040
00000130: 532c 1641 3fc9 9840 afca fa40 119f abc1
00000140: 43e5 af3f 50e4 2241 7a63 0341 7e9a 2a3f
00000150: e9ba 9140 51db 71c1 a6d9 0940 cd44 94c1
00000160: 9254 0242 fd48 2641 983d a440 c76a c83e
00000170: a5a4 a7bf 2c75 e840 08ea 2cc2 41ca 01c2
00000180: d588 8d41 841b 8541 289b d1bf f2f7 a23f
00000190: b5fb 5dbd a6ec 0c41 64de 9cc1 25af 0bc1
000001a0: b7ce 0841 5204 5fc1 dc7f 99c1 8ac1 b240
000001b0: 7dca 42c1 a252 0841 7763 b841 8072 7041
000001c0: 01d0 91c1 c3a9 e3c1 cac4 18c1 7acf 0941
000001d0: 17ef 9041 c886 15c0 6afc 45c1 0dc7 71c0
000001e0: b183 22c2 048e 9ec1 fd8b c9c1 5d93 95c0
000001f0: 2a41 9b41 3adc 9a40 8df5 ea40 8547 73c1
00000200: 676c e841 4909 73c0 3e76 50c0 eca2 8741
00000210: c307 2541 e9cc ba41 a63e c441 144b 2d41
00000220: 8b9c 2341 29a9 1641 8f06 e5bf 76c8 df40
00000230: e5e7 d4c0 5b8c 27c0 5b0d 3640 794f e5c0
00000240: 6eed d940 f71d 2e40 3a76 2a41 07fa 53c1
00000250: db72 7041 37fb aebf 8307 b041 1ddd 6ac1
00000260: 653a 8741 a5f8 9141 fa94 8f3f 88a9 35c1
00000270: 3a12 853f 0440 a5c0 88ef 3b40 1480 d240
00000280: 21c3 4440 9b7e cc3f 4ddc 7bc0 e190 8ec0
00000290: 32d0 9bc0 d940 35c1 4eeb c83f 6c27 6e41
000002a0: 66eb 3641 7718 2e41 0c51 3640 60ed ddc0
000002b0: c49a e9bf 8a15 92c0 bf0d 9b3f a1b1 2041
000002c0: d7d4 d1c0 017c c740 29fd 2841 11b2 bec0
000002d0: 2d47 7441 7970 2141 ace7 51c1 49c8 dc3f
000002e0: 77b6 34c1 eadf aa3f 50c9 8dc1 2fa8 7941
000002f0: db4e a83f 3f51 a141 d4de ed41 a66c 0e41
00000300: a487 bbc1 4102 14c0 02d8 16c2 8607 0d41
00000310: 5394 6a3d d378 6ec1 7fce 1c40 61c4 2ec0
00000320: afde 01c1 9fee 383f 828e 4ac1 a737 373e
00000330: 20d8 fa40 b65d c9c1 fe7b 84c1 173b 8440
00000340: 3750 15c2 2b19 c8c0 9342 8d40 93e6 f1bf
00000350: 8f12 c0c0 9e3d fcc0 1a16 e5c0 d99f 6bc1
00000360: e743 89c0 2caf 8641 7647 a1bd a0c7 28c0
00000370: ec24 4841 da7c 1cc1 d608 3d41 bf86 d2c1
00000380: ec3d 8341 2dbd 32c1 5305 ee40 3a2f 1fc0
00000390: e832 bb3f 86f3 2dc1 5dac b3c1 ede3 a8be
000003a0: 18cd cdc1 519e 2c41 d147 54c0 0a71 b0c0
000003b0: 41b3 8e40 8e97 f33f 7740 1cc1 fa34 ddc0
000003c0: 6872 d440 2613 46c0 6b3e bc3f c8dd 3abf
000003d0: ee40 0b41 6dee 5041 be2d 3341 7bce 1741
000003e0: 8982 1941 bc6d e3bd 0c89 d1c1 402e 5941
000003f0: 8576 4c41 68d5 4e41 a23a 8ac1 eceb e341

l1/b f4 [256]
4.201081 9.215035 -8.153249 6.701614 11.849061 5.445203 6.39084 -0.71222943
-3.1116145 2.6642106 -3.996284 -5.377462 7.875083 16.316578 -16.53556 3.1855953
0.7211599 -16.616592 4.323273 -5.2418227 -13.190158 -0.016328333 3.6844454 -5.0304675
-1.8559182 -20.672043 3.4023902 -0.45221666 -9.424128 1.0287097 -0.30640766 8.503694
-0.04346861 -12.207534 -4.9609847 -2.4948292 -3.554717 1.7588732 7.6942487 6.1705017
-10.670844 -8.414873 2.6056 4.119306 -2.5216157 7.961115 9.498805 -9.104671
-2.1725178 3.6867118 6.3820415 -8.376179 -1.5549405 0.040368147 -0.014363701 -11.958589
2.2412949 10.095667 -8.7141 -2.9221365 5.0109 -7.313867 -2.1472461 -12.92194
1.2081566 6.8176694 1.5791627 -4.5581937 -10.43504 -1.0258864 0.42124343 -6.5620546
-8.325191 4.012461 19.019846 2.1269677 3.2291522 1.5142925 -11.72946 -6.6681466
5.7027636 5.391416 6.2003164 -4.4505196 -8.970701 6.8981986 -27.494898 -13.468116
6.472259 -10.076159 -6.174394 6.303853 2.1219137 7.8313046 0.14626753 11.963215
2.6703146 -4.922106 -9.171719 4.1480985 -8.760859 10.380673 0.64606327 3.5876527
-1.249775 -5.2036757 9.640943 -2.9608514 -3.9393528 -5.813455 -3.9191337 -1.3126419
7.378154 -3.3586965 0.61354 4.391912 -12.7772 -9.785159 5.511306 2.9958797
5.994091 0.21367516 6.182324 -0.8795477 11.554896 11.427284 -12.849285 -11.068591
-2.672916 1.6462488 -3.4819126 -4.3113675 -1.3434168 8.879488 -1.0587748 -2.1796715
-0.09615175 5.359103 7.255002 2.4422815 -3.351853 1.971833 -4.799952 -1.9607434
-7.6638327 7.774775 -8.975542 -1.820846 3.835532 15.088898 -2.5597053 -0.2617373
-0.466667 13.172002 -8.388527 -15.301743 1.8564041 1.3435014 12.784784 -1.2072967
3.1859338 -1.0543635 2.6849504 2.8692243 7.92002 0.0024145204 -1.8408029 2.1825943
-0.5274826 6.207339 1.3385667 3.2445183 -5.6974416 -2.253737 -2.4302156 -2.8515077
5.7539515 -5.6144905 0.59098923 -0.72649837 5.6857815 -2.383159 -5.8814487 -17.711683
11.297256 -10.142939 -3.588025 -4.533321 2.1609955 2.645309 0.11180228 5.4881716
1.4005749 -13.662085 -3.4766765 5.435786 4.5500774 1.31827 0.39173007 -13.489696
-1.0585954 -12.294998 -5.106657 1.6740164 5.9529796 3.0986865 0.19660354 1.8789998
-0.29807636 -1.8846728 3.633833 -1.5760663 -1.6296529 1.6647848 2.4397278 -21.220072
6.7919564 -0.5441206 -3.6759338 -5.313121 -5.081136 8.046358 2.1433392 -5.8661523
-4.2467666 7.605112 -5.291442 -8.279827 -4.9455047 -6.0108576 4.289266 -14.323586
4.967861 6.494354 -8.495412 -17.220537 2.0417025 1.4008949 2.2061322 5.9951096
1.3426403 -6.5920815 0.00767207 -12.52094 -1.9621952 -3.5190225 6.3063064 -5.1532965
0.012083336 -6.8448577 0.22187996 -14.304337 4.905292 -2.2596354 -4.309713 2.1058311
00000000: 416f 8640 c970 1341 b573 02c1 9f73 d640
00000010: c195 3d41 1a3f ae40 c381 cc40 ab54 36bf
00000020: b124 47c0 6d82 2a40 1ec3 7fc0 2b14 acc0
00000030: ae00 fc40 5a88 8241 d448 84c1 cbe0 4b40
00000040: ef9d 383f c8ee 84c1 4158 8a40 03bd a7c0
00000050: e30a 53c1 ffc2 85bc f4cd 6b40 97f9 a0c0
00000060: ba8e edbf 5860 a5c1 c3c0 5940 f188 e7be
00000070: 3ac9 16c1 c2ac 833f 77e1 9cbe 210f 0841
00000080: 240c 32bd 0f52 43c1 63c0 9ec0 48ab 1fc0
00000090: 7c80 63c0 c222 e13f 4937 f640 c074 c540
000000a0: c7bb 2ac1 52a3 06c1 27c2 2640 5bd1 8340
000000b0: 2762 21c0 74c1 fe40 1bfb 1741 bbac 11c1
000000c0: 880a 0bc0 16f3 6b40 af39 cc40 d404 06c1
000000d0: 4a08 c7bf 1259 253d bb55 6bbc 6156 3fc1
000000e0: 6071 0f40 da87 2141 f46c 0bc1 4904 3bc0
000000f0: 4b59 a040 330b eac0 7b6c 09c0 44c0 4ec1
00000100: e0a4 9a3f 592a da40 0122 ca3f b9dc 91c0
00000110: edf5 26c1 3f50 83bf 38ad d73e 5afc d1c0
00000120: fb33 05c1 1566 8040 a528 9841 3d20 0840
00000130: 6eaa 4e40 56d4 c13f deab 3bc1 7561 d5c0
00000140: 0a7d b640 7b86 ac40 fe68 c640 a86a 8ec0
00000150: fe87 0fc1 0bbe dc40 8df5 dbc1 677d 57c1
00000160: bf1c cf40 f237 21c1 a394 c5c0 2ab9 c940
00000170: 6fcd 0740 0c9a fa40 28c7 153e 5469 3f41
00000180: 6fe6 2a40 e481 9dc0 5cbf 12c1 39bd 8440
00000190: 7a2c 0cc1 3d17 2641 6764 253f 1a9c 6540
000001a0: a1f8 9fbf 8384 a6c0 4d41 1a41 977e 3dc0
000001b0: 5b1e 7cc0 d307 bac0 16d3 7ac0 a604 a8bf
000001c0: d619 ec40 e2f4 56c0 f510 1d3f 8b8a 8c40
000001d0: 696f 4cc1 0390 1cc1 9e5c b040 7ebc 3f40
000001e0: 98cf bf40 a9cd 5a3e 99d5 c540 0a2a 61bf
000001f0: dbe0 3841 28d6 3641 ac96 4dc1 f318 31c1
00000200: 0e11 2bc0 48b8 d23f a8d7 5ec0 b9f6 89c0
00000210: 15f5 abbf 6212 0e41 ef85 87bf bd7f 0bc0
00000220: 35eb c4bd c67d ab40 fa28 e840 574e 1c40
00000230: c284 56c0 0665 fc3f 3599 99c0 a4f9 fabf
00000240: 1e3e f5c0 f5ca f840 d29b 0fc1 7b11 e9bf
00000250: 5b79 7540 206c 7141 36d2 23c0 6e02 86be
00000260: faee eebe 85c0 5241 6837 06c1 f0d3 74c1
00000270: a69e ed3f dbf7 ab3f 7a8e 4c41 b388 9abf
00000280: 57e6 4b40 62f5 86bf 3ad6 2b40 5fa1 3740
00000290: ce70 fd40 ee3c 1e3b 6e9f ebbf a0af 0b40
000002a0: 1a09 07bf 85a2 c640 2756 ab3f 30a6 4f40
000002b0: 7151 b6c0 3a3d 10c0 a788 1bc0 1a7f 36c0
000002c0: 5f20 b840 e8a9 b3c0 124b 173f ccfb 39bf
000002d0: ecf1 b540 ad85 18c0 d434 bcc0 87b1 8dc1
000002e0: 90c1 3441 7a49 22c1 34a2 65c0 f710 91c0
000002f0: c04d 0a40 be4c 2940 98f8 e43d 1a9f af40
00000300: 0a46 b33f e697 5ac1 de81 5ec0 f5f1 ad40
00000310: 3c9a 9140 12bd a83f d890 c83e cbd5 57c1
00000320: 0e80 87bf 50b8 44c1 bc69 a3c0 2b46 d63f
00000330: cf7e be40 e150 4640 7052 493e 1183 f03f
00000340: 779d 98be f53c f1bf b890 6840 8abc c9bf
00000350: 7798 d0bf ab17 d53f 8024 1c40 b5c2 a9c1
00000360: b557 d940 7d4b 0bbf 8042 6bc0 1605 aac0
00000370: ab98 a2c0 e2bd 0041 782c 0940 85b7 bbc0
00000380: 83e5 87c0 145d f340 7e53 a9c0 2c7a 04c1
00000390: 9341 9ec0 f258 c0c0 ab41 8940 692d 65c1
000003a0: b8f8 9e40 bfd1 cf40 35ed 07c1 a9c3 89c1
000003b0: 41ab 0240 8650 b33f 4531 0d40 f0d7 bf40
000003c0: a3db ab3f 55f2 d2c0 fd65 fb3b c555 48c1
000003d0: 3629 fbbf aa37 61c0 43cd c940 cee7 a4c0
000003e0: 2ff9 453c 1309 dbc0 8034 633e 90de 64c1
000003f0: 27f8 9c40 de9d 10c0 2be9 89c0 f0c5 0640
