static/ai/8/agent_white_75000/target_model.npz (npz, 609234 bytes, 8 tensors)

l2/W f4 [256, 256]
0	0xc0e7cb1a	-7.2435427
1	0xbf84e617	-1.0382718
2	0x4131a2e7	11.102271
3	0xc1fc9b2e	-31.575771
4	0xbfe24ba3	-1.7679332
5	0x4125b785	10.357305
6	0xc111ffa7	-9.124915
7	0xc197e742	-18.987919
8	0xc181cf29	-16.226152
9	0x410441ef	8.266097
10	0x40fc1027	7.8769717
11	0xc1adeba9	-21.740068
12	0xc14b8d46	-12.721991
13	0x40b63cee	5.6949377
14	0xc254208f	-53.031796
15	0xbfa5a4b3	-1.2940887
16	0x4078d346	3.887895
17	0x4089e17b	4.3087745
18	0x40560281	3.3439028
19	0x41212666	10.071875
20	0xc1ec39bc	-29.52819
21	0xc124beb0	-10.296555
22	0xc0e8aaa6	-7.270831
23	0xc1b3a1e2	-22.454044
24	0xc0b5eac1	-5.6849065
25	0xc10e28d6	-8.88497
26	0xc07b46c1	-3.9261935
27	0xbf7c4536	-0.9854311
28	0xc2278dae	-41.88836
29	0x41610338	14.063286
30	0x4000a0e1	2.0098193
31	0xc18a70ce	-17.30508
32	0x402d3f51	2.7069895
33	0xc0df3df3	-6.976312
34	0xc11fc2e8	-9.985085
35	0xc1912563	-18.143255
36	0xc110c6da	-9.048548
37	0xc0c5c176	-6.179866
38	0x418c436e	17.532925
39	0xc0b25e5b	-5.574018
40	0xc1576c31	-13.463914
41	0xc117dc97	-9.491355
42	0xbf13e5a2	-0.57772267
43	0xc1930b41	-18.380495
44	0xc12797b3	-10.474536
45	0xc18af8c0	-17.37146
46	0x40d9efb6	6.8105116
47	0xc1836cc8	-16.428116
48	0xbfb5f27d	-1.4214627
49	0xc20fb901	-35.930668
50	0xc174d558	-15.302086
51	0x3fc0be8f	1.5058154
52	0x40b00dd6	5.501689
53	0x40c5944a	6.1743517
54	0xc1bbc49e	-23.471004
55	0x412fa0b3	10.976733
56	0x40e084d2	7.0162134
57	0xc1977bc4	-18.935432
58	0xc1500332	-13.00078
59	0xc1400fcf	-12.0038595
60	0xc1444dbb	-12.268977
61	0xc1d31449	-26.384905
62	0xc1951f0e	-18.640163
63	0xc1ac43a9	-21.533037
64	0xc0d9fde4	-6.8122425
65	0xc1bd857d	-23.69018
66	0xc14981a1	-12.594148
67	0x4058ad87	3.3855913
68	0xbffacebe	-1.9594343
69	0xc0535afb	-3.302428
70	0xc1ba2a8d	-23.270777
71	0xc18de766	-17.737988
72	0xbf3d423a	-0.7392918
73	0x412e4ea5	10.8942
74	0x41192600	9.571777
75	0xc145ff80	-12.374878
76	0x3f38810a	0.720719
77	0xc0b9d1bb	-5.806852
78	0xc2047926	-33.11831
79	0xc114b286	-9.293585
80	0xc12a7673	-10.653918
81	0x412b9f35	10.726369
82	0x41b71c25	22.888742
83	0xc17c22a1	-15.758454
84	0xc0dc9e53	-6.8943267
85	0xc1763e56	-15.390219
86	0x418753e5	16.915964
87	0xc119f7f3	-9.6230345
88	0xc1978b00	-18.942871
89	0xbfc71a0b	-1.5554823
90	0xc180cfc6	-16.101452
91	0xc06cded1	-3.7010996
92	0xc02c43c9	-2.6916373
93	0x40e0de30	7.0271225
94	0xc158728c	-13.527966
95	0xc162b153	-14.168292
96	0xc1ee3fc2	-29.781132
97	0xc1309a77	-11.037711
98	0xc00343ba	-2.0510087
99	0x40856b58	4.1693535
100	0xc2424c31	-48.574406
101	0xc088e2d9	-4.2776914
102	0x41724be8	15.143532
103	0xc1362ef8	-11.386467
104	0xc089669d	-4.293776
105	0x41c5c653	24.721838
106	0xc1a07642	-20.057743
107	0xbffd7427	-1.9801072
108	0xc0cfd9fa	-6.4953585
109	0x4105647d	8.337033
110	0xc19ea53a	-19.830677
111	0x40e04551	7.0084615
112	0xc1a62681	-20.7688
113	0xc1901f7b	-18.015371
114	0xc1e6bda8	-28.842606
115	0xc0c97582	-6.295594
116	0xc243448b	-48.816936
117	0xc20be98a	-34.978065
118	0xc1b4d601	-22.604494
119	0xc029fdd5	-2.6561177
120	0xbe92a9ff	-0.28645322
121	0xc1b77653	-22.932775
122	0x406f318b	3.7373989
123	0xc1b9b33a	-23.212513
124	0xc1fe6437	-31.798933
125	0xbe4d57ee	-0.20053074
126	0xc12588d1	-10.345902
127	0x3f215c09	0.6303106
128	0x3eef67e4	0.4675895
129	0xc21ea848	-39.664337
130	0xc1dd6aee	-27.677212
131	0xc1bbf4ff	-23.494627
132	0xc149e7ff	-12.61914
133	0xc1de5f6e	-27.796597
134	0xc1816022	-16.17194
135	0x417d14aa	15.817545
136	0x41b1fe69	22.249224
137	0xc012eb1c	-2.2956
138	0x41646bbe	14.276304
139	0x408531c0	4.162323
140	0x41485c4a	12.5225315
141	0xc185fdc9	-16.748919
142	0xc04e8818	-3.2270565
143	0xc0ec8415	-7.3911233
144	0x416aee81	14.6832285
145	0xc18f83b6	-17.939312
146	0xc1ca316f	-25.274137
147	0x408a0c76	4.314021
148	0x41224879	10.1426935
149	0x41861475	16.759989
150	0xc010c9c9	-2.262316
151	0x41265a3f	10.397033
152	0x3f45df5e	0.77293956
153	0xc0c9f557	-6.3111987
154	0x4140ad06	12.042242
155	0xc1e91cf3	-29.139135
156	0xc0ff303c	-7.974638
157	0xc0ace936	-5.403468
158	0xbfdcf93b	-1.7263559
159	0xc13a3701	-11.638429
160	0xc1d05afb	-26.044424
161	0xc0ecf262	-7.4045877
162	0x406de57a	3.7171311
163	0x4097af7b	4.740171
164	0xc123700d	-10.214856
165	0x405440fb	3.316466
166	0xc1981779	-19.011461
167	0x4191c922	18.22321
168	0x41872d51	16.897127
169	0xc20e46bd	-35.56908
170	0xc1f4ef6f	-30.61691
171	0xc1e65907	-28.79347
172	0xc1795285	-15.582646
173	0x409812f9	4.752316
174	0xc1d85e6b	-27.046103
175	0xc193a55b	-18.45574
176	0x3ff7aeeb	1.9350256
177	0xc13acb3b	-11.674617
178	0xc1a08903	-20.0669
179	0xc14ac525	-12.673131
180	0x414479d5	12.279744
181	0xc1f57e0f	-30.686552
182	0xc04acf35	-3.168897
183	0xc0b2f115	-5.591929
184	0xc10b07ea	-8.689432
185	0x412e468e	10.892225
186	0xc1cbf860	-25.496277
187	0xc16d58e8	-14.834206
188	0xc1e43b78	-28.529037
189	0xc1ce594b	-25.7936
190	0xc1f217d6	-30.261639
191	0xc17ccdfc	-15.800289
192	0xc10f3e2b	-8.952678
193	0x41508915	13.033467
194	0xc209afc3	-34.421642
195	0xc1eb45af	-29.409025
196	0x4117e595	9.49355
197	0x41729a82	15.162722
198	0xc1dacbef	-27.349577
199	0xc2003bcd	-32.0584
200	0xc203437b	-32.8159
201	0xc1fc4e23	-31.538153
202	0x41e4fded	28.623987
203	0xc00b2288	-2.1739826
204	0xbfdeda84	-1.7410436
205	0x4124ad21	10.292268
206	0xc142a09e	-12.164213
207	0xc0514c81	-3.2702944
208	0xc2049a3d	-33.150623
209	0xc1eedaa3	-29.856756
210	0xc182ce47	-16.350721
211	0x4178b718	15.544701
212	0x40481f17	3.1268976
213	0xbdfb3b5d	-0.12267182
214	0xc20648ea	-33.571205
215	0xbfdd6b64	-1.7298398
216	0xc0b9d02a	-5.8066607
217	0xc229eafa	-42.47947
218	0xc009e358	-2.154501
219	0xc19203b3	-18.251806
220	0xc0cd5f7f	-6.417907
221	0xc217989b	-37.89903
222	0xc010af53	-2.260701
223	0x409eaeb9	4.9588284
224	0x41ae62ea	21.798298
225	0xc1a7593d	-20.918573
226	0xc198b7cc	-19.089745
227	0xc125bffb	-10.35937
228	0xc02e5993	-2.7242172
229	0x406bc086	3.6836257
230	0x4043bc23	3.058358
231	0xc16220fd	-14.133054
232	0xc11076d5	-9.029012
233	0x40e1960a	7.0495653
234	0x4097b89d	4.741286
235	0x412e7f58	10.90609
236	0xc0547956	-3.3199058
237	0xc1ef2b75	-29.89622
238	0xc129bb3c	-10.6082115
239	0xc1b3b970	-22.465546
240	0xc09f7c97	-4.9839587
241	0xc1abf6d9	-21.495531
242	0xc0b25cfc	-5.5738506
243	0xc0e17a45	-7.0461755
244	0x40cb0192	6.3439417
245	0x40dd6edf	6.919784
246	0xc11909d9	-9.564904
247	0xc19e5c75	-19.795145
248	0x4130b492	11.044085
249	0x41479081	12.472779
250	0xc0085f23	-2.1308067
251	0xc2639768	-56.897858
252	0xc1919d30	-18.201752
253	0x4197336c	18.900108
254	0xc1f315e9	-30.385698
255	0x40af93c0	5.486786

l2/b f4 [256]
0	0x40fbd741	7.870026
1	0x40de09a2	6.938676
2	0x4034ddbf	2.8260343
3	0x414e19ca	12.881296
4	0x3fcedce8	1.6161165
5	0x40104b96	2.2546134
6	0xbf34a06e	-0.70557296
7	0x40ac82d5	5.3909707
8	0x407aafdf	3.9169843
9	0x407c6133	3.9434326
10	0x4164cab5	14.299489
11	0x3f81f107	1.0151681
12	0x40b452ad	5.6350923
13	0x3eac2db1	0.3362861
14	0x40ab459e	5.352248
15	0x3f3c511a	0.7356125
16	0x404b2035	3.1738408
17	0xc0da3b9e	-6.8197775
18	0xc0427e2a	-3.0389504
19	0xc0d274e5	-6.5767694
20	0x412f155d	10.942716
21	0x415dc53b	13.860652
22	0x41113c99	9.077294
23	0x41222ce9	10.135964
24	0xbd1b8779	-0.037970994
25	0x413e04c0	11.87616
26	0x41865e51	16.796053
27	0x41838a5d	16.44256
28	0x4140b81d	12.04495
29	0x3f526c06	0.8219608
30	0x3ea0e469	0.31424263
31	0x419025c2	18.018436
32	0xc06e35b2	-3.7220273
33	0x41af3677	21.901594
34	0x412075e2	10.02878
35	0x40faa595	7.8327127
36	0x411d53ce	9.83296
37	0x3f2cb89a	0.6746918
38	0x3fd27e6b	1.644483
39	0x403a9f4a	2.9159722
40	0x4130120c	11.004406
41	0x411b2ea8	9.698891
42	0x40d4757f	6.639343
43	0x3f9fdca8	1.2489214
44	0x40f357aa	7.604451
45	0x418e5583	17.791754
46	0x410d3f7c	8.827999
47	0x40dd796c	6.921072
48	0xc0ca9951	-6.3312154
49	0x40c4a9d5	6.1457314
50	0x41551b60	13.319183
51	0xbee35251	-0.4439874
52	0xbf58ff2f	-0.8476438
53	0xbf398c31	-0.7247954
54	0x412fd2b9	10.988946
55	0x41838d58	16.444016
56	0x416dbdaf	14.858809
57	0x404ab669	3.1673834
58	0x41756c58	15.338951
59	0x40edabab	7.4272056
60	0x4031a621	2.7757647
61	0x40705714	3.7553148
62	0x40031005	2.0478528
63	0x3f8adfbf	1.0849532
64	0x41279e87	10.476203
65	0xc0c8f3f4	-6.2797794
66	0xc0a69c80	-5.206604
67	0x40f23be0	7.569809
68	0x3f9b9987	1.2156228
69	0xbfd4ede8	-1.6635103
70	0x40ec44d6	7.383403
71	0xc0a2df89	-5.089787
72	0x40519ad4	3.275075
73	0xbe81b200	-0.25331116
74	0x3fb40400	1.4063721
75	0x40fcca20	7.8996735
76	0x40ab3108	5.3497353
77	0x40e173b8	7.045376
78	0xc0ca9071	-6.330132
79	0x412313a1	10.192292
80	0x404cf879	3.2026656
81	0x3f3cbc5f	0.7372493
82	0xbff6b844	-1.9274983
83	0xbfa4d675	-1.2877947
84	0xc01cc7c8	-2.4496937
85	0x41384a5b	11.518153
86	0x3eb3b78d	0.35100976
87	0x4176ce76	15.4254055
88	0x41297729	10.591592
89	0x3eaaa3e2	0.33328158
90	0x40e68467	7.2036624
91	0x40a73ff5	5.2265573
92	0x4162d7a7	14.1776495
93	0x4106832e	8.407026
94	0x40f8c3e3	7.773912
95	0x41262e43	10.386294
96	0x4006c685	2.1058667
97	0x40aee540	5.4654846
98	0x3efbb62c	0.49162424
99	0xc104dc09	-8.3037195
100	0x41251a54	10.318928
101	0xc06312e8	-3.548029
102	0x4073b7b8	3.8080883
103	0x41154a62	9.33066
104	0x4184ce12	16.60062
105	0x415161b3	13.086352
106	0x4089a093	4.3008513
107	0x40f30da9	7.5954175
108	0xbf4a2961	-0.7896939
109	0x414e52f4	12.895252
110	0x40c7cda8	6.2438545
111	0xc00010a4	-2.0010157
112	0xc00d7776	-2.2104163
113	0x410ede2f	8.929244
114	0xbef1cf02	-0.47228247
115	0x410140b6	8.078299
116	0x40f97501	7.7955327
117	0xc074703d	-3.8193505
118	0x4140e313	12.055438
119	0x3ea75999	0.32685545
120	0x4096d7ab	4.7138267
121	0x40c76097	6.2305408
122	0x40127f4b	2.2890193
123	0xbea224d2	-0.31668717
124	0xc0e625cc	-7.192114
125	0x40f376a5	7.608233
126	0x40da9a6b	6.83135
127	0xc011b4ed	-2.2766678
128	0x4058777e	3.3822932
129	0x40acbdbf	5.3981624
130	0xbfe8e406	-1.8194587
131	0x3fecceaf	1.8500575
132	0x40c022b2	6.0042353
133	0x414654c0	12.395691
134	0x40306724	2.7562952
135	0x4114a241	9.289613
136	0x41249580	10.286499
137	0xc01b9e68	-2.4315434
138	0xbe84fc99	-0.25973967
139	0xc0634ae2	-3.5514455
140	0x4147df23	12.491977
141	0x40b0e14a	5.527501
142	0x40b84202	5.7580576
143	0xc06a29d2	-3.6588025
144	0xbffb9597	-1.9655026
145	0x40c88d59	6.2672544
146	0x41364f9a	11.394434
147	0xc0f7eeec	-7.7479153
148	0xbfa5315c	-1.2905688
149	0xc0d8b5b0	-6.7721786
150	0x407bfb08	3.9371967
151	0x40e6a1f8	7.2072716
152	0x4145259d	12.321683
153	0x3d6d1303	0.05787946
154	0x40cb8283	6.3596816
155	0x4129b7ae	10.607344
156	0x3ff9696c	1.9485297
157	0x40510c10	3.2663612
158	0x4094d0fc	4.650511
159	0x41052f94	8.324116
160	0x3e9d6f1a	0.30748826
161	0x40e69e4f	7.206825
162	0x3ec070d9	0.37586096
163	0x410520ed	8.3205385
164	0x3e919c4b	0.28439555
165	0x4119bbf5	9.608388
166	0x417f92da	15.973352
167	0xc106af12	-8.417742
168	0x410f5902	8.95923
169	0xc08ef2db	-4.4671454
170	0x40afafea	5.490224
171	0x4110911f	9.03543
172	0x41133c88	9.202278
173	0x401a57d0	2.4116096
174	0x40ed5db1	7.417687
175	0x419ae2de	19.360775
176	0x401dd29a	2.465979
177	0xc028c6fc	-2.637145
178	0x417efd6a	15.936869
179	0xc0481824	-3.1264734
180	0xbeb7f705	-0.35930648
181	0x3fa6fffb	1.3046869
182	0x3f195429	0.59894043
183	0x41149705	9.28687
184	0x411fcfac	9.988201
185	0xc139de05	-11.616704
186	0x414edf17	12.929465
187	0x4155dd91	13.366593
188	0x3fb34610	1.4005756
189	0x410a5621	8.646028
190	0x40ab54bd	5.354094
191	0x3e66919a	0.2251648
192	0x410c444a	8.766672
193	0xc06c087b	-3.6880176
194	0x4103eff4	8.246082
195	0x4117fd44	9.499332
196	0xbd865dde	-0.065608725
197	0x40cc1d96	6.3786116
198	0x4146618f	12.398818
199	0x3f1d242a	0.61383307
200	0xbea5b5f4	-0.32365382
201	0x40bd04b3	5.9068236
202	0x400b9b19	2.1813414
203	0x4117ca40	9.486877
204	0x4095acdf	4.6773524
205	0x40b65236	5.6975355
206	0x4095eac3	4.6849074
207	0xc02f7ef4	-2.7421236
208	0x40ac0fdc	5.376936
209	0xbf3a5d21	-0.72798353
210	0x3e3ddf31	0.18542172
211	0x3fab5812	1.3386252
212	0x3eabb375	0.33535352
213	0xbd8013e1	-0.062537916
214	0x412aa232	10.664598
215	0x41469563	12.411471
216	0x40213f0a	2.5194726
217	0x3e2bf384	0.16792113
218	0x40177b91	2.366917
219	0x409adebc	4.8396893
220	0x413581eb	11.344218
221	0x416d088a	14.814585
222	0x412d4865	10.830174
223	0xbfde7b93	-1.7381462
224	0x3fdfbbe8	1.747922
225	0xc03555be	-2.8333583
226	0x416aec26	14.682653
227	0x412c428d	10.766248
228	0x41119114	9.097919
229	0x3dcf8338	0.1013245
230	0xc0006295	-2.006017
231	0x40be33f2	5.943841
232	0x410531e1	8.324677
233	0xc01ab589	-2.41733
234	0x4092cd86	4.5875883
235	0x400d23c9	2.2053092
236	0x40f4d1ec	7.650625
237	0x40bc69f6	5.8879347
238	0x40df08bc	6.969816
239	0x4101d709	8.114999
240	0x4063b555	3.5579426
241	0x4107f245	8.496648
242	0x4155aa73	13.354114
243	0x3f0debe6	0.5543808
244	0x4144c437	12.297904
245	0x409c1f52	4.8788233
246	0x412739e1	10.451631
247	0x3f784711	0.9698344
248	0x4123506a	10.207132
249	0x402d780e	2.7104526
250	0xbed8346b	-0.42227492
251	0x41088f8b	8.535045
252	0x410865af	8.524825
253	0x418f0c57	17.881025
254	0x415e3ac6	13.889349
255	0x411f861b	9.970241

l4/W f4 [64, 256]
0	0x42365ed1	45.592594
1	0x4208c9e0	34.197144
2	0x421303a4	36.753555
3	0x424a242e	50.53533
4	0x41f4b3ef	30.587858
5	0x42349b90	45.151917
6	0x42159d19	37.403416
7	0x421a8584	38.630386
8	0x41ef369d	29.901667
9	0x422d009d	43.2506
10	0x4209c98f	34.446835
11	0x413d9435	11.848683
12	0x41dcf936	27.621685
13	0x41eb42cb	29.407614
14	0x42503467	52.051174
15	0x4200cbd9	32.19907
16	0x421aa8c2	38.664803
17	0x421cd10c	39.204147
18	0x42179f62	37.905647
19	0x4212bf67	36.686916
20	0x4126bb51	10.420732
21	0x41b7d7b3	22.980322
22	0x41ff4200	31.907227
23	0x422599c4	41.40016
24	0x4248515e	50.07946
25	0x42430533	48.755077
26	0x423d7db3	47.372753
27	0x421a58d8	38.58676
28	0x422170a4	40.36
29	0x42376829	45.85172
30	0x423cdacb	47.213665
31	0x41a73ee2	20.905704
32	0x423046a8	44.069
33	0x421057b8	36.085663
34	0x425b53bc	54.83177
35	0x4220c510	40.192444
36	0x423e376d	47.554127
37	0x422685b7	41.63058
38	0x421c1b88	39.026886
39	0x4203fcb9	32.9968
40	0x418f67e5	17.92573
41	0x42584780	54.069824
42	0x4225ac64	41.41835
43	0x425f060b	55.7559
44	0x4219eab6	38.47921
45	0x424d99ac	51.40007
46	0x42051c17	33.27743
47	0x4207e6d7	33.97543
48	0x4223e5aa	40.97428
49	0x423111f5	44.267536
50	0x42191976	38.274864
51	0x41fc200e	31.515652
52	0x4248a82c	50.16423
53	0x423d7d5f	47.372433
54	0x42167c5f	37.621456
55	0x424d3287	51.299343
56	0x4222be64	40.68593
57	0x42393bbd	46.30834
58	0x42326d30	44.60663
59	0x41fd08ea	31.629353
60	0x4238b3d7	46.175625
61	0x421ce028	39.218903
62	0x42300147	44.001247
63	0x41e4ee8c	28.616478
64	0x414cd17b	12.801143
65	0x42394056	46.312828
66	0x41fc1489	31.510027
67	0x421cdcb6	39.215538
68	0x4223eb34	40.97969
69	0x424cceb4	51.20186
70	0x420cf385	35.237812
71	0x41a6ac86	20.83424
72	0x4227bde3	41.935436
73	0x42189915	38.149494
74	0x4210d647	36.209255
75	0x426965df	58.349483
76	0x4202391e	32.55578
77	0x423067ff	44.10156
78	0x41fefbfe	31.873043
79	0x423d701a	47.359474
80	0x420c9313	35.143627
81	0x425cfa76	55.24459
82	0x41f52eab	30.647787
83	0x423dc68a	47.443886
84	0x41e8cbad	29.099451
85	0x41af860a	21.940449
86	0x424b764d	50.86553
87	0x414fcb3d	12.987119
88	0x42167ae9	37.62003
89	0x422757f8	41.835907
90	0x422eee71	43.732853
91	0x420e99b2	35.650093
92	0x422766a5	41.85024
93	0x42069bc0	33.6521
94	0x42358573	45.38032
95	0x420d6adc	35.354355
96	0x42053367	33.300198
97	0x42226c36	40.605675
98	0x4238eaf1	46.229435
99	0x4217c7dd	37.94518
100	0x41f9aaba	31.208363
101	0x4214d5c0	37.20874
102	0x4214152d	37.02068
103	0x422784c1	41.879642
104	0x42145d30	37.091003
105	0x411bb961	9.7327585
106	0x41b9b0b5	23.211283
107	0x42225773	40.5854
108	0x4206087c	33.508286
109	0x4249df3a	50.467995
110	0x42215550	40.333313
111	0x42153045	37.29714
112	0x42239a3b	40.900616
113	0x42018cd6	32.387535
114	0x420e8798	35.632416
115	0x421a78bb	38.6179
116	0x422a7dcc	42.62285
117	0x422a5218	42.58017
118	0x41dea3bb	27.829947
119	0x41501d6b	13.007182
120	0x41feb84e	31.839993
121	0x4242bc9e	48.684196
122	0x4200781b	32.11729
123	0x423fa198	47.907806
124	0x42170e9a	37.76426
125	0x424225f6	48.53707
126	0x4247324a	49.79911
127	0x423a5c2b	46.590008
128	0x42433578	48.802216
129	0x41a24b21	20.286684
130	0x421aba96	38.682213
131	0x420e3a8d	35.55718
132	0x42222117	40.532314
133	0x41d03753	26.027014
134	0x423462e4	45.096573
135	0x42248974	41.13423
136	0x420c33bb	35.050518
137	0x421dcba6	39.448875
138	0x41c5059d	24.62774
139	0x42365417	45.58212
140	0x422e1bae	43.52703
141	0x420dc8e8	35.446198
142	0x41c31252	24.383945
143	0x41e75885	28.918222
144	0x421c2864	39.039444
145	0x422221d7	40.533047
146	0x421cbec7	39.186306
147	0x41f2bdbf	30.34265
148	0x420f1361	35.768925
149	0x419c5a39	19.544054
150	0x40bb918b	5.8615165
151	0x42116902	36.352547
152	0x424540dc	49.31334
153	0x42229825	40.64858
154	0x4244dcf5	49.21578
155	0x41c2d08b	24.351828
156	0x418cfc4e	17.623196
157	0x421185c6	36.38064
158	0x4239b2f9	46.424778
159	0x4222643e	40.597893
160	0x41b4fcaf	22.62338
161	0x423fa287	47.90872
162	0x422d2d0a	43.293983
163	0x4228377f	42.054195
164	0x400087ac	2.0082808
165	0x41b69bfc	22.826164
166	0x4216fb90	37.745667
167	0x42301b5f	44.02673
168	0x41073daf	8.452559
169	0x4227e361	41.97205
170	0x4211a460	36.410522
171	0x424ea552	51.661446
172	0x422747b0	41.820007
173	0x42308d86	44.138206
174	0x4204540f	33.08209
175	0x41bbacb0	23.45932
176	0x422ff466	43.98867
177	0x422bd892	42.961494
178	0x4206ea10	33.728577
179	0x422d1d31	43.278507
180	0x420c482f	35.07049
181	0x42318331	44.378117
182	0x41fd884f	31.691557
183	0x4221bcd3	40.4344
184	0x4237811a	45.876076
185	0x4207b734	33.92891
186	0x4220bb6c	40.18303
187	0x4181ea15	16.239298
188	0x423b78f5	46.868122
189	0x42394f92	46.327705
190	0x4204706c	33.109787
191	0x4153bf00	13.234131
192	0x42217460	40.363647
193	0x423079b6	44.11886
194	0x4213409a	36.813087
195	0x4214647f	37.09814
196	0x42141c8b	37.027874
197	0x422aff58	42.74936
198	0x423543b3	45.316113
199	0x421dc86c	39.445724
200	0x41f152a2	30.165348
201	0x42394588	46.3179
202	0x41f73aa4	30.903633
203	0x421ad039	38.703342
204	0x4248c5dd	50.193226
205	0x4202a911	32.665104
206	0x40c4ca5a	6.149701
207	0x421bb428	38.925934
208	0x4265dd51	57.46613
209	0x4138c13c	11.547176
210	0x42227f43	40.62428
211	0x42389be2	46.15223
212	0x4196f909	18.8716
213	0x424465db	49.09947
214	0x42293f24	42.31166
215	0x424170b0	48.360046
216	0x4220e49c	40.22325
217	0x41b374bf	22.432005
218	0x4232fd68	44.747467
219	0x42203dce	40.060356
220	0x419c5cc5	19.545298
221	0x422a6b74	42.604935
222	0x421b8a63	38.885143
223	0x4214f2cf	37.237118
224	0x4232be34	44.685745
225	0x42085c98	34.090424
226	0x422cda1a	43.21299
227	0x422a6113	42.5948
228	0x423a37d1	46.55451
229	0x4216c945	37.696552
230	0x420ae03f	34.71899
231	0x424b46ea	50.819252
232	0x4231236a	44.284584
233	0x422fff9e	43.999626
234	0x414986a7	12.595374
235	0x41bf9e5d	23.952326
236	0x4234ca65	45.19765
237	0x4248e5d0	50.224426
238	0x41d8a3fe	27.080074
239	0x4189016f	17.1257
240	0x4221bd05	40.43459
241	0x423703fd	45.753895
242	0x4206a79f	33.663692
243	0x423aeb7a	46.729958
244	0x421de0b1	39.469425
245	0x424079fb	48.11912
246	0x422ea5bd	43.661854
247	0x42286f6b	42.108807
248	0x42227724	40.61635
249	0x420c241f	35.035275
250	0x4221d42d	40.457203
251	0x40071b70	2.1110497
252	0x4233057d	44.75536
253	0x424b20cd	50.782032
254	0x42168ce5	37.637592
255	0x42248b22	41.13587

l4/b f4 [64]
0	0xc2bee2aa	-95.4427
1	0xc2bee9d7	-95.45672
2	0xc2bee3eb	-95.44515
3	0xc2bedfdc	-95.437225
4	0xc2bee741	-95.45167
5	0xc2beee85	-95.46586
6	0xc2beece0	-95.46265
7	0xc2bee734	-95.45157
8	0xc2bede8a	-95.43465
9	0xc2beeb93	-95.460106
10	0xc2bee934	-95.455475
11	0xc2bee7bd	-95.452614
12	0xc2beed74	-95.463776
13	0xc2bee7cc	-95.45273
14	0xc2beee80	-95.46582
15	0xc2bee7e3	-95.4529
16	0xc2bee7c5	-95.452675
17	0xc2bef2b9	-95.47407
18	0xc2bef39d	-95.47581
19	0xc2beeb9c	-95.460175
20	0xc2bef413	-95.47671
21	0xc2bee406	-95.44536
22	0xc2bef472	-95.47743
23	0xc2beebbb	-95.46041
24	0xc2bee410	-95.445435
25	0xc2bef46e	-95.4774
26	0xc2bee4a5	-95.44657
27	0xc2bef777	-95.48333
28	0xc2bef504	-95.478546
29	0xc2bee547	-95.44781
30	0xc2beedee	-95.46471
31	0xc2beebfb	-95.4609
32	0xc2bee7d1	-95.45277
33	0xc2bee933	-95.45547
34	0xc2bee519	-95.44746
35	0xc2bef4c4	-95.47806
36	0xc2beece0	-95.46265
37	0xc2beee10	-95.464966
38	0xc2bef80e	-95.48448
39	0xc2bee999	-95.456245
40	0xc2bee3a8	-95.44464
41	0xc2befd36	-95.49455
42	0xc2bef4e0	-95.47827
43	0xc2beefcc	-95.46835
44	0xc2beea24	-95.457306
45	0xc2bee74f	-95.451775
46	0xc2bee451	-95.44593
47	0xc2bee983	-95.45608
48	0xc2bee346	-95.44389
49	0xc2beea5d	-95.45774
50	0xc2beed3d	-95.463356
51	0xc2bee869	-95.453926
52	0xc2beeb14	-95.45914
53	0xc2beed1a	-95.46309
54	0xc2bf0174	-95.50284
55	0xc2bee814	-95.45328
56	0xc2bee720	-95.451416
57	0xc2bee728	-95.45148
58	0xc2bee066	-95.43828
59	0xc2bee322	-95.44362
60	0xc2bee1f8	-95.441345
61	0xc2bee7ae	-95.4525
62	0xc2beed54	-95.46353
63	0xc2bee9e3	-95.45681

l3/W f4 [256, 256]
0	0x40dca7dd	6.895491
1	0x40bcf6a6	5.9051085
2	0x4082c344	4.086336
3	0x4187cc45	16.974741
4	0xc20cc135	-35.18868
5	0x40faac07	7.8334994
6	0x410a6cde	8.651579
7	0x416b719c	14.715237
8	0x4182a9f2	16.332981
9	0x420044e9	32.067295
10	0xc0c3c979	-6.118344
11	0x40fc1610	7.877693
12	0x41a95c0f	21.16995
13	0xc15d6684	-13.837528
14	0x40e0e762	7.028245
15	0xc0706312	-3.7560468
16	0xbe041f96	-0.12902674
17	0xc2089835	-34.14864
18	0xc21b0cb7	-38.762417
19	0xc141ec74	-12.120228
20	0x421d306c	39.297287
21	0x4188d14e	17.1022
22	0x408c2f99	4.3808103
23	0x41abbd41	21.46741
24	0x4180d85c	16.105644
25	0x414f2d53	12.9485655
26	0x4221b43b	40.426006
27	0x412dceb6	10.862967
28	0x4240dee7	48.217678
29	0xc0d5aabd	-6.677092
30	0x4148ca4b	12.549388
31	0x415930bf	13.574401
32	0xc17ed7d2	-15.9276905
33	0x413dbf88	11.859261
34	0x41574b55	13.455892
35	0x413c1e18	11.757347
36	0xc19f2c49	-19.896624
37	0x412d3b8c	10.827038
38	0x4153463e	13.204649
39	0x4190a80a	18.08205
40	0x3d530aba	0.0515239
41	0x4196b1ee	18.83688
42	0xc0644f5c	-3.5673437
43	0x414fcef8	12.9880295
44	0x41b2ecdb	22.365652
45	0xbe8a5c6e	-0.27023643
46	0xc18e2d1d	-17.772028
47	0x41bb4315	23.407755
48	0xc1334ae5	-11.205785
49	0xc12eb8bf	-10.920104
50	0x42114ff8	36.328094
51	0xc0ad3b22	-5.4134684
52	0x412e6503	10.899661
53	0x409c6706	4.887576
54	0x4098a582	4.7702036
55	0x4205de32	33.466988
56	0x419fbf20	19.968323
57	0x41b4552e	22.541592
58	0x41423d45	12.139958
59	0x4141d8d0	12.115433
60	0x401e5254	2.473775
61	0xc0f0eb7f	-7.528747
62	0x41028a49	8.158761
63	0x40f32d34	7.599268
64	0x40e0abd7	7.0209765
65	0x4136bdf8	11.421379
66	0x41c0e2f8	24.110825
67	0xc2418f44	-48.389908
68	0x409aba5d	4.8352494
69	0x41c50508	24.627457
70	0x41870864	16.879097
71	0xc127caf2	-10.487047
72	0xc0388ffd	-2.8837883
73	0x41a280c2	20.31287
74	0x416e039d	14.875882
75	0x41b67084	22.80494
76	0x3e9ccd74	0.30625498
77	0x4179b0a5	15.605626
78	0x41b19c3c	22.201286
79	0x422639b4	41.55635
80	0x40fef711	7.9676595
81	0x41323c47	11.139716
82	0xc0c1747c	-6.0454693
83	0xc1cc4e59	-25.538256
84	0x41c24eb3	24.288427
85	0x42264cad	41.57488
86	0x415d05fb	13.81396
87	0x421dc1d1	39.439274
88	0x420ded22	35.481575
89	0x413e661c	11.899929
90	0x42888cda	68.2751
91	0x40f596d2	7.6746607
92	0xbf3e0c23	-0.7423727
93	0x41227311	10.153092
94	0x3fff9f60	1.9970512
95	0x41eeee10	29.866241
96	0x4156041a	13.376001
97	0x41a243f0	20.283173
98	0x41a59832	20.699314
99	0xc186051c	-16.752495
100	0xc13e9929	-11.912393
101	0x41017141	8.09015
102	0x4135b62d	11.3569765
103	0x40e4e768	7.153248
104	0x41c05462	24.041203
105	0x42415ffe	48.343742
106	0x411792ba	9.473322
107	0x42368a2b	45.63493
108	0x41667e33	14.40581
109	0x40c38d56	6.111003
110	0xc1aa79ed	-21.309534
111	0xc1383837	-11.513724
112	0xc2459401	-49.394535
113	0x419efa58	19.872238
114	0x40fde2c8	7.9339333
115	0x3fdd813d	1.7305065
116	0x40632c3e	3.5495753
117	0xc2247d1a	-41.12217
118	0x41ccd3cd	25.603418
119	0xc0a4968d	-5.143378
120	0x41ec51c7	29.53993
121	0x41ca76af	25.307951
122	0xc17eb925	-15.920201
123	0xc040377c	-3.0033865
124	0xc1f77031	-30.929781
125	0x411b0a7c	9.69006
126	0x40586193	3.3809555
127	0xc20cb1c2	-35.17359
128	0x417137dd	15.0761385
129	0x41603e85	14.015264
130	0x41b72332	22.892185
131	0x40a46c9e	5.138259
132	0x40d89855	6.768595
133	0xc038eecf	-2.8895757
134	0x417103a7	15.063392
135	0x4185cbdb	16.724539
136	0x41e45985	28.54371
137	0xc20cb3b0	-35.175476
138	0xc0331299	-2.79801
139	0xc1a6f8d6	-20.871502
140	0x3f91c9ab	1.1389669
141	0x423c3755	47.054035
142	0x41b2a19c	22.32891
143	0x3e4c1f11	0.19933726
144	0xc252b901	-52.680668
145	0xc068c312	-3.6369061
146	0x41564270	13.39122
147	0x402e63b9	2.7248366
148	0xc0167090	-2.3506203
149	0xc220ca8a	-40.197792
150	0x412a9740	10.661926
151	0x41bb800f	23.437529
152	0x4202f584	32.73976
153	0x414bbf48	12.7342
154	0x415261bd	13.148862
155	0x40cc4f22	6.38466
156	0x41183ab7	9.514335
157	0x41aa276e	21.269253
158	0x4184e26c	16.610558
159	0x413c4253	11.766192
160	0xc16568c5	-14.3380785
161	0xc16ebf95	-14.921773
162	0xc1cb7cf2	-25.436008
163	0x41638892	14.220842
164	0x41174ab4	9.455738
165	0x41a6b6a7	20.839186
166	0x41e19937	28.199812
167	0xc1b53c18	-22.654343
168	0x4098e572	4.7780085
169	0x421e1825	39.52358
170	0xbf5c11a9	-0.8596445
171	0x41054dc4	8.331486
172	0x409935ae	4.7878027
173	0x41a54e98	20.663376
174	0x406a624c	3.6622496
175	0x4198f1b7	19.118025
176	0xbf39a0ed	-0.7251118
177	0xc1a45a6a	-20.544147
178	0xbfebe086	-1.8427894
179	0x40f2fb4d	7.5931764
180	0xc2846919	-66.20527
181	0x41619725	14.0994005
182	0x415e05f4	13.876453
183	0x418c2cf7	17.521955
184	0xc06c109e	-3.6885142
185	0xc10e1d80	-8.882202
186	0x40645bc3	3.5681007
187	0x40654637	3.5824106
188	0xc1db998e	-27.449978
189	0x4112fa4b	9.186107
190	0x3e0437f7	0.12911974
191	0xc19a6d87	-19.30348
192	0x41f1c6e2	30.22211
193	0x4021cfd0	2.5283089
194	0xc19b88c1	-19.441774
195	0x41fdc520	31.721252
196	0xc17ca69a	-15.790674
197	0x413ff55c	11.997402
198	0x4119358b	9.575572
199	0x411b8fd2	9.722612
200	0x40ba0afd	5.8138413
201	0x413c693b	11.775691
202	0x413937ed	11.576154
203	0x4196fad2	18.87247
204	0xc0d00649	-6.500767
205	0x41b6182f	22.761808
206	0x40e55b7f	7.167419
207	0xc20a6fe8	-34.609283
208	0x423042b6	44.065147
209	0x42130cc3	36.762463
210	0xc19f9cae	-19.951504
211	0xbde3ef39	-0.111296125
212	0x41249e9b	10.288722
213	0x413a69b2	11.6508045
214	0x41dddd04	27.732918
215	0x422d08df	43.258663
216	0xc16acf28	-14.675575
217	0xc1d4e0c5	-26.60975
218	0xbf018bbf	-0.5060386
219	0x41cc388b	25.527609
220	0x41877d84	16.936287
221	0x41ac94c3	21.572638
222	0x414567bb	12.337825
223	0x4158453d	13.516904
224	0x40d35109	6.603642
225	0xc0bd3cd7	-5.9136767
226	0xc1521844	-13.130924
227	0x41938565	18.440134
228	0x4151701e	13.089872
229	0x4140eeb6	12.058279
230	0xc1c42726	-24.519115
231	0x416c1f2f	14.757613
232	0x41c8a739	25.081652
233	0xc1cca145	-25.578745
234	0x4184e890	16.613556
235	0x41a3fc46	20.49818
236	0x426ee042	59.719
237	0x42020ae8	32.51065
238	0x4195587a	18.668201
239	0x4135788c	11.34193
240	0x41901116	18.008343
241	0x420135df	32.30261
242	0x41b37cd5	22.435953
243	0x412fb7cf	10.982375
244	0x40a0d500	5.026001
245	0x412a3cb9	10.639825
246	0x420619c0	33.525146
247	0x41806d97	16.05351
248	0x40c7faae	6.2493505
249	0x418404b6	16.5023
250	0x4111fb6f	9.123885
251	0x41c118e8	24.137161
252	0x41ccd5a7	25.604322
253	0x41bbb113	23.461462
254	0x3fde5820	1.7370644
255	0x41461f9b	12.382716

l3/b f4 [256]
0	0x418f0430	17.877045
1	0xc09e18e1	-4.940537
2	0x3f2ecbfa	0.68279994
3	0x41996900	19.17627
4	0xbf156a1c	-0.58365035
5	0x41a2b8fa	20.34032
6	0x412a1717	10.630637
7	0x3fcd7b67	1.6053284
8	0x415a4422	13.641634
9	0x412f4dff	10.956542
10	0xc06c1c92	-3.6892438
11	0x41eb57f9	29.417955
12	0x3fea456c	1.8302436
13	0x40e837ff	7.2568355
14	0x412ac7ca	10.673777
15	0x3dc7fb28	0.09764701
16	0x3df97887	0.12181192
17	0x41a16c77	20.177961
18	0x412e131c	10.879665
19	0x4126e38c	10.430553
20	0x4186332f	16.774992
21	0xbf7b1ee0	-0.98093987
22	0x3ffa248c	1.9542403
23	0x417381a5	15.2191515
24	0x40ddbac9	6.929051
25	0x4151894b	13.096019
26	0x414f8ab3	12.971362
27	0x40889b50	4.268959
28	0x3eb17d4f	0.34665915
29	0x41484d24	12.518833
30	0x4195b4df	18.713316
31	0x40fabd6d	7.8356233
32	0x412eb561	10.919282
33	0x4102ea0e	8.182142
34	0x41201f2e	10.007612
35	0x410584b1	8.344895
36	0x41b79216	22.946331
37	0x41a24f41	20.288698
38	0x40cf59cd	6.479712
39	0x4154f815	13.310567
40	0x41048d12	8.284441
41	0x41a3166e	20.385952
42	0x4168df3f	14.554503
43	0x41578fb5	13.472585
44	0x3fdc631f	1.7217749
45	0x41a3d13f	20.47717
46	0xc0e65912	-7.198373
47	0x40e3b7f9	7.1162076
48	0x3faf8f69	1.371564
49	0x411293f2	9.161119
50	0x409bf043	4.873079
51	0x40bc87fe	5.8916006
52	0x416e2cd0	14.885941
53	0x41b7636a	22.923542
54	0x401a1176	2.4073157
55	0x4184a71b	16.581594
56	0x3eeda832	0.46417385
57	0x41b15f08	22.171402
58	0x40b50f86	5.658145
59	0x41067c12	8.405291
60	0x41489ec4	12.538761
61	0x4117bbd6	9.483358
62	0x4182bc76	16.342022
63	0xbf9391f4	-1.1528916
64	0x41aa777a	21.308338
65	0x40cf431c	6.476942
66	0x40f91c5d	7.7847123
67	0x41c2c47b	24.345938
68	0x41396d9c	11.58926
69	0x4173f45f	15.247161
70	0x4195f436	18.744244
71	0x41a5c438	20.72081
72	0xc0476d80	-3.1160583
73	0x40ab93de	5.3618
74	0x413fd2dc	11.988979
75	0x40e8ddee	7.277091
76	0x41258cc8	10.34687
77	0x41a56fc3	20.679571
78	0x413c17d2	11.7558155
79	0x41904a34	18.036232
80	0x41080e57	8.503501
81	0x411ce743	9.80646
82	0x40b82e97	5.755687
83	0x41ab38b6	21.40269
84	0x3f8e5691	1.1120168
85	0x40174100	2.3633423
86	0x4146c11b	12.422145
87	0x4015369d	2.3314583
88	0x409f1324	4.9710865
89	0x4155d411	13.364274
90	0x412a9ed8	10.66378
91	0x409d608b	4.918035
92	0x41ae1367	21.759474
93	0x413a6868	11.65049
94	0x41b18039	22.187609
95	0x416c78ef	14.779525
96	0x41b381e5	22.438425
97	0x4145a69d	12.353177
98	0x41c866b6	25.050152
99	0x3f9114e5	1.1334502
100	0x3efba4ef	0.49149272
101	0x412c1288	10.754524
102	0xc12b690a	-10.713144
103	0x4185f43c	16.744255
104	0x3faecae5	1.3655668
105	0x409d1c74	4.9097233
106	0x3fc7e005	1.561524
107	0x41cf5bd6	25.919842
108	0x4183d5ee	16.479458
109	0x4198d093	19.101843
110	0x3e1f6073	0.15564136
111	0xc012b6b8	-2.2924023
112	0x416e2f0e	14.886488
113	0x417b211c	15.695583
114	0xc06eb0fb	-3.729552
115	0xc0286ed5	-2.6317647
116	0x408e4a4e	4.4465704
117	0x415d43a0	13.82901
118	0x41412495	12.071431
119	0xc128ed56	-10.557943
120	0x415c47ac	13.767498
121	0x4083af0a	4.115117
122	0x40f6d69d	7.713698
123	0x41899000	17.195312
124	0xc06eebf4	-3.7331514
125	0x408ff868	4.499073
126	0x411459b5	9.271901
127	0x416436c4	14.2633705
128	0x4181e712	16.237827
129	0x41832de9	16.397417
130	0x3f804220	1.002018
131	0xc02d3465	-2.706323
132	0x41159877	9.349723
133	0x4089943c	4.299345
134	0x412b19a2	10.693758
135	0x4118113c	9.504208
136	0x41257bb2	10.342699
137	0x3e896908	0.26837945
138	0x40fc9479	7.893124
139	0x41ae4ac0	21.786499
140	0x40ad5244	5.416292
141	0x412074c1	10.028504
142	0xc0f4611e	-7.636855
143	0x40d0ab6b	6.520925
144	0x41932cd9	18.396898
145	0x3f0ee0cb	0.55811757
146	0x40af2c1b	5.474134
147	0xc0d98bc0	-6.7983093
148	0x3e2865fc	0.16445154
149	0xc0441605	-3.063844
150	0x4147afc6	12.480413
151	0x4013e30b	2.3107326
152	0x41bd3472	23.650608
153	0x4145aa85	12.354131
154	0x41b0b5cd	22.08877
155	0x419945fe	19.159176
156	0x4201e3e1	32.472538
157	0x41025714	8.146259
158	0x4100e9ee	8.057112
159	0x40e173a7	7.0453677
160	0x41c202c9	24.25136
161	0x41b1d864	22.23066
162	0xc0e1429b	-7.0393806
163	0xc0c0351a	-6.006482
164	0x418ed93d	17.856073
165	0x408478d8	4.1397514
166	0x40c45b98	6.136181
167	0x419f6368	19.923538
168	0x41a125d6	20.143475
169	0x4108031a	8.500757
170	0x41bd02ad	23.626307
171	0x417e3274	15.887318
172	0x41c7aac7	24.958387
173	0x409d4ceb	4.9156394
174	0x416cd2ab	14.801433
175	0x40ccc454	6.398966
176	0x41a5ef67	20.741896
177	0x413c1c50	11.756912
178	0x40658604	3.5863047
179	0x416909d5	14.5649
180	0x413377c7	11.2167425
181	0x414b8a84	12.721317
182	0x412ea3d9	10.915002
183	0x40ef65b6	7.481166
184	0x4183df58	16.484055
185	0x412d540a	10.833017
186	0x40c0d362	6.0258036
187	0x41bfbe55	23.967936
188	0x40f4af9a	7.6464357
189	0x4186d4f2	16.853977
190	0x408d6a2e	4.4192114
191	0x4196f050	18.86734
192	0x41b9bcb8	23.217148
193	0x4181ee52	16.241367
194	0x4183fe84	16.499275
195	0xc04ada2c	-3.1695662
196	0x416fe3f3	14.993152
197	0x3fdbf000	1.7182617
198	0x419deeb7	19.74156
199	0x412e5d0b	10.897716
200	0x4058bb1d	3.3864205
201	0x40b8ded2	5.7771997
202	0x414c200a	12.757822
203	0xc02b5edc	-2.6776648
204	0x41d168e2	26.176212
205	0x3fd91192	1.6958487
206	0x41ae81b4	21.813332
207	0x40c170eb	6.045034
208	0x412999c5	10.600041
209	0x41c5f8fc	24.746574
210	0x400101c9	2.015734
211	0x4131be60	11.108978
212	0xc0d50049	-6.656285
213	0x4102f42f	8.184615
214	0x40db386b	6.850637
215	0x419ad195	19.352335
216	0x418daaf7	17.708479
217	0x40efa926	7.489398
218	0x41a24f9b	20.28887
219	0x4164a038	14.289116
220	0x41bc6d6c	23.553429
221	0x4129a278	10.602165
222	0x41738504	15.2199745
223	0x415a701a	13.652369
224	0x41b7599e	22.918758
225	0x4041c262	3.0274892
226	0x41a6a9d0	20.832916
227	0x413580dd	11.343961
228	0x41b60093	22.75028
229	0x40d9d715	6.807505
230	0xbf92c61a	-1.1466706
231	0x414de730	12.868942
232	0x41123aa4	9.139317
233	0x408827c4	4.254854
234	0x4166fe1a	14.4370365
235	0x41930843	18.379034
236	0x41bf1ce1	23.889101
237	0x4182dc92	16.3577
238	0x413af2c2	11.684267
239	0x41acccd9	21.600023
240	0x4179caf6	15.612051
241	0x41af4efe	21.91357
242	0xc07b021e	-3.9220042
243	0x417621cd	15.383252
244	0x411b38ee	9.701399
245	0x418f999e	17.950008
246	0x41a4597d	20.543695
247	0x4185e9b7	16.739119
248	0x413118a2	11.068514
249	0x40c0c0ef	6.0235515
250	0x416c36e9	14.763406
251	0x42f7100b	123.531334
252	0x40aec93d	5.462065
253	0x41ccbd25	25.592356
254	0x41695acf	14.58467
255	0x4182c57d	16.34643

l1/W f4 [256, 64]
0	0x3facbc83	1.3495029
1	0xc0fb73d0	-7.8578873
2	0x419152bd	18.1654
3	0x409ab1d6	4.8342085
4	0xc121e013	-10.117206
5	0xc00ddc62	-2.216576
6	0xc15ee9e1	-13.932099
7	0xc1076221	-8.461457
8	0x41138181	9.219117
9	0x4032f3a4	2.7961206
10	0x3fc82ae2	1.5638087
11	0xc0d10c57	-6.5327563
12	0xc08840d8	-4.2579155
13	0xc08c3f77	-4.382747
14	0x3f96b267	1.1773194
15	0x4184d2ae	16.60287
16	0xc1e29a88	-28.325455
17	0xc163960e	-14.224134
18	0x4129ce6f	10.612899
19	0xbf12f9db	-0.574125
20	0x418ac777	17.347395
21	0xc101a569	-8.102883
22	0x412820ac	10.507977
23	0xc1a9e715	-21.237833
24	0xc12b8e39	-10.722222
25	0x40bc8a6f	5.8918986
26	0xc0da59dd	-6.8234696
27	0x4101b0be	8.10565
28	0xc10c3c56	-8.76473
29	0x40c4e958	6.1534843
30	0xc1d3d88a	-26.480732
31	0x3fd97853	1.6989845
32	0xc1a32009	-20.390642
33	0xc03487a3	-2.8207786
34	0xbf59e663	-0.8511717
35	0xc100d028	-8.050819
36	0xbcfabd12	-0.030607734
37	0xc115992f	-9.349898
38	0xc171d968	-15.115578
39	0xbe5bacdc	-0.2145266
40	0x40b3c8f6	5.6182814
41	0x408f6bee	4.481925
42	0xc168c2e7	-14.547584
43	0x3f031398	0.5120177
44	0x411e8ba2	9.90909
45	0x40c8bea1	6.27327
46	0xc1c3b9fc	-24.465813
47	0xc10f0b4c	-8.940258
48	0xc100cc44	-8.04987
49	0x4038e35a	2.8888764
50	0xc1b7f905	-22.996592
51	0xc10b1a0e	-8.693861
52	0x413da552	11.852861
53	0x40f8082d	7.750998
54	0xbf5d8dd1	-0.8654452
55	0xc2255bcf	-41.339657
56	0xc0e030ef	-7.0059733
57	0xc065c765	-3.590295
58	0xbe22fe26	-0.15917262
59	0x409b9f6b	4.86321
60	0x40c82eac	6.2556973
61	0x41453370	12.325058
62	0x40e725c8	7.223362
63	0xc183f58d	-16.494898
64	0xc102a1d8	-8.164513
65	0x4013a0d0	2.3066902
66	0x410b6cae	8.714033
67	0xc064d863	-3.5757072
68	0xc1819700	-16.19873
69	0x40c49e95	6.144358
70	0x40f7fd18	7.749645
71	0x40deb551	6.9596334
72	0xc1c9ab6b	-25.2087
73	0x3ed6d148	0.41956544
74	0x412466d4	10.2751045
75	0x40fa3ffd	7.820311
76	0x415adda0	13.679108
77	0x404f7ce0	3.2419968
78	0x410a4590	8.641983
79	0xc057fae8	-3.374689
80	0x40c6a1fb	6.207273
81	0x4120549a	10.020655
82	0x40c4de0b	6.152105
83	0x40aac61d	5.3366838
84	0x40f2f58c	7.592474
85	0xc196c0d2	-18.84415
86	0x402371cb	2.5538204
87	0xc15817c9	-13.505807
88	0x41c47b88	24.560318
89	0x4149dfb4	12.617115
90	0x40d25b29	6.573628
91	0xc001d483	-2.0285957
92	0xc044c6d5	-3.0746357
93	0x40a12606	5.0358915
94	0xc1d6bbf1	-26.841768
95	0xc19cae57	-19.585127
96	0x416fb52e	14.981733
97	0x415fa83d	13.978574
98	0x40537b8d	3.304416
99	0xbe33a31c	-0.1754269
100	0xbf9ac438	-1.2091131
101	0x40aad6ae	5.338706
102	0xc1939449	-18.447405
103	0x3eb09c9e	0.3449449
104	0x408e80d9	4.4532285
105	0xc1ba4060	-23.281433
106	0xc0e9c001	-7.304688
107	0xbf67d7ea	-0.90563834
108	0xc15da42d	-13.852582
109	0x40b101c4	5.5314655
110	0x416f321b	14.949733
111	0x41234c6c	10.206158
112	0xc188c14b	-17.094381
113	0xc1b75f62	-22.921574
114	0xc10fff10	-8.999771
115	0x401d301f	2.456062
116	0x41609db3	14.038501
117	0x40778b03	3.8678596
118	0xc1024495	-8.141744
119	0xc0be4728	-5.946186
120	0xc1e47cba	-28.560902
121	0xc2095f3b	-34.343
122	0xc18d6cd0	-17.678131
123	0xc033e7e2	-2.811028
124	0x4187d011	16.976595
125	0x40ea8ba4	7.329546
126	0x4022aca0	2.5417862
127	0xc103e578	-8.243523
128	0x419b6d5a	19.428394
129	0x3eb38323	0.35060987
130	0x410de26f	8.867782
131	0x418c6670	17.550018
132	0x40dd01f9	6.906491
133	0x415165b3	13.087329
134	0x4190996f	18.074919
135	0x40f00b13	7.501352
136	0x41669328	14.410927
137	0x40de4f94	6.947214
138	0x3f03db70	0.5150671
139	0x409aa76e	4.832938
140	0xc103d6fd	-8.239987
141	0xc011cc7d	-2.278106
142	0x4003aa08	2.057253
143	0xc158707c	-13.527462
144	0xc0b64d37	-5.6969256
145	0xbf838bbe	-1.0277021
146	0x40fe4497	7.945873
147	0xc0b383ed	-5.609854
148	0x40bd0953	5.907388
149	0xc090ca01	-4.5246587
150	0x41478678	12.470329
151	0xc170807f	-15.031371
152	0x41850385	16.626719
153	0x413338f9	11.201409
154	0x40933205	4.599856
155	0xc08963e6	-4.2934446
156	0xbfb9c0a4	-1.4511914
157	0xbfea6a53	-1.8313698
158	0xc0263181	-2.5967715
159	0xbfb8dc96	-1.4442317
160	0x40a31344	5.0961018
161	0x3fedbab9	1.8572608
162	0xc0a95066	-5.2910643
163	0xc07f81c6	-3.9922957
164	0xc04a59d7	-3.1617334
165	0xc0e28853	-7.079141
166	0xc0596069	-3.3965094
167	0x401cadff	2.4481199
168	0x414eddcb	12.929149
169	0x41821ee5	16.265085
170	0x40aab1dd	5.334212
171	0xbf8d5977	-1.1042928
172	0x409317cf	4.5966563
173	0xc13e9168	-11.9105
174	0xbf7374b2	-0.9509994
175	0x3ff2480a	1.8928235
176	0x40533e4f	3.300678
177	0x412c0bc2	10.752871
178	0x40dabdeb	6.8356833
179	0xc06e4aa0	-3.7233047
180	0x4117e341	9.492982
181	0xc00f5c62	-2.2400136
182	0xc1620f48	-14.128731
183	0x4016a0ee	2.3535724
184	0xc18508f3	-16.62937
185	0x4081e3eb	4.059072
186	0xc0afea68	-5.497364
187	0x418f215d	17.89129
188	0xc0b6c423	-5.7114425
189	0x41c0fdf7	24.124006
190	0x42010035	32.250202
191	0x4155aea0	13.355133
192	0xc1ccf1ea	-25.618122
193	0x3fe7170a	1.8053906
194	0xc24e1650	-51.52179
195	0x4187df07	16.9839
196	0x3fc074fb	1.50357
197	0xc1bdb23f	-23.712034
198	0x4125be71	10.3589945
199	0xc1000f2a	-8.003702
200	0x3f7796b0	0.96714306
201	0xbf03aa1e	-0.51431453
202	0xc1086f46	-8.527166
203	0xbfd15dfe	-1.6356809
204	0x404e47c9	3.2231314
205	0xc189ba25	-17.21589
206	0xc160a3a3	-14.03995
207	0x4093f12e	4.623191
208	0xc1e9abe8	-29.208939
209	0xc0837ad0	-4.1087418
210	0x40b3c2ec	5.617544
211	0xbf75641c	-0.9585588
212	0xc0a05c9d	-5.0113053
213	0xc159b059	-13.605554
214	0xc13ad215	-11.67629
215	0xc1352588	-11.321663
216	0xbf85ecd4	-1.0462899
217	0x41b29ced	22.326624
218	0x4058ca50	3.3873482
219	0xc033399a	-2.8003907
220	0x415eb71d	13.919705
221	0xc13b20e6	-11.695532
222	0x40fa55b9	7.822964
223	0xc1911eb5	-18.139994
224	0x410729a3	8.447665
225	0xc0ae10c9	-5.439549
226	0x411d4c28	9.831093
227	0x3f02376c	0.5086582
228	0xbdfdf4bb	-0.12400194
229	0x3f8f075a	1.1174119
230	0xc16e798f	-14.904677
231	0xc0627520	-3.5383987
232	0xc15f5327	-13.957801
233	0x41129033	9.160205
234	0x4023438a	2.5509973
235	0x3f9d73d4	1.2300973
236	0xc09368ea	-4.606557
237	0xc0368da7	-2.8523958
238	0xc15d41d9	-13.828576
239	0xc0925a20	-4.5735016
240	0x40a38aa9	5.1106763
241	0x3fd4a77e	1.6613615
242	0xc0e31730	-7.0965805
243	0xc004aa01	-2.0728762
244	0x40d09eaf	6.5193706
245	0x40c66b98	6.200634
246	0x40da88e3	6.82921
247	0x40c9ccc4	6.306246
248	0x3f97f4c6	1.1871574
249	0x40a7149c	5.221266
250	0xc1c8f5ad	-25.119959
251	0x415e7244	13.902897
252	0x4096d8a9	4.713948
253	0xbf19d7b9	-0.6009479
254	0xc1b48888	-22.566666
255	0x41d68210	26.813507

l1/b f4 [256]
0	0x40316ade	2.7721477
1	0x40db2521	6.8482823
2	0xc0dc4a2e	-6.884055
3	0x40d44671	6.633599
4	0x40fafd69	7.843434
5	0x3f6b1e03	0.9184267
6	0x4056fc61	3.359154
7	0xc0a29797	-5.0810046
8	0xc004f394	-2.0773668
9	0x3f880f94	1.0629754
10	0xc0895443	-4.291536
11	0xc0a1487d	-5.0400987
12	0x40cbcff4	6.369135
13	0x41160020	9.3750305
14	0xc15c62d1	-13.774125
15	0xbfaaac3e	-1.3333814
16	0x3fdbea6f	1.7180918
17	0xc17421e9	-15.258279
18	0x3f584f6d	0.84496194
19	0xc09f0d17	-4.970348
20	0xc144c2d1	-12.297563
21	0xbf9fcb95	-1.2484003
22	0x3e30910b	0.1724283
23	0xc08ac128	-4.3360786
24	0x3f11b5ff	0.5691833
25	0xc18fb607	-17.96388
26	0x3fdb4566	1.7130554
27	0xc03a0bc8	-2.906969
28	0xc122bad8	-10.170616
29	0x3fd20df9	1.6410514
30	0xbf6a7202	-0.9158021
31	0x40b359e9	5.6047254
32	0x40128dba	2.2899003
33	0xc104cf4a	-8.300608
34	0xc09a7fbf	-4.828094
35	0xbf45a6a8	-0.7720742
36	0xbfb65833	-1.4245666
37	0x3e2ef6f2	0.1708639
38	0x40ab4ad5	5.352885
39	0x40cf921d	6.486586
40	0xc10321f6	-8.195791
41	0xc093e366	-4.6215086
42	0x3fa02c3c	1.2513499
43	0xbf1a0886	-0.60169256
44	0xc0131f12	-2.2987714
45	0x40f2ea56	7.5911055
46	0x40e29fbe	7.082
47	0xc10b8ed7	-8.722373
48	0xbee89661	-0.4542723
49	0x408bb5d3	4.3659453
50	0x410d78f2	8.842028
51	0xc1143c2f	-9.264693
52	0xbf7fb01a	-0.99878085
53	0xbf81a4df	-1.012844
54	0x4013c42d	2.3088486
55	0xc11d26b3	-9.821948
56	0x4026545b	2.5988986
57	0x4111c5a7	9.110755
58	0xc1077e95	-8.468404
59	0xbfc9a699	-1.5753967
60	0x4006155d	2.095054
61	0xc0c6ed4a	-6.216466
62	0xbfc6d861	-1.5534784
63	0xc1332b09	-11.198007
64	0x4086a8c4	4.2081013
65	0x41025577	8.145865
66	0x4033159c	2.798194
67	0xc08ec8c1	-4.462006
68	0xc118c931	-9.549119
69	0xbffd906c	-1.9809699
70	0x3fee6e0f	1.8627337
71	0xc0a9d8f4	-5.3077335
72	0xc0ac2395	-5.3793435
73	0x4093ee8e	4.6228704
74	0x417b1d3e	15.694639
75	0x3f97d11f	1.1860694
76	0x3fac33b6	1.3453281
77	0x40393095	2.8935902
78	0xc0cef5d3	-6.467508
79	0xc0b2215b	-5.5665717
80	0x40c2ac99	6.083569
81	0x4087d36c	4.2445583
82	0x405c503b	3.4423969
83	0xc0776c5a	-3.8659883
84	0xc10628a4	-8.384922
85	0x40a95f8e	5.2929144
86	0xc1954915	-18.660685
87	0xc117013b	-9.4378
88	0x4076ba6e	3.8551288
89	0xc121a32b	-10.102336
90	0xc106fdac	-8.436932
91	0x40743357	3.8156335
92	0x3ed3b138	0.41346145
93	0x41002184	8.008183
94	0xbf19fa6a	-0.60147727
95	0x412cc675	10.798451
96	0x406c2d9b	3.6902835
97	0xc08ee333	-4.4652343
98	0xc0c31834	-6.0967045
99	0x403ba3eb	2.9318798
100	0xc0a940f3	-5.2891784
101	0x410bf6e5	8.747777
102	0x3ec3e9cf	0.3826432
103	0x40904da3	4.509477
104	0xc02e4065	-2.7226803
105	0xc082a509	-4.082646
106	0x40fc1a79	7.8782315
107	0xc0553824	-3.3315516
108	0xc065e84a	-3.5923028
109	0xc060a3c6	-3.509996
110	0xc0dd0c8c	-6.9077816
111	0xbf75c2a1	-0.96000105
112	0x40a319c9	5.0968976
113	0xc093f7cc	-4.6239986
114	0x40164610	2.3480263
115	0x40d1cdb2	6.5563593
116	0xc112f34e	-9.184401
117	0xc096e1f8	-4.715084
118	0x4078a544	3.885087
119	0x409a4ede	4.8221273
120	0x4005a8f0	2.0884361
121	0xbfad541e	-1.3541296
122	0x4126a68e	10.415663
123	0xc08ccd70	-4.400078
124	0x40eccc93	7.3999724
125	0x41009343	8.035953
126	0xc13b2212	-11.695818
127	0xc12dd7d1	-10.86519
128	0xc0519099	-3.2744505
129	0xbf7f4b00	-0.99723816
130	0x3f8c14c2	1.0943835
131	0xc05c2c2c	-3.440196
132	0x3e12e495	0.1434501
133	0x40f79de8	7.7380257
134	0xbef8a18f	-0.4856076
135	0xbfbededa	-1.4911759
136	0x407a9852	3.915547
137	0x410b040d	8.688489
138	0x408210c1	4.064545
139	0x3f00a46b	0.5025088
140	0xc0cab6a2	-6.334794
141	0xbfb91c4d	-1.4461762
142	0xbf82dbcf	-1.022333
143	0xc0563141	-3.3467562
144	0xc0a77ef6	-5.234248
145	0x40f3e6cb	7.621923
146	0xc11598ef	-9.349837
147	0xbe174430	-0.14772105
148	0x405b18ae	3.4233813
149	0x415dbf5b	13.859218
150	0xc04a07aa	-3.1567178
151	0xbdd05230	-0.10171926
152	0x3fe1a452	1.7628272
153	0x4113251e	9.196562
154	0xc10f9811	-8.974626
155	0xc153d112	-13.238543
156	0x4072290e	3.7837558
157	0x401c3cae	2.4412036
158	0x40f0234c	7.5043087
159	0x3f497295	0.78690463
160	0x400b6074	2.177762
161	0x3efd486b	0.49469313
162	0x402049ab	2.5044963
163	0x40ac782f	5.389671
164	0x40442bad	3.0651658
165	0x4060945b	3.509055
166	0xbec8caef	-0.39217326
167	0x40438e96	3.0555778
168	0x3f443047	0.76636165
169	0x40f36a45	7.6067224
170	0x403599f5	2.8375218
171	0x40353b51	2.8317454
172	0xc0c80cfd	-6.2515855
173	0xc035e45d	-2.8420632
174	0xc08a9e53	-4.3318267
175	0xc04db94a	-3.2144341
176	0x40fd3fe1	7.9140477
177	0xc099d9ba	-4.807828
178	0x3fb3a6b3	1.4035248
179	0xbe4957f9	-0.19662465
180	0x402bb0f3	2.6826751
181	0xbf8c7c12	-1.0975363
182	0xc0a976c9	-5.29575
183	0xc147e089	-12.492318
184	0x4103a424	8.227573
185	0xc14e171d	-12.880643
186	0x3fa1fe13	1.2655662
187	0xc03ab688	-2.9173908
188	0x3daa33ac	0.08310637
189	0x401246b7	2.285566
190	0xc0097669	-2.1478522
191	0x408a2ac0	4.3177185
192	0x402c0139	2.6875746
193	0xc1131480	-9.192505
194	0xc08b55f4	-4.3542423
195	0x401d2b8c	2.455783
196	0x3f2fb685	0.6863788
197	0xbe0d65aa	-0.13808313
198	0x3fb64e5d	1.4242665
199	0xc136eaf6	-11.4323635
200	0x3fba5854	1.4558206
201	0xc13d30a6	-11.824377
202	0xc0955f7d	-4.6679063
203	0x3f0164f8	0.5054469
204	0x40d5e087	6.683658
205	0x4020f20b	2.5147731
206	0x3f543339	0.8289066
207	0x3f7acd5f	0.9796962
208	0xc001e7d5	-2.029775
209	0xbfbef373	-1.4918045
210	0x40336db5	2.803571
211	0x40064b58	2.0983486
212	0xc0678a88	-3.6178303
213	0x40010b34	2.0163088
214	0x40d62fba	6.693326
215	0xc18e365c	-17.776543
216	0x40b46d9a	5.638379
217	0xc00fe3cb	-2.2482784
218	0xc0662396	-3.595922
219	0xc0903b11	-4.5072103
220	0xbfc6d65d	-1.5534168
221	0x410ed54d	8.927075
222	0x40804bcd	4.009253
223	0xc0561957	-3.3452966
224	0xc0259034	-2.5869265
225	0x40ad4486	5.4146147
226	0xc0c3baad	-6.1165376
227	0xc0be4074	-5.945368
228	0xc04680d3	-3.1016128
229	0xc00be90a	-2.1860986
230	0x3f7b4ba1	0.98162276
231	0xc144e716	-12.306417
232	0x40b2d77c	5.5888042
233	0x40ba200a	5.816411
234	0xc076262a	-3.8460793
235	0xc17cd4de	-15.80197
236	0x40cdc89a	6.4307375
237	0x405dbd10	3.4646645
238	0x4035ba7e	2.8395076
239	0x40b4b6d3	5.6473174
240	0x3fed941d	1.8560826
241	0xc0b3a40f	-5.6137767
242	0xbf9fe94b	-1.249307
243	0xc133757b	-11.216182
244	0xc04e7033	-3.225598
245	0xbf788c6b	-0.9708926
246	0x407478ed	3.8198807
247	0xc0f8b1d4	-7.7717075
248	0xbfe8a4c9	-1.8175288
249	0xc0ca1ad5	-6.3157754
250	0xc0149c8c	-2.3220549
251	0xc139ea17	-11.619651
252	0x40d215dd	6.565169
253	0xbfd391e2	-1.6528895
254	0xc01ef649	-2.483782
255	0x404f8481	3.2424624
