static/ai/8/agent_black_65000/target_model.npz (npz, 608979 bytes, 8 tensors)

l2/W f4 [256, 256]
000000 59 bb b5 c0 d7 7d 02 40 a2 52 57 41 50 d0 e4 c1
       -5.6791196 2.0389307 13.457674 -28.601715
000010 39 1f 8a 3e 2b d5 e4 40 a7 ff 11 c1 b3 98 b0 c1
       0.26976946 7.1510215 -9.124915 -22.07456
000020 c8 5b 2b c1 03 31 eb 40 09 9f e8 40 62 e2 4c c1
       -10.709908 7.349733 7.2694135 -12.805269
000030 df 8e 67 c1 ee 3c b6 40 e3 c6 3a c2 28 1d 06 c0
       -14.472381 5.6949377 -46.694225 -2.0955296
000040 31 ed 26 40 1a 7c 01 41 87 27 e8 40 c0 6b 0e 41
       2.608227 8.092798 7.254825 8.901306
000050 96 1a a5 c1 97 ef 30 c1 2e 0d 6f bf 43 67 b7 c1
       -20.637981 -11.058494 -0.93379486 -22.92542
000060 54 c8 0b c1 88 c5 9c c0 16 88 c4 c0 3c 0c fe bf
       -8.736408 -4.8991127 -6.141612 -1.9847484
000070 86 71 19 c2 eb 37 5e 41 e1 a0 00 40 a5 74 88 c1
       -38.360863 13.888652 2.0098193 -17.056955
000080 b1 f2 da 40 40 b5 11 c1 de 6a 2f c1 2a b9 80 c1
       6.8421254 -9.1067505 -10.963591 -16.090412
000090 a7 4a 66 c0 9c 78 e3 c0 fe e5 7a 41 ed 9a dd c0
       -3.5983064 -7.108473 15.68115 -6.925162
0000a0 89 db 49 c1 3a 1f 28 c1 6e 80 c3 c0 c3 08 69 c1
       -12.616097 -10.507624 -6.1094275 -14.564639
0000b0 c1 36 4a c1 a7 aa 88 c1 98 04 fd 40 58 7d 04 c1
       -12.638368 -17.083326 7.9068108 -8.2806015
0000c0 c7 53 08 c0 c6 d2 16 c2 d8 25 59 c1 5a 12 1b 41
       -2.1301134 -37.705833 -13.571739 9.69198
0000d0 e3 ef 11 41 9e da 04 41 b7 0c db c1 44 43 e6 40
       9.121066 8.303373 -27.381208 7.195711
0000e0 15 ab 85 40 58 d1 89 c1 6b f3 c3 c0 cf 10 fa c0
       4.177134 -17.227219 -6.123464 -7.814552
0000f0 bd 9d 87 c1 73 f8 c3 c1 21 e6 b1 c1 eb 90 b2 c1
       -16.95202 -24.496313 -22.237368 -22.32076
000100 42 df f8 c0 7d 85 bd c1 34 d2 53 c1 22 8a b9 40
       -7.777253 -23.69018 -13.238819 5.798112
000110 89 44 0d c1 83 91 66 3f 20 f8 9a c1 3b 3e 43 c1
       -8.829232 0.90065783 -19.371155 -12.202693
000120 ae a0 61 c0 f3 bb 57 40 8c 60 2c 41 76 ae 05 c1
       -3.525432 3.3708465 10.773571 -8.355093
000130 70 cf 87 40 e5 de 08 c1 04 e8 d4 c1 30 20 2e c1
       4.244072 -8.554418 -26.613289 -10.882858
000140 1c 34 6a c1 e4 53 26 41 f8 f8 a4 41 80 47 2c c1
       -14.637722 10.395481 20.621567 -10.767456
000150 44 0d 4a c0 cd 71 a4 c1 7f d7 a0 41 60 08 3e c1
       -3.1570597 -20.555567 20.105223 -11.877045
000160 1e cb 43 c1 90 90 52 40 ef 6e 81 c1 fe 35 a1 bf
       -12.237089 3.2900734 -16.179167 -1.2594602
000170 61 3c a9 c0 56 89 14 41 b8 c3 1c c1 51 4f 69 c1
       -5.2886205 9.283529 -9.797783 -14.581864
000180 2c 82 e3 c1 62 52 d6 c0 be 07 e5 c0 6a 3b 69 40
       -28.43856 -6.6975565 -7.157195 3.6442513
000190 90 01 3c c2 d4 7c f7 c0 be 05 a0 41 0c ec 41 c1
       -47.001526 -7.733988 20.002804 -12.120129
0001a0 c6 62 c1 bf b4 15 b3 41 4c 09 9b c1 ec 91 86 c0
       -1.5108268 22.385597 -19.37954 -4.2053127
0001b0 f2 1b 82 c0 f9 5e 07 41 65 b7 48 c1 d5 31 ec 40
       -4.0659113 8.460687 -12.544774 7.381083
0001c0 b8 55 5b c1 91 9d 7d c1 1a 2f b6 c1 fb 99 9f c0
       -13.708427 -15.850968 -22.772999 -4.9875464
0001d0 c1 0c 1c c2 57 d7 f8 c1 80 cc a4 c1 95 30 06 c1
       -39.012455 -31.105146 -20.599854 -8.386861
0001e0 32 1a 8f 40 17 f0 90 c1 32 76 84 3f f6 b9 bc c1
       4.4719477 -18.117231 1.034857 -23.590801
0001f0 f0 dc e2 c1 5e 23 a8 40 f5 11 f0 c0 e9 db cc 40
       -28.35788 5.2543173 -7.502192 6.4018445
000200 fa f7 19 40 d4 22 17 c2 05 bd a6 c1 79 b8 83 c1
       2.4057603 -37.78401 -20.842295 -16.465075
000210 ff e7 49 c1 ea 64 d6 c1 4b 2a 8b c1 36 b7 1b 41
       -12.61914 -26.799274 -17.39565 9.732229
000220 63 06 a0 41 d6 21 1b 3f e2 44 40 41 c0 31 85 40
       20.003119 0.60598505 12.016817 4.162323
000230 bb 01 2a 41 6b fa 98 c1 22 97 24 3f ae b7 3d bf
       10.6254225 -19.122274 0.6429311 -0.741084
000240 ca d5 22 41 a9 17 97 c1 cc 4b a7 c1 47 68 ac c0
       10.177195 -18.886553 -20.91201 -5.387729
000250 da c9 25 41 79 95 2b 41 82 62 1a c0 c8 78 26 41
       10.36178 10.723992 -2.4122624 10.404488
000260 85 56 d4 40 51 de ec c0 a4 4a 6d 41 92 ac d3 c1
       6.6355615 -7.402138 14.830723 -26.459263
000270 f1 2c 2a c1 00 89 36 c0 5b 8f 05 c0 c9 fc 82 c1
       -10.635972 -2.8521118 -2.0868747 -16.37343
000280 7e 4a d7 c1 cc 21 38 c1 54 cf 33 bc 62 45 9d 40
       -26.911373 -11.508251 -0.010974724 4.9147196
000290 a8 91 84 c0 7c c3 a8 be 87 2d bc c1 34 28 5b 41
       -4.1427803 -0.32961643 -23.52223 13.697315
0002a0 64 d5 60 41 fb 7b f7 c1 c2 cb cd c1 82 d3 e3 c1
       14.052097 -30.935537 -25.724491 -28.478275
0002b0 7b c5 82 c1 fb 44 84 bc b5 52 b7 c1 53 c5 4e c1
       -16.346426 -0.016146174 -22.915384 -12.923175
0002c0 5b 75 8e 3f 31 a5 d7 bf 75 db 83 c1 19 c8 0c c1
       1.1129564 -1.6847287 -16.482157 -8.798852
0002d0 81 2b 10 41 2b 53 cd c1 65 41 0d bf 74 20 bc 3f
       9.010621 -25.66561 -0.5517791 1.4697404
0002e0 94 14 08 c1 82 e3 07 41 02 bd b6 c1 7a af 18 c1
       -8.505024 8.493044 -22.842289 -9.542841
0002f0 7f 9d e2 c1 65 0c cd c1 73 9a ba c1 f2 89 87 c1
       -28.326902 -25.631052 -23.325415 -16.942356
000300 88 db 09 c1 70 b3 65 41 27 ed dd c1 e1 31 e2 c1
       -8.6160965 14.356308 -27.740797 -28.274355
000310 4b 5e 02 41 f2 82 3e 41 24 c7 b9 c1 61 e4 d5 c1
       8.148021 11.906969 -23.222237 -26.736513
000320 af 70 06 c2 36 94 e4 c1 66 74 bc 41 da de 97 c0
       -33.610043 -28.572369 23.556835 -4.7459536
000330 d2 37 b9 c0 d3 03 3c 41 5f af 54 c1 0b a4 17 c1
       -5.788064 11.750934 -13.292815 -9.47755
000340 30 3e d8 c1 2d d0 cf c1 dd 38 fe c0 28 1a 65 41
       -27.030365 -25.976648 -7.9444413 14.318886
000350 e7 0a 92 3f 42 83 72 bf 73 12 00 c2 fe 08 ab 40
       1.1409577 -0.94731534 -32.018017 5.3448477
000360 2b 2e af c0 f6 87 0c c2 58 c3 83 c0 cd 61 53 c1
       -5.4743857 -35.132774 -4.1175957 -13.211377
000370 d9 38 4e c1 4c cc 0e c2 d1 a1 07 c1 0d 8e 3b 41
       -12.888879 -35.69951 -8.477006 11.72218
000380 dc 71 92 41 cc 67 bb c1 dd 57 a0 c1 06 3e 15 c1
       18.305595 -23.425682 -20.042902 -9.327642
000390 b0 91 85 be 43 22 e3 40 1f 08 77 3f 8f 9b 7c c1
       -0.26087713 7.0979323 0.96496767 -15.787978
0003a0 63 ac 27 c1 7c 7c 96 40 25 29 86 40 7d 38 01 41
       -10.479587 4.702696 4.1925225 8.076291
0003b0 38 ca 30 bf b2 78 c9 c1 2d b3 32 c1 31 e2 e4 c1
       -0.6905856 -25.183933 -11.168744 -28.610445
0003c0 ec 50 6c bf 0f 40 83 c1 30 2c f6 c0 5d b3 22 c1
       -0.92310977 -16.406279 -7.692894 -10.16879
0003d0 7d 27 8e 40 a3 f2 3c 41 ae 50 1e c1 c7 e4 98 c1
       4.4423203 11.8092375 -9.894697 -19.111708
0003e0 98 df 76 41 68 76 23 41 e6 5f 8b c0 d8 8a 4b c2
       15.429588 10.216408 -4.3554564 -50.88559
0003f0 85 a6 a7 c1 be 8d 4c 41 d5 20 be c1 48 cb a0 40
       -20.956308 12.784605 -23.766031 5.0248146

l2/b f4 [256]
000000 4b 98 b4 40 4d 1b b4 40 bf dd 34 40 4e 1f 45 41
       5.6435905 5.6283326 2.8260343 12.320143
000010 f4 5d ef 3e d2 7b 18 40 6e a0 34 bf d5 82 ac 40
       0.46751368 2.3825574 -0.70557296 5.3909707
000020 d8 46 da 3f 33 61 7c 40 6e f7 4e 41 07 f1 81 3f
       1.705287 3.9434326 12.935408 1.0151681
000030 a0 ee c5 40 62 21 2c be 90 05 90 40 c2 53 a6 3f
       6.185379 -0.1680961 4.500679 1.2994311
000040 35 20 4b 40 80 e7 aa c0 15 76 3a c0 4e da 8a c0
       3.1738408 -5.3407593 -2.9134572 -4.3391485
000050 a3 37 12 41 fa 8a 4a 41 3d 80 05 41 ec 25 ef 40
       9.138583 12.65893 8.343808 7.473379
000060 79 87 1b bd 3c c4 10 41 31 2c 74 41 9b 84 37 41
       -0.037970994 9.047909 15.260789 11.469874
000070 74 f8 46 41 8f 5c aa bc 69 e4 a0 3e f2 7f 8f 41
       12.4356575 -0.020796089 0.31424263 17.937473
000080 7a e6 12 c0 dc ab ae 41 e1 0b 1a 41 9d db d0 40
       -2.2953172 21.833916 9.6279 6.5268083
000090 83 7a 08 41 9a b8 2c 3f 6b 7e d2 3f 4a 9f 3a 40
       8.52991 0.6746918 1.644483 2.9159722
0000a0 f9 e1 25 41 a8 2e 1b 41 d0 1d cc 40 a8 dc 9f 3f
       10.367669 9.698891 6.378639 1.2489214
0000b0 48 3b ba 40 fe e7 83 41 25 61 06 41 89 6a cd 40
       5.8197365 16.488277 8.398717 6.419255
0000c0 b5 65 8e c0 e3 74 6f 40 23 5a 1e 41 7e d7 82 bf
       -4.4499154 3.7415092 9.897006 -1.0222013
0000d0 2f ff 58 bf 31 8c 39 bf aa ea 22 41 ff 63 64 41
       -0.8476438 -0.7247954 10.182291 14.274413
0000e0 7a a6 81 41 69 b6 4a 40 4b 53 59 41 70 8f cc 40
       16.206287 3.1673834 13.582835 6.3925095
0000f0 64 48 d5 3e 4d 8d bc 40 05 10 03 40 bf df 8a 3f
       0.41656792 5.8922486 2.0478528 1.0849532
000100 23 fd 0e 41 37 7d cb c0 3c 9d 27 c0 5f b7 c2 40
       8.936801 -6.359035 -2.6189718 6.084884
000110 fc a3 38 3f dd 49 35 be d6 44 ec 40 9a 07 8e c0
       0.7212522 -0.17703958 7.383403 -4.438428
000120 f7 52 60 40 00 b2 81 be 00 04 b4 3f 81 e8 bc 40
       3.5050638 -0.25331116 1.4063721 5.903382
000130 30 8f a8 40 e5 0b b7 40 91 b4 b6 c0 83 79 10 41
       5.267479 5.720202 -5.709542 9.029666
000140 79 f8 4c 40 5f bc 3c 3f 5b e0 0a c0 fd 44 05 bf
       3.2026656 0.7372493 -2.1699436 -0.5205839
000150 26 b7 1d c0 5d 58 38 41 8d b7 b3 3e d2 44 5c 41
       -2.4643035 11.521573 0.35100976 13.766802
000160 a1 35 33 41 e2 a3 aa 3e 9e 99 04 41 f5 3f a7 40
       11.200593 0.33328158 8.287504 5.2265573
000170 76 f2 15 41 87 1f 97 40 7c c8 d5 40 af 1a 01 41
       9.371695 4.7225986 6.680723 8.069015
000180 85 c6 06 40 07 00 92 40 e3 c6 0b 3f 3c 56 df c0
       2.1058667 4.5625033 0.5460035 -6.9792767
000190 00 c4 1d 41 e8 12 63 c0 b8 b7 73 40 29 5c 1d 41
       9.860352 -3.548029 3.8080883 9.835
0001a0 ef 26 36 41 08 f5 01 41 93 a0 89 40 37 44 96 40
       11.384505 8.122322 4.3008513 4.695827
0001b0 61 29 4a bf ec b9 44 41 55 6c de 40 d8 0a 99 bf
       -0.7896939 12.295391 6.950724 -1.1956434
0001c0 9b 30 9b bf 55 a9 f1 40 02 cf f1 be 9a f7 04 41
       -1.2124208 7.5519204 -0.47228247 8.31045
0001d0 bb 3d 06 41 46 1e 25 c0 ff 22 5c 41 fc aa 8b 3f
       8.390071 -2.5799727 13.758544 1.0911555
0001e0 ab d7 96 40 f7 99 d5 40 09 42 0d 40 9a 1b 2c 3f
       4.7138267 6.6750445 2.2071555 0.67229617
0001f0 f6 df e8 c0 2a be f2 40 1c f2 d8 40 94 d8 40 c0
       -7.277339 7.5857134 6.7795544 -3.0132189
000200 58 37 ae 3f 0b 29 b0 40 7b 40 2b c0 f0 9c 00 40
       1.361064 5.50501 -2.6758106 2.0095787
000210 0d 02 c9 40 e8 0d 2d 41 24 67 30 40 78 57 f1 40
       6.2815003 10.815895 2.7562952 7.5419273
000220 7c b5 0f 41 26 9b f3 bf 89 70 20 3f c5 e4 3f c0
       8.981808 -1.9031723 0.62671715 -2.998338
000230 c6 cd 36 41 17 22 63 40 37 19 74 40 cc 33 3f c0
       11.425238 3.5489557 3.814039 -2.9875364
000240 b5 3f cc bf b2 18 a0 40 fd 33 1c 41 cd 2f ec c0
       -1.5956942 5.0030146 9.762692 -7.380835
000250 76 0a 43 bf b1 3d b9 c0 08 fb 7b 40 f0 1d d1 40
       -0.7618784 -5.7887807 3.9371967 6.5349045
000260 56 f5 1c 41 03 13 6d 3d 83 82 cb 40 95 ea 07 41
       9.809896 0.05787946 6.3596816 8.494771
000270 37 fe 60 40 10 0c 51 40 fc d0 94 40 99 d8 f5 40
       3.515516 3.2663612 4.650511 7.68269
000280 7c 51 b4 3f b4 0e d1 40 84 55 4f 3c cd 4e 08 41
       1.4087367 6.533045 0.012654666 8.519238
000290 4b 9c 91 3e 62 88 ce 40 50 4c 3a 41 9c fd e5 c0
       0.28439555 6.4541483 11.643631 -7.187208
0002a0 5b 91 07 41 cc b4 37 c0 ea af af 40 49 e2 09 41
       8.472987 -2.87041 5.490224 8.617745
0002b0 17 19 c5 40 b2 94 1c 40 cf ac d2 40 50 46 7c 41
       6.1593127 2.4465756 6.583595 15.767166
0002c0 dd 2d ac 3f bc 5c 0f c0 ad c0 49 41 7b b2 20 c0
       1.3451496 -2.240035 12.60954 -2.5108936
0002d0 1f 1f 59 bf fb ff a6 3f 29 54 19 3f b8 ed dc 40
       -0.8481311 1.3046869 0.59894043 6.9040184
0002e0 58 e4 e9 40 f2 3a 1e c1 dd 62 58 41 4a 1b 3e 41
       7.309124 -9.889391 13.524137 11.881662
0002f0 26 de 30 40 07 60 fa 40 bc 60 0c 40 e3 c2 cc 3e
       2.7635589 7.824222 2.1934042 0.39992437
000300 ea 81 02 41 ef 37 f9 bf a3 7d d5 40 c4 8e e7 40
       8.156717 -1.9470195 6.6715865 7.2361774
000310 26 c2 72 bf 87 25 0e 41 62 b1 15 41 2a 24 1d 3f
       -0.94827497 8.884162 9.355806 0.61383307
000320 e0 79 86 3e b3 04 bd 40 19 9b 0b 40 d7 83 fe 40
       0.26264858 5.9068236 2.1813414 7.9535937
000330 24 a6 ae 40 f4 8f bb 40 2e ad 68 40 d6 a4 9e bf
       5.457781 5.8613224 3.63557 -1.2394054
000340 3d 14 8b 40 f9 d1 01 be 76 dc 34 3f 72 b8 0b 40
       4.3462205 -0.12677754 0.70648897 2.1831326
000350 75 b3 ab 3e e1 13 80 bd d0 22 05 41 3b 1f 1a 41
       0.33535352 -0.062537916 8.320999 9.632625
000360 b2 79 d2 3f 64 97 81 3d 91 7b 17 40 bc de 9a 40
       1.6443388 0.063277036 2.366917 4.8396893
000370 96 1f 2f 41 7f 1b 43 41 79 f5 0f 41 93 7b de bf
       10.945211 12.194213 8.99743 -1.7381462
000380 f8 d2 37 3f b7 bb 0f c0 f3 a7 3a 41 f3 dc 23 41
       0.7180629 -2.2458322 11.666003 10.241443
000390 d9 a5 17 41 38 83 cf 3d 28 87 15 c0 b2 b0 92 40
       9.47799 0.1013245 -2.3363743 4.5840693
0003a0 4c 9d 26 41 93 52 1b c0 86 cd 92 40 c9 23 0d 40
       10.413403 -2.426915 4.5875883 2.2053092
0003b0 8c c5 e6 40 1a ac 9d 40 cd b7 c5 40 c6 4d ea 40
       7.2116146 4.9272585 6.1786866 7.321994
0003c0 1c 69 2c 40 4c 5a d2 40 09 da 38 41 e6 eb 0d 3f
       2.6939154 6.5735226 11.553231 0.5543808
0003d0 c0 ad 4f 41 52 1f 9c 40 13 6a 00 41 11 47 78 3f
       12.979919 4.8788233 8.025897 0.9698344
0003e0 1b 10 0d 41 0e 78 2d 40 6b 34 d8 be b4 54 e4 40
       8.816432 2.7104526 -0.42227492 7.1353397
0003f0 09 0f dc 40 0e 4b 72 41 a7 19 47 41 75 ae 30 41
       6.8768353 15.143324 12.443763 11.042592

l4/W f4 [64, 256]
000000 ed ac 28 42 c7 cd 00 42 60 94 09 42 38 e8 34 42
       42.168873 32.200954 34.394897 45.226776
000010 b4 c0 e9 41 f9 ac 14 42 56 57 0e 42 74 43 11 42
       29.219093 37.16892 35.58529 36.315872
000020 49 91 db 41 c8 53 10 42 09 42 f7 41 82 e1 3c 41
       27.44594 36.081818 30.907244 11.805056
000030 57 46 d5 41 4e f2 f4 41 76 8e 35 42 d2 4c f0 41
       26.659346 30.618313 45.389122 30.03751
000040 8f 6b 09 42 58 53 14 42 da 8b 06 42 84 a6 ff 41
       34.355038 37.08139 33.636574 31.956306
000050 2b 7d 28 41 f4 7e b4 41 08 0a f7 41 d2 ab 15 42
       10.530559 22.561989 30.879898 37.417793
000060 cf 7d 2d 42 98 9a 2c 42 2e 1c 28 42 70 e1 10 42
       43.37286 43.15097 42.02752 36.220154
000070 41 9b 0f 42 26 4d 1a 42 8c f3 15 42 b2 7d 98 41
       35.901615 38.57534 37.48784 19.061375
000080 0a d3 1e 42 07 85 0a 42 8e 31 3f 42 02 43 09 42
       39.706093 34.62991 47.798393 34.315437
000090 43 d7 1b 42 f6 32 19 42 d1 36 06 42 ab 84 f2 41
       38.960217 38.299767 33.55353 30.31478
0000a0 68 9a 85 41 61 12 33 42 3a 07 0a 42 df 31 4b 42
       16.700394 44.76795 34.507057 50.798702
0000b0 6e 43 12 42 87 f4 21 42 9f 40 01 42 5d 2e eb 41
       36.56585 40.488796 32.313107 29.397638
0000c0 b6 e7 14 42 ac 20 22 42 e9 98 1c 42 e1 2d e7 41
       37.22628 40.531906 39.149326 28.897402
0000d0 bc be 2c 42 f2 95 34 42 45 40 0c 42 ca fe 31 42
       43.186264 45.14643 35.062763 44.498817
0000e0 1a 22 20 42 2a 43 17 42 a1 ce 27 42 b3 17 da 41
       40.033302 37.81559 41.951786 27.261572
0000f0 c6 f8 2f 42 0a 53 07 42 0e c8 1d 42 44 01 d2 41
       43.992943 33.831093 39.445366 26.250618
000100 f3 6a 6b 41 8f 99 2c 42 ac 3c f1 41 fa af 22 42
       14.713611 43.14996 30.154625 40.671852
000110 f8 69 1d 42 60 df 32 42 fd e5 03 42 4c ef 9d 41
       39.353485 44.71814 32.974598 19.741844
000120 43 c0 1b 42 47 7b 07 42 16 5f 0a 42 65 33 51 42
       38.937756 33.870388 34.592857 52.30019
000130 97 9b fa 41 7b 96 2a 42 b4 0f f3 41 e2 c8 22 42
       31.325972 42.646954 30.382668 40.696175
000140 35 af fe 41 87 f5 4b 42 2b c2 03 42 63 70 21 42
       31.83555 50.989773 32.939617 40.359753
000150 98 21 e4 41 aa a7 ad 41 5e bc 3b 42 0f 83 54 41
       28.516403 21.706867 46.933952 13.281997
000160 ff db 0c 42 98 1d 1a 42 60 28 1f 42 b4 dd 04 42
       35.21484 38.5289 39.78943 33.216507
000170 10 2a ba 41 d6 b7 ff 41 48 88 1f 42 25 66 c6 41
       23.270538 31.964764 39.883087 24.799875
000180 d4 7c fa 41 bc 11 17 42 ee 7b 22 42 dd c7 17 42
       31.310951 37.76732 40.621025 37.94518
000190 71 c4 f3 41 3d 42 0a 42 f7 6e 0c 42 6b a8 02 42
       30.470919 34.564686 35.108364 32.66447
0001a0 af 6d 07 42 88 11 0f 42 b3 44 ac 41 30 14 14 42
       33.857113 35.76712 21.533545 37.019714
0001b0 8b 35 1b 42 64 d0 34 42 46 57 0c 42 74 cf 08 42
       38.802288 45.203506 35.085228 34.20259
0001c0 1c 3f 0f 42 2c 71 f5 41 c6 0e 05 42 4b a4 1b 42
       35.81163 30.68026 33.264427 38.910442
0001d0 9f 48 29 42 44 c1 1d 42 53 96 cd 41 bb c6 60 41
       42.32092 39.438736 25.6984 14.048518
0001e0 ce 0d f6 41 f4 33 15 42 af 07 e6 41 24 53 29 42
       30.75674 37.300735 28.753752 42.331192
0001f0 c4 45 04 42 97 07 30 42 d7 bd 29 42 1d 12 13 42
       33.06813 44.007412 42.43539 36.76769
000200 ec aa 20 42 11 8b ea 41 01 f2 0e 42 e8 f6 03 42
       40.166916 29.317904 35.736332 32.99112
000210 12 86 0e 42 1c c6 f7 41 74 53 32 42 2b 6b 16 42
       35.630928 30.971733 44.581497 37.604656
000220 36 65 08 42 1d c7 16 42 7a 81 b7 41 f1 25 12 42
       34.09884 37.694447 22.938221 36.537052
000230 e1 12 1a 42 5f 62 15 42 01 23 dc 41 93 5c de 41
       38.518436 37.346066 27.517092 27.795202
000240 de 02 17 42 12 9b 19 42 06 75 12 42 ba c6 db 41
       37.7528 38.401436 36.61428 27.472034
000250 1f 48 09 42 6c 11 9f 41 ea 91 fd 40 46 30 0a 42
       34.32043 19.883507 7.924062 34.547142
000260 7e ab 2f 42 83 55 0a 42 2d 30 1f 42 27 a5 c6 41
       43.917473 34.583508 39.797047 24.83064
000270 9e ae 5a 41 85 52 09 42 12 ab 25 42 26 36 16 42
       13.667631 34.330585 41.41706 37.55288
000280 65 fb 9c 41 2e fe 20 42 43 9b 1f 42 7f b6 26 42
       19.622751 40.248222 39.901623 41.67822
000290 95 88 9e 40 cf 4b a1 41 6f 3f 0f 42 50 2a 2e 42
       4.9541726 20.162016 35.811947 43.54132
0002a0 5d 4f 20 41 01 dd 18 42 78 6e 05 42 97 7a 30 42
       10.019376 38.215824 33.35788 44.119717
0002b0 bc a8 1a 42 80 08 21 42 83 28 f7 41 fe f4 b2 41
       38.66478 40.2583 30.894781 22.369625
0002c0 05 eb 20 42 37 5d 1f 42 9f 70 07 42 58 fd 18 42
       40.22951 39.84103 33.85998 38.247406
0002d0 aa 64 fb 41 47 7d 1d 42 50 99 f1 41 5c d6 0f 42
       31.424152 39.37234 30.19986 35.959335
0002e0 f5 b8 2c 42 79 d7 03 42 f6 2b 15 42 27 40 7c 41
       43.180622 32.960423 37.29293 15.765662
0002f0 58 b2 28 42 eb 96 38 42 fe 9f fd 41 78 83 59 41
       42.174164 46.14738 31.703121 13.594597
000300 0e 94 0d 42 4e be 16 42 d8 99 0b 42 55 8e 16 42
       35.394585 37.685844 34.900238 37.638996
000310 ab e8 05 42 ef 46 25 42 2e 0a 20 42 0d d8 0f 42
       33.477215 41.31927 40.00994 35.960987
000320 0b 19 d8 41 32 16 21 42 93 f7 df 41 05 f6 14 42
       27.012228 40.271675 27.995886 37.240253
000330 b4 61 34 42 47 d1 eb 41 c1 63 b6 40 c7 df 11 42
       45.095413 29.477186 5.699677 36.468533
000340 a0 aa 56 42 bb d3 4e 41 30 5f 16 42 0e fb 1b 42
       53.666626 12.926692 37.592957 38.99517
000350 05 73 87 41 f2 13 32 42 84 e8 1d 42 df a3 20 42
       16.931162 44.519478 39.477066 40.16003
000360 52 ad 1f 42 96 06 b4 41 cb b8 15 42 f7 c6 13 42
       39.91926 22.503216 37.43046 36.9443
000370 97 ba 92 41 25 0a 1c 42 fc 3d 0a 42 96 25 0a 42
       18.341108 39.009907 34.56053 34.536705
000380 c9 43 16 42 78 4d 0b 42 9f 65 2a 42 bc 60 20 42
       37.566196 34.825653 42.59924 40.094467
000390 33 48 25 42 df a0 0c 42 f8 8e 03 42 7f 8b 34 42
       41.320507 35.1571 32.889618 45.136227
0003a0 e8 63 20 42 30 c7 2a 42 ab 29 6f 41 28 1e a9 41
       40.097565 42.69452 14.947673 21.139725
0003b0 0b b0 2d 42 5e 05 2b 42 22 7f d2 41 46 b3 78 41
       43.421917 42.75524 26.312077 15.543768
0003c0 f5 4a 13 42 81 2f 12 42 0f c3 fd 41 63 47 2c 42
       36.8232 36.54639 31.720243 43.069714
0003d0 33 0e 13 42 7e 84 27 42 cd b3 1a 42 b0 a8 15 42
       36.763866 41.879387 38.675587 37.414734
0003e0 cb e3 14 42 49 d0 04 42 81 e1 0e 42 4c 59 1d 40
       37.222454 33.203403 35.72022 2.4585752
0003f0 e9 f3 21 42 67 02 39 42 ca 4b 13 42 74 c9 12 42
       40.488194 46.252346 36.824013 36.69673

l4/b f4 [64]
000000 2a e3 bd c2 78 df bd c2 49 e3 bd c2 55 e9 bd c2
       -94.94368 -94.93646 -94.94392 -94.95573
000010 6f e7 bd c2 ca de bd c2 2f e5 bd c2 97 df bd c2
       -94.95202 -94.935135 -94.947624 -94.9367
000020 b5 d8 bd c2 5e e0 bd c2 dc eb bd c2 07 f5 bd c2
       -94.923256 -94.93822 -94.96066 -94.97857
000030 5d ef bd c2 00 e4 bd c2 dd db bd c2 0d ea bd c2
       -94.96751 -94.94531 -94.92942 -94.95713
000040 e6 de bd c2 71 f0 bd c2 73 ee bd c2 f6 e1 bd c2
       -94.93535 -94.96961 -94.96572 -94.94133
000050 dd e9 bd c2 6f ee bd c2 df d9 bd c2 95 dd bd c2
       -94.956764 -94.96569 -94.92553 -94.93278
000060 07 dc bd c2 68 ee bd c2 73 e7 bd c2 cd e9 bd c2
       -94.92974 -94.96564 -94.95205 -94.95664
000070 ac e3 bd c2 03 e9 bd c2 68 f1 bd c2 6d e6 bd c2
       -94.94467 -94.9551 -94.9715 -94.95005
000080 48 ed bd c2 44 ea bd c2 0f e2 bd c2 ad df bd c2
       -94.96344 -94.95755 -94.94152 -94.93687
000090 65 de bd c2 06 e2 bd c2 af ea bd c2 99 e7 bd c2
       -94.934364 -94.94145 -94.95837 -94.95234
0000a0 be f5 bd c2 0d ec bd c2 85 dd bd c2 80 ed bd c2
       -94.979965 -94.96104 -94.932655 -94.96387
0000b0 a8 e3 bd c2 9f e5 bd c2 14 e7 bd c2 ae e4 bd c2
       -94.94464 -94.94848 -94.951324 -94.94664
0000c0 9c e2 bd c2 b4 ee bd c2 05 dc bd c2 a5 e1 bd c2
       -94.9426 -94.96622 -94.929726 -94.94071
0000d0 ae ef bd c2 42 ed bd c2 d6 00 be c2 ea de bd c2
       -94.968124 -94.963394 -95.00163 -94.93538
0000e0 3d d6 bd c2 d0 db bd c2 7c e8 bd c2 94 f0 bd c2
       -94.918434 -94.92932 -94.95407 -94.96988
0000f0 e3 d4 bd c2 3c e2 bd c2 2c eb bd c2 f5 dd bd c2
       -94.915794 -94.941864 -94.95932 -94.93351

l3/W f4 [256, 256]
000000 dd a7 dc 40 f6 3f e5 40 44 c3 82 40 44 28 da 41
       6.895491 7.1640577 4.086336 27.26966
000010 0c 9a 05 c2 0c f1 18 41 de 6c 0a 41 9c 71 6b 41
       -33.400436 9.558849 8.651579 14.715237
000020 6b 37 86 41 e9 44 00 42 b7 a0 77 c0 10 16 fc 40
       16.77706 32.067295 -3.8691843 7.877693
000030 5f cc 8f 41 f4 84 c3 c0 35 07 82 41 9a f0 88 c1
       17.97479 -6.1099796 16.25352 -17.117481
000040 96 1f 04 be 59 e4 d1 c1 14 d0 07 c2 eb 32 18 c1
       -0.12902674 -26.236498 -33.9532 -9.512431
000050 a0 29 fa 41 9b bd ce 41 aa 7c a5 41 19 71 1e 41
       31.270325 25.84258 20.685871 9.902612
000060 5c d8 80 41 34 52 3d 41 f5 d4 33 42 d6 08 09 41
       16.105644 11.832569 44.957966 8.564657
000070 5a 36 1b 42 22 e6 01 c0 4b ca 48 41 9d 3e 12 41
       38.803078 -2.0296712 12.549388 9.140286
000080 6c 8e 87 c1 ae 9e 37 41 55 4b 57 41 a5 0d 85 41
       -16.944542 11.47624 13.455892 16.631662
000090 22 2e 50 c1 8c 3b 2d 41 3e 46 53 41 0a a8 90 41
       -13.011263 10.827038 13.204649 18.08205
0000a0 60 2b d1 3f ee b1 96 41 ff 9d df c0 f8 ce 4f 41
       1.6341362 18.83688 -6.9880366 12.9880295
0000b0 a9 01 98 41 82 1a 07 41 97 9f 64 c1 7a ea bf 41
       19.00081 8.443972 -14.288962 23.98949
0000c0 f8 82 06 c1 20 8b 31 c0 eb e8 e0 41 61 fc 8a c1
       -8.406975 -2.7741165 28.11373 -17.373232
0000d0 03 65 2e 41 06 67 9c 40 73 bf 2d 41 5b b2 fd 41
       10.899661 4.887576 10.859241 31.712088
0000e0 88 66 a0 41 2e 55 b4 41 6a 71 24 41 93 1a 29 41
       20.050064 22.541592 10.277689 10.568988
0000f0 da 7d 8e bf 6f a1 15 c1 49 8a 02 41 34 2d f3 40
       -1.1132157 -9.3519125 8.158761 7.599268
000100 70 cc e4 40 14 12 e5 40 5a 2e a2 41 c9 9c 2c c2
       7.1499557 7.158457 20.272633 -43.15311
000110 90 4a 34 41 3c 3f ca 41 64 08 87 41 96 04 8e c1
       11.268204 25.280876 16.879097 -17.75224
000120 fd 8f 38 c0 c2 80 a2 41 9d 03 6e 41 aa fa c0 41
       -2.8837883 20.31287 14.875882 24.122395
000130 95 e6 c5 bf 29 a8 8a 41 52 c6 9e 41 4e 68 04 42
       -1.5460993 17.33211 19.846836 33.10186
000140 11 f7 fe 40 47 3c 32 41 4a b3 e2 c0 7f 3e f0 c1
       7.9676595 11.139716 -7.084386 -30.030516
000150 cd 9d 83 41 2a de 0a 42 fb 05 5d 41 26 41 10 42
       16.452051 34.716957 13.81396 36.06362
000160 57 35 db 41 1c 66 3e 41 77 b2 5c 42 d2 96 f5 40
       27.401045 11.899929 55.174282 7.6746607
000170 32 0f db 40 90 c1 39 41 2e c5 d2 40 51 9b e9 41
       6.845605 11.609756 6.58657 29.200838
000180 1a 04 56 41 49 2e b4 41 07 57 8a 41 05 1f de c0
       13.376001 22.5226 17.292494 -6.9412866
000190 93 36 b9 3f 41 71 01 41 2d b6 35 41 68 e7 e4 40
       1.446978 8.09015 11.3569765 7.153248
0001a0 08 03 b1 41 52 c6 21 42 ba 92 17 41 8a 40 19 42
       22.12648 40.443672 9.473322 38.313026
0001b0 33 7e 66 41 10 b2 de 40 80 7d cd c1 19 5b fb c0
       14.40581 6.959236 -25.68628 -7.8548703
0001c0 01 07 4a c2 2f b9 ab 41 c8 e2 fd 40 3d 81 dd 3f
       -50.50684 21.465422 7.9339333 1.7305065
0001d0 30 8e 07 41 a0 65 20 c2 00 ad d5 41 79 c6 6e c1
       8.472214 -40.099243 26.709473 -14.923455
0001e0 c7 51 ec 41 37 26 88 41 49 70 a3 c1 70 2f 85 c0
       29.53993 17.01866 -20.429827 -4.1620407
0001f0 f3 cc 1a c2 95 4e 72 41 8f 2d 8d bf 66 3c e4 c1
       -38.700146 15.144185 -1.1029528 -28.529491
000200 64 03 82 41 25 42 62 41 cf b8 aa 41 9e 6c a4 40
       16.251656 14.141149 21.340239 5.138259
000210 55 98 d8 40 a5 fe 0e c0 a7 03 71 41 e5 04 17 41
       6.768595 -2.2342923 15.063392 9.438695
000220 df e6 9d 41 d0 b7 b1 c1 ba 80 93 c0 10 d4 f5 c1
       19.73773 -22.214752 -4.6094637 -30.728546
000230 66 f0 20 c1 34 14 1b 42 5f e0 d0 41 bd c7 13 40
       -10.058691 38.76973 26.109556 2.309066
000240 3e 92 33 c2 68 d2 54 c0 16 dc f6 40 1f f0 1f c0
       -44.892815 -3.3253422 7.714366 -2.4990308
000250 dd 2a bb 3f 55 79 26 c2 40 97 2a 41 69 9b b8 41
       1.4622456 -41.61849 10.661926 23.075884
000260 f8 53 06 42 48 bf 4b 41 bd 61 52 41 f8 78 14 41
       33.582 12.7342 13.148862 9.279533
000270 eb 06 28 41 6e 27 aa 41 6c e2 84 41 53 42 3c 41
       10.501689 21.269253 16.610558 11.766192
000280 3f 4f ab c1 0c 32 45 c1 91 f8 5f c1 92 88 63 41
       -21.413694 -12.324718 -13.998185 14.220842
000290 b4 4a 17 41 04 0d b2 41 ee f4 d9 41 16 09 7f c1
       9.455738 22.256355 27.244595 -15.939718
0002a0 0a ba 0e 40 41 79 24 42 a9 11 5c bf 21 09 b5 40
       2.230105 41.118412 -0.8596445 5.6573644
0002b0 7a ff a0 40 6e a2 64 41 86 b6 a9 3e b9 05 97 41
       5.031186 14.289656 0.33147067 18.877794
0002c0 f1 7f c7 40 e8 79 8a c1 5e b2 d2 3f ba cd fa bd
       6.234368 -17.309525 1.6460683 -0.122462705
0002d0 e3 7d 65 c2 25 97 61 41 f4 05 5e 41 83 a9 8d 41
       -57.372936 14.0994005 13.876453 17.70777
0002e0 f4 dc b0 c0 78 30 28 c1 73 14 1a 40 3b ca 8d 40
       -5.526972 -10.511833 2.4074981 4.4309363
0002f0 2d 4c 04 c2 92 37 f5 40 d6 eb 09 3f 1a ee 93 c1
       -33.07439 7.6630335 0.5387548 -18.49126
000300 ca 71 00 42 b7 78 8c 40 0c 4d 34 c1 b2 e7 e0 41
       32.111122 4.3897357 -11.26881 28.113132
000310 b1 f5 2f c1 5c f5 3f 41 87 e5 b1 40 d2 8f 1b 41
       -10.997483 11.997402 5.5592685 9.722612
000320 69 5f a8 40 3b 69 3c 41 ed 37 39 41 9f d7 6e 41
       5.2616467 11.775691 11.576154 14.927642
000330 3c 36 e6 c0 2f 18 b6 41 2a 42 34 41 94 19 12 c2
       -7.1941204 22.761808 11.266153 -36.52498
000340 63 e5 2c 42 32 7d 0c 42 50 3c 8f c1 87 cd e6 3f
       43.22401 35.12226 -17.90445 1.8031472
000350 9b 9e 24 41 b2 69 3a 41 c3 b2 ca 41 44 a2 9f 41
       10.288722 11.6508045 25.337286 19.954231
000360 7b dd 5c c1 c2 98 a4 c1 bf 8b 01 bf 8b 38 cc 41
       -13.804072 -20.574589 -0.5060386 25.527609
000370 10 a9 6d 41 79 0a 9d 41 99 e2 58 41 3d 45 58 41
       14.853775 19.630114 13.555322 13.516904
000380 8e ad 0d 41 e8 6c 08 c1 ab 53 a4 bf 07 c8 97 41
       8.854872 -8.526588 -1.2838033 18.97267
000390 54 46 47 41 b6 ee 40 41 42 ab f7 c1 31 68 7c 41
       12.45467 12.058279 -30.958622 15.775437
0003a0 c2 e0 c6 41 4d b2 e6 c1 90 e8 84 41 46 fc a3 41
       24.859745 -28.83706 16.613556 20.49818
0003b0 8b b3 80 42 eb d9 12 42 50 8d 88 41 65 2a 3c 41
       64.35067 36.71281 17.069 11.76035
0003c0 19 bf 97 41 10 d7 f1 41 1c 4c c8 40 cf b7 2f 41
       18.96831 30.230011 6.2592907 10.982375
0003d0 76 ff 54 40 b9 3c 2a 41 22 83 dc 41 97 6d 80 41
       3.328092 10.639825 27.56403 16.05351
0003e0 02 3b 4e 41 b6 04 84 41 6f fb 11 41 f3 79 06 42
       12.889406 16.5023 9.123885 33.61909
0003f0 8f e1 9c 41 77 9a a0 41 99 ab bd 40 57 9b 50 41
       19.610136 20.075422 5.927197 13.037925

l3/b f4 [256]
000000 a8 3f 98 41 1e 29 65 c0 d8 cb 84 3f d4 00 a5 41
       19.031082 -3.5806346 1.0374708 20.625404
000010 ca fa 68 c0 ec e0 95 41 d0 dc 1a 41 83 de c1 3d
       -3.640307 18.734825 9.678909 0.09466269
000020 7d a8 18 41 65 b5 4f 41 62 d5 38 c0 b2 ec e6 41
       9.541135 12.981786 -2.8880239 28.865574
000030 15 10 2e be 88 30 88 40 7f 0d 6b 41 66 8a 90 3f
       -0.16998322 4.255924 14.690795 1.1292236
000040 de 65 8b 3f 32 3e 99 41 73 8a 15 41 7d b3 55 41
       1.0890462 19.155369 9.346301 13.35632
000050 0d 21 97 41 6e 7a 85 40 7d 2e ea 3f 86 f8 7c 41
       18.891138 4.171195 1.8295437 15.810675
000060 08 04 f3 40 5e 11 52 41 c0 ca 53 41 69 27 87 40
       7.594242 13.12924 13.2369995 4.223561
000070 5f 17 17 40 1f c3 33 41 ba 4c 99 41 3f 13 91 40
       2.3608015 11.235137 19.162464 4.5335994
000080 4c 3c 05 41 08 08 b0 40 77 d4 2b 41 50 48 0e 41
       8.327221 5.5009804 10.739371 8.892654
000090 8f d4 c0 41 83 bc 9a 41 4a d9 d7 40 d7 0b 33 41
       24.103788 19.342047 6.7452745 11.190391
0000a0 43 23 3b 41 c4 f0 8b 41 dc b5 73 41 1d df 43 41
       11.696109 17.492561 15.231899 12.241971
0000b0 4e 18 e8 3e 05 06 9f 41 c4 5d e3 c0 48 d4 0b 41
       0.45331043 19.87794 -7.105196 8.7393265
0000c0 8d e5 8c 40 45 1e 24 41 59 d5 81 40 78 fe e1 40
       4.4030213 10.25739 4.0572934 7.062313
0000d0 e6 0a 67 41 78 b9 a0 41 f4 1e 71 bf 6e 60 72 41
       14.440161 20.09056 -0.94187856 15.148542
0000e0 94 b8 47 be f4 98 8d 41 96 67 5d 40 56 6b 05 41
       -0.19504005 17.699684 3.4594474 8.338705
0000f0 be 3b 62 41 20 86 26 41 b8 09 89 41 3b 3c 43 3f
       14.1395855 10.407745 17.129745 0.7626378
000100 59 8f a1 41 15 b6 f6 40 1d d2 e7 40 c2 69 ab 41
       20.194994 7.709727 7.2443986 21.42664
000110 7d 95 36 41 db a6 3f 41 84 f1 66 41 65 a6 84 41
       11.411496 11.978236 14.433964 16.581247
000120 db 9a af c0 ad 80 61 40 19 15 5a 41 74 f3 05 41
       -5.4876533 3.5234787 13.630151 8.371937
000130 e9 0c 09 41 c3 9b a0 41 89 72 42 41 fb 31 97 41
       8.565652 20.076056 12.152963 18.899405
000140 55 35 52 41 e3 fa 21 41 e4 04 ce 40 54 da a9 41
       13.1380205 10.123752 6.438097 21.231606
000150 5b 53 8a 3f 52 cb 1c 40 30 25 1a 41 db f4 45 40
       1.0806688 2.4499097 9.634079 3.0930698
000160 ca 7a 3c 40 f4 b7 0d 41 88 37 d2 40 89 ac b4 40
       2.9449944 8.85741 6.5692787 5.6460614
000170 a3 2f 9a 41 09 f1 4e 41 63 af 99 41 4d 98 57 41
       19.27326 12.933846 19.210638 13.474683
000180 15 4f ab 41 af 09 2b 41 e5 e1 aa 41 e4 87 cc 3f
       21.413614 10.689864 21.3603 1.597897
000190 ad 83 70 40 f7 57 3d 41 0b a7 d9 c0 c8 09 80 41
       3.7580369 11.833976 -6.801641 16.004776
0001a0 60 2f 31 40 08 32 97 40 cb 04 60 40 e2 f1 99 41
       2.7685165 4.7248573 3.5002925 19.243107
0001b0 4b 8a 4e 41 ff 8d 92 41 54 3a 2d c0 2a 92 12 c0
       12.908763 18.319334 -2.706685 -2.2901711
0001c0 d7 d8 44 41 d1 36 56 41 66 49 47 bf a0 e5 a8 3e
       12.302939 13.388383 -0.7784637 0.3298769
0001d0 73 5e b0 40 28 d6 45 41 9c 65 12 41 61 cd 31 c1
       5.5115294 12.364784 9.149807 -11.112641
0001e0 96 2f 69 41 96 d6 25 40 42 c3 a5 40 db 76 8f 41
       14.574118 2.5912223 5.180085 17.933035
0001f0 88 95 ba bd 2c cb 01 41 f1 2b f4 40 ce b6 3d 41
       -0.09110552 8.1121025 7.630364 11.85713
000200 9d 11 86 41 f3 e5 8f 41 1e 26 c4 40 d7 d8 1e c0
       16.7586 17.98728 6.129653 -2.4819849
000210 1f 11 0d 41 c5 19 b3 40 88 10 59 41 3c af 0c 41
       8.81668 5.5968957 13.566536 8.792782
000220 52 64 3b 41 4a d3 05 3f f3 30 00 41 c1 e0 b9 41
       11.711992 0.52275527 8.0119505 23.234743
000230 c5 bd a6 40 b3 36 3d 41 27 0a 83 c0 91 f7 da 40
       5.210665 11.825854 -4.0949893 6.8427205
000240 39 34 60 41 9c 71 39 40 27 84 8f 40 e7 b2 af c0
       14.01275 2.8975592 4.484882 -5.4905887
000250 27 e3 71 bf c6 fe 8e bf 1b 98 2e 41 67 18 2b 3e
       -0.9448723 -1.1171501 10.912135 0.16708528
000260 47 a7 a9 41 ea a5 e3 40 6b ca 9e 41 b5 98 5f 41
       21.206678 7.114003 19.848837 13.974782
000270 1a b2 f4 41 0a 29 38 41 f3 6a 26 41 de 84 22 41
       30.586964 11.510019 10.401111 10.157438
000280 a7 e9 ce 41 05 71 c1 41 95 ec a2 c0 61 6a a2 c0
       25.864088 24.180185 -5.0913796 -5.0754857
000290 3a 9b 6f 41 0e 70 17 40 3f e0 ac 40 43 01 8d 41
       14.975397 2.3662143 5.402374 17.625616
0002a0 0b 9c 88 41 df 5a 67 40 66 d2 90 41 dd d1 8a 41
       17.076193 3.6149213 18.102734 17.352472
0002b0 ad 8b c7 41 fa 60 ae 40 58 e0 76 41 a1 2b 02 41
       24.943201 5.449338 15.429771 8.135652
0002c0 db bd 91 41 ff 3d 39 41 06 bd 63 40 6c 24 1e 41
       18.217703 11.577636 3.558412 9.883892
0002d0 91 e2 e1 40 5e 7b 50 41 d4 5a 4e 41 b0 ac c6 40
       7.058907 13.030119 12.897175 6.20858
0002e0 c6 03 79 41 d1 00 30 41 56 71 fd 40 22 7c b2 41
       15.563421 11.000199 7.920085 22.310612
0002f0 52 47 2e 41 50 fc 84 41 da 0a 5f 40 d3 43 63 41
       10.892412 16.6232 3.4850373 14.204059
000300 a1 85 c3 41 d1 b8 96 41 90 19 96 41 62 d4 e7 c0
       24.440248 18.840242 18.762482 -7.2446756
000310 3c 4f 44 41 fb 6d 9b 3f d3 0b ac 41 0e 08 25 41
       12.269344 1.2142938 21.505774 10.314466
000320 e2 8d 0c 40 7a f3 73 40 60 e3 20 41 5b e6 04 40
       2.1961598 3.8117356 10.055511 2.0765598
000330 2a c1 c0 41 a2 ab 76 bc 21 b1 8d 41 74 90 de 40
       24.094318 -0.015055569 17.711489 6.9551334
000340 f6 e5 1b 41 d8 a5 c2 41 bc b1 30 40 21 51 da 40
       9.743643 24.330978 2.760848 6.8224034
000350 0f 0f 81 c0 57 55 07 41 9a bf 5a 40 20 6c 9b 41
       -4.033088 8.458335 3.4179444 19.427795
000360 93 de 8e 41 17 b5 bf 40 4f a7 99 41 1b 5a 66 41
       17.858679 5.9908557 19.206694 14.396998
000370 ac d9 94 41 89 5f a3 40 1a 2d 4f 41 a5 77 29 41
       18.606285 5.105412 12.948511 10.59171
000380 9a d6 c0 41 12 c1 0f 40 a5 27 ac 41 23 48 59 41
       24.104786 2.246159 21.519358 13.5801115
000390 61 60 bd 41 2c 5b dc 40 6b 70 5f c0 3d d8 13 41
       23.67206 6.8861294 -3.4912364 9.240293
0003a0 0b ac f0 40 32 9e 6e 40 ad 79 85 41 a9 b3 89 41
       7.5210013 3.7284055 16.684412 17.212725
0003b0 13 9f a5 41 be 12 78 41 f6 59 d6 40 f1 27 94 41
       20.702673 15.504576 6.6984816 18.519503
0003c0 01 0d 64 41 b4 d0 b0 41 1a cf 9f bf 11 25 54 41
       14.253175 22.101906 -1.2485077 13.259049
0003d0 bb 00 2c 41 d9 34 4f 41 f1 8a 9c 41 42 46 6a 41
       10.750178 12.950402 19.567842 14.642153
0003e0 98 10 2b 41 59 56 da 40 b0 63 8b 41 2e b8 da 42
       10.691551 6.8230405 17.423676 109.359726
0003f0 e3 95 ac 40 f3 7e b4 41 61 bf 82 41 54 c3 48 41
       5.3932967 22.561987 16.343447 12.547688

l1/W f4 [256, 64]
000000 d9 9e 5b c0 69 71 d8 c0 94 06 9c 41 69 24 cd 40
       -3.4315703 -6.763844 19.503212 6.4106946
000010 58 a3 0c c1 aa 84 3e bf e8 0d 4c c1 06 26 46 c1
       -8.789879 -0.7442118 -12.753395 -12.384283
000020 82 f0 f3 40 6e 8b f5 40 64 c3 66 40 fc 22 5f c0
       7.623109 7.67327 3.6056757 -3.4865103
000030 73 f2 31 c0 19 d9 cd c0 07 f7 30 40 03 af a3 41
       -2.780423 -6.432751 2.7650774 20.460455
000040 a3 8c 9d c1 65 89 2c c1 66 28 2c 41 5d 27 81 40
       -19.69367 -10.783544 10.759863 4.036055
000050 32 4a 70 41 19 11 7f c0 49 bd 0f 41 36 1f 11 c1
       15.018114 -3.9854186 8.983712 -9.07012
000060 d0 e9 06 c1 dc 1c 25 40 3e 62 14 c0 85 66 fb 40
       -8.432083 2.5798864 -2.3184962 7.8562646
000070 e0 ac d7 c0 65 43 d7 40 c8 a7 68 c1 ab 96 dd bf
       -6.739853 6.726977 -14.540962 -1.7311605
000080 09 b1 3d c1 b3 03 61 40 74 ba 43 40 27 59 e2 c0
       -11.855721 3.5158508 3.0582552 -7.073383
000090 df 68 88 3f 25 07 03 c1 30 cb 44 c1 66 2b 1d 41
       1.0657004 -8.189244 -12.299606 9.823095
0000a0 9e b3 41 41 c3 69 e2 40 d9 72 62 c1 16 2c bd bf
       12.106352 7.0754104 -14.153039 -1.4779079
0000b0 99 03 0b 41 cd b1 2a 41 8e 6a 76 c1 19 9e b1 c0
       8.688378 10.668408 -15.401014 -5.550549
0000c0 74 a4 2d c1 44 b0 8b bf ae 5d 09 c1 c7 72 08 c1
       -10.85265 -1.0913167 -8.585371 -8.528022
0000d0 ac a6 07 41 fe 96 2b bf 0d cf ee bf c9 79 df c1
       8.478191 -0.6702727 -1.8656937 -27.934465
0000e0 2d 21 08 c1 4a b6 80 c0 0a 22 1b c1 c1 6c 09 c0
       -8.5081 -4.022252 -9.69581 -2.1472628
0000f0 73 e3 54 3f be ab 7b 41 37 2b bb 3f a5 84 af c0
       0.8315956 15.729429 1.4622563 -5.484942
000100 2f 14 ff c0 1b 86 38 40 fc 7d 4a 41 c4 5f 26 c0
       -7.971214 2.8831851 12.655758 -2.599595
000110 72 d6 45 c1 e7 05 13 41 e8 fe 98 40 40 70 b0 40
       -12.364855 9.188941 4.7811165 5.5137024
000120 28 64 a7 c1 bb e3 f8 3f b1 22 43 41 74 e3 bc 40
       -20.923904 1.9444498 12.19597 5.9027653
000130 cb 15 2e 41 90 c9 0b 40 be bf 07 41 f7 98 99 c0
       10.880321 2.1841774 8.484312 -4.7999225
000140 28 3f d6 40 3c 40 f4 40 62 8b ea 40 d2 01 a9 40
       6.6952095 7.632841 7.3295145 5.281472
000150 66 3b de 40 1b 2a 7d c1 24 50 be 3f f3 4d 42 c1
       6.944751 -15.82278 1.4868207 -12.144031
000160 8f 07 be 41 89 8e 37 41 ef 26 26 41 59 3b a4 3f
       23.75369 11.472299 10.384505 1.2830611
000170 9e 17 40 c0 c9 fa b4 40 18 c1 c1 c1 f2 5a 9a c1
       -3.0014415 5.6556134 -24.219284 -19.294407
000180 62 84 53 41 55 fb 87 41 3e 4a b4 40 95 66 f0 3e
       13.21982 16.99772 5.634063 0.46953264
000190 6c 51 b9 bf f4 76 93 40 bb 40 8b c1 64 30 ae be
       -1.4477973 4.6082706 -17.406607 -0.34021294
0001a0 13 27 8f 40 63 48 bb c1 72 ef e1 c0 f2 80 0d c0
       4.47352 -23.410345 -7.060479 -2.2109952
0001b0 4f f0 61 c1 b1 bf 9d 40 41 6f 3c 41 15 05 97 40
       -14.121169 4.92965 11.777162 4.7193704
0001c0 c8 fa 89 c1 aa 24 9f c1 0a 71 19 c1 b7 35 ea 40
       -17.247452 -19.892902 -9.590097 7.319057
0001d0 09 ef 7d 41 0a eb aa 40 33 83 af c0 2f d8 b6 c0
       15.870858 5.3411913 -5.4847655 -5.7138896
0001e0 66 79 ae c1 c2 da e7 c1 1e 30 7e c1 64 53 9c c0
       -21.809277 -28.981815 -15.886747 -4.8851795
0001f0 0d 06 a1 41 8d b6 bf 40 31 d3 5d 40 66 64 3f c1
       20.127954 5.991034 3.466015 -11.962011
000200 50 97 26 41 fb 46 00 40 e3 cb 29 41 72 60 82 41
       10.411942 2.0043323 10.612277 16.297092
000210 66 78 8a 40 85 c0 8f 41 6b c8 aa 41 77 4d 92 41
       4.327197 17.969004 21.34786 18.287825
000220 f0 62 5a 41 f4 b8 f6 40 91 18 05 40 d7 61 0f be
       13.649155 7.7100773 2.0796244 -0.14002167
000230 bc 87 c4 c0 ad d0 39 40 ff a7 93 40 2e 58 3b c1
       -6.141569 2.9033616 4.6142573 -11.709028
000240 88 28 32 c0 76 25 99 3f 88 09 30 41 7c 1d 42 c0
       -2.7837238 1.1964557 11.002327 -3.0330496
000250 72 1e 63 40 eb 1a fe bf 19 00 59 41 18 ff fe c0
       3.5487332 -1.9851965 13.562524 -7.9686394
000260 57 b1 46 41 8e 5c 03 41 72 bb ea 40 69 d4 25 c1
       12.418296 8.210096 7.3353815 -10.364358
000270 4a a1 c2 c0 7b f6 ea bf d3 44 84 40 40 9f e5 c0
       -6.0821886 -1.835647 4.1334014 -7.1756897
000280 72 ab 4b 41 ad 3c d7 3f 51 4c b1 c0 6e d0 c9 bf
       12.729357 1.6815392 -5.540566 -1.5766733
000290 31 47 47 c0 86 8f 15 c0 d3 cf b7 c0 c5 60 58 40
       -3.1137202 -2.336885 -5.744119 3.3809063
0002a0 ce b2 08 41 ba 22 84 41 3b f2 ac 3f 7a cd 78 c0
       8.5436535 16.516956 1.3511423 -3.8875413
0002b0 70 7c 8d 40 08 3a 2c c1 c4 32 c1 3e 24 1c a8 40
       4.42144 -10.764168 0.37734044 5.253435
0002c0 72 20 d0 3f 79 50 25 40 b5 1a 0f 41 e0 1a 99 c0
       1.6259902 2.5830367 8.94402 -4.7845306
0002d0 57 78 d2 40 96 6e bf be 48 46 44 c1 1a 0f 32 c0
       6.57719 -0.37389058 -12.2671585 -2.7821717
0002e0 c8 0b bd c1 2b f9 b2 bf f3 dc fb bf 3c 34 9a 41
       -23.630753 -1.398229 -1.9676803 19.275505
0002f0 a4 2f e1 c0 8a e3 8c 41 df 81 e1 41 c7 59 46 41
       -7.0370655 17.611103 28.188414 12.396918
000300 1a a2 b5 c1 95 f4 5b 41 a4 41 2d c2 99 78 28 41
       -22.704151 13.747212 -43.314102 10.529443
000310 75 92 cb 40 9c 0d c1 c1 4c 8a a1 40 33 fc b3 bf
       6.361628 -24.131645 5.048132 -1.406134
000320 04 fa 1c c0 b5 34 05 bc 91 7a d0 c0 ca b2 0e c0
       -2.4527597 -0.008130242 -6.5149617 -2.2296624
000330 1b b6 ba 3f ab 83 69 c1 37 82 83 c1 48 2c 2e 41
       1.4586824 -14.5946455 -16.438581 10.885811
000340 05 36 18 c2 2d 9f 74 c0 71 a6 09 41 d9 6a 9a bf
       -38.052753 -3.8222153 8.603135 -1.2063857
000350 c6 e3 db c0 25 02 82 c1 d3 e9 d0 c0 52 5a 05 c1
       -6.8715544 -16.251047 -6.528543 -8.334551
000360 97 7d ce 40 37 75 93 41 ad b1 76 40 93 21 a3 c0
       6.452831 18.432234 3.8545945 -5.0978484
000370 59 ca 49 41 4f cd 82 c0 49 75 a2 40 65 59 e5 c0
       12.611901 -4.087562 5.076817 -7.1671624
000380 f4 17 8b bf dd 9c 88 c0 60 bb fd 40 df 54 21 40
       -1.0866685 -4.2691483 7.929123 2.5208051
000390 4e 0f 5c 3d 5e 9c 05 40 7e 56 e5 c0 00 f6 0f be
       0.053725533 2.087669 -7.166808 -0.14058685
0003a0 66 44 a0 c1 1b 1d bc 40 05 61 07 40 f7 c0 06 40
       -20.033398 5.878553 2.1152966 2.1055276
0003b0 ff f1 1b c1 77 7b b7 c0 78 21 23 c1 c2 28 f0 c0
       -9.746581 -5.7338214 -10.195671 -7.5049753
0003c0 9f 00 00 40 4d 96 63 40 53 b6 c8 40 82 92 39 bf
       2.000038 3.5560486 6.2722564 -0.7248918
0003d0 d6 de b4 40 d8 c9 7c 41 75 18 d6 40 8a e2 53 bf
       5.6522017 15.799278 6.6904855 -0.82767546
0003e0 b8 32 3a 40 f3 cb 5e 40 0b 5f ea c1 2d 39 06 41
       2.9093456 3.481198 -29.296408 8.388959
0003f0 a5 e0 12 41 20 6c 49 40 7c 06 5f c1 fe 39 a4 41
       9.179845 3.1472244 -13.939083 20.528316

l1/b f4 [256]
000000 95 59 cc 40 30 b6 00 41 8b 98 d2 c0 4f 22 af 40
       6.3859353 8.044479 -6.581121 5.472938
000010 78 ab dc 40 a5 9e 04 40 8d b4 2a 40 69 be ae c0
       6.8959312 2.072183 2.66727 -5.4607434
000020 a8 a4 76 c0 c1 7b 11 3f 59 9a 5a c0 c9 94 c5 c0
       -3.8537998 0.5682946 -3.4156706 -6.1744123
000030 0d 05 ed 40 5d 45 a4 40 9b 68 5f c1 31 84 f5 bf
       7.4068666 5.133467 -13.963038 -1.9180967
000040 b4 2f 5d 40 57 f5 3e c1 3b 2d e4 be 51 c1 91 c0
       3.4560366 -11.934897 -0.44565758 -4.554848
000050 78 3f 2e c1 83 fe 1e c0 dd 1b 3b 3f 3d b8 93 c0
       -10.890495 -2.4842842 0.7308939 -4.61624
000060 98 e7 94 3f 98 61 70 c1 79 09 c3 be df 2b 04 c0
       1.1633177 -15.023827 -0.38093165 -2.0651777
000070 89 13 1b c1 66 88 44 3f a2 5f 82 bf 1d 09 e7 40
       -9.692269 0.7677063 -1.0185435 7.2198625
000080 7b 9d 05 40 b1 36 f8 c0 d3 ce 6f c0 44 32 b2 bf
       2.0877368 -7.756676 -3.7469985 -1.392159
000090 98 91 a9 bf 29 d3 09 bf 17 a4 c0 40 aa 7f f2 40
       -1.3247557 -0.5383783 6.0200305 7.578084
0000a0 9b 77 d3 c0 9a cd e3 bf 07 00 13 40 c0 bb e0 bd
       -6.6083503 -1.779712 2.2968767 -0.109733105
0000b0 d8 e7 4e c0 ba e3 19 41 2f 46 13 41 4e 54 e8 c0
       -3.2329006 9.618097 9.204635 -7.260291
0000c0 ff 72 89 be b0 de 71 40 77 7e f8 40 dd 18 0a c1
       -0.26845548 3.7792168 7.7654376 -8.63107
0000d0 72 22 53 bf 1a aa 16 bf 43 92 36 40 c3 63 24 c1
       -0.82474434 -0.58853304 2.852677 -10.274356
0000e0 7b 8e 31 40 83 26 f1 40 cf dc 0d c1 4b 7b 9c bf
       2.7743213 7.535951 -8.866408 -1.2225126
0000f0 82 1a 94 40 11 0d 0f c1 ea ae 01 c0 6c 9a 37 c1
       4.628236 -8.94069 -2.026301 -11.475201
000100 4e 1d 13 40 78 d1 00 41 b6 8c 89 3f 91 7f 17 c0
       2.2986636 8.05114 1.0746067 -2.367161
000110 ee 25 ec c0 28 96 5c bf a0 6b 29 40 c2 2b 68 c0
       -7.37963 -0.8616662 2.647194 -3.6276708
000120 e2 e6 8c c0 70 94 44 40 f8 8f 57 41 44 eb 3c 3f
       -4.403184 3.07156 13.472649 0.73796487
000130 92 71 a5 3f b9 27 c5 3f 67 c2 90 c0 83 6d be c0
       1.2925284 1.5402747 -4.5237308 -5.950868
000140 f1 10 c5 40 e5 80 52 40 53 3f 3f 3f 33 ca 3d c0
       6.158318 3.289117 0.74706 -2.9654663
000150 cf 0a 0f c1 65 c5 a0 40 d2 06 8c c1 07 25 2f c1
       -8.940139 5.024096 -17.50333 -10.94654
000160 a8 4f 82 40 e2 42 1d c1 ef a9 0a c1 b7 51 51 40
       4.0722237 -9.828829 -8.666488 3.2706125
000170 e8 55 41 bf 87 c1 e7 40 a9 d8 0c bf b5 fd 10 41
       -0.7552171 7.242374 -0.550181 9.06194
000180 55 2a 09 40 e2 42 40 c0 a3 c4 93 c0 da f7 0d 40
       2.1432087 -3.0040822 -4.6177535 2.2182527
000190 21 61 80 c0 ea 1c db 40 50 32 96 bf 54 5b 84 40
       -4.0118566 6.8472795 -1.1734104 4.1361485
0001a0 23 e6 a9 bf 85 e0 66 c0 31 d7 c1 40 ea d3 8a bf
       -1.3273357 -3.6074536 6.0575185 -1.0845921
0001b0 55 f3 90 c0 52 9f 1a c0 80 fc f5 c0 13 e1 a8 bf
       -4.5297036 -2.4159741 -7.6870728 -1.3193687
0001c0 e3 ef 95 40 28 05 85 c0 b6 12 b6 3f ff 5f 85 40
       4.685533 -4.1568794 1.422446 4.1679683
0001d0 aa f7 05 c1 03 8d 87 c0 02 f9 f9 3f 67 59 55 40
       -8.372965 -4.2359633 1.9529116 3.3335817
0001e0 66 f3 b6 3f 4b de 22 3f 22 a0 0b 41 70 c8 f2 be
       1.4293029 0.6362044 8.726595 -0.47418547
0001f0 b7 3a b6 40 f9 b3 19 41 54 62 31 c1 1d 5b 41 c1
       5.6946673 9.606439 -11.086506 -12.084744
000200 0b f1 4f c0 f1 29 c0 3d ac 08 19 bf ff 8f d7 bf
       -3.249087 0.09383 -0.5977886 -1.6840819
000210 e8 3f a2 3f 5d 4d c3 40 b8 8d 9a c0 0c 6b 39 bf
       1.2675753 6.1031938 -4.8297997 -0.72428966
000220 98 43 86 40 18 53 2c 41 d1 dd 2e 40 bd 55 9a 3f
       4.195751 10.770287 2.7322886 1.2057415
000230 9e 1f cd c0 46 80 96 3f ab fa f8 bf 8c 42 29 c0
       -6.4101095 1.1757896 -1.9451498 -2.6446867
000240 f5 76 9a c0 d8 92 cf 40 17 26 f4 c0 9b 78 13 3e
       -4.827021 6.4866753 -7.6296496 0.14401476
000250 de 00 14 40 f0 4c 31 41 fb d3 43 c0 97 55 f0 3e
       2.312553 11.081284 -3.0598133 0.469403
000260 45 7f 86 40 f9 93 0a 41 af 72 01 c1 3d 97 1e c1
       4.203036 8.661126 -8.090499 -9.911923
000270 60 5b 0b 40 f3 16 27 40 38 b9 05 41 93 03 63 bf
       2.177452 2.6107757 8.357719 -0.8867733
000280 ae 78 21 c0 32 e6 d2 3c c2 62 0f 40 39 fd c5 40
       -2.5229907 0.025744531 2.2404027 6.187161
000290 43 7d 16 40 ae 6a 8d 40 5f 60 31 bf 37 c4 1f 40
       2.3513954 4.4192724 -0.69287676 2.496351
0002a0 a8 ce 22 40 f2 2f 02 41 84 aa 09 40 91 ec 89 40
       2.5438633 8.136705 2.1510324 4.3101277
0002b0 9e 91 50 c0 ef 72 70 c0 94 a8 a4 c0 ca af 91 bf
       -3.2588878 -3.757015 -5.1455784 -1.1381772
0002c0 cf 6d ed 40 72 16 8a c0 52 80 5e 3f 4f 22 71 bf
       7.4196544 -4.31524 0.8691455 -0.94192976
0002d0 e8 80 54 40 41 e5 9c bf e3 1d db c0 01 16 2d c1
       3.3203678 -1.2257463 -6.8473983 -10.817872
0002e0 1a 61 01 41 76 9f 4f c1 27 d6 a1 3f 0a ae e1 bf
       8.086206 -12.976431 1.2643479 -1.7631238
0002f0 19 1f 08 c0 04 f3 32 40 7b d9 96 bf ea 38 41 40
       -2.126898 2.7960825 -1.178512 3.0190988
000300 70 9f 0d 40 8f d4 d5 c0 14 d2 87 c0 1e 07 8c 40
       2.2128563 -6.682197 -4.2443943 4.375869
000310 76 06 6f 3f 29 06 51 c0 0d c4 a6 3d 00 7e 39 c1
       0.93369234 -3.266001 0.081428625 -11.593262
000320 2b 5b a6 3f c0 ec 62 c1 ff 18 63 c0 c8 78 c1 3d
       1.2996572 -14.1828 -3.5484006 0.09446865
000330 5c c4 6d 40 ba f6 a5 3f d6 d0 9f bf 82 5e 85 bf
       3.7151098 1.296592 -1.2485607 -1.0419466
000340 11 37 a9 3f 19 61 b1 bf ed e0 01 40 6c fa 5e 40
       1.321993 -1.3857757 2.0293534 3.4840345
000350 9a d0 e1 bf 5e 50 13 40 38 95 b0 40 15 3e 8c c1
       -1.7641785 2.3017802 5.518215 -17.530313
000360 da f1 d0 40 a4 30 1d 3e 3c ed 9a c0 08 ff 9b c0
       6.529523 0.15350586 -4.8414593 -4.8748817
000370 44 36 1c c0 ce 0c 02 41 d9 23 ca 3f 02 ad 59 c0
       -2.440812 8.128126 1.579219 -3.4011846
000380 51 bd 7e c0 b7 00 f1 40 7e 99 c8 c0 0d 44 33 c0
       -3.980305 7.5313373 -6.268737 -2.8010285
000390 f1 c1 3a c0 18 47 6a c0 1a b9 24 40 91 91 51 c1
       -2.9180872 -3.6605892 2.5737977 -13.098039
0003a0 ff 25 84 40 0c a1 f3 40 19 cb 56 c0 1d 7f 76 c1
       4.129638 7.613409 -3.356146 -15.4060335
0003b0 af 99 f6 40 79 dd 52 40 8e 19 8c 40 de 44 61 40
       7.70626 3.2947676 4.3781195 3.5198283
0003c0 81 7b d1 3f 30 5d e6 c0 8d 9c 67 bf ca fa 0f c1
       1.6365815 -7.1988754 -0.9047325 -8.998728
0003d0 3a 3a 4f c0 bf a5 02 c0 8a 2d 7f 40 b1 08 da c0
       -3.2379289 -2.0413663 3.9871545 -6.813561
0003e0 2f af 97 bf a0 6c d5 c0 34 b2 14 c0 cc f9 29 c1
       -1.1850337 -6.66951 -2.3233767 -10.623486
0003f0 6a 67 e8 40 d5 0f b8 3e 18 50 00 c0 c1 f7 de 3f
       7.262624 0.3594958 -2.0048885 1.7419358
