static/ai/4/agent_white_18000/target_model.npz (npz, 521753 bytes, 8 tensors)

l2/b f4 [256]
00000000: f064 60bc fe69 2dbd f368 6d3d 7697 d73c
00000010: 28de 123c ce1e 2fbd c14a 98bc c55b 83bc
00000020: 47ae 8fbc 1a03 2b3d 6d52 45bc 13f1 683d
00000030: a720 a1bc 46d7 b3bb 648a a93d e8ed 663c
00000040: 1b1e 5ebc 53af 2c3c adf4 2bbd ca56 ca3c
00000050: 2939 3938 a880 81bc fb08 bdbc 8e10 02bc
00000060: 5e3c efbc 0153 1bbd d0f6 1e3d 9fb1 8cbc
00000070: 53aa 78bd 4372 2d3d bc09 973b 46e9 0b3d
00000080: dce2 a63c 5ec7 03bd f566 fbbc e0f8 f4bb
00000090: efae 3e3c 4b30 62bc 1dcf 6f3d 9f5e fcbb
000000a0: f964 ffbd 5566 37bd 8890 9a3c 5314 89ba
000000b0: 04aa 173d aa3c 18bc 459e eb3c d754 1abd
000000c0: 97c6 873c b19b d93b 5598 713b 9b07 8bbc
000000d0: e96d 28bc 098e 45bc fdf0 2bbd da3b 733d
000000e0: 4eac 6cbd 6749 1bbc 7cb9 bcbc 6b2d c6bb
000000f0: aa46 9abb ba0e 3abd e924 3b3b 2d7f 5e3c
00000100: 0640 cfbc a13c c03a 8119 cf3c 38eb e0bb
00000110: 030c 6c3d 273d 03bd 78c5 28bc 309a 9bbc
00000120: 7457 aebc eb1e 673c fbb2 9a3c e977 663c
00000130: 0083 e53c 12b6 9c3b 6f5d 8ebc a29e 3bbc
00000140: ea60 8cbd 7577 1ebd 2104 00bd 2268 2b3d
00000150: 5b66 433b 1ef2 673d 5b37 e3bb fc3e 22bd
00000160: 5cf7 41bc 5727 2fbd 841c 2bbd 1edd b83b
00000170: 5dcb 813c 08a8 b5bb 8d9d b3bd 283b 06bc
00000180: 1fad 553d 4785 c5ba abac 373d 8cb2 4abc
00000190: a4fa 803b 02ab 3cbc 5846 74bb caa8 5a3c
000001a0: 7cd6 8fbc cb7c a0bc 6a6c 25b9 a332 8f3d
000001b0: 47be 27bd 06df 6a3c 2568 e03c 4a01 19bc
000001c0: 7c27 b33c 32e5 0c3c 7d9f 9c3c 3a61 3b3d
000001d0: 5756 d4bc 0a7c 5cbd 882b 87bd 5360 913c
000001e0: 4b65 3fbc 8487 373d aed4 5cbc a109 c83c
000001f0: 3740 a8bc 05bb 07ba 681a c03c 6d59 873c
00000200: 65a6 3dbd bc5c 8fbc 7d5a b1bd 3bd7 bd3d
00000210: 86ed 463d b465 e13c 135a 68bd 009a 6d3d
00000220: 6461 c7bc eea6 63bb 1ea9 f73c 64de f2bb
00000230: 5d92 9a3d ac7f c1ba 0a97 14bc 3e2a a43c
00000240: 7b7a 863d eeab 143d 7bb0 bebb 25f6 adbd
00000250: d44e 1abd dc50 cfbc c7c4 1fbb dc3b c9b9
00000260: 7655 efbc faeb e2bc 4046 80bc 955d 923c
00000270: b308 5a3d 6da0 733d 31a0 4dbc c297 083d
00000280: c2bd b1bd e52f 37ba 1cbe bbbc 9af9 023d
00000290: e4dd ad3c abc2 b2ba 29d6 18bd 134e db3b
000002a0: ed4e d03c dab9 f3ba c103 66bc 59fd 12bd
000002b0: 80d8 1abd 1722 353a c7be 28bd 0582 3dbd
000002c0: 1e10 933d 19a8 88bc f5eb 02bc 027c 6bbc
000002d0: b982 693d 48e4 e1bc adcd 9ebd b04d 8d3c
000002e0: 0000 0000 dc9b f83c 55b3 84bd d23f c6bc
000002f0: e14f e73c 7283 903c 5cdc 1d3e 9c02 2fbd
00000300: 8147 f53c c0af b83c de83 d83b 13e8 173d
00000310: 831f 843a b487 183d 331e cebb 30ec 93bc
00000320: 61c0 913c 7d41 9dbc c681 be3b 377d a9bc
00000330: 6310 1f3c 6fa6 6cbc 7075 b9bd 2467 823c
00000340: f332 4ebc b241 2fbc ceba d43c cea7 793c
00000350: 7578 953b 361c 963d a0a8 0dbd 7ab2 fdbc
00000360: 05fc dbbc 266b 033d 7266 18bd 5de5 263c
00000370: 9311 543d 5b73 a4bc 152e 273d 4fd4 9fbc
00000380: 6604 52bd 797b e7bc 3104 c3bc 8d47 163c
00000390: 68c9 84bd 28e1 803c 3329 b2bb 9449 ea3c
000003a0: 49bc 63bd c00a b0bb ce0b 013d 3b53 9c3b
000003b0: 11bd c63c 5071 c13b 785f 8cbb c74f ebbc
000003c0: a09b 2b3b ee09 d3bc 3660 b5bd bb42 2c3c
000003d0: 9931 b13c 7fe1 a7bd 11aa 66bc 1974 10bd
000003e0: 2a42 40bb 5f91 943c 2448 803d 485b 3f3b
000003f0: 58a1 ce3c fd5d a4bd 174b 5a3d 3783 3b3d
-0.01369594 -0.04233741 0.057961415 0.02631734 0.008964099 -0.042753987 -0.018590333 -0.01603497
-0.017539157 0.041751005 -0.012043578 0.05687053 -0.01966889 -0.005488309 0.08278349 0.014094807
-0.013556982 0.010539847 -0.041981388 0.024699587 4.416067e-05 -0.015808418 -0.023075571 -0.007938517
-0.02920359 -0.037920956 0.038809597 -0.01717454 -0.06070931 0.042345297 0.0046093147 0.034158014
0.020371847 -0.032172553 -0.030688742 -0.0074759573 0.011638387 -0.013805459 0.058547128 -0.0077017094
-0.12470431 -0.044775326 0.018867746 -0.0010458328 0.037027374 -0.009291807 0.028761992 -0.037678566
0.016574187 0.0066408743 0.0036864479 -0.0169714 -0.010280111 -0.01205779 -0.04197787 0.05938325
-0.05778151 -0.00947795 -0.023037665 -0.0060478947 -0.004708131 -0.0454242 0.0028555936 0.013580126
-0.025299083 0.0014666506 0.025280716 -0.0068639778 0.057628643 -0.03204074 -0.0103009865 -0.01899442
-0.021281935 0.0141064925 0.018884173 0.014066675 0.028016567 0.0047824467 -0.017378537 -0.011451395
-0.068544224 -0.03868814 -0.031253938 0.041847356 0.0029815647 0.056627385 -0.006934089 -0.039610848
-0.01183876 -0.042762127 -0.04177524 0.0056415936 0.015844041 -0.0055437125 -0.08770285 -0.008192815
0.052167054 -0.0015069627 0.044842403 -0.01237167 0.0039361287 -0.011515381 -0.0037273373 0.0133459065
-0.017558329 -0.019590756 -0.00015776014 0.0699208 -0.040952947 0.0143353995 0.02739341 -0.009338686
0.021869414 0.008599566 0.019119019 0.04574702 -0.025920076 -0.05382923 -0.066001 0.017746126
-0.011681865 0.044806972 -0.013478441 0.024418654 -0.020538433 -0.00051777094 0.023450091 0.016522134
-0.046301264 -0.017500274 -0.086598374 0.092695676 0.048566364 0.027514316 -0.056726526 0.058008194
-0.024338432 -0.003473695 0.030232009 -0.007411765 0.07547448 -0.0014762781 -0.009069214 0.020039674
0.0656633 0.036296777 -0.005819378 -0.08494214 -0.037672833 -0.025307111 -0.0024378763 -0.00038382306
-0.029215556 -0.027700413 -0.015658498 0.017866889 0.053230952 0.059479166 -0.0125504 0.033347853
-0.086787716 -0.0006988033 -0.0229178 0.03197632 0.02122397 -0.0013638338 -0.037313614 0.006692657
0.02542826 -0.0018594817 -0.014038981 -0.035886142 -0.037804127 0.0006909682 -0.041197564 -0.046266574
0.071808085 -0.016681718 -0.007990827 -0.0143728275 0.057009432 -0.027574673 -0.07754073 0.017248958
0.0 0.030347757 -0.06479517 -0.024200354 0.028236331 0.017640803 0.15416092 -0.042727098
0.029941322 0.022544742 0.0066075167 0.037086558 0.0010080192 0.03723879 -0.006290221 -0.018056959
0.017791929 -0.019196266 0.00581381 -0.02068959 0.009708497 -0.014443978 -0.090556026 0.015918322
-0.012585389 -0.010696815 0.025967982 0.015237762 0.0045614787 0.073295996 -0.03458464 -0.030968893
-0.02685357 0.032084607 -0.037207074 0.01018652 0.051774573 -0.020074537 0.04081543 -0.019510416
-0.051273726 -0.028257119 -0.02380571 0.0091723325 -0.06483728 0.015732363 -0.0054370402 0.028599538
-0.055599485 -0.0053723752 0.0315054 0.004770664 0.024260076 0.0059034005 -0.0042838417 -0.028724564
0.002618529 -0.02576157 -0.088562414 0.010513957 0.021630095 -0.08197307 -0.014078633 -0.03526697
-0.0029336312 0.018135725 0.0626376 0.0029198695 0.02522342 -0.08025739 0.053294268 0.045779433

l2/W f4 [256, 256]
00000000: 33e5 92bd 377c 4fbd 0064 c73c 070c 05bd
00000010: dd01 87bd a3da 0bbc fef2 7dba 6702 4a3e
00000020: 2368 d13d 00f4 a4bd cf5b da3c 1ad8 d0bc
00000030: 1935 283d f69c 24be 944b 1c3d 58dd 35bd
00000040: 9378 413d 9009 e03c f5ef e83d 96b4 2bbe
00000050: 7165 47bd a281 063d 9d49 11be 0a68 b23e
00000060: f393 ab3d 8476 b03d 74c2 55b8 793e 70bd
00000070: 11b9 5d3e d8fb 7a3d 0246 9e3d ac87 483e
00000080: 1c71 e53b 115e b2bd 575e 673e 9b8f 883d
00000090: 2261 863a 9138 78bc 6331 48bd 5339 af3d
000000a0: e107 093e bf9e 233e b863 42be 5188 823d
000000b0: e35b cd3c 57df 13bd e059 ab3c a8ea 923e
000000c0: ca6e 3d3d 8be0 67bd 7e10 2bbd b496 46bd
000000d0: 2cec 4cbd e555 863d 35f7 703b a7a5 aa3c
000000e0: 9914 c1bd 8914 303c 2f73 773e 9bf9 c03d
000000f0: 5dea 0ebe 8d19 1fbe 668b 0e3c 6154 1abe
00000100: 0851 a83c 42da 42bb 9285 d03d f73f 3d3d
00000110: 2144 84bc ed2f aabd 1a1e 80bd a205 25be
00000120: 32aa 29be 4bc1 e3bd c0d3 293e c6f6 1cbe
00000130: 702f a6bd 4460 ba3d 05ec 8bbd e2a5 913d
00000140: b2a9 b6bc e7d2 3abd 367a 94bd 6cdb db3c
00000150: ffb7 1f3c a413 0d3e d31d cc3c 9493 c1bd
00000160: d159 bfbc 7d5b acbe 7137 0b3e 86a3 0d3e
00000170: edb9 143c e4ee 52bd 0440 41be 1f61 abbc
00000180: 63a9 67bd 7e90 043d 9c23 c33c 8791 203d
00000190: 38eb 0f3c 036c 76bd c03d bbbd a042 81bc
000001a0: 0e35 27be 9124 bfbd 3775 1fbe 814a 1a3e
000001b0: 5960 b9bc 2076 0e3e f3e3 71bd 97d6 1e3e
000001c0: 6670 1b3e e65a 963d c769 ac3d 43f1 2c3e
000001d0: 260d 12be 54f1 f53c 018e be3d 5b47 d03d
000001e0: 5583 a7bd 250c 9bbc 628e 893d 0b2b 733e
000001f0: f2fa b9bd 8f04 2ebe 421f 8abd 212c 02bc
00000200: cea2 edb9 a080 3bbd 4328 fc3c ad96 bbb9
00000210: 019e 223e 96b9 cdbd 298d ad3d f01a ec3c
00000220: 72d4 6cbd cde3 c93c 36b9 cf3d 5791 7b3d
00000230: 226c 413e c788 003d bcbe a03d 1745 323e
00000240: 8425 febd 2699 edbd 0011 7dbc e238 bdbd
00000250: f8c1 e5bd 0732 21be 8892 163c adf8 6fbc
00000260: 30a6 823d bdce 87bc cd1d eabd 8c98 a1bd
00000270: 0c43 16be 6275 4f3c 2453 d9bd fdb3 d1bc
00000280: 08f7 34bd e084 2f3e 4fb0 13bd 5770 513d
00000290: 340b 5a3d 0f88 91bd 516c e83d e0d6 7a3c
000002a0: 8ef6 583d 68c9 593d edc0 b63d c3ef bcbd
000002b0: 9bc1 17bc 70b3 c93c 806d a13d 5c10 e6bd
000002c0: 8860 6b3d f47a 933d 5397 a3ba c861 543d
000002d0: 1653 aebd 8084 f33c 4eef cdbc 3833 28be
000002e0: 3ecc 173d cc62 ff3d 8bb4 cdbd 5f8c 56be
000002f0: a24f c5bd 89e0 af3c ed81 3b3e 7315 113e
00000300: ce7e 273b 33eb aebd 56b7 243e db80 053d
00000310: 496a 903d 2dc9 22bc 97f4 da3d 368c 033d
00000320: 4abe 76bd 6fdc 5b3e ec9e f83d 52d0 b9bd
00000330: 2fd2 50bc 0004 b4bd 38d0 a43c a92d f63c
00000340: 708a 40bc 9c96 6a3c 6374 9d3d eb67 ddbc
00000350: 4d1d 05be 3ba5 8bbd 76a5 61bd f0b0 94bd
00000360: 2dd3 90bc d280 083e 4fed 093e 87b3 29bd
00000370: d786 0ebd 5f38 0f3d 8970 f13d cc0c 50be
00000380: b889 b5bd 25e1 2ebe 49f4 1a3e 2e5d fabd
00000390: 07ab 273d 5c93 15be 543b 983d 5e45 83bd
000003a0: 3d49 313d c830 e8bc 5a9d ff3c 0a36 273c
000003b0: 0a1d 543e 5612 01bd 1852 a33d 858a 66bd
000003c0: 2d3d 7ebd 698e 0c3e cd47 4bbd 5cdf a33d
000003d0: 3474 7fbd 171e 2a3e a19a 013c b09c b93d
000003e0: 0a2a 62bd 2daa 5fbd aa1f e83c 5e77 113d
000003f0: 5994 e7bd 3655 963d 2098 163d c1d7 9e39
-0.071726225 -0.05065557 0.024339676 -0.032482173 -0.06592152 -0.008536014 -0.0009687393 0.19727479
0.10224941 -0.08054352 0.026655106 -0.02549367 0.041066263 -0.16075501 0.038158014 -0.044400543
0.04723413 0.02734831 0.11373893 -0.16768107 -0.048680726 0.03283847 -0.14188237 0.34845
0.083778284 0.08616355 -5.0964256e-05 -0.05865333 0.21652628 0.061275333 0.07728197 0.19583005
0.007002009 -0.08709348 0.22594582 0.066680156 0.0010252337 -0.015150205 -0.048875224 0.085558556
0.13381912 0.15978526 -0.18983352 0.063736565 0.025068229 -0.036101665 0.02091688 0.28694654
0.046248235 -0.056610625 -0.041763775 -0.048483565 -0.05002992 0.06559352 0.003676844 0.020830942
-0.09427757 0.010747083 0.24165033 0.094226085 -0.1395659 -0.1553709 0.008700227 -0.1507125
0.020546451 -0.0029732143 0.101817265 0.04620358 -0.016145768 -0.08309922 -0.062557414 -0.1611543
-0.1656883 -0.11120852 0.16584682 -0.15328512 -0.08114517 0.091003925 -0.068321265 0.07111718
-0.022297714 -0.04561129 -0.072498724 0.026838027 0.009748458 0.13777024 0.024916565 -0.094519764
-0.023358257 -0.3366355 0.13595368 0.1383191 0.009077531 -0.051497355 -0.18872076 -0.020920334
-0.056558024 0.03236436 0.02382069 0.039201286 0.008784108 -0.0601616 -0.09142637 -0.01577884
-0.16328833 -0.09333146 -0.15572058 0.15067483 -0.02262895 0.13912249 -0.05905528 0.15511547
0.15179595 0.07341556 0.08418613 0.16888909 -0.14262828 0.0300223 0.09304429 0.1016986
-0.081793465 -0.01892669 0.067166105 0.23746888 -0.09081067 -0.16993926 -0.06744243 -0.007945091
-0.00045325462 -0.045776963 0.030780917 -0.00035779682 0.15880586 -0.10045163 0.0847419 0.028821439
-0.05781979 0.024644757 0.10142748 0.061417904 0.18888906 0.03138044 0.0784888 0.17409168
-0.12409499 -0.11601476 -0.015445948 -0.09239365 -0.11218637 -0.1574174 0.009190209 -0.014646691
0.06379354 -0.016578073 -0.11431465 -0.07890424 -0.14674014 0.012662264 -0.10611561 -0.02559852
-0.0441809 0.17140532 -0.036056813 0.051132526 0.05323334 -0.07106029 0.11348785 0.015310019
0.052969508 0.05317059 0.089235164 -0.092254184 -0.009262468 0.024621695 0.078822136 -0.11233589
0.057465106 0.07201186 -0.0012481011 0.051851064 -0.08511941 0.029726267 -0.025138523 -0.16425788
0.037060015 0.12470016 -0.100442015 -0.20951985 -0.096343294 0.021469371 0.18311282 0.14168338
0.002555776 -0.085409544 0.16085562 0.03259359 0.07051522 -0.009935659 0.10691183 0.032116137
-0.060240068 0.21470807 0.12139687 -0.09072937 -0.012745424 -0.087898254 0.020118818 0.03005107
-0.011751756 0.014318135 0.07688215 -0.027027091 -0.12999459 -0.068186246 -0.055089436 -0.07260311
-0.017678821 0.13330391 0.13469432 -0.041430976 -0.034796562 0.03496587 0.117890425 -0.20317382
-0.088641584 -0.17078073 0.1513225 -0.12224804 0.04093459 -0.14606994 0.07433191 -0.06409715
0.043282736 -0.028343573 0.03120296 0.010205755 0.20714203 -0.031511627 0.079746425 -0.056284446
-0.06207006 0.137262 -0.04962902 0.08001587 -0.06236668 0.16613041 0.007910402 0.09063089
-0.055215873 -0.05460565 0.028335411 0.035514228 -0.11307592 0.073404714 0.03676617 0.00030296858

l3/b f4 [256]
00000000: 405d b13d 2007 36bc 7a80 89bc ff1d 76bc
00000010: 3d5f ad3b 3c37 713d 0a6b 7a3c fd08 133d
00000020: d58e ad3c fc79 0b3d be08 123e 0a0d babc
00000030: b041 503c 7e3c c53b 097a 0e3d 6ac9 03bd
00000040: 669e 4d3d 9fc6 6abc c296 7fbc f8f0 20bd
00000050: 9086 833c 2dc2 263d eb48 ef3c 62cd de3c
00000060: 7074 ac3c 6fa7 113d 7fb9 e43c 398e 133c
00000070: 272b 1dbd 9858 f43c f372 a2bc cdf2 febc
00000080: c880 7f3d e769 2c3d e2c1 833c ebb2 c8bc
00000090: edd6 c43d a055 b53d d542 eebc afb3 76bd
000000a0: 531a 143d fc31 033b f0e8 d4bb 4a2b 243d
000000b0: 8107 dc3c 6ff0 593d 0cb0 5b3d c466 95bd
000000c0: dde2 3abd c508 50bc 9d15 46bd e2a4 3ebd
000000d0: f1af 853d ce2d 103d 9e5c 25bc 4f04 283d
000000e0: 2273 0a3d e226 1e3d 259a 82bd 760d 64bc
000000f0: 6ca9 47bd e4ca 4ebd 44a0 a53c 8b49 c43d
00000100: 0538 9c3d f89b a4bd 827e 363b 5ef1 66bd
00000110: d1e4 a7bd c71d 04bd f941 e33c e985 06bd
00000120: 7e4a 27bc 3cd5 c4bc f84a bf3b 326a 2f3b
00000130: e763 0c3d b4f1 8b3d ddc0 31bd 5042 25bd
00000140: 6b72 12bd 9971 4fbd db78 63bb 0d8b 7ebc
00000150: 847f 75bd bb94 9d3c 2e87 6bbd ea9d e0bc
00000160: fe96 31bd 3ae4 fcbc 17a1 023d 77c9 823a
00000170: 09f9 203c 1ef9 fcbc 1b70 4d3d b123 11bc
00000180: 621e 51bc 7c8b 8d3d 6518 c1bb 775b 103e
00000190: bab0 7cbd 20a4 1dbe f47d 1e3d 133c bfbc
000001a0: e756 8cbd dfcb 533b 4b5e cf3d 486c 493b
000001b0: 146f 78bd f7e3 ddbc dd41 fc3d 1bce a8bb
000001c0: 6470 b73c 5000 dabd 2873 b53d 9535 e43c
000001d0: f5ad e9bd e93d 03bd 3bc8 6dbc c15f b53d
000001e0: 713a cb3c 31a7 a23d 254b 1a3d 0f1a 31bb
000001f0: 5ecf babd 4d47 f7bc 930e 2cbd 34dc b3ba
00000200: 1245 1b3e d3da c8bd 318d 32bd 795e c33b
00000210: 5f24 a33b 2f23 32bb 1d9c 473d fc5e d7bc
00000220: ead1 8abd f9ed 0fbd 1880 433d 4791 be3c
00000230: 6d67 01bd 8803 40bd a169 14bc fd0a 833c
00000240: 7b28 a83d 332d 06bd 1701 b4bc 0bcd 16bd
00000250: f8ea 3c3d e026 61bc 88e1 85bc cdc4 443c
00000260: 4dff f7bb 5ed1 0fbc 523e 6bbc c182 dcbc
00000270: cce8 9dbd 3fc3 883d d3e5 ea3d 1a4e 21bd
00000280: dba6 df3b 1418 be3c 4560 e4bc eaff beba
00000290: 12b2 9f3c 51af b5bc 53af 1f3e dc21 013e
000002a0: 7595 553c a96c 3a3c ac2e c53d b261 a23d
000002b0: 4c00 253d 8f76 b53b 14e2 21bd d9cc a2bd
000002c0: 6c87 8d3d f99a 6d3c 40ad b0bc 1f11 953c
000002d0: 4b4d 85bd 82b6 963d d662 f9bc 3b28 fdbc
000002e0: 8ac6 933c 1e21 403c 1d31 16bd 5656 bc3c
000002f0: db90 20bd 5014 cf3d 5585 bebb e23f dab9
00000300: 5ee7 1abd e510 77bd c480 693d 1c44 f2ba
00000310: 65bf 18bd 2a37 243d e9ce 7cbd d7db 08bd
00000320: d7f3 d1bc 5312 8cbb e006 913d 3251 90bc
00000330: b41f 1f3c 535c ef3c ae88 0cbd cc2e 03bd
00000340: 6a8e 47bd b5fb 27bc d5b8 b53d e46e ccbd
00000350: f6ee 13bd 57e6 e8bc 80bb 813d 8ffa 39bc
00000360: ffe2 aa3c e633 ef3c b854 1c3d 4e76 07bd
00000370: d66e 21bc 42c7 c8bc 52c8 9f3b 7688 663d
00000380: db68 e1bc ee02 b8bc ebff afbd b19d 9fbc
00000390: 35b7 28bc 29d0 be3d 9365 873d a597 88bd
000003a0: 65a9 57bc 8cd5 b33d fbcb 6fbc 9a13 243a
000003b0: 2cc3 25bd d619 113c 2ee5 19bd 7f48 293d
000003c0: da97 2c3d 426c c7b9 f66e efbc 8fa9 cfbc
000003d0: fda8 943b a5dd 3cbc f16d 463d 0900 563d
000003e0: 246b b23d 0597 12bd 6ed8 05bd 0c64 42bc
000003f0: da67 4e3d a94b 0ebd 8254 e6ba 2aac 043d
0.08660364 -0.011110097 -0.016784895 -0.0150218 0.0052908943 0.058890566 0.015284309 0.035897244
0.021186272 0.03405188 0.14261147 -0.022711296 0.012710974 0.006019174 0.03478435 -0.032174505
0.05019989 -0.0143295815 -0.015599908 -0.039292306 0.016055375 0.040712524 0.029209575 0.027197544
0.021051615 0.035560068 0.027920483 0.0090060765 -0.03837123 0.029827401 -0.019830203 -0.031121636
0.062378675 0.042093184 0.016083661 -0.024499377 0.09611306 0.08854222 -0.029084602 -0.060229953
0.036157917 0.0020018807 -0.006497495 0.040080346 0.026859047 0.05320781 0.05363469 -0.072949916
-0.04562651 -0.012697403 -0.048360456 -0.046543963 0.06527699 0.035199933 -0.010092882 0.041019734
0.033801205 0.0386113 -0.06377057 -0.013919225 -0.048745558 -0.05048646 0.020218022 0.0958434
0.076278724 -0.08037561 0.00278464 -0.05638253 -0.0819794 -0.03225496 0.02774142 -0.03284255
-0.010210631 -0.02402746 0.0058377944 0.0026766178 0.03427496 0.068332106 -0.04339682 -0.040346444
-0.03575365 -0.050645445 -0.0034709487 -0.015536082 -0.05993606 0.01923596 -0.057501964 -0.02741905
-0.043356888 -0.030870546 0.03189191 0.0009978254 0.009825 -0.030880507 0.05015574 -0.008858607
-0.0127635915 0.0691137 -0.0058928006 0.14097391 -0.061691977 -0.1539464 0.038694337 -0.023344075
-0.06852513 0.0032317562 0.10125407 0.0030734707 -0.060652807 -0.027086241 0.1231725 -0.005151523
0.02239246 -0.10644591 0.08859855 0.027857581 -0.11410133 -0.032041464 -0.014513071 0.08856154
0.02480814 0.079420455 0.03766932 -0.0027023589 -0.091215834 -0.030185366 -0.042006087 -0.0013722242
0.15163067 -0.098073624 -0.043591682 0.0059621898 0.004978701 -0.0027181616 0.048732866 -0.02629041
-0.06778319 -0.035139058 0.04772958 0.023262633 -0.031592775 -0.046878368 -0.009058387 0.01599645
0.08210846 -0.03275795 -0.021973176 -0.036816638 0.04612252 -0.013742179 -0.016342893 0.012009812
-0.007568276 -0.008777944 -0.01435812 -0.026917817 -0.07710418 0.06677865 0.11469617 -0.039381124
0.0068253106 0.02320484 -0.027877936 -0.0014572118 0.01949409 -0.022178324 0.15594225 0.12610573
0.013036122 0.011378446 0.096280426 0.0792879 0.040283486 0.005537815 -0.039522246 -0.07949228
0.06910595 0.01450228 -0.021566987 0.01819664 -0.06508883 0.07359029 -0.030442636 -0.030902972
0.018039007 0.011726646 -0.03666793 0.022990387 -0.039200645 0.10111296 -0.0058142343 -0.00041627797
-0.037818305 -0.060318846 0.057007566 -0.0018483433 -0.037291903 0.04009167 -0.061720762 -0.03341278
-0.025628967 -0.0042746454 0.070813894 -0.017616842 0.009712148 0.029218828 -0.034310035 -0.03202705
-0.0487198 -0.010252883 0.088731445 -0.09982088 -0.036116563 -0.028430147 0.06334591 -0.011351242
0.020860193 0.029199552 0.03816673 -0.03307181 -0.0098530855 -0.024509076 0.004876175 0.056282483
-0.02751582 -0.022462334 -0.08593734 -0.019484373 -0.010297586 0.09317047 0.066111706 -0.06669549
-0.013162945 0.08780965 -0.014636035 0.00062590244 -0.040469334 0.008856257 -0.03757208 0.041328903
0.042137004 -0.00038036896 -0.029227715 -0.025349407 0.0045367465 -0.011527454 0.048444692 0.052246127
0.08711842 -0.035788555 -0.032677107 -0.011864673 0.05039201 -0.034740124 -0.0017572793 0.03239075

l3/W f4 [256, 256]
00000000: eafb cfbc 9656 913d 1962 92bd 90bf 613d
00000010: edf7 243c 10c3 f9bc 5b6e 593c 8f24 eb3d
00000020: 6c44 143d f69b 55bd 2e52 593d c15e 53bd
00000030: 9b15 34be f2bc 123d b635 b53d 6540 683d
00000040: 2ac5 86bd 1475 843d 5bea ad3c 937a d13b
00000050: f4e6 513d 8081 4b3d cf0d f7bd 9d13 8abd
00000060: bd79 0f3d e0ed 0cbe a6b0 b6bc 0723 2e3b
00000070: 7edf c13d 2b39 10be 62ea a03d 41c7 9e3d
00000080: 70cc 063e a0a6 4ebd ba7d 5ebc a723 543d
00000090: fa46 0fbe 418c 873d 6d0a 09bc 9709 9ebd
000000a0: f963 bfbd dc12 b43d 5d6b 9b39 f683 4f3d
000000b0: 455e 023e 7491 03be 0a33 78bd 93d4 6b3b
000000c0: 5da0 f13d d9cb df3c ac2f e13d 59e6 90bd
000000d0: 6188 67bd 16f3 96bd 8e51 8b3b faba b83d
000000e0: cfc1 1ebe f749 75bb 6eac 55bd 8f32 3e3d
000000f0: 53f7 93bd 35c9 853d 89f9 b63c e062 47be
00000100: 9128 463d fdcd 923c ba6d 1cbd 81b7 043e
00000110: 5444 2c3d 7445 7bbd c1c5 a4bd d0bc 2abd
00000120: ad52 083e d46d c2bd 0da4 4bbe b9ae 083d
00000130: e8a7 08bd 9d3c 1bbe da04 a6bd ed66 083c
00000140: c66d 583e fed8 c33d 9341 cbbd 370f 80bd
00000150: 7d53 be3c cc19 913c c2ea 083e 8914 b13d
00000160: 09c9 c53d d894 04bc 60f2 d3bc 1d97 d93d
00000170: be1b a33d b4a6 d23d 1408 dcbd a494 babd
00000180: 15a7 023e 58e6 2fbe d85b 07be 225b e53c
00000190: 18c5 21bd f656 193b dc4d b4bc 0d74 07bd
000001a0: 98fb 5d3d d4d0 88bc 129a fcbd c0cf f4bb
000001b0: 995d b7bd 2d87 05be 487f 9dbe 6b3e 8bbc
000001c0: d313 1a3e 1e36 de3d 68af c9bd 6cee 43bc
000001d0: 9e88 bb3d e53d d73d 141d c53d 17b3 873d
000001e0: 6745 83bd f93c a93d 0018 ab3d 1bf9 343d
000001f0: 25c6 39bd ce8b cebd aea2 993c 3ed2 673c
00000200: 7f10 aa3c 9699 213d de10 aabd 13d4 f83d
00000210: b3bf 5a3d f7a1 0f3e c58a 023e 95fa 01be
00000220: a067 bdbd 709a a8bd 748d 28be 1241 013d
00000230: fa4f 893c b21b 92bd 28a0 0a3e 3dcd 7c3d
00000240: 72f1 7b3b faad 2a3d 10d6 71bd b4a4 21bb
00000250: a09b f93c 6cbb d7bd 9235 193d be52 4abb
00000260: 1d8c 2e3d ba9e 273d 5a01 74be 97f3 35bc
00000270: 13cb cebd d7cb bbbd 79e4 9abd 7723 42bc
00000280: 7031 70bc 4fa4 81bd abce 443e 714f 0bbd
00000290: 2a9d 44ba a7f4 d53d 0550 683e 5e8f b8bc
000002a0: 4ca0 a1bc 24df 413e 075f 9e3d ce05 f9bc
000002b0: 2d84 97bd e377 d53c c85d ed3d 8ba7 c33c
000002c0: e3a1 00be 901c 353d 4de3 b73d 7734 1bbe
000002d0: 4fa7 4c3e 4c4c 803e 82a2 a4bd fdbc 7dbd
000002e0: b7b7 c5bc 4599 c4bd 8fd0 e5bd 112b d7bd
000002f0: 0bb7 07bd f01e 1c3c 4961 393c 0042 8f3d
00000300: 25d3 7abd 8ef0 0fbd 137c fe3c 2eac cabd
00000310: 0536 e9bc 0915 a5bd da20 913d 3b3c 43bc
00000320: 04dc 853c 21d6 38be 1786 203d 2184 f73d
00000330: 2f15 9ebd e1cd 3c3d eeb6 78bc b399 a83b
00000340: 314f 88bd e0ae c0ba e9f3 cabc e063 1ebd
00000350: e3a3 adbd 39e5 aa3d be7b 87bd 626e 5a3d
00000360: a8fd 8dbc 4362 1e3b d765 d73d 5040 cabd
00000370: f9ae 333e 4765 ce3d e2c1 2bbe af88 c6bc
00000380: 7be3 923d 1c91 373d ca60 413c 8b8f f5bd
00000390: adf4 863d c6dd 24be 1639 4abd ab9c a5bd
000003a0: 1565 a7bc a125 e3bd 037c 793d 4a95 2d3d
000003b0: 55cd 92bd 4420 a8bc 113a e33d e370 363c
000003c0: b354 1ebe 7b1a c9bc 2257 63bd 722b 3b3d
000003d0: b797 d13d 0df6 093e c2f7 d1bb f63a ed3d
000003e0: f7ab 4ebe 0afc 31bd 8cf6 45bb 7130 813d
000003f0: 74e3 873d 2f0f 283e a18a 8f3d b2a1 8e3d
-0.025388677 0.07096593 -0.07147617 0.05511433 0.010068876 -0.03048852 0.01327094 0.114815824
0.036198065 -0.05215069 0.05305689 -0.051604036 -0.17586367 0.035824724 0.08848135 0.056702036
-0.06580575 0.064676434 0.021229913 0.006392786 0.051245645 0.049684048 -0.12063181 -0.06742022
0.035028208 -0.13762617 -0.02230103 0.002657117 0.09466456 -0.14084308 0.07857205 0.077528484
0.13163924 -0.050451875 -0.01357978 0.051791813 -0.13991919 0.06618548 -0.008364302 -0.07716673
-0.0934524 0.0879266 0.00029643896 0.050662957 0.12731273 -0.12848455 -0.06059555 0.0035984858
0.11798165 0.027318882 0.10995421 -0.07075185 -0.056526545 -0.07370584 0.0042516654 0.09020038
-0.1550362 -0.003742812 -0.052166395 0.046434935 -0.07224908 0.06532518 0.022335785 -0.19471312
0.04837853 0.017920488 -0.03819058 0.12960626 0.04205735 -0.061345533 -0.08045531 -0.041683972
0.13312788 -0.09493604 -0.19886799 0.033369754 -0.033363253 -0.15159841 -0.08106394 0.008325321
0.21135625 0.09562872 -0.09924617 -0.06252902 0.02323317 0.017712496 0.13370803 0.08646495
0.09657485 -0.008092128 -0.02587241 0.10624526 0.07964276 0.10285702 -0.10743728 -0.09110382
0.12759049 -0.17177713 -0.1321863 0.027997557 -0.039494604 0.002339778 -0.022009782 -0.03306966
0.054195017 -0.01670114 -0.12334074 -0.007471055 -0.08953399 -0.13039847 -0.3076117 -0.016997537
0.15046625 0.10850166 -0.09847909 -0.0119587 0.09156917 0.10509852 0.09624687 0.066259556
-0.06409722 0.08263583 0.08354187 0.044182878 -0.04535498 -0.100852594 0.01875433 0.014149247
0.02075982 0.03945311 -0.083039984 0.12149825 0.053405475 0.14026628 0.12748249 -0.12693246
-0.092482805 -0.082325816 -0.1646021 0.031556197 0.016761769 -0.07134189 0.13537657 0.061719168
0.0038443473 0.041669823 -0.059042037 -0.002466482 0.030469716 -0.10533795 0.037404604 -0.0030872072
0.04261409 0.040922858 -0.2382864 -0.01110544 -0.10097327 -0.09169739 -0.07563109 -0.011849276
-0.014660224 -0.063301675 0.19219463 -0.034011308 -0.0007500226 0.10447054 0.22686775 -0.0225293
-0.019729756 0.18932778 0.07732969 -0.030398276 -0.073982574 0.026058143 0.11590153 0.023883602
-0.12561755 0.044216692 0.08978901 -0.15156732 0.19985698 0.2505821 -0.080388084 -0.06194781
-0.024135454 -0.09599546 -0.1122142 -0.10506261 -0.033133548 0.00952886 0.0113146985 0.069950104
-0.06123652 -0.03514152 0.031065023 -0.09896122 -0.028468141 -0.08060653 0.07086344 -0.0119162155
0.016340263 -0.18050434 0.039190378 0.120857485 -0.07718884 0.04609478 -0.015180333 0.0051452755
-0.066557296 -0.0014700554 -0.024774509 -0.038669467 -0.084785245 0.08344502 -0.06615399 0.053327926
-0.017332867 0.0024167455 0.10517471 -0.09875548 0.17547216 0.10077911 -0.16773179 -0.024235098
0.07172295 0.04481612 0.0118028615 -0.11990269 0.06589637 -0.16100225 -0.049370848 -0.08086523
-0.020433942 -0.110911615 0.060909282 0.0423787 -0.0716807 -0.020523198 0.1109506 0.011135313
-0.15461998 -0.02454876 -0.05550302 0.04569573 0.102340154 0.13472767 -0.006407709 0.115835115
-0.20182787 -0.043453254 -0.0030206768 0.063080676 0.0663518 0.16412042 0.07008863 0.06964435

l1/b f4 [256]
00000000: ea21 8c3c 80d0 b9bd 8785 36bd c258 d63c
00000010: e800 e2bc 41bb a83b 8998 aabb 7707 b1bc
00000020: 31b7 1dbc 4f51 7fbd cacf 64bd 9a46 d1bb
00000030: 84ef 73bc 68c0 60be 4cfb 2a3d b54e 423c
00000040: 2df2 65bd 544f a6bd f91c 2d3d bd2f 07be
00000050: 1a34 2c3d 404d 19be 85d6 273d c485 843d
00000060: 4733 9f3c b3c9 8ebc deaf 1e3d 37ba 65bd
00000070: 1fcc 9abc 90cf 6c3d be09 543d 4dbe 113d
00000080: 4b75 253c 2051 863c 35b6 95bc cafd 5e3c
00000090: 07f6 b4bc 40ce 983c e65e 12be a7d0 cebc
000000a0: e4e1 93bd 0d2d f53c bc97 d23b 0167 bdbd
000000b0: 7361 033d fdaa 80bd ec4c 03bc fa43 b3bd
000000c0: 7316 df3d 3673 463c 368a 133c 1791 55bd
000000d0: 3527 7cbd 2e29 e23c ce6a 42bb 1899 283d
000000e0: a6b7 a1bd 0092 823c 6bd3 5e3c de70 1cbe
000000f0: 22ad 9c3b 72a7 073d 4e2c 043d 4344 1dbe
00000100: 671f dbbb ab3a 7c3c bc4c 3abd 735f 323d
00000110: 300a a7be 261d d3bc e60d 28bb 13bc 5c3d
00000120: 88f0 0f3c 3766 75bc d8b9 cf3c 047f 4c3d
00000130: b49e 783d 5e71 23be cb16 373d 0e1c cebd
00000140: 6b77 113d 1899 17bd 3fec 7ebd cd2e 993d
00000150: 6574 7c3d f245 a53c 2be4 2e3d 9049 1abe
00000160: a371 b63d c046 f4bb 7c83 9abb 0b56 71bc
00000170: bb56 073c f763 4c3d 0fe1 f4bb 4975 0f3c
00000180: c5cd d7bd 01b0 853d 4f8a 523d cdec ff3c
00000190: 7554 4f3d 3695 72bd fedc 58be 1849 323c
000001a0: 832e f93c daa9 b6bc 255f 0d3d 0f09 14bb
000001b0: d1ad 0cbc 026d c73c 4a9a 483d 410e 743d
000001c0: 2bbc a8bd 4215 97bd 1c8c 18bd 6554 bd3d
000001d0: b9f9 2cbd 0ab4 94bd c488 b0bb b27e babd
000001e0: af92 a3bb b703 f43c c368 d73c a64f 5dbd
000001f0: 0c5e dfbd f0fc b03c 9e58 9a3b 238a 1cbe
00000200: 037a 96bd 9e41 9ebd 1a95 13bc 917b d9bd
00000210: 7e96 35bb 1297 b6bc f420 963b 360c 4e3c
00000220: 6398 f8ba 6e41 65bd 2f11 62bc 2f2b 8cbc
00000230: f717 9a3b 662b 0cbd 949f 153d c071 c23c
00000240: b701 5a3d a6fe f23a 11c4 0c3d 8f6a c6bd
00000250: a841 9dbd 87d0 bfbc 93e6 86bd 8730 29bc
00000260: 4530 d7bd 8ef8 5fbc 04c0 023d 7bfe 6ebc
00000270: 7428 21be ba95 08ba a8f8 11be ef22 73bd
00000280: 31cc 18be 1024 4c3c 2c95 283d abfa 413d
00000290: 381c 9e3c 61df 123d 0fd3 153d fb6e aa3c
000002a0: de0f 33bc c95b 0c3d 393d b5bd cc6d 02be
000002b0: 0067 0abc 0b92 523d 3649 c13c 66b6 c2bd
000002c0: d3e5 27bc 0000 0000 c720 b8ba f0f9 4cbc
000002d0: 3a34 593d a4d3 4abe f555 b53b 5203 2abd
000002e0: b8fc 82bc 95fb d33d d76b 14bd 258d 383c
000002f0: a307 2dbd e262 10be 91f1 e2bd 64bb 923d
00000300: 22d2 573d 538b 103a 3eb6 3ebc 6a02 13be
00000310: c017 db3c 4731 8abd 3532 a23c 0692 f43c
00000320: 1185 83bd e8ef ccbd 04ba fc3d 3671 a6bc
00000330: 30ca f0bd 6ea9 1cbd 20fd 9d3c e9d6 543c
00000340: 0811 9d3c 5fae 62bd b5ba 13bc bb92 323d
00000350: 7018 78bb 4f2f 9e3d b4dc 493d 3826 25bd
00000360: 43ab 82bd 8528 8f3b b982 e53c 18eb 953c
00000370: fcba 893c a688 fab9 59ff 3c3d c905 02be
00000380: 0837 72bd 97cb 84bc e580 0bbe ce63 553b
00000390: bc60 0abd 12f5 e43b cc67 b13b 9649 1abc
000003a0: fc72 d4bc b5fa b9b9 7a3c dbbc 71c6 c83b
000003b0: 6e62 25bd c71b e5bc 2abf 153d d61c 6abc
000003c0: cd7a 9d3d e4b1 0c3d 9471 fdbb b404 94bd
000003d0: 3113 1a3d 0cf2 91bd ddba 063d dd95 90bd
000003e0: 1ae5 af3b 0a2c 96bc 8f8a 2fbe f472 8fbd
000003f0: 62cd 863b ac5e 293d 929f b5ba bb12 e43c
0.017106015 -0.09072971 -0.044560935 0.02616537 -0.027588323 0.0051492755 -0.005206172 -0.021610005
-0.009626196 -0.0623334 -0.055862226 -0.00638659 -0.014888648 -0.21948397 0.04174356 0.0118595855
-0.05613916 -0.081205994 0.04226396 -0.13201804 0.042041875 -0.14970875 0.040976066 0.06470826
0.01943363 -0.017430162 0.03874194 -0.05608579 -0.01889616 0.057815135 0.051767103 0.035581876
0.010098766 0.016396105 -0.01827536 0.013610313 -0.022089971 0.018653035 -0.14294013 -0.025245978
-0.072208196 0.029928708 0.0064267796 -0.09248162 0.032075357 -0.062826134 -0.008013945 -0.087532
0.10892954 0.012112429 0.00900512 -0.05214032 -0.06156083 0.027607527 -0.0029665711 0.041161627
-0.07896356 0.015938759 0.013600211 -0.1527743 0.004781381 0.033118673 0.032268815 -0.15358071
-0.006687093 0.015394847 -0.045483336 0.04354806 -0.3262496 -0.025770735 -0.002564305 0.0538903
0.008785374 -0.014977983 0.025357172 0.04992582 0.060698226 -0.15961215 0.04469947 -0.10063945
0.035514276 -0.037011236 -0.06223702 0.0747963 0.06163444 0.020174954 0.042698067 -0.15067124
0.08908393 -0.007454723 -0.004715381 -0.014729987 0.008260424 0.04990002 -0.007473118 0.00875599
-0.10537294 0.06527711 0.051401433 0.031240845 0.050617654 -0.05922433 -0.21178052 0.010881685
0.030417686 -0.022297788 0.034514565 -0.0022588407 -0.008586363 0.024343971 0.048975267 0.059583906
-0.08239015 -0.073771015 -0.037242994 0.092446126 -0.04223034 -0.07260902 -0.0053873975 -0.091061965
-0.0049918513 0.029786928 0.026295071 -0.054031037 -0.1090661 0.021604985 0.004710271 -0.1528707
-0.07347491 -0.07727359 -0.009007717 -0.106192715 -0.0027708109 -0.022288833 0.004581565 0.0125761535
-0.0018966313 -0.0559706 -0.013798042 -0.017110435 0.004702564 -0.034221075 0.03652914 0.02373588
0.05322429 0.0018539026 0.03436667 -0.09688293 -0.076785386 -0.023414863 -0.06586947 -0.010326511
-0.105072536 -0.0136701 0.0319214 -0.01458704 -0.15738088 -0.0005210299 -0.14255011 -0.059359487
-0.14921643 0.01245977 0.041157886 0.047358196 0.019300565 0.035857562 0.036578234 0.020804873
-0.010929076 0.03426722 -0.08849568 -0.12737197 -0.008447409 0.05140881 0.02359448 -0.09507446
-0.010247665 0.0 -0.0014047854 -0.012510762 0.053028323 -0.19807297 0.0055339285 -0.041507073
-0.015989646 0.1035072 -0.036235657 0.01126412 -0.04224361 -0.14100221 -0.110812314 0.07164648
0.052690633 0.0005513925 -0.01164013 -0.1435639 0.026744723 -0.0674768 0.019799331 0.029854786
-0.06421865 -0.10006696 0.12340167 -0.020317655 -0.11757314 -0.03824752 0.019285738 0.012990692
0.01917316 -0.055342074 -0.009016682 0.043596964 -0.0037856363 0.07723867 0.049282745 -0.04031965
-0.06380322 0.004368844 0.028016435 0.018300578 0.016812794 -0.00047785527 0.046141956 -0.1269752
-0.059134513 -0.01621036 -0.13623388 0.003256071 -0.03378366 0.0069872225 0.005413985 -0.009416958
-0.025933735 -0.0003547274 -0.026762236 0.0061271717 -0.040377073 -0.027967347 0.03655926 -0.014289102
0.07689438 0.034349337 -0.007734487 -0.072274595 0.03761596 -0.07126245 0.03289305 -0.07059834
0.005367887 -0.018331546 -0.171427 -0.070043474 0.004113839 0.04135005 -0.001385676 0.027840963

l1/W f4 [256, 16]
00000000: d17c 003f 7c7e b1bd 347c 073e d6ed 2abe
00000010: 5670 083f 302b 7c3c 55f2 8dbf 3f9f 3d3f
00000020: 897e d9be 1ee4 b13e 44d9 763d 7823 57bf
00000030: 4301 5c3e 8a5c 9bbc b5e6 e93e e284 b23e
00000040: ba29 6ebe 877c 163f 083c f8bd 5a47 9d3e
00000050: eea0 2e3f 5003 53be fb65 003f f628 443e
00000060: 83d6 06bf c741 be3e 57cd cf3e 054d 80be
00000070: 6d93 83bd 5791 ee3d 02f7 1ebe ab8a abbe
00000080: ff73 7b3e 0292 b33d 09ae d3bd edc6 6b3e
00000090: 8518 553d b290 15bf 02ed 013e 030e 5a3d
000000a0: cc87 34bf 7f5a ed3e 3e41 61be a37a 2e3e
000000b0: 4f42 053f dbdd 913d 0e97 b93d b7b6 403e
000000c0: f7b4 12bf 102b 403e 86cc e4be a8ee 713e
000000d0: b98f d0be db35 d5be 10a9 a43e 6f3f 6c3f
000000e0: c464 c43e e53a e3be 3796 ba3d eef8 d3bc
000000f0: 6dc8 12be 2ff1 e5be 17d4 143e 163a 0e3f
00000100: 4f9a b0bc 0259 85bd aaac 403f 86eb 973e
00000110: 31b1 383e 395f 0e3e 1aed 403e 7f1c 8b3e
00000120: 404f 9ebe 38ae 41be 6de4 02bf 13b9 17bf
00000130: 5602 273e fe7b fd3d a8cc 06bf 49a7 433e
00000140: 25a5 053f a434 a8be 1ae0 113d cd68 6e3d
00000150: bbdb 0fbe 2743 1dbf e644 8d3e c4fe b3be
00000160: 96d0 9bbd 3b83 62bc eef5 8abe eb0e c0be
00000170: e5c6 c9bd 6fa6 fabd bbb3 afbe 8090 8f3c
00000180: 3587 75bf d7c4 b3be 6b1f d0bd 267e 693e
00000190: 3063 5c3e e3ce e3be 2ecb 0bbe 71c7 85bd
000001a0: 714a 2c3d 0998 3c3f dd43 ee3e 2bbe f0be
000001b0: 08d4 4cbe dc59 c83d cd2e fcbd bfdc d33b
000001c0: f886 1e3d cf89 0c3e 92ec 143f 2795 4cbf
000001d0: d9d4 e73e 371a 9b3e 5cfb e7be 2deb c6bd
000001e0: 35c2 f2be fd37 a13d 6d95 bbbe 47c5 1f3d
000001f0: 4530 f13e 687f f8be c056 0d3e c134 8e3e
00000200: 8482 be3d 4c53 a93e 5bf0 37be 0b72 cc3e
00000210: 0adf 423e 3110 923e ec58 ee3c 72b9 393d
00000220: cc93 2ebd 6303 8fbe 8660 e2be e892 6dbe
00000230: c1e7 24bf 0256 9dbe bcad 09be bc76 0fbd
00000240: a19b af3e 954c c83e 2704 0e3f af84 403d
00000250: aee0 6cbe edbe b3be f8f3 663f 9c03 8abe
00000260: 5fa5 ebbe 3a0a c93e 3f36 17be c5dd f9bd
00000270: 3bbc 68bf e4d2 c2bd 0740 183f 182c 84bd
00000280: 62f4 acbd 5918 9d3e f47d 143e dc35 b0bd
00000290: 3273 4fbf 66ed 313f fb22 c4be 7e87 843e
000002a0: 4e30 463e adff 00bf 8441 bc3e e414 16be
000002b0: acbc 1fbf 3464 bc3e a2c1 a83d d233 113e
000002c0: 9d89 59be acb5 bdbe d166 b43e e59a 1dbf
000002d0: e12c b9be 43ff a6be b498 56bf 0cc4 35bd
000002e0: 674e 6bbe 1c85 1ebf 64e7 163f 6c79 a53e
000002f0: 40c4 73be 62b3 a9be 3068 c6be cd4f 9fbb
00000300: ab59 f3bd 2a0d 723e 85c0 87be 9d08 f93e
00000310: 91d0 29be 52da 20bd e3d8 893e f8ad 0fbf
00000320: 707c debe 64fe 0abf b31c 903e a59c a0be
00000330: 90c3 263d 9e53 5abd 3f91 a8be 0209 2c3f
00000340: fbb1 96bb ef6b 363e 48e0 d2be 228b 113e
00000350: 53e1 553f 6eaa 02be f694 53be 0bd1 6abc
00000360: 0cb7 c23d 57eb 993c 8367 bf3e 11b8 cdbd
00000370: d8fb 383e 54ff 05bd d593 dd3e bbbb 9fbc
00000380: 99d1 16bf d070 83be f126 b83e e87b d4be
00000390: 7929 2ebe 2cd1 623e 6fcd b83b 7035 b1be
000003a0: ff10 b6bc 59cd b9bd 317c d4bd 80ad 66bc
000003b0: c746 79be cf5b 8fbe 0df9 b13e 5bcb 2dbc
000003c0: eccf 3a3e b7ec ccbe 1b8d 793e de27 863c
000003d0: caa6 923e 845f 173f 5ef8 73be 9f96 f63d
000003e0: 3bd5 27be c812 d4be 610c 763e 9e44 893e
000003f0: 9766 0b3e bb51 e93d d28d 3fbe c003 c1be
0.50190455 -0.08666703 0.13230973 -0.1669229 0.5329641 0.015391156 -1.1089579 0.74071115
-0.4247935 0.34744352 0.060265794 -0.84038496 0.21484856 -0.018965025 0.45683828 0.34867007
-0.23258105 0.58783764 -0.12120825 0.307185 0.6821431 -0.20606732 0.5015561 0.1915625
-0.5267107 0.3715956 0.4058635 -0.2505876 -0.064246036 0.11648815 -0.15523914 -0.33504233
0.24555968 0.08768083 -0.10335929 0.23025103 0.052025337 -0.5842391 0.12688068 0.05323602
-0.7051971 0.46358106 -0.21997544 0.1703897 0.52054304 0.07122394 0.090620145 0.188197
-0.5730738 0.18766427 -0.4468729 0.23626196 -0.40734652 -0.4164265 0.32160234 0.9228429
0.38358128 -0.4438087 0.091106825 -0.025875535 -0.14334269 -0.4491057 0.14534031 0.5555738
-0.021557955 -0.065111175 0.75263464 0.29671878 0.18036343 0.13903512 0.18840447 0.27170178
-0.30919838 -0.18914115 -0.511298 -0.59266776 0.16309485 0.12377165 -0.5265603 0.19106783
0.52205116 -0.32852662 0.03561411 0.058205415 -0.14048664 -0.6143059 0.27591628 -0.35155308
-0.07608144 -0.013825233 -0.27140754 -0.37511382 -0.09852389 -0.12238776 -0.3431681 0.017524958
-0.95909435 -0.35111114 -0.101622425 0.22802028 0.21522212 -0.4449378 -0.13651726 -0.06532181
0.04206318 0.7366949 0.4653615 -0.47020087 -0.20002759 0.09782764 -0.12313614 0.006465524
0.038702935 0.13724445 0.5817348 -0.7991509 0.45279577 0.30293438 -0.4530896 -0.09712825
-0.47413793 0.07872007 -0.3663744 0.039006498 0.4710714 -0.48534703 0.13802624 0.27774623
0.09302238 0.33071363 -0.17962782 0.39930758 0.19030395 0.28527978 0.029095136 0.04534287
-0.04262142 -0.2793227 -0.44214267 -0.23200572 -0.6441613 -0.3072968 -0.1344518 -0.035025343
0.34298423 0.39120927 0.55475086 0.047001537 -0.23132583 -0.35106602 0.90216017 -0.2695588
-0.46024606 0.39265615 -0.14766787 -0.12200502 -0.90912217 -0.095128804 0.594727 -0.06453723
-0.0844505 0.30682638 0.14501172 -0.08604023 -0.8103515 0.69502866 -0.38307938 0.25884622
0.19354364 -0.5039013 0.36768734 -0.14656407 -0.62397265 0.367952 0.082400575 0.14179924
-0.21243902 -0.37052667 0.35234693 -0.61564475 -0.36167052 -0.32616624 -0.83826756 -0.044376418
-0.22979127 -0.6192186 0.58946824 0.323192 -0.23805332 -0.3314467 -0.38751364 -0.004861808
-0.11882337 0.23637834 -0.26514068 0.48639384 -0.16583468 -0.039270706 0.26923284 -0.5612483
-0.43454313 -0.5429442 0.28146896 -0.3136951 0.040713847 -0.0533024 -0.32923314 0.67201245
-0.0045988536 0.17814611 -0.41186738 0.14213231 0.8354694 -0.12760326 -0.20662293 -0.014332066
0.0950757 0.018788977 0.3738366 -0.100448735 0.18064821 -0.032714203 0.4327685 -0.019498697
-0.5891357 -0.25672007 0.3596721 -0.41500783 -0.17008008 0.22150105 0.005639724 -0.34611082
-0.022224901 -0.0907237 -0.1037525 -0.014079452 -0.24343406 -0.27999732 0.34760323 -0.010607566
0.18243378 -0.4002435 0.24370234 0.016376432 0.28642875 0.5913012 -0.23825213 0.120404474
-0.16389935 -0.4142058 0.2402816 0.26810163 0.13613354 0.11392542 -0.18706444 -0.37698174

l4/b f4 [16]
00000000: 3824 8f3d 33b0 88ba 628b 893c cebc d63d
00000010: 4104 993d 15c6 71bc 2362 34bd 844d 813d
00000020: a0ff a93d 81e7 b03c 2b44 0abd 1541 d13d
00000030: 0de4 673d 1a9c 0d3d 0d85 873d cd48 ca3d
0.0698933 -0.0010428488 0.016790096 0.104852304 0.074715145 -0.014756699 -0.044038903 0.06313613
0.0830071 0.021594765 -0.033756416 0.102174915 0.05661397 0.0345727 0.06617174 0.09877167

l4/W f4 [16, 256]
00000000: 6402 51bd 304c 103c 8914 d93b 605a fd3c
00000010: 58f2 903c ec7c 583e 4f6b 8f3d bfa3 a1bc
00000020: 2541 c7bd d9d6 9fbe 7995 e73d 4862 5ebe
00000030: ee55 053d a7ee 9e3d acb8 b1bc 053f 983d
00000040: 2637 113e ea63 073d 82ae 1bbe d86e 673d
00000050: af6e 643d 77bc a53d 91b3 3b3e f008 11be
00000060: a8c1 df3d 1e96 34be 76af bfbd 7ea5 713e
00000070: c325 40be 7d87 6fbd dccd 69bd cb7b d33d
00000080: 6a76 e83d 3a6e acbd 5502 873e 9495 46bd
00000090: e536 c93d 730f 333e 868f 5bbe efcd 393c
000000a0: 6338 0fbe eb89 9fbb f00f 2e3d 1212 823c
000000b0: 81ff 9abb c2d3 713e e9ff d43c 657a e2bd
000000c0: ae02 153e 831b b63c 76e6 04bd eac9 f33d
000000d0: 5aa9 8a3d f0ba 0f3e bc82 883d eff6 8f3d
000000e0: 19a5 80bd f9fc 593e 3166 3abe b1a0 ee3d
000000f0: dc80 383d 20e4 6c3e 7f09 b23d b9b3 d63b
00000100: c0e6 12bd cd3d adbe 2ad4 d53d 0160 fe3c
00000110: 4934 bbbb 33d1 0a3e fc6d e8ba c48d 9dbd
00000120: 40d4 00be 75b4 aebc 6587 81be 7b14 53bd
00000130: 639c 3c3d 1e42 90bd f8a2 183d 91c1 3bbe
00000140: b4a2 09bd 7e49 433d d453 1abe 262e 333e
00000150: 26c6 e63d 2b71 54be 13c7 4abe 6f86 93be
00000160: d276 1dbd f0e6 833e 38f9 0dbe cc32 173d
00000170: 4ea3 053d 09e4 0cbd 0c44 2bbc b98a 2a3d
00000180: 0ecb c6bd 6fd4 703d 11af 0abe 4993 923c
00000190: 9f36 bcbd 4c08 41bd 7313 7e3d 5638 9bbd
000001a0: cc28 233e f57a 88bd b23b 883d 56db 8abd
000001b0: 18a1 38be 1659 a43e 410b 223e 0b60 1fbe
000001c0: 1155 013e bdca 94bd eed1 543e 40dd bd3c
000001d0: be12 68bd 4e09 48be a48c b63d b12d 423e
000001e0: 5dfe 9e3d 3085 0e3e d74d 7c3e 2cfb fc3d
000001f0: 7d32 babd d1a8 a539 b161 b0be 181b 1bbe
00000200: abfb 5d3e 2985 4cbd d840 bb3d be72 97bd
00000210: 846d cb3d f044 6f3e 56c0 8bbd cb57 603d
00000220: efef 26be 6ecd 03be 7d4c 923d 5d0f b7be
00000230: 6e05 49be 58f6 273d 1827 163e ae16 493e
00000240: cbbe 523d 737f 30be 239f 72bd b05e 80be
00000250: 17f9 a03d 4429 6bbd 4885 87bd 80a0 473d
00000260: db8a c5be 4ee5 7e3c 42cd 3a3e 13b9 a1be
00000270: 7360 4ebe 6aa5 43bd 91d1 623e 87e7 0b3d
00000280: abeb 7bbd e056 8c3c 5f83 303d 8b16 e03d
00000290: ae26 be3b 02b9 1bbe 0c25 0e3e 08ef f63d
000002a0: f9e6 c43d acab 823e 6c2f 74bd ec9d 933d
000002b0: 44f5 153c 970b 5bbc 7724 163d 7650 99be
000002c0: 8838 0a3d d046 33bd acb9 c3bc fc06 f03d
000002d0: 5b01 323e b707 753e 7d47 f1bd a0c4 1f3e
000002e0: 4d18 19bd ba0c f73d 9477 dabd 4bc3 903c
000002f0: 60d1 34be 2881 a03e 286f 553e 8d05 d2bd
00000300: 15c0 b63e 8fa7 a13d 5496 483c c19e afbc
00000310: edd7 47bd ad73 793e 58bc 96bd f66d 71be
00000320: 2f00 9f3d c031 06be 548d 833d 0aec 61be
00000330: 760c 043d b219 19bd da2c 8ebd 9d43 52be
00000340: 6697 5b3c c113 84be fb37 603e 4d3e edbd
00000350: 9433 08be 1a64 0d3d 9360 433e 7d5e a33d
00000360: f017 f5bd 7e5b 373e 4a7f 023e d22d 12bd
00000370: 5f5a 28bd dfe4 00bd 25ce 0bbe a6a6 e3bb
00000380: 5f46 9f3e deab 20be 5e3f ccbc 18d6 0cbe
00000390: 208d 0b3e 38ab 483d dc69 fb3d 3691 41be
000003a0: 1144 c7bc 67ed 08bd f79e 3bbc 1c30 1dbe
000003b0: a0fe 3fbe cf22 b53b 9b2a 8fbb 42d1 963e
000003c0: 1035 8abd 7de3 87bd 8361 e2bc 812d d93c
000003d0: d632 a6bb 0336 3e3d 0cad 923d 1924 093d
000003e0: 2f79 3fba d09c 0c3e 9ee0 96bc 1840 103d
000003f0: e2fc a2bd 1e0a 8c3c 363d 91bd f704 c23d
-0.05102767 0.008807227 0.0066247624 0.030926883 0.017693684 0.21141404 0.07002889 -0.0197314
-0.09729222 -0.31218603 0.113078065 -0.21717179 0.032552652 0.07760363 -0.021694504 0.07433895
0.14181194 0.03305427 -0.15203288 0.056502193 0.05576962 0.080925874 0.18330218 -0.14163566
0.10925609 -0.1763539 -0.093596384 0.23598287 -0.18764405 -0.05847882 -0.05708109 0.10326346
0.11350711 -0.084194615 0.26368967 -0.048482493 0.098249234 0.17486362 -0.21441469 0.011340602
-0.13986354 -0.004868736 0.042495668 0.015877757 -0.0047301655 0.23615935 0.026000934 -0.11058501
0.14551803 0.022229915 -0.032446347 0.119037464 0.067705825 0.14036155 0.066655606 0.07029521
-0.0628149 0.21287908 -0.18203045 0.11651743 0.045044765 0.23133898 0.086932175 0.0065521863
-0.03586459 -0.33836213 0.10440858 0.031051638 -0.00571302 0.13556366 -0.0017732973 -0.07693055
-0.12580967 -0.021326283 -0.2529861 -0.051533204 0.04604758 -0.07043861 0.037264794 -0.18335558
-0.03360243 0.04767751 -0.1507104 0.17498073 0.112682626 -0.20746295 -0.19802503 -0.28813502
-0.038443394 0.2576213 -0.138646 0.036913678 0.032626443 -0.03439716 -0.010453235 0.041636202
-0.09706698 0.058796342 -0.13543345 0.017892497 -0.09190106 -0.047127053 0.062030267 -0.075791046
0.15933532 -0.06664077 0.06652011 -0.06780116 -0.18030202 0.32099217 0.15824606 -0.15563981
0.12630107 -0.07265232 0.20783207 0.02317679 -0.0566585 -0.195348 0.08913544 0.18962742
0.0776336 0.13917994 0.24639069 0.12352595 -0.09091661 0.0003159703 -0.34449533 -0.15147054
0.21678035 -0.04993168 0.09143227 -0.07394932 0.09932998 0.23366141 -0.068237945 0.054771226
-0.16302465 -0.12871334 0.07143495 -0.3575391 -0.19630978 0.041006416 0.1466335 0.19637558
0.051451486 -0.17236118 -0.059233796 -0.2507224 0.0786001 -0.0574124 -0.06617218 0.04873705
-0.385825 0.0155576 0.18242362 -0.31586513 -0.2015398 -0.047765173 0.22150256 0.03415635
-0.061504047 0.017131269 0.043094035 0.109418 0.005802951 -0.15207294 0.1388132 0.1205731
0.09614367 0.255216 -0.059615538 0.072078556 0.009152714 -0.013369462 0.03665587 -0.299442
0.03374532 -0.043768704 -0.023892246 0.11720082 0.1738333 0.23928724 -0.117812134 0.1560235
-0.03737669 0.12062974 -0.10667339 0.017671248 -0.17657995 0.31348538 0.20843184 -0.10254965
0.35693422 0.078932874 0.012242872 -0.021438004 -0.048789907 0.24360533 -0.073601425 -0.23577103
0.07763707 -0.13104916 0.064234406 -0.22062698 0.032238446 -0.03737802 -0.069421485 -0.20533605
0.013402795 -0.2579632 0.21896355 -0.115841486 -0.13300925 0.034519292 0.19079809 0.079770066
-0.11967456 0.17905995 0.1274387 -0.03568823 -0.04110181 -0.03146827 -0.13652857 -0.0069473563
0.31108376 -0.15690562 -0.02493256 -0.13753545 0.13628054 0.048991412 0.122760504 -0.1890305
-0.024324449 -0.03342953 -0.011451474 -0.15350384 -0.18749475 0.005527831 -0.0043690926 0.29456526
-0.06748402 -0.06635187 -0.027634388 0.026510956 -0.005071978 0.04643823 0.07161912 0.03348169
-0.00073041295 0.13731694 -0.018417653 0.035217375 -0.0795839 0.017094668 -0.07091753 0.09473603
