static/ai/8/agent_white_85000/target_model.npz (npz, 609243 bytes, 8 tensors)

l2/W f4 [256, 256]
000000 1a cb e7 c0 17 e6 84 bf e7 a2 31 41 2e 9b fc c1
       -7.2435427 -1.0382718 11.102271 -31.575771
000010 a3 4b e2 bf 85 b7 25 41 a7 ff 11 c1 42 e7 97 c1
       -1.7679332 10.357305 -9.124915 -18.987919
000020 29 cf 81 c1 ef 41 04 41 27 10 fc 40 a9 eb ad c1
       -16.226152 8.266097 7.8769717 -21.740068
000030 46 8d 4b c1 ee 3c b6 40 8f 20 54 c2 b3 a4 a5 bf
       -12.721991 5.6949377 -53.031796 -1.2940887
000040 46 d3 78 40 7b e1 89 40 81 02 56 40 66 26 21 41
       3.887895 4.3087745 3.3439028 10.071875
000050 bc 39 ec c1 b0 be 24 c1 a6 aa e8 c0 e2 a1 b3 c1
       -29.52819 -10.296555 -7.270831 -22.454044
000060 c1 ea b5 c0 d6 28 0e c1 c1 46 7b c0 36 45 7c bf
       -5.6849065 -8.88497 -3.9261935 -0.9854311
000070 ae 8d 27 c2 38 03 61 41 e1 a0 00 40 ce 70 8a c1
       -41.88836 14.063286 2.0098193 -17.30508
000080 51 3f 2d 40 f3 3d df c0 e8 c2 1f c1 63 25 91 c1
       2.7069895 -6.976312 -9.985085 -18.143255
000090 da c6 10 c1 76 c1 c5 c0 6e 43 8c 41 5b 5e b2 c0
       -9.048548 -6.179866 17.532925 -5.574018
0000a0 31 6c 57 c1 97 dc 17 c1 a2 e5 13 bf 41 0b 93 c1
       -13.463914 -9.491355 -0.57772267 -18.380495
0000b0 b3 97 27 c1 c0 f8 8a c1 b6 ef d9 40 c8 6c 83 c1
       -10.474536 -17.37146 6.8105116 -16.428116
0000c0 7d f2 b5 bf 01 b9 0f c2 58 d5 74 c1 8f be c0 3f
       -1.4214627 -35.930668 -15.302086 1.5058154
0000d0 d6 0d b0 40 4a 94 c5 40 9e c4 bb c1 b3 a0 2f 41
       5.501689 6.1743517 -23.471004 10.976733
0000e0 d2 84 e0 40 c4 7b 97 c1 32 03 50 c1 cf 0f 40 c1
       7.0162134 -18.935432 -13.00078 -12.0038595
0000f0 bb 4d 44 c1 49 14 d3 c1 0e 1f 95 c1 a9 43 ac c1
       -12.268977 -26.384905 -18.640163 -21.533037
000100 e4 fd d9 c0 7d 85 bd c1 a1 81 49 c1 87 ad 58 40
       -6.8122425 -23.69018 -12.594148 3.3855913
000110 be ce fa bf fb 5a 53 c0 8d 2a ba c1 66 e7 8d c1
       -1.9594343 -3.302428 -23.270777 -17.737988
000120 3a 42 3d bf a5 4e 2e 41 00 26 19 41 80 ff 45 c1
       -0.7392918 10.8942 9.571777 -12.374878
000130 0a 81 38 3f bb d1 b9 c0 26 79 04 c2 86 b2 14 c1
       0.720719 -5.806852 -33.11831 -9.293585
000140 73 76 2a c1 35 9f 2b 41 25 1c b7 41 a1 22 7c c1
       -10.653918 10.726369 22.888742 -15.758454
000150 53 9e dc c0 56 3e 76 c1 e5 53 87 41 f3 f7 19 c1
       -6.8943267 -15.390219 16.915964 -9.6230345
000160 00 8b 97 c1 0b 1a c7 bf c6 cf 80 c1 d1 de 6c c0
       -18.942871 -1.5554823 -16.101452 -3.7010996
000170 c9 43 2c c0 30 de e0 40 8c 72 58 c1 53 b1 62 c1
       -2.6916373 7.0271225 -13.527966 -14.168292
000180 c2 3f ee c1 77 9a 30 c1 ba 43 03 c0 58 6b 85 40
       -29.781132 -11.037711 -2.0510087 4.1693535
000190 31 4c 42 c2 d9 e2 88 c0 e8 4b 72 41 f8 2e 36 c1
       -48.574406 -4.2776914 15.143532 -11.386467
0001a0 9d 66 89 c0 53 c6 c5 41 42 76 a0 c1 27 74 fd bf
       -4.293776 24.721838 -20.057743 -1.9801072
0001b0 fa d9 cf c0 7d 64 05 41 3a a5 9e c1 51 45 e0 40
       -6.4953585 8.337033 -19.830677 7.0084615
0001c0 81 26 a6 c1 7b 1f 90 c1 a8 bd e6 c1 82 75 c9 c0
       -20.7688 -18.015371 -28.842606 -6.295594
0001d0 8b 44 43 c2 8a e9 0b c2 01 d6 b4 c1 d5 fd 29 c0
       -48.816936 -34.978065 -22.604494 -2.6561177
0001e0 ff a9 92 be 53 76 b7 c1 8b 31 6f 40 3a b3 b9 c1
       -0.28645322 -22.932775 3.7373989 -23.212513
0001f0 37 64 fe c1 ee 57 4d be d1 88 25 c1 09 5c 21 3f
       -31.798933 -0.20053074 -10.345902 0.6303106
000200 e4 67 ef 3e 48 a8 1e c2 ee 6a dd c1 ff f4 bb c1
       0.4675895 -39.664337 -27.677212 -23.494627
000210 ff e7 49 c1 6e 5f de c1 22 60 81 c1 aa 14 7d 41
       -12.61914 -27.796597 -16.17194 15.817545
000220 69 fe b1 41 1c eb 12 c0 be 6b 64 41 c0 31 85 40
       22.249224 -2.2956 14.276304 4.162323
000230 4a 5c 48 41 c9 fd 85 c1 18 88 4e c0 15 84 ec c0
       12.5225315 -16.748919 -3.2270565 -7.3911233
000240 81 ee 6a 41 b6 83 8f c1 6f 31 ca c1 76 0c 8a 40
       14.6832285 -17.939312 -25.274137 4.314021
000250 79 48 22 41 75 14 86 41 c9 c9 10 c0 3f 5a 26 41
       10.1426935 16.759989 -2.262316 10.397033
000260 5e df 45 3f 57 f5 c9 c0 06 ad 40 41 f3 1c e9 c1
       0.77293956 -6.3111987 12.042242 -29.139135
000270 3c 30 ff c0 36 e9 ac c0 3b f9 dc bf 01 37 3a c1
       -7.974638 -5.403468 -1.7263559 -11.638429
000280 fb 5a d0 c1 62 f2 ec c0 7a e5 6d 40 7b af 97 40
       -26.044424 -7.4045877 3.7171311 4.740171
000290 0d 70 23 c1 fb 40 54 40 79 17 98 c1 22 c9 91 41
       -10.214856 3.316466 -19.011461 18.22321
0002a0 51 2d 87 41 bd 46 0e c2 6f ef f4 c1 07 59 e6 c1
       16.897127 -35.56908 -30.61691 -28.79347
0002b0 85 52 79 c1 f9 12 98 40 6b 5e d8 c1 5b a5 93 c1
       -15.582646 4.752316 -27.046103 -18.45574
0002c0 eb ae f7 3f 3b cb 3a c1 03 89 a0 c1 25 c5 4a c1
       1.9350256 -11.674617 -20.0669 -12.673131
0002d0 d5 79 44 41 0f 7e f5 c1 35 cf 4a c0 15 f1 b2 c0
       12.279744 -30.686552 -3.168897 -5.591929
0002e0 ea 07 0b c1 8e 46 2e 41 60 f8 cb c1 e8 58 6d c1
       -8.689432 10.892225 -25.496277 -14.834206
0002f0 78 3b e4 c1 4b 59 ce c1 d6 17 f2 c1 fc cd 7c c1
       -28.529037 -25.7936 -30.261639 -15.800289
000300 2b 3e 0f c1 15 89 50 41 c3 af 09 c2 af 45 eb c1
       -8.952678 13.033467 -34.421642 -29.409025
000310 95 e5 17 41 82 9a 72 41 ef cb da c1 cd 3b 00 c2
       9.49355 15.162722 -27.349577 -32.0584
000320 7b 43 03 c2 23 4e fc c1 ed fd e4 41 88 22 0b c0
       -32.8159 -31.538153 28.623987 -2.1739826
000330 84 da de bf 21 ad 24 41 9e a0 42 c1 81 4c 51 c0
       -1.7410436 10.292268 -12.164213 -3.2702944
000340 3d 9a 04 c2 a3 da ee c1 47 ce 82 c1 18 b7 78 41
       -33.150623 -29.856756 -16.350721 15.544701
000350 17 1f 48 40 5d 3b fb bd ea 48 06 c2 64 6b dd bf
       3.1268976 -0.12267182 -33.571205 -1.7298398
000360 2a d0 b9 c0 fa ea 29 c2 58 e3 09 c0 b3 03 92 c1
       -5.8066607 -42.47947 -2.154501 -18.251806
000370 7f 5f cd c0 9b 98 17 c2 53 af 10 c0 b9 ae 9e 40
       -6.417907 -37.89903 -2.260701 4.9588284
000380 ea 62 ae 41 3d 59 a7 c1 cc b7 98 c1 fb bf 25 c1
       21.798298 -20.918573 -19.089745 -10.35937
000390 93 59 2e c0 86 c0 6b 40 23 bc 43 40 fd 20 62 c1
       -2.7242172 3.6836257 3.058358 -14.133054
0003a0 d5 76 10 c1 0a 96 e1 40 9d b8 97 40 58 7f 2e 41
       -9.029012 7.0495653 4.741286 10.90609
0003b0 56 79 54 c0 75 2b ef c1 3c bb 29 c1 70 b9 b3 c1
       -3.3199058 -29.89622 -10.6082115 -22.465546
0003c0 97 7c 9f c0 d9 f6 ab c1 fc 5c b2 c0 45 7a e1 c0
       -4.9839587 -21.495531 -5.5738506 -7.0461755
0003d0 92 01 cb 40 df 6e dd 40 d9 09 19 c1 75 5c 9e c1
       6.3439417 6.919784 -9.564904 -19.795145
0003e0 92 b4 30 41 81 90 47 41 23 5f 08 c0 68 97 63 c2
       11.044085 12.472779 -2.1308067 -56.897858
0003f0 30 9d 91 c1 6c 33 97 41 e9 15 f3 c1 c0 93 af 40
       -18.201752 18.900108 -30.385698 5.486786

l2/b f4 [256]
000000 41 d7 fb 40 b4 8b 27 41 bf dd 34 40 46 8e 6c 41
       7.870026 10.471607 2.8260343 14.784735
000010 78 98 c9 3d c3 b6 63 40 6e a0 34 bf d5 82 ac 40
       0.09843534 3.55803 -0.70557296 5.3909707
000020 72 0e c9 40 33 61 7c 40 7a f7 56 41 07 f1 81 3f
       6.2830133 3.9434326 13.435419 1.0151681
000030 65 d9 a6 40 7c bd 2f be e8 95 02 41 3c e3 03 c0
       5.2140374 -0.17162126 8.161598 -2.0607443
000040 35 20 4b 40 07 e4 0f c1 47 8c a8 c0 df 84 05 c1
       3.1738408 -8.993171 -5.2671237 -8.344939
000050 5d 87 50 41 8a 63 8a 41 af 96 32 41 a8 a0 3a 41
       13.033048 17.298603 11.161788 11.664223
000060 79 87 1b bd 59 3c 8f 41 97 12 97 41 0f 3d aa 41
       -0.037970994 17.904467 18.884077 21.279814
000070 50 de 5a 41 3c d5 bd bf 69 e4 a0 3e 22 b4 9a 41
       13.6792755 -1.4830699 0.31424263 19.337955
000080 6f 44 94 c0 bf ab cb 41 0a 09 56 41 70 4d e7 40
       -4.6333537 25.45886 13.377207 7.228203
000090 65 8b 24 41 9a b8 2c 3f 6b 7e d2 3f 4a 9f 3a 40
       10.284032 0.6746918 1.644483 2.9159722
0000a0 15 9e 4f 41 a8 2e 1b 41 34 b3 0b 41 a8 dc 9f 3f
       12.976094 9.698891 8.731251 1.2489214
0000b0 16 68 02 41 f4 24 8e 41 0a 5b 40 41 52 1e 18 41
       8.150412 17.768044 12.022226 9.507402
0000c0 0e 2c cb c0 24 37 01 41 9e 8a 6b 41 12 d9 74 c0
       -6.349128 8.075962 14.721342 -3.825749
0000d0 2f ff 58 bf 31 8c 39 bf 6d be 42 41 e2 8e 6b 41
       -0.8476438 -0.7247954 12.171491 14.7223835
0000e0 af bd 6d 41 69 b6 4a 40 eb 87 7d 41 68 55 22 41
       14.858809 3.1673834 15.845683 10.145851
0000f0 55 0b 75 40 d8 e5 ab 40 05 10 03 40 bf df 8a 3f
       3.8288167 5.371807 2.0478528 1.0849532
000100 77 7e 41 41 d7 9c f6 c0 07 ab ac c0 06 f5 f8 40
       12.093375 -7.7066455 -5.3958774 7.77991
000110 b0 7a c5 3f 91 63 02 c0 d6 44 ec 40 8c c7 f1 c0
       1.5428066 -2.037327 7.383403 -7.5556087
000120 d4 9a 51 40 00 b2 81 be 00 04 b4 3f 25 ac ee 40
       3.275075 -0.25331116 1.4063721 7.4585137
000130 a3 1c fb 40 31 8b 1f 41 75 98 bd c0 a3 45 1e 41
       7.8472457 9.971482 -5.9248605 9.892001
000140 79 f8 4c 40 5f bc 3c 3f 36 f6 6f c0 7a f7 8c bf
       3.2026656 0.7372493 -3.7494025 -1.1013024
000150 cd ec 4a c0 b5 1e 54 41 8d b7 b3 3e 31 d4 4e 41
       -3.1707032 13.257497 0.35100976 12.926805
000160 46 50 4e 41 e2 a3 aa 3e f1 bc 34 41 f5 3f a7 40
       12.894598 0.33328158 11.296128 5.2265573
000170 c3 c5 77 41 3d bc 17 41 46 00 3d 41 c2 49 4b 41
       15.485782 9.483457 11.812567 12.705507
000180 85 c6 06 40 2c 50 ba 40 41 63 45 40 aa cf 16 c1
       2.1058667 5.8222866 3.084183 -9.425699
000190 24 11 5c 41 e8 12 63 c0 b8 b7 73 40 7d 76 2f 41
       13.754185 -3.548029 3.8080883 10.966428
0001a0 51 49 8c 41 04 0a 8d 41 93 a0 89 40 4b e4 2c 41
       17.535799 17.62989 4.3008513 10.805736
0001b0 61 29 4a bf e3 c3 5c 41 c2 60 10 41 74 c3 6e c0
       -0.7896939 13.797824 9.0236225 -3.7306795
0001c0 8c 81 96 c0 c5 14 67 41 02 cf f1 be db 37 27 41
       -4.703314 14.442571 -0.47228247 10.451137
0001d0 a0 95 02 41 26 01 b0 c0 83 eb 3e 41 83 b3 9b be
       8.16153 -5.50014 11.932498 -0.30410394
0001e0 ab d7 96 40 5b a1 32 41 4f a4 34 40 15 24 a2 3f
       4.7138267 11.164393 2.8225286 1.2667261
0001f0 de 85 13 c1 ac 11 26 41 4b 9f 1c 41 a9 70 8d c0
       -9.220182 10.379314 9.78889 -4.4200025
000200 3b 02 9c 40 bf bd ac 40 88 1b 08 bf af ce ec 3f
       4.8752723 5.3981624 -0.5316701 1.8500575
000210 b2 22 c0 40 5f 39 75 41 24 67 30 40 67 5b 4a 41
       6.0042353 15.326507 2.7562952 12.647315
000220 4e 58 69 41 96 e3 52 c0 01 6f 59 3e cd 15 b1 c0
       14.584059 -3.2951407 0.21233751 -5.533911
000230 d6 36 3b 41 6c a3 23 41 55 06 a2 40 e0 22 9e c0
       11.700888 10.227398 5.063273 -4.941757
000240 b3 cd 3f c0 9e 41 1e 41 d8 a1 56 41 8f 4d 03 c1
       -2.99693 9.89102 13.414513 -8.206435
000250 a3 b5 8d bf 37 80 08 c1 08 fb 7b 40 77 fb 1d 41
       -1.1071056 -8.531302 3.9371967 9.873893
000260 8a b7 36 41 03 13 6d 3d 83 82 cb 40 09 a3 74 41
       11.419809 0.05787946 6.3596816 15.2898035
000270 eb ab ef 40 10 0c 51 40 fc d0 94 40 94 2f 05 41
       7.489736 3.2663612 4.650511 8.324116
000280 ea b2 15 bf d2 8d 4a 41 87 6b 2d bf ed 20 05 41
       -0.58476126 12.659624 -0.677422 8.3205385
000290 4b 9c 91 3e fc de 31 41 45 00 90 41 67 49 05 c1
       0.28439555 11.11694 18.000132 -8.3304205
0002a0 0e 25 56 41 d9 2d ad c0 ea af af 40 50 0e 19 41
       13.384047 -5.4118466 5.490224 9.565994
0002b0 75 37 3b 41 e1 be ad 3f b7 ed 33 41 46 18 b8 41
       11.701039 1.3573877 11.245536 23.011852
0002c0 40 7a 14 40 a9 2d b0 c0 58 fc 9b 41 8c 4f a0 c0
       2.3199615 -5.5055737 19.498215 -5.0097103
0002d0 7f 83 0c c0 fb ff a6 3f 29 54 19 3f e8 b6 37 41
       -2.195526 1.3046869 0.59894043 11.482155
0002e0 1c ce 50 41 28 cc 5b c1 18 61 7a 41 2b ac 4b 41
       13.05032 -13.737343 15.648705 12.729533
0002f0 46 6f 73 3f f5 a8 08 41 54 60 f9 40 2f f1 06 c0
       0.95091665 8.541249 7.793009 -2.1084707
000300 a2 c5 2a 41 a1 13 97 c0 df 72 20 41 4f e7 3d 41
       10.67325 -4.721146 10.028045 11.868972
000310 f1 89 58 3f 96 1d cc 40 cb 5e 62 41 2a 24 1d 3f
       0.8458548 6.3786116 14.148143 0.61383307
000320 3e 75 f2 bf b3 04 bd 40 19 9b 0b 40 df 2e 46 41
       -1.894203 5.9068236 2.1813414 12.386443
000330 e5 7d c6 40 36 52 b6 40 ed ee c2 40 70 ef 55 c0
       6.202868 5.6975355 6.0916657 -3.342739
000340 89 b3 ef 40 5e 4c 1b bf ae 0a af bf 1e 59 0b 40
       7.490666 -0.606634 -1.3675134 2.1773143
000350 75 b3 ab 3e e1 13 80 bd 5a d0 48 41 67 7d 4b 41
       0.33535352 -0.062537916 12.550867 12.718116
000360 14 b4 35 3e 6a 04 09 c0 91 7b 17 40 bc de 9a 40
       0.17744476 -2.1408944 2.366917 4.8396893
000370 9b 11 61 41 1b 43 7e 41 a3 06 4a 41 93 7b de bf
       14.066798 15.891383 12.62662 -1.7381462
000380 a5 51 22 40 fa d8 51 c0 1c 03 87 41 37 81 46 41
       2.5362332 -3.2788682 16.876518 12.406547
000390 57 89 24 41 38 83 cf 3d 54 42 87 c0 b4 0d 0b 41
       10.28353 0.1013245 -4.2268467 8.6908455
0003a0 7c b3 38 41 a7 a4 ec bf 86 cd 92 40 c9 23 0d 40
       11.543819 -1.8487748 4.5875883 2.2053092
0003b0 5e 4a 14 41 68 52 da 40 5f 8f 1f 41 5d 46 24 41
       9.268156 6.8225594 9.972503 10.267179
0003c0 c0 14 aa 40 4e 7a 3e 41 cd 38 5d 41 e6 eb 0d 3f
       5.315033 11.90486 13.826367 0.5543808
0003d0 05 d8 49 41 52 1f 9c 40 27 c1 65 41 11 47 78 3f
       12.615239 4.8788233 14.359656 0.9698344
0003e0 ca 6c 4e 41 0e 78 2d 40 6b 34 d8 be 84 ff 31 41
       12.90156 2.7104526 -0.42227492 11.124882
0003f0 f2 cd 35 41 fc 8d a0 41 f5 34 94 41 1b 86 1f 41
       11.36278 20.069328 18.525858 9.970241

l4/W f4 [64, 256]
000000 1b 77 47 42 f3 f8 20 42 13 19 12 42 ce 36 5c 42
       49.866314 40.243114 36.524487 55.05352
000010 6c 7f f7 41 41 2d 51 42 8b 0b 25 42 24 16 1b 42
       30.937218 52.294193 41.261272 38.77162
000020 55 e5 f7 41 18 e7 40 42 bf a2 19 42 62 f3 5f 41
       30.986979 48.225677 38.40893 13.99692
000030 01 96 ed 41 62 e4 18 42 f2 cd 6b 42 d0 20 13 42
       29.698244 38.22303 58.95112 36.782043
000040 de 42 26 42 0a 7a 27 42 7f dc 24 42 40 49 2b 42
       41.5653 41.86918 41.21533 42.821533
000050 0b d3 0d 41 de 0e d1 41 28 1e 13 42 16 a6 44 42
       8.864024 26.13226 36.77945 49.162193
000060 4f c3 5c 42 d6 72 51 42 07 e5 46 42 ea 60 22 42
       55.19073 52.362144 49.72366 40.594643
000070 f0 36 32 42 0e 9e 51 42 0f 11 57 42 c0 ef b8 41
       44.55365 52.40435 53.76666 23.117065
000080 cd 46 47 42 e0 c5 18 42 00 55 72 42 22 3b 29 42
       49.81914 38.193237 60.583008 42.307747
000090 c8 c7 41 42 9f 46 3e 42 03 ac 31 42 b8 54 f0 41
       48.4451 47.568966 44.41798 30.041367
0000a0 33 7d a6 41 00 75 5c 42 26 2e 31 42 53 ad 76 42
       20.811132 55.114258 44.295067 61.669262
0000b0 db 13 33 42 5a cf 53 42 4b 7e 15 42 bd 11 12 42
       44.76939 52.95249 37.373333 36.517323
0000c0 f7 c5 37 42 a1 39 43 42 a7 a9 2e 42 66 9d 16 42
       45.943325 48.80628 43.665676 37.65371
0000d0 a9 a0 5d 42 24 cc 4d 42 6c cf 2d 42 34 aa 58 42
       55.406895 51.449356 43.45256 54.166214
0000e0 46 02 30 42 0b db 4e 42 05 b8 36 42 a1 32 0f 42
       44.00222 51.71391 45.679707 35.799442
0000f0 80 d5 4f 42 46 3e 37 42 19 92 36 42 8d e0 f1 41
       51.958496 45.810814 45.642673 30.234644
000100 b3 37 83 41 93 84 45 42 0b 7c 08 42 5d bb 53 42
       16.402197 49.379467 34.121136 52.932972
000110 ed 8e 32 42 b6 2b 67 42 ee 9b 13 42 0c d5 cd 41
       44.639576 57.792686 36.902275 25.729027
000120 74 24 35 42 94 0d 2e 42 23 ea 28 42 cc e9 7f 42
       45.2856 43.51326 42.22865 63.978317
000130 89 d3 08 42 b1 37 42 42 9d d7 17 42 bc fd 4e 42
       34.206577 48.554386 37.96056 51.747787
000140 f7 9f 1d 42 d0 f6 73 42 4d 86 21 42 2e 40 45 42
       39.406216 60.991028 40.381153 49.312675
000150 91 c0 ec 41 05 f7 d0 41 50 e4 5f 42 19 02 63 41
       29.594027 26.120615 55.97296 14.188012
000160 a9 a7 28 42 b3 71 42 42 1e 9a 38 42 39 8d 17 42
       42.16373 48.611034 46.150505 37.887913
000170 3b 10 4a 42 7b 24 10 42 d1 b7 5b 42 7c dc 13 42
       50.51585 36.035625 54.92951 36.965317
000180 c3 21 07 42 c1 51 2f 42 d8 0d 4a 42 dd c7 17 42
       33.78297 43.829838 50.51352 37.94518
000190 9f 08 09 42 8d a6 19 42 30 f4 23 42 1c 88 34 42
       34.25842 38.412647 40.988464 45.13292
0001a0 1b a7 17 42 1e b5 17 42 9b 35 c0 41 ed fc 31 42
       37.91319 37.926872 24.026175 44.496998
0001b0 2d 7c 34 42 bb 6b 55 42 b8 8c 27 42 7f 32 1c 42
       45.121265 53.355206 41.88742 39.049313
0001c0 93 c4 2e 42 92 93 02 42 60 00 19 42 a0 1c 2b 42
       43.691967 32.64411 38.250366 42.777954
0001d0 70 06 3f 42 7b 92 42 42 88 72 fa 41 81 50 94 41
       47.756287 48.643047 31.305923 18.539309
0001e0 f8 20 0f 42 ef c6 5b 42 f2 b6 08 42 4c a3 58 42
       35.782196 54.94427 34.178658 54.15947
0001f0 76 51 32 42 fc fb 41 42 f4 c8 4e 42 52 a5 42 42
       44.57955 48.49608 51.696243 48.661446
000200 6f fb 58 42 45 eb fe 41 7a 64 2e 42 8e c6 1d 42
       54.24554 31.864878 43.59812 39.4439
000210 42 36 2b 42 36 5c 1a 42 1b 8f 4b 42 27 51 32 42
       42.802986 38.59005 50.88975 44.57925
000220 03 bb 1c 42 a8 af 21 42 bb e0 de 41 a4 d2 42 42
       39.18263 40.42154 27.859732 48.705704
000230 5b fe 32 42 a3 6e 3a 42 8f f6 f1 41 77 a4 fd 41
       44.748394 46.608044 30.24539 31.705305
000240 37 98 2a 42 45 84 27 42 48 ac 30 42 09 c1 fd 41
       42.648647 41.87917 44.168243 31.719255
000250 bd 16 19 42 10 b5 cf 41 04 69 12 41 f8 8a 16 42
       38.272205 25.96341 9.150639 37.63571
000260 37 b9 48 42 60 d1 27 42 03 9c 50 42 04 89 e0 41
       50.180874 41.954468 52.152355 28.066902
000270 c7 c5 ad 41 fb 46 22 42 10 25 50 42 62 1b 34 42
       21.721571 40.569317 52.036194 45.02674
000280 1b d7 c9 41 e3 ab 48 42 5d ce 35 42 30 50 39 42
       25.230032 50.16786 45.451527 46.32831
000290 01 2d e8 40 56 62 b8 41 51 4a 29 42 5f 95 52 42
       7.2554936 23.048016 42.322575 52.64587
0002a0 62 37 4d 41 c1 2c 1f 42 ae a1 27 42 1f 48 68 42
       12.826021 39.793705 41.90789 58.07043
0002b0 96 56 3b 42 ef e6 46 42 97 a0 14 42 ac 3c d2 41
       46.834557 49.72552 37.156826 26.279625
0002c0 94 bc 41 42 7b 50 45 42 80 88 15 42 b9 f1 47 42
       48.43416 49.328594 37.3833 49.986057
0002d0 d6 07 15 42 d4 8a 3b 42 37 49 00 42 e7 88 2a 42
       37.257652 46.885574 32.0715 42.633694
0002e0 0f e9 47 42 81 b9 15 42 94 c7 31 42 07 66 97 41
       49.977596 37.431156 44.4449 18.924818
0002f0 9c eb 5a 42 a2 5a 64 42 8b a8 0e 42 e7 5b 54 41
       54.730087 57.08851 35.664593 13.272437
000300 05 31 31 42 80 83 4a 42 61 d1 21 42 48 bd 26 42
       44.29787 50.628418 40.45447 41.684845
000310 13 c6 1d 42 89 26 34 42 aa f9 47 42 bf 0d 39 42
       39.44343 45.037632 49.993813 46.263424
000320 dd 49 03 42 b1 81 44 42 e4 b7 0e 42 28 eb 1c 42
       32.822132 49.12665 35.67958 39.229645
000330 67 e0 5d 42 e7 2e 0b 42 e3 f2 d6 40 76 8c 2a 42
       55.469143 34.795803 6.7171493 42.63717
000340 8a 03 81 42 5a 3c 74 41 d7 b7 2b 42 de 8e 4e 42
       64.50691 15.264734 42.92953 51.63952
000350 0a e8 9f 41 f2 95 4e 42 4b 0e 2e 42 11 3c 4c 42
       19.9883 51.64643 43.513958 51.05866
000360 c8 7d 2e 42 ac f0 da 41 8b 34 4d 42 02 e5 2f 42
       43.622833 27.367516 51.30131 43.97364
000370 4b 77 9d 41 59 2d 32 42 00 27 29 42 c0 8d 24 42
       19.683249 44.544285 42.288086 41.138428
000380 82 8b 45 42 10 a2 16 42 23 52 3b 42 b6 b6 2e 42
       49.38624 37.658264 46.83021 43.67843
000390 00 b8 41 42 0b 33 2c 42 21 c3 0d 42 a0 61 5c 42
       48.429688 43.049847 35.440556 55.095337
0003a0 28 14 3d 42 cd 36 2e 42 af 55 75 41 de fc d7 41
       47.269684 43.553516 15.333419 26.99847
0003b0 98 8a 3c 42 ff 58 5f 42 32 ec ed 41 50 e6 a3 41
       47.135345 55.83691 29.74033 20.487457
0003c0 f7 0a 35 42 24 11 4c 42 33 af 0d 42 ec a0 50 42
       45.260708 51.01674 35.421093 52.15715
0003d0 8f 8e 2a 42 59 b2 5e 42 27 ca 3b 42 99 2f 39 42
       42.639217 55.674168 46.947414 46.296482
0003e0 63 5f 2d 42 68 d9 1d 42 30 87 3c 42 ff ca 60 40
       43.34315 39.46231 47.13202 3.51239
0003f0 15 39 3c 42 97 4c 58 42 71 0b 23 42 16 2d 39 42
       47.055744 54.074795 40.761173 46.29403

l4/b f4 [64]
000000 de e8 be c2 b2 e5 be c2 28 ef be c2 ce de be c2
       -95.45482 -95.44862 -95.4671 -95.435165
000010 81 e3 be c2 49 db be c2 44 e9 be c2 ab ea be c2
       -95.44434 -95.42829 -95.4556 -95.458336
000020 7b de be c2 7c e8 be c2 ba ea be c2 fe e3 be c2
       -95.43453 -95.45407 -95.45845 -95.4453
000030 97 eb be c2 24 e9 be c2 68 e4 be c2 a3 de be c2
       -95.46014 -95.45535 -95.446106 -95.43484
000040 01 f3 be c2 74 f9 be c2 97 e3 be c2 2f e9 be c2
       -95.47462 -95.48721 -95.44451 -95.45544
000050 2c e9 be c2 41 f2 be c2 1e f3 be c2 f9 ef be c2
       -95.455414 -95.47315 -95.47484 -95.4687
000060 1e e6 be c2 bd f8 be c2 7b e8 be c2 30 f1 be c2
       -95.44945 -95.48582 -95.45406 -95.47107
000070 0f e9 be c2 bd ec be c2 42 ea be c2 60 e4 be c2
       -95.45519 -95.46238 -95.457535 -95.446045
000080 7e ed be c2 42 e1 be c2 06 e2 be c2 66 f2 be c2
       -95.46385 -95.43996 -95.44145 -95.473434
000090 bd f4 be c2 52 f5 be c2 f3 eb be c2 f3 e1 be c2
       -95.478004 -95.47914 -95.46084 -95.44131
0000a0 6b ed be c2 5c e6 be c2 31 e7 be c2 84 ec be c2
       -95.46371 -95.44992 -95.451546 -95.461945
0000b0 c4 f0 be c2 95 f6 be c2 45 fa be c2 1c e8 be c2
       -95.470245 -95.481606 -95.48881 -95.45334
0000c0 94 e8 be c2 5f e5 be c2 c0 ec be c2 0e fc be c2
       -95.454254 -95.44799 -95.4624 -95.492294
0000d0 9b fb be c2 24 f7 be c2 26 ed be c2 6c f0 be c2
       -95.49142 -95.4827 -95.46318 -95.469574
0000e0 f3 df be c2 2a eb be c2 40 eb be c2 58 ef be c2
       -95.4374 -95.459305 -95.45947 -95.46747
0000f0 b5 e1 be c2 73 e9 be c2 0d e9 be c2 46 ea be c2
       -95.440834 -95.455956 -95.45518 -95.457565

l3/W f4 [256, 256]
000000 dd a7 dc 40 a6 f6 bc 40 44 c3 82 40 bf 00 a5 41
       6.895491 5.9051085 4.086336 20.625364
000010 3a a8 00 c2 60 5b ca 40 de 6c 0a 41 9c 71 6b 41
       -32.164284 6.323654 8.651579 14.715237
000020 e4 82 76 41 e9 44 00 42 e7 32 1b c1 10 16 fc 40
       15.406956 32.067295 -9.699927 7.877693
000030 0f 5c a9 41 1f ea 56 c1 d7 bc d4 bf 91 9b 4c c1
       21.16995 -13.432158 -1.6620129 -12.78798
000040 96 1f 04 be 99 92 22 c2 73 19 2e c2 bb d3 8f c1
       -0.12902674 -40.64316 -43.524853 -17.978384
000050 75 76 52 42 9a 94 6f 41 60 31 a6 40 a0 54 ce 41
       52.61568 14.97378 5.193527 25.79132
000060 5c d8 80 41 8b 50 7a 41 06 62 e8 41 87 9a 6b 41
       16.105644 15.644664 29.047863 14.725226
000070 69 31 71 42 06 80 c0 c0 4b ca 48 41 69 c9 9c 41
       60.298252 -6.015628 12.549388 19.598345
000080 1a b4 b7 c1 20 f2 75 41 69 a2 6b 41 25 34 93 41
       -22.96294 15.371613 14.727151 18.400461
000090 8c 81 b0 c1 8c 3b 2d 41 3e 46 53 41 0a a8 90 41
       -22.063255 10.827038 13.204649 18.08205
0000a0 93 53 c2 40 ee b1 96 41 7c 99 05 c0 f8 ce 4f 41
       6.072702 18.83688 -2.087493 12.9880295
0000b0 c0 55 ac 41 10 c8 92 40 4d 81 cf c1 15 43 bb 41
       21.54187 4.5869217 -25.938135 23.407755
0000c0 4b b1 29 c1 00 76 2f c1 ca 78 05 42 b3 2e cf c0
       -10.605784 -10.966309 33.367958 -6.4744506
0000d0 03 65 2e 41 06 67 9c 40 01 07 2c 41 d6 05 07 42
       10.899661 4.887576 10.75171 33.7557
0000e0 20 bf 9f 41 2e 55 b4 41 75 b8 42 41 74 48 a1 41
       19.968323 22.541592 12.170033 20.160378
0000f0 95 a1 12 c0 c9 1b 79 c1 49 8a 02 41 34 2d f3 40
       -2.2911122 -15.5692835 8.158761 7.599268
000100 05 0a 9d 41 80 d3 76 41 a7 ff 15 42 2d bf 27 c2
       19.629892 15.426636 37.49966 -41.936695
000110 cf 81 a3 3f 45 a2 d4 41 64 08 87 41 83 bf 30 c1
       1.277399 26.579233 16.879097 -11.046756
000120 fd 8f 38 c0 c2 80 a2 41 9d 03 6e 41 c1 4e c1 41
       -2.8837883 20.31287 14.875882 24.163454
000130 34 9d a8 c0 02 31 0c 41 1c 27 cd 41 01 62 fe 41
       -5.26919 8.761965 25.644096 31.797853
000140 11 f7 fe 40 47 3c 32 41 61 7c 16 c1 11 20 09 c2
       7.9676595 11.139716 -9.405366 -34.281315
000150 b1 ce a4 41 4c cb 35 42 fb 05 5d 41 32 e8 17 42
       20.600924 45.448532 13.81396 37.976753
000160 c8 46 04 42 1c 66 3e 41 b9 a6 63 42 d2 96 f5 40
       33.069122 11.899929 56.912815 7.6746607
000170 4c ca 38 41 2c 55 39 41 44 08 03 c1 79 a6 0c 42
       11.549389 11.583294 -8.189518 35.16257
000180 1a 04 56 41 d0 3d dc 41 41 a7 43 41 ff 0e aa c1
       13.376001 27.530182 12.228333 -21.257322
000190 46 18 89 c1 41 71 01 41 2d b6 35 41 56 44 fa 40
       -17.136852 8.09015 11.3569765 7.820842
0001a0 2a 30 a8 41 b6 66 50 42 ba 92 17 41 02 1b 55 42
       21.023518 52.100304 9.473322 53.276375
0001b0 33 7e 66 41 78 97 a0 40 22 0c 1b c1 1d c3 97 c1
       14.40581 5.01849 -9.690462 -18.97027
0001c0 98 04 6c c2 26 83 ca 41 c8 e2 fd 40 e4 45 3c 40
       -59.004486 25.314037 7.9339333 2.9417658
0001d0 12 f8 92 40 93 b8 46 c2 cd d3 cc 41 66 c4 b7 c0
       4.592782 -49.68025 25.603418 -5.7427244
0001e0 c7 51 ec 41 af 5c d4 41 ec fb 98 c1 dd bf b6 3f
       29.53993 26.545256 -19.123009 1.4277302
0001f0 1a 91 0e c2 89 04 fe 40 d8 58 46 3e 3c bf e9 c1
       -35.6417 7.9380536 0.19369829 -29.218376
000200 a8 42 93 41 85 3e 60 41 ca db b0 41 9e 6c a4 40
       18.407547 14.015264 22.107319 5.138259
000210 55 98 d8 40 18 67 da be a7 03 71 41 2e ad ab 41
       6.768595 -0.4265678 15.063392 21.45956
000220 33 ce 47 41 21 56 d5 c1 17 f0 1d c1 f7 23 53 c1
       12.487842 -26.667055 -9.871116 -13.1962805
000230 31 d9 12 40 52 a3 51 42 c4 c3 80 41 4b df 5c c0
       2.2945063 52.409492 16.095589 -3.4511287
000240 5f df 3a c2 14 5c 83 c0 3b 4e 55 40 0e cd f2 3f
       -46.718136 -4.10499 3.3328998 1.8968828
000250 5b d5 3e c1 9e 22 28 c2 40 97 2a 41 84 4b 9c 41
       -11.927089 -42.033806 10.661926 19.536873
000260 ca a8 27 42 48 bf 4b 41 bd 61 52 41 11 4f 6f 41
       41.914833 12.7342 13.148862 14.956803
000270 a7 cf b6 40 6e 27 aa 41 6c e2 84 41 53 42 3c 41
       5.712848 21.269253 16.610558 11.766192
000280 cc 60 98 c1 93 c4 2b 41 cc 42 d6 c1 92 88 63 41
       -19.047264 10.735492 -26.782616 14.220842
000290 b4 4a 17 41 da cb 82 41 2a c2 e5 41 e7 19 93 c1
       9.455738 16.349537 28.719807 -18.387648
0002a0 6b 37 58 40 b1 fd 17 42 a9 11 5c bf 31 d0 ef 40
       3.3783824 37.997746 -0.8596445 7.494164
0002b0 b8 02 dd 40 bf cc 07 42 e6 39 fe 3f 9f 4f 84 41
       6.906582 33.949947 1.9861419 16.538877
0002c0 17 4b de 40 70 ab e4 c1 e8 08 30 41 ed 7b 1c 41
       6.9466662 -28.58371 11.002174 9.780255
0002d0 d9 93 85 c2 25 97 61 41 f4 05 5e 41 b3 a3 81 41
       -66.788765 14.0994005 13.876453 16.204931
0002e0 e7 23 a7 c0 99 a6 6b c1 e7 9e 89 40 a7 ab 07 40
       -5.2231326 -14.728173 4.3006473 2.1198518
0002f0 ae c9 d4 c1 e3 7e 22 41 8a 66 a6 bf 5a 4c a2 c1
       -26.598476 10.155978 -1.3000042 -20.287281
000300 e2 c6 f1 41 7e 0b cd 40 55 50 ac c1 8e 1e 05 42
       30.22211 6.407653 -21.539225 33.27984
000310 9f a3 1a c1 5c f5 3f 41 51 ef 37 41 d2 8f 1b 41
       -9.664947 11.997402 11.495927 9.722612
000320 69 4e c1 40 3b 69 3c 41 ed 37 39 41 31 9d ce 41
       6.0408216 11.775691 11.576154 25.826754
000330 7c 1a 4c c1 2f 18 b6 41 5d 40 45 41 36 08 1f c2
       -12.756466 22.761808 12.328214 -39.75802
000340 f0 7b 52 42 a9 12 19 42 e8 e1 a5 c0 c2 10 aa 3f
       52.621033 38.268223 -5.1838264 1.3286364
000350 9b 9e 24 41 b2 69 3a 41 c6 9f 1e 41 ce b8 2f 42
       10.288722 11.6508045 9.914007 43.930473
000360 f6 83 87 c1 97 4d ca c1 bf 8b 01 bf 8b 38 cc 41
       -16.939434 -25.287886 -0.5060386 25.527609
000370 ff ab bd 41 aa 41 bc 41 9e c3 08 41 3d 45 58 41
       23.708982 23.532063 8.547758 13.516904
000380 bf dc 9d 40 cf 94 3a c1 10 47 52 c1 7a 16 53 41
       4.9331965 -11.66133 -13.142349 13.192987
000390 15 75 6e 41 b6 ee 40 41 de cc bc c1 f4 f5 09 41
       14.9035845 12.058279 -23.600033 8.622547
0003a0 e6 d6 c3 41 6b 1b b5 c1 90 e8 84 41 46 fc a3 41
       24.47993 -22.638388 16.613556 20.49818
0003b0 1b 19 47 42 44 a2 0c 42 94 87 54 41 ed 75 35 41
       49.774517 35.158463 13.2831 11.34129
0003c0 e0 7b 6e 41 9d 79 bb 41 18 a5 e6 41 cf b7 2f 41
       14.905243 23.434381 28.830612 10.982375
0003d0 26 01 ac 40 b9 3c 2a 41 35 85 04 42 97 6d 80 41
       5.37514 10.639825 33.130085 16.05351
0003e0 73 b8 4d 41 b6 04 84 41 6f fb 11 41 d6 7c f9 41
       12.857532 16.5023 9.123885 31.185955
0003f0 3a ee da 41 05 df d0 41 2e b8 63 41 9b 1f 46 41
       27.366322 26.108896 14.232466 12.382716

l3/b f4 [256]
000000 c0 73 a4 41 84 bf f4 c0 60 94 d5 3f 76 99 a8 41
       20.556519 -7.6483784 1.6685905 21.074932
000010 3b 44 d4 3f 2d 78 b1 41 41 46 38 41 61 13 a8 40
       1.6583322 22.18368 11.517152 5.2523656
000020 c2 36 4e 41 24 bc 72 41 67 98 35 c0 a9 30 03 42
       12.888369 15.170933 -2.837427 32.79752
000030 13 d4 66 40 8b e3 13 41 be 04 34 41 08 5b f1 be
       3.606694 9.2430525 11.251158 -0.47139764
000040 e3 32 3b 40 13 78 92 41 f7 58 65 41 ad 03 56 41
       2.9249809 18.30863 14.33422 13.375897
000050 1f 2e 7e 41 89 b0 05 3f 75 c2 8b 40 be 4b a8 41
       15.88626 0.52222496 4.3674874 21.036983
000060 c9 d0 a1 40 0b 2f 5c 41 0c c6 59 41 f7 c3 87 40
       5.0567365 13.761485 13.610851 4.2426715
000070 81 47 27 40 df 4c 5e 41 db ab a5 41 ea 60 10 41
       2.6137393 13.893767 20.708914 9.023661
000080 30 71 35 41 1a 96 27 41 50 fd 40 41 27 ec 0d 41
       11.340134 10.474146 12.061844 8.870154
000090 df 5c d4 41 b9 4a ba 41 c5 32 06 41 23 86 49 41
       26.545347 23.286486 8.387395 12.595248
0000a0 58 f2 c3 40 53 c0 b8 41 3f 6c 8e 41 3c 01 61 41
       6.123333 23.093908 17.802855 14.062801
0000b0 26 04 bd 3f fe a4 b9 41 2b 9d f1 c0 8d df 0c 41
       1.4766891 23.205563 -7.5504355 8.804578
0000c0 69 67 15 40 68 42 2b 41 e3 15 82 40 0d 7a f5 40
       2.3344367 10.703712 4.0651717 7.671149
0000d0 80 b7 85 41 91 0a d7 41 b2 a0 35 40 6c b7 81 41
       16.7146 26.88016 2.837933 16.214561
0000e0 bc 6e b6 bf 99 6b ee 41 d2 81 00 41 53 0e e8 40
       -1.4252543 29.802538 8.031694 7.2517486
0000f0 33 ac 76 41 d3 d2 28 41 7f 0c 8a 41 38 0c b9 3f
       15.417041 10.551471 17.256102 1.4456854
000100 4c e9 b7 41 4a c6 17 41 f9 68 43 41 91 72 d8 41
       22.988914 9.48591 12.213128 27.05594
000110 60 c4 5d 41 b6 89 65 41 70 19 a6 41 30 ab b7 41
       13.860443 14.346121 20.76242 22.958588
000120 5c af 11 bf f8 f8 a1 40 67 d3 37 41 22 b0 f3 bd
       -0.569082 5.0616417 11.489112 -0.11898829
000130 da c5 63 41 b4 23 ad 41 1b aa 4e 41 69 86 87 41
       14.235804 21.642433 12.91653 16.94063
000140 b8 d8 19 41 65 0b 2d 41 87 01 05 41 a3 34 c7 41
       9.61541 10.815282 8.312873 24.900702
000150 a1 af aa 40 b0 1f 5c 40 03 79 4d 41 3e 49 b2 40
       5.333939 3.439434 12.842044 5.5714407
000160 a0 da 5c 40 08 2b 81 41 84 ae 0a 41 8c 40 c6 40
       3.4508438 16.146011 8.667606 6.1953793
000170 2c c1 ed 41 ee 39 4f 41 a9 53 c2 41 fa 9a 75 41
       29.719322 12.951643 24.29085 15.350336
000180 18 09 cd 41 ea 13 67 41 f0 5c d0 41 51 26 6a 3f
       25.62944 14.442362 26.04538 0.91464716
000190 7b 0e 05 c0 d4 71 4c 41 c8 6d 3c c1 0b 1b 94 41
       -2.0790088 12.77779 -11.776802 18.513205
0001a0 ce 7b c2 3f c0 2a 12 41 a9 a1 56 3f 23 4a 04 42
       1.5194032 9.135437 0.83840424 33.0724
0001b0 13 e0 ac 41 19 43 ae 41 ff 1d 75 40 10 8e 51 c0
       21.609411 21.782763 3.8299558 -3.2742958
0001c0 60 e2 5b 41 35 9e 7b 41 3a 69 81 c0 1d c1 35 c0
       13.742767 15.726125 -4.044095 -2.8399117
0001d0 19 03 0e 41 14 6e 8f 41 23 49 48 41 d1 0b 01 c1
       8.875756 17.92875 12.517856 -8.065385
0001e0 9e 59 8b 41 79 1c 89 40 64 67 d0 40 85 f1 92 41
       17.418758 4.2847257 6.512621 18.36793
0001f0 40 48 58 3f 77 14 12 41 22 84 e2 40 54 83 80 41
       0.84485245 9.129996 7.0786295 16.064125
000200 c0 7a a6 41 c8 d3 a7 41 fb b9 8c bd 84 a5 87 c0
       20.809937 20.978409 -0.068714105 -4.2389545
000210 4c 24 42 41 1d 5d 14 41 bd 74 52 41 53 a4 1d 41
       12.133862 9.272733 13.153501 9.852618
000220 01 3b 58 41 3b dd fb 40 a7 22 f5 40 a6 4b db 41
       13.514405 7.8707557 7.66048 27.411938
000230 e5 8e ab 40 a2 84 06 41 0d a2 95 c0 bd f7 cb 40
       5.361193 8.407381 -4.6760316 6.3739915
000240 cd 51 c5 41 fe e4 96 40 e0 5e e6 40 73 c2 e7 c0
       24.664942 4.715453 7.1990814 -7.2424865
000250 af 1e 83 40 8b d7 26 bf 2a ce 4b 41 1c ef 63 40
       4.0974956 -0.6517264 12.737833 3.561469
000260 01 8a cc 41 56 09 48 41 fb 63 b6 41 1e 36 98 41
       25.567385 12.502279 22.798819 19.026424
000270 3b 6d 04 42 ea e0 eb 40 f5 da 51 41 f9 1c ba 40
       33.10667 7.3712053 13.115956 5.8160367
000280 36 7c c5 41 b0 53 dc 41 75 35 32 c0 e0 d0 cb c0
       24.68565 27.540863 -2.7845128 -6.3692474
000290 21 38 b9 41 97 ca 8f 40 34 62 aa 40 57 7b ab 41
       23.152407 4.49348 5.3244877 21.435225
0002a0 ad 7b d2 41 a4 b6 28 41 aa d6 d0 41 a5 76 82 41
       26.310389 10.54459 26.104816 16.307932
0002b0 46 04 cf 41 74 ff 0e 41 fd d5 66 41 a9 58 05 41
       25.877087 8.9373665 14.427243 8.334146
0002c0 fe 2e a4 41 5b 16 14 41 75 aa e1 40 75 e0 7b 41
       20.522945 9.255458 7.0520577 15.742299
0002d0 80 35 46 41 ec ea 77 41 5d 33 e0 40 50 8f eb 40
       12.388062 15.494854 7.00627 7.361244
0002e0 4b 87 75 41 a6 03 2e 41 24 6f 9d 40 78 7e d9 41
       15.3455305 10.875891 4.919817 27.186752
0002f0 b5 11 0c 41 8a 31 85 41 51 a5 a9 40 e9 6d ab 41
       8.754323 16.649189 5.30143 21.428667
000300 5a 3d c2 41 87 44 98 41 d9 33 9f 41 a8 1c 9c c0
       24.279957 19.03346 19.900316 -4.878498
000310 4f ca 80 41 22 83 c4 3f ee 1b ae 41 26 85 0a 41
       16.098783 1.5352519 21.763638 8.657507
000320 3e 89 b7 40 13 63 c8 40 96 93 65 41 94 77 32 c0
       5.735503 6.262094 14.348532 -2.7885485
000330 78 09 cb 41 46 bc 76 40 32 a2 bb 41 52 80 0e 41
       25.379623 3.8552413 23.454197 8.906328
000340 a7 aa 5c 41 c2 de c8 41 2f b7 9e 40 e1 7d 61 41
       13.791663 25.108768 4.9598613 14.093232
000350 93 a2 86 c0 93 97 f2 40 ca 81 eb 40 b3 62 c1 41
       -4.2073455 7.5810027 7.3595934 24.173193
000360 a1 37 78 41 ca 31 08 41 3d 31 ca 41 0e ff 4f 41
       15.513581 8.512156 25.274042 12.999769
000370 92 6e d1 41 94 fd 40 41 b2 6a 8f 41 ec d2 5c 41
       26.17899 12.061909 17.927097 13.801495
000380 1e eb e6 41 6f 31 78 40 0d 39 d1 41 91 d4 29 41
       28.864803 3.8780172 26.152857 10.614396
000390 eb 5d dc 41 27 3f 59 40 64 7f 49 3e 4e f3 61 41
       27.545858 3.3944795 0.19677502 14.121901
0003a0 83 af 2f 41 57 12 ca 40 3e 5b 75 41 9e 55 b8 41
       10.98035 6.3147388 15.334776 23.041805
0003b0 26 01 d9 41 57 70 93 41 2e 31 64 41 fd 85 c0 41
       27.12556 18.429853 14.262007 24.065424
0003c0 75 eb 89 41 e8 9b c8 41 7b 4d 26 c0 bf de 93 41
       17.23997 25.076126 -2.598479 18.483763
0003d0 57 db 34 41 07 64 93 41 28 dc ae 41 35 75 8d 41
       11.30355 18.423841 21.857498 17.68223
0003e0 fe ec 27 41 f6 aa 14 41 bb 61 7a 41 05 a5 0b 43
       10.495359 9.2917385 15.64886 139.6446
0003f0 17 7d a0 40 74 50 dd 41 73 ab 57 41 62 5b 90 41
       5.0152698 27.664284 13.479358 18.04462

l1/W f4 [256, 64]
000000 45 d4 de c0 b5 da 78 c1 65 7f ae 41 6b 0f df 40
       -6.963412 -15.553395 21.812204 6.970632
000010 45 4b a2 c0 78 81 a1 c0 30 ce a7 c0 77 5a 4d 40
       -5.071688 -5.0470543 -5.2439194 3.2086465
000020 d2 11 47 41 bc b0 af c0 bd ac eb bf c0 85 78 c0
       12.441851 -5.490324 -1.841209 -3.8831635
000030 01 fa 06 c0 c1 b0 89 c0 4a 61 b8 bf 9c e5 8c 41
       -2.109009 -4.3028264 -1.440469 17.612114
000040 3d 94 26 c2 21 39 22 c1 d7 1b 2f 41 f1 47 b0 c0
       -41.644764 -10.1389475 10.944297 -5.508782
000050 60 b9 aa 41 d8 97 0b c1 3e 5a 12 41 82 5e 51 c1
       21.340515 -8.724571 9.147032 -13.085573
000060 ac f1 54 c1 a7 3c 32 41 cb e1 ad c0 7b 41 c0 40
       -13.309002 11.139808 -5.4338126 6.007993
000070 6b a2 40 c1 59 13 87 40 fb 93 00 c2 c9 fc 4a bf
       -12.039653 4.221112 -32.144512 -0.7929197
000080 a1 ed b3 c1 e8 c0 27 c1 d8 c1 c2 40 1a c6 07 c1
       -22.49103 -10.484596 6.0861626 -8.485865
000090 b0 d3 c1 bf e2 97 2f c1 d7 34 50 c1 4c bc e0 be
       -1.5142727 -10.974581 -13.0129 -0.4389366
0000a0 0b fd 40 41 7f 41 92 40 27 2d 4c c1 ec 46 e6 3f
       12.061778 4.570495 -12.7610235 1.7990394
0000b0 40 91 39 41 6e 8f 0c 41 82 6e 14 c2 3d 26 28 c1
       11.597961 8.785017 -37.107918 -10.5093355
0000c0 4a b6 57 c1 ac df 4d 41 7d 20 9b c0 ae 21 8a c0
       -13.482004 12.867107 -4.847716 -4.3166113
0000d0 ae df 30 41 6e b0 f1 40 fd 70 b9 c0 12 99 3e c2
       11.054609 7.552787 -5.7950425 -47.649483
0000e0 28 1a 09 c1 e7 58 58 3f 69 f3 38 41 61 1d b9 40
       -8.568886 0.84510654 11.559426 5.7848363
0000f0 96 57 8c 40 09 9a 58 41 b8 14 fc bf 42 2a 5a c1
       4.3856916 13.537606 -1.9693823 -13.635317
000100 81 d9 12 c1 de bb a2 3f 0a f6 25 41 db a6 68 bf
       -9.178102 1.2713583 10.372568 -0.908796
000110 8e 28 99 c1 b5 90 d6 40 35 d0 eb 40 7c a5 20 40
       -19.144802 6.7051644 7.369166 2.5101004
000120 df 09 ee c1 19 70 3d 3d 04 33 82 40 11 a0 99 3f
       -29.75482 0.046249483 4.0687275 1.2001973
000130 ba 80 40 41 0c 69 5d 3f f5 b5 f4 40 7f ad 95 c1
       12.031427 0.86488414 7.6472116 -18.709715
000140 b6 0f 96 40 89 e9 4c 41 58 9f ab 40 04 65 6b 40
       4.689418 12.807015 5.363201 3.6780405
000150 ef b0 82 40 04 f3 79 c1 33 1a 28 3f f5 cb 71 c1
       4.0840983 -15.62183 0.65664977 -15.112294
000160 84 4d db 41 d9 b6 3e 41 9c 9d db 40 7b d3 c7 bf
       27.41285 11.919641 6.8629894 -1.5611414
000170 a1 f7 43 c0 82 ed dd 3f f7 1c da c1 34 c7 c3 c1
       -3.061989 1.7338107 -27.264143 -24.472267
000180 f3 f9 90 41 73 0b 80 41 6a 3e 0a 40 b9 71 e0 3f
       18.122046 16.00559 2.1600595 1.7534705
000190 ba f8 0c c0 a8 96 1d 41 04 61 83 c1 ce 06 1a 3f
       -2.202681 9.849281 -16.42237 0.60166633
0001a0 75 33 0b 41 f4 62 a5 c1 5d ef 6f c1 ff 0f 53 40
       8.700063 -20.673317 -14.995938 3.2978513
0001b0 c6 18 51 c1 d0 50 92 40 79 99 60 41 5d 1c b6 40
       -13.068548 4.572365 14.037469 5.6909623
0001c0 44 10 a6 c1 65 0b a1 c1 21 8b 11 c1 2a 5a 05 41
       -20.757942 -20.130564 -9.096467 8.334513
0001d0 76 79 90 41 80 7e 98 40 2f 62 60 c1 ce 4a c8 c0
       18.059307 4.765442 -14.023971 -6.2591314
0001e0 2a 9a 04 c2 fb 10 0a c2 ca 39 9b c1 e5 47 9b c0
       -33.15055 -34.516582 -19.403217 -4.852526
0001f0 3c 62 98 41 bd 1e 0b 41 d9 c2 9c 40 0e 71 cc c0
       19.047966 8.695004 4.898785 -6.3888006
000200 c9 be ac 41 01 55 5d c0 b1 c0 93 40 e7 31 5e 41
       21.593157 -3.4583132 4.617272 13.887183
000210 61 46 22 41 88 f4 6f 41 c1 d9 aa 41 06 81 cd 40
       10.142182 14.9972 21.356325 6.422
000220 f3 3c 5a 41 0d 84 20 41 fc 8b 06 c0 95 88 b5 40
       13.63988 10.032239 -2.102294 5.6729226
000230 44 cb e7 c0 c1 0e 95 bf d0 a2 ed 3f 5d f8 f7 c0
       -7.2435627 -1.1645128 1.8565311 -7.749068
000240 ae b6 01 c0 21 26 04 41 cb b5 13 41 f7 96 4f c1
       -2.026775 8.259309 9.231883 -12.974357
000250 ad 50 3b 41 45 88 01 bf 4b bc b4 41 84 48 80 c1
       11.707196 -0.50598556 22.59194 -16.035408
000260 cd 92 73 41 4d b1 a7 41 6f f7 bb 40 95 60 cd c0
       15.22334 20.961573 5.8739543 -6.41804
000270 18 f8 a6 3f 79 ff 49 c0 29 52 2c 40 93 93 d2 40
       1.3044462 -3.1562178 2.6925147 6.5805144
000280 98 1c 1b 41 27 2d d7 3f bc ce e8 be 8d 76 44 c0
       9.694481 1.6810654 -0.45470226 -3.0697358
000290 8d cb b5 c0 74 47 3b c1 03 48 d0 bf ab 83 b0 40
       -5.6810975 -11.704945 -1.6271976 5.5160728
0002a0 69 30 39 41 56 e3 8b 41 17 d8 12 41 50 37 ed c0
       11.574319 17.486004 9.177756 -7.413002
0002b0 bf 15 8b bf b8 2d eb c0 f2 79 86 bf 72 55 18 41
       -1.0866011 -7.349331 -1.0505965 9.520861
0002c0 85 c5 37 c0 54 b8 0a 41 3a 31 2e 41 9b 02 b0 c0
       -2.8714306 8.670002 10.887018 -5.500318
0002d0 15 48 85 41 c6 04 7b 40 80 19 80 c1 9b 3b 20 be
       16.660196 3.9221663 -16.012451 -0.15647738
0002e0 a1 bd 4e c1 d3 02 b2 40 a3 9d 42 c1 c9 ba 96 41
       -12.921296 5.5628448 -12.163486 18.841204
0002f0 0c 20 5d bf 6e 0c 9e 41 48 f6 cb 41 be 67 1b 41
       -0.86377025 19.75607 25.495255 9.712828
000300 98 35 9d c1 ba e5 80 40 57 e2 2a c2 54 e2 af 40
       -19.651169 4.028043 -42.721035 5.496378
000310 67 55 1d 3f da 47 a8 c1 80 85 3f 40 f3 cc d4 c0
       0.6145844 -21.035084 2.9925232 -6.650018
000320 97 fe 89 40 65 d0 a3 40 49 3f 5b c1 93 cd 0d bf
       4.312328 5.119189 -13.7029505 -0.55391806
000330 53 3a 7a 40 13 b1 af c1 3e f2 80 c1 fe 93 60 40
       3.9098098 -21.961462 -16.118282 3.5090327
000340 41 1c 0d c2 d6 1b 77 c0 b5 37 7f 40 e5 1a 69 3f
       -35.27759 -3.861074 3.987775 0.9105666
000350 e9 00 95 c0 20 87 1d c1 65 77 ab c0 23 55 5b c1
       -4.656361 -9.8454895 -5.3583245 -13.708285
000360 4b cd 35 c0 93 77 a4 41 1a 6c 37 40 a3 c1 fb 3d
       -2.840655 20.558386 2.865973 0.12292793
000370 1d 2b 7a 41 1f 3a 65 c1 83 19 da 40 3e 29 bb c1
       15.635526 -14.32669 6.815614 -23.395138
000380 84 fc 4d 41 f6 88 b5 c0 5b a8 6b 40 f5 9a 0a 3f
       12.874149 -5.672969 3.6821506 0.54142696
000390 68 59 7b 3f 26 94 a4 c0 91 19 86 c1 49 69 6c be
       0.981833 -5.1430845 -16.762484 -0.23087038
0003a0 e4 c6 8c c1 cc fc 24 41 04 6d 40 40 61 7b 39 be
       -17.597115 10.311718 3.0066538 -0.18113472
0003b0 c8 e1 f3 bf 0f 3e e9 3f ba 32 32 c1 05 1d f9 c0
       -1.9053278 1.8222064 -11.137384 -7.7847924
0003c0 86 82 17 41 b7 ae cb be 10 e5 25 be 34 9e 1a 40
       9.469366 -0.39781734 -0.16200662 2.415906
0003d0 f0 1b 0b 41 ea a7 14 41 d1 6f f4 40 63 2e 9d 40
       8.694321 9.290995 7.6386495 4.9119124
0003e0 ee 7a 8b 40 47 15 85 40 31 03 e9 c1 db bf 88 41
       4.358756 4.1588473 -29.126558 17.09368
0003f0 16 a3 09 41 11 c8 35 41 4b b6 e0 c1 28 a4 e5 41
       8.602316 11.361344 -28.08901 28.705154

l1/b f4 [256]
000000 f0 9e 4b 40 7c 6f 08 41 76 65 bc c0 74 b6 e0 40
       3.1815758 8.527218 -5.8873854 7.022272
000010 bf 79 29 41 ea 23 dd 3f 07 e0 92 40 6b 38 5c c0
       10.592223 1.7276585 4.589847 -3.4409435
000020 4d 0e 0f c0 f0 b8 88 3e 20 aa 5e c0 1d fd 5c c0
       -2.2352479 0.26703596 -3.4791336 -3.4529488
000030 94 92 d1 40 b0 bd 42 41 d6 a2 80 c1 40 b3 b9 3f
       6.549143 12.17131 -16.07951 1.4507828
000040 1a d3 fe 3f 59 97 83 c1 75 d7 00 40 63 1a b3 c0
       1.9908173 -16.4489 2.0131505 -5.596971
000050 c7 4d 4f c1 2b 77 07 c0 f4 c5 57 40 39 87 87 c0
       -12.956489 -2.1166484 3.371457 -4.2352567
000060 f7 52 5c bf 80 60 a1 c1 e5 19 2d 40 79 ff f2 be
       -0.86064094 -20.17212 2.7047055 -0.47460535
000070 1e 59 28 c1 b1 12 df 3f 39 95 01 c0 5e 98 07 41
       -10.521757 1.7427579 -2.0247328 8.474699
000080 61 94 1f 3f 1b 81 1e c1 a3 bf a3 c0 c0 e7 d4 bf
       0.62335783 -9.90652 -5.117143 -1.6633224
000090 3c aa 6a c0 4f 97 c6 3f 5f cd 07 41 43 41 b6 40
       -3.6666403 1.5514926 8.487639 5.6954665
0000a0 50 61 19 c1 2d 38 68 c0 95 cc 9e 3f 70 8c a2 3f
       -9.586258 -3.6284287 1.2406183 1.2699108
0000b0 66 2f 12 bf e8 0f 00 41 d8 e6 ff 40 5f 98 06 c1
       -0.57103574 8.003883 7.996929 -8.4122
0000c0 f2 48 51 c0 06 03 2a 40 70 3e e6 40 39 8e 15 c1
       -3.2700772 2.6564345 7.195122 -9.347222
0000d0 ba 7b 96 bf f6 65 cd 3f 22 b0 a9 3f fb e9 3f c1
       -1.1756508 1.6046741 1.3256876 -11.994624
0000e0 63 45 8b 40 4e e8 1a 41 38 ba 08 c1 34 49 a3 bf
       4.35222 9.681715 -8.545464 -1.2756715
0000f0 7e 13 6e 40 f2 dc c9 c0 c9 12 14 c0 f5 86 4a c1
       3.7199397 -6.308221 -2.3136466 -12.6579485
000100 00 ca da 3f 8f 7f 12 41 3c c2 38 40 8a 05 a6 c0
       1.7092896 9.156142 2.8868551 -5.188176
000110 bd b9 33 c1 f6 07 21 c0 e8 49 a6 3d 08 bb cb c0
       -11.232846 -2.516111 0.08119565 -6.366581
000120 bc e6 d6 c0 13 49 61 40 c2 94 89 41 29 c2 1e 40
       -6.715666 3.520085 17.197636 2.4806006
000130 ab 25 b7 3f f6 b8 4b 40 46 ff 1c c1 ce 87 d2 c0
       1.430837 3.1831641 -9.812323 -6.5790777
000140 21 2c ab 40 ce a5 84 40 34 e0 86 40 79 ef 3e c0
       5.349137 4.14524 4.2148685 -2.9833663
000150 1a 6a 25 c1 30 eb cf 40 e3 ad bc c1 ce 74 4d c1
       -10.338404 6.4974594 -23.584906 -12.841017
000160 34 62 60 40 a6 85 30 c1 d7 78 02 c1 27 e6 56 40
       3.5059938 -11.032629 -8.154502 3.3577974
000170 9e 50 d8 3f a9 ec 05 41 55 49 20 bf 0c d6 3e 41
       1.6899602 8.370278 -0.62611896 11.927258
000180 f0 ac 88 40 17 0d 8b c0 4b dc fb c0 37 b7 77 40
       4.2711105 -4.345348 -7.870641 3.8705575
000190 39 44 f4 c0 71 b2 2a 41 d8 c5 03 c0 67 4e 3b 40
       -7.633328 10.668565 -2.0589504 2.9266603
0001a0 55 63 d0 bf fe 69 ab c0 ab 84 0f 41 0e a8 91 c0
       -1.6280314 -5.3566885 8.96989 -4.5517645
0001b0 e6 7c 97 c0 63 e8 ae c0 54 92 92 c0 6c ca ed bf
       -4.7339964 -5.4658675 -4.5803623 -1.8577399
0001c0 54 ce 96 40 07 a5 31 c0 0e ff d4 3f ae bd a5 40
       4.7126865 -2.7756975 1.6640337 5.1794043
0001d0 8f 08 1e c1 44 04 fd c0 b6 2c 88 40 ed 61 61 40
       -9.8770895 -7.9067707 4.255458 3.521602
0001e0 c7 db 7b 40 dd 8f 26 bf 3f af 12 41 4a 5f 17 c0
       3.9352891 -0.6506327 9.167785 -2.365191
0001f0 fb 46 2b 41 bd a1 28 41 99 1f 3c c1 f5 76 37 c1
       10.704829 10.539487 -11.757714 -11.466542
000200 59 eb b2 bf 44 99 37 3f a4 1d 29 3f 9e 8b 46 c0
       -1.3978072 0.7171824 0.66060853 -3.1022716
000210 ca ba 62 be bc 8b ec 40 26 61 88 3e 00 b9 55 bf
       -0.22141567 7.3920574 0.26636618 -0.8348541
000220 df 16 3d 40 db 6a 18 41 a6 b6 8a 40 3a 01 09 40
       2.954521 9.526088 4.334796 2.1406999
000230 8d 46 29 c0 00 c1 54 3e be 33 8c c0 10 d0 33 c0
       -2.644931 0.20776749 -4.381316 -2.8095741
000240 54 22 d5 c0 56 2a 18 41 53 99 2e c1 db 62 15 c0
       -6.6604404 9.510336 -10.912433 -2.3341587
000250 98 73 88 40 62 ea 52 41 ff a4 31 c0 81 c6 59 bf
       4.2641106 13.182222 -2.7756956 -0.8506852
000260 21 1c f2 3e 56 05 46 41 f3 bb ee c0 f3 d3 59 c1
       0.47287086 12.376303 -7.460443 -13.614245
000270 2c 69 9f 3f ac 69 60 40 aa 07 1e 41 f1 3d a2 bf
       1.2453971 3.5064497 9.876871 -1.2675153
000280 cb c7 48 40 e8 52 81 3f cc e2 b9 3f 0f 98 38 40
       3.1371944 1.0103426 1.4522338 2.884281
000290 a9 d0 92 40 1e 06 f2 3f 0f dc 9b bf 71 e5 79 40
       4.587971 1.8908117 -1.2176532 3.904629
0002a0 c6 ee 84 3e 84 1e dd 40 07 70 08 40 50 a7 79 40
       0.2596342 6.909975 2.1318376 3.900837
0002b0 17 43 de c0 bf b6 b6 bf 31 4f 10 c0 f5 61 59 c0
       -6.9456897 -1.427452 -2.2548335 -3.3966038
0002c0 0f d6 e5 40 2e 13 ba c0 f6 c5 e2 3f f4 c1 8c bf
       7.18238 -5.8148413 1.7716663 -1.099669
0002d0 a8 c7 9c 40 70 73 82 bf 85 e0 d3 c0 01 01 6c c1
       4.899372 -1.0191479 -6.621157 -14.750245
0002e0 57 92 13 41 4f f9 59 c1 40 66 09 c0 3e 44 16 c0
       9.2232275 -13.623366 -2.1468658 -2.3479152
0002f0 7d 56 d8 3f 14 ef ca 3f 3f 0e 42 c0 bf 29 94 40
       1.6901394 1.5854211 -3.0321195 4.630096
000300 2d 2f f7 3f e9 8a 51 c1 18 01 c9 bf 8b 77 bb 40
       1.9311272 -13.096414 -1.5703459 5.8583426
000310 a4 0f f2 3e 15 41 c3 3f 88 09 65 3f d4 48 4e c1
       0.47277558 1.5254236 0.8946767 -12.89278
000320 b1 63 18 3e 59 c3 2e c1 b8 f1 e2 c0 ae 22 05 3f
       0.14881779 -10.922692 -7.0920067 0.5200604
000330 3c 9e a5 40 d7 3b fc 3f 4f 1f bc 3c 61 a2 1e 40
       5.1755657 1.9705762 0.022964148 2.4786608
000340 01 77 d3 bf 44 a2 cc bf 6a 26 2e 40 e2 6d 9a bd
       -1.6520692 -1.598702 2.7210946 -0.0754049
000350 43 8a 0f c0 96 0c fc 3f e5 eb 9c 40 43 dd 96 c1
       -2.2428138 1.9691341 4.9037957 -18.858038
000360 c1 2e d4 40 4c 52 c8 bf 84 c7 a4 c0 ec c4 85 c0
       6.6307073 -1.5650115 -5.149355 -4.1802883
000370 8e 64 55 c0 fb 2e 0d 41 66 f1 58 40 c0 48 d1 c0
       -3.3342624 8.82397 3.3897338 -6.5401306
000380 76 ed 25 c0 6d 54 01 41 75 7b 82 c0 43 74 fe c0
       -2.5926185 8.083112 -4.0775704 -7.951692
000390 9f ab 16 c0 db ea af c0 15 05 42 40 47 f5 51 c1
       -2.354225 -5.497419 3.0315602 -13.122382
0003a0 89 04 f1 40 bd b6 06 41 3e 87 cb c0 4e 31 8c c1
       7.5318036 8.419614 -6.360259 -17.524075
0003b0 8b 3d bf 40 88 5d 45 40 cd f4 dd 3f 0e 90 cf 40
       5.9762626 3.0838337 1.7340332 6.486335
0003c0 6b 14 1b 40 c8 20 e2 c0 89 68 21 bf ff 12 2b c1
       2.4231212 -7.0665016 -0.63050133 -10.692138
0003d0 c3 4b f7 bf d5 74 c5 bf 3b ef ba 40 e1 9d ad c0
       -1.9319996 -1.5426279 5.841703 -5.4255223
0003e0 b1 7e 02 c0 eb 9e 0c c1 73 6b e1 bf 08 60 5c c1
       -2.0389826 -8.788798 -1.7610916 -13.773445
0003f0 22 d0 d0 40 9c c1 bb bf 6a 3c 87 c0 9d 37 1f 3f
       6.525407 -1.466846 -4.226125 0.62194234
