static/ai/4/agent_white_12000/target_model.npz (npz, 521880 bytes, 8 tensors)

l2/b f4 [256]
00000000: 3572 34ba 9018 06bd db94 4f3d 8ec0 bd3c
00000010: b25e c03b 3b21 02bd e57f 34bc b799 08bc
00000020: 0d15 afbc 9452 3e3d 6780 8aba 1b0c 4e3d
00000030: d220 73bc db7a 83bb bad4 ac3d 5911 7e3c
00000040: 317a aebc 8121 913c 675d 33bd 8a00 d53c
00000050: 14d7 a23b d37b 0abc cd2c a6bc e30b 03bc
00000060: d074 04bd eb06 03bd 7158 1f3d 0878 6abc
00000070: 5bc0 64bd 96c8 213d e461 693b b914 e73c
00000080: 12e9 c93b a744 0ebd 5fea abbc 8201 20bc
00000090: 0102 943c 150b 83bc 6085 703d d216 ffbb
000000a0: 9667 ffbd d7b3 28bd 4b8e e63c 6329 c7b9
000000b0: 7868 dc3c 2a6d 4abc 5be6 c03c 74ec 1ebd
000000c0: e655 6d3c 9405 b9b9 e7bd 973b 53f0 99bc
000000d0: 4b7b 6fbc 1076 37bc cb2c fcbc dbf4 643d
000000e0: e9eb 60bd fbd7 0abc 67a5 bfbc 2fde 10bc
000000f0: 40a9 9e3a b686 40bd bc1f be3a 9ee7 893c
00000100: 89e2 a6bc 6c7b a03b 237a 933c a2c5 f7ba
00000110: a052 6a3d ba7d f1bc 87e0 07bc 4dcf 80bc
00000120: 1fdf a1bc 1a64 973c 83c1 8f3c c1c1 533c
00000130: 0159 ef3c 8e85 003b f5cf a3bc 32bd 2ebc
00000140: 38cb 91bd 50a9 0dbd 44c9 0fbd 89eb 113d
00000150: c479 6bba cb44 4e3d 947a d2bb 3df0 0fbd
00000160: 87dd 3fbc 9a66 20bd bdb8 0bbd 221b 413b
00000170: 8e26 683c 4e94 95ba 0017 aabd 0d56 25bb
00000180: e1e3 393d e3e0 37ba 734f 2a3d 9570 d2bb
00000190: 357b aa3b 0cc1 8fbc a175 06bb 591d 163c
000001a0: 660a 8cbc 03de b1bc d20e 4b3a 987f 8c3d
000001b0: c2d1 09bd b159 733c b654 eb3c 7400 e3bb
000001c0: e6a1 923c e048 433c bb77 973c e145 4a3d
000001d0: 5a8e d2bc 2c8d 48bd f81e 7ebd b8e7 833c
000001e0: b5c5 84bc 42ce 213d 2e7f 3fbc 727d 703c
000001f0: f9c8 88bc 088a c6b9 01fc db3c 4914 6f3c
00000200: 7b8b 52bd 637e 7fbc 9789 97bd 75f4 bd3d
00000210: 4f92 2f3d 88d8 cc3c 0861 43bd f0b5 433d
00000220: 04ea b4bc 5799 943b e2f5 cb3c a029 7fbb
00000230: 78ba 803d 5e93 febb 7787 1cbc 514e 8b3c
00000240: cd67 6b3d a115 0a3d a704 3dbc 0bd4 a0bd
00000250: 5cd1 15bd c7a1 bebc 1bb2 c8bb ab1b 17bb
00000260: 1946 0ebd 2aa4 1ebd f4df 5ebc 052e 993c
00000270: 441d 393d 9889 553d f2de 4fbc d62f 1b3d
00000280: a72d 9abd 7f09 3abb befd b9bc 130e 0d3d
00000290: 344a 8e3c 7b25 39bb 1020 00bd 7f36 353c
000002a0: 1d90 143d 6633 17bc 2c14 fbbb cf63 15bd
000002b0: 4cca 15bd 7548 ed3a 7d58 0dbd 01bf 2bbd
000002c0: 5947 903d 664c 8ebc 1f5d 5bbb ff71 57ba
000002d0: 8c46 733d 1efa d8bc 973e 96bd 8d69 973c
000002e0: 0000 0000 db0a e73c 267f 5fbd 2285 dcbc
000002f0: 4d02 df3c 7adb e93b 83ad 183e ecc1 18bd
00000300: 9830 db3c af1a ac3c 7089 07bb 248f fb3c
00000310: eb92 2fbc e6d7 dc3c 7235 16bc d610 abbc
00000320: af3f 323c d202 09bc 1a76 4d3c 3f94 8abc
00000330: d9da 093c 8af3 81bc 592a b6bd 83c9 af3c
00000340: 9c45 15bc 4e2d 86bc b0aa f83c 27f9 863c
00000350: c0a0 6bbb edb4 893d 5e41 06bd e283 05bd
00000360: 64be c7bc fce4 073d e953 1dbd 3ac0 f73b
00000370: ad24 3d3d 9abb b2bc 6767 243d 5594 8cbc
00000380: c58b 44bd 7ba9 01bd 327c cbbc 99dd 443c
00000390: 51c0 67bd 66d1 343c a5aa 4dbc 122b 083d
000003a0: c9e9 3cbd 906c 3fbb 789b 173d d128 193c
000003b0: b7a3 e63c ab4f dd3b 6d70 00bb 9aa4 c3bc
000003c0: 6a2d fcb9 db18 d3bc 9850 b4bd bc3a 5f3c
000003d0: e1b1 f53c 26fd a3bd 51da 86bc 8bb9 17bd
000003e0: 7700 a1ba 2851 893c ccba 603d 7ff9 71bb
000003f0: 3613 233d 50fa 9cbd 25ff 603d de7d 243d
-0.0006883473 -0.03273827 0.05067907 0.023163106 0.0058706636 -0.031769972 -0.011016821 -0.00833743
-0.021372342 0.04646547 -0.0010566831 0.050304513 -0.014839368 -0.0040124482 0.08439012 0.015507066
-0.0212985 0.017716171 -0.043790247 0.026001234 0.004969487 -0.008452374 -0.020285035 -0.0079984395
-0.032337964 -0.03198902 0.038902704 -0.014310844 -0.055847507 0.039497934 0.0035611326 0.028208124
0.0061618173 -0.03473344 -0.02098578 -0.0097659845 0.018067362 -0.015996495 0.058720946 -0.007784703
-0.12470929 -0.041187134 0.028144022 -0.00037987073 0.026905283 -0.012355128 0.023547342 -0.038799718
0.014485812 -0.00035290106 0.0046307924 -0.018791353 -0.014616798 -0.011197582 -0.030783078 0.055897575
-0.05491248 -0.008474345 -0.0233943 -0.008842035 0.0012104884 -0.04700347 0.0014505307 0.016834076
-0.020371692 0.0048975255 0.018002575 -0.0018903504 0.057207704 -0.029478896 -0.008293278 -0.015723849
-0.019759713 0.01848035 0.017548328 0.0129246125 0.029217245 0.0019610855 -0.019996623 -0.010665225
-0.07118839 -0.034585297 -0.03510405 0.035625014 -0.0008982683 0.050358575 -0.006423304 -0.03514122
-0.011710531 -0.03916035 -0.034111727 0.0029465635 0.014169348 -0.0011411996 -0.08305168 -0.0025228292
0.045383338 -0.0007014407 0.041579675 -0.006422112 0.0052026757 -0.017548107 -0.002051689 0.00916227
-0.017094802 -0.021712309 0.0007746044 0.06860274 -0.033647306 0.014852927 0.028726917 -0.0069275443
0.017899465 0.01191923 0.01848971 0.049383048 -0.025702644 -0.048962757 -0.062041253 0.016101703
-0.016207555 0.039503343 -0.011688037 0.014678346 -0.016697394 -0.00037868344 0.026853563 0.014592239
-0.05140255 -0.015594098 -0.0739929 0.09275142 0.04286414 0.025005594 -0.047699958 0.04778093
-0.022084244 0.004534881 0.02489752 -0.0038934723 0.06285566 -0.0077690324 -0.009553782 0.017005118
0.05747204 0.033712033 -0.011536754 -0.07852944 -0.036576614 -0.0232705 -0.0061247475 -0.0023057263
-0.03473482 -0.038730778 -0.013603199 0.018698702 0.045193925 0.052133173 -0.012687432 0.037887417
-0.07528239 -0.0028387008 -0.022704002 0.03443725 0.017369367 -0.00282511 -0.031280577 0.011060356
0.03627025 -0.009228563 -0.007662317 -0.036472138 -0.03656988 0.0018103259 -0.034508217 -0.041930202
0.070448585 -0.017370414 -0.0033472253 -0.0008218586 0.05939345 -0.026486453 -0.07336157 0.018482948
0.0 0.028203418 -0.054564618 -0.026918951 0.027222777 0.0071367593 0.1490994 -0.037294313
0.02675657 0.021008817 -0.0020681284 0.030707903 -0.01071618 0.026958417 -0.009168016 -0.020882051
0.010879441 -0.008362489 0.012540365 -0.016916392 0.008413994 -0.015863199 -0.08894796 0.021458393
-0.009110834 -0.016379025 0.030354828 0.016476227 -0.0035953969 0.06723962 -0.032777183 -0.032596476
-0.024382778 0.03317736 -0.0384101 0.007560757 0.046177555 -0.021817971 0.040137675 -0.017160574
-0.047984857 -0.03165577 -0.024839494 0.012015724 -0.05657989 0.011036253 -0.012552892 0.0332442
-0.046121392 -0.0029208995 0.0370135 0.00934811 0.028154237 0.006753882 -0.001959826 -0.0238822
-0.00048099022 -0.025768688 -0.088044345 0.013624843 0.029992046 -0.080072686 -0.016461523 -0.037042182
-0.0012283464 0.016762331 0.054865643 -0.0036922393 0.039813243 -0.07664931 0.054930825 0.0401591

l2/W f4 [256, 256]
00000000: 9a82 93bd eab8 77bd 3b11 a63c 7fea 04bd
00000010: b63a 87bd e51a 0ebc 0388 8bbb c78d 543e
00000020: fce5 d03d 1e65 a3bd 1013 1d3d a0c4 d0bc
00000030: d351 283d 0b89 26be 8fbf 143d 00a9 16bd
00000040: 9594 713d 7694 f43c c49f f03d 0f4e 30be
00000050: ee99 61bd 030c ea3c ffb6 09be b239 b43e
00000060: b618 ae3d 88ea a03d 6905 c33b 72c4 60bd
00000070: b775 653e 9693 8a3d 4976 8a3d 1084 3e3e
00000080: f5ef 6e3c 03b7 afbd a050 673e 9be5 8d3d
00000090: 3ee2 743c 93db 18bc d90d 61bd 2a6d b03d
000000a0: e343 123e 09e7 193e 3593 51be 4778 793d
000000b0: 3b97 143d 1ea9 ecbc 2a27 0b3d 0c1f 973e
000000c0: 53c6 fe3c 4b6b 67bd 445b 67bd 379a 8dbd
000000d0: 6bcb 39bd 0a6a 713d 196f 723b 56c3 933c
000000e0: 9a8a b4bd cb41 513c a745 6f3e 1079 c23d
000000f0: bdfb 04be 89b2 1dbe 390f 333c 4b01 21be
00000100: 99b3 973c 4f4d 48bc f62a e03d 3ca3 183d
00000110: 4727 dbbc 1813 a5bd 2131 80bd b501 2ebe
00000120: b2dd 22be bcb5 dabd 7828 1b3e ff69 31be
00000130: 7f80 98bd bcce ad3d 3c93 96bd 7e3e 753d
00000140: 17a7 61bc 80a3 20bd debf c4bd ec7a dd3c
00000150: 34e4 623c 87af 143e ae08 ab3c 58df c5bd
00000160: 5bd9 c2bc d164 a5be 7137 0b3e 5d20 083e
00000170: 383c 4f3c 4aee 4cbd 4b04 39be a572 c8bc
00000180: a46c 47bd f2cc cf3c 1483 eb3c ca81 153d
00000190: fb17 89bb b055 80bd 8b69 b4bd 00e2 a6bc
000001a0: c35a 21be e053 bfbd abe2 22be 2a56 143e
000001b0: 036f 84bc 968b ef3d f0d0 48bd 79d1 1e3e
000001c0: ad32 1c3e a08f 943d 0d49 b53d 6bd8 273e
000001d0: 878a 13be 6b1b 913c 915d c13d 87c3 cb3d
000001e0: 0d52 b4bd ac81 a3bc 946b a83d a7d6 763e
000001f0: b57c b6bd b389 30be beba 99bd 6005 65bc
00000200: 0098 d73b 5b93 1abd a39c a43c a280 f5bb
00000210: 8eb5 223e 9780 adbd 8a97 ac3d 73a3 323d
00000220: a10d 89bd 7dbb 013d 33a3 da3d 7d00 6f3d
00000230: 6a66 363e b755 083d e14c 9e3d 4216 493e
00000240: 8e7e eabd 0bfb e8bd cf4c babc 7b9a c3bd
00000250: 90c8 efbd 723d 15be 687d 9b3c 1714 00bc
00000260: b3ec 7c3d 4236 93bc 822b e2bd b9a5 9fbd
00000270: 11fa 19be 2d16 043d 21a3 cabd 8917 15bd
00000280: 7a8c 5cbd 8fa3 2a3e 8651 0fbd 1c61 173d
00000290: 8713 6a3d 5fe4 90bd 5f8a e73d ed7e c43c
000002a0: e9e8 613d 6e5e 953d 40a6 c23d 3fd8 aebd
000002b0: c58a 17bc 360e a63c e656 b53d 59b7 e1bd
000002c0: 4585 803d f47a 933d 309b 41bb 071f 713d
000002d0: 10ad b0bd c709 d03c 94a0 d8bc 1a51 1abe
000002e0: 1660 173d b70e 053e 5df3 afbd 6667 53be
000002f0: 75c1 b6bd 07a5 b53c 8140 363e 66f3 0c3e
00000300: 580c 14bc 6847 aebd 8baf 2d3e e97a f93c
00000310: 8819 943d c833 7fbb bc5b be3d b1b0 323d
00000320: 2ef4 95bd 714f 4f3e 653b e83d 91ca acbd
00000330: 1e84 8fbc 3eac b0bd 8181 7e3c 3dab b83c
00000340: 326f 39bc 4a04 793c 1d4e 903d 1eee b6bc
00000350: c4aa f9bd 0c6b 8cbd 0a52 5fbd 990c 9bbd
00000360: a364 c5bb 1d6a fb3d c279 f73d f146 1fbd
00000370: 9822 e9bc b693 113d c988 fa3d 63fe 52be
00000380: 652b 97bd 0b38 2dbe f985 1a3e 443a febd
00000390: d0ca 093d f4bd 18be 6d1c 9a3d fecd 67bd
000003a0: 4244 313d c1fb e4bc 9127 483d cd39 253c
000003b0: 743f 643e 3fa2 e4bc ac0c 8b3d 5769 7dbd
000003c0: c4e7 83bd 44cf 0e3e c294 48bd 3769 a13d
000003d0: 05db 7ebd f4a3 2e3e 1aeb 763c 6125 c13d
000003e0: 1987 8cbd fa8f 29bd 9da2 7b3c a2d3 b63c
000003f0: 879f ecbd 8776 6e3d af13 2c3d ff6d 0b39
-0.07202645 -0.060479082 0.020271888 -0.032450195 -0.06602995 -0.008673404 -0.004258157 0.20757209
0.10200116 -0.07978271 0.038348258 -0.025484383 0.04109366 -0.16263215 0.036315497 -0.036782265
0.05897959 0.029855948 0.11749223 -0.17217277 -0.05507844 0.02857018 -0.13448714 0.35200268
0.08500807 0.07857233 0.0059515727 -0.054874845 0.22408186 0.06766431 0.06760842 0.18605065
0.014583577 -0.085798286 0.2258935 0.069285594 0.0149465185 -0.009329694 -0.054944847 0.086145714
0.14283709 0.15029539 -0.20466311 0.06090572 0.036277037 -0.028889235 0.033972897 0.29515874
0.031100428 -0.056498807 -0.056483522 -0.0691418 -0.04536001 0.058939017 0.003699249 0.01803748
-0.08815499 0.012772034 0.23366414 0.09495747 -0.12986656 -0.15400137 0.010928922 -0.1572315
0.018518256 -0.012225463 0.10945694 0.037265047 -0.026752127 -0.080602825 -0.062593706 -0.16992839
-0.15904883 -0.10679194 0.15152156 -0.1732559 -0.07446384 0.08486697 -0.073523015 0.05987405
-0.0137727475 -0.039218426 -0.09606908 0.027036153 0.013848353 0.14520083 0.020878162 -0.0966174
-0.023785284 -0.3230348 0.13595368 0.13293596 0.012648635 -0.050031938 -0.18068044 -0.02446873
-0.048687592 0.02536628 0.028749026 0.03650073 -0.004183767 -0.062663436 -0.08809193 -0.020371437
-0.15757279 -0.0934217 -0.1590678 0.14485994 -0.016166216 0.11696546 -0.049027383 0.15509595
0.15253706 0.07253957 0.08851824 0.1639115 -0.14408313 0.01771327 0.094416745 0.09949403
-0.088047124 -0.019959293 0.08223644 0.24105321 -0.08910505 -0.17240028 -0.07506321 -0.013978332
0.006579399 -0.037738185 0.020094221 -0.007492141 0.1588957 -0.08471792 0.08427341 0.04361291
-0.06692053 0.031672943 0.10675659 0.058350075 0.17812505 0.03328487 0.07729507 0.19637397
-0.1144992 -0.11376008 -0.022741703 -0.09550949 -0.11708176 -0.14574221 0.018980697 -0.00781729
0.06174917 -0.017970208 -0.11043455 -0.07795281 -0.15036799 0.03224771 -0.098943956 -0.036399398
-0.053844906 0.16663955 -0.034989856 0.036957845 0.05714753 -0.07074808 0.11305689 0.023986304
0.05515376 0.07293402 0.09504366 -0.085373394 -0.009249394 0.020270448 0.08854465 -0.11021299
0.06275419 0.07201186 -0.0029541962 0.05886748 -0.08626759 0.025395287 -0.026443757 -0.1507
0.03695687 0.12993895 -0.0859134 -0.20644912 -0.08923618 0.022173418 0.17798044 0.13764724
-0.009036146 -0.085097134 0.16961496 0.030454116 0.07231432 -0.0038940776 0.09294841 0.043625537
-0.07321964 0.20245148 0.113394536 -0.08437074 -0.017519053 -0.086266026 0.015533806 0.02254259
-0.011318015 0.0151987765 0.07046149 -0.02233034 -0.12190774 -0.06856355 -0.054521598 -0.07570762
-0.0060239597 0.12276099 0.1208377 -0.038886014 -0.028458878 0.03554126 0.12233121 -0.20604853
-0.07381324 -0.1691591 0.15090169 -0.12413457 0.033640683 -0.14916211 0.07524953 -0.056592934
0.043277986 -0.027952077 0.04886586 0.010084582 0.2228983 -0.027909396 0.06789526 -0.061868038
-0.0644069 0.13946253 -0.04896999 0.07881396 -0.062220592 0.1705473 0.015070701 0.094309576
-0.06861705 -0.041397072 0.015358594 0.022317711 -0.11553865 0.058218505 0.04201096 0.0001329705

l3/b f4 [256]
00000000: 4fcc b23d ea15 25bc be25 aebc fadb 5bbc
00000010: fb90 3c3b 54e4 6a3d 8aec 743c 774d d33c
00000020: 9fdc b53c 5e22 113d 5db9 093e 6b15 77bc
00000030: e5c4 273c 8eef fe3b 67b3 fd3c e79d 0ebd
00000040: 0d94 313d 9683 52bc b5c4 cdbc 4165 1fbd
00000050: 1831 ce3c 0191 293d 116d b43c ab9b af3c
00000060: 307c a53c 252d 0b3d a537 073d 6b22 413c
00000070: 44e5 16bd f8db 003d 07f9 a4bc f993 9abc
00000080: 7eca 5f3d 4a7a 3b3d 3699 a43c 14f2 cdbc
00000090: 9395 cb3d 57f7 a13d 0d1e f7bc eacf 8dbd
000000a0: 0adc 0a3d a094 973b cb1c d5bb 3805 213d
000000b0: a6c2 a43c 5c06 523d f8c1 433d 111d 85bd
000000c0: c9ec 25bd a3e2 98bc c161 3fbd 7913 2cbd
000000d0: 43ff 853d 111c f63c cca6 71bc e22f 1a3d
000000e0: e24a 0e3d 3caa 423d 070d 54bd ed85 7fbc
000000f0: f7b2 4dbd 397c 52bd 0ef2 a63c 267b d63d
00000100: 5d4f 8f3d a847 96bd 0e1b 003c d80f 4bbd
00000110: 6988 aabd d30f 0bbd 18cd 993c f2e2 03bd
00000120: b850 8cbc dd12 cebc 5733 1c3c 3dee cabb
00000130: e5ba 213d 6a79 9b3d 5400 25bd 425d 0dbd
00000140: 73c0 1bbd 5f73 36bd 8acb a0bb 5e28 3bbc
00000150: 7133 68bd 7cfe ae3c 9f38 2fbd 8be7 d9bc
00000160: db96 3abd f2ba ecbc ac86 023d 20a0 44bb
00000170: 385b 4d3c 10a4 07bd a447 533d 4a2c 22bc
00000180: ba20 6abc c121 aa3d 7667 d5bb ca77 033e
00000190: fca2 75bd 6444 23be 8245 3a3d 1679 2ebc
000001a0: 2a1e 83bd 0530 973b c979 ce3d 7aa1 fc3b
000001b0: 9d00 69bd b0e7 d5bc 58ce ff3d 1428 36b8
000001c0: 4f7a d23c ab0a ddbd 1dc0 9a3d 9d0e e93c
000001d0: a392 c2bd 2d62 c0bc 681d 8bbc cb5f c83d
000001e0: c355 e63c d290 9b3d 7386 113d 3be3 53bc
000001f0: 2082 aabd fbce debc d044 12bd 3ba6 8cbb
00000200: 940c 213e 98a0 c1bd 7e8a 29bd 66bd 5a3c
00000210: 66ca 193c 51cb acb8 4e40 373d 64f6 a5bc
00000220: 76d5 aebd b26a fbbc 1072 513d d0c6 903c
00000230: 42c0 0dbd 9f68 37bd ca57 2abc f1fe 5c3c
00000240: 9af9 9f3d 28c3 27bd 36cd 89bc 480d 0abd
00000250: 3e3e 503d 3e58 34bc f3f3 36bc 9900 d53c
00000260: 831b 07bc 3c6b 84bc b8bc a1bc 52c8 04bd
00000270: 66d8 85bd 1c6d 863d bcd8 e73d ac39 07bd
00000280: 63fb e23b b928 a43c 5657 98bc a43d 8cba
00000290: c795 903c ae10 c6bc 1760 103e bd8d f33d
000002a0: 328a 413c 4801 b7ba 4857 b23d 673d a83d
000002b0: 5cd1 1e3d 7020 66bb 691a 03bd d181 8cbd
000002c0: 0eed 883d eda8 d73c 32d5 a3bc 5e66 9a3c
000002d0: cce2 81bd 4660 9a3d 8964 c1bc 1038 75bc
000002e0: 9226 a23c a3f3 133c 5b00 1dbd 92a4 973c
000002f0: 6d4b 03bd 4672 c63d 31bd 52bc 5a99 acba
00000300: f68a 09bd f188 7abd 62f9 643d 5ffa 993b
00000310: b8bd 2fbd 4ce1 063d 39ee 6ebd 98fd e6bc
00000320: 5040 98bc c8a0 22bc 5e83 973d 5d6b 3abc
00000330: f3af 283c 4c14 e03c 8cbb 12bd ab10 02bd
00000340: 6a9f 24bd ddb4 cbbb 97ed d03d 73a1 bbbd
00000350: d6df 08bd 8055 fbbc 84d8 863d 0941 90bc
00000360: e7d9 753c a1e4 f93c 34da f63c 9a1c c7bc
00000370: d692 04bc ee8b cbbc bc27 733b b9e9 543d
00000380: e3b8 87bc 6130 b1bc cf06 b6bd ad1a c8bc
00000390: 6999 13bc 75d7 cd3d c1b2 723d 7f6c 46bd
000003a0: e901 edbb 9629 a03d 9b17 51bc f870 163c
000003b0: 7fcf 20bd 542c 243b 70b2 febc e7c6 253d
000003c0: 6cb7 343d bf86 8dba 1a82 14bd 8dff 7cbc
000003d0: 8d6f 51bb fdab a4bb 5c40 443d 0274 603d
000003e0: 0e1f ab3d c249 fdbc 791c 26bd 975c 77bc
000003f0: afec 473d 94f7 29bd ccfb 33bb 5d0c 0b3d
0.08730375 -0.0100760255 -0.021258231 -0.013419146 0.0028772939 0.057346657 0.014948973 0.025793774
0.022199927 0.035433166 0.13449617 -0.01508079 0.010239814 0.007780022 0.030969335 -0.034818556
0.043354083 -0.012848755 -0.025118211 -0.038914923 0.025169894 0.041398052 0.022024663 0.021436533
0.020200819 0.0339786 0.03301205 0.011787991 -0.03683974 0.03145978 -0.020138277 -0.018869387
0.05463647 0.04577092 0.020092588 -0.025139846 0.099406384 0.079085045 -0.030165697 -0.06924422
0.03390125 0.004625872 -0.0065036765 0.039311618 0.020112347 0.051275596 0.047792405 -0.064996846
-0.04050902 -0.018662756 -0.046724085 -0.042010758 0.06542828 0.03004268 -0.01474924 0.03764332
0.034739383 0.04752563 -0.051770236 -0.015595895 -0.050219502 -0.051388 0.020379093 0.104727075
0.06997559 -0.07337886 0.00781895 -0.049575657 -0.083267994 -0.033950638 0.018774554 -0.032198854
-0.017128333 -0.02515548 0.009533725 -0.006192951 0.039484877 0.07591517 -0.040283516 -0.034512766
-0.03802533 -0.04454362 -0.0049070762 -0.0114231985 -0.056689683 0.021361582 -0.042778607 -0.026599666
-0.045554023 -0.028897736 0.031866714 -0.0030002668 0.012533955 -0.033115447 0.051581994 -0.009898255
-0.014290029 0.08307219 -0.0065125776 0.12838665 -0.059969887 -0.15944058 0.045476444 -0.010648986
-0.06402238 0.0046138787 0.100818224 0.007709679 -0.05688535 -0.026111454 0.12490529 -4.3429507e-05
0.025693087 -0.107930504 0.07556174 0.028449351 -0.09500625 -0.023484314 -0.016981795 0.09783896
0.028117066 0.07595982 0.03552861 -0.012932594 -0.083256006 -0.027198305 -0.035710156 -0.004292277
0.15727454 -0.09454459 -0.041391842 0.01335082 0.009386634 -8.23947e-05 0.04473906 -0.02025909
-0.08536808 -0.030690525 0.05113417 0.017672926 -0.03460718 -0.04477751 -0.010396907 0.013488517
0.078112796 -0.0409576 -0.016821485 -0.033704072 0.05084061 -0.011007367 -0.01116656 0.026001262
-0.008246305 -0.016164415 -0.019743308 -0.032417603 -0.06535415 0.0656378 0.11320636 -0.033013985
0.0069269403 0.02003895 -0.018596333 -0.0010699523 0.017649544 -0.024177875 0.14099155 0.11892269
0.0118127335 -0.0013962174 0.08708054 0.082148366 0.03877388 -0.003511455 -0.03200761 -0.06860698
0.066858396 0.026325667 -0.01999912 0.01884764 -0.06342086 0.07537894 -0.02360751 -0.01496698
0.019793782 0.0090302555 -0.038330417 0.01851109 -0.032054354 0.09689765 -0.01286249 -0.0013168261
-0.03357979 -0.061165754 0.055901892 0.004699036 -0.04290554 0.032929704 -0.058332656 -0.028197095
-0.018585354 -0.009926029 0.07398103 -0.011378136 0.010295856 0.027353428 -0.03582339 -0.031754177
-0.04019109 -0.006216629 0.10201567 -0.09161653 -0.03341659 -0.030680418 0.06584266 -0.017609136
0.015005565 0.030504527 0.030133344 -0.02430563 -0.008091649 -0.024846997 0.003710254 0.051980708
-0.016567653 -0.021629514 -0.088880174 -0.024426783 -0.009008744 0.10050861 0.059252504 -0.048443314
-0.0072328937 0.07820432 -0.012761976 0.009182207 -0.039260384 0.0025050836 -0.031090945 0.04047289
0.044120237 -0.0010797604 -0.036256887 -0.015441787 -0.0031957359 -0.0050253854 0.04791294 0.054798134
0.083555326 -0.03091896 -0.040554497 -0.015097759 0.048809703 -0.041495875 -0.0027463315 0.033947337

l3/W f4 [256, 256]
00000000: f09f 89bc ffe5 833d d802 73bd df09 7a3d
00000010: 43e8 d73b ea07 19bd e1fc a63c 95d7 dd3d
00000020: 1bfa 843c 146e 13bd f092 623d 43da 3dbd
00000030: be9c 3fbe 090c 4d3d bea4 c83d df33 873d
00000040: 7ecc 92bd 1b61 7d3d f299 3d3d 347f 153c
00000050: e75d 3d3d 5b53 3c3d 5d88 f0bd 70a2 82bd
00000060: 9787 e63c 1f1a 09be fc91 1bbd 9479 2bbc
00000070: ce5d bf3d 31a9 1dbe 9b16 ac3d c0d8 833d
00000080: d746 033e af89 70bd 55a3 cebc 4395 503d
00000090: 1174 0bbe 725b 463d 1758 d5bb 92d9 9ebd
000000a0: 2673 e1bd 5420 b13d 854d 8abb eac9 403d
000000b0: 22b9 043e f061 edbd d12f 86bd f152 01bb
000000c0: 2d1a 043e 6211 103d 41a0 de3d b28e 95bd
000000d0: 8adc 80bd ebb6 90bd 9044 2c3b 1714 ae3d
000000e0: d19e 34be 3ecc ddba 4f13 7abd c48a 033d
000000f0: 697a 64bd f9f4 653d 3450 033d 0f8f 4cbe
00000100: 0b90 813d 2fed e33c 6817 d8bc d6e5 ff3d
00000110: 7b3d 3b3d 167d 59bd e0ee b1bd f4e3 37bd
00000120: f0c4 023e 33e0 cdbd 85c5 44be bafd 263d
00000130: e18c 18bd 8447 24be ce01 74bd a401 a13a
00000140: f618 413e 4071 c43d 9353 bdbd 3c6e 67bd
00000150: 59a7 533d b78a 373d f734 073e 959f b33d
00000160: 5f2e c83d e22e 8abc 6219 83bc b028 f03d
00000170: 2d1d 993d b29c a73d 9c58 d5bd 490c cfbd
00000180: 52e6 023e b9df 2cbe b294 0abe 0e1f 143d
00000190: 8d4b 32bd b371 02bc e9b4 d1bc d257 46bc
000001a0: 9f51 833d 22d0 1cbc 4847 fbbd 1790 ea3b
000001b0: bb16 c8bd b6f0 05be eb1b 9ebe 4097 0cbd
000001c0: 985e 1a3e dcfc d93d 83b0 dbbd 2735 dcbb
000001d0: 5268 a23d 9ffb a83d 5d25 a13d e412 983d
000001e0: 944d 9fbd 7bc5 903d bdb8 8d3d 13b3 113d
000001f0: 3ae0 1ebd cd17 bdbd b793 123c f344 5b3c
00000200: 257b 8f3c 175b 003d f423 a6bd a22b e23d
00000210: 1b70 723d 4b05 193e 4ecb 023e ade6 cdbd
00000220: fc3c c6bd ef25 b7bd ab4f 29be c197 f43b
00000230: c459 083d 3ebc 90bd 362e 0f3e 491c 453d
00000240: 7d64 373c c698 753c d779 61bd 9638 99bb
00000250: 654e 3b3d 5869 cebd 7ca6 0c3d 5165 c5bb
00000260: afe9 073d 928b ff3c f671 71be 8804 a9bc
00000270: 431a d7bd 3100 a8bd 27ea 9abd 01f6 a3bc
00000280: 04f3 05bc 1583 7abd 02e4 423e 7baf 1ebd
00000290: f13a db3b 663d cf3d f57b 663e 8695 dabc
000002a0: 721a 8fbc 6716 4e3e 2c5b 953d 939d 28bd
000002b0: 1ff2 99bd a053 d43c c1de e83d 0e56 9f3c
000002c0: e98f f2bd 0e02 3b3d 2e6c 8f3d eca9 2bbe
000002d0: 78ad 5a3e 82ba 823e 6d90 9fbd 3f03 89bd
000002e0: b7b7 c5bc 157f b3bd a1bb cabd a0cd dbbd
000002f0: d61f 94bc 6075 c93c d114 b93c e144 9f3d
00000300: f644 78bd 759d 22bd 5212 2e3d 2410 9dbd
00000310: b48a 98bc a91d 9cbd 3abf 8f3d cb2d 0bbc
00000320: 362b cb3b a187 22be 8389 2e3d 94d1 e63d
00000330: d6c5 a7bd bf77 613d b789 0cbd ca43 ea3b
00000340: 9a03 57bd c04d eebb d6ab e9bc 73c0 15bd
00000350: 1d39 c4bd a1a0 b33d 6f3f 66bd 8b21 793d
00000360: 3411 c8bc 5572 39bc 95aa f43d 5c10 c9bd
00000370: 1045 2c3e 0da5 e73d 1000 28be 3de0 a5bc
00000380: 1b0b a13d 32ce 6a3d dac5 e23c b309 e0bd
00000390: 3ea3 9a3d 22df 2ebe 1e05 0dbd 6f57 8abd
000003a0: b9ce 9ebc e9e3 f8bd 1e96 9f3d 5e96 2a3d
000003b0: 6acf 95bd 9872 1fbc ff41 c63d 9543 843c
000003c0: 0048 16be e3fe 8fbc 7305 49bd 2eb7 513d
000003d0: 25b4 c23d 0da9 113e ca9c 4dba 4703 e43d
000003e0: 84c7 58be 39cc 2fbd 4159 3bbc de3d 7d3d
000003f0: ddd1 a03d 800c 133e 019d 843d 8b9e 733d
-0.016799897 0.06440353 -0.059328884 0.06104457 0.006588967 -0.037361063 0.020384254 0.10832135
0.01623254 -0.03599365 0.05531591 -0.04635073 -0.18712136 0.050060306 0.09797047 0.066016905
-0.0716791 0.061860185 0.04628939 0.009124566 0.04623213 0.04597793 -0.11744759 -0.06378639
0.028140826 -0.1338887 -0.03798102 -0.010465998 0.09344064 -0.15396573 0.08402749 0.06437826
0.12819992 -0.058725055 -0.025224367 0.050923597 -0.13618495 0.048427053 -0.0065107453 -0.07756342
-0.11008291 0.08648744 -0.004220667 0.04706756 0.12961248 -0.11590946 -0.06552089 -0.0019733275
0.1290061 0.035172828 0.1087041 -0.073026076 -0.062920645 -0.07066139 0.0026285984 0.084999256
-0.17638709 -0.0016921831 -0.06105357 0.03211476 -0.055780802 0.056141827 0.03205891 -0.19976448
0.06326302 0.027823059 -0.026378348 0.124950096 0.04571293 -0.053097807 -0.0868814 -0.044895127
0.12770438 -0.10052528 -0.19215973 0.040769316 -0.037243728 -0.16042906 -0.059572034 0.0012283814
0.18857178 0.09591913 -0.09244456 -0.056501612 0.051673267 0.044810023 0.13203798 0.08770672
0.097744696 -0.016868059 -0.016003314 0.117265105 0.07476268 0.08184184 -0.104172915 -0.10109765
0.12783173 -0.16882218 -0.13533285 0.03616243 -0.043529082 -0.007961678 -0.02559896 -0.012105899
0.06412052 -0.009571107 -0.12269455 0.00715829 -0.097699605 -0.13080105 -0.30880675 -0.03432393
0.15075147 0.10643932 -0.10727026 -0.0067202034 0.07930054 0.08251118 0.078684546 0.07425478
-0.07778469 0.070689164 0.06920002 0.03557117 -0.038788058 -0.09233055 0.008946351 0.013383138
0.017514775 0.03133687 -0.08112326 0.110434785 0.059188943 0.14943425 0.12772867 -0.100537635
-0.096796006 -0.08942782 -0.16534297 0.0074643795 0.033288732 -0.07067154 0.13982472 0.048122678
0.011193392 0.014990037 -0.055047836 -0.004675935 0.04572906 -0.100786865 0.03433846 -0.0060240407
0.033181842 0.031194482 -0.23578629 -0.020632043 -0.10503056 -0.082031615 -0.07564192 -0.020014765
-0.008175615 -0.061160166 0.1903229 -0.03874157 0.006690376 0.10119133 0.22508223 -0.026682626
-0.017468665 0.20125733 0.0729278 -0.0411659 -0.07516884 0.025918782 0.11370612 0.019450214
-0.11843855 0.045656256 0.070030555 -0.16764039 0.21355236 0.2553292 -0.07791219 -0.06690072
-0.024135454 -0.08764473 -0.098990686 -0.10732579 -0.018081587 0.024592102 0.022592934 0.077768095
-0.06061264 -0.039700944 0.04249794 -0.07669094 -0.018620826 -0.07622845 0.070188954 -0.008494805
0.0062002195 -0.15872051 0.04261161 0.112704426 -0.08192031 0.05504584 -0.034311023 0.0071491944
-0.05249367 -0.007272452 -0.02852432 -0.036560487 -0.09581206 0.08770872 -0.05621284 0.060823005
-0.024422266 -0.011318763 0.119465984 -0.098175734 0.1682322 0.11310778 -0.16406274 -0.020248527
0.07863446 0.05732555 0.027682234 -0.1093935 0.07550667 -0.17077306 -0.03442871 -0.06754958
-0.019385682 -0.121528454 0.077923045 0.041647308 -0.07314952 -0.009731911 0.096805565 0.016145507
-0.14675903 -0.017577594 -0.049077462 0.051200084 0.09507016 0.14224644 -0.0007843493 0.111334376
-0.21169859 -0.04291937 -0.011434854 0.06182658 0.07852528 0.14360237 0.064752586 0.05947737

l1/b f4 [256]
00000000: 6869 883c 9e7d aebd 831e 03bd 8de5 bd3c
00000010: b9aa 8fbc 9bfd df3b 5256 b73b 724d 8cbc
00000020: 9e5c 0ebc 3cba 5fbd 40ec 6abd c983 d5bb
00000030: ea33 16bc aeee 5ebe b9ab 243d 4bf5 9f3a
00000040: ccd5 4bbd fa30 86bd 1e13 173d 9377 07be
00000050: c159 1e3d e369 10be abb0 0f3d aa1b 823d
00000060: 81b9 d63c 113a f33a 1fe9 a63c c028 7abd
00000070: be14 37bc 49bb 653d 5f1b 533d 1ef4 183d
00000080: 85b6 723c d6e7 833c 12aa c0bc 41fc 2b3c
00000090: c3db d8bc 4d07 b43c 4c96 ebbd 0b4c afbc
000000a0: d98e 95bd df05 e13c 792a 6e3c faa2 b4bd
000000b0: 72c5 023d 594a 8dbd 2bb6 cebb c66b 94bd
000000c0: d02f f13d 22ca f13b e10b 96ba a894 5abd
000000d0: 73d9 6ebd 9149 083d eaf4 17ba 197a 4a3d
000000e0: d8ae 9fbd 7bc5 793c 34a9 d93c dd69 15be
000000f0: 6256 273c f710 e33c 6d41 ff3c 2fe6 0abe
00000100: 1bab 71bc f38f dd3c d712 32bd fb8c 3c3d
00000110: 2c90 9bbe 176d f0bc 8307 d13a fedf 353d
00000120: bf23 14bc f329 89bc d0a1 f03c 62c3 4a3d
00000130: 9cbf 513d 85b4 12be 953c 373d baf9 d0bd
00000140: 4041 063d fd35 24bd 98c3 6ebd 1211 af3d
00000150: 933d 753d a9f7 c33c 7290 273d c512 16be
00000160: 9566 b23d 4728 2abc 298c 8ebb 7283 85bc
00000170: 1dc6 0f3c 88bc 183d 8ef5 05bc 672d eb3b
00000180: 1ea5 eebd e594 833d 3788 563d 86f7 043d
00000190: 760e 2d3d 3f85 80bd d46f 4ebe dcd1 883a
000001a0: 7b7e 8c3c 8b79 4ebc ff2f c83c 01a4 03bc
000001b0: 6b74 23bb 05e3 143d a786 573d 8114 793d
000001c0: 1ae6 b4bd e0b2 73bd 8377 0bbd 29c8 bd3d
000001d0: 6195 26bd d6d1 82bd dd8d 10bc 2528 acbd
000001e0: 2bb4 dfba f42e f33c e032 a73c 8bb5 24bd
000001f0: 3f7c dcbd ae77 bf3c 7bf9 7e3b c737 16be
00000200: 8a13 87bd af6e 81bd ca8d 87bb b624 ddbd
00000210: 9f2d c8ba 741d 1dbd ef71 703b e99b 873c
00000220: 5e0d beba d39d 86bd bd59 10bc b250 adbc
00000230: b3f9 e53b 8672 fdbc f50b df3c 4462 d63c
00000240: d2bd 5a3d 6c5e f8bb ef41 213d e141 b8bd
00000250: 61a3 9ebd c541 b1bc ab13 6cbd e496 c0bb
00000260: 9c46 e0bd 7321 38bc e908 063d 66b9 6abc
00000270: b68a 0cbe f3d0 f03b c6c9 0cbe e92a 60bd
00000280: 749e 20be 5ef8 ea3b 78c2 113d 8b92 363d
00000290: 9270 e33c cd30 003d a1ee 0c3d 3f81 e83c
000002a0: 534f 48bc 8254 2b3d eba4 90bd de52 f0bd
000002b0: 4fea 11bc 157c 873d f417 b43c c907 acbd
000002c0: 808a 86bb 0000 0000 8f61 8dbc 387d c4bb
000002d0: cbc2 5a3d 1810 44be a013 cf3b d3de 2fbd
000002e0: 545f 84bc b361 c33d 653f 19bd f1e2 333c
000002f0: 9918 41bd c095 f4bd 694d d1bd 78a9 873d
00000300: b9c0 773d f1ba 453b 7a99 86bc 34d5 01be
00000310: 4ae8 d23c 16b7 81bd 85f6 e33c 3164 ea3c
00000320: 2a30 87bd d68a bdbd a242 023e e2c0 c7bc
00000330: 5aef f0bd 20db 08bd 73e7 943c 3562 ee3c
00000340: 161c a53c 1313 60bd aba2 c3bb 22be 1b3d
00000350: 7b2e 6d39 4021 903d 694f 483d 9896 3cbd
00000360: 0466 6ebd 8a57 ae3b 212b ce3c bfd6 703c
00000370: 7e96 f23b d73d 8aba 019b 3d3d f252 f9bd
00000380: 51d7 4cbd 84f8 a9bb 600b 0dbe 0a2c c03b
00000390: ee91 0dbd c4e3 f33b 8168 053c 40d4 8ab8
000003a0: c909 d4bc b603 17bc c59e c4bc b09a a93b
000003b0: 1d2c 08bd 8b8a c1bc a8b2 293d b9ca 9bbb
000003c0: 3dd9 9d3d 4d8c f63c 7705 febb 3cc8 8fbd
000003d0: f386 eb3c 80b7 98bd 2600 133d c2f2 66bd
000003e0: ec0f 0d3a 3b4c 90bc cef8 1fbe f437 82bd
000003f0: 616b f13a 9f61 543d d21c 823b 9aa2 003d
0.016651824 -0.08520053 -0.03201152 0.023180747 -0.017537462 0.006835652 0.005595007 -0.017126773
-0.008689074 -0.054620966 -0.05735421 -0.006515954 -0.009167651 -0.21770737 0.04020283 0.001220384
-0.04976444 -0.0655231 0.036883466 -0.13229208 0.038659815 -0.14102893 0.035080593 0.06352933
0.026211502 0.0018556734 0.020374833 -0.06107402 -0.011174379 0.056086812 0.051539775 0.037342183
0.014814024 0.016101759 -0.023518596 0.010497154 -0.026471978 0.021976138 -0.11503276 -0.021398565
-0.07302637 0.02746862 0.014536493 -0.08820148 0.03192658 -0.06898946 -0.006308337 -0.07247119
0.11776698 0.0073788324 -0.0011447632 -0.053364426 -0.058312844 0.033273283 -0.0005796688 0.049432848
-0.07797021 0.015244837 0.02656994 -0.14591165 0.010213466 0.02771805 0.031159127 -0.1356437
-0.014750267 0.02704618 -0.043475 0.046032887 -0.30383432 -0.029348893 0.0015947673 0.04440307
-0.009041726 -0.016743636 0.029374033 0.049502738 0.051208124 -0.14326675 0.04473551 -0.102038816
0.03277707 -0.04009055 -0.058292 0.08548178 0.059873175 0.023921805 0.04090924 -0.14655598
0.08710972 -0.010385579 -0.0043502045 -0.01629803 0.008775261 0.037289172 -0.008176221 0.0071770432
-0.11652587 0.06424884 0.052376 0.03246262 0.04225012 -0.06275415 -0.20159847 0.001043852
0.017150154 -0.01260222 0.024436949 -0.008034707 -0.0024941217 0.036349315 0.05261865 0.06081057
-0.08832951 -0.05949676 -0.034049522 0.09266693 -0.040669803 -0.06387679 -0.008822885 -0.084060945
-0.0017067244 0.029685475 0.020410001 -0.040212195 -0.107658856 0.023372497 0.0038906026 -0.14669715
-0.06595524 -0.06319939 -0.0041367756 -0.10798018 -0.0015272385 -0.038358167 0.0036689003 0.016553836
-0.0014499833 -0.06573071 -0.008810458 -0.021156643 0.007018292 -0.030938398 0.027227381 0.026169904
0.053403683 -0.0075796153 0.03936952 -0.089969404 -0.07746006 -0.021637807 -0.057635944 -0.0058773626
-0.10950968 -0.011238444 0.03272334 -0.014326429 -0.13724789 0.0073491274 -0.13748845 -0.054728422
-0.15685445 0.007170721 0.03558585 0.044573348 0.027763639 0.03129654 0.03440726 0.028381942
-0.012225944 0.04182864 -0.070627056 -0.11734556 -0.008905961 0.06615464 0.021984078 -0.083999224
-0.004105866 0.0 -0.017258434 -0.0059963726 0.053408425 -0.19146764 0.006319478 -0.04293711
-0.016158737 0.09540119 -0.037413973 0.0109794 -0.0471426 -0.11942625 -0.10219843 0.066241205
0.06048653 0.003017124 -0.016430605 -0.12678987 0.02574553 -0.06333749 0.02782751 0.028612228
-0.066009834 -0.092549965 0.12720731 -0.024383966 -0.11764403 -0.0334121 0.01817677 0.029099563
0.020154994 -0.05470569 -0.0059703193 0.03802312 0.00022619397 0.07037592 0.048903856 -0.046042055
-0.05820276 0.005320494 0.02516705 0.014699637 0.007403194 -0.0010546994 0.0462904 -0.12174024
-0.05001003 -0.005187096 -0.1377387 0.005864625 -0.034562998 0.0074429233 0.008142591 -6.6198874e-05
-0.025883572 -0.009217193 -0.024001488 0.005175911 -0.033245195 -0.023625633 0.041430146 -0.004754391
0.077074505 0.030096198 -0.0077521163 -0.070206136 0.028750872 -0.07456875 0.035888813 -0.056383856
0.00053810957 -0.017614475 -0.15622255 -0.063583285 0.0018418842 0.05185091 0.003970721 0.03140507

l1/W f4 [256, 16]
00000000: 6e57 043f fe5d bebd 6f06 013e a0bb 13be
00000010: a719 073f 3e83 063b c83a 8ebf 5f5a 3b3f
00000020: 9d2b d5be b7cc b63e 4dc4 713d a685 54bf
00000030: f1c8 563e 81f7 e0bc ef69 f63e d1b6 a73e
00000040: aa7a 71be e060 193f 15f6 03be 4996 a03e
00000050: b68f 323f 9737 58be 205e 013f 3a0f 4d3e
00000060: 8e72 04bf 4c4d c93e ea2c d83e ebc2 84be
00000070: 37b4 79bd fd21 f73d 8c32 32be 559e acbe
00000080: df5b 833e 4bbd af3d a2af d4bd 7dc2 6d3e
00000090: b5ba 363d 37f4 10bf 1eb8 0c3e 65da 4e3d
000000a0: 095b 38bf 3a12 eb3e cb03 63be bfd1 2a3e
000000b0: 9743 083f f2ee a83d 1521 923d aa1f 323e
000000c0: 87e3 12bf f2b2 393e dc8f edbe c961 683e
000000d0: 24b0 c9be 5124 d1be bb26 ad3e 05cd 6b3f
000000e0: 65a0 bc3e faa9 e7be d180 be3d 5437 043b
000000f0: 27ec 1dbe e152 e4be de62 083e a93c 103f
00000100: 2b4a a6bc fd2a 68bd 0c4f 3b3f ebb4 9b3e
00000110: cfca 3e3e 84c3 0e3e 23d0 443e d479 803e
00000120: 6518 99be e9a4 32be d830 02bf 655d 12bf
00000130: 8f18 263e d45a e03d 9e8e 06bf 212f 443e
00000140: 5f86 063f 46d9 a8be bd6a 123d a80d 6f3d
00000150: 2941 0bbe 7ed4 1cbf d52e 8e3e c4fe b3be
00000160: 6c3a 93bd bf00 34bc fd18 8abe eb0e c0be
00000170: 4afc c5bd c469 fcbd 4369 afbe 005a 9d3c
00000180: 3798 6cbf c0fd afbe a1bc cbbd aaae 723e
00000190: 08cb 403e e518 e4be 3104 0fbe aa1c 86bd
000001a0: 769f 943c c604 363f 5373 003f 7623 f2be
000001b0: 8ba5 4ebe 37ba 013e 4f66 efbd 4363 bc3b
000001c0: 7fd7 8b3d 90c5 f13d 51a3 113f 6920 47bf
000001d0: f42d e33e 0859 8b3e 350c e5be a981 d8bd
000001e0: 267a e6be 8c80 c53d e03c c3be 2e2c 4b3d
000001f0: eb39 fa3e c85f eebe ab56 023e 2b74 8f3e
00000200: 2d0a a83d 8b74 ac3e 01dd 41be a8f9 cc3e
00000210: 492b 433e 3264 913e fdec b13c a4d8 613d
00000220: 7642 4dbd 553b 8fbe 7d53 e1be a79b 5abe
00000230: 6ccd 23bf bb25 9bbe 3808 03be 0c07 1bbd
00000240: 2704 af3e 2558 c33e b478 103f 7b70 063d
00000250: 9f92 75be e131 afbe 4885 653f 3ade 91be
00000260: 9ca9 e7be e1d0 cd3e b1fe 09be 9b03 0bbe
00000270: f57f 68bf e986 c7bd c3dd 1e3f 83ad 5ebd
00000280: 8af9 b6bd 773a 9b3e 7e5e 1f3e e17e c5bd
00000290: 254b 4ebf d68f 2f3f 8ca3 bbbe c589 853e
000002a0: efae 473e bb58 02bf 95c5 c03e 0ca8 1fbe
000002b0: b232 22bf d26d bd3e cdcd 9e3d 79e8 123e
000002c0: 9d89 59be acb5 bdbe 5f5c b43e e59a 1dbf
000002d0: b525 b9be 2b11 a7be 54a2 56bf d411 37bd
000002e0: 9b80 6bbe bc8e 1ebf 86d5 163f c44e a53e
000002f0: 40c4 73be 62b3 a9be 3068 c6be f3c4 a7bb
00000300: 6d8a 06be ca86 753e 09c2 7dbe 5f73 f03e
00000310: bc53 33be 8a22 91bd 639d 883e 13df 07bf
00000320: 6c6f d8be cd98 0cbf 43cf 963e 9409 9ebe
00000330: fcd9 573d fca2 4abd 77bf 9fbe f819 2b3f
00000340: f678 16bc 2953 383e b4e5 d0be 0a20 143e
00000350: 03a7 5b3f af16 03be 05b1 56be a294 fdba
00000360: bcb3 ca3d 435d a03c d2b5 be3e d7e2 e7bd
00000370: dbc7 283e 8324 f8bc b748 e33e 70ad f6bb
00000380: 9197 16bf 7839 82be ed31 b13e 5e9d d2be
00000390: cb2b 26be 75e7 573e edaa 40bb 0bf5 b0be
000003a0: b02f c7bc f165 a1bd 579b d6bd fb5c dabc
000003b0: 2389 8abe f0b9 92be 1206 b23e 00b3 e8bb
000003c0: 488c 3f3e 9cb0 d0be a411 813e 20f4 583a
000003d0: 1100 933e dde7 173f 34c3 7cbe 07e5 023e
000003e0: 5ed9 28be 8ff9 d3be e630 7b3e 4dff 833e
000003f0: a0c0 1d3e e195 df3d 9cb3 1abe 2d7d bdbe
0.5169591 -0.09295271 0.1260011 -0.14427042 0.5277352 0.0020525004 -1.1111689 0.7318477
-0.41634837 0.3570306 0.059025098 -0.8301643 0.2097509 -0.027461769 0.48127696 0.32756665
-0.23581949 0.59913445 -0.12886842 0.31364658 0.69750535 -0.21114956 0.5053425 0.2002534
-0.51737297 0.39316785 0.42221767 -0.2592996 -0.060962882 0.120670296 -0.17402095 -0.33714548
0.2565603 0.08581027 -0.10385062 0.23218723 0.04461165 -0.5662264 0.1374211 0.050501246
-0.7201391 0.45912343 -0.22169416 0.16681574 0.53228134 0.082487 0.07135216 0.17394891
-0.5737843 0.18134668 -0.46398818 0.22693552 -0.39392197 -0.4084802 0.33818612 0.9210971
0.3684112 -0.4524687 0.093019135 0.002017458 -0.15422116 -0.44594482 0.13318965 0.5634256
-0.020299038 -0.05668162 0.7316749 0.30411467 0.18632053 0.13941771 0.19220023 0.25092947
-0.29901424 -0.1744572 -0.5085578 -0.5717376 0.16220306 0.10954824 -0.52561367 0.19158603
0.52548784 -0.32978266 0.035746325 0.058362633 -0.13599075 -0.6126174 0.27770105 -0.35155308
-0.071888775 -0.010986506 -0.2697219 -0.37511382 -0.09667261 -0.12324861 -0.34259996 0.019207954
-0.9241976 -0.34373283 -0.099480875 0.23699442 0.1882745 -0.44550243 -0.13966443 -0.06548436
0.018142443 0.71101034 0.5017597 -0.4729268 -0.20180337 0.12668692 -0.11689436 0.0057491376
0.06828212 0.1180526 0.56889826 -0.7778383 0.44370997 0.27216363 -0.44735876 -0.10571606
-0.45015067 0.09643659 -0.3813238 0.04960268 0.48872313 -0.4655745 0.12728374 0.28018317
0.08205066 0.33682665 -0.18931963 0.40034223 0.1905948 0.28396755 0.02171945 0.055138245
-0.05011221 -0.27974954 -0.4400901 -0.21348439 -0.63985324 -0.30302224 -0.12796104 -0.037848517
0.34182855 0.38153186 0.5643418 0.032822113 -0.23981713 -0.34217742 0.89656496 -0.28489858
-0.4524659 0.40198424 -0.13476063 -0.13575594 -0.90820247 -0.09742529 0.6205713 -0.054364692
-0.089343145 0.30318043 0.1556339 -0.09643341 -0.8058341 0.6857885 -0.36648214 0.26081672
0.19500326 -0.5091664 0.37650743 -0.15591449 -0.63358605 0.3699785 0.07754097 0.14346494
-0.21243902 -0.37052667 0.35226724 -0.61564475 -0.3616158 -0.32630286 -0.83841443 -0.044694737
-0.22998278 -0.61936545 0.5891956 0.32286656 -0.23805332 -0.3314467 -0.38751364 -0.0051199137
-0.13138743 0.23977199 -0.2478105 0.4696302 -0.17512411 -0.07086666 0.26682577 -0.5307476
-0.42272508 -0.54920655 0.29455003 -0.30866683 0.05269812 -0.04947184 -0.31200764 0.668365
-0.009184113 0.18000473 -0.4080025 0.14465347 0.85801715 -0.12801622 -0.20965965 -0.0019346664
0.09897563 0.01957572 0.37248093 -0.11322563 0.16482489 -0.030290848 0.44391415 -0.0075279996
-0.5882502 -0.2543447 0.34608403 -0.41135687 -0.16227643 0.21084388 -0.0029398755 -0.34561953
-0.024314731 -0.07880772 -0.104788475 -0.026655665 -0.27057752 -0.28657484 0.34770256 -0.0071014166
0.18705857 -0.40759742 0.2520877 0.00082761236 0.28710988 0.5933817 -0.24683839 0.1278268
-0.16489169 -0.41401336 0.24530372 0.25780717 0.15405512 0.10917259 -0.15107578 -0.37009564

l4/b f4 [16]
00000000: 4c26 af3d be6a 483c 3a94 0a3d eaf7 013e
00000010: fc8d cb3d cb6f e4bc 57f7 14bd d83e a83d
00000020: 0bf2 e03d 0ef0 4d3d 67fa d0bc ebb9 c43d
00000030: 4cb3 813d 4c65 793d f988 a63d 219e fc3d
0.085522264 0.012232481 0.033832766 0.12692228 0.09939191 -0.027885338 -0.036368694 0.082151115
0.10983666 0.050277762 -0.025510026 0.096057735 0.06333026 0.06088762 0.08131594 0.12334848

l4/W f4 [16, 256]
00000000: 0f52 5dbd aac6 d7bb 2e05 d93b 4d4d 603c
00000010: c9f7 dfba 4c07 433e 7d14 623d c93e 67bc
00000020: 5d74 c9bd a800 9bbe 5ffc c23d 0a68 55be
00000030: c681 213d 5a2f 7c3d b7f6 d4bc 7007 ba3d
00000040: 4079 fd3d ec95 e13c 43f1 17be 3ecc 8d3d
00000050: 14fb 053d 2617 983d a91c 2e3e 0cac 0bbe
00000060: f39e cb3d 4b34 38be f032 c7bd 208b 723e
00000070: b43c 3fbe 6dfd 8cbd e456 0dbd da7d 9e3d
00000080: 5d61 dd3d af16 94bd 4976 7e3e 916e 23bd
00000090: e813 d73d 6a39 283e eac6 55be ba2c a13b
000000a0: 68eb ffbd 7ef3 32bc 359f 673d a934 ae3b
000000b0: 38ae c8bc edab 683e 4609 323c 85ce afbd
000000c0: 7314 113e 940a 113d 1875 9fbc 2294 d13d
000000d0: 0f50 1e3d 2d19 fd3d a59e b53d 413a a43d
000000e0: 2eda 75bd db6d 4f3e ba54 2bbe aedd d43d
000000f0: 4a95 563d b84e 6e3e 2893 8a3d 7cae 1039
00000100: e8a1 44bd 7ab4 9ebe a396 af3d 1bd8 d93c
00000110: 1e8e 313c 55c9 f83d a3b3 bebb 81a8 89bd
00000120: 8024 12be 4d79 37bd 43da 82be a7e7 20bd
00000130: c498 3e3d 3f9a aabd 90ea 303d e305 2fbe
00000140: 2823 91bc 1f6c 2c3d 2715 0ebe b89e 413e
00000150: e19e da3d 59cf 48be 2f79 4abe ebf8 88be
00000160: f907 56bd bae1 8a3e cec0 05be bd34 453d
00000170: 1baa d53c 2005 83bc 1967 2f3c 4853 273d
00000180: f99f 53bd c38e 6b3d 387b e5bd 91a9 bb3c
00000190: cb8a c0bd ee37 39bd 6029 853d 01d4 89bd
000001a0: a4ac 223e 86ca 3fbd f8e4 4b3d 520e 91bd
000001b0: e580 2abe e13d a33e f57b 173e 4f0a 18be
000001c0: fd9f 083e 88b7 63bd 779b 543e c772 c13c
000001d0: 782b 11bd ff19 3cbe 3466 c43d 7517 373e
000001e0: de90 4d3d 3e2e 043e 715f 733e 75f2 053e
000001f0: 46a5 7cbd f39b 04bb ed8f a4be 0971 08be
00000200: 5dab 573e cfc8 1abd 292a bf3d 523a 91bd
00000210: 694f ac3d 742a 7a3e 97b6 72bd 29f5 4d3d
00000220: 115c 14be 9cca 00be 6309 263d 4a78 b1be
00000230: 75a5 45be 4483 c63c 3104 0f3e 3e5c 493e
00000240: 6ce1 573d b7f4 1ebe 2c3b 8abd 7c7c 89be
00000250: c640 b53d 617e 44bd 1460 afbd 8f4b 1c3d
00000260: 99af bdbe e5db d13c e021 403e 482d 9cbe
00000270: 8eb9 4cbe 5880 83bd 674c 493e 07cd 1a3d
00000280: 5d53 20bd 51bd a23c a05b 943d 7c2f aa3d
00000290: 3fb2 3f3c 5542 25be c717 ee3d 587c ec3d
000002a0: b518 bd3d a449 893e 3d3f 60bd e852 873d
000002b0: c13f 47bc 4073 a0bb 5ce1 5b3d 5e45 a0be
000002c0: 3c5b dd3c 0162 48bd ad18 cebc 15f2 b83d
000002d0: e62f 293e d84f 623e 8831 f6bd 802e 103e
000002e0: ce7c 1ebd b66c ef3d 26dd e3bd 8832 063d
000002f0: ce11 18be e193 9a3e 40fc 373e 6121 aebd
00000300: 97bf a93e d5db b33d 6a7d 5fbc 3430 debc
00000310: 41ea 35bd 1c1c 553e 64dd 26bd abf8 58be
00000320: 994b a13d 4169 0dbe c29d 853d c938 68be
00000330: c096 7f3c c467 45bd af59 89bd 056c 52be
00000340: dd7a cb3c dcc1 7cbe ee72 3d3e 8bb1 c3bd
00000350: 0136 e3bd b44e 8a3d 0e33 2d3e cd1f 893d
00000360: 6676 f3bd dbec 383e b79c e23d dd86 d7bc
00000370: 8e1b 31bd 2636 c0bc 89aa f4bd 0349 1ebd
00000380: 0ce4 993e 45d9 1cbe 03cb 4f3b 831c 0bbe
00000390: 89a4 053e 040f eb3c d783 e73d b4a4 33be
000003a0: baca aebc dbcd 01bd b2f2 273c ec2c 1bbe
000003b0: 9ec4 49be f73a ab3c 2568 163c fb45 933e
000003c0: 31a9 c3bd 35ae 90bd 1426 05bd 8fae f63c
000003d0: a056 c23b 149d 893d c8b4 5a3d 6702 5e3c
000003e0: ae15 27bc e540 0d3e 899f c2bc 44c5 0e3d
000003f0: 9f1e b5bd 3659 d33b 0628 8bbd 7a4e f63d
-0.054033335 -0.006584962 0.006622932 0.013690305 -0.0017087396 0.19045752 0.05519532 -0.01411409
-0.09836648 -0.30273938 0.09520792 -0.20840469 0.039430402 0.061568595 -0.025996549 0.0908345
0.12376642 0.027537309 -0.14838128 0.06923722 0.03271015 0.0742629 0.1700312 -0.1363985
0.099424265 -0.17988698 -0.097265124 0.23685884 -0.186755 -0.06884275 -0.034506693 0.07738848
0.10809586 -0.07230889 0.2484981 -0.039900366 0.10501844 0.16428152 -0.20876661 0.004918662
-0.12496072 -0.010922311 0.056548316 0.005316336 -0.024497136 0.22721834 0.010866469 -0.08584312
0.14167957 0.03541048 -0.019465014 0.10233332 0.03865057 0.123583175 0.0886815 0.080189236
-0.060022525 0.2025675 -0.1673154 0.103938445 0.052388467 0.23272216 0.06766349 0.0001379791
-0.04800597 -0.30997068 0.085736535 0.026592305 0.010837106 0.12147776 -0.005819754 -0.06721593
-0.14271736 -0.044793416 -0.25557145 -0.03928342 0.046532407 -0.08330201 0.043192446 -0.1709209
-0.01771696 0.0420953 -0.13875256 0.18908203 0.10674835 -0.19610347 -0.1977279 -0.2675241
-0.052253697 0.2712534 -0.1306183 0.048146 0.02608209 -0.015993655 0.010705733 0.040850908
-0.051666234 0.057509195 -0.11205143 0.022908004 -0.09401473 -0.045219354 0.06502032 -0.0672989
0.1588617 -0.046824 0.04977891 -0.070828095 -0.16650732 0.31883147 0.1479338 -0.14847682
0.1334228 -0.05559495 0.2076243 0.0236143 -0.035441846 -0.18369292 0.09589806 0.17880042
0.050186984 0.12908265 0.23766877 0.13080771 -0.061681055 -0.0020234555 -0.32141057 -0.1332437
0.21061464 -0.037789162 0.09334213 -0.07091202 0.08413584 0.24430257 -0.059256162 0.05028263
-0.14488246 -0.1257729 0.040536296 -0.34662086 -0.19301398 0.024232514 0.13966443 0.19664094
0.052705213 -0.15523039 -0.067495674 -0.26852787 0.08850245 -0.047972087 -0.08563247 0.038157996
-0.37048033 0.02561755 0.18762922 -0.30503297 -0.19992658 -0.06420964 0.19658051 0.037793186
-0.039142 0.019865664 0.072440386 0.08309838 0.011700212 -0.16138585 0.11625629 0.11547154
0.09233228 0.26813996 -0.05474781 0.0660761 -0.012161196 -0.0048965514 0.053681716 -0.31302923
0.027021043 -0.04892159 -0.02515825 0.090305485 0.16522178 0.2210077 -0.12021166 0.14080238
-0.03869324 0.11690657 -0.11126165 0.032763034 -0.14850542 0.30190948 0.1796732 -0.0850246
0.33153984 0.08782164 -0.013640741 -0.027122594 -0.044412855 0.20811504 -0.04073848 -0.2118861
0.07875747 -0.13809682 0.065242305 -0.22677912 0.015599906 -0.04819466 -0.06706559 -0.20549019
0.02483886 -0.24683326 0.18500873 -0.09555348 -0.11094285 0.06753293 0.16914007 0.06695519
-0.11887817 0.18059103 0.11065047 -0.026309425 -0.04323917 -0.02346332 -0.119465895 -0.03864385
0.30056798 -0.15317257 0.0031706698 -0.13585095 0.13051046 0.028693683 0.11304443 -0.17543298
-0.021336902 -0.03169046 0.010250734 -0.15153855 -0.1970391 0.02090214 0.009180103 0.28764328
-0.09553755 -0.07064477 -0.032507017 0.030112533 0.0059307367 0.067194134 0.053395063 0.013550377
-0.01019804 0.13794287 -0.023757713 0.034856096 -0.08843731 0.0064498438 -0.06794743 0.12026687
