static/ai/8/agent_white_20000/model.npz (npz, 605578 bytes, 8 tensors)

l2/W f4 [256, 256]
00000000: e9c6 23c1 a838 78c0 8140 37c1 4ac9 c9c0
00000010: 1333 1341 8419 ddbe 7546 76bf b0d1 a9c0
00000020: 7510 7cc1 a870 ee3f 679c a6c0 1355 63bf
00000030: 3fca 25c1 8526 2f40 d42f 3ec0 763b eabd
00000040: 5304 4a40 090c 8740 101c 06c0 8e35 c13f
00000050: b4be 93c0 3d6e 2dc0 18bd 48c0 afd4 b9c0
00000060: 4d0a ffbf 0735 6940 1cb5 a140 4f6e 91bf
00000070: 8423 64c1 38f9 4541 0aa0 afc0 e08d a13f
00000080: 35bb de40 f6d6 a3be 37b5 943f 92a3 0140
00000090: 9a82 51c0 1cd8 a13f 8e25 ee40 2912 4440
000000a0: 7a8f d63f 3d16 debd d5e4 a8c0 de90 cec0
000000b0: 057c b2c0 66ed 1e40 4b8b af40 811e a13f
000000c0: 52a7 aec0 9a9b 1f3e 1af7 f53e 7a4a a140
000000d0: cfc5 08c0 420d 1140 9c31 6cc1 e2bf 57c0
000000e0: da2d ed40 7c9c 1d3f 391a 1bc0 fe4b 3ac1
000000f0: 5d65 e7c0 28d6 7ac0 9b1d 01c1 c5a2 b7c0
00000100: 6a2d 2cc0 e8cd 93c0 70c0 4cbf 76b2 9740
00000110: 5544 4ac0 6c14 d640 0f90 c240 6bb4 14c0
00000120: e45d 07bf df88 573f 162c 8140 1e0d 8dbf
00000130: 6276 10c1 29ba 0cc1 fcf3 08c1 a2f7 dec0
00000140: efb0 80c1 1a46 553f 1a29 2541 405c e3c0
00000150: 9077 293f cc76 0fc1 9f93 afc0 0176 57bf
00000160: 104e 9ec0 d24f 283e 1256 2dc0 97c9 a240
00000170: f900 6040 9ce9 fb3f 3474 1cc0 c4bb c040
00000180: 4c94 64c0 7d6c 0bc0 89e9 2a40 9b21 e73f
00000190: 24d5 c5c0 744d f4c0 dd34 8c40 36ce 1dbf
000001a0: 9aa5 dcc0 d7fc 0840 60e5 a3c0 bb58 16c0
000001b0: 9938 9cc0 ca44 9bbe 6eea b43f d627 6ac0
000001c0: 28e8 f2bf 7c54 f9c0 7372 acc0 aae0 bec0
000001d0: 1988 54c1 0e67 183f 7400 00c1 8b2a c1c0
000001e0: ba75 1cbf a67e cfc0 aaaf cdc0 6ad4 adc0
000001f0: 74dd 89c0 b9b2 7340 199f e93e cf92 a4bf
00000200: ee3f 52bc 5066 fcc0 a6bc 8ac0 3966 eac0
00000210: c86b d9be 68a1 2dc1 dbf9 ed3f 1506 5c3f
00000220: 4895 3440 3390 1941 6687 2641 b534 7dc0
00000230: 116f b1c0 c8a7 88c0 8235 24bf 67f8 33bf
00000240: 215a 963f 4490 f7c0 854e bdc0 88e5 ffc0
00000250: a705 c640 f397 42c0 9b86 3ebf 1c7b 02bd
00000260: dc15 84c0 8497 30c1 d34f 0ac0 dc62 7bc0
00000270: 1760 69c0 5cfe 0dc1 03d5 7c40 d7da 8fc0
00000280: efc9 b3c0 712b 5fc1 9d5f fb3e a1b4 7940
00000290: 9a58 07c1 3327 7dc0 699a eebf 528b 2dc0
000002a0: 0589 b1c0 cf0e 60c0 a0e9 3ac0 fbb9 47c1
000002b0: f593 6ec1 09bc 3fc1 4270 42c0 488f 98c1
000002c0: b70a fabf 93be e93f 1187 8140 3c3d 00c0
000002d0: 1737 b340 767b 3140 fad4 bc3f eee8 7e40
000002e0: 9a7f 9ec1 602e abbf 7a1f ccc0 7091 8ebe
000002f0: 32c6 23bf e04f e4c0 ad68 68c0 53c5 3ac0
00000300: b42f 0bc0 96c7 3b40 0a31 3bc1 28c3 28c1
00000310: d7fd f7bc 2e73 c940 8adc 9abe 54ac 8bc1
00000320: 210b 33c0 579f 2bc1 69af a4c0 3ef1 11c0
00000330: 1be6 d4c0 82fc c440 5eeb b9c0 b827 bbbf
00000340: 5dd7 6640 46fa 32c1 68cd 22c1 cb50 1a41
00000350: bc83 3c40 f6ee d940 c528 443f 3f62 39c0
00000360: e310 903e 6e40 85c1 fd95 25c1 036e 8cc0
00000370: f5e2 94c0 a934 5dc1 5624 cfbf a0f2 13c1
00000380: 20d5 7cbf fd5a 94c0 7b47 793f 96fa d640
00000390: c2cd 4940 37b8 32bf a45b d83f d852 6e40
000003a0: 92e0 6840 f237 0ec1 f2d7 8340 01cb 1a40
000003b0: 6139 1240 5350 f740 73f5 c240 b17b 07c1
000003c0: 3a2c 8740 cac9 40c1 d175 05be 0564 c03f
000003d0: c71d 19c0 b70a 9fbf a380 bac0 4a88 e5bf
000003e0: 5a83 2240 f825 4fc0 64ed 8840 4bc4 85c1
000003f0: 1d53 46c0 4531 ee3f 686e c83f e165 27c0
-10.236062 -3.878458 -11.453248 -6.3058214 9.199969 -0.4318353 -0.9620126 -5.3068466
-15.754018 1.862813 -5.206592 -0.8880169 -10.3618765 2.736726 -2.9716692 -0.114371225
3.156514 4.220219 -2.0954628 1.5094469 -4.617029 -2.7098534 -3.1365414 -5.8072124
-1.9925019 3.6438615 5.053358 -1.1361789 -14.258671 12.373344 -5.488286 1.2621422
6.9603524 -0.3199994 1.1617802 2.0256085 -3.2735963 1.2644076 7.4420843 3.0636084
1.6762536 -0.10844085 -5.2779336 -6.455184 -5.577639 2.4832397 5.4857535 1.2587434
-5.457925 0.15586701 0.48040086 5.0403414 -2.1370733 2.2664342 -14.762112 -3.3710866
7.411847 0.615669 -2.4234755 -11.643553 -7.2311234 -3.919321 -8.069728 -5.7386193
-2.6902719 -4.618885 -0.79981136 4.740535 -3.1604207 6.689993 6.0800853 -2.3235118
-0.5287764 0.84193224 4.0366316 -1.1019628 -9.028902 -8.795449 -8.5595665 -6.9677286
-16.086393 0.8331009 10.322535 -7.105011 0.6619806 -8.966503 -5.48677 -0.84164435
-4.947029 0.16436699 -2.7083783 5.087108 3.5000594 1.9680667 -2.4445925 6.0229206
-3.5715513 -2.1784966 2.6705039 1.805713 -6.182268 -7.6344547 4.381453 -0.6164278
-6.895215 2.1404321 -5.12175 -2.3491657 -4.881909 -0.3032592 1.4134042 -3.6586814
-1.8977098 -7.791563 -5.388971 -5.964925 -13.283227 0.5953225 -8.000111 -6.036443
-0.61117136 -6.48421 -6.4276934 -5.4321795 -4.308283 3.8077834 0.45629194 -1.2857302
-0.012832625 -7.8874893 -4.3355284 -7.3249784 -0.42465043 -10.851906 1.8591875 0.8594678
2.8216114 9.597705 10.408056 -3.956342 -5.544808 -4.270481 -0.64144146 -0.70300907
1.1746255 -7.7363605 -5.915835 -7.996769 6.18819 -3.0405242 -0.7442414 -0.031855687
-4.1276684 -11.036991 -2.161122 -3.927909 -3.6464899 -8.874599 3.9505012 -4.495464
-5.6184 -13.948106 0.49096385 3.9016497 -8.459131 -3.9555175 -1.8640872 -2.7116284
-5.547976 -3.5009038 -2.9205093 -12.482905 -14.911122 -11.983407 -3.0381017 -19.069962
-1.953452 1.8261284 4.0477376 -2.0037374 5.600475 2.7731605 1.4752495 3.982967
-19.812305 -1.3373528 -6.3788424 -0.27845335 -0.639743 -7.1347504 -3.631389 -2.9182937
-2.1747866 2.9340568 -11.699472 -10.547646 -0.030272407 6.29531 -0.30246383 -17.459145
-2.7975543 -10.726401 -5.1464124 -2.2803493 -6.653089 6.1558237 -5.8099813 -1.4621496
3.6068947 -11.186102 -10.175148 9.644725 2.9455404 6.81042 0.7662471 -2.8966215
0.28137884 -16.65646 -10.349118 -4.388429 -4.6527047 -13.8253565 -1.6182964 -9.246735
-0.987627 -4.636107 0.97374696 6.718089 3.1531835 -0.6981234 1.6902966 3.7238064
3.6387067 -8.888659 4.1201105 2.4186404 2.2847521 7.728555 6.092462 -8.467698
4.2241488 -12.049265 -0.13033225 1.5030524 -2.3924425 -1.2425145 -5.8282027 -1.7932217
2.539267 -3.2366924 4.2789783 -16.720846 -3.0988228 1.8608786 1.5658693 -2.6155932

l2/b f4 [256]
00000000: 189f 0e40 0bec 31be d8f9 6440 4bff 7740
00000010: 1734 f4bf 994b 9040 6ea0 34bf d72d 0440
00000020: daf0 6e3e 6ba0 7740 cc6f 3040 5b5f 6a3f
00000030: e903 6b40 84a1 e23f dad8 03bf 90a5 f73e
00000040: a12d 0040 e698 afbf 4d0a 4d3f 8e63 0940
00000050: c69b 2440 f5af 8d40 1b83 2d40 2217 cc3f
00000060: a6ca d63f 3f26 3540 5f3f 8640 df43 4f40
00000070: b040 823f fd89 7d3f bca7 6d3f 6162 7d41
00000080: e2f2 6440 3bc7 8f41 ec53 fd3f 84ca babe
00000090: b355 01be 8e0a 893f d238 b73f 69e3 803f
000000a0: 24ae 5640 45c7 8a40 6b51 da40 a8dc 9f3f
000000b0: 05de 5c40 91b6 2740 d8eb 9d40 6a59 2640
000000c0: 7820 dc3f a717 9a3f 4e32 693f 3fdc 5f3f
000000d0: 2fff 58bf 318c 39bf 4da1 4b40 9cbb 2f40
000000e0: 73b7 1340 4825 8940 ef9b 613f 0732 383f
000000f0: 8ac2 4440 a0fb 9b40 7093 3340 370e c73f
00000100: 075d adbe d51a 19c0 b3f7 56bf 140c ac3f
00000110: fae4 2640 cc5e 8740 380a f83f b9c1 1bbc
00000120: 01eb 923f 00b2 81be 0004 b43f 461c 633f
00000130: 14c0 c93f b74c fabf 8d0f b63e 8153 1c3f
00000140: 8b5d 3040 5fbc 3c3f 64a8 0a40 dc9b d93d
00000150: 069e bebf 7546 2b40 8db7 b33e 28e2 4240
00000160: 493f 4b3f e2a3 aa3e 57e5 e43f 917e 9540
00000170: 9f8a b13f 5968 5f40 dabc 2440 98c8 d53f
00000180: 85c6 0640 19af f23e 67a4 8140 95d1 65bf
00000190: c7fa 75bf d5dc 39bf 064b 7640 2c69 8e40
000001a0: 32cc 143f 89ef 8d3f 4859 6440 07b1 973f
000001b0: 40a7 77be 7bda 1b40 9944 6e3f ce97 423f
000001c0: ecfb a7bf b4b0 9dbf 02cf f1be 52ba b240
000001d0: ca19 5440 62b0 edbf 2f76 d43f 5504 1a40
000001e0: 7a4a a140 4bc9 933f 157c 2e40 e50e 8fbf
000001f0: ad89 67bf a93e 7f40 e68a 7b3e 0bec d83f
00000200: ab3a 8d3f feac d33f f221 2940 d3b0 3d40
00000210: f668 853f f8c6 a33f b237 4040 ec97 9bbf
00000220: f1f7 1140 3241 b63f 91e2 4940 8a9f d4bf
00000230: 0293 5d40 0eae e53e 3b19 2e40 264e a63f
00000240: 8e09 cc3d 9158 ab3f 4f0d bb3f ad11 0cbf
00000250: 88de 5b40 8acd 83bf cc83 f03f 3ffa 593f
00000260: e813 0e40 0313 6d3d 0a07 5840 e359 d63f
00000270: f801 1b40 4144 bf3f cb1d 8240 6b9b 343f
00000280: cb94 5640 f965 313f 1698 863f 3c59 3040
00000290: 4b9c 913e eacc 1ebf fd0a 1340 14da 9abf
000002a0: c610 de3f 4378 b03f 471f a040 f175 e53f
000002b0: 5b84 c3be 17d2 5440 8d81 3ebe 45e2 3e40
000002c0: 5581 2c40 4af5 6b3f 91c1 9540 191b 203f
000002d0: c5d3 afbf 8826 b33f 2954 193f a2a9 823f
000002e0: 3410 1140 4b73 f2bf d47c 8540 ffaa 1240
000002f0: 3695 4240 510b 3140 77a5 133f f2ba e13e
00000300: 0709 08bf 35fe 1c40 a636 923e 5c6f b83f
00000310: b247 3d3f c161 9440 ec10 c53f 444c 1240
00000320: 04d2 ac3f f140 a440 6adf 1340 bd7d b03f
00000330: 87c7 d6bf 8b3d 6040 8c02 fabf fa52 3140
00000340: 19a0 7f3e 7c2c 823f 9f91 4940 697c 5a40
00000350: 41c7 34be e113 80bd 41ce 3040 cd82 433f
00000360: 3458 fe3e e016 7340 c729 9540 fed7 4640
00000370: f764 693f 2f57 1740 b718 71bf 937b debf
00000380: 15b5 6840 b8dd fcbf 5737 5b40 8677 7d40
00000390: 5065 0b41 3883 cf3d e8b1 813f d57c 29bf
000003a0: d0aa 6240 27ab ba3f ff6e 9b3f c923 0d40
000003b0: 0d0e 1c40 bcb7 4140 7d2a 203e 1616 8940
000003c0: 98df c2be 8e4e 9a3f fc0f 0d40 d8ab 333f
000003d0: e04b 1640 6457 8640 5d0e 7e40 1147 783f
000003e0: f82f 1a3f d18a 3340 6b34 d8be fac9 babe
000003f0: 973a c6bf 10b2 a63f a30c ce3f b6a3 0540
2.2284603 -0.173752 3.5777493 3.8749568 -1.9078397 4.509228 -0.70557296 2.0652978
0.23334065 3.8691661 2.7568235 0.9155175 3.6721137 1.7705541 -0.51502764 0.48368502
2.002785 -1.3718536 0.8009384 2.1467013 2.5720077 4.427729 2.711127 1.594456
1.6780593 2.8304594 4.1952357 3.2385175 1.0175991 0.9903868 0.9283407 15.836518
3.5773244 17.97228 1.9791236 -0.36482632 -0.12630348 1.0706346 1.4314215 1.00694
3.3543787 4.336825 6.8224387 1.2489214 3.451051 2.620518 4.9350395 2.5992074
1.7197409 1.2038468 0.91092384 0.87445444 -0.8476438 -0.7247954 3.18172 2.7458258
2.3080719 4.285801 0.8812856 0.71951336 3.0743737 4.874466 2.8058739 1.5551213
-0.33860037 -2.3922627 -0.8397171 1.3441186 2.6077256 4.230322 1.9378119 -0.009506636
1.1477968 -0.25331116 1.4063721 0.88715017 1.5761743 -1.9554662 0.3555874 0.61064917
2.7557094 0.7372493 2.1665277 0.10625431 -1.4891975 2.6761754 0.35100976 3.0450535
0.7939344 0.33328158 1.7882489 4.6717 1.3870429 3.4907439 2.5740266 1.6701841
2.1058667 0.47399214 4.0513186 -0.8977292 -0.9608578 -0.7260259 3.848329 4.4503384
0.5812408 1.1088725 3.5679493 1.18509 -0.24184895 2.43521 0.9307342 0.76012886
-1.3123755 -1.231955 -0.47228247 5.585244 3.314074 -1.8569453 1.6598567 2.4065144
5.0403414 1.1545805 2.7263234 -1.117642 -0.9044445 3.9881995 0.24564704 1.6947035
1.1033529 1.6537168 2.6426969 2.9639175 1.0422657 1.2795095 3.0033994 -1.2155738
2.2807581 1.4238646 3.1544535 -1.6611187 3.4620976 0.44859356 2.72029 1.2992599
0.0996276 1.3386403 1.4613436 -0.5471447 3.4354572 -1.02971 1.8790221 0.8514747
2.219965 0.05787946 3.3754296 1.6746181 2.4219952 1.4942704 4.066137 0.7054965
3.3528316 0.6929622 1.0515163 2.7554464 0.28439555 -0.62031424 2.2975457 -1.2097802
1.7348869 1.3786701 5.003818 1.7926618 -0.38186917 3.3253229 -0.18604107 2.9825604
2.6953938 0.92171156 4.6798787 0.6254135 -1.3736502 1.3996134 0.59894043 1.0208018
2.266614 -1.8941435 4.171488 2.2916868 3.040357 2.7663157 0.57674354 0.4408794
-0.53138775 2.4530156 0.28557318 1.4408984 0.73937523 4.636933 1.5395789 2.285905
1.3501592 5.1329274 2.310511 1.3788372 -1.6779641 3.5037563 -1.9532027 2.7706895
0.24963416 1.0169826 3.149513 3.4138434 -0.17654134 -0.062537916 2.7625887 0.7637146
0.4967667 3.7982712 4.66135 3.106933 0.91169685 2.3646963 -0.94178337 -1.7381462
3.6360524 -1.9755163 3.4252527 3.9604201 8.7122345 0.1013245 1.0132418 -0.66206104
3.5416756 1.4583482 1.2143248 2.2053092 2.4383576 3.0268393 0.15641208 4.283946
-0.38061213 1.2055223 2.2041006 0.7018409 2.348381 4.198168 3.9696267 0.9698344
0.60229445 2.8053477 -0.42227492 -0.3648222 -1.548663 1.302309 1.6097606 2.0881171

l4/W f4 [64, 256]
00000000: 8293 8b41 468d 8d41 9269 9f41 3ab6 8d41
00000010: 77e9 8a41 e68c 6941 f369 9f41 65d2 a241
00000020: a722 8241 d75c 8241 d81d 9741 3ac5 8140
00000030: 7310 4041 211c 7841 b784 7a41 f128 8e41
00000040: f4d0 8c41 2f30 9041 3440 a641 736d 6d41
00000050: 0fbd ef40 dd71 4041 c596 9341 0f10 8841
00000060: d44b 8f41 effe 9041 bd66 8d41 5916 a641
00000070: 28c7 a141 6c7f a741 81d5 9341 0c51 6f41
00000080: 29a5 a541 f38f a041 4f1e 9741 92d9 a141
00000090: 38d3 8041 f20a 7941 43c9 9541 ae52 9d41
000000a0: 82ce 1c41 37c8 8741 8c6a 7841 88d0 ab41
000000b0: d2ae 9441 b2d9 9041 9de2 9741 7539 7041
000000c0: cd43 7a41 1c6c ae41 040c a941 7fb8 8a41
000000d0: 6860 6f41 7d24 7941 c2eb 7241 90eb 8f41
000000e0: b93e 9e41 f305 8341 0c24 a541 b0b8 3b41
000000f0: ef20 9a41 8ddc 8d41 9e38 9541 677c 8841
00000100: 84a0 d440 c0d8 9d41 64a5 8141 9f64 8b41
00000110: bb7c ad41 6c42 6a41 5548 4e41 4011 2c41
00000120: a485 7f41 debe 8a41 e58f 7541 5d44 b541
00000130: fd77 7641 1ca3 9141 ce4d 8341 7e44 9541
00000140: 0d18 8141 b5b6 a741 377c a241 6bdf 8241
00000150: 2c83 7e41 5b23 f140 19e6 9741 6f71 d740
00000160: 5f4d 9f41 8932 a541 41f3 8741 56ad 8e41
00000170: eaca 7441 49e6 8e41 6fa4 8441 50a0 8341
00000180: 8a33 8440 167c a241 437e 8641 fd96 8741
00000190: 8360 8041 b8b7 a541 8cb0 a941 18aa 8541
000001a0: 60bb 9741 6142 9041 7726 4341 668b 8741
000001b0: f675 8341 3e3a 8641 da6b 8b41 65ac 8341
000001c0: d690 9441 588d 6c41 5713 9741 a4ab 9c41
000001d0: 7280 9f41 599f 9c41 cb11 5141 c716 f740
000001e0: 0998 8441 d763 b341 ba6f 1340 2f56 6e41
000001f0: 3752 9541 995e a141 fc1d a241 874f 9141
00000200: ab7f 7441 d01c 8841 ce7a a641 7396 8b41
00000210: b281 a141 daf8 8741 1945 9d41 f5e2 a541
00000220: 3fb7 8241 36e3 a541 017e 5641 82f8 8f41
00000230: 9565 7b41 2be0 8a41 d038 6941 76c8 5941
00000240: 32de 8a41 d01d 9341 a667 9641 63e0 8041
00000250: 1d15 7a41 67bd 5a41 7fe5 8d40 f18f 9541
00000260: 9b7d 7d41 8a86 9541 b3ca 9041 f8f1 6b41
00000270: 6d03 e740 5cf6 8c41 4326 9841 884f 9541
00000280: 647d 0741 6ab8 7c41 cfda 9841 0226 b341
00000290: 5a45 3b40 f80e 1741 ba0d 8d41 ff2a 8c41
000002a0: 8b13 c340 3004 a241 3fac 6f41 9631 8941
000002b0: 2093 6e41 303f a541 a607 8441 0f14 4a41
000002c0: 23a9 7f41 38ae 9741 92a2 8141 edf4 8541
000002d0: 185b 8341 4df2 a141 643b 2e41 f242 9a41
000002e0: 4888 8941 d081 9841 2667 9941 8f8c fc40
000002f0: cb1c 8b41 7d68 8f41 a4c0 5a41 e2b1 e340
00000300: e9f0 8941 c40a 7641 1c71 7a41 2b5d a741
00000310: 6b6b 3141 2946 a741 6760 7141 971b 8241
00000320: edf8 8b41 cfd3 9441 f18c 8141 c502 9a41
00000330: f300 7a41 3913 9841 2244 cd40 56e3 9f41
00000340: 3045 a241 0bfa 8340 6aa8 7741 8d5c 8741
00000350: 859a 1d41 3098 ab41 bd64 a741 eed5 8641
00000360: 795d 9141 4f65 5141 cae3 5a41 0aa2 8a41
00000370: d08a 1341 a8de 9241 1cac 9641 07dc 9741
00000380: 61cf 7641 a243 9441 6d5e 8441 e03c 9f41
00000390: 4b1a 7041 11eb 9041 5638 6d41 ae68 a641
000003a0: a0e5 ac41 589a 9641 fe05 823c 664f 0741
000003b0: d6d3 7d41 6d6c 8f41 81ef 4d41 1a3b d940
000003c0: 0a84 8641 694a 8741 63ad 9241 1d5f 8841
000003d0: 4829 8041 299c 7f41 f70c 9a41 5797 7a41
000003e0: c587 6041 c947 4941 2b8a 7a41 04ec b03f
000003f0: e759 ac41 9dc1 9841 1097 9141 e941 8b41
17.447025 17.693981 19.926548 17.713978 17.363997 14.596899 19.926733 20.352732
16.26692 16.295332 18.889572 4.0553255 12.004016 15.506867 15.657401 17.76999
17.602028 18.023527 20.78135 14.839221 7.4918284 12.027799 18.448618 17.007841
17.912025 18.12448 17.675165 20.760912 20.222244 20.937218 18.47925 14.957287
20.705645 20.070288 18.8898 20.231236 16.103134 15.565172 18.723272 19.66537
9.800417 16.972761 15.526012 21.476822 18.585361 18.106297 18.985651 15.014028
15.641553 21.802788 21.130867 17.340086 14.961037 15.571408 15.182558 17.99002
19.780626 16.377905 20.642601 11.73259 19.26608 17.73269 18.652645 17.060743
6.644594 19.730835 16.205757 17.424131 21.685904 14.641216 12.892659 10.754211
15.970127 17.343197 15.3476305 22.65838 15.404294 18.204643 16.41299 18.658443
16.136744 20.964212 20.310652 16.35909 15.907024 7.535566 18.987352 6.732597
19.912779 20.649675 16.993776 17.834637 15.29954 17.862444 16.58029 16.453278
4.1312914 20.310589 16.811651 16.948725 16.047125 20.714706 21.211205 16.708054
18.966492 18.032412 12.196891 16.943066 16.432598 16.778439 17.427662 16.459177
18.57072 14.784508 18.884443 19.583809 19.937717 19.577806 13.066844 7.7215304
16.574236 22.42375 2.3036942 14.896041 18.665144 20.17119 20.26464 18.163832
15.281169 17.014069 20.809963 17.448462 20.188328 16.99651 19.65874 20.735819
16.339476 20.735943 13.405763 17.996342 15.7123 17.359457 14.57637 13.611441
17.358494 18.389557 18.80061 16.109564 15.630155 13.671241 4.4342647 18.695284
15.843165 18.690693 18.098974 14.746574 7.219168 17.620293 19.018682 18.663834
8.468113 15.795023 19.10684 22.393559 2.926108 9.4411545 17.631702 17.520994
6.0961356 20.252045 14.979552 17.149212 14.910919 20.655853 16.503735 12.629897
15.978793 18.960068 16.20438 16.744593 16.41948 20.24331 10.8895 19.282688
17.191544 19.063385 19.175365 7.892158 17.38906 17.92602 13.672031 7.115464
17.242632 15.377628 15.652615 20.920492 11.088725 20.909258 15.086036 16.263472
17.496546 18.603422 16.193819 19.251352 15.625232 19.009386 6.414567 19.986004
20.283783 4.124273 15.478617 16.92019 9.8502245 21.44931 20.924189 16.854458
18.17064 13.087234 13.680613 17.32912 9.22139 18.358719 18.834038 18.982435
15.42563 18.533024 16.546106 19.904724 15.006419 18.114779 14.826254 20.801113
21.612122 18.825363 0.015871998 8.456884 15.864218 17.927942 12.870973 6.7884645
16.814472 16.911333 18.334661 17.046442 16.020157 15.975625 19.25633 15.661948
14.033147 12.580026 15.658732 1.3822026 21.543898 19.094538 18.198761 17.407183

l4/b f4 [64]
00000000: bb86 06c1 e886 06c1 e9a2 06c1 5fb4 06c1
00000010: b8b9 06c1 9cf7 05c1 8e6a 06c1 9f1a 06c1
00000020: b06c 06c1 cbc5 06c1 50bc 06c1 c54e 06c1
00000030: ec7b 06c1 861e 05c1 1474 06c1 eb08 07c1
00000040: ec1d 07c1 84a6 06c1 320e 08c1 900d 05c1
00000050: 2020 07c1 327d 06c1 a5eb 07c1 3681 06c1
00000060: 6072 05c1 ac7b 05c1 e023 06c1 a1cd 05c1
00000070: bc02 07c1 3ca2 07c1 bd9e 08c1 5fcb 08c1
00000080: e604 07c1 171a 05c1 88d3 05c1 c139 05c1
00000090: 9d88 05c1 8be2 05c1 e4bf 06c1 ae5b 06c1
000000a0: 8efe 04c1 bb4b 06c1 153e 07c1 0158 05c1
000000b0: 6376 06c1 615d 08c1 f931 05c1 b831 05c1
000000c0: 4e96 05c1 8d1b 05c1 b717 06c1 ade5 04c1
000000d0: 0185 05c1 0a3a 05c1 ff74 07c1 5c72 07c1
000000e0: 0fd6 06c1 0315 07c1 7b93 05c1 d063 06c1
000000f0: 3aa0 05c1 7289 05c1 bd38 07c1 d9cf 04c1
-8.407893 -8.407936 -8.414773 -8.419036 -8.4203415 -8.3729515 -8.401014 -8.381499
-8.401535 -8.423289 -8.420975 -8.394231 -8.405254 -8.319952 -8.403339 -8.439677
-8.444805 -8.415653 -8.503466 -8.315811 -8.445343 -8.405565 -8.49503 -8.406546
-8.340424 -8.342693 -8.383759 -8.362702 -8.438168 -8.477108 -8.538754 -8.549651
-8.438696 -8.31887 -8.364143 -8.3266 -8.345853 -8.367808 -8.421848 -8.397383
-8.312147 -8.393489 -8.452657 -8.333985 -8.403903 -8.522798 -8.3247 -8.324638
-8.3491955 -8.319226 -8.38079 -8.306073 -8.344972 -8.32667 -8.4660635 -8.46542
-8.42726 -8.44263 -8.348506 -8.399368 -8.351618 -8.346056 -8.451352 -8.300744

l3/W f4 [256, 256]
00000000: b7d4 5041 8b54 a340 3f2a 0241 8262 8941
00000010: 2620 93c1 cde2 39bf de6c 0a41 9e9c 3041
00000020: 5e47 4041 f3e5 ae41 71ed abbd 83e7 0541
00000030: b23b 4541 d3cb 28c1 18e0 043f d0a1 b7c1
00000040: d4a1 1f40 c919 21c1 b2f2 bac1 862e 41c1
00000050: 4fc0 8241 3fb3 2f41 42db 3641 becb 7040
00000060: ec2a 8441 b81a 1d41 2bb8 ae41 abc8 3541
00000070: 4464 8941 7150 12c1 c655 5741 5a8d 1b41
00000080: 1ca4 49c0 c301 1c41 c11e 1641 7a3e d940
00000090: a0b3 09c0 8c3b 2d41 47c7 d240 d9f2 d540
000000a0: 56f0 8a40 d2f7 5941 e476 42c0 f8ce 4f41
000000b0: 1fbc 8141 85b1 5a41 19e0 373f e035 2741
000000c0: aea1 89c0 5b11 c240 1b06 1541 118d 63c1
000000d0: 0365 2e41 0667 9c40 2d4a 3041 f2b2 8041
000000e0: 5d97 4341 fc79 4841 1644 2041 fabb 2e41
000000f0: a91c 36bf 1369 fbc0 498a 0241 342d f340
00000100: 92f9 4841 39bc 8fc1 76c3 a4c0 efc0 2dbf
00000110: 6002 a0bf 41ec 8b3f f745 1941 86cb 01c1
00000120: a068 de40 c280 a241 9d03 6e41 6b24 1741
00000130: a235 3d41 885b 0741 2107 ea40 580d 6b41
00000140: d351 0e41 473c 3241 fa78 0dc1 0a1d 1fc1
00000150: 8633 0ec1 2370 5441 fb05 5d41 6380 bb41
00000160: dc39 b240 1c66 3e41 0c56 8c40 ff29 c640
00000170: 753a 8840 b1d2 8a41 8236 7541 d95b 5640
00000180: 1a04 5641 5255 8240 c285 1541 3f1e 31c1
00000190: 4021 1741 2877 c140 67c6 6641 b868 3541
000001a0: f4eb 6d41 b682 6f41 2640 8341 385b dc40
000001b0: fba7 2c41 467f ed40 3a9b d940 1f57 8ec1
000001c0: 0871 fec1 1baf 1841 c8e2 fd40 fbdb 5441
000001d0: 7d38 d33f 5bc9 02c1 31bb d540 f890 7cc1
000001e0: 758d 9f41 99b5 7141 a055 f9bf 3b39 bc40
000001f0: 420f 8dc1 4ecb 7e41 31d5 0a41 f595 b9c1
00000200: 9d25 bb40 3e27 3441 00a7 1fc0 c7a8 5b41
00000210: 3188 2641 c705 0c41 a703 7141 bd08 3841
00000220: 4adc 5041 a2a8 7bc1 d51d d23e c60f b4c1
00000230: 78ff 6941 86d6 9d41 6d86 7641 c663 ffc0
00000240: a3cc c5c1 0d75 b040 03ef 0941 cf94 02c1
00000250: d7f2 47c0 d820 f2c0 278d 2d41 1572 0541
00000260: bfa3 5141 48bf 4b41 826a 8041 3efb 3441
00000270: b4bb 1541 09a5 1c41 6ca4 7341 6685 4141
00000280: 6e9a 0cc1 c85b 1141 eac2 89c1 7ebf 4841
00000290: b44a 1741 d4db 4641 3151 1041 0634 a9c0
000002a0: a4da b140 362e f5be a44c 4d40 0217 583f
000002b0: 558a 2040 d283 07c1 61b4 0140 051e 6741
000002c0: 4557 89c0 d83b 55c1 b932 2e41 75ec 8dc1
000002d0: 3eca 9fc1 2597 6141 f405 5e41 1fbf 5641
000002e0: b0f0 0141 dd30 e940 04e8 e240 9df9 c740
000002f0: 97ad 94c1 a68d a340 bc61 d040 2d7e 55c1
00000300: 0e40 3841 27e8 88c1 50bc 2bc1 4782 8b41
00000310: e22b b3c0 4539 1941 32ca 9541 3206 1e41
00000320: 907a b3bd f92c 3641 ed37 3941 41fb 8041
00000330: 7946 c6bf 982a 8141 5e0e 2e41 45d7 4dc1
00000340: b058 3540 deaa 32c0 ba08 22c1 1e18 0c3e
00000350: 04cb 5f40 b269 3a41 7cb5 5841 2be0 0f41
00000360: 9b94 4ac1 8247 64c1 0ced b640 6789 3841
00000370: c1f9 3941 b405 3e41 2331 0e40 3d45 5841
00000380: b531 7040 27ec 20c1 8250 3841 cd57 8b41
00000390: 10ff 3c41 b6ee 4041 b935 1ec1 4895 4941
000003a0: 85cd 5041 e4c8 4cc1 88c3 de40 46fc a341
000003b0: 5739 2c41 1cc3 8c41 9ccf 1741 9e22 2741
000003c0: 71e8 5241 ba80 2f41 8cf8 e240 b0f2 3141
000003d0: 5816 4e41 3bcc 2341 6d6f 0041 976d 8041
000003e0: dc82 9041 0cfc 3f41 6ffb 1141 9619 7041
000003f0: efe6 f740 7582 0a41 7d89 af40 201d 9541
13.051932 5.10407 8.135314 17.1731 -18.390697 -0.72611696 8.651579 11.038237
12.017424 21.86228 -0.08394898 8.369021 12.327074 -10.549762 0.5190444 -22.95401
2.4942522 -10.068795 -23.368504 -12.073858 16.3439 10.981261 11.42853 3.7624354
16.520958 9.819023 21.839926 11.361491 17.173958 -9.144639 13.458441 9.72201
-3.1506414 9.75043 9.382508 6.7888765 -2.1515884 10.827038 6.586826 6.6858945
4.341838 13.623003 -3.0385065 12.9880295 16.216856 13.66834 0.7182632 10.450653
-4.3009863 6.0646186 9.313991 -14.22194 10.899661 4.887576 11.018109 16.087376
12.224454 12.529781 10.016623 10.920893 -0.7113748 -7.8565764 8.158761 7.599268
12.56093 -17.966906 -5.14886 -0.6787252 -1.2500725 1.0931474 9.579581 -8.112188
6.9502716 20.31287 14.875882 9.446391 11.825594 8.4598465 7.31337 14.690758
8.894977 11.139716 -8.842035 -9.94459 -8.887579 13.277377 13.81396 23.437689
5.569563 11.899929 4.385504 6.1926265 4.257136 17.352877 15.325808 3.349356
13.376001 4.072915 9.345156 -11.069884 9.445618 6.0457954 14.423438 11.338066
14.870106 14.969412 16.406322 6.886135 10.791011 7.4217863 6.8001986 -17.79254
-31.805191 9.54275 7.9339333 13.303706 1.6501614 -8.174159 6.6791005 -15.785393
19.94407 15.106835 -1.9479256 5.881986 -17.63245 15.924635 8.677049 -23.198221
5.8483415 11.259581 -2.4945679 13.728705 10.40825 8.7514105 15.063392 11.502133
13.0537815 -15.72867 0.41038385 -22.507702 14.62487 19.729748 15.407819 -7.9809294
-24.72492 5.5142884 8.620852 -8.16133 -3.1241968 -7.5665092 10.846961 8.340352
13.102477 12.7342 16.052006 11.311338 9.358326 9.790292 15.227642 12.095068
-8.787703 9.084908 -17.220173 12.546751 9.455738 12.428669 9.019822 -5.2876005
5.5579395 -0.4788682 3.2078028 0.8441011 2.508443 -8.469683 2.0266345 14.444829
-4.291903 -13.32711 10.887383 -17.740458 -19.973751 14.0994005 13.876453 13.42166
8.121262 7.2872148 7.090822 6.2492204 -18.58476 5.111041 6.5119305 -13.343305
11.515638 -17.113356 -10.733475 17.438612 -5.599107 9.576482 18.723728 9.876513
-0.08763611 11.38598 11.576154 16.122683 -1.5490257 16.145798 10.878508 -12.865056
2.833538 -2.791679 -10.1271305 0.13681075 3.496766 11.6508045 13.544308 8.9922285
-12.661281 -14.267458 5.7164364 11.5335455 11.623475 11.876392 2.221749 13.516904
3.7530339 -10.057654 11.519655 17.417871 11.812271 12.058279 -9.888116 12.598946
13.050176 -12.799046 6.9613686 20.49818 10.763999 17.595268 9.488186 10.445951
13.181748 10.968927 7.09284 11.12175 12.880455 10.237361 8.027204 16.05351
18.063896 11.999035 9.123885 15.006247 7.74694 8.65685 5.485533 18.639221

l3/b f4 [256]
00000000: 3056 4f41 edc2 7fc0 784a c13f 5de8 4541
00000010: b16c f7bf 1c84 3d41 7bac 0b40 f528 3e3e
00000020: ee4f 2840 8eb8 d940 2083 e8bd 12df aa41
00000030: cd1d 90c0 e629 81c0 a4ee 0e41 88e5 85c0
00000040: 765c cbbf c184 0941 9709 8fbe e112 c940
00000050: ef03 4541 817f f5bf 1e7f 75c0 4e1f 2e41
00000060: 3f03 4540 8627 ee40 c496 2041 45a3 04c0
00000070: 20ac e6bf a0f5 9140 3321 3041 45e6 5940
00000080: 1767 9e40 c23d e73f 73ea 8640 af30 e140
00000090: 2dd6 3241 c2fd 2141 e722 9d3f 80ef b340
000000a0: 7386 6f40 6cad 2b41 24d6 2e41 5f46 d33f
000000b0: 6614 dabf 4331 4141 0895 fac0 dfdd 7a40
000000c0: ce48 9a3f c8e5 a740 8f24 2240 19e6 ee3e
000000d0: d9dd 3b41 8304 3041 7459 59c0 2994 fe40
000000e0: 1248 2bc0 cadf 4d41 cc1e c03f b2be b53f
000000f0: bb73 bd40 ac2f cf40 60dc e740 3cb8 5dc0
00000100: 6198 4a41 01b4 3540 e900 5e40 3039 4041
00000110: e1ca 5d3f d2a4 1941 7cd9 f840 005a 0e41
00000120: 7be1 c4c0 2fcf c1bf 336e ac40 41fd 5040
00000130: f3e5 1240 e00c 3241 daf9 9540 86ca 1d41
00000140: ab35 0441 fc93 7f40 cc5c c1bf 6525 1c41
00000150: 580d 993e 500e c0c0 2a1c 3d40 6824 e4c0
00000160: 983b 4fbf 0357 a640 4347 29c0 5b8f 6ebe
00000170: 3a85 3441 207f d33c 6abd 3441 a58f 0141
00000180: 04d9 c441 02ab 7140 bf00 3e41 c8b1 0a41
00000190: 18e1 ffbf 8947 7d40 c68f 5bc0 636b a040
000001a0: 0975 b1bf 62d8 8740 6c5a f7c0 a34d 0a41
000001b0: 6117 4741 0976 3141 287b 9bc0 d972 4ec0
000001c0: 2d1d ef40 9503 6c40 a997 aabf 4717 723e
000001d0: 494a 2dbf c82c 7140 dba1 8e40 cdb2 0bc1
000001e0: d73a 0f41 5dd2 f73f 9143 05c0 9922 2b41
000001f0: cee6 d7c0 d3b5 0440 4485 4440 2bed da40
00000200: 8c96 3c41 5513 4541 1364 213f 8d2b 71bf
00000210: 06e6 ad40 d23a ccc0 53e9 8540 6152 37bf
00000220: cf22 0341 5173 1340 abb2 f23f 75a1 3e41
00000230: 29f5 4fc0 12f1 de40 4cb1 3ac0 6583 3040
00000240: 6376 e540 895d 3840 5812 22c0 2d82 a2c0
00000250: bada 67c0 55c1 30c0 5539 bb40 b500 14c1
00000260: 195d 3041 8182 c240 f92f 2841 af1a ba40
00000270: 84b8 ac41 3585 f340 c77f 3540 3a07 6a40
00000280: 03d5 3a41 5ff4 3041 b276 c1c0 5ab3 063e
00000290: 10fe 1641 2fb8 2bc0 d17a a63f 7521 4441
000002a0: 3836 da40 9e00 8abe 5780 1341 f59a 4f41
000002b0: 069d 2641 2b2c 993f 3850 4b41 a2ba b33f
000002c0: e830 f040 c807 8440 4f05 20c0 b3a4 cf40
000002d0: 7ddc 52bf d608 a040 5356 1641 2854 473f
000002e0: bb00 d440 45e4 e640 a51d 78c0 3d75 4341
000002f0: b928 2941 5630 3041 e293 80c0 a0a2 d440
00000300: 772d 4441 c439 2841 0757 3f41 96e3 e9bd
00000310: 409a 9540 3ad2 15ba ce9e 2b41 e779 2b41
00000320: 9768 fabf 3992 c13f 1c92 1b40 4cb3 623f
00000330: dcac 2641 6e56 90c0 4460 0f41 b281 9040
00000340: ec3a 4e40 383f 8841 8ac7 b0bf 68df c6bd
00000350: 1495 7a3f 8a7c 1c3f d508 393f 825e 4541
00000360: 6ebc 1441 4bc7 79c0 44da 3441 bb16 c540
00000370: 7e47 1e41 6e1b 4e40 f927 ec40 0c0e fd3f
00000380: 70dd 3541 d156 01c0 aa17 4541 8b8d 9a40
00000390: db4f 3941 417c 5540 b772 afc0 cfc2 4340
000003a0: 9d24 663e 4331 15c0 fd06 0a41 163f 3f41
000003b0: abfc 3941 4a51 1e41 150c f340 9146 1a41
000003c0: 96ca 2841 7889 3d41 cc7a 37c0 dbfb f940
000003d0: e927 1641 ac4d 0041 4ea9 3341 73e5 1241
000003e0: a358 0741 bbcc 4440 de03 d940 c86c f141
000003f0: dea4 0ebf 968e 3841 08d9 df40 7ca0 ae3f
12.958542 -3.9962723 1.5100851 12.369229 -1.9330045 11.844753 2.1824024 0.18570311
2.6298785 6.8037786 -0.11353135 21.358921 -4.503638 -4.0363646 8.933262 -4.184269
-1.5887592 8.594911 -0.27937004 6.2835546 12.31346 -1.9179536 -3.8358836 10.882643
3.0783231 7.4423246 10.036808 -2.0724652 -1.8021278 4.5612335 11.008105 3.4046795
4.950084 1.8065722 4.2161193 7.037193 11.177289 10.124453 1.2276276 5.622986
3.7425811 10.729839 10.92728 1.650585 -1.7037475 12.074527 -7.8306923 3.919792
1.2053468 5.2467995 2.5334814 0.46659926 11.741662 11.0011015 -3.3960848 7.955586
-2.6762738 12.867136 1.5009398 1.419882 5.9203773 6.4745693 7.2456512 -3.4643698
12.662202 2.8391116 3.4688056 12.013962 0.86637694 9.602739 7.7765484 8.896973
-6.1525245 -1.5141352 5.388452 3.2654574 2.295285 11.128143 4.6867495 9.861944
8.263103 3.9934072 -1.5106444 9.75913 0.29892993 -6.001747 2.954844 -7.129444
-0.8095031 5.1981215 -2.6449745 -0.23296873 11.282526 0.025817454 11.296244 8.097569
24.605965 3.7760625 11.875182 8.668404 -1.9990568 3.9574912 -3.4306502 5.0131087
-1.3863841 4.245164 -7.729788 8.643954 12.443208 11.091317 -4.8587837 -3.2257597
7.4723115 3.6877186 -1.3327533 0.23641692 -0.67691475 3.7683582 4.4572577 -8.731153
8.951865 1.9361073 -2.082249 10.695947 -6.7469244 2.0735977 3.070634 6.841451
11.786755 12.31722 0.63043326 -0.9420708 5.434329 -6.38218 4.184732 -0.71610075
8.195998 2.3039134 1.8960775 11.914418 -3.2493384 6.9669275 -2.9170713 2.7580197
7.1707015 2.880709 -2.5323696 -5.0783906 -3.622725 -2.7618 5.8507485 -9.250173
11.022729 6.0784307 10.511712 5.8157573 21.590096 7.6100106 2.835924 3.656691
11.677005 11.059661 -6.045739 0.13154355 9.437027 -2.6831167 1.300623 12.258168
6.8191185 -0.26953596 9.218833 12.975331 10.413336 1.1966604 12.707085 1.4041331
7.50597 4.12595 -2.500324 6.488855 -0.8236769 5.0010786 9.396075 0.7786279
6.625089 7.215365 -3.8768094 12.216123 10.572442 11.011801 -4.018052 6.6448517
12.2611 10.514103 11.958747 -0.11420362 4.6750793 -0.0005715225 10.726271 10.717261
-1.9563168 1.5122749 2.4307928 0.88554835 10.417202 -4.5105505 8.961002 4.515832
3.2223463 17.030869 -1.3810894 -0.0971058 0.97883725 0.6112753 0.722791 12.335573
9.296003 -3.9027889 11.3032875 6.1590247 9.892454 3.2204242 7.3798795 1.9769912
11.366562 -2.0209239 12.318277 4.829778 11.581996 3.3357089 -5.4827533 3.0587652
0.22474904 -2.3311317 8.626706 11.952902 11.6241865 9.894846 7.595225 9.642228
10.549459 11.846062 -2.86687 7.811994 9.384744 8.018963 11.228834 9.181018
8.45914 3.0749958 6.781722 30.178116 -0.5572032 11.534811 6.995243 1.3642726

l1/W f4 [256, 64]
00000000: 44dd 01c0 a28b 8ac0 ade1 d940 431d c440
00000010: 45d9 623f 19ac c93f 0410 9bc0 6a7b 49c0
00000020: 1455 2241 fff9 0340 860a 9d3f cd7f 1fbe
00000030: 5bf6 4c40 d3be 24c0 a116 043f f0ce bf40
00000040: b384 f43f aa60 bbc0 5b06 a1c0 b5f9 bdbe
00000050: 4690 99bf b712 50c1 5b0c a040 04b1 31c1
00000060: 8622 c3c0 d216 89bf 019d 8240 11d6 d840
00000070: cf46 4540 dff7 dc3e ea3c 62c1 2e11 b6c0
00000080: 600f bec0 d7e2 3e3f dc55 f63e 1e61 0b40
00000090: c6e3 1d40 4c94 aac0 910d 77c0 0cb2 f4c0
000000a0: 3ee5 35c0 e206 5240 cf92 9dbf cfc6 37bf
000000b0: faec e43f 37f8 b640 952a eec0 a648 1e40
000000c0: 7359 81c0 9dae a6c0 b08b a3c0 4bfd 3fc0
000000d0: c604 0541 f83d 44be 7681 9a40 b6b7 c3c0
000000e0: 4566 cdc0 a282 31c0 92ee bcc0 1a52 f9c0
000000f0: 05a7 823f eeed 8040 32e9 41c0 6e3b d1c0
00000100: aea8 8ec0 988d 2740 9052 103f 0628 d63e
00000110: e7a2 9bc0 bf7f a340 da1f 6a3f fbb8 8940
00000120: 425d 82c1 28c7 62c0 1152 68bf e75d d440
00000130: 784d 2f40 08bf 1440 e034 213f 84ae d3c0
00000140: 0749 8340 a335 a940 19fe be3f e5da a0bf
00000150: e504 52be c8ce 58c0 3288 a93e bbec a4bc
00000160: 2fee cabf 063f 20bf d01f 3e40 3737 673f
00000170: b6ec 81c0 365f 8240 7885 82c0 ece6 90c0
00000180: beff f9bf 4560 1041 8fb4 2941 fe49 353f
00000190: 00f4 7fbf bf65 65c0 65bc a740 538c 563f
000001a0: 522d 5941 6c1f b3c1 fd97 b1c0 7e75 88c0
000001b0: d524 5fc0 3313 b040 ea82 a63f c5f7 823f
000001c0: 7c97 02c1 7e7f 9dc1 8744 26c1 2753 d040
000001d0: f0bc 0841 2f52 c63f 1b04 8cc0 6b28 d8c0
000001e0: bcec bac0 64da 99c1 b806 ecc0 2f48 0a40
000001f0: 846f 3941 61da 7a40 e991 97bf 8d0e 08c0
00000200: 95d8 8740 c1fb 8dc0 7cb1 92bb aedb 6e40
00000210: d2ce 02c0 48d5 d840 5620 3f41 af56 2741
00000220: 2f7c fc40 8a23 2940 2e3d 82c0 519e bcbf
00000230: 0d88 813f f92e 82c0 5b30 5a40 0736 5240
00000240: 2242 54c0 85d4 3c40 c0f4 91bf ce64 2ebe
00000250: 5e13 eebf e742 6c40 11fa ef40 55d6 70c0
00000260: 6345 49c0 0676 8b40 9b83 0140 144a bbc0
00000270: 5a51 06c0 d1f9 8fc0 0f9f 68c0 e9cc 5cc0
00000280: f6ac 0741 0a50 c540 cad1 d6bf 1303 56bf
00000290: 2ec4 cfbf 71ea 9340 a765 f7bd 97f2 ba3f
000002a0: 4c73 773f 1e50 0541 34ed 1440 8bdc fcbf
000002b0: 22a6 333f d14e 09c0 e416 5b3f 27cc b0be
000002c0: 17ac a940 f243 143f ddaa 4140 f469 07c0
000002d0: 5c22 b33f 4dde 58c0 cac7 9fbf 63c1 c93f
000002e0: 4bba 9dc0 e5a6 bf40 c4d0 2abe 4b7d b73f
000002f0: 00db 15c1 7974 1640 c4f6 9dbf 275b cc40
00000300: 0c5e 74c0 fa0d 8a40 572e 6ec1 08ca 20c1
00000310: 4d48 cbc0 4d4c 04c1 6e96 b7bf 8cce 4ac1
00000320: f1f3 af3f 2dc6 62c0 ef0c 2fbf 859c 25c0
00000330: 5905 1540 f43f 56c0 b214 93c1 3745 f240
00000340: abaa f9c0 4c9b ef3f 91f0 a940 4570 3b3f
00000350: 5c05 6140 c594 9cc0 ba81 0540 ea9f 33c1
00000360: ed4b dbc0 4fc4 a840 0d8a 973e 5405 8ebf
00000370: 4dd6 9240 7b13 183f d6b7 9a40 a5a5 acbf
00000380: 70f6 fb3f e79f 2f40 e785 403f 57c7 1c3f
00000390: adda f93b bd80 8dc0 f731 55c0 72a0 fa3f
000003a0: 0887 43c0 7481 b140 d0f2 80c0 e30f 6d40
000003b0: ca0b 9ebf 2131 58c0 96ed 3140 f1d6 2240
000003c0: c9f9 c73f 3a1e 07bf ba58 1ebf 5a54 8340
000003d0: defc 12c0 f778 953e cfee 6240 d4a9 4ac1
000003e0: 789f 6cc0 5047 82c0 12d4 b3bf 50f4 d7be
000003f0: 218d 0140 258b 58c0 6de9 dcbf 67df cb40
-2.02913 -4.329545 6.8087983 6.128572 0.88612777 1.5755645 -4.845705 -3.1481576
10.145771 2.0621336 1.2268836 -0.15576096 3.2025363 -2.574147 0.5159703 5.994011
1.9102997 -5.85555 -5.032026 -0.37104574 -1.1997154 -13.004569 5.001508 -11.105717
-6.0979643 -1.0710089 4.0816655 6.776131 3.0824468 0.4315786 -14.139872 -5.689597
-5.939377 0.7456488 0.4811238 2.1778026 2.4670272 -5.3306026 -3.860203 -7.646734
-2.8421168 3.28167 -1.2310427 -0.7178773 1.788482 5.7177997 -7.442698 2.473184
-4.042169 -5.208815 -5.1108017 -2.9998348 8.313665 -0.19164264 4.8283033 -6.1161757
-6.418734 -2.7735982 -5.9041224 -7.791272 1.020722 4.029044 -3.029858 -6.5385046
-4.458091 2.6180172 0.5637598 0.4182741 -4.8636355 5.109344 0.9145485 4.3038306
-16.295536 -3.5434055 -0.90750223 6.6364627 2.7391033 2.3241596 0.62971306 -6.615053
4.1026645 5.2877975 1.4921294 -1.2566801 -0.2050968 -3.387621 0.3311172 -0.020132413
-1.5853938 -0.62596166 2.9706917 0.90318626 -4.0601454 4.0741224 -4.0787926 -4.5281887
-1.9531171 9.023503 10.606582 0.7081603 -0.9998169 -3.584335 5.2417474 0.8380787
13.573565 -22.390343 -5.5498033 -4.2643423 -3.486623 5.5023437 1.3008702 1.0231863
-8.1619835 -19.687252 -10.39173 6.5101504 8.546127 1.549383 -4.375501 -6.754934
-5.8413982 -19.231636 -7.37582 2.1606557 11.5897255 3.9195788 -1.1841403 -2.125888
4.245188 -4.4369817 -0.004476724 3.7321582 -2.0438733 6.7760353 11.9453945 10.458663
7.890159 2.6427941 -4.069968 -1.4735814 1.0119644 -4.068234 3.4092014 3.2845476
-3.3165364 2.9504712 -1.1402817 -0.17030641 -1.859966 3.6915834 7.4992757 -3.7630818
-3.14486 4.358157 2.0236576 -5.8527927 -2.0987153 -4.499245 -3.6347082 -3.4500067
8.479727 6.1660204 -1.6782773 -0.8359844 -1.6231744 4.6223683 -0.120799355 1.4605283
0.96660304 8.33206 2.3269777 -1.9754804 0.70175374 -2.1454356 0.85581803 -0.34530756
5.302257 0.57916176 3.0260537 -2.1158419 1.3994861 -3.3885682 -1.2482846 1.5762142
-4.928991 5.989123 -0.166812 1.4335111 -9.365967 2.350859 -1.2340932 6.386127
-3.8182402 4.314206 -14.886313 -10.049324 -6.352576 -8.268628 -1.4342782 -12.6754265
1.374632 -3.5433457 -0.6837911 -2.5876782 2.3284514 -3.3476534 -18.385105 7.570949
-7.8020835 1.8719268 5.310616 0.73218185 3.515952 -4.8931603 2.086043 -11.2265415
-6.8530183 5.2739635 0.29597512 -1.1095376 4.58866 0.59404725 4.834941 -1.3488051
1.9684582 2.7441347 0.7520432 0.6124167 0.007624945 -4.421965 -3.3311746 1.9580214
-3.0551167 5.5470524 -4.02964 3.7040946 -1.2347348 -3.3779986 2.780126 2.544369
1.5623103 -0.527805 -0.61854136 4.104047 -2.2966838 0.2919385 3.5458257 -12.666462
-3.6972332 -4.071205 -1.4049094 -0.42178583 2.0242388 -3.3834927 -1.7258736 6.371021

l1/b f4 [256]
00000000: 42ed 9840 2007 1c40 c0a9 0ac0 625f 313f
00000010: 05e0 a040 7d74 7840 d40d 6bbc eaed 4fc0
00000020: cd31 4d3e 8715 d83f 80ac 64bf 94fa 8cc0
00000030: 1f97 7740 f16d 2940 5843 c3c0 6ef8 8c3f
00000040: 77d1 243f 0a9a 5f3e dd5e 5240 edff efbf
00000050: e653 67c0 30d4 bf3e 13a1 1d40 e48c 27bf
00000060: a109 da3f 032c 94c0 f7a9 5240 ddca 1ac0
00000070: 1cd1 9fc0 53e9 1b40 9043 febd db52 c340
00000080: 5c21 193f d000 27c0 6af5 70c0 47d8 94bf
00000090: c038 f5bf 9013 063e 33f2 8b40 56a8 6840
000000a0: 4b58 0bc0 6b66 01c0 46c6 8e40 a414 e53e
000000b0: d486 41ba c93e 8a40 8c40 4f40 e5fa b9c0
000000c0: 490f ae3e 9b15 6d3f e59a a340 0d7c 03c0
000000d0: e1c5 36bf 7c71 df3d 6073 d6be e5ee 97c0
000000e0: dc50 2340 ad5e 9a40 03a4 d6c0 f6a4 dfbf
000000f0: 8688 33bf 016e c9c0 f061 b5bf 5450 51c0
00000100: cd75 b5be 8f71 1f40 8c8b babd e1d5 3e3f
00000110: 10d9 04c0 b8a8 a7bf a029 dc3f f30c 783e
00000120: 4877 493e c810 ac3f a7c9 b040 6423 8f3f
00000130: 4cf1 61bf f775 d3bd 669c d13e c8e4 ecbf
00000140: ddca 4740 b138 a6be b489 a8bf bca4 a7bf
00000150: 0829 0dc1 1b71 3c40 852d 53c0 d2fc a2c0
00000160: 2daf 2540 bfc0 e8bf a747 64bf e3f0 d53f
00000170: 6d5e 793f c347 4540 98d8 95bf 955e 4640
00000180: c3f3 d8be b2ab 9abf e23a 76c0 d4c3 6940
00000190: a577 a53f 6c14 2640 37e5 21bf 0721 7b40
000001a0: d17a e83e 621b 42c0 896c 2140 560a e73f
000001b0: f50f 17bf d009 c03f aa14 3fc0 91bf bbbf
000001c0: c8dd ac3f 7faa 1ec0 a98e 343f 55a0 8840
000001d0: d0e1 53c0 2838 4dbf 2bb4 8e40 ef93 113f
000001e0: 7a4a 0840 ff79 72bf f7c4 7240 1dbe f03f
000001f0: c5e8 2d40 fc00 bb40 0a00 b2c0 51fb 7bc0
00000200: e4e4 e9bf 5122 e33f 3e5e 0640 b392 763e
00000210: 6442 61c0 e31a 8440 f96f f0bf 70a2 08bf
00000220: d265 0e40 23d0 8540 3bb4 893f 1840 1540
00000230: e94c 48c0 9db5 97bf 9c0e b43f 3e93 773f
00000240: 3316 0bc0 e6a5 d5bf dd9c f1bf bbfc b6be
00000250: 04cc 9fbf 902d 0041 0b19 1dc0 777c 35be
00000260: 2620 d23f 381a 4740 aa56 a0bf ebba 0cc0
00000270: 42cd 5b40 e059 f23f 4043 6d40 ad19 013f
00000280: 9260 f8bf 686c 7b3f 794c 4740 6197 7040
00000290: 0b8a d9be 5093 d43f 60c2 3c40 069f 88be
000002a0: 8fb0 643f c533 5540 7985 d43e 707f 6dbf
000002b0: b59e 01bf 549a e6be 4fcb 78bf 9ee7 d9bf
000002c0: 1a90 b240 de29 b4be 9752 02bd d171 5b40
000002d0: 1a89 4abf c866 8a3f 1ebd f4bf f4fe c4c0
000002e0: 2c31 8840 fae2 e0c0 02b2 da3f 7f14 db3f
000002f0: d8ac 1cc0 4a04 12bf f2df 4d40 68b9 0a40
00000300: 61f6 84be 9060 44c0 d030 86c0 4451 f93e
00000310: de1b 9ebf 8233 8bbe b294 6240 abe2 48c0
00000320: 8763 2940 2701 64c0 72bd abbf d8b9 613f
00000330: 3695 7b3f ded1 d83f 7db9 27c0 307d 0540
00000340: 7b83 2d40 d97d 823f 56ab b23f 8629 3340
00000350: ed25 ddbf 64d5 2c40 1074 dc3f a778 dac0
00000360: 739e e83f c5c0 11bf 23a1 c1bf aab9 b4c0
00000370: 323c 833f dcb5 533f 944b 823f 43c3 00bf
00000380: 5e80 8bc0 3814 a540 39c8 b0be 859f 913f
00000390: 5435 25c0 3b11 20bf 4602 14c0 48f6 58c0
000003a0: 737a 493f da89 ec40 3aba 083e 6a78 22c1
000003b0: 9487 6c40 341f 2540 28a9 9240 b1d5 33c0
000003c0: f575 ee3f 0fa6 07c0 c7ec f83d 826e c4bf
000003d0: fac4 44c0 8f99 ef3f 17e5 5d40 be56 a3c0
000003e0: d3e1 0a40 8949 b9bf e450 a73e a9d3 b6c0
000003f0: 5865 8e40 1cca 9fbf 3e0e 14c0 fd75 1240
4.778962 2.4379349 -2.1666107 0.6928617 5.027346 3.8821099 -0.014346559 -3.2488961
0.20038529 1.688157 -0.89325714 -4.405588 3.8685987 2.6473353 -6.1019707 1.1013315
0.6438212 0.21836105 3.28704 -1.8749977 -3.6144958 0.37466574 2.4629562 -0.6544936
1.7034189 -4.6303725 3.2916238 -2.4186318 -4.994276 2.436116 -0.1241523 6.103864
0.5981653 -2.6094246 -3.764979 -1.1628503 -1.9157944 0.130934 4.3733153 3.6352744
-2.177264 -2.021876 4.4617033 0.4474231 -0.00073824567 4.320164 3.2383146 -5.811877
0.33996037 0.9261109 5.112658 -2.0544465 -0.7139569 0.10910317 -0.418849 -4.747912
2.5518103 4.824057 -6.707521 -1.7472217 -0.70130193 -6.294678 -1.4170513 -3.2705278
-0.35441437 2.491306 -0.09108648 0.74545103 -2.0757484 -1.3098364 1.7200203 0.2422369
0.19674408 1.3442621 5.524616 1.1182675 -0.88258815 -0.103252344 0.40939635 -1.8507318
3.1217568 -0.32465127 -1.3167024 -1.3097148 -8.822517 2.9444034 -3.2996533 -5.093362
2.588817 -1.8183821 -0.8917183 1.6714138 0.9740971 3.082505 -1.1706724 3.0995228
-0.42373475 -1.2083647 -3.847344 3.6525774 1.2927138 2.5949965 -0.6324038 3.9238908
0.454062 -3.0329213 2.5222495 1.8050029 -0.59008723 1.5002995 -2.9856362 -1.4667836
1.3505182 -2.4791563 0.7053018 4.269572 -3.3106575 -0.8016381 4.459493 0.56866354
2.1295457 -0.947174 3.7932718 1.8808018 2.7173321 5.84387 -5.562505 -3.9372141
-1.8272977 1.7744848 2.099502 0.24079399 -3.5196772 4.128282 -1.8784171 -0.5337286
2.2249646 4.1816573 1.0758127 2.332037 -3.1296942 -1.1852299 1.4066958 0.9670905
-2.17323 -1.6691253 -1.8875996 -0.35739693 -1.2484136 8.011124 -2.4546535 -0.17723261
1.6416061 3.1109753 -1.2526448 -2.1989086 3.434403 1.8933678 3.7072296 0.50429803
-1.9404471 0.9821229 3.1140425 3.7592394 -0.4248813 1.6607456 2.9493637 -0.26683825
0.8933191 3.3312848 0.41508082 -0.9277258 -0.5063279 -0.45039618 -0.97185224 -1.7023809
5.5800905 -0.35188192 -0.031817045 3.4288218 -0.7911545 1.0812616 -1.9120214 -6.156122
4.2560024 -7.027707 1.7085574 1.711563 -2.4480495 -0.57037795 3.2167935 2.1675663
-0.25969222 -3.0683937 -4.1934586 0.48694813 -1.2352254 -0.27187735 3.5403256 -3.1388347
2.6466997 -3.5625703 -1.3417189 0.881742 0.9827455 1.6939046 -2.6206963 2.0857658
2.71115 1.0194656 1.3958538 2.7994094 -1.7277199 2.7005243 1.722292 -6.827228
1.8173355 -0.5693477 -1.51273 -5.647664 1.0252745 0.8269937 1.0179315 -0.50297946
-4.35942 5.158718 -0.34527758 1.1376806 -2.58138 -0.6252629 -2.3126388 -3.3900318
0.7870247 7.3918276 0.1335229 -10.154398 3.695775 2.5800295 4.583149 -2.8099177
1.8629748 -2.1195104 0.12154537 -1.5346224 -3.0745225 1.8718737 3.4671075 -5.1043386
2.1700332 -1.4475566 0.32678902 -5.7133374 4.449871 -1.2483554 -2.3133693 2.2884514
