static/ai/8/agent_white_100000/model.npz (npz, 609165 bytes, 8 tensors)

l2/W f4 [256, 256]
00000000: 1acb e7c0 17e6 84bf e7a2 3141 2e9b fcc1
00000010: a34b e2bf 85b7 2541 a7ff 11c1 42e7 97c1
00000020: 29cf 81c1 ef41 0441 2710 fc40 a9eb adc1
00000030: 468d 4bc1 ee3c b640 8f20 54c2 b3a4 a5bf
00000040: 46d3 7840 7be1 8940 8102 5640 6626 2141
00000050: bc39 ecc1 b0be 24c1 a6aa e8c0 e2a1 b3c1
00000060: c1ea b5c0 d628 0ec1 c146 7bc0 3645 7cbf
00000070: ae8d 27c2 3803 6141 e1a0 0040 ce70 8ac1
00000080: 513f 2d40 f33d dfc0 e8c2 1fc1 6325 91c1
00000090: dac6 10c1 76c1 c5c0 6e43 8c41 5b5e b2c0
000000a0: 316c 57c1 97dc 17c1 a2e5 13bf 410b 93c1
000000b0: b397 27c1 c0f8 8ac1 b6ef d940 c86c 83c1
000000c0: 7df2 b5bf 01b9 0fc2 58d5 74c1 8fbe c03f
000000d0: d60d b040 4a94 c540 9ec4 bbc1 b3a0 2f41
000000e0: d284 e040 c47b 97c1 3203 50c1 cf0f 40c1
000000f0: bb4d 44c1 4914 d3c1 0e1f 95c1 a943 acc1
00000100: e4fd d9c0 7d85 bdc1 a181 49c1 87ad 5840
00000110: bece fabf fb5a 53c0 8d2a bac1 66e7 8dc1
00000120: 3a42 3dbf a54e 2e41 0026 1941 80ff 45c1
00000130: 0a81 383f bbd1 b9c0 2679 04c2 86b2 14c1
00000140: 7376 2ac1 359f 2b41 251c b741 a122 7cc1
00000150: 539e dcc0 563e 76c1 e553 8741 f3f7 19c1
00000160: 008b 97c1 0b1a c7bf c6cf 80c1 d1de 6cc0
00000170: c943 2cc0 30de e040 8c72 58c1 53b1 62c1
00000180: c23f eec1 779a 30c1 ba43 03c0 586b 8540
00000190: 314c 42c2 d9e2 88c0 e84b 7241 f82e 36c1
000001a0: 9d66 89c0 53c6 c541 4276 a0c1 2774 fdbf
000001b0: fad9 cfc0 7d64 0541 3aa5 9ec1 5145 e040
000001c0: 8126 a6c1 7b1f 90c1 a8bd e6c1 8275 c9c0
000001d0: 8b44 43c2 8ae9 0bc2 01d6 b4c1 d5fd 29c0
000001e0: ffa9 92be 5376 b7c1 8b31 6f40 3ab3 b9c1
000001f0: 3764 fec1 ee57 4dbe d188 25c1 095c 213f
00000200: e467 ef3e 48a8 1ec2 ee6a ddc1 fff4 bbc1
00000210: ffe7 49c1 6e5f dec1 2260 81c1 aa14 7d41
00000220: 69fe b141 1ceb 12c0 be6b 6441 c031 8540
00000230: 4a5c 4841 c9fd 85c1 1888 4ec0 1584 ecc0
00000240: 81ee 6a41 b683 8fc1 6f31 cac1 760c 8a40
00000250: 7948 2241 7514 8641 c9c9 10c0 3f5a 2641
00000260: 5edf 453f 57f5 c9c0 06ad 4041 f31c e9c1
00000270: 3c30 ffc0 36e9 acc0 3bf9 dcbf 0137 3ac1
00000280: fb5a d0c1 62f2 ecc0 7ae5 6d40 7baf 9740
00000290: 0d70 23c1 fb40 5440 7917 98c1 22c9 9141
000002a0: 512d 8741 bd46 0ec2 6fef f4c1 0759 e6c1
000002b0: 8552 79c1 f912 9840 6b5e d8c1 5ba5 93c1
000002c0: ebae f73f 3bcb 3ac1 0389 a0c1 25c5 4ac1
000002d0: d579 4441 0f7e f5c1 35cf 4ac0 15f1 b2c0
000002e0: ea07 0bc1 8e46 2e41 60f8 cbc1 e858 6dc1
000002f0: 783b e4c1 4b59 cec1 d617 f2c1 fccd 7cc1
00000300: 2b3e 0fc1 1589 5041 c3af 09c2 af45 ebc1
00000310: 95e5 1741 829a 7241 efcb dac1 cd3b 00c2
00000320: 7b43 03c2 234e fcc1 edfd e441 8822 0bc0
00000330: 84da debf 21ad 2441 9ea0 42c1 814c 51c0
00000340: 3d9a 04c2 a3da eec1 47ce 82c1 18b7 7841
00000350: 171f 4840 5d3b fbbd ea48 06c2 646b ddbf
00000360: 2ad0 b9c0 faea 29c2 58e3 09c0 b303 92c1
00000370: 7f5f cdc0 9b98 17c2 53af 10c0 b9ae 9e40
00000380: ea62 ae41 3d59 a7c1 ccb7 98c1 fbbf 25c1
00000390: 9359 2ec0 86c0 6b40 23bc 4340 fd20 62c1
000003a0: d576 10c1 0a96 e140 9db8 9740 587f 2e41
000003b0: 5679 54c0 752b efc1 3cbb 29c1 70b9 b3c1
000003c0: 977c 9fc0 d9f6 abc1 fc5c b2c0 457a e1c0
000003d0: 9201 cb40 df6e dd40 d909 19c1 755c 9ec1
000003e0: 92b4 3041 8190 4741 235f 08c0 6897 63c2
000003f0: 309d 91c1 6c33 9741 e915 f3c1 c093 af40
-7.2435427 -1.0382718 11.102271 -31.575771 -1.7679332 10.357305 -9.124915 -18.987919
-16.226152 8.266097 7.8769717 -21.740068 -12.721991 5.6949377 -53.031796 -1.2940887
3.887895 4.3087745 3.3439028 10.071875 -29.52819 -10.296555 -7.270831 -22.454044
-5.6849065 -8.88497 -3.9261935 -0.9854311 -41.88836 14.063286 2.0098193 -17.30508
2.7069895 -6.976312 -9.985085 -18.143255 -9.048548 -6.179866 17.532925 -5.574018
-13.463914 -9.491355 -0.57772267 -18.380495 -10.474536 -17.37146 6.8105116 -16.428116
-1.4214627 -35.930668 -15.302086 1.5058154 5.501689 6.1743517 -23.471004 10.976733
7.0162134 -18.935432 -13.00078 -12.0038595 -12.268977 -26.384905 -18.640163 -21.533037
-6.8122425 -23.69018 -12.594148 3.3855913 -1.9594343 -3.302428 -23.270777 -17.737988
-0.7392918 10.8942 9.571777 -12.374878 0.720719 -5.806852 -33.11831 -9.293585
-10.653918 10.726369 22.888742 -15.758454 -6.8943267 -15.390219 16.915964 -9.6230345
-18.942871 -1.5554823 -16.101452 -3.7010996 -2.6916373 7.0271225 -13.527966 -14.168292
-29.781132 -11.037711 -2.0510087 4.1693535 -48.574406 -4.2776914 15.143532 -11.386467
-4.293776 24.721838 -20.057743 -1.9801072 -6.4953585 8.337033 -19.830677 7.0084615
-20.7688 -18.015371 -28.842606 -6.295594 -48.816936 -34.978065 -22.604494 -2.6561177
-0.28645322 -22.932775 3.7373989 -23.212513 -31.798933 -0.20053074 -10.345902 0.6303106
0.4675895 -39.664337 -27.677212 -23.494627 -12.61914 -27.796597 -16.17194 15.817545
22.249224 -2.2956 14.276304 4.162323 12.5225315 -16.748919 -3.2270565 -7.3911233
14.6832285 -17.939312 -25.274137 4.314021 10.1426935 16.759989 -2.262316 10.397033
0.77293956 -6.3111987 12.042242 -29.139135 -7.974638 -5.403468 -1.7263559 -11.638429
-26.044424 -7.4045877 3.7171311 4.740171 -10.214856 3.316466 -19.011461 18.22321
16.897127 -35.56908 -30.61691 -28.79347 -15.582646 4.752316 -27.046103 -18.45574
1.9350256 -11.674617 -20.0669 -12.673131 12.279744 -30.686552 -3.168897 -5.591929
-8.689432 10.892225 -25.496277 -14.834206 -28.529037 -25.7936 -30.261639 -15.800289
-8.952678 13.033467 -34.421642 -29.409025 9.49355 15.162722 -27.349577 -32.0584
-32.8159 -31.538153 28.623987 -2.1739826 -1.7410436 10.292268 -12.164213 -3.2702944
-33.150623 -29.856756 -16.350721 15.544701 3.1268976 -0.12267182 -33.571205 -1.7298398
-5.8066607 -42.47947 -2.154501 -18.251806 -6.417907 -37.89903 -2.260701 4.9588284
21.798298 -20.918573 -19.089745 -10.35937 -2.7242172 3.6836257 3.058358 -14.133054
-9.029012 7.0495653 4.741286 10.90609 -3.3199058 -29.89622 -10.6082115 -22.465546
-4.9839587 -21.495531 -5.5738506 -7.0461755 6.3439417 6.919784 -9.564904 -19.795145
11.044085 12.472779 -2.1308067 -56.897858 -18.201752 18.900108 -30.385698 5.486786

l2/b f4 [256]
00000000: 41d7 fb40 71b8 3941 bfdd 3440 5cec 6641
00000010: b855 323f d0f3 e63f 6ea0 34bf d582 ac40
00000020: 9029 e340 3361 7c40 bc84 4041 07f1 813f
00000030: 65d9 a640 2013 a1bf abe2 e040 997d 45bf
00000040: 3520 4b40 3122 16c1 bbcd d0c0 2631 f3c0
00000050: 45a4 8341 2bdb 8f41 d6d8 4641 a633 7741
00000060: 7987 1bbd e579 8e41 3a46 ac41 5f51 bb41
00000070: d8cf 8f41 80a9 77bf 69e4 a03e 9533 9a41
00000080: 086f 96c0 a51a c741 df69 5741 0e42 c040
00000090: 7276 4241 9ab8 2c3f 6b7e d23f 4a9f 3a40
000000a0: 1e5a 5041 a82e 1b41 72be 0b41 a8dc 9f3f
000000b0: 9abd 4d41 b4dc 8d41 02a0 4041 5940 cb40
000000c0: ad9a 95c0 8875 c340 ead3 9141 0076 85c0
000000d0: 2fff 58bf 318c 39bf 46f0 4a41 e28e 6b41
000000e0: 6774 6d41 69b6 4a40 3389 6441 b0c5 4541
000000f0: 620a 9740 96eb 6940 0510 0340 bfdf 8a3f
00000100: faa9 8041 89ef e6c0 d7c7 afc0 22eb 0e41
00000110: af2a 2340 d3be 61c0 d644 ec40 c135 0cc1
00000120: d49a 5140 00b2 81be 0004 b43f 8dce 2541
00000130: 8a83 6641 c47f 2341 2ce4 b2c0 4d6d 8d41
00000140: 79f8 4c40 5fbc 3c3f 5c7e 8fc0 37dd e9bf
00000150: 90cd 51c0 d93f 4341 8db7 b33e 4325 4b41
00000160: f7ef 6a41 e2a3 aa3e 302e 5341 f53f a740
00000170: a248 8541 79e4 4641 23c1 5641 8454 6141
00000180: 85c6 0640 a007 db40 9604 9a40 8e45 31c1
00000190: 2315 a341 e812 63c0 b8b7 7340 a446 4541
000001a0: 9925 a141 4fff b341 93a0 8940 7afa 4041
000001b0: 6129 4abf b1ec 9341 9ebe 4141 d467 a7c0
000001c0: e7ed 9fc0 8d63 7741 02cf f1be cd11 3541
000001d0: 3e1d b640 0be2 a2c0 a4cc 5941 51a7 ee3f
000001e0: abd7 9640 c890 4441 dd55 713f 0637 0440
000001f0: 299e 0fc1 d82a 3441 30b5 1541 4b97 c1c0
00000200: 550b 9240 bfbd ac40 c507 0d40 afce ec3f
00000210: b222 c040 95fb 7441 2467 3040 a326 6b41
00000220: 11fe 9841 8dce 53c0 d0ba 843f 8cc4 a2c0
00000230: e65d 7241 2ce2 4541 b8be 4540 bba3 6ec0
00000240: 8617 82c0 df3f 2d41 68c9 8741 1331 e2c0
00000250: 9b6d 063f 7ba6 1dc1 08fb 7b40 1e5b 3541
00000260: f084 2541 0313 6d3d 8382 cb40 745a 8541
00000270: 4e15 f640 100c 5140 fcd0 9440 942f 0541
00000280: 9d8d a0bf fcf1 5b41 2b01 89be ed20 0541
00000290: 4b9c 913e 35c3 4e41 d629 8a41 86ac ffc0
000002a0: 5b3c 7e41 db08 9cc0 eaaf af40 3c68 4b41
000002b0: 4447 6141 2226 4c40 1708 7741 cb8d b141
000002c0: e3fd 8840 4512 f7c0 7f2c bf41 224a d9c0
000002d0: 7bd3 4bc0 fbff a63f 2954 193f adb1 8141
000002e0: 4dbe 6f41 7f13 4ac1 a4ab a041 97a3 5641
000002f0: 192b 663f 3f1c 1041 f9a2 2a41 e1e2 67bf
00000300: ee11 5441 91ae adc0 0226 2a41 622f 5341
00000310: 09c0 03bf 961d cc40 53e4 9141 2a24 1d3f
00000320: 9cbb 1ebe b304 bd40 199b 0b40 c890 7a41
00000330: 237c 1241 3652 b640 abed e040 4c8c 85c0
00000340: 4f10 1741 b3b6 ea3e 9da8 5bc0 bfb6 0c40
00000350: 75b3 ab3e e113 80bd 8070 5c41 16b4 8941
00000360: c01a dabe 8c7c 37c0 917b 1740 bcde 9a40
00000370: fbad 8941 5600 8f41 a890 8241 937b debf
00000380: aa81 5a40 86f7 9dc0 3b20 b541 3636 4641
00000390: 87b7 2f41 3883 cf3d f780 8ec0 a4fd 4341
000003a0: f519 3f41 6520 0ec0 86cd 9240 c923 0d40
000003b0: 4e89 1241 17be c340 fa95 e140 d8af 3741
000003c0: 6077 c340 bbed 3d41 3183 7241 e6eb 0d3f
000003d0: 8e60 8941 521f 9c40 c278 a741 1147 783f
000003e0: 456b 4d41 0e78 2d40 6b34 d8be 3b4c 5041
000003f0: 43ba 7d41 1acf bd41 3f58 9d41 1b86 1f41
7.870026 11.60753 2.8260343 14.432705 0.69662046 1.8043156 -0.70557296 5.3909707
7.0988235 3.9434326 12.032406 1.0151681 5.2140374 -1.2583961 7.0276694 -0.7714477
3.1738408 -9.3833475 -6.5251136 -7.5997496 16.45521 17.982016 12.427938 15.4501095
-0.037970994 17.809519 21.53429 23.414732 17.976486 -0.9674301 0.31424263 19.275187
-4.7010536 24.88801 13.463347 6.0080633 12.153917 0.6746918 1.644483 2.9159722
13.022001 9.698891 8.733995 1.2489214 12.858789 17.732765 12.039064 6.351605
-4.6751313 6.108097 18.228474 -4.1706543 -0.8476438 -0.7247954 12.6836605 14.7223835
14.840919 3.1673834 14.283496 12.360764 4.7200174 3.655004 2.0478528 1.0849532
16.082996 -7.21674 -5.4931445 8.932405 2.5494802 -3.527272 7.383403 -8.7631235
3.275075 -0.25331116 1.4063721 10.362927 14.407114 10.218693 -5.590353 17.67837
3.2026656 0.7372493 -4.4841747 -1.8270634 -3.2781715 12.203088 0.35100976 12.696597
14.683585 0.33328158 13.198776 5.2265573 16.660465 12.430779 13.4221525 14.083134
2.1058667 6.844681 4.81306 -11.079481 20.38532 -3.548029 3.8080883 12.329746
20.143358 22.499662 4.3008513 12.0611515 -0.7896939 18.490572 12.109037 -5.2314243
-4.997791 15.461804 -0.47228247 11.316846 5.6910696 -5.090093 13.612461 1.8644811
4.7138267 12.285347 0.9427164 2.0658584 -8.976113 11.26046 9.356735 -6.0497184
4.5638833 5.3981624 2.2035992 1.8500575 6.0042353 15.311421 2.7562952 14.696933
19.124056 -3.3094819 1.0369511 -5.0864925 15.147924 12.367718 3.0897655 -3.7287433
-4.0653715 10.828094 16.973343 -7.0684905 0.52510995 -9.853145 3.9371967 11.334745
10.344955 0.05787946 6.3596816 16.669167 7.6901007 3.2663612 4.650511 8.324116
-1.2543217 13.746578 -0.26758704 8.3205385 0.28439555 12.922658 17.270428 -7.98981
15.889735 -4.876081 5.490224 12.712948 14.079899 3.1898274 15.439475 22.194235
4.280992 -7.72098 23.896727 -6.7902994 -3.1847827 1.3046869 0.59894043 16.211756
14.98396 -12.62976 20.083809 13.414939 0.8990951 9.006896 10.664788 -0.90580565
13.254377 -5.4275594 10.634279 13.199068 -0.514649 6.3786116 18.236486 0.61383307
-0.15501255 5.9068236 2.1813414 15.660347 9.155307 5.6975355 7.029012 -4.173376
9.441482 0.45842513 -3.4321663 2.198654 0.33535352 -0.062537916 13.777466 17.212933
-0.42598534 -2.8669767 2.366917 4.8396893 17.209951 17.875164 16.320633 -1.7381462
3.414164 -4.9364653 22.640738 12.388235 10.9823065 0.1013245 -4.453243 12.249424
11.943837 -2.2207272 4.5875883 2.2053092 9.158522 6.1169543 7.0495577 11.480431
6.108322 11.87054 15.157029 0.5543808 17.172146 4.8788233 20.933964 0.9698344
12.838689 2.7104526 -0.42227492 13.018611 15.857974 23.726124 19.668089 9.970241

l4/W f4 [64, 256]
00000000: a9fa 4d42 2a15 2542 0259 1f42 eb8c 8042
00000010: fb18 fd41 20e4 5e42 1c23 2d42 a6bd 2142
00000020: 1d88 0342 9168 5542 793c 1f42 8713 8841
00000030: b677 0342 23bc 1542 8d83 8442 3051 1b42
00000040: d0db 2d42 4f79 3242 563b 2b42 e7ad 3f42
00000050: b2bf 0341 0801 db41 a31a 1242 ea08 5c42
00000060: 0b1a 6642 2c0d 5e42 2972 5742 9d7b 2142
00000070: eccd 3542 19ec 6142 a09e 6442 9339 d241
00000080: 0076 4d42 68f0 1842 812f 7d42 6f39 3542
00000090: 86e6 6842 b902 4842 b4fd 4242 b3f2 0542
000000a0: dbc4 b741 054d 8042 553e 4842 8c97 6642
000000b0: dbe3 3842 a32a 6242 fb0b 2042 9271 2142
000000c0: 0e31 2d42 5cb0 3b42 01fb 3d42 50ea 1a42
000000d0: d011 8542 7dd6 7242 df0d 2b42 5ac4 5942
000000e0: 6541 3642 be5f 6c42 8442 4142 6159 0542
000000f0: 22f7 0842 90af 3d42 c0d0 1242 b7eb e041
00000100: da64 7c41 dce2 4f42 1a69 1442 727d 5e42
00000110: 89c8 3942 e470 8042 70c7 1d42 716e c841
00000120: 6ffa 4342 ac19 2942 2f05 3742 d84b 7c42
00000130: 73aa 1642 a7cb 6142 e290 2c42 cb79 6a42
00000140: 1cdc 2d42 e26c 8b42 6d7f 2b42 50f8 5a42
00000150: 094b 0742 2e78 ef41 9a43 6a42 2ba2 6141
00000160: 6cd6 0642 bc96 5342 7762 4242 6c58 1a42
00000170: 5030 4942 c480 1f42 de87 5842 7f9f 1f42
00000180: 393a 0f42 24ee 3342 b224 6542 ddc7 1742
00000190: d80b 1b42 13f3 1f42 95d6 2942 ed3b 4942
000001a0: f713 2742 e19c 0442 ff1c c641 8b03 3642
000001b0: c6d8 4742 bb25 7242 3c36 1f42 a364 2b42
000001c0: 77cb 3f42 08db 0942 15ad 2842 0e30 2f42
000001d0: 7dbc 3b42 d73c 5742 0c42 0542 ff1f 8f41
000001e0: 8483 1c42 94ff 6a42 cfe2 0b42 cdac 7742
000001f0: 76ac 4042 a402 5242 a573 5c42 2768 5c42
00000200: e104 6e42 35d8 0442 b3ab 3742 35f9 1742
00000210: 513d 3c42 f9fd 3442 4a85 4e42 6496 4142
00000220: e6c8 2442 a8ec 2242 da70 0142 2070 5842
00000230: 0d85 3742 b635 2842 ad6b f941 96d4 0a42
00000240: 1138 3d42 b8ed 3e42 9569 2b42 1567 0442
00000250: fc69 1f42 a3f2 0242 5be0 0941 5119 1a42
00000260: 6d34 5f42 1c62 3742 7d30 5b42 a90a 0342
00000270: 7a95 cf41 9b35 3842 fc10 5c42 ba1d 4142
00000280: d17b e741 dc65 5b42 06fa 3a42 8c53 4c42
00000290: 9d8a bf40 3b2d c541 9f42 2a42 61fb 4742
000002a0: b764 5b41 d8dc 3742 9be0 4442 e0b7 8142
000002b0: bd7d 4142 187f 5342 3926 1e42 fce0 e041
000002c0: f3b4 5642 fcf3 5142 dc7d 1542 68f6 5b42
000002d0: 025a 1e42 5015 4b42 51af 1042 4c33 4142
000002e0: a62a 4f42 777d 0242 6c1d 3c42 6f25 a641
000002f0: 6446 8342 7261 7e42 f9b6 2042 5d1f 6841
00000300: 49eb 4142 e75e 4d42 b3b5 2b42 2d3b 2f42
00000310: da5a 2d42 caef 4142 225b 5d42 fd20 4d42
00000320: 3b47 1242 e433 4342 ae0e 1d42 e0a9 a041
00000330: 33b7 7442 c359 1542 c426 0b41 344c 3742
00000340: 4306 8742 12c2 7941 5b42 2c42 2c3e 5b42
00000350: 86a0 a841 7e99 5a42 e147 3242 cfe5 5d42
00000360: d7ed 3542 ba40 e941 4cfa 6342 8bec 3842
00000370: e60c ae41 5bdf 3842 14dd 3542 0623 2d42
00000380: f10f 6142 e759 2442 9960 5642 4d65 4342
00000390: 999f 5e42 d576 4342 b2c5 1842 dcda 5842
000003a0: ad65 5042 db2c 3f42 ae12 8741 c2d0 e041
000003b0: 03f1 6a42 29c7 7c42 916e ec41 6695 c341
000003c0: f244 3642 ae07 6242 baed 0b42 a42f 6042
000003d0: dde6 3742 2c3f 8242 7f1a 5042 5bbf 4842
000003e0: 3bb5 3942 4245 2542 4e65 3842 63c3 0640
000003f0: 38e6 4542 9a23 8442 c296 2542 1661 3c42
51.494785 41.270668 39.83692 64.27523 31.637197 55.72278 43.284286 40.435204
32.882923 53.352116 39.809055 17.009535 32.866905 37.433727 66.256935 38.829285
43.46466 44.618465 42.807945 47.919827 8.234301 27.375504 36.526012 55.008705
57.525433 55.512863 53.861485 40.370716 45.451096 56.480564 57.154907 26.278112
51.365234 38.23477 63.29639 45.306087 58.22512 50.00266 48.747757 33.48701
22.97112 64.15043 50.06087 57.647995 46.222515 56.541637 40.0117 40.36091
43.297905 46.922226 47.49512 38.72882 66.53479 60.70946 42.763546 54.44175
45.56386 59.0935 48.314957 33.337284 34.24134 47.421448 36.703857 28.115095
15.774622 51.971542 37.10264 55.622505 46.445835 64.22049 39.444763 25.053926
48.994564 42.27507 45.755062 63.074066 37.666454 56.44888 43.141487 58.61894
43.46495 69.71266 42.87444 54.742493 33.823277 29.933681 58.566017 14.102092
33.709396 52.8972 48.596157 38.58635 50.29718 39.875748 54.132683 39.905758
35.806858 44.98256 57.285835 37.94518 38.761566 39.987377 42.459553 50.30852
41.769497 33.153202 24.764158 45.50346 49.961693 60.536846 39.802963 42.848278
47.948696 34.463898 42.169025 43.79693 46.93407 53.809414 33.3145 17.890623
39.128433 58.749588 34.971493 61.91875 48.16842 52.50258 55.112934 55.10171
59.504765 33.21114 45.917675 37.993366 47.05988 45.24802 51.630165 48.396866
41.19619 40.73111 32.360207 54.109497 45.879932 42.052452 31.177576 34.707603
47.304752 47.732147 42.853107 33.100666 39.8535 32.73695 8.617274 38.524723
55.801197 45.84581 54.79735 32.76041 25.947987 46.05235 55.016586 48.27903
28.935457 54.849472 46.744164 51.08159 5.9856706 24.647085 42.56506 49.995487
13.712089 45.965668 49.21934 64.85913 48.37279 52.874115 39.537327 28.109856
53.67671 52.488266 37.37291 54.99063 39.5879 50.770813 36.171207 48.300095
51.79165 32.622524 47.028732 20.768278 65.63748 63.59516 40.178684 14.507657
48.47977 51.342678 42.92744 43.80779 43.338722 48.48417 55.338997 51.282215
36.56956 48.800674 39.264336 20.082947 61.178905 37.337658 8.696964 45.824417
67.51223 15.60988 43.0648 54.810715 21.07838 54.649895 44.570194 55.474422
45.482265 29.156605 56.99443 46.231 21.756298 46.21812 45.465897 43.284203
56.265568 41.087795 53.594334 48.848927 55.655857 48.866047 38.19306 54.21373
52.099293 47.793804 16.88412 28.101933 58.735363 63.194492 29.553988 24.447948
45.56733 56.5075 34.982155 56.046524 45.975452 65.12338 52.025875 50.18687
46.426983 41.317635 46.09893 2.1056755 49.474823 66.069534 41.397224 47.09481

l4/b f4 [64]
00000000: ca84 bfc2 297e bfc2 708e bfc2 7d87 bfc2
00000010: c28f bfc2 4090 bfc2 0f8c bfc2 937c bfc2
00000020: dd85 bfc2 448d bfc2 9a8a bfc2 ea8c bfc2
00000030: 8f97 bfc2 fa91 bfc2 3e95 bfc2 b080 bfc2
00000040: d58a bfc2 3f8e bfc2 e884 bfc2 b390 bfc2
00000050: 8087 bfc2 cd8a bfc2 5f8a bfc2 3b8a bfc2
00000060: 0690 bfc2 cf9d bfc2 748d bfc2 e790 bfc2
00000070: f68c bfc2 dd8d bfc2 6c96 bfc2 ee8a bfc2
00000080: dd89 bfc2 f78e bfc2 c288 bfc2 e98a bfc2
00000090: 8a8c bfc2 c382 bfc2 2c8e bfc2 2f95 bfc2
000000a0: af8a bfc2 b292 bfc2 3e82 bfc2 7c88 bfc2
000000b0: db8e bfc2 c18b bfc2 be85 bfc2 958f bfc2
000000c0: c47b bfc2 c58b bfc2 cc88 bfc2 fc88 bfc2
000000d0: 079c bfc2 7a97 bfc2 96a6 bfc2 da7f bfc2
000000e0: d384 bfc2 438f bfc2 8e87 bfc2 9188 bfc2
000000f0: 7887 bfc2 a698 bfc2 2b88 bfc2 348c bfc2
-95.75935 -95.74641 -95.7782 -95.764626 -95.78078 -95.78174 -95.77355 -95.74331
-95.76145 -95.77591 -95.770706 -95.77522 -95.79601 -95.78511 -95.79149 -95.75134
-95.77116 -95.777824 -95.75958 -95.782616 -95.76465 -95.771095 -95.770256 -95.76998
-95.781296 -95.80822 -95.776276 -95.78301 -95.775314 -95.77708 -95.79379 -95.77135
-95.769264 -95.77923 -95.767105 -95.77131 -95.77449 -95.755394 -95.77768 -95.791374
-95.77087 -95.786514 -95.75438 -95.76657 -95.779015 -95.77296 -95.761215 -95.78043
-95.74173 -95.77299 -95.76718 -95.76755 -95.80474 -95.79585 -95.82536 -95.74971
-95.75942 -95.77981 -95.764755 -95.76673 -95.76459 -95.79814 -95.76595 -95.773834

l3/W f4 [256, 256]
00000000: dda7 dc40 b962 c140 44c3 8240 1189 ea41
00000010: 3461 02c2 0e9e 3441 de6c 0a41 9c71 6b41
00000020: 9112 0242 e944 0042 62fa f1c0 1016 fc40
00000030: 0f5c a941 a0f9 62c1 3dc5 a3c1 40f8 7fc1
00000040: 961f 04be fa3b 0ec2 394d 43c2 c06a c0c1
00000050: 0442 0b42 da09 4341 731c 9f40 7308 dd41
00000060: 5cd8 8041 e06e ff41 4c5f fb41 f684 1c41
00000070: c5d7 6d42 d4e9 87c1 4bca 4841 fd8b a741
00000080: 8e30 b7c1 e141 6c41 0212 9a41 f01a 7f41
00000090: 298c 9ec1 8c3b 2d41 3e46 5341 0aa8 9041
000000a0: 4508 1c40 eeb1 9641 399d 63c1 f8ce 4f41
000000b0: 9486 6a41 e8e4 5040 6db2 a4c1 168a bb41
000000c0: df7c 0fc1 396d 2dc1 4859 0942 8860 0dc1
000000d0: 0365 2e41 0667 9c40 355f d740 d605 0742
000000e0: 20bf 9f41 2e55 b441 20a9 5241 e322 8e41
000000f0: 384f 9540 e6a0 60c0 498a 0241 342d f340
00000100: f173 9b41 077c a141 0828 1642 76a5 0dc2
00000110: ef44 d1bf 2d21 7a41 6408 8741 3a85 4cc1
00000120: fd8f 38c0 c280 a241 9d03 6e41 f46f 9841
00000130: 1c39 89c1 f8dd 5140 ed16 7a41 7133 0842
00000140: 11f7 fe40 473c 3241 50df 6fc1 44a0 f7c1
00000150: c054 ae41 83b6 2442 fb05 5d41 32e8 1742
00000160: e649 4042 1c66 3e41 9449 4442 d296 f540
00000170: 7d7f 1641 ab3e b041 6645 63c1 59ae 4542
00000180: 1a04 5641 f334 7041 d80a 58c0 e262 a1c1
00000190: 6860 9fc1 4171 0141 2db6 3541 8348 3341
000001a0: 33be d041 9c60 5742 ba92 1741 df25 3842
000001b0: 337e 6641 7897 a040 6251 3ec0 4e6b 1fc2
000001c0: 4ef3 6dc2 1c20 ee41 c8e2 fd40 23ca c0c0
000001d0: 81a5 e640 173b 6ac2 cdd3 cc41 7146 2cc1
000001e0: c751 ec41 5447 6941 b240 05c2 eb63 753e
000001f0: 4fd0 14c2 23c6 5641 460a fcc0 7206 10c2
00000200: 98dc b941 853e 6041 7540 9741 9e6c a440
00000210: 5598 d840 5e23 09c0 a703 7141 0ffd c541
00000220: 8885 803f 0f5a 83c1 dd87 00c1 2b36 2ec1
00000230: fe1d d7bf a20e 2e42 e1f5 6f41 bad9 d9bf
00000240: 8110 29c2 492f b4c1 7677 fdc0 32fd 813f
00000250: 9a9b c9c1 5311 54c2 4097 2a41 d3e1 9d41
00000260: 499c 3942 48bf 4b41 bd61 5241 d08c 2041
00000270: 0221 3b40 6e27 aa41 6ce2 8441 5342 3c41
00000280: af85 9bc1 fcce 4d41 0ef2 f5c1 9288 6341
00000290: b44a 1741 ff7f 8641 7b55 ef41 771c d9c1
000002a0: 0f03 4041 a987 3442 a911 5cbf 1862 9640
000002b0: 2d7d e540 1efe 0e42 09b5 07c1 675a 8141
000002c0: c1a2 d140 e145 23c2 df8f c6bc 9983 fd3e
000002d0: ae89 85c2 2597 6141 f405 5e41 bbd5 ca41
000002e0: 6cb3 5ec1 cfc0 67c1 e79e 8940 70ed c9bf
000002f0: 1b4e fdc1 0a1d a241 8efc a4c0 c172 69c1
00000300: 053f 0a42 f622 b540 a34b b4c1 67f6 b441
00000310: 5a80 bfc1 5cf5 3f41 42b0 2e41 d28f 1b41
00000320: e2d7 3a3f 3b69 3c41 ed37 3941 d767 ce41
00000330: 6f55 59c1 2f18 b641 5728 4841 b20c d7c1
00000340: 26f0 3242 d33c f841 e7db 77c0 8b96 1d41
00000350: 9b9e 2441 b269 3a41 0f15 7840 755a 1e42
00000360: 158c 51c1 117e 16c2 bf8b 01bf 8b38 cc41
00000370: bbc0 b341 fe54 6841 5a25 4b41 3d45 5841
00000380: c7a3 65bf af71 f5c0 80c5 91c1 ce94 ba40
00000390: 9c92 1541 b6ee 4041 6a7e 15c2 cb4a 1341
000003a0: 4ada ba41 de19 0bc2 90e8 8441 46fc a341
000003b0: 4475 5542 6bda f840 9fc8 c93e 931e 6041
000003c0: d2f0 8141 1be4 8941 b013 8e41 cfb7 2f41
000003d0: 2601 ac40 b93c 2a41 92af 1542 976d 8041
000003e0: 437f 1141 b604 8441 6ffb 1141 483d f941
000003f0: 2cff 0a42 6694 c741 9ce8 9141 9b1f 4641
6.895491 6.043301 4.086336 29.316927 -32.594925 11.288588 8.651579 14.715237
32.51813 32.067295 -7.5618143 7.877693 21.16995 -14.185944 -20.471308 -15.998108
-0.12902674 -35.55857 -48.825413 -24.052124 34.81447 12.189905 4.972223 27.629126
16.105644 31.929138 31.421532 9.782461 59.460712 -16.989174 12.549388 20.943354
-22.898708 14.766084 19.258793 15.944077 -19.818438 10.827038 13.204649 18.08205
2.4380047 18.83688 -14.225884 12.9880295 14.657856 3.2639713 -20.587122 23.442425
-8.967986 -10.839166 34.33719 -8.836067 10.899661 4.887576 6.730372 33.7557
19.968323 22.541592 13.16629 17.767035 4.6659203 -3.5098205 8.158761 7.599268
19.431612 20.18556 37.539093 -35.411583 -1.6349162 15.6331 16.879097 -12.782526
-2.8837883 20.31287 14.875882 19.054665 -17.152885 3.279173 15.630597 34.050236
7.9676595 11.139716 -14.99202 -30.953255 21.791382 41.178234 13.81396 37.976753
48.072166 11.899929 49.071854 7.6746607 9.406125 22.0306 -14.204443 49.42026
13.376001 15.012927 -3.3756618 -20.173283 -19.922073 8.09015 11.3569765 11.205203
26.09287 53.844345 9.473322 46.036983 14.40581 5.01849 -2.9737172 -39.85479
-59.487602 29.765678 7.9339333 -6.024675 7.207703 -58.557705 25.603418 -10.767198
29.53993 14.579914 -33.31318 0.23963897 -37.203426 13.423373 -7.876254 -36.006294
23.232712 14.015264 18.906473 5.138259 6.768595 -2.1427836 15.063392 24.748564
1.004075 -16.418974 -8.03317 -10.888225 -1.6806028 43.51429 14.997529 -1.701957
-42.266117 -22.523088 -7.9208326 1.0155394 -25.200977 -53.01692 10.661926 19.735266
46.402622 12.7342 13.148862 10.034378 2.9238896 21.269253 16.610558 11.766192
-19.440275 12.863033 -30.74319 14.220842 9.455738 16.812498 29.916739 -27.138899
12.000747 45.13248 -0.8596445 4.6994743 7.1715302 35.74816 -8.481698 16.169142
6.5511174 -40.81824 -0.024238525 0.49514464 -66.768906 14.0994005 13.876453 25.35436
-13.918804 -14.484572 4.3006473 -1.5775585 -31.663137 20.26418 -5.1558294 -14.590516
34.561543 5.6605177 -22.536932 22.620314 -23.937672 11.997402 10.918032 9.722612
0.7298566 11.775691 11.576154 25.800703 -13.583358 22.761808 12.509849 -26.881199
44.73452 31.0297 -3.8727968 9.849254 10.288722 11.6508045 3.8762853 39.588337
-13.0967 -37.62311 -0.5060386 25.527609 22.469107 14.52075 12.696619 13.516904
-0.8970303 -7.6701274 -18.221436 5.8306646 9.348293 12.058279 -37.37345 9.20576
23.356586 -34.77526 16.613556 20.49818 53.364517 7.7766623 0.39410874 14.007464
16.242588 17.23638 17.759613 10.982375 5.37514 10.639825 37.421455 16.05351
9.09357 16.5023 9.123885 31.154922 34.74919 24.94746 18.238579 12.382716

l3/b f4 [256]
00000000: 1f7a a941 051a ebc0 6195 0b3e c67f 9441
00000010: ceb7 de40 dfc5 b841 42fd 0541 ea84 9040
00000020: c2aa 5741 3f77 4f41 7e42 33c0 7b13 1b42
00000030: dc83 0940 1441 4641 4857 3241 275d e83f
00000040: 5ad8 60bf 0294 8e41 d085 2e41 391c 8941
00000050: 51da 9641 b12b 0a41 a56d 7b40 e073 b541
00000060: 6115 8f40 e122 2d41 ce37 9441 4c5f fa40
00000070: 84d4 63bf b2b2 2441 787a ac41 23c8 1b41
00000080: 5d85 5741 b85c 1241 9c7d 1641 c6e8 c740
00000090: d75f f641 13f5 ca41 f3c9 1541 82b2 5a41
000000a0: 836d e23e 75a3 a641 c6b7 3341 adfe 4141
000000b0: dff1 d03e 0b0d d541 e025 39c1 f2ee fd40
000000c0: 9bb2 973e 9e15 2e41 6fb5 9f40 2f01 c640
000000d0: babe 9d41 e5bd f141 0185 a040 df9f 5741
000000e0: fb66 dbbf 8567 d041 db8e a140 ef31 9940
000000f0: 9b5e 6e41 c543 3841 d95d 2d41 ffac 373f
00000100: 40f8 a341 8b54 1d41 05ee 1241 52bf e241
00000110: 26b2 4041 ecba 8f41 0699 ac41 341a df41
00000120: 6d09 97be 6959 be40 3d36 4241 44a6 0d40
00000130: 55b6 8141 cd0a e441 3939 2541 b7c5 af41
00000140: ac07 2a41 27db 0b41 f32f f640 7efc d441
00000150: a389 ff40 e98a 1840 a4a2 3941 c2f2 b740
00000160: 59f6 9640 9584 7f41 d0ea fd40 ada9 a640
00000170: 61dc e541 6807 5741 3797 c841 a929 9b41
00000180: 8ab8 df41 c7c7 3241 b405 c241 44e1 c13f
00000190: cab8 3bbf a18f 5241 0e43 6ac1 48a9 cf41
000001a0: c39c 09bf 4fac 6940 bf32 c33f f829 e041
000001b0: ad1b a041 d29f c141 e6bf bb40 24cb 79c0
000001c0: b0b4 5f41 c313 8c41 3388 04c0 1cca 80c0
000001d0: 37f2 0f41 4820 5a41 fa09 6f41 cb4d b3c0
000001e0: 80c8 8d41 af47 af3f 07f7 b040 beb8 a141
000001f0: ef81 4740 899f 1041 9b39 2141 27e7 4441
00000200: 7ff8 c341 9f2e b941 ae87 40c0 d8fa dec0
00000210: 6957 3341 fe58 0f41 552a 8e41 3e36 1241
00000220: c85c 2941 5f19 ff40 2cf5 2541 22fe df41
00000230: 32d7 9940 2527 0b41 b9b3 abc0 a083 b340
00000240: 04df bc41 d9c0 1940 6e5a d740 31ac 22c1
00000250: 08f4 8240 fe50 b7bf 9c01 4441 fead ea3f
00000260: d5d2 f841 6c8f 2e41 c42c 9d41 9087 8b41
00000270: ab27 e341 88f3 0341 6810 b340 1410 4940
00000280: 47c0 b041 c3d0 e041 3eff 263e c551 8ec0
00000290: f5d9 cc41 36c1 f740 73d8 a440 12b7 9841
000002a0: a4c8 e741 c977 2241 7f2e d641 59ec 9f41
000002b0: ca61 aa41 28eb 1a41 7788 7941 ca18 1241
000002c0: a374 a441 4a46 2e41 1d99 9f40 32d9 5f41
000002d0: 0f98 5a41 b077 5341 529f 2341 1ce5 da40
000002e0: 9bd0 6141 d108 2f41 eee9 9340 5c41 c741
000002f0: d8c2 1c41 10e0 9e41 f968 0541 d75e af41
00000300: 8dcd c141 900b 9f41 f966 9f41 3eb8 cac0
00000310: 0383 8b41 818c 7740 11dc a241 0052 1a41
00000320: 9c9b a340 7d38 3b40 bedd 7241 5b0b 913f
00000330: 125c cc41 a741 9540 a0b6 c941 3e9b f340
00000340: d1d4 3d41 a0a9 e941 ee19 c340 bcd8 3c41
00000350: fd9b 1ac0 1ebc bc40 6019 ea40 6189 d641
00000360: ab81 2441 d3a6 db40 e792 ca41 335d 2441
00000370: 140d e541 6a3e 5441 25f0 6641 b3d7 2f41
00000380: 9976 f441 6461 a840 6217 e841 9ac2 1041
00000390: 8d7c ed41 b752 8140 88a6 7abf 73d0 8141
000003a0: 6293 6941 24fe 2b41 51a9 8841 5834 be41
000003b0: 1454 0242 f34d b741 636e 8941 97e1 cf41
000003c0: 82f0 7641 8ebc d241 35f2 4dc0 eff3 9341
000003d0: 23b3 6741 a0bc 9041 d1cd ee41 bfd6 a341
000003e0: 7f5a 1c41 8974 2441 d0a5 5241 31e5 1b43
000003f0: d665 ce40 e117 0642 e616 3941 3b74 7d41
21.18463 -7.346926 0.13631202 18.56239 6.959937 23.096617 8.3743305 4.516225
13.479189 12.966613 -2.8009334 38.769024 2.148673 12.390888 11.146309 1.8153428
-0.87830126 17.82227 10.907669 17.13878 18.8566 8.635667 3.9285672 22.68158
4.4713597 10.821015 18.527248 7.824133 -0.8899615 10.293627 21.5598 9.7363615
13.470059 9.147636 9.405666 6.2471647 30.796797 25.369665 9.361804 13.668581
0.44224176 20.829813 11.232367 12.124677 0.40809533 26.631369 -11.571747 7.935418
0.29628453 10.880278 4.9908977 6.1876445 19.718128 30.217722 5.016236 13.476531
-1.7140802 26.050547 5.0486884 4.7873454 14.898097 11.516545 10.835412 0.71748346
20.496216 9.83314 9.18311 28.343418 12.043493 17.96627 21.574718 27.887794
-0.2949938 5.9484143 12.138242 2.213273 16.21403 28.505274 10.32647 21.97154
10.626873 8.741004 7.693353 26.623287 7.9855514 2.3834784 11.602207 5.7483835
4.7175717 15.969869 7.9349136 5.2082124 28.732607 13.439308 25.073835 19.395342
27.965107 11.173774 24.252785 1.5146871 -0.7332884 13.160066 -14.641371 25.957657
-0.53754824 3.651142 1.5249861 28.020493 20.013514 24.203037 5.867175 -3.9030237
13.981613 17.50965 -2.070813 -4.0246716 8.9966345 13.632881 14.939936 -5.603246
17.7229 1.3693751 5.5301547 20.215206 3.1173055 9.038949 10.076564 12.306434
24.496336 23.147764 -3.0082812 -6.9681206 11.20884 8.959227 17.77067 9.138243
10.585152 7.971847 10.372356 27.999088 4.807519 8.697057 -5.365689 5.6098175
23.608894 2.4023955 6.729789 -10.167039 4.092289 -1.4321592 12.250393 1.8334348
31.102945 10.910015 19.646858 17.441193 28.39437 8.246956 5.5957527 3.1416063
22.093885 28.101934 0.16308305 -4.4474816 25.606424 7.7423353 5.151422 19.08939
28.97297 10.154244 26.772703 19.990404 21.297749 9.682411 15.595817 9.131052
20.556952 10.89216 4.9874406 13.990526 13.662124 13.216721 10.226397 6.8404675
14.113429 10.939652 4.622306 24.906914 9.797569 19.859406 8.338128 21.921309
24.225367 19.880646 19.92528 -6.3349905 17.43897 3.8679507 20.357454 9.64502
5.1127453 2.9253228 15.179136 1.133159 25.544956 4.664264 25.214172 7.6127005
11.864457 29.207825 6.0969152 11.802914 -2.4157708 5.8979635 7.3155975 26.81708
10.281657 6.8641143 25.32173 10.272754 28.631386 13.265238 14.433629 10.990161
30.557909 5.2618885 29.011417 9.04751 29.685816 4.041347 -0.97910357 16.226782
14.598482 10.749546 17.082674 23.775558 32.582108 22.913061 17.1789 25.985151
15.433718 26.342068 -3.2179081 18.494108 14.481235 18.092102 29.850496 20.479856
9.772094 10.278451 13.165482 155.89528 6.449931 33.52332 11.56809 15.840877

l1/W f4 [256, 64]
00000000: dc22 a3c1 51fa 15c2 2159 5741 b53d 6bc0
00000010: d0ef afc1 aff4 09c1 5e3c 873f 3218 a540
00000020: 966c b340 5a7e ba3e 7547 a6c0 2c05 abc0
00000030: c513 94c0 8148 fa3f c441 0f40 e56e 3e41
00000040: 73b7 53c2 ac83 b4c1 b0ea 1641 5159 d8c0
00000050: ffc6 8b41 8632 2dc1 36f4 4c40 503b 97c1
00000060: 47ac 45c1 ccdc 693f 96ef 4d3f 25e3 1441
00000070: ec9a 35c1 2c40 9b40 f157 73c2 fab3 82c1
00000080: 848d 5cc1 d37f dec0 bf38 1e40 5277 57c0
00000090: 10fb 06c0 64a1 22c1 c923 02c2 9a57 88c1
000000a0: 2647 4d41 136e abc0 3f1a 19c1 5213 c440
000000b0: 39ab 7341 af30 c940 f2cb 24c2 a197 ccc1
000000c0: 0128 bbc1 8b81 e940 d6ad d8c0 e4df 3ac1
000000d0: 6faf 0041 10fa 2441 d2dd 24c1 d26e 39c2
000000e0: 7354 86c1 daba 0dc0 4fad 3241 b1fd 323f
000000f0: 25cb 11bf e5ed 6841 25c9 2a41 d93c 96c1
00000100: 7383 92c0 5108 0941 e84b 8141 bedc f2c0
00000110: aad2 a6c1 9d38 e140 feb1 3540 e75a 06c0
00000120: 3595 02c2 4925 8540 64b3 f040 ded7 a13f
00000130: c9cc 1b41 73c7 ec40 0543 8740 31d9 87c1
00000140: 7af5 843f a655 d940 e378 d240 6fce d6bf
00000150: 5699 4040 13a3 94c1 d46c 2940 a930 b7c1
00000160: 49e8 0942 4828 4341 6efc 9040 94c0 c63f
00000170: bf34 eebf 9278 0b41 46bb 37c2 4c33 f6c1
00000180: d268 9141 a60a 7a41 4635 97bf f665 af3d
00000190: b350 e23f a61c 0541 6073 91c1 4314 f5c0
000001a0: e4fa 1141 e8a8 89c1 ecd2 94c1 923f 0c41
000001b0: d473 3bc1 248b 3341 d653 9741 c209 a541
000001c0: 1ffb 5ac1 e1cb 01c2 6969 0bc1 4e9f 0641
000001d0: 07e8 8c41 920f 62bf 4e5a 52c1 001a 26c0
000001e0: aee8 45c2 c88a 91c1 4d44 e1c1 33da 77c0
000001f0: 4d8c 7f41 13e4 e840 e046 9e40 52ea 1fc1
00000200: bf15 c841 78cb 3ac1 047f 77be 94a3 4f41
00000210: 488c 1d41 df61 ca41 c08b bc41 7fd7 f840
00000220: c4fe a740 3ec6 1441 6201 88c0 2a15 2541
00000230: 5df8 87c0 722b a2bf 5c55 fcbe 1470 22c1
00000240: 1078 6940 c3e6 46bf e78c 2c41 a994 3ec1
00000250: 08ab 6341 9934 b3bf fb10 a541 22bc 9dc1
00000260: 2d55 9341 b793 8e41 b7e7 803f b8c6 29c1
00000270: 4b65 1840 ad71 fbc0 dda9 05c0 56b1 a03f
00000280: 8bc7 58c0 d598 4a40 d891 22c0 bdac 97c0
00000290: abaa 11c0 dba9 40c1 85a7 a33f 1a47 0c41
000002a0: d398 4741 8e4c e640 c523 b53f 4af5 2ec1
000002b0: 4f3b 6dc0 112f 6fc0 a3fc 08bf 6b59 1d41
000002c0: ec65 c5c0 bb96 fb40 4378 2141 f0d7 efc0
000002d0: c546 9a41 eda1 f940 3b9b 1dc1 d6b5 5d3f
000002e0: 0436 5bc1 6236 9540 b495 69c1 c2fa 8f41
000002f0: 08b4 0140 9886 b241 8cfc 0142 63ca 4041
00000300: c96c bec1 4934 8cc0 9d04 20c2 41f7 1941
00000310: 5747 b840 335a 9fc1 a70e 3641 ca23 1dc1
00000320: fa9b 41c1 50ab 9f3f 30ae 84c1 8555 cfbf
00000330: 7780 a240 a22d c6c1 25ff bac1 2a5a b140
00000340: 5ec8 31c2 2c37 04c1 1a57 8d40 f1a5 20c0
00000350: 0434 c4c0 75ab c0c0 e147 e2c0 291d d0c0
00000360: efa7 1bc0 cbd6 8e41 6b32 60c0 c93f bebf
00000370: e136 3041 b8b5 37c1 1a81 8e41 95ed d6c1
00000380: 3cee 6641 1c0c 77c1 ba3d fd40 0113 98c0
00000390: 6a86 573f b70b 3ec1 0495 8fc1 7224 b5bf
000003a0: e556 a3c1 de6a 4541 7b56 8bbf d94a 0cc1
000003b0: 1415 9040 db32 a13f a61c 24c1 2fe6 0ac1
000003c0: 1e8b 9e40 aeb2 f43e fcc5 4b3f c4c9 70c0
000003d0: da42 f240 19fd 4441 fdbe e240 bf52 2341
000003e0: 2e07 c741 6c1e 883f 2c60 cac1 8f59 0e41
000003f0: 4d07 5f41 b3c1 3041 5cf4 98c1 3250 d241
-20.392021 -37.49445 13.45926 -3.6756413 -21.992096 -8.622237 1.0565298 5.1592035
5.607005 0.36424524 -5.196223 -5.3443813 -4.6274133 1.9553376 2.238389 11.902074
-52.92915 -22.564293 9.432297 -6.760903 17.472166 -10.824835 3.2024055 -18.903961
-12.35456 0.91352534 0.80443704 9.305455 -11.350323 4.8515835 -60.83588 -16.33788
-13.78455 -6.9531035 2.4722135 -3.3666577 -2.1090736 -10.164402 -32.534946 -17.042774
12.82987 -5.357187 -9.568908 6.1273584 15.229302 6.287193 -41.199165 -25.574038
-23.394533 7.2970634 -6.77122 -11.679661 8.04283 10.31105 -10.304155 -46.358223
-16.791235 -2.2145295 11.167312 0.6991835 -0.569506 14.55808 10.674108 -18.77971
-4.578546 8.56453 16.162064 -7.589446 -20.852863 7.038161 2.8389888 -2.0992982
-32.64571 4.1608014 7.5218983 1.2644002 9.737496 7.399347 4.226931 -16.98105
1.0387414 6.791705 6.5772567 -1.6781749 3.009359 -18.579626 2.6472673 -22.89876
34.47684 12.197334 4.530814 1.552752 -1.8609847 8.716936 -45.932884 -30.775047
18.176182 15.6276 -1.1813133 0.085643694 1.7680877 8.319494 -18.181335 -7.6587234
9.123753 -17.207474 -18.60299 8.76552 -11.715778 11.22147 18.915936 20.629765
-13.686309 -32.4491 -8.713235 8.413893 17.613295 -0.8830501 -13.147047 -2.595337
-49.477226 -18.192764 -28.15835 -3.8726928 15.971753 7.277841 4.9461517 -9.994707
25.010618 -11.674675 -0.24169546 12.977436 9.846748 25.297789 23.568237 7.7763057
5.2498493 9.298399 -4.250169 10.317667 -4.249068 -1.2669508 -0.49283874 -10.152363
3.647953 -0.77695864 10.7844 -11.911294 14.229256 -1.4000427 20.633291 -19.716862
18.41659 17.822126 1.0070714 -10.611015 2.3811824 -7.8576264 -2.0884926 1.2554119
-3.3871791 3.1655781 -2.5401516 -4.739836 -2.2760417 -12.041469 1.2785498 8.767359
12.474811 7.196845 1.4151541 -10.934885 -3.706745 -3.7372477 -0.53510493 9.834331
-6.1686916 7.8621497 10.091861 -7.4951096 19.284555 7.8010163 -9.850398 0.86605585
-13.700687 4.6628885 -14.599049 17.99744 2.0266132 22.31572 32.496628 12.049411
-23.803118 -4.3813825 -40.004505 9.622865 5.7587085 -19.919043 11.378577 -9.821238
-12.10058 1.2474155 -16.585052 -1.6197973 5.0781817 -24.772282 -23.374582 5.5422564
-44.44567 -8.26347 4.4168825 -2.5101283 -6.1313496 -6.02093 -7.0712743 -6.5035596
-2.4321249 17.85488 -3.5030773 -1.4863216 11.013398 -11.481865 17.813038 -26.866007
14.433163 -15.440456 7.913785 -4.75232 0.84189475 -11.87786 -17.947762 -1.4151747
-20.417429 12.338591 -1.0885767 -8.768273 4.502573 1.2593645 -10.256994 -8.681197
4.954482 0.47792572 0.79598975 -3.7623148 7.5706606 12.311791 7.085814 10.207702
24.878506 1.0634284 -25.296959 8.896865 13.939282 11.04729 -19.119316 26.289158

l1/b f4 [256]
00000000: 5786 8540 9fd2 2d41 09b8 0fc1 def4 af40
00000010: 5120 5641 da35 8240 2649 e340 694d fd3e
00000020: 3c6c 29c0 52a2 0840 d777 15c0 c905 80c0
00000030: cde4 fc40 35dc 8841 5905 90c1 9bc1 aa40
00000040: 2963 babf af4d 8dc1 a274 7f40 5ad0 b1c0
00000050: 9b72 48c1 62d8 81bf 3151 9f40 2a3e c0c0
00000060: 10e0 f8bf 5a12 acc1 2689 8b40 7b43 82be
00000070: bb7e 10c1 1ff0 103f 7ba2 9bbe 6489 e640
00000080: 3162 44be 0333 55c1 68a0 49c0 8002 32c0
00000090: 5ca4 9bc0 99e3 ae3f 3e5e fa40 ca5d a540
000000a0: 64d6 2ec1 f16b 01c1 ae86 4d40 8490 5440
000000b0: 3946 01c0 7dcd 1341 a985 0d41 602c 0dc1
000000c0: 56a7 b0bf 0dbf 4940 2456 b640 3496 21c1
000000d0: 5e73 fcbf 48ef aa3f 3f52 bd3f f47b 3ec1
000000e0: 9820 9d3f 1fb5 2341 011c 26c1 3759 55c0
000000f0: 5374 f040 8a9c a7c0 eb76 18c0 0c37 66c1
00000100: 6295 1440 8c6f 0f41 0e29 b43f bb6a bbc0
00000110: f0dd 2bc1 2fc5 913e 401e bb3f 93b4 ccc0
00000120: 2a71 f4c0 a203 0f40 7ff2 a141 3356 f93f
00000130: 3b19 8640 86ed 3140 b6ed 3cc1 d7d4 f3c0
00000140: 0f2b cd40 84e1 b740 3d0b 0b41 99ca 8ec0
00000150: ada2 05c1 ee01 eb40 5327 e9c1 e9b4 6dc1
00000160: 566d ef40 6348 19c1 9da0 c9c0 1509 c640
00000170: 601e 2540 ba53 1741 e2c3 e13d 23a6 5a41
00000180: b07e 0640 2c19 bcc0 2162 2ac1 9044 7b40
00000190: 242d e8c0 09fa 3241 854b 6f3f 392a f03f
000001a0: 8229 41bf 046f aac0 11a3 2441 f0d6 57c0
000001b0: 5c36 aac0 cb80 a7c0 7559 6bc0 b548 4fc0
000001c0: 610c 0341 4865 85c0 2f11 1a3f ddd8 5340
000001d0: 19a4 78c1 70d0 1ec1 2e3c 9a40 0a58 4740
000001e0: de5c b440 4396 803d 1a26 0341 ba80 963f
000001f0: af6c 3741 c42b 3441 8ff2 49c1 aae9 10c1
00000200: ee4d b8bf 2350 a13e 1788 6ac0 d970 83c0
00000210: 2457 d7bf 20b8 2041 aa62 ddbf fb09 0ac0
00000220: 45ba 8ebf 2ae8 7240 2835 cb40 4224 f13f
00000230: 0dc4 74c0 de0f 5640 2195 b3c0 58e1 1ac0
00000240: 4c25 a9c0 2af8 d640 e82a 22c1 ed1f b0bf
00000250: 454c 8d40 bad5 6e41 fb2f 16c0 0682 c1be
00000260: c82a 58bf 248a 8141 ff60 1ac1 ee6b 89c1
00000270: 415b 633f b9c5 fdbe 14cd 4441 b075 13c0
00000280: ce18 0940 6797 f5bf eaab 0b40 be72 3240
00000290: 1148 ff40 b950 c3bf a419 c1bf 8716 7140
000002a0: 25a8 17c0 999d bc40 5891 6f3f 654d 5a40
000002b0: 471e 8fc0 796c 55c0 d8b9 28c0 c585 24c0
000002c0: de5e d040 5801 c4c0 886b fd3f 1e37 7fbf
000002d0: 8ee2 a440 12a0 f4bf ee80 e6c0 8426 a3c1
000002e0: a232 2d41 b8fc 39c1 0dbc 71c0 8807 42c0
000002f0: 1342 e63f f454 8040 b7ff a83d ea79 7f40
00000300: 54e8 573f ee4a 6dc1 2eec 3ec0 d34d cc40
00000310: e495 7640 622b 0b40 e7df 4f40 fe94 5fc1
00000320: f91c 2dbd 28e1 51c1 8e68 a3c0 3a14 1540
00000330: 6f6d c940 09e8 2d40 706f 18bf 2e20 ea3f
00000340: c145 6e3f 5e0e 1ac0 15a3 8a40 e29b 98bf
00000350: cc4f 29c0 6629 8b3f 9198 4340 a4b4 b2c1
00000360: 14b1 f740 483e 57bf d48c 41c0 f9ba 9fc0
00000370: f8ab a8c0 8015 db40 55dd 2e40 04a8 dfc0
00000380: 1938 99c0 8de5 ff40 b999 a1c0 66ee 0bc1
00000390: 9aa1 75c0 9c7c aac0 5eff ae40 016e 66c1
000003a0: 82f3 9c40 4f26 bd40 2283 0cc1 b452 90c1
000003b0: da8c 3840 2e51 9e3e d253 a8bd fe84 af40
000003c0: 2d8a 1640 9152 ebc0 7be7 9d3e 7395 5ac1
000003d0: d989 11c0 eec3 98c0 955e ea40 6130 9ac0
000003e0: 2508 2dbe 5533 eac0 8516 57bf 4936 74c1
000003f0: 6dd7 a740 6045 74bf 383f 77c0 1d0a 3040
4.172649 10.863921 -8.98243 5.498641 13.38289 4.0690737 7.1026793 0.49473122
-2.647231 2.1349072 -2.3354394 -4.000706 7.90293 17.107523 -18.002611 5.3361335
-1.4561511 -17.662931 3.9914937 -5.5566835 -12.52798 -1.014416 4.978661 -6.0075884
-1.9443378 -21.50896 4.3604918 -0.2544211 -9.03094 0.56616396 -0.303974 7.2042713
-0.19178082 -13.324954 -3.1504154 -2.7814026 -4.8638134 1.3663207 7.824004 5.167699
-10.927341 -8.088853 3.2113452 3.3213205 -2.019911 9.237668 8.845132 -8.823334
-1.3801067 3.1522858 5.698015 -10.099171 -1.9722707 1.3354273 1.4790725 -11.905262
1.2275572 10.231719 -10.381837 -3.3335702 7.5141997 -5.237859 -2.3822582 -14.388439
2.3216176 8.964733 1.4075029 -5.8567786 -10.741684 0.28470752 1.4618607 -6.3970428
-7.638814 2.2345967 20.243406 1.9479431 4.19058 2.7801223 -11.808035 -7.6197314
6.411506 5.746279 8.690244 -4.462231 -8.352216 7.3439856 -29.144201 -14.8566675
7.4820967 -9.580173 -6.300856 6.1886086 2.579979 9.457941 0.1102369 13.665561
2.1014824 -5.8780727 -10.648957 3.9260597 -7.2555103 11.186044 0.9347461 1.8762885
-0.7545396 -5.3260517 10.289811 -3.3724937 -5.3191357 -5.234472 -3.677335 -3.2388127
8.190522 -4.1686134 0.6018247 3.3101113 -15.540063 -9.925888 4.819846 3.1147485
5.6363363 0.0627866 8.196802 1.1758034 11.464034 11.260685 -12.621718 -9.057047
-1.4398782 0.31506452 -3.6645563 -4.1075253 -1.6823468 10.044952 -1.7295735 -2.1568592
-1.1150595 3.7954202 6.350239 1.883919 -3.824466 3.3447185 -5.611954 -2.420004
-5.285803 6.7177935 -10.135475 -1.3759743 4.4155602 14.927179 -2.3466785 -0.37794513
-0.8444028 16.192451 -9.648681 -17.1777 0.8881112 -0.49564913 12.300068 -2.304058
2.142139 -1.9186829 2.1823678 2.7882533 7.977547 -1.525901 -1.508595 3.767
-2.3696377 5.894238 0.9358115 3.4109738 -4.472446 -3.3347456 -2.636343 -2.5706646
6.5115805 -6.125164 1.9798441 -0.9969348 5.1526556 -1.911135 -7.2032385 -20.393806
10.824862 -11.624199 -3.7771027 -3.0317097 1.7988914 4.0103703 0.08251899 3.991816
0.8433888 -14.830793 -2.9831653 6.3845 3.8528986 2.1745229 3.248041 -13.973875
-0.04226396 -13.11747 -5.106513 2.3293595 6.2946086 2.7172873 -0.5954504 1.829107
0.93075186 -2.407127 4.3324075 -1.1922572 -2.6454954 1.0872009 3.056187 -22.338203
7.740366 -0.8407941 -3.0242205 -4.991574 -5.2709923 6.8463745 2.732259 -6.9892597
-4.788098 7.9967713 -5.050015 -8.745703 -3.8379884 -5.327711 5.4686728 -14.401856
4.904725 5.9109263 -8.782015 -18.040382 2.883597 0.3092131 -0.082191125 5.4849844
2.3521836 -7.353829 0.30840668 -13.661487 -2.2740386 -4.773917 7.3240457 -4.8184056
-0.16897638 -7.318766 -0.8401874 -15.263253 5.245047 -0.9541836 -3.8632336 2.7506173
