static/ai/4/agent_white_2000/target_model.npz (npz, 521765 bytes, 8 tensors)

l2/b f4 [256]
00000000: 34ca 2a3d 8e46 81ba 3ad4 1c3d 9749 5e3b
00000010: 2df1 153c c948 303c ffc3 c03c 5b9f 51bb
00000020: c055 15bc 3132 e53c 7331 d03b be2e c73c
00000030: 2064 40bb 7ac8 8aba 3f01 273d c103 72bc
00000040: b8bb febc e3db c9ba 7be3 a9bc 8e89 0b3d
00000050: 41f7 073c 9fc5 83bc a816 c7b7 8930 babb
00000060: dd67 febc 4523 50bc fed3 cf3c 9797 893a
00000070: db11 82bc 9d3c 5f3d b1d0 2d3b 3fe1 2f3d
00000080: 8d1f cb3c d5aa 2bbc 1243 2cbd 923f 96bb
00000090: 0ff7 313c dc1b 523c b03a 103d d6ee adbb
000000a0: b1ba 36bd 7254 113c 5f1d aa3c 88ea 83bb
000000b0: 8746 323b 4b15 f6bb fc18 193d c081 bcbc
000000c0: 722b 803c 21cc 9fbc 7903 f63b 00bd 0ebc
000000d0: d325 60bc 51a2 80bb 0fa8 5dbc 076f 093d
000000e0: fca3 cdbb 834e dcbb d60e 06bc e5de 55bb
000000f0: 2abb 11bc f3b2 cabc 5b3f d4bb c280 483c
00000100: b0c9 57bd fb88 d13c dbdb efbb 4ced df39
00000110: 55fa 853c affb 22bc 6ad7 2c3b ca93 dcbb
00000120: 748a 7bbc 5cd2 913c 62c0 263c 538f ee3c
00000130: 2f50 a63c cafe d6bb d42c d73c 1cdf baba
00000140: 3ce6 c3bc d311 5ebb 00e5 96bc 51aa 363b
00000150: ea4a d6bc 5ca5 b03c cc03 a23a 6515 cbbb
00000160: 764c aabb 7246 c1bc 45e6 77bc 6e87 833c
00000170: cac2 7a3c f128 0ebc 373b 86bc 7ce8 e13b
00000180: 9293 893b ccd0 abbb c9c1 2b3d 957d 343d
00000190: 98af c83c 9edd 07bc 5ca6 a53c 6c68 c0bc
000001a0: 8613 a2bc 8157 39bc 3c61 2fba 7243 023d
000001b0: 1b15 abbc 5d9b a53c 3a4e 063b 89ec 31bc
000001c0: 9ee8 493b 8925 3d3c eec2 1a3c 28d4 0e3d
000001d0: 6827 db3b f002 9ebc 6c9e 37bc e8a6 27ba
000001e0: a937 b73a aec5 fe3c facc bfb9 3fcb 02bc
000001f0: 2426 f3bb 9462 f73b b8a1 7b3c ab1f afbc
00000200: f104 22bd 9e70 e8bb 7961 cb3b 67ba 273d
00000210: 95dc 073d 7449 6ebc 6f7d 5bb9 5c9f 633c
00000220: 04e1 10bc 029e 603b 62e9 003d ad25 35bc
00000230: 5df5 ba3b 460f ba3b c885 9abc cd53 ad3b
00000240: 64a3 393d 06ef 253c 2b72 65bc b93b 77bc
00000250: 2ad1 25bc 20c5 e1bb b147 8ebc a89d a63b
00000260: 9cd3 3ebc ac20 c9bc a29f 4dbc a5a8 dfba
00000270: e0cd d03c 0686 133d 0a1b 17bc 23be 0f3d
00000280: 958e 37bd fd27 3abc 56a4 0abd 0951 b4bb
00000290: 2535 1c3c 0138 f5bb ccba 59bc c13f be3c
000002a0: e923 663d 52d9 55bb d030 b5bb 2757 50bb
000002b0: b27c 4ebb 0000 0000 0204 1b3c 80c2 34bc
000002c0: 5a8b b33c 37c8 01bc 0539 78bb 7359 4a3d
000002d0: 302e d1bc 351d a8bc ab45 aabc eafa e33c
000002e0: 0000 0000 8e06 573c bc71 a7bc 4782 7fbc
000002f0: 5b95 873c 340d 18bd d65b ac3d 9a80 75bb
00000300: e02a e5ba b96b 1ebb facf 433c 18ba 4b3c
00000310: d27d edbb fc0a fd3b e571 bebc b73e a4bc
00000320: a221 24bc 2537 813c ca34 103d 08b1 3dbc
00000330: 5f49 733c a195 8fbc 0696 afbc 6bb7 313c
00000340: 3769 f63a 60dc babc 43b3 603c eff6 903c
00000350: e17f 4abb 2ee8 363d 2c56 51bc 9b7c 3dbc
00000360: 6790 a9bc f21b 1a3d bd51 f9bb a2c0 413c
00000370: c5c8 08bc fea9 3fbd 2168 bb3c d36f cfba
00000380: 0516 f4bc 9bec 0ebd 4b34 39bc 9752 b93c
00000390: 3f72 a8bc 7380 df3a 0fb3 89bb 2529 363d
000003a0: 191a 2bbb 288a a4bb 4440 b23c 3fde 9c3b
000003b0: d66e 1ebb 1282 6c3c d82b abbb 199d 95bc
000003c0: 9f8f 50bc 1634 4fbc 250e 8ebd 370c 653b
000003d0: c583 0a3c 6225 01bd 5e7b abbc ff29 6cbc
000003e0: 0009 a4b8 101b 253b 8bdf 44bb 63a9 9cbb
000003f0: ca79 493d 2ada 16bd b06e 0e3c 94f1 493d
0.041696742 -0.0009862946 0.038288333 0.0033918375 0.009151739 0.010759541 0.023530958 -0.0031985852
-0.009114683 0.027978035 0.006353551 0.02431428 -0.0029356554 -0.0010588311 0.040772673 -0.014771403
-0.03109537 -0.0015400614 -0.020738354 0.03406673 0.008298696 -0.016085444 -2.3733199e-05 -0.0056820554
-0.031055385 -0.012703721 0.02536964 0.0010497448 -0.015877655 0.054501165 0.0026522095 0.04293942
0.024795318 -0.010477741 -0.04205615 -0.004585215 0.010862126 0.012824025 0.03521222 -0.0053080125
-0.044611637 0.008870231 0.020765958 -0.004025761 0.0027202682 -0.0075098625 0.037377343 -0.023011088
0.015645716 -0.019506516 0.007507738 -0.008712053 -0.013680893 -0.0039255996 -0.013528838 0.03355315
-0.006275652 -0.0067232265 -0.008182248 -0.0032634076 -0.008894721 -0.024743533 -0.006477279 0.0122377295
-0.05268258 0.025578013 -0.00731991 0.00042710674 0.01635472 -0.009947701 0.0026373514 -0.006731485
-0.015352834 0.017800502 0.010177704 0.029121077 0.020301906 -0.006561135 0.026266493 -0.0014257166
-0.023913495 -0.0033885136 -0.018419743 0.0027872513 -0.026158769 0.021563224 0.0012360751 -0.006197619
-0.005197103 -0.023593161 -0.015130584 0.016055789 0.01530523 -0.008676753 -0.016385658 0.0068941694
0.0041985 -0.0052433964 0.041932855 0.044065077 0.024497792 -0.008292584 0.020220928 -0.023487292
-0.0197847 -0.011312366 -0.0006690209 0.031802602 -0.020884087 0.020215685 0.0020493404 -0.010859617
0.0030808817 0.011544594 0.009445889 0.034870297 0.006688047 -0.01928851 -0.011207204 -0.00063954154
0.001397838 0.03110012 -0.00036583078 -0.007983028 -0.007420318 0.007549593 0.015358381 -0.021377405
-0.039555494 -0.007093503 0.006206688 0.04094925 0.033169348 -0.01454388 -0.00020932195 0.013892975
-0.00884271 0.0034273867 0.03147257 -0.011056346 0.005705519 0.0056780903 -0.01886262 0.005289531
0.045321837 0.010127788 -0.014004271 -0.015089923 -0.010120669 -0.006889954 -0.01736817 0.005084712
-0.011647131 -0.024551712 -0.012550266 -0.001706381 0.025488794 0.036016487 -0.009222755 0.035093438
-0.04481371 -0.011362073 -0.03384813 -0.005502824 0.009534155 -0.007483483 -0.013289165 0.02322376
0.05618659 -0.0032630754 -0.0055295005 -0.0031790228 -0.003150743 0.0 0.009461405 -0.011032701
0.021917034 -0.00792127 -0.0037875783 0.04940171 -0.02553472 -0.02052174 -0.020785173 0.027829606
0.0 0.013124121 -0.020439975 -0.015595025 0.01655071 -0.037121966 0.08415954 -0.0037460686
-0.0017484091 -0.0024173094 0.011951441 0.012434505 -0.007247665 0.0077222567 -0.023247669 -0.020049436
-0.010017784 0.015773365 0.035206594 -0.011577852 0.014849036 -0.017527403 -0.021433841 0.010846953
0.0018799667 -0.022810161 0.013714614 0.017695872 -0.0030898976 0.044655018 -0.012776893 -0.011565353
-0.02069874 0.037624307 -0.007608621 0.011825712 -0.008348648 -0.046792977 0.022876801 -0.0015826173
-0.029795656 -0.034893613 -0.0113039715 0.02262239 -0.02056229 0.0017051831 -0.0042022537 0.044472832
-0.0026108085 -0.0050213523 0.02175916 0.004787236 -0.002417495 0.014435308 -0.0052237324 -0.018263387
-0.012729554 -0.012646696 -0.069362916 0.0034949908 0.008454268 -0.03152979 -0.02093285 -0.0144143095
-7.821806e-05 0.0025193132 -0.0030040469 -0.0047809347 0.049188413 -0.03682915 0.008693382 0.049302652

l2/W f4 [256, 256]
00000000: 69cf 24bd 84f4 d9bd bdd1 903c acc5 4abd
00000010: b60d 6ebd 886d 06bc 05cd 5bbc b489 473e
00000020: 698d c53d ea45 debc 82a7 923d 57c2 ccbc
00000030: 4115 bc3c 6619 29be e4d5 243d 5c02 5abd
00000040: 79a2 4a3d e8a9 353d fac0 c83d 4fe5 23be
00000050: 219c aebd 7988 173c a8e1 edbd 97aa a63e
00000060: 914b 163d dcf7 da3c d6c3 0c3d 91a6 82bd
00000070: 3109 963e e1ab af3d 73b7 eb3d b727 6f3e
00000080: e89f 043d 31d0 a8bd 9afb 653e 56d9 ab3d
00000090: f777 e63c e139 603c 12b5 2bbd b8e2 b73d
000000a0: b55f 0c3e 53a3 143e 26e6 35be 8ce9 963d
000000b0: 9aad 3d3d 2fda 4dbc 1876 be3d 8da8 9d3e
000000c0: d8c5 1cbc 24e3 80bd d7aa 9ebd 9dcd e5bd
000000d0: 0301 0aba b991 053d 1a2f 943c 0b71 b13c
000000e0: f1f0 a7bd 4367 6f3c 7a9b 6e3e a7de 8b3d
000000f0: ed9d a9bd 23b2 1ebe fbe3 2c3c f9ce 2cbe
00000100: 5421 8b3d b8db e03a 633c a93d 0658 813d
00000110: 7ff5 6ebd 7514 babd 1316 1cbd 9af6 8abd
00000120: 8e6c 33be b997 bdbd 2e15 2b3e 5d92 23be
00000130: 7e73 e1bd a800 bf3d bbed a8bd b672 103d
00000140: 0d46 90bc 4d1d 25bd 4799 dbbd fe25 533d
00000150: 2f5d 223d 0289 133e 15fb a63c a60b acbd
00000160: 1343 a63c ca60 9abe 7137 0b3e ee9e fb3d
00000170: 9771 993c 6607 a0bd 3716 27be 43b3 e3bc
00000180: c26c 62bd 1785 e4bc 67b8 f93c 9077 b83d
00000190: 9740 fdbc 301a a1bd 2921 aebd 8944 52bc
000001a0: 4af4 d5bd 92ce 02bd 7fd3 18be 0be9 073e
000001b0: d80d f03a 4fce 0a3e ca0b 03bd 5ab7 163e
000001c0: 53ea 173e a966 773d d490 273e d774 413e
000001d0: 542d 17be 5599 b7bb 9294 be3d 5c71 f53d
000001e0: 163a 64bd abc1 10bc 6bd7 993d fb27 7f3e
000001f0: 788c d0bd 66bb 13be fa47 9bbd 11f0 01bd
00000200: d447 843c 3af9 87bd 1041 9fbc 1eba 3dbb
00000210: fd1a 233e bf19 b5bd 80a2 ac3d 9d5f 693d
00000220: 7f32 84bd 232a 1a3d 96ee 063e 3344 b73c
00000230: d44d 3b3e d822 fa3c 51de 823d d6ff 493e
00000240: 9b80 88bd d63a d2bd 63e7 e1bd 206d b0bd
00000250: 65c0 d5bd 8d5e 09be e44c 863c aa04 3bbc
00000260: e227 bc3d 074b ba3c 0dbd cdbd 24f4 9ebd
00000270: b697 05be a79b f13d c338 a4bd ff18 f4bc
00000280: b7c8 bcbd 6d9d 4e3e 906a 50bd 7db4 1b3d
00000290: 7a2e d63d abca 62bd 1cb2 b23d 4cbc 193d
000002a0: dde6 b23d d2b6 fe3d ee75 933d 0865 4bbd
000002b0: 61cd 17bc d294 433d 9c32 bb3d 5c77 2dbd
000002c0: b8dc 9c3d f47a 933d 9a08 a6bc 985f de3c
000002d0: dbd3 5dbd 8434 383d 8eec a73b 65ca edbd
000002e0: f6af 373d c042 213e 9feb 42bd ec7e 57be
000002f0: 5f8e 05bd b1eb 293d 62b3 363e ec15 a13d
00000300: 15f7 33bd fcb1 afbd d37c 2e3e 05d6 533d
00000310: 1f5f 9c3d 75bf 423d 9896 6c3d af3d 07bc
00000320: 8ed1 8abd 579d 413e f7c8 ec3d eb0b 20bd
00000330: 2850 e6bc afc0 aebd 0eba 93ba 50ec a03d
00000340: 7ac1 5bbc b0ef 523d a2b1 aa3d 09e9 85bd
00000350: 5a99 90bd 5b3c 41bd 99a5 bd3c 18e7 83bd
00000360: 519b 9b3c 0073 e43d 5164 eb3d 3f36 3bbd
00000370: f590 3dbd a75f 133d 6637 fb3d 6d5b 3ebe
00000380: feef bfbc 30f9 0bbe 4891 373e 3415 07be
00000390: 1190 2e3d 0879 e2bd 194a fb3d d39b 963c
000003a0: 4724 313d 1fdb e0bc 9ba9 c03d aeec 313c
000003b0: c4f7 683e c8aa c1bd a470 613d 63c7 c7bd
000003c0: d7b5 71bd 7cdd 303e c7a2 27bd 5d14 483d
000003d0: 3239 90bd bf1a 233e 84f4 873b 4946 2f3d
000003e0: a5bc 7bbd 68b5 e2bc a244 773c 5b46 d3bc
000003f0: c457 00be 5fc8 753d 9187 693d 9a77 ac3b
-0.040236864 -0.10642341 0.017678136 -0.04950492 -0.058118545 -0.008204825 -0.01341558 0.19486123
0.096461125 -0.027132947 0.07160856 -0.024995012 0.022959353 -0.16513595 0.040243044 -0.053224906
0.049471352 0.04435149 0.09802432 -0.16005443 -0.08525873 0.009248846 -0.11615306 0.32552025
0.03669316 0.026729517 0.03436645 -0.06379426 0.29303887 0.08577705 0.115095995 0.23354994
0.03237906 -0.08242834 0.2245926 0.08391063 0.028133376 0.013685674 -0.04192073 0.0897879
0.13708384 0.14515428 -0.17763576 0.07368764 0.046308137 -0.012564226 0.09299868 0.30792657
-0.009568654 -0.06293324 -0.07747429 -0.11220858 -0.0005264433 0.032609675 0.018088866 0.021660348
-0.08200253 0.014612022 0.23301497 0.06829577 -0.08282075 -0.15497641 0.010552402 -0.16875829
0.06793466 0.0017155325 0.08263471 0.06315617 -0.058339592 -0.09085933 -0.03810699 -0.06785317
-0.17521879 -0.092574544 0.16707298 -0.15973802 -0.110083565 0.09326297 -0.082484685 0.035265647
-0.017611528 -0.040311147 -0.10722595 0.051549904 0.039639648 0.14407733 0.020383397 -0.08400659
0.020295655 -0.3015197 0.13595368 0.12286173 0.018730922 -0.07813911 -0.16317068 -0.02779544
-0.0552795 -0.027895493 0.030483438 0.0900718 -0.030914588 -0.07866323 -0.085024185 -0.012833723
-0.10446985 -0.031935282 -0.1492443 0.13272493 0.0018314673 0.13555263 -0.031993665 0.1471838
0.14835481 0.06040064 0.16363841 0.18892227 -0.14763385 -0.0056029954 0.09305681 0.11984512
-0.055719458 -0.008835237 0.07511791 0.24917595 -0.10183042 -0.14426956 -0.07582088 -0.031723086
0.016147532 -0.06639333 -0.019440204 -0.0028950046 0.15928264 -0.08842801 0.08429432 0.05697595
-0.06454944 0.03763784 0.13176951 0.022371387 0.18291408 0.030534193 0.0639006 0.197265
-0.066651545 -0.10265128 -0.11030462 -0.08614564 -0.10437087 -0.13414975 0.016394086 -0.011414686
0.091872945 0.022740854 -0.10045824 -0.0776141 -0.13046154 0.117972665 -0.08018639 -0.029797075
-0.09217971 0.2017724 -0.050882876 0.038013924 0.104580835 -0.05536906 0.08725378 0.03753309
0.0873544 0.12437214 0.07200228 -0.049656898 -0.009265275 0.047749348 0.09140512 -0.042350158
0.07659286 0.07201186 -0.020267773 0.027145192 -0.05415712 0.044971958 0.005124635 -0.11610869
0.044845544 0.1574812 -0.047587987 -0.2104451 -0.03260648 0.04148454 0.17841867 0.078655094
-0.043936808 -0.0857887 0.17039804 0.051717777 0.076353304 0.04754587 0.057760805 -0.008254453
-0.06778251 0.18907677 0.115617685 -0.039073866 -0.028114393 -0.08532845 -0.0011270659 0.07857573
-0.013412828 0.051498115 0.08334662 -0.065385886 -0.070604995 -0.0471767 0.023150252 -0.06440562
0.01899496 0.11154747 0.11493743 -0.04570603 -0.04628082 0.035979893 0.12266426 -0.18589564
-0.023429867 -0.13669276 0.17926514 -0.13191682 0.04261786 -0.11058241 0.122699924 0.01838485
0.043247487 -0.027448235 0.0940735 0.0108596515 0.22750765 -0.09456402 0.055039063 -0.09754827
-0.059011307 0.1727199 -0.04092672 0.048847545 -0.07042159 0.15928172 0.0041490216 0.04279164
-0.061459202 -0.027674392 0.015092047 -0.025790384 -0.1253348 0.060005542 0.05701405 0.005263281

l3/b f4 [256]
00000000: c03e 8a3c bcda 97bb b5e4 7cbc a316 88bb
00000010: 4af6 a9bc 7ecf e53c f6d5 88bb ee5a 103c
00000020: 7c0e 40bc fd4a 593c fdeb 613d d682 cdbc
00000030: dc03 d53b 289d 5cbc 45a5 553b eaaf 72bc
00000040: 9bb5 c83a 0849 1fbc a7f3 503c a398 8abc
00000050: 7bab 94b9 fd98 f63c 584c 093c 1046 aa3b
00000060: 7a81 873c 0f58 9e3a 227c 5a3c 3b51 293c
00000070: 680c 3dbc 5f37 ffbb 0058 3dbc ec22 b4bb
00000080: c76f e03c d50a 5ebb 0099 523c b155 01bc
00000090: f70f 2e3d 8cd1 903c e344 2fbc 01a1 e7bc
000000a0: 891d 4bbc 1318 b83c 22cb 92bb 030a bf3c
000000b0: d1b5 4d3c 953b 0a3d c602 023d 9857 bcbc
000000c0: 709e d2bc 6850 ebbb 3f76 8a3b 35df 2ebb
000000d0: ea0d 133d 9c2b 5fba 7a27 61bc c390 893c
000000e0: 7a33 313d 25c8 bc3c f9cb adbc 9ffb 98bb
000000f0: c173 04bd 41fd 93bc 242e e53b 4151 903d
00000100: b0b3 173d 061d 2bbc eeeb debb d486 28bc
00000110: 09cf 0fbd c3a9 99bb 73ec 9d3c 443f 06bc
00000120: acdd b4bb f185 50bc 66c9 11bc 5cfc 44bc
00000130: 302d a83c 571f 243d c604 86bc 6847 a9ba
00000140: cdd7 58bc 2fa3 f6bc e846 ce3b 3989 a7bc
00000150: e855 14ba ebaf 87bc 3e43 13bc 5591 00bc
00000160: 57fe 3bbc f4b8 1338 77f1 653b 81e0 013b
00000170: ed43 65bc 8cdd 8dbc 20c8 9b3c 6f59 32bc
00000180: f736 6e3b 0c23 473d d7f4 5dbb fc88 043d
00000190: 02ee 25bc 0694 07bd f18c 19ba 6798 a0bc
000001a0: e0e1 a3bb ee7a 463c 4137 583d 9c06 783c
000001b0: c234 cfbc a9b6 27bc 6bbc 8a3d add8 58bb
000001c0: 27e0 d3bb c4bf 33bd 715b cf3c afc4 653b
000001d0: 9283 07bd 94c6 6ebc a2d7 dfbc 2ab9 383d
000001e0: 472d 973b 1c3c d23c 3fa9 e2ba c9f7 8b3c
000001f0: dd60 0abd 967e 0abc 4387 9cbb 37aa 85bc
00000200: b2a1 273d 4645 54bc cf33 21bc b546 0d3c
00000210: 5035 813b 6009 e03b d0ff 253c d724 513c
00000220: 774f 05bd aeef 85bc f133 163b 8305 93bc
00000230: 3da6 ccbc a607 11bd c0f7 53bb d687 613c
00000240: 0901 b83c a324 2bbb 2ea5 c3bb d3c5 4ebc
00000250: 5f0e f93b 26fe 71bc 0070 97bc c748 c8bb
00000260: fc2a 543c 3366 98bc 905b 4fbc 0ffb 48bc
00000270: 8da7 b6bc c8c1 7b3c a441 993d afc3 b8bc
00000280: 7501 833c 8eaf 5abc 2741 56bb e034 c7bb
00000290: 1a0b 55bc de4d 77bc 1b51 393d c997 8a3d
000002a0: a2f4 a43b fada f4bc 4253 893c 91b1 123d
000002b0: 655c 933b c217 c1bb 9e78 ecbc 24bb 65bc
000002c0: 4ae3 323d aacb e6bb ff91 a5bc 3c15 a13c
000002d0: d9b5 92bc 60c0 873c 0112 253c e207 8bbb
000002e0: 122c de3b 5714 8d3b 34f1 26bc 38ed d23b
000002f0: c38d d93b ad12 3c3d 8f63 70bc 2ffd 26bc
00000300: a9e7 fdbb 4899 bbbc 749d d43b dd99 973b
00000310: 3da1 b1bc ff45 d63b 6c50 4abc 790f 1bbc
00000320: bee2 42bc 4637 bfbc 3c7a ce3c 57db 41bc
00000330: 2b06 aebb 1e29 e33c 09ef 95bb 8b32 3ebc
00000340: 08c1 86bc 7fcd 84bb eaa6 b93c 6140 adbc
00000350: 4c11 68bc 8e21 6ebc 5fa0 073d 9eef 0f3c
00000360: fa44 aa3c 6d43 9cbb fd69 a5bc 355c 0fbc
00000370: 02c5 adbb 20de 0dbc e141 c9ba 8ffa ce3c
00000380: 5048 55bc 58c2 60bc a9f4 00bd 4b28 94bc
00000390: 7e1d 35bc 506f 643d 5674 bd3c bda9 08bc
000003a0: cd41 023c 5abf c83c 14ae 3f37 50a6 8e3c
000003b0: a93e 813b 6c18 573a d634 87bb e193 373a
000003c0: decf 283d 79d0 cdbb 9879 48bc 9cf5 5bbb
000003d0: adcb 43bc 49e5 f53b 8949 a33c 2b43 d13c
000003e0: 061d d93c eec2 29bc bb83 91bb 8a9a d5bb
000003f0: bc0d e53c d32a 0cbc f16c 653b 325d 453c
0.016875625 -0.0046342295 -0.015435387 -0.004153089 -0.020747323 0.028053042 -0.0041758968 0.008810742
-0.011722203 0.0132625075 0.055156697 -0.025086801 0.006500704 -0.013465203 0.003259973 -0.014812449
0.0015312912 -0.009722002 0.012753404 -0.016918486 -0.00028356523 0.030102247 0.008380018 0.0051963404
0.016541231 0.0012080687 0.01333526 0.010334308 -0.011538602 -0.007788583 -0.011556625 -0.005497327
0.02739705 -0.0033880968 0.012853861 -0.007893966 0.042495694 0.017678045 -0.010697576 -0.028275015
-0.012397178 0.022472417 -0.0044797817 0.023320204 0.012555555 0.033748228 0.031740926 -0.022990987
-0.025710315 -0.007181216 0.004225522 -0.0026683335 0.03590194 -0.0008513273 -0.013742322 0.01679266
0.043261983 0.023044655 -0.021215426 -0.0046686674 -0.032336954 -0.018065097 0.006994026 0.07046748
0.037036598 -0.010443931 -0.0068030274 -0.010286052 -0.035109553 -0.0046894266 0.019277787 -0.008193795
-0.0055195894 -0.012727247 -0.008898115 -0.012023058 0.02052936 0.04006895 -0.016359698 -0.0012914957
-0.013235045 -0.030107109 0.006295074 -0.020451175 -0.0005658553 -0.016563376 -0.0089882 -0.00784715
-0.011474214 3.5219782e-05 0.0035086551 0.0019817653 -0.013993246 -0.017317556 0.019016325 -0.01088558
0.003634868 0.048617408 -0.003386786 0.0323572 -0.010127546 -0.03310015 -0.0005857489 -0.019603921
-0.0050012916 0.01211427 0.05278707 0.015138295 -0.025293712 -0.010236421 0.06774219 -0.0033088133
-0.00646593 -0.043884054 0.025312157 0.003505986 -0.03308446 -0.014573712 -0.027324501 0.04509846
0.004613552 0.025663428 -0.0017292871 0.017085927 -0.033783782 -0.008453032 -0.0047768666 -0.016316516
0.04092569 -0.012955969 -0.009839012 0.008622815 0.003943123 0.006837055 0.010131791 0.012765131
-0.032546487 -0.01634964 0.0022919143 -0.017946964 -0.024981612 -0.035407685 -0.0032343715 0.013765296
0.022461431 -0.0026114366 -0.0059706187 -0.012620407 0.00760059 -0.014770066 -0.018486023 -0.0061121914
0.012949701 -0.01860342 -0.012656108 -0.012266888 -0.022296691 0.015366025 0.07483223 -0.022554247
0.015991906 -0.01334752 -0.0032692642 -0.0060793012 -0.013003135 -0.015094249 0.045243364 0.06767232
0.0050340453 -0.029889572 0.016763333 0.03581387 0.0044970983 -0.0058927247 -0.028866109 -0.014021669
0.04367379 -0.0070433216 -0.020211218 0.019663446 -0.017908977 0.016571224 0.010075093 -0.004242883
0.006780156 0.004305403 -0.010189343 0.00643697 0.0066392138 0.045916248 -0.014672174 -0.0101922
-0.0077485633 -0.022900239 0.0064884964 0.004626496 -0.02168333 0.006539106 -0.012348276 -0.009464138
-0.01189488 -0.023341786 0.02520477 -0.01183208 -0.005310794 0.027729567 -0.0045756144 -0.01160873
-0.016449466 -0.0040528174 0.022662599 -0.021148862 -0.01416428 -0.014534367 0.033111926 0.0087851565
0.020784844 -0.00476878 -0.02019214 -0.008750011 -0.005303026 -0.008658916 -0.0015354716 0.02526596
-0.013017729 -0.01371821 -0.031483326 -0.01808562 -0.011054395 0.05577022 0.023126762 -0.00834125
0.007950258 0.024505306 1.1425018e-05 0.017413288 0.0039442373 0.0008205238 -0.0041261716 0.00070029317
0.041213863 -0.0062809554 -0.012236021 -0.0033563143 -0.011950416 0.0075041396 0.019932525 0.025544723
0.026503097 -0.010361416 -0.0044407523 -0.0065186666 0.02796065 -0.008555132 0.003500756 0.012046145

l3/W f4 [256, 256]
00000000: 2930 05bc 53e7 a83c 453a 89bd 8818 023e
00000010: bb54 c439 3aa1 ebbc 31d4 063d 173a 813d
00000020: 00f4 ab3d dfca 4c3d 6ece 463d 0730 3dbd
00000030: d9ab 10be 4ab7 173c dff1 413d 22d8 0e3e
00000040: 854b 54bd 3b67 a73d 6331 e23d bd35 3e3d
00000050: e735 6d3d 5c11 1bbc fee7 e8bd fc45 62bd
00000060: d044 9ebc 1ee7 1dbe b1f1 aabb e369 08bd
00000070: a5f6 b93c e39c 98bd d758 3c3d 7ed0 8e3d
00000080: 4127 1b3e 8b89 82bd af01 65ba 7d13 633d
00000090: 44aa 0fbe 758a 3f3d fb8c 89bc 742f a8bd
000000a0: 4c01 60bd 2f22 c83d 77de 7d3c 4916 f53c
000000b0: b21d 363e 58b5 b8bd 2a65 85bd cf87 9eba
000000c0: ae81 0c3e aebf 573d 0c63 c93d abb6 3cbd
000000d0: 3a52 fabd 7dc7 7bbd 420c b83a 4479 c83d
000000e0: 14ba 84be b70e 98ba 18d8 97bd 2543 ef3c
000000f0: d110 47bd 6979 a53d ccdb d7bc 25d3 50be
00000100: 4905 9b3d c8e9 01bd 9180 40bd 5a8d d93d
00000110: b4df d13b ff4d 4abd 8d08 a2bd 081a 3abd
00000120: 69f6 bb3d f9db 9bbd cd9c 27be bcd8 5d3b
00000130: e5e6 18bc eeb6 15be bfe0 7abd 526d 093d
00000140: 1f28 1c3e be61 c93d 5bed b4bd 9ffd 8dbc
00000150: 4033 0f3d 97c3 d23b 20b1 063e 53c5 793d
00000160: cc7c cc3d 2436 24bc fec7 a8ba 15c0 df3d
00000170: c4c8 3e3d 6b2a 9c3d 06f0 9fbd b4fa f3bd
00000180: 8656 c83d 92cf 24be cdb6 02be 3097 6a3d
00000190: cbc9 a4bb 52d2 583d bd8e 76bd b9f0 453d
000001a0: aab6 9e3d 21f4 53bb 7c82 00be 3293 84bc
000001b0: 02a1 f1bd 1c14 2abe 033e 70be ed0b 3cbd
000001c0: b8a2 143e 646f cc3d 5552 ccbd d7b1 8a3c
000001d0: fe11 b43d e80f 893d 12f0 6abc 6e53 753d
000001e0: 9fc1 74bd 891b e03c e3c9 9b3d af4b f13c
000001f0: 0edc 0ebd f603 cbbd f3fd 4b3d 9e7c f3bc
00000200: 0fe7 823c 6a65 d53c 7b7a f0bd 37b7 9a3d
00000210: 7953 62bc 62df 3b3e a0fc 093e 189b a5bd
00000220: c096 a2bd 4673 18be c2e0 19be 55f2 a23c
00000230: f445 023d 87c5 efbc 9cc2 113e 89f3 4abc
00000240: 01b8 2a3b 76ee 193d 7528 c3bd 6004 25bd
00000250: a2e7 ad3c 9485 a8bd 11d1 813d 3f7f fdbc
00000260: ec31 863c e931 a53d 279f 3dbe 4017 27bc
00000270: 0d42 61bd 087b fdbd e0f9 9abd 6611 c9bc
00000280: 4f73 5b3d b70d 42bd 992c 563e 450e 04bd
00000290: 9bc3 6ebc 20d6 c83d 2972 423e a808 99bd
000002a0: 513e a33d 5634 633e e001 a63d 91ac 97bd
000002b0: 1fb4 a1bd d824 d33c ad4f cd3d 1643 5f3c
000002c0: fc14 95bd a7b2 833d a08f 2c3d fb4c d9bd
000002d0: 0a03 4c3e 9ea2 853e 18b5 b2bd b995 b9bd
000002e0: b7b7 c5bc c6ec dfbd bf95 a8bd a411 bcbd
000002f0: 4c16 693d 810d 20bd be25 2f3d 08be ad3d
00000300: f2dc 9ebd b5f6 b2bb 1b1b d23d af35 87bd
00000310: eb97 d63c cf2f f7bd 67e6 3f3d b04d b13c
00000320: 09aa 723d 6521 08be a77f 963c e4ed aa3d
00000330: fa58 b7bd 431b 613d f25d 79bd 0647 393d
00000340: dc88 dfbc 76f4 91ba a864 09bd 1965 72bb
00000350: 7586 c5bd e0ff 223e f4a3 e4bc 95c0 783d
00000360: f504 2abd a4b3 0e3d f680 183e bc56 f1bd
00000370: c5b0 073e 7e60 ad3d 4ffc 3dbe f3ea 2cbc
00000380: 3ad6 bd3d 0c91 653d 9e32 383d 0575 bebd
00000390: 81f4 013e b0dd 3cbe 761e 543c c95b 3e3c
000003a0: e06d 98bd 5a0e 92bd 3815 e13d c218 a23c
000003b0: 8e9d abbd c873 a9bc e063 873d 4c00 953c
000003c0: dbdf 85bd 1092 52bc 0dd1 98bd 0ee9 b93d
000003d0: 4a10 d53d 3e7e 2e3e 65a0 2abc c7e0 143e
000003e0: be71 5bbe 22a4 4cbd 2341 b3bb 1b71 9c3d
000003f0: a61e 013e c06f cd3d e128 683d 8e38 7f3d
-0.008129158 0.020618116 -0.06700567 0.1270467 0.00037447162 -0.028763402 0.032917205 0.06309908
0.08396149 0.04999816 0.04853671 -0.04618838 -0.14128055 0.009260008 0.047349807 0.13949636
-0.051829834 0.081739865 0.11044576 0.046437968 0.057912733 -0.009464588 -0.11372374 -0.055242524
-0.019319922 -0.15420195 -0.0052168 -0.033304106 0.022700617 -0.07451799 0.04598316 0.069733605
0.15151693 -0.063738905 -0.00087359076 0.055438507 -0.14029795 0.046762902 -0.016790858 -0.08212176
-0.054688737 0.09772145 0.015494934 0.029917853 0.17784765 -0.090189636 -0.06513436 -0.0012094917
0.13721344 0.052673034 0.09833345 -0.046072643 -0.12222715 -0.061469544 0.0014041739 0.097887546
-0.25923216 -0.0011601065 -0.074142635 0.029206822 -0.04860002 0.08079798 -0.026349925 -0.20393045
0.075693674 -0.03171709 -0.04699761 0.10622664 0.0064048413 -0.04939079 -0.07911787 -0.04543498
0.091778584 -0.07610316 -0.16368409 0.0033851108 -0.009332393 -0.14620563 -0.06124949 0.03355152
0.1524968 0.09833096 -0.088343345 -0.01733285 0.034960985 0.0064320075 0.13153505 0.0609792
0.099847406 -0.010022674 -0.0012876985 0.109253086 0.046578184 0.07625278 -0.07809453 -0.11913052
0.09782128 -0.16094807 -0.12765045 0.05727309 -0.0050289384 0.052934952 -0.06019472 0.048325274
0.07749684 -0.0032341557 -0.12549776 -0.01618347 -0.11798288 -0.16609234 -0.23461156 -0.04590981
0.14515197 0.099821836 -0.09976641 0.016930504 0.08792494 0.06692487 -0.014339464 0.059894018
-0.059754964 0.02735688 0.07606866 0.029455034 -0.03487783 -0.09912865 0.04980273 -0.029722508
0.015979318 0.026049335 -0.11742111 0.07554477 -0.013813847 0.18346933 0.13475275 -0.080862224
-0.079389095 -0.14887723 -0.15027145 0.019890944 0.031804994 -0.029268993 0.14234394 -0.012387165
0.0026049616 0.03758093 -0.09529201 -0.040287375 0.021228615 -0.08228603 0.063387044 -0.030944465
0.016381226 0.0806616 -0.18517743 -0.010198414 -0.05499463 -0.12376982 -0.07567191 -0.024544429
0.053576764 -0.04737636 0.2091545 -0.03224017 -0.014573003 0.09806466 0.18988861 -0.07472354
0.0797087 0.22187933 0.081058264 -0.07405961 -0.078956835 0.025774404 0.100249626 0.013626834
-0.07279393 0.064305596 0.04212916 -0.10610386 0.19923034 0.2610063 -0.08725947 -0.090617605
-0.024135454 -0.10933833 -0.08231687 -0.09183052 0.05690603 -0.03907538 0.042760603 0.08483511
-0.07756986 -0.0054615387 0.10259076 -0.06602036 0.026195487 -0.12069666 0.04685059 0.02164349
0.05924419 -0.13293989 0.018371416 0.08346155 -0.08952518 0.05495764 -0.06088061 0.04523375
-0.02728694 -0.0011135477 -0.03354326 -0.0036986528 -0.09644786 0.15917921 -0.02791021 0.060730536
-0.041508634 0.034839287 0.14892945 -0.117841214 0.13251026 0.0846567 -0.1855328 -0.010554063
0.09269376 0.05604653 0.044970147 -0.092996635 0.12690927 -0.18443942 0.012946716 0.011618563
-0.07442832 -0.071316436 0.10990375 0.019787196 -0.083796605 -0.020685092 0.066108465 0.018188618
-0.06536838 -0.012852207 -0.07461748 0.09077655 0.104034975 0.17040345 -0.010414218 0.14538871
-0.21430108 -0.049961217 -0.0054704114 0.07638761 0.12609348 0.1003108 0.05667961 0.062309794

l1/b f4 [256]
00000000: 2d85 c9bc 8c0d b0bd 3e7d 82bc 2eaa 4d3c
00000010: f9c5 8b3c 25f3 273b 38d8 6e3c 3597 e23b
00000020: ba09 923c 47f3 01bd 1e08 11bd 91d8 41bb
00000030: 0cbe 2a3b 8beb 22be 98c4 553d ef91 76bd
00000040: ff78 bebb d226 3fbc 0081 193d 90ce 93bd
00000050: 6192 913c 8087 04be bf95 85bc d116 603d
00000060: 790f 073d d7de 9b3c acd5 8cbb 876a 3bbd
00000070: d168 bb3c 176e 003d 8612 ee3c fb1b 373d
00000080: fca9 cc3c 3d64 beba 1d2c 5cbc 0331 b5bb
00000090: 9c5d 49bd 2c0d 523d c3b1 32bd 1ddb cbbb
000000a0: e107 48bd 331e 433d 512e dd3c 64ca c6bd
000000b0: 1953 e83c 539b 4cbd 847e be3c 404e 88bc
000000c0: 8ff8 af3d 0a07 32ba b05f 933b 6f26 afbc
000000d0: b387 17bd 1b18 943c e0db 953c c110 a93d
000000e0: b20b 5abd e8c2 7d3c 9a9b a53c 602c b5bd
000000f0: 4a84 31bc cc41 9a3b ed8f 173c a5a1 cabd
00000100: 9471 f03b 52a2 373d c7a7 943c 8ed3 043d
00000110: d59d 08be b9f2 5eba 02ef bf3c 1171 d23c
00000120: 0932 fcbb 6e18 69bc 2218 0a3d 5324 f93c
00000130: 8bda 613d 5234 92bd f945 9c3a a4b2 a3bd
00000140: 010e 4a3d be6b 8b3c 895a b4bc 4c86 983d
00000150: 9705 5c3d ea1f 243d 46de 893d f642 98bd
00000160: 5439 6f3d 44f7 01bd 6502 41ba b078 4abc
00000170: 045e 273c fd6f 563d 1f7e 713a e466 be39
00000180: a596 1ebd 6730 0f3d 08ae 0a3d 4680 353d
00000190: 5dfa 1f3d b906 25bd ad06 03be 8bce 5abb
000001a0: 8b07 f63a b1ba 88bc 7b03 f03b a6fd 213c
000001b0: a611 ebbb 8faa ba3c 5b4b 873d 7505 8e3d
000001c0: c756 71bd 6d81 c63b 58b8 83bc 22c6 8b3d
000001d0: 4312 b4bc fb42 103a 9b24 fb3b caf9 39bd
000001e0: 8826 123c 6a75 2e3d 0036 1c3d 33c5 29bd
000001f0: 3fa8 8ebd c54e 283d 2a12 e0ba 57a7 05be
00000200: 6b4a 05bd c5d4 663c af3c 283c 4dbb 1abd
00000210: 23fc 56bb 7523 a2bc 4d7d cc3a a673 353d
00000220: 0d01 593b fcfe 55bd cb2d 973c 21b4 c03c
00000230: 6b91 cf3c bb84 503c bcd0 2d3d bb6c 2a3d
00000240: 7165 473d 1e44 273c fbc4 ea3c 5d5e c9bd
00000250: 1ed2 a2bd 840b 183d 015d 61bc b5a5 a2bc
00000260: 48df 47bd 599a cb3c 59f2 cb3a 6e66 48bc
00000270: 99cc 84bd 9c08 ef3b 9ef4 88bd 260e 23ba
00000280: c2dc e1bd ebc6 423a dfee 083d 1d3e 463d
00000290: 7c5a 4d3d 00cc 213d efa2 ae3c 1b23 9e3c
000002a0: 8a22 abbc c0f9 163d 35a3 e0ba e143 b8bd
000002b0: 489d 9abb c1fc 8b3d cdfc 9a3c 8a4b 9abb
000002c0: 7d7b 863c 0000 0000 b895 c53b 0495 1cbc
000002d0: 8f25 e83c 225b eabd 32a2 2d3b dd1b efbc
000002e0: f5ab 6ebc bccb 2d3d b1cc d3bc dec9 b43c
000002f0: 8497 12bd 9ea7 bdbc 5f05 b8bd 2324 023d
00000300: 5f8c 5f3d 6bb5 59bc bb1d 183d 42df 0fbd
00000310: 992d e83b 33d5 50bd c5fe 283c 4c51 2a3d
00000320: b582 333c 30b2 12bc 3ff5 ae3d 19d0 d8bc
00000330: 79dd 81bd cbdd 1fbd 911d e13c 1146 383d
00000340: 10f0 a53c f0bf 63bd 0feb 52bb 4f8d 423d
00000350: bbd6 a33c 195d 873d 7985 623c cf47 0dbd
00000360: d088 87bd fda1 023d a0d8 fb3c 0fee d639
00000370: f871 15b7 9002 40bb 1e5b b43c d04f 62bd
00000380: 52a5 a2bc 6458 b4bb 9448 acbd 11e1 59ba
00000390: 3abb 1a3c 8599 8f3b b6c1 483b ed94 923c
000003a0: e81b 86bc b5b7 40bc d43f ddbc 60d0 0139
000003b0: 3821 bcbb 78a4 e3bc 2194 2c3d 640c 45bc
000003c0: 540b 873d 8d92 2e3c e4ff aebc 7e9a 22bd
000003d0: d01a ea3c a29a 00bd 68ea fe3c 5b94 d0bc
000003e0: c24d 3abd 125e 62bc 4c84 09be a730 98bc
000003f0: aa4c 8cbc 5cd1 273d 3bb6 973c 182e 043d
-0.024599636 -0.08596334 -0.01592886 0.012552781 0.017062174 0.0025627103 0.014577918 0.006914998
0.017826904 -0.031726148 -0.03540813 -0.0029578547 0.0026053218 -0.15910165 0.05218944 -0.060197767
-0.0058127637 -0.01166697 0.03747654 -0.07217133 0.017769994 -0.12942314 -0.016306756 0.05470926
0.03297374 0.019027157 -0.0042979326 -0.04575589 0.022877129 0.03135499 0.029061567 0.04470442
0.024983399 -0.0014525723 -0.013438252 -0.0055295243 -0.04916154 0.051282093 -0.043626558 -0.0062211887
-0.04883564 0.047636222 0.026999624 -0.09706572 0.028359937 -0.049952816 0.023253687 -0.016638875
0.08592331 -0.000679121 0.004497491 -0.021380631 -0.036994647 0.0180779 0.018293321 0.08255149
-0.05323381 0.015488364 0.020215798 -0.088463545 -0.010834763 0.0047075506 0.009250623 -0.098941125
0.0073377583 0.044832535 0.018146409 0.032428317 -0.13341458 -0.00085047964 0.023429397 0.02568868
-0.0076963943 -0.014227016 0.03371442 0.030412829 0.05514006 -0.071388856 0.0011922709 -0.07993057
0.04932976 0.017019149 -0.022015827 0.0744749 0.05371627 0.040069498 0.067318484 -0.07434647
0.05840428 -0.03172995 -0.00073627225 -0.012357876 0.010215286 0.052352894 0.0009212214 0.00036316284
-0.038717885 0.03495827 0.033857375 0.044311784 0.039057124 -0.040289614 -0.12795515 -0.003338727
0.0018770559 -0.016690584 0.0073246337 0.009887135 -0.0071737347 0.022786407 0.0660617 0.069346346
-0.058920648 0.006057909 -0.016079113 0.068249 -0.021981364 0.0005503145 0.007664276 -0.045404233
0.008920319 0.042592444 0.038137436 -0.04144783 -0.06965684 0.041090745 -0.0017095257 -0.13052116
-0.032541674 0.014088814 0.010268374 -0.03777628 -0.0032804094 -0.019792298 0.0015601307 0.044299744
0.0033112199 -0.052245125 0.018454453 0.023523392 0.025337895 0.012726958 0.042435393 0.0416076
0.048680726 0.0102091115 0.02865838 -0.098324515 -0.07950233 0.037120357 -0.013755084 -0.019854406
-0.048796922 0.024853872 0.0015559896 -0.012231452 -0.064843364 0.0072947275 -0.06687282 -0.0006220065
-0.11028434 0.0007430154 0.03343093 0.04839908 0.05013512 0.03950119 0.021317927 0.019303849
-0.020890493 0.036859274 -0.0017138483 -0.08997322 -0.0047184564 0.06835318 0.018919373 -0.004708712
0.016416306 0.0 0.0060298108 -0.0095570125 0.028338222 -0.114431635 0.002649438 -0.029188091
-0.014567365 0.042430624 -0.02585444 0.022068914 -0.035789028 -0.023151215 -0.089853995 0.031772744
0.054577228 -0.013287882 0.03713773 -0.035125025 0.007085514 -0.050984573 0.010314648 0.041581437
0.010956456 -0.008953616 0.08542871 -0.026466416 -0.06341071 -0.039029878 0.027479919 0.044988696
0.020256072 -0.055602968 -0.0032183563 0.047498044 0.019999852 0.06609554 0.013825768 -0.03449231
-0.06617892 0.031892765 0.030742943 0.00040994628 -8.9076275e-06 -0.0029298402 0.022016104 -0.055251896
-0.019854221 -0.005503701 -0.08412281 -0.00083114306 0.009444052 0.0043823146 0.003063304 0.017893279
-0.016370729 -0.011762549 -0.027007975 0.00012380024 -0.0057412647 -0.027788386 0.042133454 -0.01202688
0.065939575 0.010655058 -0.021362253 -0.039698116 0.028577238 -0.03139747 0.031117633 -0.025461366
-0.045484312 -0.013816373 -0.13429374 -0.018577887 -0.0171264 0.040971145 0.018519511 0.03227052

l1/W f4 [256, 16]
00000000: 7744 013f aa2e 01be 141c 103e 730d cebd
00000010: d278 0f3f 98bd 9abb f36b 88bf af51 383f
00000020: d7e9 b7be b2c7 c33e 0150 bf3d f9a1 57bf
00000030: 80f0 913e 3a49 01be aa41 073f a468 b73e
00000040: 2cc8 47be 799c 203f b271 13be d343 bf3e
00000050: 2648 4e3f af2e 51be 8bf0 063f c1e7 8b3e
00000060: 8410 0fbf 5666 033f 297c fb3e d19a 8cbe
00000070: deb6 5ebd 117a 4e3e 9753 62be d576 cabe
00000080: e824 953e 11bf 6f3d 72ce efbd 2e1b 973e
00000090: 54d7 8c3d c686 fcbe 5da7 e13d ca5d ce3d
000000a0: bf0e 3bbf 28a6 e63e 3b0b 72be 4108 413e
000000b0: dc20 063f 19aa e83d 4121 443d ae38 2c3e
000000c0: e418 ffbe cf20 e73d d407 e0be 003e 943e
000000d0: 68cf d0be fb47 dbbe cac8 c33e 76cd 6e3f
000000e0: 9433 b33e e7a3 d7be b771 a43d 24ef 45bd
000000f0: 9ae4 04be 8f37 f8be ff5c 0a3e 3a7d 0b3f
00000100: e663 34bd 9f40 bdbc f885 293f 3227 a23e
00000110: 1dee 263e 3350 a53d 3d94 633e 7144 5e3e
00000120: d8eb 95be b3ad 14be f0b6 00bf ca5e 00bf
00000130: 229b 3b3e 1d56 ff3d 09f4 12bf 162d 783e
00000140: 2029 053f 7f36 acbe 4f00 bd3c c15d 8b3d
00000150: 63f0 07be e0ec 1dbf 4a44 893e b791 b3be
00000160: f490 90bd 4a55 75bc 4249 8cbe eb0e c0be
00000170: 709e bdbd 3203 f9bd 9a3a b0be 0ce6 733c
00000180: 038a 65bf bd76 d7be bfe1 adbd 2cca 823e
00000190: edc4 3e3e 242c ddbe f658 34be 1fb3 7ebd
000001a0: 41ed 903d 5576 253f c21a 003f 8abd e8be
000001b0: 695c cdbd 51f2 ae3d e1d7 f5bd 913a 02bd
000001c0: 47cb fa3d 2549 003e 53e9 043f f64e 4ebf
000001d0: fd58 d03e d2d0 733e ad44 e1be 3214 89bd
000001e0: 46f5 c5be c280 203e 4046 c2be 149a d63d
000001f0: 8035 f83e e667 fdbe 451b 183e 6655 7e3e
00000200: ef6b 673d 27e8 b33e 5a47 1bbe e164 d73e
00000210: 9430 4b3e 152e 983e c9dc 813d 63d3 423d
00000220: f85c c1bd 1b3f 81be 2198 debe 379d 58be
00000230: a60b 1abf 3287 9fbe 3c87 f1bd c9a7 8cbd
00000240: 45e4 8d3e 879b c83e 4a40 2c3f 7dde d3bc
00000250: 53b1 88be 5e3f a8be cff5 683f 8d63 a4be
00000260: a36b d1be 0c88 d23e 52dd 10be 4068 1ebe
00000270: 8e17 75bf aa16 40be 5466 1e3f 275e 9bbd
00000280: db7c d0bd 07c7 853e 540d 323e 7ff6 43bd
00000290: 510a 46bf 771a 283f e16c b9be 589b ad3e
000002a0: b276 2e3e a7ed 03bf 501b c33e a475 36be
000002b0: 5cc1 10bf 9faf d93e 730b 683d 4610 4d3e
000002c0: 9d89 59be 4c11 bdbe f6b6 b73e e59a 1dbf
000002d0: ccf5 b7be a9f5 a5be 12ba 55bf 934d 26bd
000002e0: 061d 6abe 7aa6 1dbf 9fa5 183f ae66 a73e
000002f0: 40c4 73be 62b3 a9be 3068 c6be e1a0 013b
00000300: f934 1ebe 7af8 803e 6c92 90be 309d e83e
00000310: 3029 80be a2b4 99bd bf1a 843e 957a 00bf
00000320: d178 b9be 92f5 f8be e7e7 813e c888 cbbe
00000330: 0928 dc3c cdc4 163d 5a94 6fbe 19c2 233f
00000340: d293 783d 0e47 5a3e 9811 c8be ea40 753e
00000350: 2d62 793f 549d f2bd 0d5e 2abe 2e7e e03a
00000360: 0fe4 223e 8841 df3d 989f eb3e 81f8 21be
00000370: fee7 733e 54ce 043c f107 f53e 4e0e 5f3d
00000380: bb31 1cbf 14ad 93be 2d7a b33e ea76 d4be
00000390: 90e3 15be 9584 5b3e e57f b13b becc a7be
000003a0: 174e 13bd 797c 94bd 0779 8dbd c236 a0ba
000003b0: 4535 99be 5350 87be 9ea1 973e c293 f43c
000003c0: 55c0 5e3e 0c7f cdbe f8fa 5c3e 99ca 62bd
000003d0: 1b23 863e 6aab 263f 2fc8 66be d613 f73d
000003e0: f488 6ebe 2d63 e5be a57b a03e a695 823e
000003f0: 0b64 073e b97b 0b3e 7976 e7bd 1d10 babe
0.50495094 -0.12615457 0.14073211 -0.10061159 0.5604373 -0.0047223084 -1.0657943 0.7199964
-0.35920593 0.38238293 0.093414314 -0.84231526 0.285038 -0.1262559 0.5283457 0.35822022
-0.19509953 0.6273876 -0.1439884 0.37356433 0.8057884 -0.20427965 0.5271079 0.27325252
-0.55884576 0.5132803 0.49118164 -0.27461866 -0.054373614 0.20163752 -0.221022 -0.39543787
0.2912972 0.058531824 -0.11709298 0.29512924 0.06877008 -0.49321574 0.1101825 0.100764826
-0.73069376 0.45048642 -0.23637097 0.18850805 0.5239389 0.113605686 0.047883276 0.16818497
-0.49823678 0.112855546 -0.43755972 0.28953552 -0.40783238 -0.42828354 0.38239127 0.9328226
0.35000288 -0.42117235 0.08029502 -0.048323765 -0.1297783 -0.48479888 0.13512038 0.54487956
-0.044040583 -0.023102103 0.66220045 0.3167053 0.1630177 0.080719374 0.22224517 0.21705796
-0.29281497 -0.14519386 -0.5027914 -0.50144637 0.18320897 0.12467597 -0.5740362 0.24235949
0.52015877 -0.33635327 0.023071436 0.068049915 -0.13275294 -0.6168957 0.26809913 -0.3507211
-0.070588976 -0.014973948 -0.2739964 -0.37511382 -0.09258735 -0.121588126 -0.3441971 0.01488639
-0.89663714 -0.42082778 -0.08490323 0.2554487 0.18629809 -0.4319774 -0.17612061 -0.062182542
0.070765026 0.64633685 0.5004083 -0.45457107 -0.100273915 0.08542312 -0.12004066 -0.031794135
0.12245803 0.12527902 0.51918525 -0.80589235 0.40692893 0.23810127 -0.43997708 -0.06693305
-0.3866369 0.15674117 -0.37944221 0.10478607 0.48478317 -0.4949333 0.14854153 0.24837264
0.056499418 0.35138056 -0.15163937 0.42069152 0.1984275 0.29722658 0.063409396 0.047564875
-0.094415605 -0.25243458 -0.4347544 -0.21153723 -0.60174024 -0.31157833 -0.11793372 -0.0686794
0.27713218 0.39181158 0.672856 -0.025862927 -0.26697788 -0.32860845 0.91000074 -0.321072
-0.40902433 0.4111942 -0.14146927 -0.15469456 -0.95739067 -0.18758646 0.6187489 -0.075863175
-0.10180064 0.26128408 0.17387897 -0.0478425 -0.7735949 0.6566538 -0.3621588 0.3390758
0.17037466 -0.51534504 0.38106775 -0.17818314 -0.56545043 0.425168 0.056651544 0.20025739
-0.21243902 -0.3692726 0.35881776 -0.61564475 -0.35929716 -0.32413986 -0.83487046 -0.040601324
-0.22862634 -0.6158215 0.5962772 0.32695526 -0.23805332 -0.3314467 -0.38751364 0.001977973
-0.15449895 0.25189573 -0.2823671 0.45432425 -0.25031424 -0.07505156 0.25801656 -0.50187045
-0.36224988 -0.48624855 0.2537224 -0.39752793 0.026874559 0.036808778 -0.23396435 0.63968045
0.060687847 0.21316168 -0.39075923 0.23950544 0.9741543 -0.11846414 -0.1663744 0.0017127448
0.1590731 0.10901171 0.46020198 -0.15817453 0.23818967 0.008105833 0.4785762 0.054457
-0.6101338 -0.28842986 0.3505415 -0.41496974 -0.1463759 0.21437295 0.0054168575 -0.32773393
-0.035963144 -0.07250304 -0.0690785 -0.001222335 -0.29923454 -0.2642847 0.29615492 0.029855613
0.21753056 -0.40135992 0.21580112 -0.055368993 0.26198658 0.6510531 -0.22537301 0.1206433
-0.23294431 -0.44802228 0.31344333 0.25504798 0.13221757 0.13621415 -0.11301894 -0.36340418

l4/b f4 [16]
00000000: 163c 473d e759 8c3d 947c c73c 90a5 9a3d
00000010: ebe5 433d 4ba6 5eba 0000 0000 ba23 403d
00000020: 7448 4e3d 568a 4e3c 0000 0000 4100 633d
00000030: b7db 6b3d 34a6 b73d 575c aa3d a00a ae3d
0.048641287 0.06853085 0.024351396 0.0755111 0.04782669 -0.00084934075 0.0 0.04690907
0.050362065 0.012606224 0.0 0.055420164 0.057582583 0.089672476 0.08318394 0.0849812

l4/W f4 [16, 256]
00000000: 763c 7bbd 2a36 6fbb 8ad0 7fbd 5397 e83b
00000010: 95ad adbd c794 023e 66cd 7f3d 39bd 10bd
00000020: c5e6 37be 7851 9bbe 4c85 b53d 8b0c 40be
00000030: 7f93 1e3d f72a 373d 703f 5cbd 4076 443d
00000040: cee8 273e af54 7c3c 0aca f6bd 66a0 743d
00000050: 398b cc3c 31f1 a73d ba8b 8a3e 20f2 e0bd
00000060: 9b04 ec3d ceac 19be b421 8dbd 885f 373e
00000070: 5665 2fbe fc2f bdbd bd18 243d 13de 473c
00000080: 6781 8c3d 1f3d 14bd d931 793e ee8b 79bc
00000090: 6e50 973d 2690 693e 096a 62be 172c 033e
000000a0: 5833 cfbd 571e 72bd 6773 4b3d 0df2 613d
000000b0: 14cf a7bd 7659 963e 969f 653d f766 6bbd
000000c0: 2aa8 573d ea81 1e3e 0964 19bb 2111 bc3d
000000d0: 4afa dd3d 3fcc 2f3d 373f 813e 3e6b af3d
000000e0: 6a1e 1dbd d0f7 823e 27b0 81be 69a4 cb3d
000000f0: 9701 603c 4b70 f63d 1a0d 8e3d 2d59 db3c
00000100: 2c91 703d 6b2e 8fbe c6b6 b93d 96ac e23c
00000110: feb5 843d bc0c 023e a980 fc3b bf17 c4bb
00000120: 4bc2 42be f6a1 b3bb d0e1 03be c404 9fbc
00000130: 84fe 7f3e a71d 56bd 8e07 9e3d 008a 1abe
00000140: 572d 943c 08ec 9a3d 4f69 a8bd 53b5 9d3e
00000150: c534 de3d 3fba 62be 7020 2dbe a6be 61be
00000160: 1e2d 403d 973c c13e f117 e5bd cdda 593d
00000170: 249a 6dbb a121 50bd b945 ba3d 4c8e 033d
00000180: 9d17 39bd 6b4c 0ebb 6032 a7bd 0fbf 0d3e
00000190: 4027 43bd 0e37 873d 053f 813d b30d 833b
000001a0: fcf8 013e 73a6 49bd ebec a83d 188d 03bd
000001b0: eb6c 06be 8912 ab3e 07c2 573e 7039 cabd
000001c0: f8c1 bd3c 589a 1ebd 3915 4c3e 04f9 2bbc
000001d0: ef8e 14bd 3c5b 23be ece7 1a3e cc42 463e
000001e0: ff71 49bd fabb 303e 0f55 5f3e 0753 313e
000001f0: e93a 903d 9608 19ba 41eb 99be a1b2 25be
00000200: 73c0 273e db8e 2ebc 69f8 ec3d 6a4f 17be
00000210: e701 ba3d 7236 573e 4596 bbbd 6bae 1f3e
00000220: f32f 3ebe 6d1a 81bd 333f 593d 2dc3 8fbe
00000230: 36dd dfbd 07f6 113c 5193 e13d f297 583e
00000240: c7c1 213d 3e99 1bbe ff75 1bbd a0b6 a6be
00000250: 1db9 503e 3a64 b9bd 2467 cdbd 49ee 123d
00000260: fe30 aebe 7343 453e 9b60 3d3e 139d b9be
00000270: 06e9 37be e874 2fbd 4d2f ba3e 3550 143e
00000280: b847 f0bb dd7d 013d f574 253e 0276 9b3d
00000290: 18a3 e2ba 6131 10be dd8c 0b3e 79d9 dc3d
000002a0: 130e ee3d d98b 953e 43ba e6bd ca79 c73c
000002b0: 71e1 e3bd 106e 833d f01b 293d e3ba 87be
000002c0: a7f8 ab3d 9f0e 5ebc 57fa 23bd da5f 2f3e
000002d0: cc18 573e a9be 473e 5e2f 43be 1a3f 003e
000002e0: b284 373d 8805 0c3e 6995 cbbd 626f 2d3e
000002f0: 47b1 b8bd 15ac 963e b739 e43d dcde ddbd
00000300: 85f1 a73e bc27 233c c33f 21bd 1745 c23c
00000310: 24e2 853d 6313 5e3e 9add 6bbb 4f29 20be
00000320: 50ec 0b3d 0b1b f6bd 523f b3ba 5e06 04be
00000330: 1aaf 96bc 8183 5abd 71d9 8cbd 3339 6dbe
00000340: cd5e 6a3d 3b1e 94be cfb6 ad3d 3551 1d3c
00000350: ba18 bfbd fd44 1c3e c4e9 583e b790 003e
00000360: 545c 1dbe 3ceb 833e 2f1c 433d e023 72bc
00000370: 7f4f 4ebc 5e68 963d b8dc e5bd 1561 d2bc
00000380: d99e 2c3e 6b58 e6bd 3618 3abd 6cc5 d5bd
00000390: 9b2d d63d f63d 4f3d e6e4 d03d 47e2 15be
000003a0: 147d 0fbd cee3 c3bd 1d9a 1dbd 9db3 dbbd
000003b0: c88a 4cbe 235f ed3c 7deb e53d dbab af3e
000003c0: a4f9 04be 64f8 eb3b 8d6c 46bc 80fb 08bd
000003d0: 6295 7fbc 73a9 b83d c1d8 b23d 6481 00bd
000003e0: c392 32bb e77a 1b3e b142 e83c 9d13 803d
000003f0: 944f 82bd c623 b5bd fe56 99bd 4c52 363e
-0.061336957 -0.003650079 -0.062454738 0.0070981174 -0.08480374 0.12752067 0.062451743 -0.035336707
-0.17959125 -0.30335593 0.08863315 -0.18754785 0.038714882 0.04471871 -0.053771436 0.047964334
0.16397402 0.0154010495 -0.12050255 0.05972328 0.02496873 0.082003005 0.27059728 -0.10983682
0.11524316 -0.15007326 -0.06891194 0.17907536 -0.171285 -0.09237668 0.040062655 0.012198943
0.06860619 -0.036191102 0.24335422 -0.015231116 0.073883876 0.22808895 -0.22110762 0.12809788
-0.10117215 -0.059110966 0.049670603 0.05516248 -0.08193794 0.29365128 0.056060396 -0.05747124
0.052650608 0.15479246 -0.0023405573 0.091829546 0.108387545 0.042919394 0.25243542 0.08565377
-0.038359083 0.2557969 -0.25329706 0.09943468 0.013672254 0.12033137 0.06936093 0.02677592
0.058732197 -0.27965102 0.090680644 0.027670186 0.06480025 0.1270017 0.007705767 -0.005984276
-0.1901943 -0.0054819537 -0.1287911 -0.019411452 0.24999434 -0.052274372 0.07716285 -0.15091705
0.018088026 0.07564551 -0.08223211 0.30802402 0.10849909 -0.2214136 -0.16906905 -0.22045383
0.046918027 0.3774154 -0.11186207 0.05318718 -0.0036255205 -0.05081332 0.0909533 0.032118127
-0.045188535 -0.002171303 -0.08163905 0.13842414 -0.047644854 0.06602298 0.06310848 0.003999436
0.12692636 -0.049231004 0.082483135 -0.03211698 -0.13127486 0.3341258 0.2107011 -0.098742366
0.02316378 -0.038721412 0.19929971 -0.010496382 -0.036269125 -0.15952772 0.15127534 0.19361418
-0.04918098 0.17259207 0.21809791 0.17316829 0.07042486 -0.0005837766 -0.30062297 -0.16181423
0.16382007 -0.010654177 0.11570818 -0.14776388 0.09082394 0.21016863 -0.09159521 0.15593879
-0.18572979 -0.063038684 0.053038787 -0.28078595 -0.109308645 0.008908755 0.110144265 0.21151713
0.03949144 -0.15195176 -0.037954327 -0.32561207 0.20383115 -0.0905232 -0.10029438 0.035871778
-0.34021753 0.19264011 0.18493883 -0.3625265 -0.17959985 -0.0428361 0.36364213 0.14483722
-0.0073327683 0.031614173 0.16157897 0.075908676 -0.0017291037 -0.14081337 0.13627954 0.10783667
0.11623778 0.29208258 -0.11265995 0.024350066 -0.11126984 0.06417477 0.04128641 -0.2650977
0.08397036 -0.013553291 -0.040033665 0.17126408 0.21005553 0.19506325 -0.19061038 0.12524071
0.044804282 0.13673985 -0.09940607 0.1693702 -0.09018188 0.29428163 0.11143821 -0.10833523
0.32801452 0.009958204 -0.03936745 0.023714585 0.065372735 0.21687083 -0.003599024 -0.15640758
0.034160912 -0.12016877 -0.0013675487 -0.12893054 -0.018394042 -0.05334807 -0.06877411 -0.23166351
0.057219315 -0.28929314 0.084821336 0.009601881 -0.09330888 0.15260692 0.21182925 0.12555204
-0.15367252 0.25765407 0.0476343 -0.014779061 -0.0125921955 0.07344125 -0.112237394 -0.025681058
0.1685747 -0.11247333 -0.045433246 -0.10438046 0.10457917 0.0505962 0.10199909 -0.14637099
-0.035031393 -0.09564935 -0.038477052 -0.10727618 -0.19974816 0.028976029 0.112265565 0.34310803
-0.12985855 0.0072012413 -0.012110841 -0.033442974 -0.0155995805 0.09016695 0.08732749 -0.031373397
-0.0027248121 0.15183602 0.028352113 0.06253741 -0.063628346 -0.08844714 -0.074872956 0.17804831
