static/ai/6/agent_black_20000/target_model.npz (npz, 560925 bytes, 8 tensors)

l2/b f4 [256]
0	0xbf67016c	-0.90236545
1	0xbe11c390	-0.14234757
2	0x3ce232b6	0.027612071
3	0x3e92e340	0.28689003
4	0xbec86d54	-0.3914591
5	0x3e572c99	0.21013106
6	0x3d9cabfc	0.07649991
7	0x3dda2ac4	0.10652688
8	0x3d57f41b	0.05272303
9	0xbe594f58	-0.21221673
10	0xbeebdcae	-0.46066803
11	0x3d80206e	0.062561855
12	0x3d3bc0cb	0.04583816
13	0x3de10d41	0.10988856
14	0x3c2cefb4	0.010555197
15	0xbbb4bafe	-0.0055154553
16	0x3de07998	0.10960692
17	0x3d4c6841	0.04990411
18	0x3da30b40	0.0796113
19	0xbe0f41da	-0.13989964
20	0xbe9a2d89	-0.30112866
21	0x3e20a462	0.15687707
22	0xbe3f4395	-0.18678124
23	0x3d6b9b4b	0.057521146
24	0xbddd3c2c	-0.108024925
25	0xbe1333f4	-0.14375287
26	0xbe1d0f4e	-0.1533787
27	0x3db3f1ad	0.0878633
28	0x3dde3bf5	0.1085128
29	0x3ea7dbca	0.32784873
30	0xbda49128	-0.08035499
31	0x3f0bab84	0.5455859
32	0x3e0970de	0.13421962
33	0xbf4fb8f6	-0.81141603
34	0xbbdd2afa	-0.006749508
35	0xbe9bb2f2	-0.30409962
36	0x3e22c130	0.15894008
37	0x3f930de0	1.1488609
38	0x3e2eb6b0	0.17061877
39	0x3f01b1ff	0.50662225
40	0x3e6e0e13	0.23247556
41	0x3eb014af	0.3439078
42	0xbb7b7fe6	-0.0038375794
43	0xbdb8bd7d	-0.09020517
44	0xbf2da9cc	-0.67837214
45	0xbe160f30	-0.14654231
46	0xbf4ad575	-0.7923196
47	0xbe3346d8	-0.17507493
48	0xbd8b6d4d	-0.06807957
49	0xbe4e0963	-0.20120768
50	0xbe0422f7	-0.12903963
51	0xbe4f8df1	-0.2026899
52	0xbe0ad4b6	-0.13557705
53	0xbd27418e	-0.040834002
54	0xbe80eeaf	-0.251821
55	0x3ed420d7	0.41431305
56	0xbdf70ac4	-0.120626
57	0x3e1e90ef	0.15484975
58	0xbd53b246	-0.051683687
59	0x3ef5c1bd	0.47999373
60	0xbef45841	-0.47723582
61	0xbe9f308e	-0.31091732
62	0xbdea1a17	-0.114307575
63	0xbead865c	-0.3389157
64	0xbd6165da	-0.055028774
65	0x3c2da047	0.010597295
66	0xbe953571	-0.29142335
67	0xbc80b2d9	-0.015710281
68	0xbcac5e10	-0.021040946
69	0xbc7da7c1	-0.01548189
70	0x3c8accba	0.016943324
71	0x3e1c4ace	0.1526291
72	0xbf9dd527	-1.2330674
73	0xbcb1ecf7	-0.021719439
74	0xbce64d9a	-0.028113175
75	0x3cc05cb7	0.02348171
76	0xbe0f9870	-0.14022994
77	0x3e83cb53	0.25741062
78	0xbe07b5b4	-0.13252908
79	0x3d3c677f	0.04599714
80	0xbe369e94	-0.1783393
81	0x3e37ec72	0.1796129
82	0x3f1cdd14	0.6127484
83	0xbeac9f33	-0.3371521
84	0x3ee232c8	0.44179368
85	0xbe0ba51e	-0.13637206
86	0x3e13cdc3	0.1443396
87	0xbd830266	-0.06396942
88	0x3e507ed9	0.20360889
89	0x3dadfd38	0.08495563
90	0xbe981783	-0.29705438
91	0xbe870ec4	-0.26378453
92	0x3f10b4ff	0.5652618
93	0xbc8abc91	-0.016935619
94	0xbe8988ae	-0.2686209
95	0xbe851d93	-0.25999126
96	0xbdaa3f90	-0.08312905
97	0xbea42c4d	-0.3206505
98	0x3c31570b	0.010823975
99	0xbd026118	-0.031830877
100	0xbe2d57cb	-0.16928022
101	0x3e7048a7	0.23465215
102	0xbee16a9d	-0.44026652
103	0x3d28127a	0.041033246
104	0xbf3a7d14	-0.72847104
105	0x3db96d7d	0.09054086
106	0xbd5d6c9f	-0.054058667
107	0xbe60f3b1	-0.21967961
108	0xbf252201	-0.6450501
109	0xbf02318b	-0.50856847
110	0x3d811d6d	0.06304441
111	0x3dbdcee9	0.092679806
112	0x3db96e74	0.090542704
113	0xbf9324a5	-1.1495558
114	0xbe3ffd30	-0.18748927
115	0xbf18c0ec	-0.59669375
116	0x3ea95731	0.33074334
117	0xbdf72a18	-0.120685756
118	0x3e1133d1	0.14179923
119	0x3e5e8b01	0.21732713
120	0x3d956ad5	0.07295767
121	0x3e4fc8d1	0.20291449
122	0xbe2546f1	-0.16140343
123	0x3e3a66ab	0.18203227
124	0x3d4b37c7	0.04961374
125	0xbeacf3c1	-0.3377972
126	0xbd96a990	-0.0735656
127	0x3eaefe10	0.3417821
128	0xbdf58a48	-0.11989266
129	0xbe91e60f	-0.28495833
130	0xbebd6460	-0.36990643
131	0xbc93472b	-0.017978271
132	0xbe081604	-0.13289648
133	0xbe7ab618	-0.24483526
134	0xbbdec5b0	-0.0067984685
135	0xbe70172f	-0.23446344
136	0xbb4fd603	-0.0031713254
137	0x3d8d9e9a	0.069150165
138	0x3e57855a	0.21046963
139	0xbe7653fa	-0.24055472
140	0xbdfd547a	-0.12369628
141	0x3d198297	0.037478056
142	0xbdb25323	-0.08707263
143	0x3f1cffa8	0.613276
144	0x3df8dd89	0.121516295
145	0xbac752ec	-0.0015207208
146	0xbd24a398	-0.040195078
147	0x3e298b30	0.16557002
148	0x3e8d665d	0.2761716
149	0xbcfe57c6	-0.031047713
150	0x3e137e7c	0.14403719
151	0x3dc316a8	0.09525806
152	0xbe449939	-0.19199075
153	0xbf0d5065	-0.552008
154	0x3e8be09e	0.27319807
155	0xbd064e5b	-0.03278957
156	0xbc514c61	-0.012774558
157	0x3d9c55d7	0.0763356
158	0xbe1c1545	-0.15242489
159	0xbe72923a	-0.23688594
160	0xbe0a4dcb	-0.13506238
161	0xbe179c14	-0.14805633
162	0xbda5653c	-0.080759495
163	0xbf14aee8	-0.58079386
164	0xbeee0774	-0.4649006
165	0x3e1fb8f8	0.15597904
166	0xb99fc59a	-0.00030474068
167	0xbe81f5bc	-0.25382793
168	0xbf285bae	-0.6576489
169	0x3ea07f6f	0.31347224
170	0x3d5bed81	0.0536933
171	0xbe63ae64	-0.22234493
172	0xbe917384	-0.28408444
173	0xbd9b3dbd	-0.07580135
174	0xbbcc1e85	-0.006229224
175	0xbf87df14	-1.0614953
176	0xbd520468	-0.051273733
177	0x3d784e70	0.06062168
178	0xbee7a01d	-0.45239344
179	0x3e8af7f1	0.2714229
180	0xbee722b8	-0.45143676
181	0x3d4e756d	0.050404955
182	0x3c80f0bc	0.015739791
183	0x3f054422	0.5205709
184	0xbdd73598	-0.10508269
185	0xbe432c26	-0.1905981
186	0xbed22539	-0.41044024
187	0xbe2590df	-0.16168545
188	0xbe94c5be	-0.29057115
189	0xbee57e73	-0.44823036
190	0xbf56e840	-0.83948135
191	0x3e589b1a	0.21152917
192	0x3e7b8137	0.2456101
193	0xbeeb0efe	-0.45909876
194	0xbe04c7b7	-0.1296681
195	0xbf39c951	-0.7257281
196	0x3da1539b	0.078772746
197	0xbf2ffb24	-0.68742585
198	0x3cc25986	0.023724329
199	0x3e1df464	0.15425259
200	0x3e2a9483	0.16658215
201	0xbe129dbc	-0.14317983
202	0xbb5ac222	-0.0033379872
203	0xbed889d3	-0.42292652
204	0xbece3371	-0.40273622
205	0xbe482fa3	-0.19549422
206	0xbe346865	-0.17617948
207	0xbeb6fbd4	-0.35739005
208	0xbe5c83aa	-0.21534601
209	0x3eb8facb	0.3612884
210	0xbe049da3	-0.12950759
211	0xbe7a9cb3	-0.24473839
212	0xbeb32fa9	-0.349973
213	0xbd21f938	-0.039544314
214	0xbf0e7109	-0.5564123
215	0xbea80a82	-0.32820517
216	0x3ec3a73f	0.38213536
217	0xbd151867	-0.036400225
218	0x3ca82455	0.020525137
219	0xbee8fa06	-0.45503253
220	0xbdc5ccb5	-0.096581854
221	0xbf005c07	-0.5014042
222	0xbc627172	-0.013820993
223	0xbee18b44	-0.44051564
224	0xbe9a801d	-0.30175868
225	0x3dd0273a	0.10163732
226	0x3e9dbfac	0.30810297
227	0x3d7f58cd	0.062340546
228	0xbe287a48	-0.16452897
229	0x3d8dd0de	0.06924604
230	0xbe7f9aaf	-0.24961351
231	0xbe7f69b0	-0.2494266
232	0xbf22b496	-0.635568
233	0x3e16472e	0.1467559
234	0xbd7a77cb	-0.0611494
235	0xbc07df3b	-0.008292968
236	0xbe14ebd7	-0.14543091
237	0x3d8ce54a	0.06879671
238	0xbfa3465d	-1.2755848
239	0xbfa4d00d	-1.2875992
240	0x3d6facd8	0.058514446
241	0x3d62e71d	0.055396188
242	0xbea94d96	-0.33067006
243	0x3fd60211	1.6719381
244	0x3dfb9ef0	0.12286174
245	0x3dcc84c8	0.099862635
246	0x3c911735	0.017711261
247	0x3dfd7fc7	0.12377887
248	0xbee97d27	-0.45603296
249	0xbc2da008	-0.010597236
250	0xbee0fce8	-0.43942952
251	0xbe5429b8	-0.2071904
252	0x3e5d7d40	0.2162981
253	0x3e93e0ec	0.2888254
254	0x3e1fa3e0	0.15589857
255	0xbe342496	-0.17592081

l2/W f4 [256, 256]
0	0x3e374565	0.17897566
1	0x3c840747	0.016116751
2	0xbce3ee13	-0.027823484
3	0xbe168710	-0.1469996
4	0x3d8ab757	0.067732506
5	0xbf01102e	-0.50415313
6	0x3ddb2649	0.10700662
7	0x3d0bff35	0.03417893
8	0xbd2fb785	-0.042899627
9	0x3dc359a8	0.09538585
10	0xbe035daa	-0.12828699
11	0xbdac6de4	-0.084193975
12	0x3d64f273	0.05589528
13	0x3d1e7b8f	0.038692053
14	0x3e047a6b	0.12937324
15	0xbdc6f375	-0.097144045
16	0x3b3c76e7	0.0028757395
17	0xbdb96218	-0.09051913
18	0x3e03520f	0.12824272
19	0x3d534f1f	0.051589128
20	0xbd8ac7c4	-0.067763835
21	0x3d890e20	0.06692147
22	0x3d983f07	0.074338965
23	0x3ce81f91	0.028335365
24	0x3ccb5219	0.02481942
25	0x3d367834	0.04454823
26	0x3d6665e5	0.056249518
27	0xbda61b67	-0.08110695
28	0x3d8e459f	0.06946873
29	0x3e4c240a	0.19935623
30	0x3e1dbc7f	0.15403937
31	0x3d777a22	0.06041921
32	0xbd5b2eb8	-0.05351135
33	0x3d8fda80	0.070240974
34	0x3cf0dabc	0.029401176
35	0xbd986475	-0.07441036
36	0x3d1bdfac	0.038055107
37	0x3dbdf155	0.09274546
38	0x3e38e526	0.18056163
39	0x3e382d92	0.17986134
40	0x394597ca	0.0001884393
41	0xbdb10fe8	-0.08645612
42	0xbba488e2	-0.0050212005
43	0xbceea333	-0.029130554
44	0x3e030f4d	0.12798806
45	0x3e2ab418	0.16670263
46	0x3d9b2951	0.0757624
47	0xbb674679	-0.0035289808
48	0xbd8b1e21	-0.06792856
49	0xbe0a9770	-0.13534331
50	0xbe126e79	-0.14299954
51	0x3dbfb62f	0.09360921
52	0x3d5ceecd	0.053938676
53	0x3d29ccd1	0.041455094
54	0xbbb3d24e	-0.0054877168
55	0xbb0a8304	-0.002113522
56	0xbd394e61	-0.045240764
57	0xbcc9dd07	-0.024641527
58	0xbd500547	-0.050786283
59	0xbd5b1bfe	-0.053493492
60	0x3c8fad00	0.017538548
61	0x3e1bdb1a	0.152203
62	0x3e777daf	0.24169038
63	0xbc3dc046	-0.011581486
64	0xbd96fea0	-0.073727846
65	0x3e044ae9	0.12919201
66	0x3baf716f	0.0053540985
67	0x3dd50744	0.104017764
68	0xbd9342db	-0.07190486
69	0xbd5e687a	-0.054298855
70	0x3cbb0456	0.022829216
71	0x3e568d43	0.20952325
72	0x3e2b67c9	0.1673881
73	0xbda0d941	-0.07853938
74	0xbda08d59	-0.0783946
75	0xbd5c171e	-0.053732984
76	0x3ded705a	0.11593695
77	0x3db1f7d7	0.0868985
78	0xbcbcf8c7	-0.023067845
79	0x3d92ec1b	0.0717394
80	0xbd29960c	-0.04140286
81	0x3e2e80d4	0.17041332
82	0xbd6d8ae6	-0.057993792
83	0x3d3d24a4	0.04617752
84	0x3e033777	0.12814127
85	0x3e02645b	0.12733595
86	0x3e2928c6	0.1651946
87	0x3de24608	0.11048514
88	0x3d2e739c	0.042590722
89	0xbb9fc4ef	-0.0048757712
90	0xbdfc580b	-0.1232148
91	0x3e6004a3	0.21876769
92	0x3b11e328	0.002226064
93	0x3dd850ce	0.10562287
94	0xbcf7ec64	-0.030264087
95	0xbc24fe44	-0.010070387
96	0xbd0dfdf5	-0.03466602
97	0x3d813e2d	0.06310687
98	0x3db70bfa	0.08937831
99	0xbe7df028	-0.24798644
100	0x3e0c8817	0.13723789
101	0x3e53482a	0.20632997
102	0xbdce6894	-0.100785404
103	0x3de299bb	0.11064478
104	0x3e16b973	0.14719181
105	0x3df4e3ae	0.11957489
106	0xbd06cbd4	-0.03290923
107	0xb9a7807e	-0.00031948456
108	0x3caabbf3	0.020841574
109	0x3dd0e9c6	0.10200839
110	0x3d802518	0.06257075
111	0xbc52e2e5	-0.012871479
112	0x3c81a399	0.01582508
113	0x3db28930	0.08717573
114	0x3dd87981	0.1057005
115	0x3d0dbc71	0.03460354
116	0x3dda94e5	0.10672931
117	0x3e781950	0.24228406
118	0x3da9f68b	0.082989775
119	0xbda7c4a5	-0.08191804
120	0x3d3d32b4	0.046190932
121	0x3de7fba6	0.11327295
122	0xbc175d2f	-0.009238525
123	0xbd80bb58	-0.06285733
124	0xbdbdec8f	-0.092736356
125	0x3d953191	0.07284845
126	0x3ce0fd36	0.02746449
127	0x3d732572	0.059361883
128	0x3d5a304d	0.05326872
129	0xbdd0196e	-0.101611
130	0xbe3200cf	-0.17383121
131	0x3dbfeace	0.09370957
132	0xbd9ad7bc	-0.07560679
133	0x3d98161c	0.07426092
134	0x3e506945	0.20352657
135	0xbd58837e	-0.052859776
136	0x3c832532	0.016008947
137	0xbcfdf52e	-0.0310007
138	0x3ae276ef	0.0017277877
139	0x3e207128	0.15668166
140	0x3d13253b	0.035924178
141	0x3e56f8e6	0.20993385
142	0xbc9ddee1	-0.019271316
143	0xbe2114bd	-0.15730567
144	0x3d228cca	0.03968505
145	0x3da90bb3	0.082541846
146	0xbd97fd18	-0.07421321
147	0x3cadad59	0.021200823
148	0xbe120c44	-0.14262491
149	0xbd134a7d	-0.03595971
150	0xbb985159	-0.0046483693
151	0x3e413a5f	0.18869923
152	0x3d3cb92e	0.04607504
153	0xbdb3e329	-0.08783562
154	0x3d95cb1d	0.073141314
155	0x3dd0a5ea	0.101878956
156	0x3ad4bb9d	0.001623023
157	0x3e01d781	0.12679864
158	0x3da2bdea	0.079463795
159	0xbc096d39	-0.008387857
160	0xbdbcc680	-0.09217548
161	0xbabaf684	-0.0014264141
162	0xbdb529aa	-0.088458374
163	0xbbc250d5	-0.005930046
164	0xbc42c399	-0.011887454
165	0x3e081220	0.13288164
166	0x3dabfba3	0.08397605
167	0x3d1f99a8	0.038964897
168	0x3ce41a07	0.027844442
169	0x3d941bf9	0.07231898
170	0xbdc7a801	-0.09748841
171	0x3d13c2ad	0.03607433
172	0x3d3add2c	0.045621082
173	0xbd0e523e	-0.0347464
174	0x3c0266bd	0.007959065
175	0x3d89dd35	0.06731645
176	0x3d413c58	0.04717669
177	0xbdb86ebc	-0.09005496
178	0x3e41d37b	0.1892833
179	0xbdd3fc4c	-0.10350856
180	0xbbcb35ff	-0.006201505
181	0x3ca27667	0.01983185
182	0xbd9f1012	-0.07766737
183	0x3d8fc887	0.070206694
184	0xbdbbf393	-0.091773175
185	0xbdd2d128	-0.102938
186	0xbc636b79	-0.013880604
187	0xbcbd14d8	-0.023081228
188	0x3d93c176	0.07214634
189	0xbd935c84	-0.0719538
190	0xbd9f592c	-0.0778068
191	0x3e213102	0.15741351
192	0x3d474422	0.04864896
193	0x3b11cfaa	0.0022249022
194	0x3d3c6e7a	0.046003796
195	0xbdfd52ea	-0.1236933
196	0xbcf67117	-0.030083222
197	0xbd54014f	-0.05175906
198	0xbdfe44cd	-0.124154665
199	0xbd9a47dd	-0.07533238
200	0x3cf2a082	0.029617552
201	0xbdb3bfa3	-0.08776786
202	0xbadf6fbf	-0.0017046853
203	0xbd0bb1f6	-0.034105264
204	0xbc95cc6d	-0.018285954
205	0xbe2aa2b4	-0.16663629
206	0xbdde2078	-0.10846037
207	0x3dda7460	0.10666728
208	0xbdbe7df9	-0.09301371
209	0xbc303e3e	-0.010757027
210	0x3e314ec5	0.17315204
211	0x3ba4d716	0.005030523
212	0xbc7451f9	-0.014912122
213	0xbd3c9667	-0.046041872
214	0xbcf41d4e	-0.02979913
215	0xbc407308	-0.011746176
216	0xba20efba	-0.00061392377
217	0xbe3f29cc	-0.18668288
218	0xbccca690	-0.024981767
219	0xbd1edca9	-0.038784657
220	0x3c90edfc	0.017691605
221	0x3df80c82	0.12111761
222	0xbb5f3252	-0.0034057093
223	0x3d3b84c6	0.04578092
224	0x3cb7641e	0.022386607
225	0x3e3a3366	0.1818367
226	0xbd5e4e21	-0.05427373
227	0xbdcde472	-0.10053338
228	0xbe0bf680	-0.13668251
229	0x3b182cbd	0.0023220025
230	0x3e3907cb	0.18069379
231	0xbc1447f5	-0.009050359
232	0xbcc7b8d9	-0.024380134
233	0x3d21412b	0.03936879
234	0x3e26bdc2	0.16283324
235	0xbdc5b48c	-0.09653577
236	0x3dccaa0d	0.09993372
237	0x3d8cfc61	0.06884075
238	0x3d1d8559	0.03845725
239	0x3d30acaf	0.043133434
240	0x3d718679	0.058966134
241	0x3d648e90	0.05580002
242	0x3c9c7775	0.01909993
243	0x3e772c64	0.24138027
244	0x3dfa9bba	0.12236734
245	0xbda548b6	-0.08070509
246	0xbdd19c1a	-0.10234852
247	0x3d8d00ec	0.068849415
248	0x3e2bb5f9	0.16768636
249	0x3d515869	0.051109705
250	0xbde2a2f5	-0.11066238
251	0xbd8e54e1	-0.06949783
252	0x3d0ede9b	0.034880262
253	0xbaaa8d97	-0.0013012168
254	0x3ddf2396	0.10895459
255	0x3e023221	0.12714435

l1/b f4 [256]
0	0xbe43b97d	-0.19113727
1	0xbe111f37	-0.14172064
2	0x3d388b80	0.045054913
3	0xbe8d04f7	-0.2754285
4	0xbeb30017	-0.34961006
5	0x4031e96e	2.7798724
6	0xbe9db433	-0.30801544
7	0xbcacd883	-0.021099335
8	0xbea3f347	-0.32021543
9	0xbeef1d68	-0.46702123
10	0x3e1264f9	0.1429633
11	0xbdbc8244	-0.09204534
12	0xbf5c903a	-0.8615757
13	0x3d128bc2	0.035777815
14	0xbf1647ca	-0.5870329
15	0x3e05612d	0.13025351
16	0xbf51e244	-0.8198588
17	0xbdadb04b	-0.08480891
18	0xbda222fa	-0.079168275
19	0xbf75bc41	-0.9599038
20	0xbe1109a4	-0.14163834
21	0xbd6033da	-0.05473695
22	0xbc2f0d7c	-0.010684367
23	0xbd3a6ddd	-0.04551493
24	0xbea1a297	-0.3156936
25	0xbe9bbd47	-0.30417845
26	0xbf27bb1f	-0.655199
27	0x3d965c88	0.07341868
28	0x3d925df9	0.0714683
29	0xbe2ae385	-0.16688354
30	0x3cf9a05f	0.030471979
31	0x3918a278	0.00014556374
32	0xbeb11fe7	-0.34594652
33	0xbe87ab9a	-0.2649811
34	0xbeb12ab5	-0.34602895
35	0xbbddd4ba	-0.0067697437
36	0x3d13067a	0.03589485
37	0xbda5e2b1	-0.080998786
38	0x3da3b5f4	0.07993689
39	0x3e5dc6cf	0.2165787
40	0xbda2612a	-0.07928689
41	0x3f090996	0.5353025
42	0x3c65a6dd	0.014016834
43	0xbe7618f0	-0.2403295
44	0xbd8882a7	-0.06665545
45	0xbf387d8a	-0.7206656
46	0xbd68e365	-0.056857485
47	0xbea88f10	-0.32921648
48	0x3e50936a	0.20368734
49	0x3d58f853	0.052971195
50	0xbf78bd7d	-0.97164136
51	0xbe37c8f4	-0.17947751
52	0xbed17325	-0.4090816
53	0xbf5e5748	-0.8685193
54	0xbecd1b68	-0.40059972
55	0x39d152c8	0.00039925263
56	0xbfa3d8d3	-1.2800545
57	0x3d997699	0.07493324
58	0xbee1fea7	-0.44139597
59	0x3d32e439	0.04367468
60	0x3ec99b54	0.39376318
61	0xbe0de0e1	-0.13855316
62	0xbfda437e	-1.7051847
63	0xbe704fca	-0.23467937
64	0xbee3d561	-0.44498733
65	0xbf54f51a	-0.83186495
66	0xbe922946	-0.28547114
67	0x3d647767	0.055777933
68	0x3dd77979	0.10521216
69	0xbe4e7e65	-0.20165403
70	0xbee587e9	-0.44830254
71	0xbca62eb8	-0.02028595
72	0xbe60415e	-0.21899936
73	0x3dc9134f	0.09818136
74	0x3ce74bf1	0.028234454
75	0x3f416fec	0.75561404
76	0xbd33dc49	-0.043911252
77	0xbe8d3302	-0.27577978
78	0x3d3a750e	0.04552179
79	0x3d97b1d6	0.074069664
80	0xbd672eb4	-0.056441024
81	0xc00047b0	-2.0043755
82	0xbc647e74	-0.013946164
83	0xbd43c1f2	-0.047792383
84	0xbe7a83ff	-0.24464415
85	0xbf8fb4a1	-1.1226999
86	0x3f060afa	0.523605
87	0xbf28c6d6	-0.659284
88	0x3cbca2e2	0.023026887
89	0x3f254690	0.64560795
90	0xbe144e6a	-0.14483038
91	0xbd97ea4f	-0.07417738
92	0x3dfe8053	0.1242682
93	0xbe2ddadf	-0.16978024
94	0x3eb61bd7	0.35568115
95	0xbf3d9551	-0.74055964
96	0x3bbf2013	0.005832681
97	0xbe7fec11	-0.24992396
98	0x3f8f9230	1.1216488
99	0x3c0cf829	0.008604088
100	0x3e9828c4	0.29718602
101	0xbf04ef0f	-0.51927274
102	0xbe198157	-0.14990745
103	0xbf1e4baa	-0.61834204
104	0xbe2a7a03	-0.16648106
105	0x3ce7d4e3	0.028299754
106	0x3b81066d	0.0039375336
107	0xbf02eece	-0.5114564
108	0x3d4a9c47	0.049465444
109	0xbf0b0724	-0.5430777
110	0xbeb93f38	-0.36181045
111	0xbf431b6b	-0.7621371
112	0xbe21da62	-0.15805963
113	0xbd90ecc4	-0.070764095
114	0xbf080475	-0.531318
115	0xbb735cbc	-0.0037134131
116	0x3d1e910b	0.038712543
117	0xbfc94b2d	-1.5726067
118	0x3c9d6085	0.019211063
119	0xbd9811f7	-0.074253015
120	0xbf0d53a5	-0.55205756
121	0xbf02cd8f	-0.5109491
122	0x3db9f30b	0.0907956
123	0x3de74a2e	0.112934455
124	0xbdf9cad3	-0.12196889
125	0xbdcfae00	-0.1014061
126	0xbea476bf	-0.32121846
127	0xbf3e933d	-0.7444342
128	0xbebd4623	-0.36967573
129	0x3bcef4e9	0.0063158167
130	0x3f5dbc26	0.86615217
131	0xbdf6cb21	-0.120504625
132	0xbe850d13	-0.25986537
133	0xbf27050a	-0.65242064
134	0xbe464ef2	-0.19366053
135	0xbd752289	-0.05984739
136	0xbf877df2	-1.058531
137	0x3dd9f2ac	0.10641989
138	0x3dfcedff	0.12350082
139	0x3da312e5	0.07962588
140	0xbf7ee1bc	-0.99563193
141	0xbe78251b	-0.24232905
142	0x3dfb0d90	0.12258446
143	0xbf17286f	-0.5904607
144	0x3da5c8cb	0.08094939
145	0xbd4c91ab	-0.049943607
146	0xbf183e3e	-0.59469974
147	0xbe1e0b41	-0.1543398
148	0xbf132591	-0.57479197
149	0xbe458358	-0.19288385
150	0xbe0ee84f	-0.13955806
151	0xbf22d263	-0.63602275
152	0xbdca23f4	-0.09870139
153	0x3ccb3b56	0.024808567
154	0x3e1f95aa	0.15584436
155	0xbe6c7682	-0.23092082
156	0xbebe1b96	-0.3713042
157	0x3e70eef7	0.23528658
158	0x3e5ae0fa	0.21374884
159	0xbe724779	-0.23660077
160	0x3daec5e0	0.085338354
161	0x3c5ccdab	0.013476769
162	0xbe318108	-0.17334378
163	0xbf305a75	-0.68888026
164	0xbe48a6b9	-0.1959485
165	0xbba84ae5	-0.0051358812
166	0x3e95363f	0.2914295
167	0xbe42f1cb	-0.19037549
168	0xbf195d03	-0.5990755
169	0x3feb0647	1.8361291
170	0x3ee0cf55	0.43908182
171	0xbd1d15bf	-0.038350817
172	0x3e98bc06	0.2983095
173	0xbc3dd035	-0.011585285
174	0x392a7030	0.00016254256
175	0x3d87c300	0.0662899
176	0xbbd69be7	-0.0065493467
177	0xbf6cb139	-0.9245792
178	0xbec0f6a5	-0.37688175
179	0xbe94088f	-0.2891278
180	0x3c77e234	0.015129615
181	0xbe5af405	-0.21382149
182	0xbe982d2f	-0.29721972
183	0x3d3229f4	0.04349704
184	0xbf185a8b	-0.5951316
185	0xbeb64d39	-0.3560579
186	0xbf82f05a	-1.02296
187	0xbe7dd4bb	-0.24788181
188	0xbea4a527	-0.3215725
189	0xbc98ca3c	-0.01865112
190	0x3d7e641f	0.0621072
191	0xbe62341d	-0.22090192
192	0xbe598776	-0.2124308
193	0x3e054a93	0.13016729
194	0xbcedf508	-0.029047504
195	0xbf14b5b3	-0.5808975
196	0xbd9b8286	-0.07593255
197	0xbe1c2784	-0.15249449
198	0xbe7c8cac	-0.24663037
199	0xbf3a6d5c	-0.7282312
200	0xbe4bf30e	-0.19916937
201	0xbd5d7a6a	-0.05407182
202	0x3cfe35ab	0.03103145
203	0x3e16c97e	0.147253
204	0x3c61a8fe	0.013773201
205	0xbd38f976	-0.04515978
206	0xbc3b7901	-0.011442424
207	0xbe8737ae	-0.26409668
208	0x3e249bc0	0.16075039
209	0xbf4a6670	-0.7906256
210	0x3f46cb8f	0.77654356
211	0xbe98247c	-0.29715335
212	0xbf6f6846	-0.93518484
213	0x3e2ecefb	0.17071144
214	0xbf046d2b	-0.5172908
215	0x3d683ec9	0.0567005
216	0xbee17e0c	-0.4404148
217	0xbd15b726	-0.036551617
218	0xbf1cd214	-0.61258054
219	0xbf387d8b	-0.72066563
220	0xbf2ac260	-0.6670284
221	0xbd9b99de	-0.07597707
222	0xbef7b755	-0.4838206
223	0x3c715fa9	0.01473228
224	0xbf14c652	-0.5811511
225	0x3d8fddec	0.0702475
226	0xbe698392	-0.22804096
227	0xbe1e10a3	-0.15436034
228	0xbd34c289	-0.044130836
229	0xbd9e7adc	-0.07738277
230	0xbe6b4cd8	-0.22978532
231	0xbd710c1d	-0.058849443
232	0xbeb785d2	-0.35844284
233	0x3d4e7df9	0.050413106
234	0xbe673098	-0.22577131
235	0x3e43bbd6	0.19114622
236	0x3e2d2cd7	0.16911636
237	0xbfce94cf	-1.6139163
238	0xbee3dcbb	-0.4450434
239	0x3c337287	0.010952598
240	0xbf0764ce	-0.5288819
241	0xbdf3ef0c	-0.11910829
242	0xbd4bf8bd	-0.049797762
243	0xbf617ab5	-0.8807786
244	0x3d9e1de2	0.077205434
245	0xbe72e099	-0.2371849
246	0x3f838960	1.0276299
247	0x3e545488	0.20735371
248	0x3e1d455d	0.15358491
249	0x3df69ec8	0.12042004
250	0xbf501292	-0.81278336
251	0xbf7eeaef	-0.9957723
252	0xbd82725f	-0.06369471
253	0xbf052177	-0.5200419
254	0x3f58afc5	0.84643203
255	0x3e015877	0.12631403

l1/W f4 [256, 36]
0	0x3ed737bc	0.4203471
1	0xbec8f3fb	-0.39248642
2	0xbe900451	-0.28128293
3	0x39dcf85f	0.0004214672
4	0xbe5f06f8	-0.21780002
5	0x3eeb5c9c	0.45969093
6	0xbd4c384d	-0.04985838
7	0x3dd1ae7a	0.10238357
8	0x3e3e2668	0.18569338
9	0x3ef46a2c	0.47737253
10	0xbddedcde	-0.10881971
11	0xbead8a74	-0.33894694
12	0x3e284f5e	0.16436526
13	0x3e4b7434	0.19868547
14	0x3e66b57e	0.22530171
15	0xbe1c6db5	-0.15276225
16	0x3e63c541	0.22243215
17	0x3e61a552	0.22035721
18	0xbf109c47	-0.5648846
19	0xbf2f6831	-0.6851836
20	0x3e6cfe14	0.23143798
21	0xbdea8ea7	-0.1145299
22	0xbe64fd78	-0.22362316
23	0xbaa06f4e	-0.0012240203
24	0x3ebfbbf6	0.3744809
25	0x3eef9c47	0.46798918
26	0xbe36c04f	-0.17846797
27	0xbcfcb7a6	-0.03084929
28	0xbf1e6407	-0.6187138
29	0x3d65631d	0.056002725
30	0x3e507fa4	0.20361191
31	0x3ebd8112	0.37012535
32	0x3e516d98	0.20451963
33	0xbed4e70b	-0.41582522
34	0xbe8adf3b	-0.27123436
35	0xbd3e1fc6	-0.04641702
36	0xbe1e1e56	-0.1544126
37	0xbeb43f40	-0.35204506
38	0xbe857dcf	-0.26072547
39	0x3d49c929	0.049264107
40	0x3e31af8a	0.17352119
41	0x3e9fed3f	0.31235692
42	0xbdefc9cf	-0.11708414
43	0x3ebc2a44	0.36750996
44	0x3f252a8d	0.6451805
45	0xbc654e81	-0.013995768
46	0xbdff6d1c	-0.12471983
47	0xbebb93f8	-0.3663633
48	0xbdd68e87	-0.10476404
49	0x3f4c98a1	0.79920393
50	0xbd4870de	-0.048935764
51	0xbd0b5d92	-0.034024782
52	0xbda9558d	-0.08268271
53	0x3dd2f286	0.10300164
54	0xbec3762b	-0.38176093
55	0xbe838ea8	-0.25694776
56	0xbe928d47	-0.2862341
57	0x3e2ab837	0.16671835
58	0xbe3dbdc7	-0.18529426
59	0x3dd66559	0.10468549
60	0xbd6f8e9a	-0.058485605
61	0xbef09e58	-0.46995807
62	0xbdc866df	-0.09785246
63	0xbeb0ebae	-0.3455481
64	0xbdc153fa	-0.094398454
65	0x3ec0a8e1	0.37628844
66	0x3e92b29c	0.28651893
67	0x3e461d98	0.19347227
68	0xbe05bd70	-0.13060546
69	0x3eff0288	0.4980662
70	0x3e13162f	0.14363931
71	0xbe305ffa	-0.17224112
72	0x3eb6c811	0.35699514
73	0xbe1b2459	-0.15150584
74	0x3dd0d6d1	0.10197223
75	0x3dfadd3a	0.12249227
76	0xbde95484	-0.11393073
77	0xbc8272c0	-0.015923858
78	0xbed4daa5	-0.41573063
79	0xbd7f44a0	-0.062321305
80	0xbe784a68	-0.24247134
81	0x3e312543	0.1729937
82	0x3f00c7a9	0.5030466
83	0xbde4e0d1	-0.11175693
84	0xbe4fe705	-0.2030297
85	0x3c1ef125	0.009701048
86	0xbd443b4f	-0.047908124
87	0x3d87aede	0.0662515
88	0xbd7b1069	-0.061294947
89	0xbf0b125f	-0.5432491
90	0x3c997638	0.018733129
91	0x3e1c4544	0.15260798
92	0xbee037b0	-0.43792486
93	0xbe4b71a6	-0.19867572
94	0x3e9cc708	0.306206
95	0xbedbf16c	-0.42957628
96	0xbe65959b	-0.22420351
97	0xbe76370c	-0.24044436
98	0x3c857982	0.016293291
99	0x3d8ba8d4	0.06819311
100	0x3eb01ece	0.34398502
101	0xbed58541	-0.41703227
102	0x3d0cc351	0.034365956
103	0xbdfe4494	-0.12415424
104	0x3e923f1d	0.28563777
105	0xbe6afab1	-0.22947194
106	0xbe308e04	-0.17241675
107	0xbeab2b25	-0.33431354
108	0x3e33b221	0.1754842
109	0xbe161b5d	-0.14658876
110	0x3e43444b	0.1906902
111	0x3ebbc122	0.36670786
112	0xbda2aada	-0.079427436
113	0xbddb5f25	-0.10711507
114	0xbf1a7387	-0.6033253
115	0xbdeabdd6	-0.114619896
116	0x3eb26969	0.34846047
117	0x3e24470d	0.16042729
118	0x3ef4364e	0.4769768
119	0xbce16534	-0.027514078
120	0xbf08a41d	-0.53375417
121	0x3f2916f6	0.6605066
122	0x3a9261f0	0.0011168104
123	0x3eb043b5	0.34426656
124	0x3d48222a	0.048860706
125	0xbe4ff373	-0.20307712
126	0xbec4794a	-0.38373786
127	0x3d3cff05	0.046141643
128	0x3d91344b	0.07090052
129	0xbee02639	-0.43779162
130	0xbe406075	-0.18786795
131	0x3e97afb6	0.29626244
132	0xbe811b72	-0.25216252
133	0x3d94a5e4	0.072582036
134	0xbc8fffe8	-0.01757808
135	0x3e8f2c42	0.27963454
136	0xbe8b59d2	-0.27216965
137	0x3ee9edea	0.45689327
138	0xbe89dd15	-0.26926485
139	0x3c94bff9	0.018157946
140	0xbcf60724	-0.030032702
141	0xbe3bb9da	-0.18332615
142	0xbe0cfb18	-0.1376766
143	0xbe238834	-0.15969926
144	0x3e4c420f	0.19947074
145	0xbdf1becb	-0.11803969
146	0x3e8e0cd1	0.27744153
147	0x3efb47ed	0.49078313
148	0x3e803cd7	0.25046417
149	0x3dab4e24	0.083645135
150	0xbe76399a	-0.24045411
151	0xbe4b089e	-0.19827506
152	0x3dd759b8	0.10515159
153	0x3d081e80	0.033232212
154	0xbd9256df	-0.071454756
155	0x3e389e6b	0.18029182
156	0x3df4f446	0.11960654
157	0x3e05fa50	0.13083768
158	0xbe2c0a19	-0.16800727
159	0xbe8f65cc	-0.28007352
160	0xbeada897	-0.33917686
161	0x3eacf73f	0.33782384
162	0x3e7664c8	0.24061882
163	0xbe561f13	-0.20910291
164	0xbd79e0ed	-0.06100552
165	0xbf2b544f	-0.6692552
166	0x3eb6d7df	0.35711572
167	0xbddb428d	-0.10706053
168	0xbd64b4b9	-0.055836413
169	0x3e4b9798	0.19882047
170	0x3e9d1964	0.30683434
171	0xbe0c8eb3	-0.1372631
172	0xbe76b2a4	-0.24091583
173	0x3cf647c5	0.03006352
174	0x3e241ef9	0.1602744
175	0xbe16cd1b	-0.14726679
176	0xbe23d134	-0.15997773
177	0xbeb7cc34	-0.35897982
178	0xbe8bcf8a	-0.27306777
179	0x3f065b76	0.5248331
180	0xbd1910f7	-0.037369695
181	0xbe175bf6	-0.14781174
182	0x3e46cbb2	0.19413641
183	0xbe1a7a5b	-0.15085737
184	0xbdd44622	-0.10364939
185	0xbd73dfaa	-0.059539475
186	0xbc945970	-0.018109053
187	0xbe1332e9	-0.1437489
188	0xbea09405	-0.3136293
189	0x3d816677	0.06318372
190	0x3e42ef28	0.19036543
191	0x3e1580a7	0.14599858
192	0xbd49c175	-0.04925676
193	0xbe051fcc	-0.13000411
194	0xbcbf4605	-0.023348818
195	0x3e275c42	0.16343787
196	0xbe5a0db4	-0.2129429
197	0xbdeb7391	-0.11496652
198	0xbdbaa567	-0.09113579
199	0x3e447130	0.19183803
200	0x3df700b2	0.120606795
201	0xbd8b10a6	-0.06790285
202	0xbdc7f065	-0.097626485
203	0xbde02bb6	-0.10945837
204	0x3d538cdb	0.051648002
205	0xbc07721c	-0.008266952
206	0x3caa8481	0.020815136
207	0xbe0a123d	-0.1348352
208	0xbe6d19e3	-0.23154406
209	0x3dbca543	0.09211209
210	0x3d48a7e0	0.048988223
211	0xbdcee7c0	-0.101027966
212	0x3de91b53	0.11382165
213	0x3d619488	0.05507329
214	0x3c88ae2b	0.016684612
215	0x3c933017	0.017967267
216	0xbd5e5b4b	-0.054286283
217	0xbdb8ffaa	-0.09033139
218	0x3f254f2c	0.6457393
219	0xbeb97954	-0.3622538
220	0xbd467ccf	-0.04845887
221	0x3f091173	0.5354225
222	0xbc08a90a	-0.008341083
223	0x3bd1231c	0.006382359
224	0xbe73b86a	-0.23800817
225	0xbe605cf7	-0.21910463
226	0xbeb17d52	-0.34665924
227	0x3f62581c	0.88415694
228	0x3ec2f153	0.3807474
229	0x3e8a5532	0.27018124
230	0x3ce6b91c	0.028164439
231	0xbe1b90ec	-0.15192002
232	0x3daabfb8	0.08337349
233	0xbe89c11f	-0.26905152
234	0xbdf3d8ad	-0.11906562
235	0xbe42176b	-0.18954246
236	0x3de2e78c	0.1107932
237	0xbe1b5104	-0.15167624
238	0x3dc2a796	0.09504621
239	0x3e199710	0.14999032
240	0xbe6c7655	-0.23092015
241	0x3c954751	0.018222483
242	0x3e9254eb	0.28580412
243	0xbeaabfc8	-0.33349442
244	0x3eedc67e	0.464405
245	0xbd287a18	-0.041132063
246	0xbf1ecfb8	-0.62035704
247	0x3e296dbb	0.16545765
248	0xbec974d2	-0.3934694
249	0xbea7d4bd	-0.32779494
250	0xbeac638b	-0.33669695
251	0x3cef5c5c	0.029218845
252	0x3e6d0da7	0.23149739
253	0x3e9e4312	0.30910546
254	0x3e5de4b5	0.21669276
255	0xbf0a21d7	-0.53957886

l4/b f4 [36]
0	0xbef994cd	-0.48746338
1	0xbefd8143	-0.4951268
2	0xbe0f49ed	-0.13993044
3	0xbf1532e4	-0.5828078
4	0xbf14c6c0	-0.5811577
5	0xbefde2d6	-0.49587125
6	0xbeb561e8	-0.3542626
7	0xbeb6d778	-0.35711265
8	0xbede581e	-0.43426603
9	0xbf00adb1	-0.5026503
10	0xbebad9e2	-0.36494356
11	0xbec32319	-0.38112715
12	0xbf15708e	-0.5837487
13	0xbee25a41	-0.44209483
14	0xbdf7f338	-0.12106937
15	0xbdc3c0e0	-0.09558272
16	0xbedb23fa	-0.42800885
17	0xbeed26f7	-0.4631879
18	0xbe3924cc	-0.18080443
19	0xbeddc71e	-0.43315977
20	0xbe291185	-0.1651059
21	0xbe127b37	-0.14304815
22	0xbeda9ef5	-0.426994
23	0xbf0e6b62	-0.55632603
24	0xbf0761c4	-0.52883554
25	0xbed0baa2	-0.4076739
26	0xbf001956	-0.5003866
27	0xbec102dc	-0.37697494
28	0xbf036b0d	-0.5133522
29	0xbeeb8ca8	-0.4600575
30	0xbe995a35	-0.29951635
31	0xbee015ee	-0.4376673
32	0xbedcaf3f	-0.43102452
33	0xbe8ee925	-0.2791225
34	0xbf069d2d	-0.5258358
35	0xbe8f6277	-0.2800481

l4/W f4 [36, 256]
0	0xbd4720ba	-0.048615195
1	0xbe053ecd	-0.13012238
2	0x3dbab105	0.09115795
3	0xbc36d9cd	-0.011160326
4	0xbbeaaf61	-0.00716202
5	0x3dc84096	0.09777944
6	0xbe6e2fac	-0.23260373
7	0x3c56dd5e	0.0131143015
8	0x3d98792d	0.074449874
9	0xbb9ac7b7	-0.004723515
10	0x3d2522d8	0.040316433
11	0x3df25861	0.11833263
12	0x3d73d70a	0.05953125
13	0x3d1fb0a2	0.03898681
14	0x3ea94e70	0.33067656
15	0xbdd5119c	-0.10403749
16	0x3d83d34d	0.06436787
17	0x3d53012d	0.051514793
18	0xbd602f14	-0.054732397
19	0x3c8e0f31	0.017341228
20	0x3e9bf5f7	0.30461094
21	0x3e024267	0.12720643
22	0x3d916c82	0.07100774
23	0xbe3a333b	-0.18183605
24	0xbd1ef288	-0.038805515
25	0x3d5c5136	0.053788386
26	0xbe8dd133	-0.2769867
27	0xbc82d9fa	-0.01597308
28	0xbbace6b1	-0.005276524
29	0x3cd25525	0.025675366
30	0xbe378ef3	-0.17925625
31	0x3d3664fb	0.044529896
32	0x3dae74ea	0.08518393
33	0xbda27950	-0.07933295
34	0x3da07e3a	0.07836576
35	0xbe739dc6	-0.23790655
36	0xbe1e78b2	-0.15475729
37	0x3ca62e18	0.020285651
38	0x3c5078f3	0.012724149
39	0xbcb6fd1f	-0.022337494
40	0xbe0aae49	-0.13543047
41	0xbdbbe72f	-0.09174954
42	0x3e4a95f8	0.19783771
43	0xbc10532b	-0.008808891
44	0xbd0383ff	-0.032108303
45	0xbed3cde8	-0.41368032
46	0xbce6728b	-0.02813079
47	0xbcb9db3e	-0.02268755
48	0x3dc6922c	0.09695849
49	0xbd955cb3	-0.072930716
50	0xbeadb765	-0.3392898
51	0xbd4994f6	-0.049214326
52	0xbf0542a3	-0.52054805
53	0x3dcb69bc	0.099322766
54	0x3e38fb66	0.18064651
55	0xbe49e5f6	-0.1971663
56	0x3e882f13	0.26598415
57	0xbebb3374	-0.36562693
58	0x3d7d79c5	0.061883707
59	0x3defe40c	0.11713418
60	0xbc7cfa00	-0.015440464
61	0xbd0ed1be	-0.034867994
62	0xbdd83712	-0.10557379
63	0xbd1c27e3	-0.038123976
64	0xbe8aa448	-0.27078462
65	0xbec3a737	-0.38213512
66	0x3caa669f	0.020800887
67	0x3ce4f859	0.027950453
68	0xbdef92ec	-0.11697945
69	0x3e1e9986	0.15488252
70	0x3c3097bf	0.010778367
71	0x3deee731	0.1166519
72	0xbafbb789	-0.0019204478
73	0xbeb60422	-0.35550028
74	0x3bc2f97b	0.0059501505
75	0x3d39a902	0.045327194
76	0x3cf53858	0.029934093
77	0x3de3a52a	0.11115487
78	0x3e45db1f	0.1932187
79	0x3e4a9fce	0.19787523
80	0xbf0c0fa1	-0.5471135
81	0xbd0a2ce2	-0.03373421
82	0xbeb625dc	-0.3557576
83	0x3a947583	0.0011326525
84	0xbef6a876	-0.481754
85	0xbefe60f1	-0.49683335
86	0x3e20b58d	0.15694256
87	0x3dbcbad7	0.09215324
88	0xbeab113a	-0.3341158
89	0xbd7aff26	-0.061278485
90	0xbd9ab36d	-0.07553754
91	0xbc169548	-0.009190865
92	0x3cc20b8e	0.02368715
93	0xbc103d7b	-0.008803721
94	0x3c8cd1da	0.017189909
95	0xbbc27a14	-0.005934963
96	0xbe49de9f	-0.1971383
97	0xbd886424	-0.06659725
98	0x3d4853ba	0.048907973
99	0xbe56af7a	-0.20965376
100	0xbe364b94	-0.17802268
101	0x3e7239c2	0.23654845
102	0x3d8d1596	0.06888883
103	0x3dce9ed1	0.100888856
104	0x3dd8bf62	0.105833784
105	0x39d1c0fa	0.00040007365
106	0x3e000447	0.12501632
107	0xbe19216b	-0.14954154
108	0xbed3bd6a	-0.4135545
109	0xbdaa1f90	-0.08306801
110	0xbdce73af	-0.10080659
111	0xbe6adbfa	-0.22935477
112	0xbeb2d956	-0.3493144
113	0xbca0da2b	-0.01963528
114	0x3c51c4fb	0.012803311
115	0xbc3bbfb0	-0.011459276
116	0xbd1f839d	-0.038943876
117	0x3ca96138	0.02067624
118	0xbebb485e	-0.3657865
119	0x3d2110ce	0.039322667
120	0xbd7644ea	-0.060124315
121	0x3db9e7a7	0.09077387
122	0xbb273ccc	-0.0025518415
123	0x3cd5ce1a	0.026099253
124	0xbe010947	-0.12601195
125	0x3c0a4d8d	0.008441341
126	0x3d544a83	0.051828872
127	0xbe768fd0	-0.24078298
128	0x3e066e9e	0.13128135
129	0x3e3a8121	0.18213321
130	0xbeae85a0	-0.34086323
131	0x3db41645	0.0879331
132	0xbdaa63c9	-0.08319814
133	0xbc8e486e	-0.017368522
134	0xbe054a10	-0.13016534
135	0x3e0cd40d	0.13752766
136	0xbd8cfc2f	-0.06884038
137	0x3ddd36c8	0.10801464
138	0x3df6f72f	0.12058865
139	0xbcbe6bad	-0.023244703
140	0x3dc33f3f	0.095335476
141	0xbdd4537e	-0.10367487
142	0x3d0cdd24	0.034390584
143	0xbe55518a	-0.20831886
144	0x3ea0aa76	0.3138005
145	0xbe58ab9b	-0.21159212
146	0xbd86930b	-0.06571015
147	0x3c0f7925	0.00875691
148	0x3e90794a	0.28217536
149	0x3d34bc2b	0.044124763
150	0x3e10239f	0.14076088
151	0xbea882c7	-0.32912275
152	0xbcaa150b	-0.020761987
153	0x3d31aa36	0.043375216
154	0x3ddd3360	0.10800815
155	0xbc703061	-0.014659972
156	0xbcf2c83e	-0.029636499
157	0x3d835d2d	0.06414256
158	0xbd5afb05	-0.053462047
159	0x3d2f9422	0.04286588
160	0x3c8f4a48	0.017491475
161	0xbe15df8c	-0.14636058
162	0xbe14b6b3	-0.14522819
163	0xbd3cce5a	-0.04609523
164	0xbc4e6e17	-0.01259949
165	0x3d8094c9	0.062783785
166	0x3cb6688b	0.022266647
167	0x3eb07be0	0.3446951
168	0xbee6bf9c	-0.4506806
169	0xbd1ae2b3	-0.037813853
170	0x3da60ee9	0.08108313
171	0xbd5a0acf	-0.053232964
172	0x3c343855	0.010999759
173	0x3e812c19	0.25228956
174	0x3c04f7bb	0.008115704
175	0xbd14b5e0	-0.036306262
176	0xbb5afbff	-0.0033414362
177	0x3959a844	0.00020757416
178	0xbecd7478	-0.4012792
179	0x3e4d118c	0.20026225
180	0x3d84c5a2	0.06483008
181	0x3e1a5ce0	0.15074492
182	0x3e2d77f5	0.16940291
183	0xbd908bf6	-0.070579454
184	0xbd562ce2	-0.052288897
185	0x3ead6b49	0.33870915
186	0xbe2431c9	-0.16034617
187	0xbec8b17e	-0.39197916
188	0x3d3330b9	0.043747637
189	0x3cfa8aff	0.030583857
190	0xbed5a99a	-0.41730958
191	0xbd6fbd62	-0.05853022
192	0xbeda08f0	-0.42584944
193	0x3cfdcc7e	0.030981299
194	0x3ab39c36	0.0013703171
195	0x39bbdf33	0.00035833716
196	0xbeb63d8a	-0.35593826
197	0x3bbc6d5a	0.0057503404
198	0xbd0494cb	-0.032368463
199	0xbd1c9b4f	-0.03823405
200	0xbef9b23d	-0.48768798
201	0x3c7883fa	0.015168184
202	0x3e234ab6	0.15946469
203	0xbdcfd837	-0.101486616
204	0xbe6ba205	-0.23011024
205	0x3c062324	0.008187089
206	0xbdcefcca	-0.101068094
207	0x3e59db78	0.21275127
208	0xbbc14372	-0.0058979327
209	0x3c895c4d	0.016767645
210	0xbabe4bf8	-0.001451849
211	0x3dc2742c	0.09494814
212	0x3e281bc4	0.16416842
213	0xbeccc3f6	-0.39993256
214	0xbc719231	-0.014744327
215	0x3d24c62e	0.04022806
216	0xbdb47a40	-0.0881238
217	0x3e4ecbd6	0.20194945
218	0x39bcd48a	0.00036016508
219	0xbc45f275	-0.012081732
220	0xbc6f63df	-0.0146112135
221	0x3d85bc60	0.0653007
222	0x3e4de7ae	0.2010791
223	0x3be87a07	0.007094625
224	0xbddabac2	-0.106801525
225	0xbccb0e4e	-0.024787094
226	0x3d7c7fba	0.061645247
227	0x3d7c1552	0.06154377
228	0x3dbb91d0	0.09158671
229	0x3ccb261e	0.02479845
230	0x3c53b299	0.012920999
231	0xbb0a4af9	-0.0021101816
232	0x3df11ff6	0.11773674
233	0xbce3c828	-0.027805403
234	0xbbf3e001	-0.007442475
235	0xbcf8389b	-0.03030043
236	0xbcaae717	-0.020862145
237	0x3dd5e28d	0.10443602
238	0xbc8fb81e	-0.017543849
239	0x3cfd9ad3	0.030957615
240	0x3cdd01a5	0.026978323
241	0xbdaf7bb6	-0.08568518
242	0x3d00b961	0.03142679
243	0xbdf62500	-0.12018776
244	0x3d2a7550	0.041615784
245	0x3dab1143	0.08352902
246	0xbd0a5b1e	-0.033778302
247	0x3d837109	0.06418044
248	0xbc4a648a	-0.012353072
249	0xbe48c341	-0.19605733
250	0xbf010f29	-0.5041376
251	0xbdfeb6ca	-0.12437208
252	0x3cfbfd7c	0.03076052
253	0x3dcfc0fb	0.1014423
254	0xbd6f2c22	-0.058391698
255	0x3dc61a69	0.09673006

l3/b f4 [256]
0	0x3e5d1c64	0.21592861
1	0x3d314b18	0.043284506
2	0x3c9c531e	0.019082602
3	0x3bbddd25	0.0057941847
4	0xbbdc9a41	-0.0067322557
5	0xbe27be4a	-0.16381183
6	0x3e10edf3	0.1415327
7	0x3e5cef52	0.21575668
8	0x3e1e93c5	0.15486057
9	0x3ed3067b	0.41215882
10	0x3edec8d9	0.4351261
11	0x3c34d538	0.011037163
12	0xbe924333	-0.28566894
13	0xbe970be2	-0.29501253
14	0x3c95f437	0.018304927
15	0xbd822cc5	-0.06356195
16	0x3cdf7255	0.027276197
17	0x3e1281fa	0.14307395
18	0xbe47a3d6	-0.19496092
19	0x3db49516	0.088174984
20	0xbc8809c9	-0.016606228
21	0x3e0cb53c	0.1374101
22	0xbdc6a627	-0.0969966
23	0x3e1268f5	0.1429785
24	0x3e4f7c0c	0.20262164
25	0x3d8fdad8	0.07024163
26	0x3d18836b	0.037234705
27	0x3da9324a	0.08261545
28	0x3d865a1e	0.06560157
29	0xbd173e1f	-0.036924478
30	0x3db839b7	0.08995383
31	0x3dc5d429	0.09659607
32	0x3e83010c	0.25586736
33	0x3e5eae63	0.21746211
34	0xbc3de65c	-0.0115905665
35	0x3d84498b	0.0645934
36	0x3dbed6d0	0.09318316
37	0x3e4002b1	0.18751027
38	0xbdb53346	-0.0884767
39	0xbdffc912	-0.12489523
40	0x3b0e4a4d	0.0021711767
41	0x3ebe1f15	0.3713309
42	0xbdddd44b	-0.10831507
43	0xbda92b5a	-0.08260222
44	0x3e161356	0.14655814
45	0x3e02a054	0.12756473
46	0x3e0ea85d	0.13931413
47	0x3e679a34	0.22617418
48	0x3db67f4b	0.08910998
49	0x3de6ae4a	0.11263712
50	0x3d844998	0.064593494
51	0x3e845444	0.2584554
52	0x3ec297f0	0.38006544
53	0x3dd3bfa7	0.10339289
54	0xbcb93111	-0.022606404
55	0x3e8ce897	0.27521202
56	0x3d20bc21	0.039241914
57	0x3da7658d	0.08173666
58	0x3e0a7a88	0.13523304
59	0x3da56aa2	0.08076979
60	0x3eba2153	0.3635355
61	0x3e8f1f7e	0.27953714
62	0x3cfd5263	0.030923074
63	0x3d61502e	0.055008106
64	0x3e6c16dc	0.23055595
65	0x3e1ad9c0	0.15122128
66	0x3bcf3dfe	0.0063245287
67	0xbbcf7e7c	-0.006332217
68	0x3e4b93cc	0.19880599
69	0xbc8bb42b	-0.017053684
70	0x3d35b473	0.044361543
71	0x3d39bd1d	0.045346368
72	0x3b5b042c	0.0033419235
73	0xbda25698	-0.07926673
74	0x3dc39c21	0.095512636
75	0xbbb7f42f	-0.0056138257
76	0xbe5b9227	-0.21442471
77	0x3dc0b2b9	0.09409089
78	0x3e3dd90c	0.18539828
79	0x3de29cb3	0.11065044
80	0x3e238088	0.15967
81	0x3dd6c99f	0.10487675
82	0x3ddb2554	0.10700479
83	0xbe717c05	-0.23582466
84	0x3d6807a5	0.056647915
85	0x3db02137	0.08600085
86	0x3d00ded3	0.0314625
87	0x3d6e9e89	0.05825666
88	0xbd43a331	-0.047763053
89	0x3fc58710	1.5431843
90	0x3d8cdb60	0.0687778
91	0x3e308dab	0.17241542
92	0xbe0c07f9	-0.13674916
93	0x3ef1b681	0.47209552
94	0xbea035de	-0.31291097
95	0xbe4c6aa7	-0.1996256
96	0x3d73f2cc	0.05955772
97	0x3dea2957	0.11433666
98	0x3dce24c0	0.10065603
99	0xbdabeb31	-0.083944686
100	0x3ef0ac4d	0.47006455
101	0x3d92f122	0.07174899
102	0x3e973a80	0.2953682
103	0xbdff54c4	-0.1246734
104	0x3d74a87b	0.059730988
105	0x3dffaf18	0.12484568
106	0x3dc2b99b	0.09508058
107	0x3d0f13a0	0.034930825
108	0x3dd7b63d	0.10532806
109	0x3e3e13b6	0.18562207
110	0x3e845866	0.25848693
111	0x3e218258	0.15772378
112	0x3e5d4572	0.21608523
113	0xbe86d377	-0.2633321
114	0x3e54f400	0.20796204
115	0xb917fefd	-0.00014495473
116	0x3d97f9f3	0.07420721
117	0xbd68dab7	-0.056849208
118	0x3e9811f3	0.29701194
119	0x3d23a493	0.039951872
120	0xbe75aa70	-0.23990798
121	0x3d94ffba	0.072753385
122	0x3e84bf04	0.25926983
123	0x3dbc04a4	0.09180573
124	0xbcf1de71	-0.029525014
125	0xbe670655	-0.22561009
126	0x3e3be3d7	0.18348633
127	0x3e81a56c	0.2532152
128	0xbba4ecce	-0.005033112
129	0x3d3834be	0.044972174
130	0x3e767b74	0.24070531
131	0x3d5d1b27	0.053980973
132	0x3e875987	0.2643549
133	0x3e466476	0.1937426
134	0x3e9aee94	0.30260146
135	0x3cbbd5f6	0.022929173
136	0x3e2ac214	0.16675597
137	0xbe0b9408	-0.13630688
138	0xbe131ffb	-0.14367668
139	0xbe3e67f1	-0.18594338
140	0xbba8d7e7	-0.0051526907
141	0x3d7d0be8	0.061778933
142	0xbe047238	-0.12934196
143	0xbce6c9f4	-0.02817247
144	0x3c6e5779	0.014547222
145	0x3d57d0d6	0.052689396
146	0x3ebd7902	0.37006384
147	0x3ddc73a8	0.10764247
148	0x3db34b31	0.08754576
149	0x3d55a83f	0.052162405
150	0x3e53ec5f	0.20695637
151	0x3dfc71a0	0.1232636
152	0xbcc0ce70	-0.023535937
153	0xbc9178bb	-0.017757764
154	0x3d3c5b8d	0.045985747
155	0xbe3657d4	-0.17806941
156	0x3c4d6b34	0.012537766
157	0x3d6b40ad	0.057434727
158	0xbc26b4fa	-0.010174984
159	0x3e5e33ce	0.2169945
160	0xbea2540d	-0.3170475
161	0x3e40bd1f	0.18822144
162	0x3d48ef82	0.049056537
163	0x3dffbc7c	0.124871224
164	0x3e75fb9d	0.24021764
165	0x3d6aa1ce	0.057283215
166	0xbe417426	-0.18891963
167	0x3d6010c9	0.054703508
168	0x3e0081d1	0.12549521
169	0x3e8e4b23	0.277917
170	0x3d93a026	0.0720828
171	0x3e3401c4	0.17578799
172	0x3cfae919	0.030628728
173	0xbc9d9f4e	-0.019241001
174	0x3dee70cd	0.11642609
175	0xbe3436b7	-0.17598997
176	0x3b8a15e0	0.0042140335
177	0x3eb2d3a3	0.3492709
178	0x3e6f51a0	0.23370981
179	0xbab29aea	-0.001362649
180	0x3e2be8ca	0.1678802
181	0xbd6d873e	-0.057990305
182	0x3d72ae7b	0.05924843
183	0xbcd8e669	-0.026477056
184	0xbd377b0d	-0.044795085
185	0xbcc5c799	-0.024143027
186	0x3e19b577	0.1501063
187	0x3d8c162a	0.06840165
188	0xbe39ba61	-0.18137504
189	0xbd90d4f1	-0.07071865
190	0x3d7e9d37	0.06216165
191	0x3e06b36c	0.13154382
192	0x3dab640f	0.08368694
193	0x3e40b561	0.1881919
194	0x3d802127	0.06256323
195	0x3e39547c	0.18098634
196	0x3e43d15d	0.19122835
197	0x3e8f954f	0.280436
198	0x3d214a6b	0.03937761
199	0xbe74e8fe	-0.23917004
200	0x3dead941	0.11467219
201	0xbe5d68f2	-0.21622065
202	0xbe13fd31	-0.14452054
203	0x3ddd31ef	0.1080054
204	0x3df3aad3	0.118978165
205	0xbed93278	-0.42421317
206	0xbd6cae6f	-0.05778354
207	0xbe8bf6db	-0.27336773
208	0x3a4f3506	0.00079043244
209	0xbdbf042b	-0.09326967
210	0xbe402146	-0.18762693
211	0x3cdbd2a8	0.026833847
212	0x3d7f0465	0.06226005
213	0x3e953c06	0.29147357
214	0xbd8956ab	-0.06705984
215	0x3db6d4e7	0.08927327
216	0x3e75c751	0.24001814
217	0x3da84a98	0.08217353
218	0xbe87a6e1	-0.26494506
219	0xbdfc8f37	-0.123320036
220	0x3d8bb3c7	0.06821399
221	0xbc5b1948	-0.013372727
222	0x3dd4f22b	0.103977524
223	0xbe696edf	-0.227962
224	0x3de83d79	0.1133985
225	0x3e232c63	0.15934901
226	0x3bab8772	0.005234652
227	0xbd1a273b	-0.03763507
228	0x3dce5526	0.100748345
229	0x3e67949b	0.22615282
230	0x3e0f00c7	0.1396514
231	0x3e46c70e	0.19411871
232	0x3de2e34b	0.11078509
233	0x3e4308c6	0.19046316
234	0x3c13e70d	0.009027255
235	0x3d265c9c	0.040615663
236	0x3d094436	0.033512317
237	0x3d5b7f13	0.053587984
238	0x3dd9cebf	0.10635137
239	0xbe234a4e	-0.15946314
240	0x3d961af7	0.07329362
241	0xbdeb04e0	-0.11475539
242	0x3d9a0787	0.07520967
243	0x3d8090ee	0.06277643
244	0x3df17e3a	0.11791654
245	0xbe881064	-0.26575005
246	0xbdac644d	-0.08417568
247	0x3e2d52e0	0.16926146
248	0x3e4894d4	0.19588023
249	0x3e11974c	0.14217871
250	0x3e221c46	0.15831098
251	0x3f490a09	0.7853094
252	0x3c08cb66	0.008349275
253	0x3d88c043	0.06677296
254	0x3d765cf6	0.06014725
255	0x3d46969d	0.04848348

l3/W f4 [256, 256]
0	0xbe2380ee	-0.15967152
1	0xbe5c70cc	-0.21527404
2	0xbdd924a8	-0.10602695
3	0xbc132dc1	-0.008983077
4	0xbddeed98	-0.10885161
5	0xbd8c2a77	-0.06844037
6	0xbdcea6e6	-0.10090427
7	0x3e43437b	0.1906871
8	0xbcca5df4	-0.024703003
9	0x3cd13049	0.02553572
10	0x3e043420	0.12910509
11	0xbdbb9d63	-0.091608785
12	0xbdd54b38	-0.104147375
13	0x3db2b1f4	0.08725348
14	0x3e3b178f	0.18270706
15	0xbdf99bde	-0.121879324
16	0x3c8a8946	0.01691116
17	0xbde15192	-0.110018864
18	0x3e5a8769	0.21340717
19	0x3e58a1df	0.21155499
20	0x3eb114f0	0.34586287
21	0xbd57c870	-0.052681386
22	0xbdb4b8d8	-0.08824319
23	0x3e11cc13	0.14238004
24	0xbe21c459	-0.15797557
25	0x3d477aa2	0.048700936
26	0xbd9d4776	-0.07679646
27	0xbed7a25e	-0.42116064
28	0x3dace79b	0.08442613
29	0xbcebd7cb	-0.028789422
30	0x3d88a641	0.066723354
31	0x3dc28f86	0.09500031
32	0xbe126576	-0.14296517
33	0xbd770895	-0.06031092
34	0x3d956a1f	0.072956316
35	0xbe012b77	-0.12614237
36	0x3db8f921	0.090318926
37	0x3dd29546	0.10282378
38	0xbe1239cb	-0.14279859
39	0x3d634ece	0.055495076
40	0xbd93fb60	-0.0722568
41	0x3de5b18b	0.11215504
42	0x3df96b99	0.12178726
43	0x3e66821b	0.22510569
44	0x3dd8cc9d	0.10585902
45	0xbb993ba6	-0.0046763
46	0xbd7a943c	-0.061176524
47	0xbe545dbd	-0.20738883
48	0x3dea830a	0.11450775
49	0xbdc1199b	-0.09428712
50	0x3d9ab4d2	0.0755402
51	0xbcf8baec	-0.030362569
52	0xbdb56fb1	-0.08859194
53	0xbdd549dd	-0.10414479
54	0xbd4cb655	-0.049978573
55	0xbe067496	-0.13130412
56	0xbd3d4171	-0.046204988
57	0x3dd32c99	0.10311241
58	0x3e45e1f4	0.19324476
59	0x3d24edab	0.04026572
60	0x3e251f9c	0.1612534
61	0xbe181a17	-0.14853702
62	0x3cc638fa	0.02419709
63	0xbe803dae	-0.25047058
64	0x3e29391c	0.16525692
65	0x3e0930aa	0.1339747
66	0xbd5dc75f	-0.054145213
67	0xbcbd5afe	-0.023114678
68	0xbde86493	-0.11347308
69	0xbd4fc3dd	-0.0507239
70	0xbca7b1a5	-0.02047045
71	0x3e543b8e	0.20725843
72	0xbe1370fd	-0.1439857
73	0xbc49f08e	-0.012325419
74	0x3e2b8143	0.16748528
75	0xbea03b62	-0.31295305
76	0xbd764383	-0.060122978
77	0x3e423d80	0.18968773
78	0x3e181e92	0.14855412
79	0xbc1c2d43	-0.009532276
80	0x3c5e576f	0.0135706505
81	0x3dd259b0	0.10271013
82	0xbdf9723a	-0.1217999
83	0xbe35ec7f	-0.17765997
84	0xbe268499	-0.1626152
85	0xbdc3b91a	-0.0955679
86	0xbe009731	-0.12557675
87	0xbdeb2149	-0.11480958
88	0x3dfe53f9	0.1241836
89	0xbd39f017	-0.045394983
90	0xbe04c08f	-0.1296408
91	0xbe262514	-0.16225082
92	0x3e2a8d93	0.16655569
93	0x3c104983	0.008806589
94	0xbe4582c8	-0.1928817
95	0x3e77420b	0.24146287
96	0x3e1023ed	0.14076205
97	0xbe026535	-0.1273392
98	0x3dae9702	0.08524896
99	0xbeac0fdf	-0.3360586
100	0xbdf16256	-0.11786334
101	0xbdea41bf	-0.11438321
102	0xbd4d4680	-0.050116062
103	0x3ca3f3d3	0.020013725
104	0x3de5519a	0.11197205
105	0xbc6321c9	-0.0138630355
106	0x3d817f0d	0.06323061
107	0xbe1858b0	-0.14877582
108	0x3d54b7c4	0.051933065
109	0x3d85af98	0.065276325
110	0x3dbf06fc	0.09327504
111	0x3d56e28b	0.052462142
112	0x3d8d666c	0.06904301
113	0xbe8446ee	-0.25835365
114	0xbcd852fc	-0.026406758
115	0xbec1c84e	-0.37848133
116	0x3e09e327	0.13465558
117	0x3e71444f	0.23561214
118	0xbde73343	-0.11289074
119	0x3e1c3b28	0.15256941
120	0x3ceaf71f	0.02868229
121	0x3d04fad9	0.03246579
122	0x3e1da134	0.15393525
123	0xbe4a5a90	-0.1976111
124	0xbdd9e01e	-0.1063845
125	0x3d848208	0.06470114
126	0xba2e8da6	-0.00066586805
127	0x3dc3eab2	0.09566249
128	0x3d30d6b5	0.04317351
129	0x3d279fda	0.04092393
130	0x3db7fc98	0.08983725
131	0xbe81d639	-0.2535875
132	0x3ce20e38	0.02759467
133	0xbe35048b	-0.17677514
134	0x3c3b2152	0.011421518
135	0xbdf50fb0	-0.11965883
136	0xbe031152	-0.12799576
137	0x3bdedd80	0.006801307
138	0x3db7fd81	0.08983899
139	0x3e804de3	0.25059423
140	0xbdec4e2c	-0.115383476
141	0x3e6a76aa	0.22896829
142	0xbc8eb8b3	-0.017422056
143	0x3e3b9eb1	0.18322255
144	0x3d1ce78b	0.038306754
145	0xbd2091e3	-0.03920163
146	0xbe50e4b1	-0.20399739
147	0x3d436a30	0.04770869
148	0x3d50a547	0.05093887
149	0x3daf46ff	0.08558463
150	0xbdcd3627	-0.10020094
151	0xbc6fdf8b	-0.014640699
152	0xbe9986b5	-0.29985586
153	0xbe9d5f0f	-0.30736586
154	0x3cebe981	0.028797867
155	0x3da9958f	0.08280479
156	0xbd463315	-0.04838856
157	0x3e17a39e	0.14808509
158	0xbe198f2f	-0.14996026
159	0xbc78a234	-0.015175391
160	0xbd993a57	-0.074818306
161	0xbe424e10	-0.18975091
162	0xbd504c85	-0.050854225
163	0xbe09867d	-0.1343021
164	0x3ccca8fa	0.024982918
165	0xbdc130e8	-0.09433156
166	0xbd03b814	-0.032157972
167	0xbe44497a	-0.19168654
168	0xbe040084	-0.12890822
169	0x3e605245	0.21906383
170	0x3df61dc2	0.120173946
171	0x3dccb0e0	0.09994674
172	0xbd1f862b	-0.038946312
173	0xbdd012a2	-0.10159804
174	0xbcae4cd6	-0.021276873
175	0xbc8e279e	-0.017352875
176	0x3d64bc92	0.055843897
177	0xbc846a58	-0.01616399
178	0xbbf3171f	-0.0074185277
179	0x3dd26bdc	0.10274479
180	0x3d364616	0.044500433
181	0xbe6b449d	-0.22975393
182	0xbe8abd8d	-0.2709774
183	0x3ec149ca	0.3775161
184	0xbb9bd43d	-0.0047555254
185	0x3df2eba3	0.118613504
186	0xbd524cf5	-0.051342923
187	0x3e5b7f34	0.21435243
188	0xbd12375f	-0.035697337
189	0xbe19080b	-0.14944474
190	0xbe2e6b48	-0.17033112
191	0xbded40ed	-0.11584649
192	0x3b042da4	0.0020168805
193	0xbbc92c8a	-0.0061393427
194	0x3d868fe1	0.065704115
195	0xbdae1b14	-0.085012585
196	0xbe1a6046	-0.15075788
197	0xbd294721	-0.0413276
198	0xbd037855	-0.03209718
199	0xbdec1eda	-0.11529322
200	0xbe07fcd3	-0.13280039
201	0x3df58fb0	0.11990297
202	0xbd5bd76a	-0.05367223
203	0x3c3943f8	0.011307709
204	0x3da7e020	0.08197045
205	0xbcb3d3e9	-0.021951633
206	0xbc16bb95	-0.0091999965
207	0xbd81900b	-0.06326302
208	0x3d353a5f	0.04424512
209	0xbde372bb	-0.111058675
210	0xbe50da37	-0.20395742
211	0x3dcd2a13	0.10017791
212	0x3cb9dc04	0.02268792
213	0xbd833565	-0.064066686
214	0x3d42ba2c	0.04754083
215	0x3e0187f0	0.12649512
216	0xbce29a12	-0.027661357
217	0xbc975c08	-0.018476501
218	0x3d68e127	0.056855347
219	0xbe173b40	-0.14768696
220	0xbd62359c	-0.055226907
221	0xbea3b909	-0.31977108
222	0xbd228095	-0.039673407
223	0xbba1c81e	-0.004937186
224	0xbd419969	-0.047265444
225	0xbe2794ed	-0.16365404
226	0xbddf2378	-0.10895437
227	0xbda87373	-0.08225145
228	0xbdd9bdb8	-0.10631889
229	0x3d9d8844	0.07692006
230	0xbc9bebff	-0.01903343
231	0xbd3b5a43	-0.045740377
232	0xbe77700b	-0.24163835
233	0x3e071f15	0.1319545
234	0xbd9ddc40	-0.07708025
235	0xbb6c5989	-0.003606411
236	0xbde55f49	-0.11199815
237	0x3e0d1b92	0.13780048
238	0x3911ae38	0.00013893179
239	0xbdf17668	-0.11790162
240	0xbe19966f	-0.14998792
241	0xbc5b89b7	-0.013399533
242	0x3e61739f	0.22016762
243	0x3e6cf2aa	0.23139444
244	0xbe215469	-0.15754856
245	0xbdfa38d6	-0.12217872
246	0x3e0bd1d2	0.13654259
247	0xbdee5338	-0.116369665
248	0xbd9d8754	-0.076918274
249	0x3e6e3c14	0.23265105
250	0x3dd8f82d	0.10594211
251	0xbdcf765a	-0.10129996
252	0x3e82c6b7	0.25542232
253	0xbe6d0ec5	-0.23150165
254	0x3ea5dcc5	0.32394996
255	0xbc9a485a	-0.018833328
