static/ai/8/agent_black_100000/target_model.npz (npz, 609217 bytes, 8 tensors)

l2/W f4 [256, 256]
000000 1a cb e7 c0 17 e6 84 bf e7 a2 31 41 2e 9b fc c1
       -7.2435427 -1.0382718 11.102271 -31.575771
000010 a3 4b e2 bf 85 b7 25 41 a7 ff 11 c1 42 e7 97 c1
       -1.7679332 10.357305 -9.124915 -18.987919
000020 29 cf 81 c1 ef 41 04 41 27 10 fc 40 a9 eb ad c1
       -16.226152 8.266097 7.8769717 -21.740068
000030 46 8d 4b c1 ee 3c b6 40 8f 20 54 c2 b3 a4 a5 bf
       -12.721991 5.6949377 -53.031796 -1.2940887
000040 46 d3 78 40 7b e1 89 40 81 02 56 40 66 26 21 41
       3.887895 4.3087745 3.3439028 10.071875
000050 bc 39 ec c1 b0 be 24 c1 a6 aa e8 c0 e2 a1 b3 c1
       -29.52819 -10.296555 -7.270831 -22.454044
000060 c1 ea b5 c0 d6 28 0e c1 c1 46 7b c0 36 45 7c bf
       -5.6849065 -8.88497 -3.9261935 -0.9854311
000070 ae 8d 27 c2 38 03 61 41 e1 a0 00 40 ce 70 8a c1
       -41.88836 14.063286 2.0098193 -17.30508
000080 51 3f 2d 40 f3 3d df c0 e8 c2 1f c1 63 25 91 c1
       2.7069895 -6.976312 -9.985085 -18.143255
000090 da c6 10 c1 76 c1 c5 c0 6e 43 8c 41 5b 5e b2 c0
       -9.048548 -6.179866 17.532925 -5.574018
0000a0 31 6c 57 c1 97 dc 17 c1 a2 e5 13 bf 41 0b 93 c1
       -13.463914 -9.491355 -0.57772267 -18.380495
0000b0 b3 97 27 c1 c0 f8 8a c1 b6 ef d9 40 c8 6c 83 c1
       -10.474536 -17.37146 6.8105116 -16.428116
0000c0 7d f2 b5 bf 01 b9 0f c2 58 d5 74 c1 8f be c0 3f
       -1.4214627 -35.930668 -15.302086 1.5058154
0000d0 d6 0d b0 40 4a 94 c5 40 9e c4 bb c1 b3 a0 2f 41
       5.501689 6.1743517 -23.471004 10.976733
0000e0 d2 84 e0 40 c4 7b 97 c1 32 03 50 c1 cf 0f 40 c1
       7.0162134 -18.935432 -13.00078 -12.0038595
0000f0 bb 4d 44 c1 49 14 d3 c1 0e 1f 95 c1 a9 43 ac c1
       -12.268977 -26.384905 -18.640163 -21.533037
000100 e4 fd d9 c0 7d 85 bd c1 a1 81 49 c1 87 ad 58 40
       -6.8122425 -23.69018 -12.594148 3.3855913
000110 be ce fa bf fb 5a 53 c0 8d 2a ba c1 66 e7 8d c1
       -1.9594343 -3.302428 -23.270777 -17.737988
000120 3a 42 3d bf a5 4e 2e 41 00 26 19 41 80 ff 45 c1
       -0.7392918 10.8942 9.571777 -12.374878
000130 0a 81 38 3f bb d1 b9 c0 26 79 04 c2 86 b2 14 c1
       0.720719 -5.806852 -33.11831 -9.293585
000140 73 76 2a c1 35 9f 2b 41 25 1c b7 41 a1 22 7c c1
       -10.653918 10.726369 22.888742 -15.758454
000150 53 9e dc c0 56 3e 76 c1 e5 53 87 41 f3 f7 19 c1
       -6.8943267 -15.390219 16.915964 -9.6230345
000160 00 8b 97 c1 0b 1a c7 bf c6 cf 80 c1 d1 de 6c c0
       -18.942871 -1.5554823 -16.101452 -3.7010996
000170 c9 43 2c c0 30 de e0 40 8c 72 58 c1 53 b1 62 c1
       -2.6916373 7.0271225 -13.527966 -14.168292
000180 c2 3f ee c1 77 9a 30 c1 ba 43 03 c0 58 6b 85 40
       -29.781132 -11.037711 -2.0510087 4.1693535
000190 31 4c 42 c2 d9 e2 88 c0 e8 4b 72 41 f8 2e 36 c1
       -48.574406 -4.2776914 15.143532 -11.386467
0001a0 9d 66 89 c0 53 c6 c5 41 42 76 a0 c1 27 74 fd bf
       -4.293776 24.721838 -20.057743 -1.9801072
0001b0 fa d9 cf c0 7d 64 05 41 3a a5 9e c1 51 45 e0 40
       -6.4953585 8.337033 -19.830677 7.0084615
0001c0 81 26 a6 c1 7b 1f 90 c1 a8 bd e6 c1 82 75 c9 c0
       -20.7688 -18.015371 -28.842606 -6.295594
0001d0 8b 44 43 c2 8a e9 0b c2 01 d6 b4 c1 d5 fd 29 c0
       -48.816936 -34.978065 -22.604494 -2.6561177
0001e0 ff a9 92 be 53 76 b7 c1 8b 31 6f 40 3a b3 b9 c1
       -0.28645322 -22.932775 3.7373989 -23.212513
0001f0 37 64 fe c1 ee 57 4d be d1 88 25 c1 09 5c 21 3f
       -31.798933 -0.20053074 -10.345902 0.6303106
000200 e4 67 ef 3e 48 a8 1e c2 ee 6a dd c1 ff f4 bb c1
       0.4675895 -39.664337 -27.677212 -23.494627
000210 ff e7 49 c1 6e 5f de c1 22 60 81 c1 aa 14 7d 41
       -12.61914 -27.796597 -16.17194 15.817545
000220 69 fe b1 41 1c eb 12 c0 be 6b 64 41 c0 31 85 40
       22.249224 -2.2956 14.276304 4.162323
000230 4a 5c 48 41 c9 fd 85 c1 18 88 4e c0 15 84 ec c0
       12.5225315 -16.748919 -3.2270565 -7.3911233
000240 81 ee 6a 41 b6 83 8f c1 6f 31 ca c1 76 0c 8a 40
       14.6832285 -17.939312 -25.274137 4.314021
000250 79 48 22 41 75 14 86 41 c9 c9 10 c0 3f 5a 26 41
       10.1426935 16.759989 -2.262316 10.397033
000260 5e df 45 3f 57 f5 c9 c0 06 ad 40 41 f3 1c e9 c1
       0.77293956 -6.3111987 12.042242 -29.139135
000270 3c 30 ff c0 36 e9 ac c0 3b f9 dc bf 01 37 3a c1
       -7.974638 -5.403468 -1.7263559 -11.638429
000280 fb 5a d0 c1 62 f2 ec c0 7a e5 6d 40 7b af 97 40
       -26.044424 -7.4045877 3.7171311 4.740171
000290 0d 70 23 c1 fb 40 54 40 79 17 98 c1 22 c9 91 41
       -10.214856 3.316466 -19.011461 18.22321
0002a0 51 2d 87 41 bd 46 0e c2 6f ef f4 c1 07 59 e6 c1
       16.897127 -35.56908 -30.61691 -28.79347
0002b0 85 52 79 c1 f9 12 98 40 6b 5e d8 c1 5b a5 93 c1
       -15.582646 4.752316 -27.046103 -18.45574
0002c0 eb ae f7 3f 3b cb 3a c1 03 89 a0 c1 25 c5 4a c1
       1.9350256 -11.674617 -20.0669 -12.673131
0002d0 d5 79 44 41 0f 7e f5 c1 35 cf 4a c0 15 f1 b2 c0
       12.279744 -30.686552 -3.168897 -5.591929
0002e0 ea 07 0b c1 8e 46 2e 41 60 f8 cb c1 e8 58 6d c1
       -8.689432 10.892225 -25.496277 -14.834206
0002f0 78 3b e4 c1 4b 59 ce c1 d6 17 f2 c1 fc cd 7c c1
       -28.529037 -25.7936 -30.261639 -15.800289
000300 2b 3e 0f c1 15 89 50 41 c3 af 09 c2 af 45 eb c1
       -8.952678 13.033467 -34.421642 -29.409025
000310 95 e5 17 41 82 9a 72 41 ef cb da c1 cd 3b 00 c2
       9.49355 15.162722 -27.349577 -32.0584
000320 7b 43 03 c2 23 4e fc c1 ed fd e4 41 88 22 0b c0
       -32.8159 -31.538153 28.623987 -2.1739826
000330 84 da de bf 21 ad 24 41 9e a0 42 c1 81 4c 51 c0
       -1.7410436 10.292268 -12.164213 -3.2702944
000340 3d 9a 04 c2 a3 da ee c1 47 ce 82 c1 18 b7 78 41
       -33.150623 -29.856756 -16.350721 15.544701
000350 17 1f 48 40 5d 3b fb bd ea 48 06 c2 64 6b dd bf
       3.1268976 -0.12267182 -33.571205 -1.7298398
000360 2a d0 b9 c0 fa ea 29 c2 58 e3 09 c0 b3 03 92 c1
       -5.8066607 -42.47947 -2.154501 -18.251806
000370 7f 5f cd c0 9b 98 17 c2 53 af 10 c0 b9 ae 9e 40
       -6.417907 -37.89903 -2.260701 4.9588284
000380 ea 62 ae 41 3d 59 a7 c1 cc b7 98 c1 fb bf 25 c1
       21.798298 -20.918573 -19.089745 -10.35937
000390 93 59 2e c0 86 c0 6b 40 23 bc 43 40 fd 20 62 c1
       -2.7242172 3.6836257 3.058358 -14.133054
0003a0 d5 76 10 c1 0a 96 e1 40 9d b8 97 40 58 7f 2e 41
       -9.029012 7.0495653 4.741286 10.90609
0003b0 56 79 54 c0 75 2b ef c1 3c bb 29 c1 70 b9 b3 c1
       -3.3199058 -29.89622 -10.6082115 -22.465546
0003c0 97 7c 9f c0 d9 f6 ab c1 fc 5c b2 c0 45 7a e1 c0
       -4.9839587 -21.495531 -5.5738506 -7.0461755
0003d0 92 01 cb 40 df 6e dd 40 d9 09 19 c1 75 5c 9e c1
       6.3439417 6.919784 -9.564904 -19.795145
0003e0 92 b4 30 41 81 90 47 41 23 5f 08 c0 68 97 63 c2
       11.044085 12.472779 -2.1308067 -56.897858
0003f0 30 9d 91 c1 6c 33 97 41 e9 15 f3 c1 c0 93 af 40
       -18.201752 18.900108 -30.385698 5.486786

l2/b f4 [256]
000000 41 d7 fb 40 f9 e9 39 41 bf dd 34 40 11 63 67 41
       7.870026 11.619622 2.8260343 14.461686
000010 4a a6 31 3f b5 06 e7 3f 6e a0 34 bf d5 82 ac 40
       0.6939436 1.8048922 -0.70557296 5.3909707
000020 ef eb e2 40 33 61 7c 40 bc 84 40 41 07 f1 81 3f
       7.0913005 3.9434326 12.032406 1.0151681
000030 65 d9 a6 40 d3 8c a0 bf 0f b3 e0 40 b0 f8 45 bf
       5.2140374 -1.2542976 7.0218577 -0.7733259
000040 35 20 4b 40 3d f3 15 c1 8a bb d0 c0 6b ff f2 c0
       3.1738408 -9.371884 -6.522893 -7.593679
000050 a4 9d 83 41 db d2 8f 41 80 ed 46 41 88 2c 77 41
       16.451973 17.977957 12.432983 15.448372
000060 79 87 1b bd 3a b6 8e 41 e0 2f ac 41 3d 4b bb 41
       -0.037970994 17.838978 21.523376 23.411737
000070 c6 a9 8f 41 3f a9 78 bf 69 e4 a0 3e 43 26 9a 41
       17.957897 -0.9713325 0.31424263 19.268682
000080 ca 18 96 c0 c3 11 c7 41 00 5a 57 41 83 89 c0 40
       -4.690526 24.883673 13.459473 6.016786
000090 40 66 42 41 9a b8 2c 3f 6b 7e d2 3f 4a 9f 3a 40
       12.149963 0.6746918 1.644483 2.9159722
0000a0 de 49 50 41 a8 2e 1b 41 d2 c1 0b 41 a8 dc 9f 3f
       13.018034 9.698891 8.734819 1.2489214
0000b0 a6 9d 4d 41 28 f2 8d 41 83 96 40 41 59 40 cb 40
       12.850988 17.74324 12.036746 6.351605
0000c0 11 7f 95 c0 9e dc c2 40 88 e6 91 41 80 36 85 c0
       -4.671761 6.089431 18.237564 -4.162903
0000d0 2f ff 58 bf 31 8c 39 bf 24 19 4b 41 e2 8e 6b 41
       -0.8476438 -0.7247954 12.693638 14.7223835
0000e0 67 74 6d 41 69 b6 4a 40 f1 0a 64 41 ab ae 45 41
       14.840919 3.1673834 14.252671 12.355144
0000f0 e9 17 97 40 bd c0 69 40 05 10 03 40 bf df 8a 3f
       4.7216687 3.6523888 2.0478528 1.0849532
000100 9b a5 80 41 2b ed e6 c0 61 71 af c0 fb eb 0e 41
       16.080862 -7.216451 -5.48259 8.932612
000110 98 65 23 40 70 e2 61 c0 d6 44 ec 40 42 3f 0c c1
       2.5530758 -3.5294456 7.383403 -8.765444
000120 d4 9a 51 40 00 b2 81 be 00 04 b4 3f 7d 20 26 41
       3.275075 -0.25331116 1.4063721 10.382932
000130 81 89 66 41 a4 62 23 41 a2 0c b3 c0 5c 71 8d 41
       14.40857 10.211582 -5.595292 17.680351
000140 79 f8 4c 40 5f bc 3c 3f 1b 6f 8f c0 ab da ea bf
       3.2026656 0.7372493 -4.4823127 -1.8347982
000150 60 4b 51 c0 6b 42 43 41 8d b7 b3 3e c7 8f 4b 41
       -3.2702255 12.203715 0.35100976 12.722602
000160 3a f2 6a 41 e2 a3 aa 3e 56 2a 53 41 f5 3f a7 40
       14.684137 0.33328158 13.197836 5.2265573
000170 34 3d 85 41 e9 e4 46 41 56 80 56 41 96 62 61 41
       16.654884 12.430886 13.406332 14.086569
000180 85 c6 06 40 ff d1 da 40 7b c0 99 40 5e 49 31 c1
       2.1058667 6.8381343 4.804746 -11.080412
000190 d3 07 a3 41 e8 12 63 c0 b8 b7 73 40 f1 c1 44 41
       20.37882 -3.548029 3.8080883 12.297349
0001a0 fc 0e a1 41 ed 0b b4 41 93 a0 89 40 e2 d2 40 41
       20.132317 22.505823 4.3008513 12.051485
0001b0 61 29 4a bf 21 f6 93 41 2a ca 41 41 ae 42 a7 c0
       -0.7896939 18.49518 12.111856 -5.2268896
0001c0 97 fe 9f c0 f4 10 77 41 02 cf f1 be 4d 10 35 41
       -4.999828 15.441639 -0.47228247 11.31648
0001d0 90 38 b6 40 d7 8a a2 c0 17 de 59 41 49 be ef 3f
       5.6944046 -5.079448 13.616721 1.8729945
0001e0 ab d7 96 40 7d b2 44 41 2b 7b 6f 3f 5b cf 03 40
       4.7138267 12.293576 0.93547314 2.059531
0001f0 2e 8e 0f c1 ac 17 34 41 e3 6f 15 41 97 81 c1 c0
       -8.972212 11.255779 9.339816 -6.047069
000200 97 31 92 40 bf bd ac 40 a0 4f 0d 40 af ce ec 3f
       4.5685534 5.3981624 2.207985 1.8500575
000210 b2 22 c0 40 98 46 74 41 24 67 30 40 6a 1d 6b 41
       6.0042353 15.267235 2.7562952 14.694681
000220 4f 06 99 41 68 6c 53 c0 f6 7d 84 3f 66 ce a2 c0
       19.12808 -3.3034916 1.035094 -5.087695
000230 3e a2 72 41 83 fb 45 41 a7 8a 45 40 97 20 6e c0
       15.16461 12.373904 3.0865877 -3.7207391
000240 20 2e 82 c0 9c 43 2d 41 94 c3 87 41 82 db e1 c0
       -4.0681305 10.829006 16.970497 -7.0580454
000250 3b 0b 08 3f ad 9a 1d c1 08 fb 7b 40 5c 80 35 41
       0.53142136 -9.850263 3.9371967 11.343838
000260 73 b3 25 41 03 13 6d 3d 83 82 cb 40 39 48 85 41
       10.356311 0.05787946 6.3596816 16.660265
000270 c6 8e f5 40 10 0c 51 40 fc d0 94 40 94 2f 05 41
       7.6736784 3.2663612 4.650511 8.324116
000280 d0 20 a0 bf 10 0a 5c 41 fa a7 85 be ed 20 05 41
       -1.2510014 13.752457 -0.26104718 8.3205385
000290 4b 9c 91 3e e8 e4 4e 41 d5 59 8a 41 de ab ff c0
       0.28439555 12.930885 17.293863 -7.98973
0002a0 f9 30 7e 41 74 13 9c c0 ea af af 40 b8 38 4b 41
       15.886956 -4.8773746 5.490224 12.701347
0002b0 26 ae 61 41 c0 e7 4b 40 5a d6 76 41 63 8b b1 41
       14.105017 3.18602 15.427332 22.19306
0002c0 49 2d 89 40 6f f6 f6 c0 56 17 bf 41 86 f2 d8 c0
       4.286778 -7.717582 23.886395 -6.779605
0002d0 11 db 4b c0 fb ff a6 3f 29 54 19 3f ee 85 81 41
       -3.1852458 1.3046869 0.59894043 16.190395
0002e0 83 bb 6f 41 15 0d 4a c1 4a 9c a0 41 b0 30 56 41
       14.983279 -12.628194 20.076313 13.386887
0002f0 0f 4e 64 3f 5b f8 0f 41 42 a7 2a 41 27 23 65 bf
       0.8918161 8.998134 10.665834 -0.89506763
000300 c4 04 54 41 0f 71 ad c0 1a 36 2a 41 09 39 53 41
       13.2511635 -5.420051 10.638208 13.201425
000310 a8 b9 03 bf 96 1d cc 40 10 e5 91 41 2a 24 1d 3f
       -0.51455164 6.3786116 18.236847 0.61383307
000320 13 45 19 be b3 04 bd 40 19 9b 0b 40 26 81 7a 41
       -0.14967756 5.9068236 2.1813414 15.65653
000330 e4 5c 12 41 36 52 b6 40 03 a6 e0 40 19 32 85 c0
       9.147678 5.6975355 7.020265 -4.1623654
000340 77 d9 16 41 a1 00 e8 3e d6 51 5b c0 fb 0d 0d 40
       9.428092 0.4531298 -3.4268699 2.2039783
000350 75 b3 ab 3e e1 13 80 bd a4 45 5c 41 82 a1 89 41
       0.33535352 -0.062537916 13.767002 17.203861
000360 0b d5 d6 be fd 63 37 c0 91 7b 17 40 bc de 9a 40
       -0.41959414 -2.8654778 2.366917 4.8396893
000370 ce 9b 89 41 a2 03 8f 41 96 81 82 41 93 7b de bf
       17.201077 17.876774 16.313274 -1.7381462
000380 93 ad 5a 40 cc ea 9d c0 89 1e b5 41 46 1f 46 41
       3.4168441 -4.9349117 22.63991 12.382635
000390 27 af 2f 41 38 83 cf 3d eb 2e 8e c0 71 b1 43 41
       10.980262 0.1013245 -4.4432273 12.230821
0003a0 5e 94 3e 41 89 74 0e c0 86 cd 92 40 c9 23 0d 40
       11.911222 -2.2258627 4.5875883 2.2053092
0003b0 be a1 12 41 bc 6b c3 40 a7 58 e1 40 12 ac 37 41
       9.164488 6.106901 7.042072 11.479509
0003c0 06 ea c2 40 cc 56 3e 41 19 c4 72 41 e6 eb 0d 3f
       6.0910673 11.896191 15.172875 0.5543808
0003d0 7f 4f 89 41 52 1f 9c 40 e4 5e a7 41 11 47 78 3f
       17.163816 4.8788233 20.921333 0.9698344
0003e0 3c 29 4d 41 0e 78 2d 40 6b 34 d8 be ab 9c 50 41
       12.822567 2.7104526 -0.42227492 13.038249
0003f0 09 b6 7d 41 11 b8 bd 41 e1 4a 9d 41 1b 86 1f 41
       15.856942 23.714876 19.661562 9.970241

l4/W f4 [64, 256]
000000 d5 0c 4e 42 2a 15 25 42 ba 7d 1f 42 92 8c 80 42
       51.51253 41.270668 39.87278 64.27455
000010 bd 19 fd 41 cd e6 5e 42 1c 23 2d 42 01 b7 21 42
       31.637568 55.72539 43.284286 40.428715
000020 1d 88 03 42 3c 73 55 42 79 3c 1f 42 a1 27 88 41
       32.882923 53.362534 39.809055 17.01935
000030 b6 77 03 42 23 bc 15 42 0d 7c 84 42 37 7f 1b 42
       32.866905 37.433727 66.24229 38.874233
000040 d0 db 2d 42 7a 70 32 42 c2 20 2b 42 c8 9a 3f 42
       43.46466 44.60984 42.78199 47.901154
000050 31 77 03 41 08 01 db 41 95 1a 12 42 b1 00 5c 42
       8.216599 27.375504 36.52596 55.000675
000060 0b 1a 66 42 2c 0d 5e 42 29 72 57 42 08 42 21 42
       57.525433 55.512863 53.861485 40.314484
000070 7f b5 35 42 44 d3 61 42 67 90 64 42 e0 ee d1 41
       45.427242 56.456314 57.141018 26.241638
000080 00 76 4d 42 d4 10 19 42 81 2f 7d 42 e5 2a 35 42
       51.365234 38.266434 63.29639 45.29189
000090 99 ed 68 42 5e fe 47 42 0c da 42 42 a7 de 05 42
       58.23203 49.998405 48.712936 33.467434
0000a0 cc 02 b8 41 c3 47 80 42 57 42 48 42 8c 97 66 42
       23.001366 64.14016 50.064785 57.647995
0000b0 16 c8 38 42 a8 2e 62 42 71 de 1f 42 6d 6b 21 42
       46.195396 56.545563 39.967228 40.354908
0000c0 0e 31 2d 42 5c b0 3b 42 a4 09 3e 42 01 10 1b 42
       43.297905 46.922226 47.509415 38.76563
0000d0 50 02 85 42 88 ca 72 42 df 0d 2b 42 6c ae 59 42
       66.50452 60.697784 42.763546 54.420334
0000e0 65 41 36 42 aa 81 6c 42 84 42 41 42 61 59 05 42
       45.56386 59.126625 48.314957 33.337284
0000f0 1a e1 08 42 52 91 3d 42 c0 d0 12 42 0a 02 e1 41
       34.219826 47.391914 36.703857 28.125996
000100 30 46 7c 41 a5 f1 4f 42 1a 69 14 42 13 77 5e 42
       15.767136 51.98598 37.10264 55.616283
000110 ab b5 39 42 08 6f 80 42 12 a7 1d 42 84 83 c8 41
       46.42741 64.21686 39.413155 25.064217
000120 44 f5 43 42 ac 19 29 42 15 00 37 42 d8 4b 7c 42
       48.989517 42.27507 45.75008 63.074066
000130 dc c2 16 42 a4 e4 61 42 5a 93 2c 42 36 62 6a 42
       37.690292 56.47328 43.143898 58.59591
000140 70 de 2d 42 e2 6c 8b 42 b2 71 2b 42 cf fc 5a 42
       43.467224 69.71266 42.86103 54.746883
000150 a3 0c 07 42 2e 78 ef 41 46 10 6a 42 05 4d 62 41
       33.76234 29.933681 58.515892 14.143804
000160 32 c5 06 42 f0 77 53 42 bb 4e 42 42 f7 4a 1a 42
       33.692574 52.867126 48.576885 38.573208
000170 5a 27 49 42 51 80 1f 42 f9 85 58 42 68 a5 1f 42
       50.28843 39.87531 54.130833 39.91153
000180 2a 03 0f 42 d9 01 34 42 01 29 65 42 dd c7 17 42
       35.75309 45.001804 57.290043 37.94518
000190 5b 2a 1b 42 b2 24 20 42 dd f8 29 42 7e 28 49 42
       38.791363 40.035835 42.49303 50.289543
0001a0 a1 ea 26 42 e1 9c 04 42 16 83 c6 41 a5 dd 35 42
       41.72913 33.153202 24.814007 45.46645
0001b0 12 d5 47 42 c9 0a 72 42 11 35 1f 42 a3 64 2b 42
       49.958076 60.510532 39.801823 42.848278
0001c0 77 ba 3f 42 75 13 0a 42 87 e5 28 42 6d 39 2f 42
       47.932095 34.519 42.224148 43.80608
0001d0 14 d8 3b 42 c5 25 57 42 76 54 05 42 29 f7 8e 41
       46.961014 53.786884 33.33248 17.870684
0001e0 84 83 1c 42 c3 11 6b 42 2e e6 0b 42 2d b5 77 42
       39.128433 58.767345 34.974785 61.92693
0001f0 1a ae 40 42 90 f1 51 42 98 9b 5c 42 23 7b 5c 42
       48.17002 52.4859 55.151947 55.12025
000200 59 1e 6e 42 f2 c6 04 42 ca cb 37 42 2a da 17 42
       59.529636 33.194283 45.949013 37.96305
000210 12 4c 3c 42 de 07 35 42 56 66 4e 42 88 af 41 42
       47.074287 45.257683 51.599937 48.421417
000220 39 bf 24 42 ea ff 22 42 80 66 01 42 09 7a 58 42
       41.18674 40.749916 32.350098 54.119175
000230 21 9a 37 42 b6 35 28 42 59 1b f9 41 fe a3 0a 42
       45.900517 42.052452 31.138353 34.66015
000240 2c 3f 3d 42 85 00 3f 42 95 69 2b 42 08 65 04 42
       47.31169 47.750507 42.853107 33.098663
000250 fc 69 1f 42 4a 14 03 42 cf 26 09 41 3b 0d 1a 42
       39.8535 32.769814 8.571975 38.51292
000260 c7 46 5f 42 bb 5b 37 42 87 0f 5b 42 ed 1b 03 42
       55.81912 45.83958 54.765163 32.77727
000270 2a 69 cf 41 19 4e 38 42 6b 26 5c 42 f3 2a 41 42
       25.92635 46.076267 55.037518 48.291943
000280 d1 7b e7 41 c3 6e 5b 42 06 fa 3a 42 79 52 4c 42
       28.935457 54.858166 46.744164 51.08054
000290 48 20 bf 40 4b a6 c5 41 97 2a 2a 42 c8 ed 47 42
       5.9726906 24.706198 42.54159 49.98221
0002a0 8c 10 5b 41 54 f4 37 42 16 d9 44 42 90 aa 81 42
       13.69154 45.9886 49.211998 64.83313
0002b0 f5 60 41 42 dc a9 53 42 a3 3a 1e 42 17 04 e1 41
       48.344685 52.91588 39.557262 28.126997
0002c0 f0 b2 56 42 26 df 51 42 04 84 15 42 68 f6 5b 42
       53.674744 52.46792 37.37892 54.99063
0002d0 98 67 1e 42 f3 19 4b 42 10 9f 10 42 aa 11 41 42
       39.601166 50.77534 36.155334 48.26725
0002e0 a6 2a 4f 42 13 9e 02 42 6c 1d 3c 42 9f dd a5 41
       51.79165 32.65437 47.028732 20.733213
0002f0 37 2c 83 42 21 75 7e 42 f9 b6 20 42 a3 44 68 41
       65.58636 63.614384 40.178684 14.516757
000300 49 eb 41 42 3b 69 4d 42 01 9e 2b 42 b9 44 2f 42
       48.47977 51.352764 42.9043 43.817112
000310 da 5a 2d 42 3a e1 41 42 74 35 5d 42 c0 02 4d 42
       43.338722 48.469948 55.3022 51.252686
000320 ea 57 12 42 e4 33 43 42 52 fc 1c 42 bc 63 a0 41
       36.585854 48.800674 39.246407 20.048698
000330 51 a4 74 42 da 80 15 42 5e 6c 0b 41 99 69 37 42
       61.160465 37.37583 8.713957 45.853123
000340 ba 1e 87 42 e4 02 79 41 85 23 2c 42 38 24 5b 42
       67.56001 15.563206 43.034687 54.78537
000350 56 47 a8 41 c1 b4 5a 42 bc 27 32 42 0e ec 5d 42
       21.034832 54.676517 44.538803 55.480522
000360 78 1f 36 42 83 af e8 41 2e f9 63 42 af fa 38 42
       45.53073 29.0857 56.99334 46.24481
000370 0f 3e ae 41 dd c3 38 42 f1 d8 35 42 42 4f 2d 42
       21.780302 46.191273 45.461857 43.3274
000380 b7 14 61 42 7b 8c 24 42 b4 61 56 42 92 5a 43 42
       56.27023 41.137188 53.595413 48.838448
000390 ef a3 5e 42 ca 99 43 42 e7 c1 18 42 7f d6 58 42
       55.66009 48.900185 38.189358 54.20947
0003a0 bf 3c 50 42 5d ec 3e 42 57 fb 86 41 7a 08 e1 41
       52.059322 47.730824 16.872725 28.129139
0003b0 ac 06 6b 42 d2 c2 7c 42 c0 9e ec 41 b3 2d c3 41
       58.756516 63.190254 29.577515 24.397314
0003c0 ac 6e 36 42 e1 10 62 42 92 ec 0b 42 c5 3d 60 42
       45.608078 56.516483 34.981026 56.06032
0003d0 6b f9 37 42 d4 40 82 42 da 09 50 42 5a de 48 42
       45.993572 65.12662 52.00962 50.21714
0003e0 b4 b5 39 42 65 44 25 42 4e 65 38 42 65 de 06 40
       46.427444 41.31679 46.09893 2.107324
0003f0 a0 c7 45 42 7d 31 84 42 66 80 25 42 dd 6e 3c 42
       49.444946 66.09666 41.37539 47.108265

l4/b f4 [64]
000000 66 8f bf c2 6e 83 bf c2 2f 92 bf c2 11 86 bf c2
       -95.780075 -95.7567 -95.785515 -95.76185
000010 30 8f bf c2 54 91 bf c2 04 90 bf c2 55 83 bf c2
       -95.77966 -95.783844 -95.78128 -95.75651
000020 4b 84 bf c2 84 95 bf c2 46 8c bf c2 22 80 bf c2
       -95.758385 -95.79202 -95.77397 -95.75026
000030 02 9d bf c2 dc 96 bf c2 44 96 bf c2 1b 83 bf c2
       -95.806656 -95.79465 -95.79349 -95.756065
000040 30 88 bf c2 cf 91 bf c2 19 87 bf c2 4f 94 bf c2
       -95.76599 -95.78478 -95.76386 -95.789665
000050 c2 8a bf c2 57 86 bf c2 fd 91 bf c2 45 89 bf c2
       -95.77101 -95.76238 -95.78513 -95.768105
000060 9d 92 bf c2 84 9d bf c2 9d 89 bf c2 74 93 bf c2
       -95.786354 -95.80765 -95.768776 -95.787994
000070 71 90 bf c2 be 8d bf c2 87 96 bf c2 42 8c bf c2
       -95.78211 -95.77684 -95.794 -95.77394
000080 83 8c bf c2 b6 91 bf c2 1d 8e bf c2 75 90 bf c2
       -95.77444 -95.78459 -95.777565 -95.78214
000090 78 85 bf c2 70 81 bf c2 bf 86 bf c2 9a 8d bf c2
       -95.76068 -95.75281 -95.763176 -95.776566
0000a0 0b 91 bf c2 75 91 bf c2 fb 88 bf c2 04 82 bf c2
       -95.78329 -95.784096 -95.76754 -95.75394
0000b0 c5 93 bf c2 76 8e bf c2 be 87 bf c2 ee 8a bf c2
       -95.78861 -95.778244 -95.76512 -95.77135
0000c0 19 80 bf c2 a4 8a bf c2 b2 85 bf c2 ee 7f bf c2
       -95.75019 -95.77078 -95.76112 -95.74986
0000d0 29 9b bf c2 21 97 bf c2 d4 9b bf c2 ac 87 bf c2
       -95.80305 -95.79517 -95.80435 -95.764984
0000e0 a1 82 bf c2 73 92 bf c2 60 87 bf c2 bd 8d bf c2
       -95.755135 -95.78603 -95.764404 -95.77683
0000f0 61 8b bf c2 46 97 bf c2 29 8c bf c2 e2 8c bf c2
       -95.772224 -95.795456 -95.77375 -95.77516

l3/W f4 [256, 256]
000000 dd a7 dc 40 b9 62 c1 40 44 c3 82 40 f9 7c ea 41
       6.895491 6.043301 4.086336 29.311022
000010 1f 83 02 c2 36 ad 33 41 de 6c 0a 41 9c 71 6b 41
       -32.628048 11.229788 8.651579 14.715237
000020 0b 05 02 42 e9 44 00 42 62 fa f1 c0 10 16 fc 40
       32.504925 32.067295 -7.5618143 7.877693
000030 0f 5c a9 41 9b 3d 63 c1 13 c3 a3 c1 3b 4a 80 c1
       21.16995 -14.20254 -20.470251 -16.036245
000040 96 1f 04 be bb 4a 0e c2 c0 82 43 c2 d3 6c c0 c1
       -0.12902674 -35.57298 -48.877686 -24.053137
000050 17 27 0b 42 da 09 43 41 73 1c 9f 40 57 c2 dc 41
       34.788174 12.189905 4.972223 27.594893
000060 5c d8 80 41 e0 6e ff 41 82 30 fb 41 26 82 1c 41
       16.105644 31.929138 31.398685 9.7817745
000070 c5 d7 6d 42 e6 19 88 c1 4b ca 48 41 93 5d a7 41
       59.460712 -17.012646 12.549388 20.92069
000080 41 20 b7 c1 51 9a 6b 41 02 12 9a 41 60 06 7f 41
       -22.890749 14.725175 19.258793 15.939056
000090 ff d3 9e c1 8c 3b 2d 41 3e 46 53 41 0a a8 90 41
       -19.853514 10.827038 13.204649 18.08205
0000a0 d8 6e 19 40 ee b1 96 41 76 28 64 c1 f8 ce 4f 41
       2.3973904 18.83688 -14.259878 12.9880295
0000b0 46 fd 69 41 e8 e4 50 40 cc ff a4 c1 16 8a bb 41
       14.624334 3.2639713 -20.6249 23.442425
0000c0 8d 42 10 c1 39 6d 2d c1 48 59 09 42 f9 f9 0d c1
       -9.016248 -10.839166 34.33719 -8.8735285
0000d0 03 65 2e 41 06 67 9c 40 35 5f d7 40 d6 05 07 42
       10.899661 4.887576 6.730372 33.7557
0000e0 20 bf 9f 41 2e 55 b4 41 dd b7 52 41 a1 c5 8d 41
       19.968323 22.541592 13.1698885 17.721498
0000f0 55 56 94 40 c1 62 64 c0 49 8a 02 41 34 2d f3 40
       4.6355386 -3.5685275 8.158761 7.599268
000100 f1 73 9b 41 5b 34 a1 41 fb 0e 16 42 e6 c3 0d c2
       19.431612 20.150564 37.51463 -35.441307
000110 ce bc d2 bf a7 9e 79 41 64 08 87 41 ee 64 4c c1
       -1.6463869 15.6012335 16.879097 -12.774641
000120 fd 8f 38 c0 c2 80 a2 41 9d 03 6e 41 f4 6f 98 41
       -2.8837883 20.31287 14.875882 19.054665
000130 03 68 89 c1 e2 b4 50 40 37 9d 79 41 e6 1b 08 42
       -17.175787 3.2610402 15.600883 34.027245
000140 11 f7 fe 40 47 3c 32 41 1e 5a 70 c1 70 ac f7 c1
       7.9676595 11.139716 -15.022001 -30.959198
000150 44 0d ae 41 c6 9d 24 42 fb 05 5d 41 32 e8 17 42
       21.756477 41.154076 13.81396 37.976753
000160 99 37 40 42 1c 66 3e 41 94 49 44 42 d2 96 f5 40
       48.054295 11.899929 49.071854 7.6746607
000170 7d 7f 16 41 ab 3e b0 41 62 56 63 c1 29 9d 45 42
       9.406125 22.0306 -14.20859 49.403477
000180 1a 04 56 41 3e 40 70 41 08 b6 57 c0 bc 8c a1 c1
       13.376001 15.015684 -3.3704853 -20.193718
000190 88 b9 9f c1 41 71 01 41 2d b6 35 41 c8 2b 33 41
       -19.965591 8.09015 11.3569765 11.198189
0001a0 33 be d0 41 50 60 57 42 ba 92 17 41 b8 fa 37 42
       26.09287 53.844055 9.473322 45.994843
0001b0 33 7e 66 41 78 97 a0 40 62 51 3e c0 80 68 1f c2
       14.40581 5.01849 -2.9737172 -39.85205
0001c0 0c 00 6e c2 1c 20 ee 41 c8 e2 fd 40 23 ca c0 c0
       -59.500046 29.765678 7.9339333 -6.024675
0001d0 80 58 e6 40 86 58 6a c2 cd d3 cc 41 9e a7 2c c1
       7.198303 -58.58645 25.603418 -10.790922
0001e0 c7 51 ec 41 b9 f6 68 41 44 45 05 c2 0e 77 4f 3e
       29.53993 14.560235 -33.317642 0.2026026
0001f0 5d e4 14 c2 fe f0 55 41 38 0e fd c0 29 2d 10 c2
       -37.22301 13.371336 -7.9079857 -36.0441
000200 ef bf b9 41 85 3e 60 41 b0 01 97 41 9e 6c a4 40
       23.218718 14.015264 18.875824 5.138259
000210 55 98 d8 40 5e 23 09 c0 a7 03 71 41 0f fd c5 41
       6.768595 -2.1427836 15.063392 24.748564
000220 88 85 80 3f 7d 8a 83 c1 a5 ca 00 c1 5f 83 2e c1
       1.004075 -16.442621 -8.049474 -10.907073
000230 64 19 d6 bf a2 0e 2e 42 e1 f5 6f 41 50 01 de bf
       -1.6726499 43.51429 14.997529 -1.734415
000240 38 1f 29 c2 49 2f b4 c1 76 77 fd c0 7a 22 7c 3f
       -42.280487 -22.523088 -7.9208326 0.9849011
000250 ae aa c9 c1 6b 4a 54 c2 40 97 2a 41 d3 e1 9d 41
       -25.20834 -53.072674 10.661926 19.735266
000260 49 9c 39 42 48 bf 4b 41 bd 61 52 41 d1 4f 20 41
       46.402622 12.7342 13.148862 10.019486
000270 70 35 3c 40 6e 27 aa 41 6c e2 84 41 53 42 3c 41
       2.9407616 21.269253 16.610558 11.766192
000280 30 64 9b c1 1a ef 4d 41 4f 41 f6 c1 92 88 63 41
       -19.42392 12.870874 -30.781889 14.220842
000290 b4 4a 17 41 ff 7f 86 41 7b 55 ef 41 6b 15 d9 c1
       9.455738 16.812498 29.916739 -27.135458
0002a0 1a 16 3f 41 af 6f 34 42 a9 11 5c bf 18 62 96 40
       11.942896 45.109066 -0.8596445 4.6994743
0002b0 15 2f e6 40 ce d3 0e 42 09 b5 07 c1 67 5a 81 41
       7.1932473 35.70684 -8.481698 16.169142
0002c0 c6 a3 d0 40 04 4b 23 c2 df 8f c6 bc 59 8f ef 3e
       6.519992 -40.823257 -0.024238525 0.46789053
0002d0 5d 8f 85 c2 25 97 61 41 f4 05 5e 41 5b e8 ca 41
       -66.78001 14.0994005 13.876453 25.363455
0002e0 2a 1d 5f c1 f1 69 68 c1 e7 9e 89 40 8c 80 cb bf
       -13.94462 -14.525865 4.3006473 -1.5898604
0002f0 bd 88 fd c1 be ff a1 41 8e fc a4 c0 a3 11 6a c1
       -31.691767 20.249874 -5.1558294 -14.629306
000300 05 3f 0a 42 70 ca b4 40 4c 97 b4 c1 1a d6 b4 41
       34.561543 5.6497116 -22.573875 22.604542
000310 14 89 bf c1 5c f5 3f 41 42 b0 2e 41 d2 8f 1b 41
       -23.941933 11.997402 10.918032 9.722612
000320 98 29 34 3f 3b 69 3c 41 ed 37 39 41 32 15 ce 41
       0.7037597 11.775691 11.576154 25.76035
000330 6f 55 59 c1 2f 18 b6 41 21 74 47 41 b9 56 d7 c1
       -13.583358 22.761808 12.465852 -26.917345
000340 75 f2 32 42 fc e1 f7 41 f0 c6 79 c0 50 d7 1c 41
       44.736774 30.985344 -3.9027672 9.802567
000350 9b 9e 24 41 b2 69 3a 41 0f 15 78 40 75 5a 1e 42
       10.288722 11.6508045 3.8762853 39.588337
000360 6c 32 52 c1 15 aa 16 c2 bf 8b 01 bf 8b 38 cc 41
       -13.13731 -37.666096 -0.5060386 25.527609
000370 bb c0 b3 41 fe 54 68 41 b2 b3 4a 41 3d 45 58 41
       22.469107 14.52075 12.668871 13.516904
000380 94 2a 71 bf 03 bb f6 c0 a7 ab 91 c1 84 ad b9 40
       -0.94205594 -7.7103286 -18.208815 5.802431
000390 bd d6 14 41 b6 ee 40 41 93 7e 15 c2 cb 4a 13 41
       9.302426 12.058279 -37.373608 9.20576
0003a0 4a da ba 41 45 2d 0b c2 90 e8 84 41 46 fc a3 41
       23.356586 -34.79421 16.613556 20.49818
0003b0 44 75 55 42 da ee f7 40 32 b6 bf 3e ae 5b 5f 41
       53.364517 7.7479067 0.37443691 13.959883
0003c0 cc 7b 81 41 1b e4 89 41 c2 38 8e 41 cf b7 2f 41
       16.185448 17.23638 17.777714 10.982375
0003d0 26 01 ac 40 b9 3c 2a 41 92 af 15 42 97 6d 80 41
       5.37514 10.639825 37.421455 16.05351
0003e0 f1 f1 10 41 b6 04 84 41 6f fb 11 41 48 3d f9 41
       9.059068 16.5023 9.123885 31.154922
0003f0 9a ff 0a 42 66 94 c7 41 43 87 91 41 9b 1f 46 41
       34.74961 24.94746 18.191046 12.382716

l3/b f4 [256]
000000 30 37 a9 41 24 4b eb c0 31 02 15 3e db 87 94 41
       21.151947 -7.3529224 0.14551617 18.566336
000010 bb dd de 40 50 c9 b8 41 c7 c1 05 41 3b d8 90 40
       6.9645667 23.098297 8.359809 4.5263953
000020 e0 85 57 41 b7 75 4f 41 62 4e 33 c0 2a 0b 1b 42
       13.470184 12.966239 -2.801659 38.760902
000030 bc 2e 09 40 cc 0d 46 41 cb 5a 32 41 7c 10 e8 3f
       2.1434774 12.378368 11.147166 1.8130031
000040 5c 84 64 bf e1 a3 8e 41 22 78 2e 41 6d 18 89 41
       -0.89264464 17.830019 10.904329 17.136927
000050 36 d7 96 41 ba 38 0a 41 8f da 7a 40 e8 75 b5 41
       18.855083 8.638849 3.9195898 22.682571
000060 2f de 8e 40 b7 e8 2c 41 a8 24 94 41 c8 64 fa 40
       4.464622 10.806815 18.517899 7.8248024
000070 b7 90 66 bf 73 76 24 41 23 83 ac 41 ab b6 1b 41
       -0.9006457 10.278918 21.564032 9.732097
000080 b8 6e 57 41 3f 5e 12 41 d9 2f 16 41 b5 35 c7 40
       13.464531 9.148009 9.386682 6.225306
000090 ca 5d f6 41 2e f0 ca 41 7d ba 15 41 6b 9a 5a 41
       30.795795 25.367275 9.358029 13.6627
0000a0 20 48 e2 3e 12 be a6 41 47 d0 33 41 6e c7 41 41
       0.44195652 20.842808 11.238349 12.111189
0000b0 3a 46 d5 3e 50 1d d5 41 9e 3b 39 c1 76 33 fe 40
       0.4165514 26.639313 -11.577055 7.943782
0000c0 63 e9 a1 3e 20 56 2e 41 17 50 9f 40 f5 e5 c5 40
       0.31623372 10.896027 4.9785266 6.184321
0000d0 c0 ec 9d 41 c3 c7 f1 41 ea d0 a0 40 4b ba 57 41
       19.7406 30.22254 5.025502 13.482982
0000e0 1b 6a db bf 32 9c d0 41 f3 b5 a1 40 92 7e 99 40
       -1.7141756 26.076267 5.0534606 4.7967005
0000f0 1e 5f 6e 41 f9 24 38 41 44 df 2c 41 1d 84 36 3f
       14.898222 11.509027 10.804508 0.7129534
000100 60 f2 a3 41 84 1f 1d 41 39 01 13 41 fd b4 e2 41
       20.493347 9.820194 9.1877985 28.338373
000110 f8 7d 40 41 a4 c2 8f 41 bd 8b ac 41 ba 26 df 41
       12.030754 17.97004 21.568232 27.89391
000120 60 4e 99 be 9c b2 bd 40 5c 57 42 41 2e 59 0d 40
       -0.29942608 5.928053 12.146328 2.208568
000130 3d a6 81 41 35 eb e3 41 37 89 25 41 a6 b4 af 41
       16.206171 28.489847 10.346 21.963207
000140 c0 dd 29 41 d4 cf 0b 41 02 a0 f6 40 3a f3 d4 41
       10.616638 8.738239 7.707032 26.618763
000150 08 01 00 41 e4 b6 18 40 a0 71 39 41 b9 b8 b7 40
       8.000252 2.3861628 11.5902405 5.741299
000160 39 f5 96 40 f2 72 7f 41 4d b6 fe 40 96 f2 a6 40
       4.7174344 15.965563 7.9597535 5.2171125
000170 7b 06 e6 41 28 15 57 41 33 63 c8 41 06 25 9b 41
       28.753164 13.442665 25.048437 19.393078
000180 db d8 df 41 97 be 32 41 5b 26 c2 41 44 e1 c1 3f
       27.980886 11.171531 24.268728 1.5146871
000190 9e 0a 40 bf 1c 7f 52 41 0a 4f 6a c1 8b 90 cf 41
       -0.750162 13.156033 -14.644297 25.945578
0001a0 db d0 0b bf 6a 5e 68 40 8d f3 c0 3f e9 25 e0 41
       -0.54615563 3.6307626 1.5074326 28.01851
0001b0 a7 33 a0 41 6a c2 c1 41 1d 79 bb 40 a3 b8 7c c0
       20.02522 24.219929 5.8585343 -3.9487693
0001c0 1d de 5f 41 58 63 8c 41 89 c4 05 c0 c2 01 81 c0
       13.991727 17.548508 -2.0901206 -4.0314646
0001d0 11 01 10 41 14 62 5a 41 8e fd 6e 41 52 80 b3 c0
       9.00026 13.648945 14.936903 -5.609414
0001e0 da b8 8d 41 f6 07 ae 3f 9f e8 b0 40 39 c3 a1 41
       17.71526 1.359618 5.528396 20.220324
0001f0 0f 6d 46 40 b0 ff 10 41 04 15 21 41 45 c0 44 41
       3.1004064 9.062424 10.067631 12.296941
000200 f9 e3 c3 41 b5 10 b9 41 cd a6 40 c0 d4 31 df c0
       24.486315 23.133158 -3.0101807 -6.9748325
000210 5d 44 33 41 00 60 0f 41 05 32 8e 41 0b ce 11 41
       11.20419 8.9609375 17.774424 9.112803
000220 87 2c 29 41 20 98 ff 40 c1 c3 25 41 26 d1 df 41
       10.573371 7.98732 10.3602915 27.977123
000230 ec ca 99 40 8c e4 0a 41 cb 42 ab c0 d1 22 b3 40
       4.8060207 8.680798 -5.3519034 5.598
000240 72 d2 bc 41 01 0e 1a 40 d4 08 d7 40 e6 d9 22 c1
       23.602757 2.4071047 6.7198277 -10.178198
000250 7e e3 82 40 b3 aa b5 bf c6 fb 43 41 92 87 eb 3f
       4.09027 -1.4192718 12.248968 1.8400748
000260 ab ac f8 41 85 b0 2e 41 ec 08 9d 41 f7 9f 8b 41
       31.08431 10.918096 19.629356 17.453108
000270 d6 23 e3 41 84 32 04 41 39 73 b2 40 59 e1 49 40
       28.392498 8.262333 5.5765653 3.1543791
000280 02 bf b0 41 79 a7 e0 41 e1 52 1d 3e ee 61 8e c0
       22.093266 28.081774 0.15363647 -4.4494543
000290 f2 c9 cc 41 2d ab f7 40 66 2a a4 40 2a b5 98 41
       25.598606 7.7396455 5.1301756 19.088459
0002a0 a2 bf e7 41 80 54 22 41 6e 2a d6 41 80 c3 9f 41
       28.96857 10.14563 26.770718 19.970459
0002b0 dc 58 aa 41 a9 ed 1a 41 e6 44 79 41 71 7c 12 41
       21.293388 9.6830225 15.579321 9.155381
0002c0 a3 66 a4 41 32 0b 2e 41 a8 8e 9f 40 7b c6 5f 41
       20.550116 10.877733 4.986164 13.985957
0002d0 01 b6 5a 41 88 83 53 41 e6 8f 23 41 c0 01 db 40
       13.669435 13.219612 10.222631 6.8439636
0002e0 e4 ee 61 41 aa ff 2e 41 f5 65 93 40 ad fe c6 41
       14.120823 10.937418 4.606196 24.874353
0002f0 f6 af 1c 41 2f f5 9e 41 3f 70 05 41 ca 58 af 41
       9.792959 19.869719 8.339904 21.918354
000300 8e ab c1 41 b2 04 9f 41 00 6d 9f 41 30 89 ca c0
       24.208767 19.877293 19.928223 -6.3292465
000310 89 89 8b 41 39 73 77 40 25 e2 a2 41 8b 75 1a 41
       17.442156 3.8664076 20.360422 9.653697
000320 4b c3 a3 40 2f 62 3a 40 7b f9 72 41 59 cb 91 3f
       5.1175895 2.9122427 15.185908 1.1390182
000330 22 5b cc 41 9f c0 94 40 04 b0 c9 41 62 60 f3 40
       25.544498 4.6485133 25.210945 7.6055155
000340 e8 ad 3d 41 94 9e e9 41 25 99 c2 40 be 22 3d 41
       11.854958 29.20243 6.0811944 11.820982
000350 0e 24 1a c0 38 5f bc 40 74 13 ea 40 fc 6d d6 41
       -2.4084506 5.8866234 7.3148746 26.803703
000360 fd 8a 24 41 a3 52 db 40 21 75 ca 41 88 2e 24 41
       10.283933 6.8538375 25.307192 10.26136
000370 3e 1a e5 41 96 40 54 41 8d c1 66 41 52 0f 30 41
       28.637814 13.265768 14.422254 11.00374
000380 8e 7a f4 41 82 54 a8 40 5f fe e7 41 6f f9 10 41
       30.559841 5.260316 28.999205 9.060897
000390 e8 6f ed 41 30 aa 81 40 11 a8 80 bf 3b b8 81 41
       29.679642 4.052025 -1.005129 16.214956
0003a0 28 bd 69 41 e8 ee 2b 41 a2 9d 88 41 07 50 be 41
       14.608681 10.745827 17.07697 23.789076
0003b0 04 3a 02 42 7c 4c b7 41 85 62 89 41 97 cf cf 41
       32.556656 22.912346 17.173105 25.976362
0003c0 47 e9 76 41 86 aa d2 41 dd d0 4d c0 f6 eb 93 41
       15.431952 26.333263 -3.215873 18.490215
0003d0 37 6e 67 41 15 c4 90 41 7e d5 ee 41 fc a8 a3 41
       14.464408 18.095743 29.854244 20.457512
0003e0 95 4f 1c 41 e6 6e 24 41 36 a6 52 41 3f e1 1b 43
       9.769429 10.277075 13.165579 155.87987
0003f0 48 6a ce 40 35 eb 05 42 ba ef 38 41 2f 7d 7d 41
       6.450474 33.479694 11.558527 15.843062

l1/W f4 [256, 64]
000000 33 32 a3 c1 fb e6 15 c2 64 cb 57 41 4a 1d 6a c0
       -20.399511 -37.475567 13.487156 -3.6580377
000010 4a fb af c1 83 59 0a c1 d9 6e 86 3f 3b 26 a4 40
       -21.9977 -8.646853 1.0502578 5.129667
000020 22 6f b4 40 c5 53 bc 3e 73 a6 a5 c0 99 dc ab c0
       5.638566 0.3678266 -5.1765685 -5.3706784
000030 89 82 94 c0 02 03 fb 3f c5 8a 0f 40 96 7d 3e 41
       -4.6409345 1.9610293 2.2428448 11.905661
000040 74 d3 53 c2 61 3c b4 c1 0a 92 16 41 91 e7 d8 c0
       -52.956497 -22.529482 9.410654 -6.7782674
000050 00 af 8b 41 7b 2e 2d c1 d0 26 4c 40 c7 14 97 c1
       17.46045 -10.823848 3.189869 -18.885145
000060 31 5a 45 c1 62 f0 64 3f 0e 1b 48 3f c9 82 14 41
       -12.334519 0.89429295 0.7816628 9.28193
000070 cc dc 35 c1 f1 21 9b 40 7e 43 73 c2 42 03 83 c1
       -11.3664055 4.847893 -60.81591 -16.37659
000080 84 f2 5c c1 be f7 de c0 b9 7f 1d 40 34 aa 58 c0
       -13.809208 -6.967742 2.4609206 -3.3853884
000090 1e 1c 08 c0 8b 7c 22 c1 bb 2a 02 c2 ef a4 88 c1
       -2.1267161 -10.155406 -32.54173 -17.080534
0000a0 33 8c 4d 41 5d f3 ab c0 b1 e4 18 c1 73 0f c3 40
       12.846728 -5.3734574 -9.555833 6.095636
0000b0 24 59 73 41 9d ee c8 40 87 ec 24 c2 48 c1 cc c1
       15.209263 6.2791276 -41.230984 -25.594376
0000c0 c5 82 bb c1 a9 a0 e8 40 26 38 d9 c0 fb 53 3b c1
       -23.438852 7.269612 -6.788104 -11.708003
0000d0 a4 59 00 41 32 d0 24 41 a5 a5 24 c1 c9 65 39 c2
       8.021885 10.300829 -10.290441 -46.3494
0000e0 70 a0 86 c1 5b 40 0d c0 c3 51 32 41 10 78 2b 3f
       -16.828339 -2.207053 11.144961 0.66980076
0000f0 c5 13 0a bf 91 01 69 41 64 9c 2a 41 ff ef 95 c1
       -0.53936416 14.562882 10.663181 -18.742186
000100 5a 70 92 c0 ef de 08 41 a8 42 81 41 47 ef f2 c0
       -4.576215 8.554427 16.157547 -7.5917087
000110 21 ad a6 c1 ca 6e e1 40 2e 2d 35 40 8a 90 07 c0
       -20.834536 7.044774 2.8308825 -2.118197
000120 ea 8a 02 c2 f6 88 85 40 db b3 f0 40 a4 55 a1 3f
       -32.63566 4.172969 7.521955 1.260426
000130 ac 98 1b 41 5d be ec 40 f0 75 87 40 3a 04 88 c1
       9.724773 7.3982377 4.2331467 -17.002064
000140 58 08 89 3f ad 24 d9 40 c1 7a d2 40 03 f4 d7 bf
       1.0705671 6.785727 6.5774846 -1.6871341
000150 df d8 3f 40 30 b8 94 c1 9e 08 29 40 34 25 b7 c1
       2.9976118 -18.589935 2.641151 -22.893166
000160 35 e5 09 42 9a 14 43 41 6c c7 90 40 56 3f c5 3f
       34.473835 12.19253 4.5243435 1.5409954
000170 23 36 ee bf 76 46 0b 41 59 cb 37 c2 33 53 f6 c1
       -1.8610271 8.704702 -45.94858 -30.790625
000180 c3 7c 91 41 c9 d4 79 41 46 22 96 bf 64 1a a8 3d
       18.185919 15.6144495 -1.172921 0.082081586
000190 04 d5 e0 3f 0f 3f 05 41 08 89 91 c1 13 67 f4 c0
       1.7565007 8.327895 -18.19191 -7.6375823
0001a0 e5 d5 11 41 4f a0 89 c1 47 e5 94 c1 ba 01 0c 41
       9.11472 -17.203276 -18.611952 8.750422
0001b0 dd 83 3b c1 6b 72 33 41 3c 55 97 41 aa d2 a4 41
       -11.719693 11.215434 18.916618 20.602863
0001c0 39 14 5b c1 32 ba 01 c2 a9 5b 0b c1 87 8f 06 41
       -13.692437 -32.43183 -8.709878 8.410041
0001d0 a6 d1 8c 41 b4 7e 62 bf 63 60 52 c1 e9 bb 25 c0
       17.602367 -0.88474584 -13.148532 -2.5895941
0001e0 11 05 46 c2 02 9e 91 c1 dc 41 e1 c1 9b 70 78 c0
       -49.504948 -18.202152 -28.157158 -3.881873
0001f0 f3 5e 7f 41 1e c0 e8 40 1d 21 9f 40 71 19 20 c1
       15.960681 7.273452 4.972792 -10.006211
000200 f1 27 c8 41 d9 76 3a c1 d3 aa 73 be 31 f7 4f 41
       25.019503 -11.654016 -0.23795633 12.997849
000210 b4 81 1d 41 95 a2 ca 41 9a 9e bc 41 90 46 f9 40
       9.844166 25.329386 23.577442 7.7898636
000220 18 93 a8 40 a7 e6 14 41 5c 40 87 c0 e0 2d 25 41
       5.267956 9.306312 -4.2266064 10.3237
000230 f1 d0 86 c0 37 c2 a3 bf 21 96 f5 be 6e 0b 22 c1
       -4.2130055 -1.2793645 -0.47966102 -10.12779
000240 2e 99 6a 40 30 6d 3f bf f0 b7 2c 41 17 6d 3e c1
       3.6655993 -0.7477598 10.794907 -11.901633
000250 3c d9 63 41 61 0c b0 bf 5f 1b a5 41 31 8d 9d c1
       14.240536 -1.3753778 20.638365 -19.693941
000260 46 7a 93 41 13 82 8e 41 79 fd 80 3f 48 a7 29 c1
       18.434704 17.813513 1.0077354 -10.60334
000270 ae 84 18 40 0d 83 fa c0 44 5e 05 c0 54 54 a1 3f
       2.3830981 -7.8284974 -2.0838785 1.260386
000280 0c db 57 c0 23 23 4b 40 55 de 21 c0 68 72 97 c0
       -3.3727446 3.1740196 -2.529195 -4.7327156
000290 18 ae 10 c0 e5 82 40 c1 3e 2a a3 3f 68 2f 0c 41
       -2.2606258 -12.031957 1.2747266 8.761574
0002a0 2f f7 47 41 99 f2 e5 40 34 eb b5 3f 09 b8 2e c1
       12.497848 7.185864 1.4212403 -10.91993
0002b0 1b ad 6b c0 8b 89 6f c0 76 a3 08 bf 41 0f 1e 41
       -3.6824405 -3.74277 -0.5337442 9.878724
0002c0 88 63 c5 c0 95 20 fc 40 74 c2 21 41 64 0c ef c0
       -6.1684 7.8789773 10.109974 -7.4702625
0002d0 f0 44 9a 41 72 7e f9 40 a9 af 1d c1 a5 88 5c 3f
       19.28366 7.796685 -9.855386 0.86146003
0002e0 a0 36 5b c1 0e d8 94 40 6f b6 69 c1 08 03 90 41
       -13.700836 4.651374 -14.607039 18.00148
0002f0 d7 6a 01 40 9e 89 b2 41 bb 08 02 42 10 ee 40 41
       2.022146 22.317196 32.508526 12.058121
000300 82 7d be c1 7b 93 8b c0 f5 db 1f c2 c6 d5 19 41
       -23.811283 -4.361753 -39.9648 9.614691
000310 e4 ad b6 40 31 73 9f c1 ea 45 35 41 36 26 1d c1
       5.708727 -19.931246 11.329569 -9.821829
000320 77 c7 41 c1 e2 60 a3 3f ca ca 84 c1 4d 95 cd bf
       -12.111197 1.2763941 -16.599018 -1.6061188
000330 c5 b9 a2 40 a4 e5 c5 c1 fc 06 bb c1 c7 1d b1 40
       5.085177 -24.73713 -23.37841 5.534885
000340 57 d8 31 c2 78 b1 04 c1 24 40 8d 40 d2 ed 20 c0
       -44.46127 -8.293327 4.4140797 -2.5145154
000350 ec bb c3 c0 ed 0a c0 c0 72 da e2 c0 f3 82 d0 c0
       -6.1166897 -6.0013337 -7.0891657 -6.515985
000360 6b b3 1a c0 f5 c4 8e 41 ba 33 61 c0 bc 5e bf bf
       -2.4172008 17.84617 -3.5187821 -1.4950786
000370 62 14 30 41 51 b8 37 c1 9f 5f 8e 41 c1 01 d7 c1
       11.004976 -11.482499 17.79669 -26.875856
000380 e9 f3 66 41 12 7e 76 c1 71 ed fc 40 69 80 98 c0
       14.434548 -15.405779 7.9039845 -4.765675
000390 da 20 54 3f 62 d4 3d c1 c2 95 8f c1 3a 3f b2 bf
       0.8286263 -11.864351 -17.948124 -1.3925545
0003a0 72 ff a2 c1 23 a2 45 41 43 57 8b bf d1 fb 0b c1
       -20.37473 12.352084 -1.0886005 -8.748979
0003b0 2f c9 8f 40 c5 5c a0 3f d3 7b 23 c1 8d 27 0a c1
       4.4933085 1.2528311 -10.2177305 -8.634656
0003c0 f6 1e 9e 40 02 3b 02 3f a2 fa 47 3f a2 1f 70 c0
       4.9412794 0.5087129 0.7811681 -3.7519307
0003d0 05 fd f1 40 52 3c 45 41 f6 5b e3 40 61 ea 23 41
       7.562136 12.327227 7.1049757 10.244721
0003e0 07 85 c7 41 89 90 87 3f 54 4c ca c1 3f 78 0e 41
       24.939955 1.0590984 -25.28727 8.904357
0003f0 04 3c 5f 41 43 a9 30 41 62 ed 98 c1 6d 91 d2 41
       13.952152 11.041324 -19.11591 26.321009

l1/b f4 [256]
000000 d9 da 84 40 de ae 2d 41 4a 80 0f c1 9e a5 af 40
       4.151715 10.855192 -8.968821 5.488967
000010 d6 0d 56 41 b7 86 82 40 62 43 e3 40 39 a0 fd 3e
       13.378378 4.0789447 7.1019754 0.49536303
000020 20 d8 28 c0 cb 34 09 40 af b9 15 c0 59 1c 80 c0
       -2.6381912 2.1438472 -2.3394582 -4.0034604
000030 4f 80 fd 40 fc c8 88 41 ce f7 8f c1 8c 50 ab 40
       7.9219127 17.098137 -17.995998 5.3535824
000040 d7 44 bb bf 42 56 8d c1 d5 d6 7e 40 f0 db b1 c0
       -1.4630383 -17.667118 3.9818623 -5.558098
000050 82 97 48 c1 35 db 82 bf 77 15 9f 40 49 8f c0 c0
       -12.536989 -1.0223147 4.97137 -6.017491
000060 8e b4 f8 bf 82 ef ab c1 e1 6a 8b 40 12 9b 84 be
       -1.9430101 -21.491947 4.3567967 -0.2589956
000070 26 82 10 c1 e9 98 10 3f 27 a2 9f be 45 1a e7 40
       -9.0317745 0.5648332 -0.311784 7.2219567
000080 0a 44 4a be 49 65 55 c1 da e3 49 c0 de ce 31 c0
       -0.19752517 -13.337228 -3.154532 -2.7782512
000090 75 47 9b c0 ad 56 ae 3f 71 07 fa 40 4b 5f a5 40
       -4.852473 1.3620201 7.8134084 5.1678824
0000a0 ef d3 2e c1 00 39 01 c1 7d d6 4d 40 99 a2 55 40
       -10.926742 -8.076416 3.2162163 3.3380492
0000b0 da 0f 01 c0 45 14 14 41 aa 65 0d 41 12 53 0d c1
       -2.0165925 9.254949 8.83732 -8.832781
0000c0 56 42 af bf 1e 66 49 40 0f 45 b6 40 e0 43 21 c1
       -1.3692119 3.1468577 5.69593 -10.079071
0000d0 97 68 fc bf 03 7f a9 3f 4a f2 bc 3f 45 bf 3e c1
       -1.9719418 1.3241886 1.4761441 -11.921697
0000e0 19 cd 9c 3f 93 c0 23 41 1f e8 25 c1 af 3b 55 c0
       1.2250091 10.234515 -10.36917 -3.3317678
0000f0 e3 b0 f0 40 8b 5d a7 c0 b1 4c 18 c0 12 5c 66 c1
       7.5215926 -5.230169 -2.3796809 -14.397478
000100 63 9a 13 40 98 66 0f 41 b4 a6 b3 3f d4 17 bb c0
       2.306298 8.962547 1.4035249 -5.8466587
000110 2f bb 2b c1 ca 84 8d 3e 64 6f bb 3f c8 7a cd c0
       -10.733199 0.27640373 1.4643369 -6.421238
000120 d3 57 f4 c0 31 d0 0e 40 fd fd a1 41 a9 af f6 3f
       -7.6357207 2.231457 20.249018 1.9272357
000130 f9 b5 85 40 30 1c 31 40 e9 c6 3c c1 0f a1 f3 c0
       4.1784635 2.7673454 -11.798562 -7.6134105
000140 a5 a6 cd 40 dc e8 b7 40 5b 16 0b 41 5b 9c 8e c0
       6.4265924 5.747175 8.692958 -4.4565864
000150 70 bb 05 c1 71 4a eb 40 46 0b e9 c1 fb 9d 6d c1
       -8.358261 7.352837 -29.130505 -14.851069
000160 cc d5 ef 40 4f 30 19 c1 92 ad c9 c0 c2 f7 c5 40
       7.4948483 -9.574294 -6.302438 6.186494
000170 3e 83 24 40 1c 4c 17 41 6b f6 fe 3d ef dd 5a 41
       2.5705104 9.456081 0.12449344 13.679183
000180 b1 ab 05 40 67 53 bc c0 27 84 2a c1 9f 2f 7b 40
       2.0886042 -5.885181 -10.657264 3.9247816
000190 d4 6d e8 c0 3b d7 32 41 e2 9c 6c 3f 59 2e ef 3f
       -7.2634068 11.1775465 0.92426884 1.8686019
0001a0 89 97 41 bf ff 5c aa c0 dd c4 24 41 d8 9c 56 c0
       -0.7562185 -5.323852 10.298062 -3.353323
0001b0 2d 9c a9 c0 b7 a8 a6 c0 7d ab 6a c0 d2 da 4e c0
       -5.3003144 -5.208095 -3.6667168 -3.2321057
0001c0 8d d0 02 41 15 47 85 c0 de 91 1f 3f 2c 82 53 40
       8.175916 -4.164927 0.6233195 3.30482
0001d0 bb 85 78 c1 75 bb 1e c1 92 28 9a 40 48 de 47 40
       -15.532649 -9.920766 4.8174524 3.122942
0001e0 38 9a b4 40 dc 41 22 3d fd 23 03 41 d4 74 98 3f
       5.6438255 0.03961359 8.196286 1.1910653
0001f0 84 84 37 41 c1 1f 34 41 59 b1 49 c1 87 1e 11 c1
       11.469852 11.257752 -12.605798 -9.069953
000200 1d 88 b8 bf b3 98 9c 3e 8b 67 6a c0 46 95 83 c0
       -1.4416538 0.3058525 -3.6625698 -4.111972
000210 b4 f4 d6 bf f7 d7 20 41 e5 57 de bf ce bd 09 c0
       -1.6793427 10.052726 -1.7370573 -2.1522098
000220 72 bd 8c bf a8 d3 72 40 5a 57 cb 40 18 3c f2 3f
       -1.0995314 3.7941685 6.354413 1.8924589
000230 a7 fe 74 c0 c3 31 55 40 a7 c7 b3 c0 7b 2e 1b c0
       -3.8280427 3.3311622 -5.6181216 -2.424712
000240 a2 59 a9 c0 ec 20 d7 40 bd 48 22 c1 e7 9c af bf
       -5.2921915 6.722769 -10.142758 -1.3719758
000250 54 da 8c 40 5a f2 6e 41 67 5f 15 c0 61 f9 c1 be
       4.4016514 14.934168 -2.333948 -0.37885574
000260 ea 83 56 bf d3 64 81 41 3a 47 1a c1 fc 60 89 c1
       -0.83795035 16.17423 -9.642389 -17.172356
000270 43 2d 64 3f b8 59 f7 be db f4 44 41 2a a4 14 c0
       0.89131564 -0.48310637 12.309779 -2.3225198
000280 bb 31 0a 40 ef 25 f6 bf 0a d6 0a 40 4e 6d 33 40
       2.1592853 -1.9230326 2.169314 2.8035464
000290 85 84 ff 40 b3 40 c2 bf 8d 01 c2 bf 14 8e 71 40
       7.9849267 -1.5175995 -1.5156723 3.7742968
0002a0 03 58 18 c0 70 fc bc 40 72 9e 6c 3f 9b 0a 5a 40
       -2.3803718 5.905815 0.9242927 3.4068973
0002b0 e9 2c 8f c0 16 06 56 c0 bd 3f 29 c0 47 09 24 c0
       -4.474232 -3.3441215 -2.6445153 -2.5630662
0002c0 d3 29 d0 40 77 56 c4 c0 a1 4d fd 3f d5 60 7c bf
       6.5051055 -6.135555 1.9789315 -0.98585254
0002d0 f6 fa a4 40 78 9f f4 bf 64 9d e6 c0 c1 1f a3 c1
       5.155635 -1.9111166 -7.2067127 -20.390505
0002e0 b4 3d 2d 41 75 c7 39 c1 0b 02 72 c0 97 7e 42 c0
       10.827564 -11.611196 -3.7813747 -3.0389764
0002f0 72 ca e6 3f d1 b9 80 40 ab 04 a8 3d ef cb 7f 40
       1.8030531 4.0226827 0.08204015 3.996822
000300 dc a5 59 3f d7 25 6d c1 00 28 3f c0 b8 5f cc 40
       0.85018706 -14.821738 -2.9868164 6.3866844
000310 cf 06 76 40 68 d6 0a 40 b9 17 50 40 af 61 5f c1
       3.8441656 2.1693363 3.251448 -13.961349
000320 20 14 65 bd da f5 51 c1 63 46 a3 c0 95 e2 15 40
       -0.055927396 -13.122522 -5.102342 2.3419545
000330 ff 43 c9 40 cd da 2e 40 b4 9c 1a bf 88 7a e9 3f
       6.2895503 2.7321045 -0.6039536 1.8240519
000340 05 c7 72 3f 91 bf 1a c0 eb 8f 8a 40 00 27 99 bf
       0.9483493 -2.4179423 4.330068 -1.1965027
000350 60 e4 29 c0 e7 79 8c 3f 5f b6 43 40 78 c8 b2 c1
       -2.654564 1.0974702 3.058006 -22.347885
000360 ff 6f f7 40 34 3c 55 bf 3d 5f 41 c0 0e b0 9f c0
       7.7324214 -0.8329499 -3.021438 -4.990241
000370 29 cb a8 c0 2f a9 da 40 c2 d2 2e 40 81 95 df c0
       -5.2748 6.8331523 2.7316136 -6.987
000380 74 e8 98 c0 be 24 00 41 b0 b3 a1 c0 49 f0 0b c1
       -4.7783756 8.00897 -5.0531845 -8.746163
000390 08 09 75 c0 fa d6 aa c0 c1 f3 ae 40 f2 72 66 c1
       -3.8286762 -5.3387423 5.467255 -14.403063
0003a0 4e c2 9c 40 5d 7d bd 40 c8 ba 0c c1 bb 53 90 c1
       4.898719 5.921553 -8.795601 -18.040884
0003b0 71 94 38 40 b6 18 97 3e 2e 7c b1 bd 0d be af 40
       2.8840601 0.2951104 -0.086662635 5.4919496
0003c0 96 a4 16 40 72 20 eb c0 3f 4b 9f 3e d3 ae 5a c1
       2.3537955 -7.3477106 0.31112096 -13.667682
0003d0 bc 6f 12 c0 a5 c2 98 c0 92 8d ea 40 d8 6a 99 c0
       -2.2880697 -4.7737603 7.3297815 -4.7942924
0003e0 1e 63 2f be 0a 42 ea c0 0c c8 55 bf 0b 1f 74 c1
       -0.17127654 -7.3205614 -0.8350837 -15.257579
0003f0 af 35 a8 40 33 93 72 bf c6 a0 77 c0 27 3d 30 40
       5.256553 -0.9475586 -3.8691878 2.7537324
