static/ai/6/agent_black_4000/target_model.npz (npz, 560191 bytes, 8 tensors)

l2/b f4 [256]
-0.4890523 -0.07724863 0.014017549 0.17703642 -0.16774891 0.10361149 0.0041826735 0.06800867
0.023615928 -0.08197828 -0.27001867 0.048002433 0.021436004 0.098964766 -0.03411895 0.017914046
0.010308286 0.0011595339 0.08961949 -0.0810698 -0.1689145 0.06467071 -0.03635597 0.008204178
-0.04417947 -0.07295274 -0.09030165 0.09459284 0.07382159 0.182979 -0.06688727 0.32708648
0.032489933 -0.41629794 -0.027873281 -0.20526221 0.06621637 0.77415764 0.06108328 0.2924229
0.062135268 0.26454523 0.010194797 -0.0686718 -0.38909727 -0.042401124 -0.49952573 0.019795982
-0.025287602 -0.14616789 -0.023272447 -0.11789092 -0.022036219 -0.032177452 -0.18538731 0.30612388
-0.07087709 0.11390563 -0.027759502 0.32506198 -0.23916604 -0.20794302 -0.08012346 -0.19400682
-0.08776143 -0.015816415 -0.19183171 0.053861476 0.017188653 -0.07398961 0.039094884 0.08743553
-0.6433114 0.023282634 -0.026691552 0.0048328405 -0.09901561 0.14363055 -0.08274612 0.011993306
-0.1091494 0.18299754 0.4288558 -0.25346595 0.40941265 -0.07786142 0.08715868 0.0031685422
0.07325028 0.020756712 -0.16862598 -0.17498523 0.37598956 -0.0148857245 -0.258583 -0.16411035
-0.011376056 -0.16061378 0.05684238 -0.06914312 -0.12491537 0.128027 -0.25192153 0.025431233
-0.4180174 0.09619023 -0.012451643 -0.05020498 -0.3149444 -0.23358463 0.015005158 0.08900558
0.0527212 -0.62176996 0.0063311313 -0.363406 0.2509728 -0.07707933 0.13043538 0.09704579
0.041316487 0.15075183 -0.052743126 0.09039283 0.0038830554 -0.1961063 -0.017097102 0.22619045
-0.058046106 -0.18889685 -0.24962625 -0.0043016635 -0.087430865 -0.18427134 -0.056958634 -0.19364722
-0.016721264 0.039320685 0.086826794 -0.18101145 -0.053821407 0.0001147941 -0.06927096 0.43053612
0.011830104 -0.032296404 -0.05965042 0.087632224 0.16634452 -0.020746028 0.11774447 0.04244431
-0.18144403 -0.36509818 0.19458982 -0.043651164 -0.01914683 0.031267878 -0.14775038 -0.19399737
-0.1335024 -0.12218423 -0.08583378 -0.38657972 -0.31936935 0.08884398 -0.014603922 -0.14310047
-0.4156902 0.18967159 0.021771513 -0.045959 -0.15737304 -0.03355606 -0.014954578 -0.5587666
-0.010574659 -0.014871181 -0.18107401 0.23709174 -0.2522089 -0.0036966316 0.01525172 0.40562207
-0.07825714 -0.088891365 -0.33666265 -0.09303816 -0.20007609 -0.26927337 -0.48101535 0.14376308
0.19407336 -0.22461121 -0.032826446 -0.3981908 0.109490536 -0.3246536 0.003543743 0.06391083
0.088561356 -0.06532038 -0.00061267085 -0.23675732 -0.2767919 -0.12290734 -0.08753035 -0.20362793
-0.03862995 0.24431382 -0.022722403 -0.15868552 -0.18238838 -0.0022723726 -0.30340818 -0.15061828
0.30582786 0.015930342 -0.02302769 -0.3292549 -0.096143454 -0.33439088 -0.023548136 -0.3390779
-0.18078494 0.051617097 0.15293577 0.047219265 -0.06745548 0.06303531 -0.17796452 -0.17629416
-0.31978512 0.07831096 -0.047753587 -0.018314306 -0.12754804 0.023050804 -0.6499579 -0.60795885
0.019219887 0.043121785 -0.23212828 1.0836474 0.025698442 0.014450579 0.002495293 0.06380893
-0.275479 -0.0038666527 -0.26468447 -0.17038895 0.140743 0.22202727 0.07042664 -0.07952678
00000000: 1065 fabe 8834 9ebd dda9 653c 0949 353e
00000010: 5fc6 2bbe 4332 d43d cf0e 893b 2148 8b3d
00000020: 3176 c13c 3ae4 a7bd e33f 8abe 339e 443d
00000030: 8f9a af3c 0aae ca3d 50c0 0bbd 7ac0 923c
00000040: 16e4 283c 80fb 973a 6c8a b73d ec07 a6bd
00000050: ecf7 2cbe 1472 843d ffe9 14bd d16a 063c
00000060: 88f5 34bd 3f68 95bd 12f0 b8bd e4b9 c13d
00000070: c62f 973d d95e 3b3e 31fc 88bd e177 a73e
00000080: 2a14 053d 0125 d5be 8256 e4bc 4230 52be
00000090: 739c 873d 322f 463f 7632 7a3d 74b8 953e
000000a0: 8d81 7e3d 7972 873e 1408 273c cda3 8cbd
000000b0: c237 c7be cdac 2dbd d6c1 ffbe 2f2b a23c
000000c0: f227 cfbc 09ad 15be dca5 bebc cb70 f1bd
000000d0: 4d85 b4bc 81cc 03bd 2cd6 3dbe 45bc 9c3e
000000e0: 0228 91bd 5b47 e93d e567 e3bc 866e a63e
000000f0: f1e7 74be 04ef 54be c517 a4bd b9a9 46be
00000100: 44bc b3bd 6d91 81bc 886f 44be da9d 5c3d
00000110: 38cf 8c3c dd87 97bd f521 203d 6611 b33d
00000120: 0eb0 24bf 39bb be3c 3ea8 dabc ce5c 9e3b
00000130: b2c8 cabd e313 133e cc76 a9bd 927f 443c
00000140: b889 dfbd b563 3b3e fd92 db3e 4ac6 81be
00000150: 899e d13e cf75 9fbd 4080 b23d 51a7 4f3b
00000160: 3e04 963d fb09 aa3c 4aac 2cbe 542f 33be
00000170: b481 c03e 41e3 73bc fe64 84be 8b0c 28be
00000180: a362 3abc f077 24be 8ed3 683d e89a 8dbd
00000190: a1d3 ffbd 8319 033e dcfb 80be 2955 d03c
000001a0: 6006 d6be 62ff c43d fa01 4cbc bda3 4dbd
000001b0: 6440 a1be cf30 6fbe 32d8 753c 8f48 b63d
000001c0: 2ff2 573d 512c 1fbf 6175 cf3b 5a10 babe
000001d0: 827f 803e c5db 9dbd da90 053e f1bf c63d
000001e0: 7a3b 293d b05e 1a3e 2d09 58bd e01f b93d
000001f0: dc7a 7e3b 17d0 48be 390f 8cbc 789e 673e
00000200: c1c1 6dbd 2d6e 41be 069e 7fbe f8f4 8cbb
00000210: f40e b3bd a0b1 3cbe 754d 69bd 754b 46be
00000220: 08fb 88bc ba0e 213d 3fd2 b13d 115b 39be
00000230: d673 5cbd 9dbd f038 efdd 8dbd 3b6f dc3e
00000240: 0dd3 413c 3c49 04bd 0054 74bd 8678 b33d
00000250: 3856 2a3e 93f3 a9bc 0324 f13d 16da 2d3d
00000260: 77cc 39be 26ee babe 8e42 473e 90cb 32bd
00000270: d0d9 9cbc bf12 003d e04b 17be 3fa7 46be
00000280: dab4 08be ba3b fabd 9fc9 afbd c7ed c5be
00000290: 6184 a3be d5f3 b53d 4a45 6fbc ee88 12be
000002a0: 59d5 d4be 4539 423e 2c5a b23c 813f 3cbd
000002b0: 6626 21be 1472 09bd 0c04 75bc 540b 0fbf
000002c0: 5641 2dbc 41a6 73bc 776b 39be 2dc8 723e
000002d0: 8621 81be 3043 72bb 5ae2 793c b2ad cf3e
000002e0: 4845 a0bd ad0c b6bd 0c5f acbe ca8a bebd
000002f0: bfe0 4cbe 33de 89be a547 f6be a136 133e
00000300: 2bbb 463e 7b00 66be 0675 06bd aadf cbbe
00000310: 933c e03d ff38 a6be 243e 683b aee3 823d
00000320: a85f b53d b1c6 85bd a59b 20ba 8370 72be
00000330: abb7 8dbe d8b6 fbbd 1d43 b3bd d783 50be
00000340: 703a 1ebd 672d 7a3e 5524 babc 757e 22be
00000350: 05c4 3abe 16ec 14bb 5158 9bbe ae3b 1abe
00000360: 7895 9c3e 5980 823c 91a4 bcbc 1994 a8be
00000370: dce6 c4bd 4835 abbe 05e8 c0bc 9e9b adbe
00000380: b01f 39be 736c 533d 329b 1c3e fd68 413d
00000390: 1926 8abd a818 813d 553c 36be 7586 34be
000003a0: e0ba a3be 7f61 a03d 4499 43bd e207 96bc
000003b0: f49b 02be 0ad5 bc3c a463 26bf 31a3 1bbf
000003c0: 0673 9d3c 78a0 303d 09b3 6dbe f5b4 8a3f
000003d0: 8a85 d23c 1fc2 6c3c 1288 233b 42ae 823d
000003e0: 950b 8dbe ab67 7dbb b984 87be 717a 2ebe
000003f0: ef1e 103e 1e5b 633e d83b 903d f0de a2bd

l2/W f4 [256, 256]
0.23030692 0.027348088 -0.0772588 -0.0834775 -0.025333408 -0.282035 0.0044928757 0.12323476
0.045241177 0.059625518 -0.08230007 -0.14735243 0.038880996 0.08774992 -0.05815942 0.0692993
0.011427424 -0.093640335 -0.0638977 -0.005229356 0.058615435 -0.024412058 0.10506783 0.06823199
0.056783143 0.18992546 0.06893627 -0.13397622 0.13914065 0.13802539 0.1438119 0.110750236
0.1387219 0.012888902 0.14588985 -0.07469478 0.020821413 0.052278213 0.079308726 0.15596431
-0.016716657 -0.074376605 -0.0027829283 -0.1371575 0.079542354 0.0026632657 0.10371218 0.094129995
-0.07321154 -0.099497996 0.020119742 0.13346507 0.04919001 0.005360811 0.0044392115 -0.0007951698
-6.514126e-05 -0.042786017 0.00040026236 -0.10635151 0.0864425 0.16053464 0.018945388 0.05743456
-0.009802942 0.09541896 -0.033147894 0.09525014 -0.014036709 -0.047057413 -0.015286904 0.014928252
0.06317512 0.02518436 -0.00046226618 -0.049392387 0.04627833 0.14320418 -0.10088331 0.004314442
-0.05489079 0.06414878 0.011901425 0.06496758 0.097585864 0.17232507 0.06805594 0.039283577
0.059936225 -0.038064145 -0.104642384 0.21997803 0.07166831 0.018090634 0.15974417 0.040977582
0.022315439 0.020593364 0.11739092 -0.16987553 0.09883405 0.15397769 -0.09056592 0.089967005
0.12021715 0.053345133 -0.034792088 0.053959776 0.028544044 -0.00079304125 0.0149217695 0.045973647
0.06804233 -0.016997628 0.010296273 0.027735293 0.105739124 0.18629658 0.067400604 -0.03956802
0.016728172 0.19483605 0.012205127 -0.071033895 -0.083805375 0.040823895 0.00863181 0.04877962
-0.033504315 -0.056965683 -0.08416869 -0.037489332 -0.0071978886 0.081384726 0.22478722 -0.07510818
0.16479461 -0.0075300857 -0.0125127 0.02278325 -0.008780595 0.26008758 -0.011489315 -0.22980024
0.033232007 0.055317163 0.09594711 0.024985505 -0.036237195 0.02015625 0.014839731 0.07387447
-0.038519837 -0.26652196 -0.025043363 -0.0032599464 -0.02288379 0.19939405 0.07270778 0.05033044
-0.047116727 -0.041432146 -0.21113838 -0.10387966 -0.016657237 -0.040200118 0.10961718 -0.021043481
0.10446282 -0.015089468 -0.252201 0.03539322 -0.0074807056 -0.0390876 0.12747209 -0.099605314
0.015626194 -0.09062093 0.051985215 -0.10703391 0.012500574 0.0120698735 -0.0027137941 0.072668515
-0.03788716 -0.07556141 0.06433164 -0.039432943 0.049983233 -0.09547961 -0.073058374 0.09121171
0.07093847 -0.0018927857 -0.026536021 -0.04487949 -0.092038915 -0.11318371 -0.116187 0.06457659
0.08136498 -0.09035844 -0.037527937 -0.08706605 0.088270426 -0.12899713 0.030417366 -0.008064922
-0.08819959 -0.15566196 -0.03158893 0.006882345 0.069061935 -0.1461535 0.032977484 0.07491884
-0.07860022 -0.16989629 0.028463632 -0.107494175 0.12782753 0.011469795 0.02197209 -0.08528158
0.016759614 0.20141524 0.0055625984 -0.024401978 -0.13634005 -0.11007535 0.1042745 -0.03698374
-0.029538512 0.11407989 0.19682086 -0.060723297 0.045143127 0.067134164 0.060409315 0.029174756
0.010587434 -0.020072863 -0.021076018 0.1483339 -0.008230914 -0.07793824 -0.036541905 0.050090473
0.035339925 0.17334022 -0.14107817 -0.01343933 -0.06418542 -0.020543227 0.13758942 0.07485882
00000000: 94d5 6b3e 1909 e03c dd39 9ebd 40f6 aabd
00000010: 0288 cfbc e466 90be f938 933b 8162 fc3d
00000020: d04e 393d e339 743d f08c a8bd 8ee3 16be
00000030: ae41 1f3d 3bb6 b33d 9238 6ebd cbec 8d3d
00000040: 173a 3b3c 81c6 bfbd ccdc 82bd 045b abbb
00000050: bd16 703d ccfb c7bc cd2d d73d 37bd 8b3d
00000060: 7195 683d d27b 423e 762e 8d3d 1031 09be
00000070: e37a 0e3e 8756 0d3e 6d43 133e 05d1 e23d
00000080: 1d0d 0e3e f92b 533c 2664 153e 94f9 98bd
00000090: ab91 aa3c ae21 563d 9d6c a23d 1cb5 1f3e
000000a0: 5ff1 88bc c352 98bd ca61 36bb 0473 0cbe
000000b0: 1ae7 a23d 2f8a 2e3b 0d67 d43d 3ac7 c03d
000000c0: efef 95bd 9bc5 cbbd 28d2 a43c 11ab 083e
000000d0: 777b 493d bea9 af3b ce76 913b f172 50ba
000000e0: 739c 88b8 6440 2fbd 4eda d139 d2ce d9bd
000000f0: c408 b13d 3163 243e 5c33 9b3c 8040 6b3d
00000100: 859c 20bc 046b c33d 16c6 07bd 8112 c33d
00000110: 3afa 65bc 46bf 40bd ec75 7abc a195 743c
00000120: f561 813d 6e4f ce3c 515c f2b9 ac4f 4abd
00000130: 598e 3d3d 1ea4 123e e99b cebd 2a60 8d3b
00000140: 2ad5 60bd 7060 833d 32fe 423c b90d 853d
00000150: 19db c73d fc75 303e ea60 8b3d d1e7 203d
00000160: b07f 753d 26e9 1bbd bf4e d6bd ec41 613e
00000170: d6c6 923d cf32 943c fa93 233e 1cd8 273d
00000180: dece b63c 6ab3 a83c a76a f03d daf3 2dbe
00000190: 8269 ca3d 54ac 1d3e a07a b9bd 9f40 b83d
000001a0: 6934 f63d 6d80 5a3d 2682 0ebd ed04 5d3d
000001b0: 33d5 e93c 19e4 4fba 707a 743c dd4e 3c3d
000001c0: c759 8b3d 9c3e 8bbc b3b1 283c 2035 e33c
000001d0: c18d d83d 88c4 3e3e 5409 8a3d 1312 22bd
000001e0: 8509 893c 1a83 473e 03f8 473c 387a 91bd
000001f0: 27a2 abbd f536 273d 6f6c 0d3c 24cd 473d
00000200: d23b 09bd d954 69bd a260 acbd 6a8e 19bd
00000210: 44dc ebbb 09ad a63d 9f2e 663e 51d2 99bd
00000220: ebbf 283e f0be f6bb 1102 4dbc f0a3 ba3c
00000230: 7cdc 0fbc 332a 853e ae3d 3cbc c150 6bbe
00000240: 491e 083d 4094 623d eb7f c43d 67ae cc3c
00000250: 746d 14bd b81e a53c 5822 733c 804b 973d
00000260: fac6 1dbd 9175 88be bd27 cdbc d3a4 55bb
00000270: c976 bbbc f42d 4c3e d1e7 943d 4b27 4e3d
00000280: 78fd 40bd c1b4 29bd a934 58be dcbe d4bd
00000290: c274 88bc e1a8 24bd f97e e03d 6163 acbc
000002a0: 9af0 d53d d139 77bc 7d20 81be 7bf8 103d
000002b0: b520 f5bb 521a 20bd 0b88 023e dffd cbbd
000002c0: 8102 803c 7797 b9bd 73ee 543d 9834 dbbd
000002d0: 35cf 4c3c b8c0 453c e9d9 31bb 3bd3 943d
000002e0: 912f 1bbd f1bf 9abd 4fc0 833d 7084 21bd
000002f0: 38bb 4c3d d08a c3bd a19f 95bd 34cd ba3d
00000300: 3048 913d 5917 f8ba 1262 d9bc 8ed3 37bd
00000310: e67e bcbd dccc e7bd 73f3 edbd bb40 843d
00000320: afa2 a63d d90d b9bd e5b6 19bd af4f b2bd
00000330: 20c7 b43d d317 04be d72d f93c bc22 04bc
00000340: fda1 b4bd d965 1fbe 6563 01bd 4b85 e13b
00000350: 5870 8d3d 43a9 15be 6613 073d 0c6f 993d
00000360: 27f9 a0bd 4bf9 2dbe 902c e93c e825 dcbd
00000370: 38e5 023e cfeb 3b3c d0fe b33c 1ca8 aebd
00000380: 754b 893c cc3f 4e3e 7546 b63b a8e6 c7bc
00000390: ba9c 0bbe 2f6f e1bd de8d d53d 437c 17bd
000003a0: c0fa f1bc b8a2 e93d 688b 493e feb8 78bd
000003b0: 00e8 383d a37d 893d c26f 773d e6ff ee3c
000003c0: eb76 2d3c d86f a4bc 9da7 acbc d8e4 173e
000003d0: f5da 06bc 159e 9fbd f7ac 15bd ab2b 4d3d
000003e0: 99c0 103d 1980 313e cc76 10be a330 5cbc
000003f0: a573 83bd 454a a8bc 3ee4 0c3e 954f 993d

l1/b f4 [256]
-0.20218909 -0.18873473 0.02609011 -0.1512367 -0.19493 1.2483821 -0.15784569 -0.011477816
-0.2632982 -0.31013733 0.26466012 -0.09233272 -0.5644549 0.0246899 -0.30907387 0.08590719
-0.4974378 -0.054158602 -0.014105571 -0.5218395 -0.0028582492 -0.07714576 -0.02965453 -0.05499909
-0.24874336 -0.19807409 -0.2249823 0.03165889 0.2897365 -0.12647133 -0.022484949 0.004895259
-0.20260099 -0.19021364 -0.18038513 -0.007250521 0.0259254 -0.13380046 0.024240797 0.12767525
-0.07689214 0.41602522 0.016221534 -0.14124686 -0.16099805 -0.43367526 -0.10749183 -0.30010235
0.3693314 -0.01455691 -0.56150275 -0.17394212 -0.13017195 -0.4816898 -0.21349968 0.0005982935
-0.7829678 0.095052116 -0.26899916 -0.009485635 0.24418035 -0.14630033 -0.8937339 -0.033537723
-0.33017972 -0.33447605 -0.19528475 0.0082743345 0.021606866 0.12231926 -0.26838142 -0.08340031
-0.19152763 0.13279139 -0.06176936 0.5717702 -0.026673002 -0.15996753 0.028245082 0.2405545
0.14029805 -0.7596097 -0.10959234 -0.011860291 -0.19402671 -0.38247696 0.5178744 -0.3232486
0.016579717 0.54350793 0.047851678 -0.052186888 0.08117511 -0.09722204 0.17162308 -0.42407858
0.020994222 -0.19249575 0.65311885 -0.0426239 0.18293473 -0.4282572 -0.12670219 -0.31621298
-0.10187904 0.004884413 0.0031641393 -0.33915922 0.01736104 -0.30191705 -0.2680675 -0.50962555
-0.022035798 0.025120968 -0.34328222 -0.0032740082 0.015233257 -0.74520177 0.01639595 -0.07480218
-0.3104705 -0.2913901 0.037527177 0.090836 -0.09709651 -0.065960504 -0.31257713 -0.3636355
-0.23064263 0.010467792 0.5241625 -0.22749726 -0.23874529 -0.44820723 -0.16292475 -0.09656212
-0.59879947 0.09005819 0.09070477 -0.0012153016 -0.61656356 -0.23288865 0.072746724 -0.39009067
-0.047845483 -0.054414857 -0.28320262 -0.27883023 -0.3160776 0.0084046265 -0.16348162 -0.36096093
-0.025465017 0.009420662 0.13416389 -0.19614732 -0.2412585 0.06881232 0.2692762 -0.19358763
0.030596664 -0.024225656 -0.06743524 -0.07786377 -0.0860235 -0.00851051 0.19322199 -0.034567837
-0.4552054 0.87698495 0.3407687 -0.030929588 0.1242545 -0.008624268 0.09088318 0.024188418
-0.013882707 -0.36141253 -0.26507184 -0.079498194 -0.010894411 -0.23437865 -0.19001482 0.009901253
-0.3504818 -0.24326243 -0.4286338 -0.18659157 -0.2357393 -0.033055563 0.053239077 -0.15765825
-0.15585339 0.08526205 -0.023989454 -0.38875884 -0.11234404 -0.20578347 0.11818668 -0.47415078
-0.053535562 -0.088820465 0.026141891 0.09476323 -0.02852276 -0.014824796 -0.005019138 -0.18153541
0.05648565 -0.35915768 0.49870032 -0.19585752 -0.38356826 0.05087204 -0.32598805 0.031347524
-0.28062162 -0.050152298 -0.28360894 -0.43055886 -0.36195558 -0.0941009 -0.22887443 -0.12973371
-0.30730414 0.02868816 -0.105345085 -0.03068791 -0.060833927 -0.14499728 0.0673917 -0.10724736
-0.22146441 0.04828527 -0.016165638 0.096795425 0.03729565 -0.7933181 -0.22328512 0.005339545
-0.31411895 -0.07413908 -0.10262274 -0.44578555 0.060832463 -0.12901598 0.6276499 0.41731343
0.060946785 0.061924707 -0.42659217 -0.4971947 -0.13503437 -0.07019848 0.49343094 0.10316304
00000000: a80a 4fbe ad43 41be edba d53c cbdd 1abe
00000010: bb9b 47be fcca 9f3f 4da2 21be 730d 3cbc
00000020: 06cf 86be 52ca 9ebe 8881 873e f018 bdbd
00000030: 1e80 10bf 7942 ca3c ee3e 9ebe 1cf0 af3d
00000040: 2bb0 febe 69d5 5dbd 0e1b 67bc 4697 05bf
00000050: 7751 3bbb 99fe 9dbd 0fee f2bc ba46 61bd
00000060: 94b6 7ebe efd3 4abe c361 66be c1ac 013d
00000070: 5858 943e b381 01be 5b32 b8bc 6968 a03b
00000080: a276 4fbe 5dc7 42be e1b6 38be c795 edbb
00000090: 8161 d43c fd02 09be a394 c63c 4dbd 023e
000000a0: a079 9dbd 4201 d53e 06e3 843c 04a3 10be
000000b0: acdc 24be af0a debe ad24 dcbd 04a7 99be
000000c0: 0119 bd3e 1b80 6ebc a5be 0fbf e21d 32be
000000d0: cc4b 05be 0ca0 f6be a99f 5abe ccd6 1c3a
000000e0: 9470 48bf afaa c23d 42ba 89be a369 1bbc
000000f0: 6a0a 7a3e c1cf 15be bfcb 64bf da5e 09bd
00000100: 510d a9be 7240 abbe baf8 47be 1391 073c
00000110: e200 b13c 8582 fa3d 4a69 89be c8cd aabd
00000120: d21f 44be 77fa 073e de01 7dbd 885f 123f
00000130: 5781 dabc 87ce 23be 3b62 e73c eb53 763e
00000140: 4baa 0f3e c875 42bf f371 e0bd aa51 42bc
00000150: f0ae 46be 05d4 c3be 6b93 043f d780 a5be
00000160: 30d2 873c 5623 0b3f 1f00 443d ebc1 55bd
00000170: 233f a63d 591c c7bd f6bd 2f3e d420 d9be
00000180: 13fc ab3c 9b1d 45be cc32 273f 6696 2ebd
00000190: 3e53 3b3e 8744 dbbe 38be 01be abe6 a1be
000001a0: f5a5 d0bd 6d0d a03b 735d 4f3b 47a6 adbe
000001b0: bd38 8e3c df94 9abe 2540 89be d276 02bf
000001c0: 6b84 b4bc 7dca cd3c b0c2 afbe be90 56bb
000001d0: e994 793c 8bc5 3ebf cd50 863c e331 99bd
000001e0: fdf5 9ebe 1531 95be 19b6 193d 3a08 ba3d
000001f0: 89da c6bd 4d16 87bd 1c0a a0be 6f2e babe
00000200: 952d 6cbe 1a81 2b3c 832f 063f 0bf5 68be
00000210: a579 74be 6b7b e5be bfd5 26be 5cc2 c5bd
00000220: ec4a 19bf 6e70 b83d 6cc3 b93d c14a 9fba
00000230: 1cd7 1dbf 5d7a 6ebe 3cfc 943d f7b9 c7be
00000240: a0f9 43bd 1de2 5ebd efff 90be d6c2 8ebe
00000250: ecd4 a1be 8fb3 093c ba67 27be dfcf b8be
00000260: 039c d0bc 1f59 1a3c 4262 093e d8da 48be
00000270: 780c 77be 79ed 8c3d 92de 893e d63b 46be
00000280: dba5 fa3c e274 c6bc 7d1b 8abd 0a77 9fbd
00000290: 172d b0bd ab6f 0bbc fcdb 453e 0197 0dbd
000002a0: af10 e9be 1682 603f 3c79 ae3e 0c60 fdbc
000002b0: 2579 fe3d cd4c 0dbc f620 ba3d ca26 c63c
000002c0: 4b74 63bc 100b b9be 7fb7 87be f3cf a2bd
000002d0: 797e 32bc f500 70be 3f93 42be dd38 223c
000002e0: 5a72 b3be c919 79be e475 dbbe dc11 3fbe
000002f0: a565 71be 4565 07bd 3811 5a3d 2a71 21be
00000300: 0898 1fbe df9d ae3d 8885 c4bc 660b c7be
00000310: a214 e6bd e7b8 52be dc0b f23d e4c3 f2be
00000320: 1b48 5bbd 81e7 b5bd 8527 d63c 3913 c23d
00000330: 90a8 e9bc b3e3 72bc 9577 a4bb 6be4 39be
00000340: 7f5d 673d 84e3 b7be a655 ff3e e08e 48be
00000350: 0f63 c4be 335f 503d e8e7 a6be 4366 003d
00000360: a3ad 8fbe 7f6c 4dbd 3135 91be 3672 dcbe
00000370: 3e52 b9be f9b7 c0bd 0f5e 6abe ead8 04be
00000380: f856 9dbe 6f03 eb3c 2abf d7bd 3665 fbbc
00000390: ff2c 79bd 2b7a 14be a904 8a3d 81a4 dbbd
000003a0: 91c7 62be c6c6 453d cd6d 84bc ae3c c63d
000003b0: 53c3 183d e516 4bbf dba4 64be 5af7 ae3b
000003c0: 33d4 a0be 3bd6 97bd df2b d2bd 013e e4be
000003d0: 762b 793d c41c 04be aaad 203f 1baa d53e
000003e0: 56a3 793d c3a4 7d3d 4a6a dabe 4e90 febe
000003f0: 7346 0abe 38c4 8fbd fba2 fc3e 2547 d33d

l1/W f4 [256, 36]
0.35617954 -0.50196314 -0.15592681 0.1280856 -0.15105605 0.37827075 0.014553436 0.12443985
0.014455524 0.41980967 -0.07454516 -0.19959854 0.042225346 0.16453214 0.2343514 -0.038352083
0.20702566 0.31547084 -0.60018766 -0.5497821 0.254726 -0.02913604 -0.2479325 -0.27101284
0.29626793 0.43655095 -0.05621145 -0.04357839 -0.53351724 0.13755697 0.07634232 0.27968377
0.052229993 -0.32801056 -0.12309838 -0.07143418 -0.04293497 -0.29397428 -0.13853633 -0.0016015144
0.062197056 0.2703098 -0.08000968 0.2884811 0.4937851 -0.02855667 0.036376502 -0.38696146
-0.05100856 0.58550644 -0.007809556 -0.088819325 -0.111469135 0.0057127737 -0.15236674 -0.27275878
-0.17554651 0.24501231 -0.15442401 0.110943764 -0.04910537 -0.45738754 -0.18820678 -0.3716842
-0.013649254 0.39842647 0.3172292 0.29109767 -0.118875936 0.30547905 0.31817058 -0.25374573
0.42173854 -0.15070152 0.1130513 0.1305576 -0.05956942 -0.060182523 -0.37711245 -0.079451144
-0.21775879 0.16964959 0.4325148 -0.042987496 -0.1858002 -0.012959438 -0.12378184 0.09902424
-0.09942855 -0.49796045 0.023169318 0.14814062 -0.45647097 -0.120216146 0.19986485 -0.37008712
-0.122618884 -0.2692682 0.0044759526 0.032723352 0.25172877 -0.39952976 0.019173408 -0.055528276
0.2626158 -0.25776345 -0.21477455 -0.22494516 0.26386076 -0.09559835 0.05541579 0.29840702
-0.018580945 0.035448592 -0.5064027 -0.09930824 0.33720618 0.23818743 0.31886455 -0.10210604
-0.5131799 0.44469073 0.07618562 0.19368255 -0.005384724 -0.13038981 -0.32602474 0.100891076
-0.087579824 -0.44401303 -0.06906417 0.2969603 -0.32440636 0.1719353 -0.078937426 0.22226518
-0.25915554 0.48246875 -0.31876054 -0.023967698 0.06594603 -0.068737686 -0.10490641 -0.18195535
0.22870386 -0.043559097 0.38414785 0.45312124 0.21189466 -0.05166983 -0.16466966 -0.34985232
0.27921584 -0.054528885 -0.04341392 0.16345455 0.16063927 0.11824195 -0.3338958 -0.41919968
-0.32135874 0.30712876 0.21649635 -0.21808076 0.1266133 -0.5809012 0.37889555 -0.08603219
-0.020390742 0.122763425 0.25368038 -0.097627595 -0.26569587 0.12363751 0.22583005 -0.068191044
-0.10658435 -0.3294419 -0.27860138 0.42097035 -0.06968143 -0.08654365 0.31253758 -0.06860106
-0.24909765 0.07074996 0.059276074 -0.11465452 -0.4690514 0.118047565 0.2294169 0.3239568
-0.044021387 -0.03478666 0.12912746 0.13193823 -0.18888596 -0.08642726 -0.17883405 0.16465908
0.3236026 0.044748858 -0.11829663 0.00085899065 0.14934725 0.062087387 0.09851444 -0.2129203
-0.2890443 0.11517308 0.012469074 -0.038981114 0.10376931 -0.033743702 0.036159467 0.2458415
-0.13050623 -0.018596428 0.5720547 -0.3237416 0.11843225 0.35490394 0.001000196 0.021178083
-0.08966001 -0.21078874 -0.29038617 0.7278133 0.35511845 0.26607922 -0.08476061 0.0060531828
0.08259479 -0.18915197 -0.12846537 -0.1691416 -0.058735747 -0.104204275 0.07470779 0.08786029
-0.2996837 -0.013239397 0.3754538 -0.3438117 0.39663202 0.1384697 -0.46287575 0.18769963
-0.3612681 -0.25369757 -0.43155718 -0.07202045 -0.059945304 0.24187839 0.17992197 -0.481324
00000000: 2a5d b63e a880 00bf 47ab 1fbe df28 033e
00000010: 70ae 1abe b4ac c13e 8971 6e3c 52da fe3d
00000020: ddd6 6c3c 4bf1 d63e 22ab 98bd 8f63 4cbe
00000030: 7cf4 2c3d 1d7b 283e d0f9 6f3e 1317 1dbd
00000040: 89fe 533e 6585 a13e e6a5 19bf 85be 0cbf
00000050: 726b 823e b4ae eebc 04e2 7dbe 32c2 8abe
00000060: 6eb0 973e 9b83 df3e fa3d 66bd 417f 32bd
00000070: 9694 08bf bcdb 0c3e 5d59 9c3d b632 8f3e
00000080: 1eef 553d 00f1 a7be 011b fcbd 154c 92bd
00000090: 94dc 2fbd cc83 96be 78dc 0dbe e8e9 d1ba
000000a0: 57c2 7e3d 0c66 8a3e 1ddc a3bd cbb3 933e
000000b0: 67d1 fc3e adef e9bc 87ff 143d d01f c6be
000000c0: 5aee 50bd c0e3 153f 4ee7 ffbb e8e6 b5bd
000000d0: ee49 e4bd 3832 bb3b 0706 1cbe 0aa7 8bbe
000000e0: 77c2 33be 82e4 7a3e 5421 1ebe 7c36 e33d
000000f0: b622 49bd b32e eabe 47b9 40be 644d bebe
00000100: 1fa1 5fbc 8efe cb3e de6b a23e c10a 953e
00000110: 3a75 f3bd c067 9c3e 41e7 a23e f6ea 81be
00000120: 1dee d73e 8051 1abe 7187 e73d e4b0 053e
00000130: 10ff 73bd f381 76bd e214 c1be 48b7 a2bd
00000140: 29fc 5ebe 9fb8 2d3e 9472 dd3e a813 30bd
00000150: 6842 3ebe d353 54bc 5581 fdbd 39cd ca3d
00000160: 32a1 cbbd acf4 febe 95cd bd3c 2db2 173e
00000170: 90b6 e9be e233 f6bd 5fa9 4c3e 0f7c bdbe
00000180: 9c1f fbbd 86dd 89be 03ab 923b ec08 063d
00000190: 98e2 803e 2a8f ccbe 8d11 9d3c 9e71 63bd
000001a0: 9475 863e 92f9 83be dced 5bbe 0658 66be
000001b0: c218 873e 11c9 c3bd abfb 623d cec8 983e
000001c0: 1137 98bc 8b32 113d 9ba3 01bf 1e62 cbbd
000001d0: 4aa6 ac3e 68e7 733e 3742 a33e f91c d1bd
000001e0: c25f 03bf 81ae e33e 3507 9c3d b854 463e
000001f0: 5772 b0bb e884 05be b7ec a6be fb9f ce3d
00000200: 0d5d b3bd ad55 e3be 8471 8dbd 2e0b 983e
00000210: 9718 a6be cf0f 303e f2a9 a1bd 7c99 633e
00000220: 09b0 84be 2506 f73e 9534 a3be e857 c4bc
00000230: b60e 873d 58c6 8cbd 2cd9 d6bd 8152 3abe
00000240: 5831 6a3e 066b 32bd 07af c43e 82ff e73e
00000250: eafa 583e bea3 53bd 2a9f 28be d81f b3be
00000260: 61f5 8e3e ae59 5fbd cbd2 31bd a160 273e
00000270: 9f7e 243e d628 f23d 64f4 aabe 57a1 d6be
00000280: 2289 a4be fb3f 9d3e 38b1 5d3e 9050 5fbe
00000290: eba6 013e f1b5 14bf 99fe c13e a531 b0bd
000002a0: 7c0a a7bc 646b fb3d 65e2 813e faf0 c7bd
000002b0: 4a09 88be aa35 fd3d fe3f 673e bfa7 8bbd
000002c0: e548 dabd 9cac a8be d7a4 8ebe 6d89 d73e
000002d0: 23b5 8ebd cc3d b1bd ed04 a03e b67e 8cbd
000002e0: 7413 7fbe 5be5 903d 78cb 723d fdcf eabd
000002f0: 8127 f0be ecc2 f13d 44ec 6a3e aadd a53e
00000300: c54f 34bd 757c 0ebd fd39 043e d11a 073e
00000310: 526b 41be c600 b1bd 4620 37be 649c 283e
00000320: 3daf a53e 944a 373d 8145 f2bd e32d 613a
00000330: 7cee 183e 584f 7e3d f0c1 c93d c707 5abe
00000340: 9dfd 93be dddf eb3d 164b 4c3c a9aa 1fbd
00000350: 0185 d43d d636 0abd f31b 143d e0bd 7b3e
00000360: 6da3 05be 8957 98bc 2d72 123f 76c1 a5be
00000370: 9c8c f23d f8b5 b53e 0219 833a a97d ad3c
00000380: ab9f b7bd 01d9 57be 7fad 94be f951 3a3f
00000390: 16d2 b53e 893b 883e f896 adbd c759 c63b
000003a0: 7527 a93d 0eb1 41be 6d8c 03be 7533 2dbe
000003b0: e594 70bd 0d69 d5bd 6600 993d 19f0 b33d
000003c0: 2470 99be 0eea 58bc 7b3b c03e 1608 b0be
000003d0: 5a13 cb3e 00cb 0d3e 0dfe ecbe 5534 403e
000003e0: 22f8 b8be a6e4 81be 10f5 dcbe 757f 93bd
000003f0: 3589 75bd f8ae 773e 773d 383e 1970 f6be

l4/b f4 [36]
-0.4525207 -0.42698905 -0.37705863 -0.49807423 -0.496753 -0.49266317 -0.370438 -0.32461613
-0.3147869 -0.40613827 -0.35331228 -0.43885314 -0.44067797 -0.34725308 -0.10267885 -0.07746785
-0.36728796 -0.38025945 -0.37136853 -0.43404 -0.14475784 -0.12684411 -0.3826977 -0.51250845
-0.4258384 -0.32996926 -0.3882826 -0.28793293 -0.4189788 -0.53044075 -0.47835472 -0.4281093
-0.23701532 -0.4187972 -0.3455926 -0.36240083
00000000: cbb0 e7be 4f9e dabe d40d c1be 9603 ffbe
00000010: 6956 febe 593e fcbe 0daa bdbe 1634 a6be
00000020: c02b a1be 5bf1 cfbe 59e5 b4be 5cb1 e0be
00000030: 8ba0 e1be 28cb b1be 4a49 d2bd 77a7 9ebd
00000040: 2b0d bcbe 5eb1 c2be 0424 bebe 7e3a debe
00000050: 663b 14be 6ce3 01be f4f0 c3be c133 03bf
00000060: 7e07 dabe bbf1 a8be facc c6be f26b 93be
00000070: 6484 d6be f7ca 07bf e9ea f4be 2431 dbbe
00000080: 25b4 72be 966c d6be 83f1 b0be 9a8c b9be

l4/W f4 [36, 256]
-0.038468897 -0.0017905518 0.0016977228 0.007286105 0.038868304 0.09835554 -0.12972069 0.15841931
-0.13512787 -0.06818542 0.046971124 -0.042306673 0.12550503 0.01806907 0.1459301 -0.12503307
0.07937287 0.11028108 -0.045940258 0.08205574 0.23941086 0.011091902 0.09772045 -0.06381409
-0.14562139 0.11440044 -0.26085877 -0.07311965 -0.004966897 0.09116261 -0.10618061 0.15797028
-0.052088775 0.026953377 -0.08577316 -0.08451528 -0.06671467 0.05244017 -0.0450472 0.01660767
-0.1552902 -0.1465387 0.05611238 0.027042625 0.003628129 -0.16123241 0.06176412 -0.06810938
0.0063919015 -0.09357136 -0.14962876 -0.06583691 -0.46865466 0.034660008 0.21450402 -0.16496225
0.29884014 -0.27726096 -0.10129114 0.081910536 -0.027241277 -0.20032582 -0.12637436 0.010354788
-0.27523988 -0.3177378 0.0544033 0.13742696 -0.21559441 0.2136524 0.0627083 -0.10108241
0.011764894 -0.32078362 0.035727646 -0.07154879 0.18483734 0.28246385 0.25497675 0.14839058
-0.37042516 0.008827991 -0.27624026 0.10151364 -0.2823396 -0.2627476 0.17055176 -0.0069274586
-0.1719175 -0.09352316 -0.03646246 -0.1681966 0.046040684 -0.053568576 0.14764595 0.060803846
-0.07693988 -0.09171845 0.10838895 -0.22241525 -0.014422915 0.2576184 0.14941737 0.13676299
0.19441818 0.0018133463 0.11454592 -0.01572171 -0.3230312 0.05981447 -0.21491863 -0.14466594
-0.08885687 0.007520316 -0.09625948 0.044825662 -0.16747531 0.08090526 -0.3169979 0.21133411
-0.045027617 0.15266564 0.012499777 -0.0630764 -0.13722245 0.061434235 0.0047209873 -0.20615236
-0.117776096 0.112280175 -0.29573026 0.06633821 -0.17310342 -0.046067677 -0.16383693 0.056432832
-0.060275923 0.04795634 0.19778408 -0.06733893 0.12150585 -0.045377016 0.04878466 -0.30976212
0.24004255 -0.06442909 -0.065749615 -0.020208728 0.19017127 -0.10528635 0.15139809 -0.22693181
0.026346643 -0.034717627 0.15514156 0.012120016 -0.06686155 0.050265837 0.0038200489 0.23269805
0.072349705 -0.16436128 -0.12570634 -0.084592216 0.009613313 0.098593205 0.073746905 0.2190549
-0.43175536 -0.07357496 0.07741466 -0.052123077 0.058020506 0.22008741 0.17512831 0.03792822
-0.077517495 0.061665203 -0.29677787 0.071186826 -0.01490959 0.123984136 0.15868513 -0.15119056
-0.09604184 0.25770319 -0.2544821 -0.36845762 0.17526782 0.06220292 -0.15638135 -0.024809692
-0.27941868 0.06880055 0.05308094 -0.010368508 -0.28201574 -0.051109005 0.0036444545 0.01658636
-0.48614186 -0.11114135 0.06973918 -0.08400266 -0.029321257 0.031624 -0.058144033 0.15313618
-0.038243357 0.08025043 0.06535761 0.05659048 0.042666044 -0.19778821 0.026467111 0.049688686
-0.108862914 0.30157715 0.06859474 -0.04782544 0.124278635 -0.053040955 0.17140818 0.053250477
-0.13732547 0.009421223 0.17528367 0.07660209 -0.0948316 0.043820716 -0.2003751 -0.036399547
0.1972092 0.02505073 -0.07393933 -0.081179395 -0.048477285 0.19037382 0.022543857 0.0825418
0.07624185 -0.07442353 0.10346403 -0.15789716 0.03236216 0.15387304 -0.18349117 0.15452409
0.09159572 -0.1907474 -0.23265561 -0.09015707 0.103436925 0.025446257 -0.041870743 -0.08029928
00000000: 9091 1dbd f3b0 eaba 2086 de3a 47c0 ee3b
00000010: 5f34 1f3d a16e c93d 80d5 04be ac38 223e
00000020: f65e 0abe cca4 8bbd cb64 403d c349 2dbd
00000030: 6484 003e 9605 943c b36e 153e ab08 00be
00000040: 3e8e a23d 0cdb e13d da2b 3cbd d70c a83d
00000050: 1f28 753e cfba 353c a921 c83d f6b0 82bd
00000060: c61d 15be c74a ea3d 488f 85be c1bf 95bd
00000070: 5ac1 a2bb 76b3 ba3d 3875 d9bd f6c2 213e
00000080: 0a5b 55bd 54cd dc3c d7a9 afbd 5916 adbd
00000090: b3a1 88bd 81cb 563d 6a83 38bd cf0c 883c
000000a0: 6504 1fbe 3e0e 16be 18d6 653d 7f88 dd3c
000000b0: e7c5 6d3b 1c1a 25be 60fc 7c3d ee7c 8bbd
000000c0: 2873 d13b 57a2 bfbd 4838 19be 80d5 86bd
000000d0: 81f3 efbe a7f7 0d3d f1a6 5b3e ddeb 28be
000000e0: 9301 993e 26f5 8dbe bb71 cfbd b6c0 a73d
000000f0: 1929 dfbc 3622 4dbe 4868 01be 21a7 293c
00000100: 3eec 8cbe 87ae a2be ffd5 5e3d a7b9 0c3e
00000110: c8c4 5cbe b2c7 5a3e 366d 803d 4b04 cfbd
00000120: 8bc1 403c c03d a4be 2757 123d 2c88 92bd
00000130: 0046 3d3e 1a9f 903e 508c 823e b3f3 173e
00000140: 5ea8 bdbe 47a3 103c 5d6f 8dbe 62e6 cf3d
00000150: d18e 90be da86 86be 1fa5 2e3e bcff e2bb
00000160: 240b 30be 1289 bfbd a959 15bd bb3b 2cbe
00000170: 2895 3c3d b96a 5bbd 8030 173e 740d 793d
00000180: a892 9dbd e2d6 bbbd 07fb dd3d d3c0 63be
00000190: 174e 6cbc 8fe6 833e de00 193e 990b 0c3e
000001a0: 8f15 473e cead ed3a 0d97 ea3d d1ca 80bc
000001b0: 5864 a5be 0500 753d a113 5cbe 4f23 14be
000001c0: 97fa b5bd fc6c f63b b123 c5bd 1d9b 373d
000001d0: a67e 2bbe a8b1 a53d 8c4d a2be f867 583e
000001e0: e16e 38bd 6254 1c3e ddcb 4c3c 332e 81bd
000001f0: 0b84 0cbe 77a2 7b3d 83b2 9a3b 9b19 53be
00000200: 9834 f1bd 26f3 e53d f569 97be 54dc 873d
00000210: 0642 31be 76b1 3cbd dec4 27be 1d26 673d
00000220: e3e3 76bd de6d 443d e987 4a3e fee8 89bd
00000230: 0fd8 f83d 40dd 39bd 6cd2 473d 2499 9ebe
00000240: b7cd 753e 66f3 83bd bca7 86bd c68c a5bc
00000250: 42bc 423e 5fa0 d7bd 1a08 1b3e d060 68be
00000260: ead4 d73c 1234 0ebd 6edd 1e3e 0893 463c
00000270: b5ee 88bd 8de3 4d3d c959 7a3b 6648 6e3e
00000280: 152c 943d 534e 28be 2ab9 00be af3e adbd
00000290: 2881 1d3c 3ceb c93d 9e08 973d ed4f 603e
000002a0: 0a0f ddbe 78ae 96bd 948b 9e3d 027f 55bd
000002b0: e9a6 6d3d 985e 613e d654 333e 9f5a 1b3d
000002c0: 7ec1 9ebd a794 7c3d 45f3 97be 66ca 913d
000002d0: 5a47 74bc 65eb fd3d 5b7e 223e b3d1 1abe
000002e0: 96b1 c4bd acf1 833e 7a4b 82be 7aa6 bcbe
000002f0: 6879 333e 7dc8 7e3d 6f22 20be b23d cbbc
00000300: f70f 8fbe 4ee7 8c3d 666b 593d ade0 29bc
00000310: 5e64 90be ad57 51bd cdd7 6e3b 1ee0 873c
00000320: 96e7 f8be 139e e3bd 6ad3 8e3d 9609 acbd
00000330: 2233 f0bc 2b88 013d 7028 6ebd bbcf 1c3e
00000340: 11a5 1cbd 565a a43d 36da 853d 6bcb 673d
00000350: 97c2 2e3d fe88 4abe 8ed1 d83c 5d86 4b3d
00000360: 85f3 debd 5268 9a3e 667b 8c3d 9ce4 43bd
00000370: cc85 fe3d 7941 59bd a085 2f3e 2c1d 5a3d
00000380: 0c9f 0cbe 795b 1a3c 907d 333e 8ee1 9c3d
00000390: 1237 c2bd 5a7d 333d 212f 4dbe b117 15bd
000003a0: 35f1 493e 3037 cd3c 816d 97bd 6241 a6bd
000003b0: 1e90 46bd 5bf1 423e e5ad b83c ad0b a93d
000003c0: b024 9c3d 5d6b 98bd f3e4 d33d cbaf 21be
000003d0: 2f8e 043d e590 1d3e 1ce5 3bbe 903b 1e3e
000003e0: 8996 bb3d 4953 43be 463d 6ebe 45a4 b8bd
000003f0: bdd6 d33d ab74 d03c a880 2bbd f373 a4bd

l3/b f4 [256]
0.1483904 -0.00716749 -0.046322294 -0.08665162 -0.1760154 -0.14245711 0.0825845 0.13624786
0.10908712 0.025640216 0.31559202 -0.014776174 -0.36195937 -0.32887816 -0.0077974703 -0.1798492
-0.015119209 0.12776363 -0.28771794 0.012585923 0.011092773 0.14915434 -0.16985847 0.07985897
0.041932695 0.033737343 0.029402124 -0.024122385 -0.05568833 -0.06646982 0.032760322 0.05544077
0.1648436 0.105750374 -0.096354075 -0.0087822955 0.013569546 0.075538635 -0.18802491 -0.15809824
-0.005912378 0.31234998 -0.18907717 -0.11696882 0.061535563 0.037171014 0.12426208 0.15480435
0.028864492 0.02859343 0.040598255 0.08792648 0.34140465 -0.0036420648 -0.07605093 0.13612005
-0.034679014 0.058042586 0.013391963 -0.045888375 0.19795355 0.16608487 0.031792864 0.028034693
0.18839793 0.13838123 -0.075355195 -0.003974503 0.12175635 -0.031082382 -0.08471347 -0.0008804631
-0.12906566 -0.09771417 0.10014672 -0.03636359 -0.26855785 0.024322908 0.06432579 0.05358339
0.13035032 -0.028759733 0.057901654 -0.3390844 0.013003495 0.025878215 -0.033030313 -0.011413295
-0.11990457 0.99590844 -0.033430856 0.052199475 -0.25026232 0.30469084 -0.38127196 -0.27217942
-0.04158077 0.082134016 0.067341626 -0.11254957 0.39027315 0.008905582 0.14394791 -0.15219513
-0.015344717 -0.19561467 0.013244569 -0.05477577 0.11796526 0.06367168 0.061598808 0.07730544
0.11926402 -0.3955656 0.12895484 -0.16732413 -0.006666697 -0.20717466 0.18976897 -0.03299061
-0.32995522 0.0024044625 0.25109255 0.06620611 0.0003472468 -0.37237427 0.07375726 0.10548198
-0.12743321 -0.0021745185 0.13194227 -0.104491085 0.06733057 0.03129567 0.21590485 -0.031222705
0.008095594 -0.16706331 -0.23382775 -0.29662296 -0.050378453 -0.002074886 -0.13329712 -0.08634252
-0.0755568 0.005964614 0.2151508 -0.0074025993 0.06201204 -0.011601256 0.10070549 0.05046676
-0.15694313 -0.14198574 -0.017103162 -0.24476965 -0.09711104 -0.031417705 -2.6351578e-05 0.18283778
-0.3453786 0.046052016 -0.02012581 -0.014343092 0.103782654 0.011647163 -0.25984782 -0.0014401032
0.12516639 0.20267056 0.010205693 0.018154971 -0.058583237 -0.051141262 0.07682766 -0.22711787
-0.096182905 0.12467089 0.11484981 -0.0365852 0.14854108 -0.14000805 0.01672619 -0.06537604
-0.055316985 -0.14650309 0.035597347 0.009257431 -0.21731474 -0.19641744 0.04059308 0.124091245
0.038989417 0.08423952 0.042424273 0.09336982 0.14646052 0.14628953 -0.11324225 -0.355889
0.118578956 -0.2584633 -0.2019494 0.02939619 0.069885425 -0.46652046 -0.21230344 -0.33291778
-0.17257498 -0.22423607 -0.28355467 -0.015954128 -0.00264103 0.18314348 -0.10786433 0.00866063
0.05980435 -0.078474864 -0.2487781 -0.16864204 0.0118140895 -0.027644379 -0.07353299 -0.34275934
0.0070475265 0.011395912 -0.029274868 -0.14741638 0.0109434975 0.12384655 -0.00819139 0.10353769
0.028096508 0.0068709105 -0.12367392 0.025408817 0.0011176331 0.010378608 -0.058010127 -0.18952788
0.021497227 -0.16637482 -0.053755272 0.005311942 0.043250225 -0.251096 -0.1409504 0.10355572
-0.06389125 0.07029285 0.049853683 0.50262636 -0.1203427 0.042501725 -0.00850783 0.006433218
00000000: a7f3 173e 44dd eabb 72bc 3dbd 6876 b1bd
00000010: 623d 34be 47e0 11be 1022 a93d 8f84 0b3e
00000020: 1169 df3d 6e0b d23c 4795 a13e c417 72bc
00000030: bd52 b9be b862 a8be ec81 ffbb 642a 38be
00000040: 8fb6 77bc 78d4 023e c44f 93be 3035 4e3c
00000050: 76be 353c eabb 183e 61ef 2dbe 1a8d a33d
00000060: 9ec1 2b3d 2b30 0a3d b9dc f03c 4f9c c5bc
00000070: 7219 64bd 5421 88bd b02f 063d dc15 633d
00000080: c3cc 283e a793 d83d 4955 c5bd 9ee3 0fbc
00000090: cd52 5e3c 00b4 9a3d 9a89 40be 81e4 21be
000000a0: 9fbc c1bb 56ec 9f3e 729d 41be 598d efbd
000000b0: b70c 7c3d a240 183d 1e7d fe3d 0885 1e3e
000000c0: 3a75 ec3c c53c ea3c 5b4a 263d cc12 b43d
000000d0: 97cc ae3e b5af 6ebb 97c0 9bbd 0e63 0b3e
000000e0: 950b 0ebd 10be 6d3d f769 5b3c 73f5 3bbd
000000f0: 56b4 4a3e 2712 2a3e 3c39 023d 03a9 e53c
00000100: 63eb 403e cfb3 0d3e d353 9abd 8c3c 82bb
00000110: 655b f93d 7ba0 febc 417e adbd e1ce 66ba
00000120: ca29 04be 5e1e c8bd b919 cd3d fdf1 14bd
00000130: 6a80 89be d640 c73c 3dbd 833d 427a 5b3d
00000140: 8e7a 053e 8899 ebbc 492a 6d3d 789c adbe
00000150: 9c0c 553c 8dfe d33c cb4a 07bd d4fe 3abc
00000160: 8790 f5bd dbf3 7e3f cbee 08bd 1ecf 553d
00000170: 6222 80be 7000 9c3e 1436 c3be 1a5b 8bbe
00000180: 9950 2abd e135 a83d 68ea 893d 6480 e6bd
00000190: e2d1 c73e b8e8 113c 1567 133e 0ad9 1bbe
000001a0: 6868 7bbc 364f 48be c0ff 583c 8f5c 60bd
000001b0: c597 f13d 4c66 823d 084f 7c3d 5152 9e3d
000001c0: b240 f43d 9387 cabe bd0c 043e 0457 2bbe
000001d0: 4f74 dabb 9825 54be cc52 423e 2921 07bd
000001e0: e4ef a8be 3094 1d3b 348f 803e 1297 873d
000001f0: ad0e b639 d7a7 bebe 0c0e 973d f006 d83d
00000200: da7d 02be 5e82 0ebb e01b 073e 6cff d5bd
00000210: 9ce4 893d e32f 003d 2916 5d3e c2c6 ffbc
00000220: 62a3 043c a512 2bbe 8b70 6fbe f7de 97be
00000230: a359 4ebd d0fa 07bb 0a7f 08be 59d4 b0bd
00000240: 86bd 9abd cf72 c33b 7e50 5c3e 8191 f2bb
00000250: 5600 7e3d 3213 3ebc ae3e ce3d 3cb6 4e3d
00000260: b3b5 20be b664 11be ee1b 8cbc e5a4 7abe
00000270: 27e2 c6bd daaf 00bd 950d ddb7 d439 3b3e
00000280: 77d5 b0be 0aa1 3c3d e2de a4bc 4aff 6abc
00000290: 008c d43d bed3 3e3c c60a 85be d8c1 bcba
000002a0: 9e2b 003e df88 4f3e c735 273c bcb9 943c
000002b0: faf4 6fbd 8079 51bd d257 9d3d 9691 68be
000002c0: 8bfb c4bd 7453 ff3d 6136 eb3d 5dda 15bd
000002d0: 271b 183e 455e 0fbe 5d05 893c e0e3 85bd
000002e0: 1094 62bd e804 16be 86ce 113d 7bac 173c
000002f0: c187 5ebe a721 49be ee44 263d 8d23 fe3d
00000300: 5eb3 1f3d c585 ac3d 13c5 2d3d ad38 bf3d
00000310: bff9 153e eccc 153e 8eeb e7bd 1537 b6be
00000320: 86d9 f23d 4d55 84be d3cb 4ebe 47d0 f03c
00000330: 1720 8f3d c5db eebe 1366 59be 3374 aabe
00000340: 7fb7 30be 249e 65be 142e 91be 3bb2 82bc
00000350: 2115 2dbb f789 3b3e f9e7 dcbd 51e5 0d3c
00000360: 68f5 743d 6eb7 a0bd b0bf 7ebe 80b0 2cbe
00000370: e28f 413c 7776 e2bc 7798 96bd 277e afbe
00000380: f0ee e63b ebb5 3a3c d9d1 efbc 52f4 16be
00000390: 5b4c 333c 43a3 fd3d 2e35 06bc 920b d43d
000003a0: a62a e63c 6025 e13b c148 fdbd 2726 d03c
000003b0: 8b7d 923a 090b 2a3c 079c 6dbd 9913 42be
000003c0: f41a b03c 295e 2abe 7d2e 5cbd cd0f ae3b
000003d0: 2627 313d a88f 80be 4d55 10be 0515 d43d
000003e0: 6ad9 82bd b3f5 8f3d 6033 4c3d 1fac 003f
000003f0: 3c76 f6bd 4a16 2e3d 6d64 0bbc becd d23b

l3/W f4 [256, 256]
-0.15825333 -0.12604262 -0.0993308 -0.034068495 -0.14065558 0.029798342 -0.14461796 0.18026361
0.013301175 -0.01578517 0.11360679 -0.004961908 -0.10090979 0.06878409 0.08526865 -0.15133195
-0.06903113 -0.18015079 0.2044639 0.20749119 0.2676883 -0.080402285 -0.044504583 0.043697886
-0.15330872 -0.021784153 0.05922791 -0.33389682 0.070161834 0.054715578 0.063305885 0.095509
0.029063193 -0.039872695 0.0578267 -0.082425445 -0.08045105 0.10376771 -0.097722694 -0.03471467
-0.020141391 0.09646827 0.040200472 0.04207856 0.0793538 -0.0061304807 -0.09246542 0.02679515
0.05141162 0.04663634 0.038549386 -0.06958792 0.024215708 0.01577769 -0.03375935 -0.031191435
0.0014264026 0.09490295 0.013188311 0.14278193 0.0046984386 0.027247801 0.022127824 -0.022235248
0.058700886 0.035767745 -0.07148678 0.04347034 -0.02761294 -0.01103098 -0.054035373 0.108484454
-0.18164578 0.101130985 0.14109598 -0.13809656 -0.17532788 0.15794127 0.07195861 -0.035063226
-0.015836531 0.07827318 -0.03916103 -0.2781626 0.00703563 0.04237228 -0.12040092 0.005798614
0.09083707 -0.022036334 -0.07378096 -0.1055946 0.0872033 0.007857076 -0.10369856 0.22699928
0.11620266 -0.115756236 -0.020325834 -0.22647958 -0.022968909 -0.04409037 0.020751676 0.053530235
-0.034300085 0.036362406 0.08829697 -0.21147636 -0.036670476 0.02561027 0.027552867 -0.11815464
0.19694151 -0.19323094 0.11092349 -0.32552177 0.1383303 0.16664396 -0.053174894 0.07533898
0.07846668 -0.032294117 0.2536043 -0.10786852 -0.11441882 -0.040840764 -0.045802984 0.15634339
0.011642689 0.09564542 -0.13884996 -0.17196004 -0.072777286 -0.09656512 -0.04076581 -0.13111041
-0.093438335 -0.058935918 0.09104664 0.15797442 -0.03330281 0.23640272 -0.24937986 0.0018835036
0.04630931 0.050546806 -0.116201445 0.049713384 0.10819065 -0.10328197 -0.08613285 0.057105992
-0.29022098 -0.3046601 -0.010735894 -0.06699024 0.04508283 0.081077516 -0.19441967 0.048771787
-0.10928712 -0.13362895 -0.22342809 0.054115217 -0.039905746 -0.083674006 0.051711217 -0.15432397
-0.03135553 0.19219118 0.051144004 0.09843317 -0.06704093 -0.12273662 -0.04803453 -0.010598411
-0.033210423 -0.09698784 0.08966545 0.03172927 0.05384861 -0.02040711 -0.13686089 0.15581542
0.03428718 0.05367253 -0.16900143 0.07862842 0.038943857 -0.22540633 -0.16685392 0.096744664
0.03621083 -0.17158128 -0.027832136 -0.15553676 -0.08928613 -0.0072003035 -0.025825046 -0.16239776
-0.06759657 0.12549916 0.026577286 0.06277955 0.13398129 -0.1099694 -0.090380296 -0.018139254
0.049113326 -0.0152129745 -0.09975515 0.14971252 -0.023004116 -0.11612737 -0.040676717 0.035266474
-0.15518707 -0.07002749 0.059387047 0.025904784 0.077967875 -0.22021921 -0.07504565 0.00178844
0.06615026 -0.060273807 -0.065704726 -0.06306304 0.06845672 -0.030292563 -0.09022453 0.08223303
-0.20731542 0.08082053 -0.05745412 -0.033831432 -0.07780718 0.035937913 -0.0019528902 -0.045202415
-0.015013753 -0.013665491 0.08456364 0.23376262 -0.122485556 -0.04869832 0.08185957 0.043322332
-0.046216317 0.1648758 0.11808679 0.008494095 0.17532647 -0.13580576 0.26521105 0.0070607
00000000: 290d 22be 5111 01be f26d cbbd 688b 0bbd
00000010: 0408 10be a71b f43c bb16 14be 0697 383e
00000020: 2ced 593c e74f 81bc adaa e83d 8097 a2bb
00000030: cba9 cebd acde 8c3d 54a1 ae3d c3f6 1abe
00000040: 3160 8dbd 7379 38be fc5e 513e 9278 543e
00000050: 710e 893e f4a9 a4bd 704a 36bd 8efc 323d
00000060: f6fc 1cbe ae74 b2bc f798 723d 86f4 aabe
00000070: 02b1 8f3d 711d 603d 84a6 813d 399a c33d
00000080: ef15 ee3c 8d51 23bd b1db 6c3d acce a8bd
00000090: 85c3 a4bd 2a84 d43d d622 c8bd f830 0ebd
000000a0: 8fff a4bc 2891 c53d 40a9 243d 915a 2c3d
000000b0: 3f84 a23d 33e2 c8bb 835e bdbd 8181 db3c
000000c0: fe94 523d bf05 3f3d f6e5 1d3d 1d84 8ebd
000000d0: 0560 c63c 3740 813c 3f47 0abd 2e85 ffbc
000000e0: 21f6 ba3a 7a5c c23d c913 583c 6d35 123e
000000f0: 5cf5 993b c836 df3c 6945 b53c b226 b6bc
00000100: 5770 703d 3381 123d a967 92bd f50d 323d
00000110: 8834 e2bc 49bb 34bc 3254 5dbd 192d de3d
00000120: 5a01 3abe c31d cf3d 777b 103e 2f69 0dbe
00000130: 2789 33be 5bbb 213e 095f 933d 759e 0fbd
00000140: 9dbb 81bc b04d a03d 5167 20bd 546b 8ebe
00000150: 248b e63b 8e8e 2d3d c294 f6bd 4d02 be3b
00000160: c908 ba3d 8b85 b4bc 791a 97bd fb41 d8bd
00000170: a597 b23d f7ba 003c e95f d4bd 8072 683e
00000180: a9fb ed3d 9b11 edbd 5d82 a6bc 43ea 67be
00000190: 4b29 bcbc 1b98 34bd 6bff a93c 8542 5b3d
000001a0: 3f7e 0cbd bff0 143d 0bd5 b43d 428d 58be
000001b0: c833 16bd a1cc d13c 8db6 e13c 0ffb f1bd
000001c0: 09ab 493e 55de 45be db2b e33d caaa a6be
000001d0: 75a6 0d3e b7a4 2a3e ebcd 59bd 534b 9a3d
000001e0: 24b3 a03d d646 04bd 6cd8 813e 2cea dcbd
000001f0: 6a54 eabd a548 27bd e99b 3bbd 7b18 203e
00000200: fac0 3e3c bfe1 c33d af2e 0ebe 4b16 30be
00000210: 420c 95bd efc3 c5bd 0dfa 26bd cf41 06be
00000220: 995c bfbd ca66 71bd a976 ba3d 0cc4 213e
00000230: 8768 08bd 8e13 723e 6f5d 7fbe e5df f63a
00000240: d5ae 3d3d 2b0a 4f3d 06fb edbd 43a0 4b3d
00000250: 0f93 dd3d 7f85 d3bd 6b66 b0bd f9e7 693d
00000260: d897 94be 69fc 9bbe 9ae5 2fbc 2e32 89bd
00000270: c6a8 383d f80b a63d f315 47be edc4 473d
00000280: edd1 dfbd 07d6 08be 55ca 64be eba7 5d3d
00000290: 3574 23bd 475d abbd 24cf 533d 1a07 1ebe
000002a0: a86e 00bd c4cd 443e 607c 513d 5497 c93d
000002b0: c14c 89bd 565d fbbd dbbf 44bd f5a4 2dbc
000002c0: a707 08bd 90a1 c6bd 85a2 b73d 8df6 013d
000002d0: 5c90 5c3d d02c a7bc 4325 0cbe 148e 1f3e
000002e0: b770 0c3d bad7 5b3d b60e 2dbe f007 a13d
000002f0: 9883 1f3d ebd0 66be c1db 2abe 1122 c63d
00000300: cf51 143d 01b3 2fbe 3800 e4bc 0745 1fbe
00000310: a6db b6bd 86f0 ebbb 0c8f d3bc 994b 26be
00000320: 1270 8abd da82 003e 9cb8 d93c 9192 803d
00000330: 6432 093e a337 e1bd 4e19 b9bd c698 94bc
00000340: 0e2b 493d d73f 79bc 6e4c ccbd 3d4e 193e
00000350: 2173 bcbc 30d4 edbd a19c 26bd 9473 103d
00000360: 5ce9 1ebe 936a 8fbd d53f 733d 4536 d43c
00000370: 9fad 9f3d 2581 61be 89b1 99bd 176a ea3a
00000380: ca79 873d abe1 76bd 3390 86bd 3227 81bd
00000390: 0933 8c3d 1c28 f8bc a3c7 b8bd ca69 a83d
000003a0: 7e4a 54be 3c85 a53d 0355 6bbd d492 0abd
000003b0: 5f59 9fbd a233 133d 1ff8 ffba 2b26 39bd
000003c0: 3ffc 75bc 39e5 5fbc b42f ad3d 785f 6f3e
000003d0: b5d9 fabd e477 47bd fea5 a73d c272 313d
000003e0: 524d 3dbd 34d5 283e 7dd7 f13d d12a 0b3c
000003f0: c888 333e aa10 0bbe bec9 873e 725d e73b
