static/ai/4/agent_black_12000/model.npz (npz, 521853 bytes, 8 tensors)

l2/b f4 [256]
-0.00070718856 -0.03285417 0.05099569 0.02330464 0.0058680805 -0.03202696 -0.0108115 -0.008452152
-0.021719329 0.04660806 -0.0008989393 0.05065517 -0.014549022 -0.0036734226 0.084294416 0.014911137
-0.021070853 0.017617438 -0.043455295 0.025815722 0.0049176663 -0.008872649 -0.019951936 -0.008062539
-0.032340206 -0.031916507 0.039509624 -0.014518049 -0.055982728 0.039977565 0.0035793039 0.027794631
0.006215626 -0.03478385 -0.021764629 -0.009443673 0.017404784 -0.016062668 0.05897878 -0.0077007846
-0.12511016 -0.041617896 0.027794287 -0.00038891786 0.02711191 -0.012401996 0.023717863 -0.039194062
0.014641052 -0.0007792676 0.0048693405 -0.018507669 -0.014608496 -0.01118734 -0.030153805 0.055817258
-0.054537635 -0.008341627 -0.023846552 -0.008807631 0.0010976073 -0.046907607 0.00201985 0.016586596
-0.020641753 0.0050318325 0.018132951 -0.0020916401 0.057573996 -0.029782293 -0.008021631 -0.016310824
-0.0197337 0.018141408 0.017353732 0.013420576 0.028945098 0.002275916 -0.01981899 -0.011225548
-0.0714162 -0.03488764 -0.03548543 0.035968963 -0.0010816623 0.050063875 -0.0064741056 -0.035470597
-0.011627372 -0.039268 -0.03452418 0.002999755 0.013863248 -0.0015849763 -0.08337796 -0.0026345996
0.045810424 -0.00063646154 0.041915208 -0.0064242915 0.005208457 -0.017533675 -0.0021934297 0.009459408
-0.01738354 -0.021305872 0.00086978835 0.06848829 -0.03366397 0.01477091 0.029329253 -0.006928556
0.018141322 0.012274063 0.018764872 0.048753724 -0.025547815 -0.04891957 -0.06240669 0.016189791
-0.016304595 0.040096268 -0.011888069 0.014678052 -0.01665908 -0.00082313805 0.026544578 0.0149404695
-0.051221985 -0.01593094 -0.07434685 0.0925994 0.042592082 0.02453785 -0.04792164 0.04834144
-0.022074541 0.0045068953 0.02491747 -0.004300867 0.06345063 -0.008040347 -0.009554597 0.017090935
0.057664037 0.03401653 -0.0115074655 -0.07821568 -0.036865108 -0.023106419 -0.0060581225 -0.0026482982
-0.034561012 -0.038092945 -0.013098701 0.018647067 0.045577336 0.051976435 -0.012662683 0.037513617
-0.07552706 -0.0025770122 -0.022848906 0.03426469 0.01743047 -0.0022692801 -0.03148315 0.0112463
0.035705056 -0.009295562 -0.0077280705 -0.036415868 -0.03668574 0.0019204522 -0.034276117 -0.04169706
0.070324495 -0.017270308 -0.003662525 -0.0005848893 0.058857266 -0.027207721 -0.073335715 0.018344324
0.0 0.02876905 -0.05435852 -0.026840357 0.027274866 0.007372208 0.14937441 -0.037295066
0.026676456 0.020577155 -0.002139691 0.030449217 -0.009958252 0.02739675 -0.008808159 -0.0204227
0.010783988 -0.0075657656 0.012073207 -0.01698529 0.008670972 -0.016477143 -0.0892201 0.021443052
-0.008918212 -0.016118871 0.030047182 0.0164313 -0.0035139928 0.06802836 -0.03253065 -0.03260788
-0.024515452 0.033211894 -0.038554136 0.0073259557 0.046310022 -0.021678124 0.03962576 -0.01698985
-0.048173115 -0.031343587 -0.024664897 0.011336344 -0.056568243 0.01109394 -0.012769598 0.03332864
-0.04686676 -0.003291915 0.03674213 0.009499813 0.02791401 0.0067805476 -0.0020076688 -0.02469128
-6.734733e-05 -0.025775779 -0.08777871 0.013604166 0.029797148 -0.080055445 -0.015973043 -0.037112102
-0.0010341445 0.016522206 0.055257887 -0.0039146235 0.03959599 -0.07654622 0.054797247 0.040050942
00000000: 9f62 39ba 1892 06bd dbe0 503d 5fe9 be3c
00000010: 0749 c03b b42e 03bd b822 31bc e57a 0abc
00000020: bcec b1bc 18e8 3e3d cca6 6bba cc7b 4f3d
00000030: 055f 6ebc cebd 70bb 8da2 ac3d d74d 743c
00000040: c89c acbc 7252 903c 2efe 31bd 7e7b d33c
00000050: 6024 a13b 965e 11bc 3e72 a3bc bd18 04bc
00000060: 2a77 04bd e2ba 02bd d8d4 213d 1cdd 6dbc
00000070: 254e 65bd 84bf 233d c192 6a3b 91b1 e33c
00000080: 73ac cb3b 8379 0ebd bc4b b2bc a3b9 1abc
00000090: 7a94 8e3c db95 83bc bc93 713d dd56 fcbb
000000a0: e11c 00be 8777 2abd d8b0 e33c ace7 cbb9
000000b0: cc19 de3c be31 4bbc f74b c23c f489 20bd
000000c0: 06e1 6f3c c347 4cba fd8e 9f3b 659d 97bc
000000d0: 7958 6fbc 1b4b 37bc 1d05 f7bc a3a0 643d
000000e0: db62 5fbd 52ab 08bc d859 c3bc e24d 10bc
000000f0: 97dd 8f3a 3122 40bd 765f 043b 9de0 873c
00000100: e518 a9bc 12e2 a43b 8e8b 943c e613 09bb
00000110: b6d2 6b3d fff9 f3bc 296d 03bc 479e 85bc
00000120: 92a8 a1bc 4a9d 943c 6a29 8e3c fae1 5b3c
00000130: 451e ed3c 8927 153b 6f5b a2bc 5ceb 37bc
00000140: a842 92bd 58e6 0ebd 2c59 11bd 3154 133d
00000150: 90c6 8dba c70f 4d3d bc24 d4bb 9e49 11bd
00000160: bc80 3ebc 7bd7 20bd 3a69 0dbd 8a97 443b
00000170: ad22 633c fbbe cfba 10c2 aabd 3fa9 2cbb
00000180: b6a3 3b3d 36d8 26ba 48af 2b3d dd82 d2bb
00000190: b4ab aa3b c8a2 8fbc a5bf 0fbb a2fb 1a3c
000001a0: ed67 8ebc a789 aebc 8202 643a 9743 8c3d
000001b0: 3be3 09bd b001 723c e743 f03c f108 e3bb
000001c0: 1c9d 943c 2719 493c cab8 993c fcb1 473d
000001d0: a749 d1bc e35f 48bd 289e 7fbd 74a0 843c
000001e0: 3791 85bc fc3b 243d 2dc6 42bc 367c 703c
000001f0: 9f78 88bc dcc7 57ba 0474 d93c dfc8 743c
00000200: 25ce 51bd 9a81 82bc 2943 98bd c1a4 bd3d
00000210: 0975 2e3d 9a03 c93c 7b49 44bd ac01 463d
00000220: abd5 b4bc 94ae 933b b91f cc3c 4aee 8cbb
00000230: 67f2 813d a9bb 03bc e28a 1cbc 4a02 8c3c
00000240: 2031 6c3d eb54 0b3d cf89 3cbc 8b2f a0bd
00000250: deff 16bd ac49 bdbc 3783 c6bb 128f 2dbb
00000260: d98f 0dbd 5907 1cbd ef9b 56bc bcc1 983c
00000270: 4daf 3a3d 3ee5 543d 2477 4fbc e1a7 193d
00000280: eead 9abd 17e3 28bb a12d bbbc 2259 0c3d
00000290: 58ca 8e3c 34b8 14bb 7af4 00bd 6742 383c
000002a0: 773f 123d 6a4c 18bc c13b fdbb ce28 15bd
000002b0: c943 16bd afb7 fb3a 1d65 0cbd 89ca 2abd
000002c0: 4a06 903d 767a 8dbc f906 70bb 4253 19ba
000002d0: 5114 713d bae2 debc 0931 96bd d646 963c
000002e0: 0000 0000 12ad eb3c 0aa7 5ebd 4fe0 dbbc
000002f0: 8a6f df3c 9092 f13b 9bf5 183e b6c2 18bd
00000300: 9588 da3c 6c91 a83c 0f3a 0cbb a370 f93c
00000310: f027 23bc 266f e03c 1950 10bc 824d a7bc
00000320: 53af 303c 3eea f7bb b3ce 453c bc24 8bbc
00000330: b110 0e3c 13fb 86bc 07b9 b6bd 57a9 af3c
00000340: b11d 12bc b90b 84bc 8225 f63c ef9a 863c
00000350: 044b 66bb 7452 8b3d dc3e 05bd d78f 05bd
00000360: a1d4 c8bc 3209 083d f1ea 1dbd 920e f03b
00000370: 94af 3d3d 5296 b1bc 9f4e 223d 4c2e 8bbc
00000380: 2c51 45bd 2262 00bd 0a0e cabc 13bc 393c
00000390: 1ab4 67bd 5bc3 353c 9337 51bc 9d83 083d
000003a0: 5cf7 3fbd 2bbd 57bb ea7e 163d 1ba5 1b3c
000003b0: ecab e43c 5b2f de3b 1893 03bb 5e45 cabc
000003c0: d33c 8db8 ba27 d3bc 53c5 b3bd 02e4 5e3c
000003d0: 2619 f43c 1cf4 a3bd e6d9 82bc dc02 18bd
000003e0: 228c 87ba 9459 873c 1856 623d 3e46 80bb
000003f0: 682f 223d 44c4 9cbd 1473 603d 750c 243d

l2/W f4 [256, 256]
-0.07149248 -0.06004828 0.02071214 -0.032211263 -0.06614762 -0.008673588 -0.0050627734 0.20746383
0.10203802 -0.07943443 0.03840994 -0.025486026 0.040953033 -0.16269085 0.0361287 -0.03617436
0.05896832 0.03141245 0.11858641 -0.17050277 -0.055885952 0.02809318 -0.13468248 0.35140264
0.08523443 0.07750489 0.005819146 -0.055121712 0.22512205 0.067766316 0.06808744 0.1868712
0.01373277 -0.085833624 0.22589102 0.06948661 0.014422924 -0.0100475885 -0.0540207 0.086568266
0.14248368 0.15045819 -0.20466582 0.060284305 0.035956703 -0.029439928 0.033983417 0.29519844
0.032889914 -0.05663632 -0.05533297 -0.069204964 -0.04571459 0.059327025 0.0039124447 0.01719871
-0.08806381 0.012972125 0.2344438 0.09551198 -0.13040416 -0.15404741 0.010973175 -0.15783916
0.018807385 -0.011711428 0.108969435 0.03828476 -0.02631206 -0.08155447 -0.061643656 -0.16974148
-0.15957977 -0.10676132 0.15122405 -0.17282575 -0.07443199 0.08508432 -0.07224655 0.06042333
-0.015244822 -0.03862211 -0.096209854 0.026147816 0.012784165 0.14600094 0.021283787 -0.09605589
-0.023471395 -0.32180992 0.13595368 0.132915 0.013254799 -0.048792128 -0.1808925 -0.024529796
-0.04882653 0.025259832 0.028731097 0.035991844 -0.003001417 -0.062489398 -0.088828966 -0.019637292
-0.15681897 -0.093580835 -0.15882453 0.14600094 -0.016448215 0.11700882 -0.049105126 0.15547347
0.15152575 0.07308914 0.08887195 0.16401654 -0.14502986 0.017340727 0.09433079 0.09937887
-0.087786324 -0.019714346 0.08125681 0.24137467 -0.08922323 -0.17334837 -0.07428603 -0.012295338
0.005634021 -0.03945828 0.019805105 -0.007085142 0.1589198 -0.083496496 0.08426102 0.043286044
-0.066512816 0.0307647 0.106044605 0.057924323 0.17905663 0.03285772 0.07740484 0.19533707
-0.11492389 -0.11384522 -0.02163945 -0.09618737 -0.116497196 -0.14602087 0.019009257 -0.007483557
0.06008477 -0.017576536 -0.11058305 -0.07798744 -0.14936909 0.031936277 -0.098757274 -0.03509013
-0.054641854 0.16648607 -0.035483748 0.036336515 0.057766773 -0.07027093 0.11333145 0.024093209
0.055220243 0.07172374 0.092985675 -0.08650216 -0.009249057 0.02073501 0.08851907 -0.10934279
0.063439846 0.07201186 -0.0038258696 0.058933143 -0.085799426 0.025844824 -0.02602606 -0.15011562
0.036957074 0.1288519 -0.08641252 -0.207378 -0.089627005 0.021466745 0.17943731 0.13855924
-0.008522193 -0.08504385 0.16970591 0.029390344 0.07235702 -0.004690346 0.09278513 0.04194683
-0.07355816 0.20320411 0.11413325 -0.08386787 -0.017426653 -0.08656986 0.015764652 0.023635514
-0.011624163 0.015456337 0.070562206 -0.022314625 -0.1222163 -0.067009784 -0.055499014 -0.0750995
-0.0051854504 0.122319624 0.120297045 -0.03996735 -0.028000508 0.035504736 0.12167967 -0.20679128
-0.075348996 -0.16857985 0.15069868 -0.12380778 0.03347468 -0.14892976 0.076166205 -0.05787351
0.043277957 -0.027962834 0.047938515 0.010070727 0.222983 -0.028100345 0.06789886 -0.061032787
-0.062290147 0.13949837 -0.048994534 0.08054336 -0.06238794 0.17065248 0.013903448 0.09425223
-0.06808124 -0.041392103 0.014543282 0.021507705 -0.11647404 0.059296537 0.04267522 8.989902e-05
00000000: a66a 92bd 2ff5 75bd 81ac a93c f5ef 03bd
00000010: 6778 87bd aa1b 0ebc 9fe5 a5bb 6671 543e
00000020: 4ff9 d03d 85ae a2bd be53 1d3d 12c8 d0bc
00000030: 5ebe 273d 6e98 26be b0fb 133d 912b 14bd
00000040: c488 713d 57aa 003d 6fdd f23d 4798 2ebe
00000050: abe8 64bd ab23 e63c 34ea 09be 0ceb b33e
00000060: 648f ae3d e2ba 9e3d 89ae be3b 4ec7 61bd
00000070: 6586 663e 11c9 8a3d 6e71 8b3d 2a5b 3f3e
00000080: 6aff 603c 8ac9 afbd fa4f 673e ff4e 8e3d
00000090: 214e 6c3c a49e 24bc cf44 5dbd b44a b13d
000000a0: 3ee7 113e b611 1a3e eb93 51be adec 763d
000000b0: 5647 133d 012c f1bc 3232 0b3d 4024 973e
000000c0: 93b7 063d 7cfb 67bd d3a4 62bd 55bb 8dbd
000000d0: 393f 3bbd e500 733d f733 803b 4fe4 8c3c
000000e0: cc5a b4bd 0989 543c 0912 703e c99b c33d
000000f0: ab88 05be 9bbe 1dbe d5c8 333c 97a0 21be
00000100: f211 9a3c 4ae1 3fbc 5e2b df3d 7bd0 1c3d
00000110: 648c d7bc 0806 a7bd 0f7e 7cbd b6d0 2dbe
00000120: e168 23be aea5 dabd 7ada 1a3e 3cf9 30be
00000130: cd6f 98bd b040 ae3d 00f6 93bd 747e 773d
00000140: 6bc5 79bc 3832 1ebd ac09 c5bd f233 d63c
00000150: ad74 513c 4581 153e 565b ae3c f3b8 c4bd
00000160: 1547 c0bc 45c4 a4be 7137 0b3e df1a 083e
00000170: a82a 593c 41da 47bd e23b 39be b6f2 c8bc
00000180: 54fe 47bd b5ed ce3c 7a5d eb3c 2f6c 133d
00000190: 6cb3 44bb e2f4 7fbd f6eb b5bd 63de a0bc
000001a0: 2795 20be 4fa7 bfbd e6a2 22be 4581 153e
000001b0: 68be 86bc 52a2 ef3d 7522 49bd 7034 1f3e
000001c0: 9129 1b3e c2af 953d 7f02 b63d f4f3 273e
000001d0: b582 14be 240e 8e3c 8030 c13d 2687 cb3d
000001e0: 51c9 b3bd fb7f a1bc f869 a63d ec2a 773e
000001f0: abba b6bd 3c82 31be 4623 98bd 6372 49bc
00000200: 989d b83b 019f 21bd 513e a23c 7b2a e8bb
00000210: dfbb 223e 3600 abbd 0b91 ac3d b54c 313d
00000220: df37 88bd 4106 fc3c ea2d d93d 0e42 6d3d
00000230: 9f5a 373e d195 063d 6e86 9e3d 7106 483e
00000240: 375d ebbd af27 e9bd 3745 b1bc e2fd c4bd
00000250: 1596 eebd 7f86 15be 4db9 9b3c a038 f5bb
00000260: 731b 763d abfc 8fbc 5e79 e2bd e1b7 9fbd
00000270: 36f4 18be 9dcf 023d 4141 cabd abba 0fbd
00000280: 23d0 5fbd 537b 2a3e 6857 11bd 99d5 143d
00000290: da9c 6c3d 35ea 8fbd 521a e83d 1f5f c53c
000002a0: 9f2e 623d e5e3 923d 466f be3d 0b28 b1bd
000002b0: 5b89 17bc 78dc a93c 7c49 b53d 1def dfbd
000002c0: c0ec 813d f47a 933d 71bb 7abb e163 713d
000002d0: 9cb7 afbd 86b8 d33c 9b34 d5bc e9b7 19be
000002e0: 4d60 173d c1f1 033e 0cf9 b0bd e65a 54be
000002f0: 5d8e b7bd 07db af3c 6abe 373e 79e2 0d3e
00000300: aba0 0bbc 782b aebd 63c7 2d3e 05c4 f03c
00000310: eb2f 943d 79b1 99bb 2106 be3d 70d0 2b3d
00000320: a9a5 96bd bd14 503e b2be e93d ebc2 abbd
00000330: 57c2 8ebc 8a4b b1bd df24 813c 449f c13c
00000340: 4673 3ebc 933c 7d3c eb82 903d 29cd b6bc
00000350: 8a4c fabd 6d3c 89bd ef52 63bd c4cd 99bd
00000360: b6ea a9bb b682 fa3d 4c5e f63d ceb4 23bd
00000370: 5261 e5bc 6a6d 113d 3133 f93d 18c1 53be
00000380: 9350 9abd 32a0 2cbe c150 1a3e ef8e fdbd
00000390: bf1c 093d 0b81 18be 07fd 9b3d c60c 6dbd
000003a0: 3a44 313d 5012 e5bc 2d5b 443d b1ff 243c
000003b0: a855 643e b232 e6bc 8f0e 8b3d 84fd 79bd
000003c0: f423 7fbd a9d8 0e3e 7eae 48bd ebf3 a43d
000003d0: 7f8a 7fbd 86bf 2e3e 4acb 633c 5007 c13d
000003e0: 2d6e 8bbd c48a 29bd f246 6e3c ed30 b03c
000003f0: f189 eebd ede0 723d 36cc 2e3d 2b88 bc38

l3/b f4 [256]
0.0868411 -0.008903141 -0.021391742 -0.01360218 0.0031925607 0.056316745 0.014713363 0.025940733
0.021921458 0.0352553 0.13486354 -0.015692454 0.0102389995 0.008093101 0.03132866 -0.03464871
0.04338912 -0.013542097 -0.025314061 -0.039375283 0.024980031 0.04126764 0.021721495 0.021135347
0.01973968 0.03489706 0.03241946 0.01154562 -0.036756076 0.03154452 -0.02066415 -0.018634973
0.05498382 0.045972474 0.020266548 -0.02519104 0.09897644 0.07944195 -0.03003869 -0.06869325
0.034221213 0.0036106964 -0.0065373317 0.039434753 0.021194885 0.050711643 0.048637234 -0.06504358
-0.041020036 -0.017938167 -0.0462068 -0.04270516 0.064824395 0.029957568 -0.015704889 0.038656373
0.03447931 0.047051996 -0.05134776 -0.015627993 -0.05092916 -0.05093874 0.020261379 0.10449494
0.06998468 -0.07339326 0.008277439 -0.04999553 -0.083292454 -0.033398062 0.019380853 -0.03218188
-0.0164526 -0.025104571 0.008787271 -0.006136355 0.03923407 0.075904556 -0.04103759 -0.035065364
-0.03728591 -0.044271022 -0.004907505 -0.011936464 -0.05672462 0.021172937 -0.042933222 -0.025905224
-0.04574407 -0.027991388 0.03157885 -0.0026271371 0.012455226 -0.033027954 0.05130938 -0.010028673
-0.014003068 0.08237624 -0.006213712 0.12927721 -0.059371646 -0.16011392 0.04517741 -0.010364631
-0.06494694 0.005057067 0.10158097 0.007894191 -0.05662723 -0.026009884 0.12509392 -0.00045480233
0.025789939 -0.10734593 0.0758386 0.028540494 -0.09561974 -0.023834264 -0.017167056 0.09782672
0.027948556 0.07616074 0.035646904 -0.013211403 -0.08350374 -0.02653916 -0.036240265 -0.004902935
0.15731013 -0.09467564 -0.04125237 0.013250838 0.009105054 -0.00015262546 0.044460382 -0.01990634
-0.08505289 -0.03094834 0.050765328 0.017882733 -0.034326427 -0.044782244 -0.010196851 0.013294797
0.07825344 -0.040821947 -0.016792683 -0.033644 0.051601667 -0.010765495 -0.011757453 0.025449444
-0.007760343 -0.015518731 -0.02040922 -0.031590912 -0.06597628 0.065404914 0.11318874 -0.033115678
0.0065228036 0.019999173 -0.018703885 -0.001254951 0.017552512 -0.02372471 0.14088756 0.1192739
0.01144102 -0.0013529619 0.087816074 0.08264084 0.038969733 -0.0029620777 -0.032271106 -0.06866768
0.066517875 0.025711058 -0.019279627 0.019406518 -0.06394911 0.075081125 -0.024065241 -0.0154056
0.02045587 0.009635666 -0.03848536 0.018435167 -0.031917218 0.09668356 -0.012840269 -0.0014075204
-0.03271273 -0.06037711 0.055846043 0.004232253 -0.04250194 0.033489104 -0.058002997 -0.028265689
-0.019109925 -0.00994428 0.07341441 -0.011600046 0.009865994 0.028211886 -0.035565563 -0.03191144
-0.041024905 -0.0065716673 0.101623714 -0.0917734 -0.03398076 -0.029832538 0.06517646 -0.01744293
0.015750084 0.031390462 0.030074157 -0.024414819 -0.008025706 -0.024473652 0.0034675072 0.05168225
-0.016386071 -0.0215143 -0.08815311 -0.023362841 -0.009261759 0.09912156 0.05869418 -0.047955833
-0.0071912925 0.07879423 -0.012849803 0.00896878 -0.038705494 0.0027738845 -0.030280357 0.04109729
0.04398839 -0.0013674125 -0.035962235 -0.015399063 -0.003124262 -0.0052275974 0.04838858 0.054812815
0.08284822 -0.030620731 -0.040195495 -0.0150206145 0.048895236 -0.041674215 -0.0026871853 0.03429577
00000000: bfd9 b13d 7bde 11bc bc3d afbc aedb 5ebc
00000010: 483a 513b 63ac 663d 5110 713c a981 d43c
00000020: a194 b33c dd67 103d ab19 0a3e 768d 80bc
00000030: 7ac1 273c ed98 043c 7b52 003d ceeb 0dbd
00000040: cab8 313d acdf 5dbc 6f5f cfbc fa47 21bd
00000050: eca2 cc3c 4208 293d 47f1 b13c 0924 ad3c
00000060: 1cb5 a13c 38f0 0e3d 45ca 043d d729 3d3c
00000070: 8a8d 16bd d434 013d dd47 a9bc 5fa8 98bc
00000080: b736 613d a24d 3c3d 0806 a63c 715d cebc
00000090: 29b4 ca3d 76b2 a23d b313 f6bc 0caf 8cbd
000000a0: 8b2b 0c3d 6fa1 6c3b 1d37 d6bb 5686 213d
000000b0: e5a0 ad3c 03b7 4f3d d637 473d 9235 85bd
000000c0: a004 28bd 10f3 92bc 5743 3dbd 9beb 2ebd
000000d0: a7c2 843d 9369 f53c 8aa7 80bc 2556 1e3d
000000e0: 2d3a 0d3d 98b9 403d 0752 52bd 4706 80bc
000000f0: 189b 50bd 24a5 50bd 31fb a53c 7101 d63d
00000100: 2154 8f3d 354f 96bd 189e 073c 1dc8 4cbd
00000110: 3c95 aabd 68cc 08bd 98c4 9e3c 26d1 03bd
00000120: 9ac7 86bc 1aa8 cdbc 7cf8 0f3c 7a13 c9bb
00000130: e7b3 203d d973 9b3d 0817 28bd b3a0 0fbd
00000140: 1cb9 18bd 8855 35bd 23cf a0bb 2991 43bc
00000150: 1358 68bd de72 ad3c bfda 2fbd 3137 d4bc
00000160: 225e 3bbd 324e e5bc d358 013d 0c2c 2cbb
00000170: 0111 4c3c 5248 07bd c929 523d 4e4f 24bc
00000180: 206d 65bc e0b4 a83d 659c cbbb 3f61 043e
00000190: af2f 73bd e7f4 23be f30b 393d 6ad0 29bc
000001a0: e702 85bd c1b5 a53b af09 d03d a356 013c
000001b0: f4f1 67bd ae12 d5bc 9f18 003e 8972 eeb9
000001c0: 6c45 d33c 2fd8 dbbd 4551 9b3d c1cd e93c
000001d0: 48d4 c3bd 1340 c3bc eda1 8cbc 6059 c83d
000001e0: 5ff4 e43c 29fa 9b3d 7d02 123d a474 58bc
000001f0: 0204 abbd a768 d9bc ac70 14bd cda8 a0bb
00000200: e815 213e 4de5 c1bd 3ff8 28bd 0b1a 593c
00000210: 5d2d 153c 160a 20b9 171c 363d 9f12 a3bc
00000220: 3630 aebd 6087 fdbc 4eef 4f3d cf7e 923c
00000230: de99 0cbd 966d 37bd b110 27bc 6cd2 593c
00000240: 5743 a03d ea34 27bd cf90 89bc 4ace 09bd
00000250: 455c 533d c261 30bc 55a2 40bc 5a7b d03c
00000260: 7a4a febb 4742 7ebc 3d31 a7bc 7965 01bd
00000270: 921e 87bd 03f3 853d 80cf e73d 4ea4 07bd
00000280: 3ebd d53b 4ed5 a33c e438 99bc 2b7d a4ba
00000290: 49ca 8f3c 535a c2bc d444 103e e045 f43d
000002a0: 1e73 3b3c de55 b1ba ead8 b33d 9a3f a93d
000002b0: ba9e 1f3d 6b1f 42bb b52e 04bd a4a1 8cbd
000002c0: 863a 883d ff9f d23c 4ff0 9dbc 6bfa 9e3c
000002d0: c0f7 82bd 22c4 993d 7824 c5bc c567 7cbc
000002e0: 1293 a73c eade 1d3c d3a2 1dbd 5905 973c
000002f0: a1bb 02bd 0802 c63d fe5f 52bc 8c7c b8ba
00000300: c9fd 05bd fd4d 77bd d2be 643d b6ae 8a3b
00000310: 8416 2ebd df2b 093d 8d94 6dbd 728d e7bc
00000320: 6b8c 9cbc 55ed 22bc 4b5a 963d 1f0e 3ebc
00000330: faa4 213c 9d1c e73c 32ad 11bd 92b5 02bd
00000340: bb09 28bd 2457 d7bb 1820 d03d b1f3 bbbd
00000350: 692f 0bbd 5e63 f4bc 3c7b 853d 7ae4 8ebc
00000360: 5206 813c 4993 003d 145e f63c 9601 c8bc
00000370: 407e 03bc f87c c8bc 1e3f 633b c4b0 533d
00000380: 153c 86bc c23e b0bc 9e89 b4bd 6e63 bfbc
00000390: a2be 17bc 3f00 cb3d 4f69 703d 566d 44bd
000003a0: efa4 ebbb df5e a13d fb87 52bc caf1 123c
000003b0: a789 1ebd 0fca 353b 830e f8bc a255 283d
000003c0: 2c2d 343d c03a b3ba 234d 13bd 5a4c 7cbc
000003d0: 6bc0 4cbb 444c abbb 1b33 463d 6783 603d
000003e0: 54ac a93d 54d8 fabc 08a4 24bd 0619 76bc
000003f0: 5f46 483d 95b2 2abd 7d1b 30bb b979 0c3d

l3/W f4 [256, 256]
-0.017403321 0.06410692 -0.05950235 0.059813235 0.0070812674 -0.037661042 0.021074511 0.10799668
0.016128201 -0.035622913 0.055518676 -0.047448557 -0.18687867 0.049585357 0.09850716 0.065714344
-0.07208029 0.06076417 0.04559782 0.01068429 0.046217192 0.046195697 -0.11750294 -0.06378559
0.028639963 -0.13404751 -0.03816685 -0.010002375 0.094426304 -0.15430519 0.08480964 0.064669535
0.12818275 -0.058753897 -0.024890285 0.051071852 -0.13666241 0.04930215 -0.006019507 -0.07759126
-0.11027353 0.08584371 -0.004333739 0.047502536 0.12966727 -0.11623148 -0.064860925 -0.0032832695
0.12824816 0.03422965 0.108926915 -0.07218705 -0.06439896 -0.07087713 0.0028570797 0.08476649
-0.17674334 -0.0016964287 -0.06088212 0.033175595 -0.055678934 0.0558982 0.031668965 -0.1999578
0.063214146 0.027092148 -0.027121535 0.124785736 0.047521666 -0.053170703 -0.08670635 -0.04443724
0.1277689 -0.09998015 -0.19271852 0.040058687 -0.037029862 -0.15965559 -0.060521208 0.001339885
0.18746021 0.0963081 -0.09204993 -0.057856284 0.04978778 0.044191703 0.1321465 0.087434605
0.097723044 -0.017402403 -0.01662187 0.11562532 0.07484699 0.082676224 -0.103331 -0.101817586
0.12734991 -0.16884346 -0.13493706 0.03612631 -0.043988872 -0.007725138 -0.025627838 -0.013134108
0.06524796 -0.009739423 -0.1227541 0.0076410966 -0.09646745 -0.12913889 -0.30778685 -0.033676717
0.15043032 0.106540546 -0.10667809 -0.0070620906 0.07783333 0.08198413 0.07867599 0.0730611
-0.07729022 0.07135983 0.06916516 0.035598285 -0.039250866 -0.092125915 0.008253987 0.0139846485
0.01757639 0.031530067 -0.08088099 0.11049697 0.059209682 0.14890224 0.12778583 -0.10190165
-0.09578624 -0.08957729 -0.1650592 0.007086025 0.033819027 -0.07048184 0.14027749 0.04920806
0.010541057 0.017096544 -0.055074304 -0.0045083473 0.045675445 -0.10138405 0.033989128 -0.0059623374
0.033935912 0.031210124 -0.23596673 -0.019977678 -0.10531875 -0.082113825 -0.07564192 -0.019978499
-0.009215637 -0.061093308 0.18996808 -0.038768504 0.0073425127 0.101144955 0.22533569 -0.026610283
-0.017006217 0.20098008 0.072914235 -0.041645072 -0.07525174 0.025898173 0.11380394 0.019522889
-0.118216164 0.045649484 0.070832685 -0.16803966 0.21301769 0.25516236 -0.07689016 -0.067223735
-0.024135454 -0.08871353 -0.09955552 -0.10651535 -0.018458556 0.0242244 0.021653028 0.0777845
-0.059695784 -0.039705485 0.042754624 -0.077217266 -0.018949876 -0.076498434 0.069319546 -0.008623972
0.007771925 -0.1592302 0.04302743 0.11178174 -0.08161869 0.05495105 -0.032625057 0.007931834
-0.05327813 -0.0060813124 -0.029980337 -0.03606257 -0.09458302 0.087932006 -0.05689702 0.060262274
-0.024344 -0.011214356 0.119721256 -0.09676096 0.16945566 0.11269876 -0.16430494 -0.020340893
0.07811279 0.05605161 0.027527284 -0.10905541 0.0751366 -0.17073143 -0.03573983 -0.067406364
-0.01795435 -0.12116278 0.07756843 0.042759977 -0.073779196 -0.010681887 0.09696632 0.015673121
-0.14734973 -0.01672705 -0.050445713 0.051429827 0.095613025 0.14132251 -0.0009317506 0.11291052
-0.21178176 -0.043013137 -0.011301181 0.061728746 0.076442555 0.14409362 0.06448945 0.059455514
00000000: 6991 8ebc 7d4a 833d bcb8 73bd b9fe 743d
00000010: fa09 e83b 7742 1abd 74a4 ac3c 5d2d dd3d
00000020: 4a1f 843c 55e9 11bd 8d67 633d 6b59 42bd
00000030: 1f5d 3fbe 041a 4b3d 1fbe c93d 3e95 863d
00000040: d59e 93bd dae3 783d c8c4 3a3d 290d 2f3c
00000050: 3d4e 3d3d b337 3d3d 62a5 f0bd 05a2 82bd
00000060: 5b9e ea3c c043 09be d854 1cbd 00e1 23bc
00000070: 9462 c13d 2e02 1ebe adb0 ad3d 7671 843d
00000080: 5742 033e eda7 70bd b6e6 cbbc b830 513d
00000090: 3bf1 0bbe 0df1 493d 493f c5bb 2be8 9ebd
000000a0: 17d7 e1bd d4ce af3d 0a02 8ebb 0592 423d
000000b0: 7fc7 043e c50a eebd ced5 84bd 1f2c 57bb
000000c0: 7c53 033e 6434 0c3d 1315 df3d ced6 93bd
000000d0: 9ae3 83bd 0728 91bd d83d 3b3b 0e9a ad3d
000000e0: 35fc 34be b45a deba 885f 79bd 22e3 073d
000000f0: 980f 64bd 83f5 643d 51b7 013d bdc1 4cbe
00000100: 6b76 813d 5af0 dd3c fb2d debc aa8f ff3d
00000110: 14a6 423d 86c9 59bd 1993 b1bd d303 36bd
00000120: dad5 023e 65c2 ccbd 0158 45be 9414 243d
00000130: a0ac 17bd c17c 23be 16e5 77bd 159f af3a
00000140: 92f5 3f3e 2e3d c53d ac84 bcbd b6fa 6cbd
00000150: 45ee 4b3d 5c02 353d 6951 073e ea10 b33d
00000160: 0523 c83d 7c8f 8ebc 972a 88bc f8cc ec3d
00000170: 6149 993d 2752 a93d 349f d3bd bd85 d0bd
00000180: 0468 023e 4de5 2cbe f12c 0abe 2ef9 133d
00000190: ad2d 34bd 2823 fdbb 79f1 d1bc 7130 57bc
000001a0: b9a0 853d 1a92 1fbc 8066 fbbd 2a62 fa3b
000001b0: ba90 c5bd fc3c 04be 3d96 9dbe 99f0 09bd
000001c0: 680a 1a3e ee31 da3d 0b7a dabd 1c69 e7bb
000001d0: 1567 9f3d 4ce7 a73d e120 a13d 0fa1 953d
000001e0: 564a 9ebd 1a25 923d 77a6 8d3d 82cf 113d
000001f0: 84c5 20bd 83ac bcbd bb3b 073c de1f 653c
00000200: 5dfc 8f3c ac25 013d efa4 a5bd 3c4c e23d
00000210: da85 723d d479 183e 4ada 023e d0b1 d0bd
00000220: 942b c4bd 4c74 b7bd 4705 29be e331 e83b
00000230: d285 0a3d c858 90bd e7a4 0f3e 648e 493d
00000240: 66b4 2c3c 0d0e 8c3c 9895 61bd c2ba 93bb
00000250: 2d16 3b3d 71a2 cfbd 2f38 0b3d b65f c3bb
00000260: 6200 0b3d 60ac ff3c 43a1 71be 3aa8 a3bc
00000270: 5bb1 d7bd 4b2b a8bd 27ea 9abd f3a9 a3bc
00000280: 2ffd 16bc fa3c 7abd fe86 423e b9cb 1ebd
00000290: 7699 f03b 1625 cf3d 66be 663e cffd d9bc
000002a0: 9f50 8bbc b9cd 4d3e 0f54 953d 0694 2abd
000002b0: 961d 9abd 6828 d43c 0a12 e93d 77ee 9f3c
000002c0: 511b f2bd f4fa 3a3d ba10 913d 9712 2cbe
000002d0: 4f21 5a3e a4a4 823e 9778 9dbd 99ac 89bd
000002e0: b7b7 c5bc 70af b5bd c4e3 cbbd b824 dabd
000002f0: 6636 97bc 4072 c63c b161 b13c 7b4d 9f3d
00000300: 9183 74bd 38a2 22bd 791f 2f3d 1624 9ebd
00000310: c53c 9bbc 36ab 9cbd 68f7 8d3d 8f4b 0dbc
00000320: a2ab fe3b 3e0d 23be 883d 303d d3ed e43d
00000330: b327 a7bd 5a14 613d daa1 05bd 86f4 013c
00000340: 2b3a 5abd bf45 c7bb 5399 f5bc 58b6 13bd
00000350: beb4 c1bd b215 b43d da0c 69bd 93d5 763d
00000360: 116d c7bc 6bbc 37bc 6b30 f53d 9c2a c6bd
00000370: c985 2d3e 9cce e63d 8e3f 28be f2a1 a6bc
00000380: 99f9 9f3d 5f96 653d e680 e13c 7158 dfbd
00000390: 38e1 993d 38d4 2ebe ee63 12bd 590c 8abd
000003a0: 0015 93bc 3124 f8bd 32dc 9e3d 1625 2f3d
000003b0: 8c19 97bd 1503 2fbc 4796 c63d eb64 803c
000003c0: d9e2 16be 2b07 89bc 2aa0 4ebd 15a8 523d
000003d0: c3d0 c33d d9b6 103e b940 74ba a13d e73d
000003e0: 51dd 58be 8b2e 30bd 9728 39bc 48d7 7c3d
000003f0: ea8d 9c3d 478d 133e 0b13 843d a087 733d

l1/b f4 [256]
0.017041592 -0.084919676 -0.03239037 0.022589821 -0.017492458 0.0068889973 0.004819635 -0.017437492
-0.007951443 -0.054921772 -0.05687808 -0.0065295403 -0.009527615 -0.21783724 0.03981215 0.0018467543
-0.050308112 -0.06579748 0.03686402 -0.13246837 0.03990031 -0.14157674 0.036136586 0.06437875
0.025776777 0.0013218105 0.021561721 -0.060567375 -0.010999092 0.056559213 0.05151551 0.03787377
0.014218854 0.0161393 -0.023164282 0.010171782 -0.026487244 0.021835856 -0.1158465 -0.021635773
-0.0718551 0.02740851 0.013663393 -0.08836728 0.03204343 -0.068639375 -0.00613721 -0.07250261
0.11673835 0.0076442454 -0.0012116863 -0.053448107 -0.057916813 0.033277787 -0.0014705573 0.04938873
-0.077813916 0.015535976 0.026078563 -0.14691359 0.010982494 0.028099112 0.03128086 -0.13531922
-0.012945632 0.027111031 -0.043999426 0.046712454 -0.3041399 -0.029081533 0.0013693976 0.04454207
-0.008420766 -0.016449802 0.028576486 0.04911411 0.05200252 -0.14298935 0.044722952 -0.10130653
0.032874044 -0.03921599 -0.05897426 0.08575553 0.060238265 0.023843536 0.04093324 -0.14683993
0.08668814 -0.01031427 -0.004346084 -0.015968133 0.008439922 0.03641397 -0.008322611 0.007474514
-0.11676905 0.06335565 0.051928423 0.03150101 0.042233307 -0.061798397 -0.20260884 -9.192267e-06
0.017976169 -0.012738019 0.025027744 -0.0076458114 -0.0021803987 0.035798434 0.051921383 0.061198175
-0.08894993 -0.059828114 -0.033908624 0.09225578 -0.04109928 -0.064806655 -0.008881052 -0.084643506
-0.0013392813 0.029923454 0.019866781 -0.039568264 -0.10713313 0.023816517 0.0039760508 -0.14717121
-0.06624698 -0.063533016 -0.0043744133 -0.107264414 -0.0015785279 -0.038478695 0.003693062 0.01613648
-0.0017416807 -0.06561623 -0.009137436 -0.02182429 0.007701238 -0.030985145 0.027096095 0.026733916
0.05314767 -0.008721876 0.039630163 -0.0905773 -0.07772572 -0.021657892 -0.057249755 -0.006111077
-0.10945686 -0.010957219 0.03231115 -0.0142805 -0.1375091 0.007998416 -0.13750955 -0.054809067
-0.15604758 0.007086886 0.035898056 0.044818226 0.027208002 0.031154338 0.033382248 0.027548175
-0.011509916 0.0419165 -0.06972496 -0.116742015 -0.008910827 0.06598592 0.02116642 -0.08505337
-0.003412861 0.0 -0.017083501 -0.0066560707 0.053170085 -0.19113053 0.006533588 -0.0424985
-0.016073527 0.09600655 -0.038106274 0.010997702 -0.046732 -0.118825026 -0.10169064 0.066017136
0.06049932 0.0029172718 -0.017350668 -0.12699474 0.025938714 -0.062459536 0.027506381 0.028878467
-0.06570333 -0.09199614 0.1269311 -0.02441815 -0.11703348 -0.03336896 0.01823343 0.02907722
0.020476958 -0.054624323 -0.0058427462 0.038134713 0.00012161511 0.070484236 0.048830993 -0.046312302
-0.057852346 0.005650089 0.025226424 0.01461073 0.007473601 -0.0010291013 0.046782628 -0.12201437
-0.050423566 -0.0062691565 -0.13694447 0.0055384743 -0.03434432 0.0070219086 0.007946766 -0.00054630265
-0.02590661 -0.008874493 -0.023336051 0.004927673 -0.03378376 -0.023811074 0.04170071 -0.004383068
0.077972636 0.029800547 -0.008045321 -0.06956917 0.029752253 -0.07478646 0.035231717 -0.05673354
0.00012769859 -0.017977022 -0.1559674 -0.06357836 0.001846652 0.05180354 0.0038270766 0.03102208
00000000: cf9a 8b3c 5eea adbd c4ab 04bd 4a0e b93c
00000010: 584c 8fbc 19bd e13b 07ee 9d3b 12d9 8ebc
00000020: c546 02bc a7f5 60bd fdf8 68bd c1f5 d5bb
00000030: b719 1cbc ba10 5fbe 1112 233d cb0e f23a
00000040: e10f 4ebd d4c0 86bd bafe 163d caa5 07be
00000050: 826e 233d 7ef9 10be f503 143d 02d9 833d
00000060: d229 d33c 9a40 ad3a 35a2 b03c 7f15 78bd
00000070: 8935 34bc a2aa 673d ed01 533d 8721 1b3d
00000080: 32f6 683c 9136 843c 05c3 bdbc 8ca7 263c
00000090: c7fb d8bc 1ce1 b23c ee40 edbd 813d b1bc
000000a0: c428 93bd d087 e03c 6ddc 5f3c e8f9 b4bd
000000b0: f93f 033d cd92 8cbd a61a c9bb 407c 94bd
000000c0: 8414 ef3d 947c fa3b 72d1 9eba 67ec 5abd
000000d0: 2e3a 6dbd 4a4e 083d b7bf c0ba d64b 4a3d
000000e0: e75c 9fbd 9b8a 7e3c b6a2 d53c 8470 16be
000000f0: ebef 333c 1c30 e63c 5c20 003d 1f91 0abe
00000100: eb19 54bc f417 de3c be38 34bd 8f55 3f3d
00000110: 3ab8 9bbe 653c eebc 5c7d b33a bf71 363d
00000120: 41f7 09bc bcc1 86bc 3c19 ea3c e12b 493d
00000130: 9800 553d cd6b 12be 6a2f 373d cc79 cfbd
00000140: efa6 063d f2a0 20bd fe8e 71bd 98a0 af3d
00000150: 66bc 763d 8553 c33c 9da9 273d 355d 16be
00000160: 8d89 b13d 2ffd 28bc 9869 8ebb 9acf 82bc
00000170: 9947 0a3c d126 153d 905b 08bc c5ec f43b
00000180: 9d24 efbd 9bc0 813d e6b2 543d 3407 013d
00000190: d5fc 2c3d 5120 7dbd b178 4fbe 7c38 1ab7
000001a0: c242 933c 20b3 50bc fc06 cd3c b789 fabb
000001b0: 05e5 0ebb 61a1 123d 84ab 543d f0aa 7a3d
000001c0: 622b b6bd 530e 75bd c5e3 0abd 99f0 bc3d
000001d0: b857 28bd 5ab9 84bd d581 11bc 9359 adbd
000001e0: d38a afba 0822 f53c a9bf a23c 5512 22bd
000001f0: 9d68 dbbd db1a c33c 8849 823b 0db4 16be
00000200: 7fac 87bd 991d 82bd 3d57 8fbb 72ad dbbd
00000210: 9be6 ceba d69b 1dbd 4d07 723b a730 843c
00000220: 1b49 e4ba cd61 86bd 2fb5 15bc dac8 b2bc
00000230: ab5a fc3b 8fd4 fdbc a1f8 dd3c 1601 db3c
00000240: 5fb1 593d 33e6 0ebc 3d53 223d 9780 b9bd
00000250: aa2e 9fbd e46b b1bc b87e 6abd 6e3f c8bb
00000260: eb2a e0bd e885 33bc b258 043d c2f8 69bc
00000270: 2fcf 0cbe ca0b 033c 4ecf 0cbe 797f 60bd
00000280: f0ca 1fbe 1c39 e83b d709 133d 5193 373d
00000290: 51e3 de3c 6237 ff3c d3bb 083d b6ac e13c
000002a0: 1694 3cbc a3b0 2b3d f6cb 8ebd 7016 efbd
000002b0: b8fe 11bc a023 873d 3365 ad3c 7630 aebd
000002c0: 4eaa 5fbb 0000 0000 b3f2 8bbc 2b1b dabb
000002d0: e0c8 593d b9b7 43be b517 d63b e812 2ebd
000002e0: a1ac 83bc 159f c43d 5315 1cbd b52f 343c
000002f0: 0e6a 3fbd 895a f3bd 2f43 d0bd fe33 873d
00000300: 23ce 773d b32f 3f3b fd22 8ebc e90a 02be
00000310: 6d7d d43c 92d5 7fbd 1055 e13c 8992 ec3c
00000320: 788f 86bd 7968 bcbd 3afa 013e 9208 c8bc
00000330: 40af efbd e4ad 08bd 465e 953c 5a33 ee3c
00000340: 4bbf a73c c1bd 5fbd 8274 bfbb 2533 1c3d
00000350: 9d0b ff38 0a5a 903d 0203 483d f8b1 3dbd
00000360: 95f6 6cbd 6224 b93b a5a7 ce3c d861 6f3c
00000370: 1ce5 f43b e9e2 86ba 249f 3f3d ace2 f9bd
00000380: f188 4ebd 7f6d cdbb 2c3b 0cbe 177c b53b
00000390: a1ac 0cbd 0a18 e63b 2733 023c c035 0fba
000003a0: 193a d4bc 5266 11bc 3f2b bfbc 5178 a13b
000003b0: d760 0abd 710f c3bc 5dce 2a3d d79f 8fbb
000003c0: 1eb0 9f3d 4720 f43c 86d0 03bc 487a 8ebd
000003d0: ffba f33c a529 99bd 224f 103d 6e61 68bd
000003e0: d4e6 0539 8c44 93bc ebb5 1fbe 5f35 82bd
000003f0: 5c0b f23a f32f 543d b1cf 7a3b 0422 fe3c

l1/W f4 [256, 16]
0.517788 -0.0926162 0.12670566 -0.1441695 0.52851665 0.0025147742 -1.1093992 0.73173034
-0.41694516 0.35700563 0.058296185 -0.8308799 0.2097912 -0.026819777 0.47965145 0.32798126
-0.23704675 0.5992645 -0.13050506 0.31451765 0.6959472 -0.21029422 0.5052478 0.20003723
-0.5157438 0.39390674 0.42379543 -0.25968117 -0.060806185 0.121940926 -0.17091654 -0.336623
0.2576111 0.0859547 -0.10449563 0.23226358 0.04493733 -0.56646353 0.13777475 0.051726297
-0.7203987 0.45873702 -0.22294712 0.16653073 0.53080255 0.08220632 0.07219775 0.17437714
-0.57499254 0.18104917 -0.46375433 0.2270194 -0.3957763 -0.4112385 0.3374926 0.9194442
0.36873657 -0.45307505 0.09131109 0.0015529579 -0.15271588 -0.4456527 0.1325296 0.56302285
-0.01934661 -0.058469534 0.7317802 0.30376816 0.18499093 0.13953587 0.1935063 0.24941775
-0.29915574 -0.17525908 -0.50919837 -0.5732943 0.16105704 0.10854887 -0.5248638 0.19170481
0.5256052 -0.3297541 0.035850756 0.058279756 -0.13594218 -0.61256385 0.27778912 -0.35155308
-0.07185013 -0.010960376 -0.26966774 -0.37511382 -0.0966106 -0.12324475 -0.3425874 0.019261273
-0.9248444 -0.34413078 -0.09978009 0.23630351 0.1852748 -0.4457294 -0.14030395 -0.067188814
0.016926814 0.710758 0.5009638 -0.47237417 -0.20357239 0.12442252 -0.11750858 0.0054237214
0.067360245 0.119159974 0.5683502 -0.77805936 0.4444255 0.27292478 -0.4463252 -0.104523435
-0.45034587 0.096159324 -0.3814678 0.04939752 0.48981634 -0.4641992 0.1280142 0.27908143
0.08348954 0.3373094 -0.18854748 0.40002728 0.19184159 0.28500208 0.022747794 0.05474483
-0.048382424 -0.27938068 -0.4392359 -0.2135608 -0.64002615 -0.3030721 -0.12774256 -0.037793968
0.3414997 0.38154736 0.5640301 0.031609934 -0.23984766 -0.34213188 0.895738 -0.2847054
-0.45378658 0.40118796 -0.13641673 -0.13842544 -0.9078465 -0.098315075 0.62134236 -0.05584283
-0.087814085 0.30492178 0.15722936 -0.09735868 -0.804171 0.68770826 -0.3656894 0.26128122
0.19646984 -0.5082367 0.37702826 -0.15500985 -0.63213545 0.3692036 0.07573575 0.14267235
-0.21243902 -0.37052667 0.35225412 -0.61564475 -0.3616158 -0.32631597 -0.83842736 -0.04472184
-0.22999616 -0.6193784 0.5891694 0.3228398 -0.23805332 -0.3314467 -0.38751364 -0.0051470804
-0.13057302 0.23971617 -0.2471171 0.4697109 -0.17573963 -0.07072708 0.26609734 -0.53175694
-0.42382568 -0.54942894 0.2932467 -0.30945837 0.051945724 -0.049084917 -0.3115221 0.66793656
-0.011244796 0.17921579 -0.408085 0.14318775 0.8583847 -0.12743276 -0.20813651 -0.0010035182
0.09936406 0.019616539 0.3728365 -0.111995235 0.16491918 -0.028807139 0.4446092 -0.007042368
-0.5882287 -0.25454304 0.34605047 -0.4113854 -0.16249996 0.21004838 -0.0030423054 -0.34585655
-0.025230428 -0.07931358 -0.105086744 -0.027226957 -0.27017698 -0.28670046 0.34758753 -0.008040198
0.18633848 -0.40476573 0.25418344 0.0022318014 0.28842697 0.5950662 -0.24525084 0.12778063
-0.16434628 -0.41368237 0.24536774 0.259244 0.15577494 0.110043965 -0.15189418 -0.36944437
00000000: c18d 043f 90ad bdbd 21bf 013e 2ba1 13be
00000010: de4c 073f e9ce 243b cb00 8ebf ae52 3b3f
00000020: d679 d5be 71c9 b63e fbc7 6e3d 8cb4 54bf
00000030: 81d3 563e 26b5 dbbc e094 f53e 29ed a73e
00000040: 62bc 72be 6669 193f 1ea3 05be 7508 a13e
00000050: 9829 323f 5e57 57be eb57 013f 8fd6 4c3e
00000060: c907 04bf 25ae c93e b7fb d83e eef4 84be
00000070: e80f 79bd 2abc f93d bf04 2fbe da59 acbe
00000080: 9ae5 833e 0509 b03d ce01 d6bd 81d6 6d3e
00000090: 3510 383d c103 11bf d314 0d3e f4de 533d
000000a0: 0d6c 38bf 94df ea3e 404c 64be 0887 2a3e
000000b0: ade2 073f c95b a83d 6adc 933d ec8f 323e
000000c0: b632 13bf f464 393e 3571 edbe c677 683e
000000d0: 31a3 cabe da8d d2be d4cb ac3e b260 6b3f
000000e0: 0acb bc3e 74f9 e7be 4f01 bb3d 9f8c cb3a
000000f0: 8d61 1cbe 972c e4be d7b5 073e 4422 103f
00000100: c87c 9ebc c07d 6fbd f255 3b3f 8087 9b3e
00000110: 436e 3d3e 7ee2 0e3e 8426 463e 5e67 7f3e
00000120: f12a 99be 1e77 33be d35a 02bf 6ac3 12bf
00000130: 23ec 243e df4e de3d 795d 06bf 444e 443e
00000140: 108e 063f 88d5 a8be 3ed8 123d c1b6 6e3d
00000150: 6d34 0bbe fcd0 1cbf 603a 8e3e c4fe b3be
00000160: 2926 93bd 2693 33bc e411 8abe eb0e c0be
00000170: c7db c5bd be67 fcbd 9e67 afbe d1c9 9d3c
00000180: 9ac2 6cbf e931 b0be 8159 ccbd 8cf9 713e
00000190: adb8 3d3e a536 e4be d7ab 0fbe 4a9a 89bd
000001a0: 1aaa 8a3c 3cf4 353f 2a3f 003f 07db f1be
000001b0: 4875 50be 3cd1 fe3d 57a8 f0bd 79b9 b13b
000001c0: 2bf4 893d 250a f43d 667f 113f e62e 47bf
000001d0: bd8b e33e ccbc 8b3e bd84 e4be 6210 d6bd
000001e0: bc93 e6be 2eef c43d bf4f c3be 0e55 4a3d
000001f0: 35c9 fa3e 84ab edbe 2816 033e c3e3 8e3e
00000200: 90fc aa3d d1b3 ac3e 9712 41be 60d0 cc3e
00000210: 1f72 443e cbeb 913e 9559 ba3c 1d3c 603d
00000220: a62c 46bd fc0a 8fbe 87e3 e0be afaf 5abe
00000230: c1d8 23bf 442c 9bbe f2ce 02be d9cd 1abd
00000240: 0cd9 ae3e 2d5a c33e 4764 103f 6b79 013d
00000250: a09a 75be e92b afbe 164f 653f e8c4 91be
00000260: b756 e8be 8268 cd3e d4b0 0bbe 66bf 0dbe
00000270: a168 68bf 6a59 c9bd 4b10 1f3f 74bb 64bd
00000280: dfd7 b3bd b51e 9c3e bc00 213e fd63 c7bd
00000290: 27de 4dbf a60d 303f a43b bbbe a7c6 853e
000002a0: 642f 493e cd1b 02bf d909 c13e e7ba 1ebe
000002b0: a1d3 21bf 4108 bd3e 581b 9b3d b318 123e
000002c0: 9d89 59be acb5 bdbe a75a b43e e59a 1dbf
000002d0: b525 b9be e312 a7be 2da3 56bf 402e 37bd
000002e0: 1d84 6bbe 958f 1ebf ced3 163f 424b a53e
000002f0: 40c4 73be 62b3 a9be 3068 c6be d7a8 a8bb
00000300: efb4 05be 2878 753e 440c 7dbe f27d f03e
00000310: 17f5 33be 5cd9 90bd e93d 883e 3921 08bf
00000320: aeff d8be 60a7 0cbf 6e24 963e 5471 9ebe
00000330: 0ac5 543d 440d 49bd d37f 9fbe e4fd 2a3f
00000340: 183c 38bc 5884 373e 84f0 d0be cf9f 123e
00000350: 1abf 5b3f bc7d 02be bd21 55be 7c88 83ba
00000360: 627f cb3d ddb2 a03c 6de4 be3e c25d e5bd
00000370: 93e0 283e f3fc ebbc d1a3 e33e aac3 e6bb
00000380: 2896 16bf 7753 82be 872d b13e 1ba1 d2be
00000390: 6466 26be ec16 573e 6a61 47bb 1c14 b1be
000003a0: 0bb0 cebc 296f a2bd b837 d7bd 110b dfbc
000003b0: a354 8abe 67ca 92be fef6 b13e 09bb 03bc
000003c0: 84cf 3e3e 743d cfbe 5524 823e 6a43 123b
000003d0: b3ac 933e 4256 183f 0923 7bbe edd8 023e
000003e0: 644a 28be 2dce d3be ae41 7b3e a1bb 843e
000003f0: 7783 1f3e bb5e e13d 268a 1bbe d027 bdbe

l4/b f4 [16]
0.08475007 0.009976915 0.03364084 0.12646556 0.097219385 -0.02745676 -0.036308035 0.08175031
0.110533476 0.050118376 -0.025462052 0.09706774 0.06228316 0.061014213 0.081543915 0.1234262
00000000: 7291 ad3d 3776 233c faca 093d 3080 013e
00000010: f51a c73d 00ed e0bc bcb7 14bd b56c a73d
00000020: 605f e23d ed48 4d3d cb95 d0bc 74cb c63d
00000030: a01c 7f3d 0aea 793d 7f00 a73d e0c6 fc3d

l4/W f4 [16, 256]
-0.05406085 -0.0055833384 0.008155034 0.015324881 -0.003221181 0.19197941 0.056107774 -0.014526237
-0.100571275 -0.3034298 0.09592598 -0.20921297 0.036015395 0.061902534 -0.025771074 0.092392206
0.123240285 0.028030254 -0.15068607 0.06848983 0.033407312 0.07723412 0.16987082 -0.13587643
0.0994762 -0.17966078 -0.09956124 0.23654908 -0.18875378 -0.06926136 -0.035359234 0.07626092
0.108344935 -0.072637334 0.24893649 -0.041004207 0.104881376 0.16401128 -0.2097444 0.005992262
-0.1256719 -0.012980297 0.056645077 0.0047756024 -0.023943657 0.22791088 0.0128795495 -0.08703259
0.14033556 0.03615872 -0.01964137 0.102266155 0.04033235 0.12320383 0.08755034 0.07963518
-0.061491247 0.20312026 -0.16736503 0.104342565 0.054038886 0.23204334 0.07129925 0.0027411368
-0.047440533 -0.31119362 0.0870325 0.02770494 0.011945962 0.12187671 -0.006107026 -0.06729799
-0.14309071 -0.04389928 -0.25567228 -0.039273825 0.046097424 -0.08206876 0.043149527 -0.16995113
-0.018190265 0.042377383 -0.14248072 0.18671255 0.10540891 -0.19623145 -0.19740935 -0.26801637
-0.053547826 0.27084196 -0.12981938 0.04753095 0.026620444 -0.016464762 0.009605602 0.040679052
-0.051953398 0.05776234 -0.11355731 0.02628723 -0.095160924 -0.042244166 0.06629021 -0.066761315
0.15802819 -0.048138306 0.0520821 -0.06897455 -0.16821842 0.31811494 0.1487098 -0.14828432
0.13435015 -0.054905504 0.209218 0.023458336 -0.03488168 -0.18578614 0.09633919 0.18195902
0.053150076 0.12833223 0.23620418 0.13101597 -0.0630694 -0.0010440733 -0.32378352 -0.132926
0.21119365 -0.039618444 0.09344728 -0.06905868 0.08485546 0.24468586 -0.060318075 0.049647205
-0.14489576 -0.12583221 0.039808605 -0.34805614 -0.1930838 0.025349027 0.14062972 0.19771636
0.05087515 -0.1545318 -0.067680836 -0.2680616 0.08745551 -0.04919142 -0.087044574 0.036037177
-0.37113547 0.024459634 0.18784343 -0.30517274 -0.19791202 -0.06326373 0.1977919 0.03564473
-0.041254394 0.017238604 0.074327685 0.08418238 0.011755309 -0.16121343 0.11465643 0.113519505
0.091115735 0.26817718 -0.056538727 0.067350715 -0.011838404 -0.006487077 0.055518076 -0.31133676
0.029234448 -0.050678853 -0.02461022 0.09048971 0.16407238 0.21884963 -0.1203351 0.14075288
-0.03845506 0.115667425 -0.11074844 0.032454345 -0.14981394 0.30217052 0.18072227 -0.08430053
0.33284625 0.08911469 -0.014049976 -0.027353937 -0.042795222 0.2078477 -0.039125152 -0.21217318
0.07935695 -0.13997489 0.06514826 -0.22810452 0.015647518 -0.04565557 -0.064400725 -0.2072106
0.025791679 -0.24792553 0.18381065 -0.091733605 -0.11166911 0.0658544 0.17104363 0.06676729
-0.119330734 0.1759047 0.112027794 -0.02525376 -0.04307811 -0.02441344 -0.12068191 -0.03708632
0.30249906 -0.15361618 0.003567406 -0.13708366 0.13077694 0.03059687 0.11213076 -0.17661524
-0.02212825 -0.03140509 0.008647502 -0.15083721 -0.19481325 0.019612437 0.009846832 0.2869704
-0.09275553 -0.07120107 -0.031341553 0.03148189 0.0045205327 0.06678326 0.052349094 0.01327178
-0.009788703 0.13878489 -0.023365522 0.03486035 -0.087302625 0.004167668 -0.06877187 0.12150998
00000000: e96e 5dbd 70f4 b6bb b19c 053c 3615 7b3c
00000010: 731a 53bb 4096 443e 44d1 653d 74ff 6dbc
00000020: 50f8 cdbd 275b 9bbe d774 c43d ed3b 56be
00000030: e184 133d 838d 7d3d dc1d d3bc 2038 bd3d
00000040: 6765 fc3d b49f e53c 734d 1abe 6544 8c3d
00000050: 1bd6 083d ec2c 9e3d 9ef2 2d3e 3123 0bbe
00000060: 2eba cb3d fff8 37be c3e6 cbbd ec39 723e
00000070: ac48 41be e6d8 8dbd d8d4 10bd af2e 9c3d
00000080: f3e3 dd3d e2c2 94bd 35e9 7e3e 07f4 27bd
00000090: 0ccc d63d 93f2 273e 3cc7 56be bd5a c43b
000000a0: 22b0 00be 50ab 54bc ab04 683d a87c 9c3b
000000b0: 7d25 c4bc 7861 693e bf04 533c 243e b2bd
000000c0: 20b4 0f3e 2a1b 143d f0e6 a0bc eb70 d13d
000000d0: 8933 253d 4a52 fc3d 984d b33d c517 a33d
000000e0: 3fde 7bbd c2fe 4f3e bd61 2bbe 8eb1 d53d
000000f0: e157 5d3d c59c 6d3e 5705 923d a5a4 333b
00000100: 0151 42bd c554 9fbe 183e b23d 78f5 e23c
00000110: ffb8 433c 7f9a f93d 721d c8bb 87d3 89bd
00000120: 5f86 12be bbcf 33bd 7ae7 82be 97dd 20bd
00000130: a7d0 3c3d ab13 a8bd 8fbd 303d ab07 2ebe
00000140: c003 95bc e893 2d3d 77e6 11be 9331 3f3e
00000150: a0e0 d73d e6f0 48be ad25 4abe 7139 89be
00000160: f754 5bbd ccab 8a3e 5fef 04be d0af 423d
00000170: 1e13 da3c 1ce1 86bc d160 1d3c 149f 263d
00000180: 16cd 54bd 3498 6c3d bc90 e8bd 5158 d73c
00000190: bbe3 c2bd 3808 2dbd 29c3 873d 28ba 88bd
000001a0: 24d2 213e ac2c 45bd 0a54 553d 8742 8dbd
000001b0: 7341 2cbe f6df a23e 6247 183e d8d7 17be
000001c0: 1693 093e 98e4 60bd 3e3d 563e b22b c03c
000001d0: 18e0 0ebd b93e 3ebe 7b4d c53d 7753 3a3e
000001e0: e5b3 593d 8669 033e 82df 713e 0d29 063e
000001f0: 882a 81bd 49d9 88ba f4c6 a5be c11d 08be
00000200: 2643 583e f346 22bd 4a61 bf3d a36e 8dbd
00000210: b3c8 ad3d ee8e 7a3e 1610 77bd de5a 4b3d
00000220: 8e5f 14be 29da 00be 590e 233d 6a34 b2be
00000230: c2b7 45be c3a8 cf3c 3d01 103e 2876 4a3e
00000240: 7662 503d 963d 1ebe 409c 8abd 5f3f 89be
00000250: e01b b33d f17c 49bd 6d44 b2bd b89b 133d
00000260: 7805 bebe 925f c83c 075a 403e 9a3f 9cbe
00000270: 73a9 4abe 6a90 81bd f689 4a3e 3500 123d
00000280: 5efa 28bd f937 8d3c 1d39 983d d067 ac3d
00000290: 5799 403c 2215 25be fed0 ea3d ea7c e83d
000002a0: e39a ba3d 854e 893e 2795 67bd 2cef 893d
000002b0: def5 41bc 8c91 d4bb ec66 633d 8867 9fbe
000002c0: 157d ef3c a194 4fbd 5f9b c9bc ab52 b93d
000002d0: 9702 283e 1e1a 603e 4072 f6bd 8621 103e
000002e0: 0e83 1dbd 0be3 ec3d 14d0 e2bd d9ee 043d
000002f0: d368 19be 18b6 9a3e 420f 393e c2a5 acbd
00000300: d36a aa3e c381 b63d df31 66bc 5d15 e0bc
00000310: 0b4a 2fbd 07d6 543e b241 20bd ed43 59be
00000320: e685 a23d 9455 0fbe 736c 853d 3b94 69be
00000330: 392f 803c 5601 3bbd 87e4 83bd 042f 54be
00000340: 1249 d33c 31e0 7dbe dc38 3c3e d4de bbbd
00000350: c6b2 e4bd acde 863d 1026 2f3e 4abd 883d
00000360: ac63 f4bd 5d20 343e d46e e53d f9e0 cebc
00000370: ac72 30bd b2fe c7bc 1428 f7bd d3e7 17bd
00000380: 28e1 9a3e 8f4d 1dbe 24cb 693b a95f 0cbe
00000390: 64ea 053e 4aa6 fa3c d0a4 e53d a0da 34be
000003a0: 4e46 b5bc a0a2 00bd 41ae 0d3c 1275 1abe
000003b0: 207d 47be 43aa a03c 9b54 213c c9ed 923e
000003c0: 9cf6 bdbd ded1 91bd 0060 00bd 27f3 003d
000003d0: fa20 943b a9c5 883d 016c 563d e171 593c
000003e0: cc60 20bc a01d 0e3e 0d69 bfbc bac9 0e3d
000003f0: b8cb b2bd ef90 883b 44d8 8cbd 39da f83d
