static/ai/4/agent_black_12000/target_model.npz (npz, 521742 bytes, 8 tensors)

l2/b f4 [256]
0	0xb9bd4072	-0.00036096905
1	0xbd0733d0	-0.033008397
2	0x3d504d57	0.050855007
3	0x3cbc8ffb	0.023017874
4	0x3bc15612	0.005900153
5	0xbd02353c	-0.03178905
6	0xbc3450a8	-0.011005558
7	0xbc0a2866	-0.008432483
8	0xbcb10174	-0.021607138
9	0x3d3dd9df	0.046350356
10	0xba6d4266	-0.00090507267
11	0x3d4e3c65	0.050350565
12	0xbc6f5c1a	-0.014609361
13	0xbb7baf80	-0.0038404167
14	0x3dabf3ed	0.083961345
15	0x3c782717	0.0151460385
16	0xbcab0440	-0.02087605
17	0x3c93bba6	0.018033814
18	0xbd316eac	-0.043318436
19	0x3cd32410	0.025774032
20	0x3ba41af0	0.005008094
21	0xbc06fe37	-0.0082393205
22	0xbca563a3	-0.020189112
23	0xbc04c228	-0.008102931
24	0xbd035115	-0.032059748
25	0xbd027704	-0.031851783
26	0x3d1eed48	0.038800508
27	0xbc6c715d	-0.014431325
28	0xbd63d27b	-0.05562065
29	0x3d218580	0.039433956
30	0x3b6c32cf	0.0036041026
31	0x3ce77037	0.02825175
32	0x3bc56f00	0.006025195
33	0xbd0dfa6f	-0.03466266
34	0xbcb1ff2f	-0.021728126
35	0xbc1e73b1	-0.009671138
36	0x3c91e7f2	0.017810795
37	0xbc82ee08	-0.015982643
38	0x3d71a972	0.058999486
39	0xbbfc18fe	-0.007693409
40	0xbe00232c	-0.12513417
41	0xbd28ce9e	-0.04121267
42	0x3ce60307	0.028077615
43	0xb9ea2046	-0.00044656004
44	0x3cdf6d35	0.027273754
45	0xbc4fcf0c	-0.012683641
46	0x3cbfaab6	0.023396831
47	0xbd20a50f	-0.039219912
48	0x3c6c5727	0.014425076
49	0xba1afa98	-0.0005911975
50	0x3b959a49	0.0045655114
51	0xbc98d086	-0.01865412
52	0xbc709916	-0.014684936
53	0xbc39b2b3	-0.011334109
54	0xbcf87066	-0.030327033
55	0x3d648be8	0.055797487
56	0xbd61ab02	-0.055094726
57	0xbc07e41b	-0.008294131
58	0xbcc2a0e6	-0.023758363
59	0xbc10bdf1	-0.008834348
60	0x3a8e6c8a	0.0010866087
61	0xbd3f4262	-0.046694167
62	0x3ae1b314	0.0017219507
63	0x3c878f0b	0.0165477
64	0xbca94fca	-0.02066793
65	0x3ba6210e	0.0050698584
66	0x3c969c3d	0.018385047
67	0xbb11abd1	-0.0022227655
68	0x3d6ac019	0.057312105
69	0xbcf0b32d	-0.029382313
70	0xbc02cb57	-0.00798305
71	0xbc81df5d	-0.015853578
72	0xbca0fcc0	-0.01965177
73	0x3c98abf0	0.018636674
74	0x3c8c31b4	0.017113544
75	0x3c556b52	0.013026075
76	0x3cef2d22	0.029196326
77	0x3b007b04	0.0019604573
78	0xbca59324	-0.020211764
79	0xbc337480	-0.010953069
80	0xbd919494	-0.07108417
81	0xbd0f6381	-0.035007004
82	0xbd109f23	-0.035308015
83	0x3d12185c	0.035667762
84	0xba6c3636	-0.00090107636
85	0x3d4e0e4e	0.05030661
86	0xbbd0ff40	-0.0063780844
87	0xbd10b3e0	-0.035327792
88	0xbc409ef8	-0.011756651
89	0xbd22183d	-0.039573897
90	0xbd0c66e0	-0.034277797
91	0x3b3194fa	0.0027096854
92	0x3c689fda	0.014198268
93	0xbabf88ba	-0.0014612891
94	0xbda9d6ca	-0.08292921
95	0xbb282511	-0.002565686
96	0x3d3b8727	0.04578319
97	0xb9db5729	-0.00041835874
98	0x3d2adcde	0.04171454
99	0xbbd27444	-0.0064225513
100	0x3ba15b0b	0.0049241832
101	0xbc8d762e	-0.017268267
102	0xbb084b23	-0.0020796738
103	0x3c1b4f97	0.009479425
104	0xbc8cf66c	-0.017207347
105	0xbcae2ca5	-0.021261523
106	0x3a5f5439	0.0008519325
107	0x3d8bffa7	0.06835871
108	0xbd096dac	-0.033551857
109	0x3c7b2897	0.015329502
110	0x3ceffa98	0.029294297
111	0xbbde2f0f	-0.006780512
112	0x3c92eb10	0.017934352
113	0x3c445c1c	0.011984851
114	0x3c99757c	0.018732779
115	0x3d490b09	0.04908279
116	0xbcd15449	-0.025552886
117	0xbd482ecb	-0.04887275
118	0xbd80b15c	-0.062838286
119	0x3c83e7c8	0.016101733
120	0xbc850df4	-0.016242005
121	0x3d222462	0.03958548
122	0xbc39fa68	-0.011351205
123	0x3c743d1d	0.014907149
124	0xbc88a8f1	-0.01668212
125	0xba16d774	-0.0005754151
126	0x3cdb16b8	0.026744232
127	0x3c75a1dc	0.014992204
128	0xbd5259a9	-0.051355038
129	0xbc7e6e20	-0.0155291855
130	0xbd980c32	-0.07424201
131	0x3dbdba54	0.09264055
132	0x3d2e348a	0.042530574
133	0x3ccab8af	0.024746267
134	0xbd43e6c7	-0.04782751
135	0x3d459425	0.048236985
136	0xbcb4723f	-0.022027133
137	0x3b960401	0.004578114
138	0x3cccb43c	0.024988286
139	0xbb888b92	-0.0041670287
140	0x3d81da58	0.06340474
141	0xbbfa3925	-0.0076362067
142	0xbc1a2cf4	-0.009410132
143	0x3c8bea17	0.017079396
144	0x3d6c6be4	0.05772008
145	0x3d0b639b	0.034030538
146	0xbc3c970b	-0.011510621
147	0xbda04ac2	-0.07826759
148	0xbd17c557	-0.037053432
149	0xbcbca0dd	-0.023025924
150	0xbbc0eb48	-0.0058874227
151	0xbb1d39ae	-0.0023990679
152	0xbd0dd0bb	-0.03462289
153	0xbd1cef72	-0.03831429
154	0xbc57a94a	-0.01316292
155	0x3c96fae1	0.018430175
156	0x3d38ac6b	0.045086306
157	0x3d558b5a	0.05213485
158	0xbc4f7d5f	-0.012664168
159	0x3d1a61f3	0.037691068
160	0xbd9a773b	-0.07542273
161	0xbb1ecadd	-0.0024229803
162	0xbcbad0cd	-0.022804642
163	0x3d0c5c6f	0.03426784
164	0x3c90cc41	0.01767552
165	0xbb2422b1	-0.0025045092
166	0xbd0074e1	-0.031361464
167	0x3c3a0f5b	0.0113562
168	0x3d126486	0.035740398
169	0xbc188d1d	-0.009310988
170	0xbbf6f688	-0.007536713
171	0xbd155bff	-0.036464687
172	0xbd15b231	-0.03654689
173	0x3afe84d1	0.0019418244
174	0xbd0c1f4d	-0.03420954
175	0xbd2c2e0c	-0.0420361
176	0x3d911f50	0.070860505
177	0xbc8f4de3	-0.017493194
178	0xbb792024	-0.0038013542
179	0xba522c2b	-0.0008017446
180	0x3d704c56	0.05866655
181	0xbcdb7804	-0.026790626
182	0xbd965d93	-0.073420666
183	0x3c99c687	0.018771423
184	0x00000000	0.0
185	0x3ced987a	0.02900337
186	0xbd5e485a	-0.05426822
187	0xbcdef6b9	-0.027217256
188	0x3cdd99d7	0.027050896
189	0x3bedf07d	0.0072613345
190	0x3e18f230	0.14936137
191	0xbd16dd29	-0.03683201
192	0x3cdcc947	0.026951445
193	0x3ca7857e	0.020449396
194	0xbafbbdfd	-0.0019206401
195	0x3cfb6668	0.03068848
196	0xbc28e1d9	-0.0103077525
197	0x3cde8425	0.02716262
198	0xbc1537bc	-0.009107526
199	0xbca576be	-0.020198222
200	0x3c2cbc42	0.010542931
201	0xbc024e07	-0.0079531735
202	0x3c4f2ef1	0.012645469
203	0xbc8d8449	-0.017274993
204	0x3c0d26ae	0.008615179
205	0xbc8294e3	-0.015940135
206	0xbdb758b4	-0.08952466
207	0x3cabb3ff	0.020959852
208	0xbc12627a	-0.008934611
209	0xbc850a26	-0.01624019
210	0x3cf54dc6	0.029944312
211	0x3c849f37	0.0161892
212	0xbb7fb2ba	-0.0039016441
213	0x3d8a020e	0.06738673
214	0xbd06ae72	-0.032881208
215	0xbd03e95c	-0.03220497
216	0xbcc7daa4	-0.024396248
217	0x3d08bdd6	0.033384167
218	0xbd1e18a6	-0.038597725
219	0x3bf50900	0.0074778795
220	0x3d3cc837	0.046089377
221	0xbcb624c9	-0.022234337
222	0x3d239708	0.039938956
223	0xbc8a8a89	-0.016911762
224	0xbd45e441	-0.048313383
225	0xbd01de8b	-0.031706374
226	0xbccab23f	-0.024743197
227	0x3c3de7b3	0.011590886
228	0xbd6682b4	-0.056276992
229	0x3c3a3586	0.0113653
230	0xbc4caee8	-0.012492873
231	0x3d07f4f3	0.033192586
232	0xbd4096ad	-0.047018696
233	0xbb5ce415	-0.0033705283
234	0x3d1742de	0.036929004
235	0x3c1db821	0.009626419
236	0x3ce64dc9	0.028113263
237	0x3be5d04b	0.007013356
238	0xbaf014cd	-0.0018316746
239	0xbcc8db2d	-0.024518574
240	0xb88e3e60	-6.782706e-05
241	0xbcd6bca4	-0.026212998
242	0xbdb3e4bf	-0.08783864
243	0x3c5ce5aa	0.013482491
244	0x3cf2a376	0.02961896
245	0xbda430c3	-0.08017113
246	0xbc87aeef	-0.016562907
247	0xbd1778ab	-0.036980312
248	0xba83e19d	-0.0010061745
249	0x3c86f266	0.016473006
250	0x3d615b8a	0.05501894
251	0xbb80b211	-0.003927477
252	0x3d23cabd	0.03998827
253	0xbd9d792d	-0.07689128
254	0x3d5fcb1d	0.054637063
255	0x3d2465d9	0.040136192

l2/W f4 [256, 256]
0	0xbd921347	-0.07132583
1	0xbd78fa47	-0.060785558
2	0x3ca57fb4	0.020202495
3	0xbd06abd9	-0.03287873
4	0xbd879516	-0.06620233
5	0xbc0dec74	-0.008662332
6	0xbba5f539	-0.005064633
7	0x3e54949d	0.20759816
8	0x3dd0e2ef	0.10199534
9	0xbda2f391	-0.07956613
10	0x3d1e6902	0.038674362
11	0xbcd0c627	-0.025485111
12	0x3d28bfd1	0.041198555
13	0xbe264ead	-0.1624095
14	0x3d1479ce	0.036248975
15	0xbd13eb53	-0.036113095
16	0x3d6e3148	0.058152467
17	0x3cfd826d	0.03094598
18	0x3df1ecd6	0.11812751
19	0xbe2f352b	-0.17110126
20	0xbd625f0d	-0.05526643
21	0x3cecbacc	0.028897665
22	0xbe096b84	-0.1341992
23	0x3eb41e9c	0.35179603
24	0x3dae57a0	0.08512807
25	0x3da022aa	0.07819112
26	0x3bb8345f	0.0056214775
27	0xbd5e197d	-0.054223526
28	0x3e66dbfb	0.22544853
29	0x3d8ac63a	0.0677609
30	0x3d8af2cb	0.0678459
31	0x3e3f87d5	0.1870416
32	0x3c672c95	0.01410975
33	0xbdafc3f7	-0.08582299
34	0x3e67531b	0.22590296
35	0x3d8dc812	0.06922926
36	0x3c778f17	0.015109799
37	0xbc12402b	-0.008926432
38	0xbd5cb21f	-0.053880807
39	0x3db14177	0.086550646
40	0x3e12aa12	0.14322689
41	0x3e19fcdf	0.15037869
42	0xbe51bf62	-0.20483163
43	0x3d7ada91	0.061243597
44	0x3d13dba3	0.036098134
45	0xbcf2e73c	-0.029651277
46	0x3d0ca4c2	0.034336813
47	0x3e971b54	0.29513037
48	0x3d063c57	0.03277239
49	0xbd67919d	-0.056535352
50	0xbd650b1c	-0.055918798
51	0xbd8e3c7b	-0.069451295
52	0xbd384f04	-0.04499723
53	0x3d75b206	0.05998423
54	0x3b768418	0.0037615355
55	0x3c95d212	0.018288646
56	0xbdb4b133	-0.088228606
57	0x3c556793	0.013025182
58	0x3e6ff8c1	0.23434736
59	0x3dc48610	0.09595883
60	0xbe053c04	-0.13011175
61	0xbe1dbaec	-0.15403336
62	0x3c325ce3	0.010886404
63	0xbe2114b5	-0.15730555
64	0x3c971110	0.018440753
65	0xbc3bb2de	-0.0114562195
66	0x3ddf7853	0.10911622
67	0x3d1cf9b9	0.03832409
68	0xbcd6ceca	-0.026221652
69	0xbda6f905	-0.081529655
70	0xbd7b0491	-0.06128365
71	0xbe2da8f7	-0.16958986
72	0xbe22d6ca	-0.15902248
73	0xbddabf64	-0.10681036
74	0x3e1a2162	0.15051797
75	0xbe31323e	-0.17304322
76	0xbd9755c4	-0.07389405
77	0x3dafc76c	0.085829586
78	0xbd93fc54	-0.07225862
79	0x3d78aa05	0.06070902
80	0xbc6e8afa	-0.014559502
81	0xbd1f3c22	-0.038875706
82	0xbdc47fcf	-0.0959469
83	0x3cdf7cc2	0.027281169
84	0x3c5ba310	0.013405576
85	0x3e15df32	0.14635924
86	0x3cae6017	0.021286054
87	0xbdc580b8	-0.09643692
88	0xbcc161ed	-0.023606265
89	0xbea4b87c	-0.32172
90	0x3e0b3771	0.13595368
91	0x3e081548	0.13289368
92	0x3c562796	0.013070961
93	0xbd4b0bbc	-0.049571738
94	0xbe392845	-0.18081768
95	0xbcc8a9c0	-0.024495006
96	0xbd46b7cb	-0.048515122
97	0x3ccd75b4	0.02508054
98	0x3cec6da8	0.028860882
99	0x3d14970e	0.03627687
100	0xbb59ff7a	-0.0033263848
101	0xbd7fa372	-0.062411733
102	0xbdb42f43	-0.08798077
103	0xbca0c085	-0.01962305
104	0xbe212865	-0.15738066
105	0xbdbfa666	-0.0935791
106	0xbe22b563	-0.15889506
107	0x3e14cdfd	0.14531703
108	0xbc854d31	-0.01627216
109	0x3defffbd	0.117187
110	0xbd499e9a	-0.04922352
111	0x3e1f0857	0.15530525
112	0x3e1c0562	0.15236428
113	0x3d952a1b	0.072834216
114	0x3db690e7	0.08914357
115	0x3e27de52	0.16393402
116	0xbe145df6	-0.14488968
117	0x3c8a6a32	0.016896341
118	0x3dc13533	0.09433975
119	0x3dcc56d5	0.099774994
120	0xbdb4c147	-0.08825927
121	0xbca0ed16	-0.019644301
122	0x3da6a387	0.08136659
123	0x3e77636e	0.24159023
124	0xbdb5956d	-0.08866391
125	0xbe314f32	-0.17315367
126	0xbd98b14e	-0.07455693
127	0xbc4b0ca1	-0.012393148
128	0x3bd24a39	0.0064175394
129	0xbd1d8984	-0.038461223
130	0x3ca445c5	0.0200528
131	0xbbf17e4a	-0.007369791
132	0x3e22bf2f	0.15893243
133	0xbdac3530	-0.08408582
134	0x3dac9081	0.084259994
135	0x3d32a2dc	0.043612346
136	0xbd8897a2	-0.06669547
137	0x3d00fb12	0.03148944
138	0x3dd95429	0.106117554
139	0x3d6cb8fd	0.057793606
140	0x3e367198	0.1781677
141	0x3d03e339	0.03219912
142	0x3d9e55c9	0.07731206
143	0x3e482929	0.19546951
144	0xbdea87e1	-0.11451698
145	0xbde8d9ea	-0.11369689
146	0xbcb4f3cd	-0.02208891
147	0xbdc42f5a	-0.09579344
148	0xbdef4fa6	-0.116851136
149	0xbe157033	-0.14593582
150	0x3ca40618	0.020022437
151	0xbbf3640e	-0.007427699
152	0x3d7bfdc0	0.06152129
153	0xbc92b45f	-0.017908273
154	0xbde2f0ea	-0.11081107
155	0xbd9fb57c	-0.07798287
156	0xbe1987ce	-0.14993212
157	0x3d02cff8	0.031936616
158	0xbdc9ca19	-0.09853
159	0xbd122ecc	-0.03568916
160	0xbd5aea16	-0.053445898
161	0x3e2a5db8	0.16637313
162	0xbd115fee	-0.035491876
163	0x3d16a42d	0.036777664
164	0x3d6d8fc8	0.05799845
165	0xbd903c05	-0.07042698
166	0x3de8513b	0.113436185
167	0x3cc5f405	0.02416421
168	0x3d6173d8	0.055042118
169	0x3d94cfaf	0.07266175
170	0x3dc17067	0.09445267
171	0xbdaff74a	-0.085920885
172	0xbc178913	-0.00924899
173	0x3ca7dbef	0.020490615
174	0x3db6028e	0.08887206
175	0xbddf9c7d	-0.1091852
176	0x3d817f0a	0.06323059
177	0x3d937af4	0.07201186
178	0xbb399c7a	-0.0028322027
179	0x3d713a84	0.058893695
180	0xbdb0335f	-0.08603548
181	0x3cd107cb	0.025516411
182	0xbcd567b7	-0.026050432
183	0xbe19e639	-0.15029229
184	0x3d174b24	0.036936894
185	0x3e048330	0.12940669
186	0xbdb07d8e	-0.08617698
187	0xbe53c4b2	-0.20680502
188	0xbdb710ca	-0.08938749
189	0x3cb5d541	0.022196414
190	0x3e374665	0.17897947
191	0x3e0d73aa	0.13813654
192	0xbc094bc9	-0.008379885
193	0xbdae105a	-0.084992126
194	0x3e2dc468	0.16969454
195	0x3cfadbd0	0.030622393
196	0x3d9440e5	0.0723894
197	0xbba35bb9	-0.0049852994
198	0x3dbd83a3	0.09253623
199	0x3d2cc78b	0.042182487
200	0xbd97338a	-0.07382877
201	0x3e509b84	0.20371825
202	0x3de81154	0.1133143
203	0xbdabacb4	-0.0838255
204	0xbc8c58ae	-0.01713213
205	0xbdb05e32	-0.08611716
206	0x3c7defab	0.015499036
207	0x3cc18c4c	0.02362647
208	0xbc39be94	-0.011336941
209	0x3c82e054	0.015976109
210	0x3d901703	0.07035639
211	0xbcb6561d	-0.022257859
212	0xbdfb832b	-0.12280878
213	0xbd8a3814	-0.06748977
214	0xbd60d057	-0.05488619
215	0xbd99d6e1	-0.07511688
216	0xbba4d779	-0.005030569
217	0x3dfb53d9	0.12271852
218	0x3df74ff7	0.12075799
219	0xbd22f89d	-0.039787877
220	0xbce500ec	-0.027954541
221	0x3d117f90	0.035522044
222	0x3df9344e	0.121681795
223	0xbe535ebd	-0.20641609
224	0xbd98e2f1	-0.07465161
225	0xbe2d29c6	-0.16910467
226	0x3e1a06bf	0.15041636
227	0xbdfdfb78	-0.124014795
228	0x3d096257	0.03354105
229	0xbe18a57f	-0.14906882
230	0x3d9b064d	0.07569561
231	0xbd6d2543	-0.057896864
232	0x3d314442	0.043277986
233	0xbce50b78	-0.02795957
234	0x3d45b737	0.04827043
235	0x3c253301	0.010082961
236	0x3e64620d	0.22303028
237	0xbcde6776	-0.027148943
238	0x3d8b297b	0.06795021
239	0xbd7b856e	-0.061406545
240	0xbd822276	-0.06354229
241	0x3e0f2554	0.13979083
242	0xbd48b21f	-0.048997995
243	0x3da4721f	0.08029579
244	0xbd7eafc9	-0.06217936
245	0x3e2f9061	0.1714492
246	0x3c65fd02	0.014037373
247	0x3dc243e5	0.09485606
248	0xbd8bc65c	-0.068249434
249	0xbd297d3e	-0.041379206
250	0x3c81c029	0.0158387
251	0x3cb21dc5	0.02174271
252	0xbded603c	-0.11590621
253	0x3d7052e2	0.058672793
254	0x3d2d5fd9	0.042327736
255	0x38d31c14	0.00010066494

l3/b f4 [256]
0	0x3db1d72d	0.0868362
1	0xbc1e461d	-0.009660271
2	0xbcada6c4	-0.021197684
3	0xbc62239f	-0.013802438
4	0x3b3ad5fe	0.0028508897
5	0x3d6884a9	0.05676714
6	0x3c787488	0.015164502
7	0x3cd7eda6	0.026358437
8	0x3cb67576	0.022272807
9	0x3d0ff597	0.035146322
10	0x3e09d2ad	0.13459273
11	0xbc8071e0	-0.0156793
12	0x3c2fb258	0.010723673
13	0x3c044370	0.008072719
14	0x3d00334b	0.031298917
15	0xbd0e5557	-0.034749355
16	0x3d321a28	0.043481976
17	0xbc63c107	-0.013901002
18	0xbcce7111	-0.025200399
19	0xbd1dcc38	-0.038524836
20	0x3cc82784	0.024432905
21	0x3d2c6c14	0.04209526
22	0x3cb5186d	0.022106374
23	0x3cb2d00e	0.021827724
24	0x3ca5c6aa	0.020236332
25	0x3d0e4b26	0.034739636
26	0x3d05c0f7	0.03265473
27	0x3c3f1b9d	0.011664298
28	0xbd158ac0	-0.036509275
29	0x3d01d02b	0.031692665
30	0xbca75da6	-0.020430397
31	0xbc952daa	-0.01821025
32	0x3d600e8b	0.05470137
33	0x3d3c48c5	0.045967836
34	0x3ca2d259	0.019875692
35	0xbccbeb41	-0.024892451
36	0x3dcaecfe	0.09908484
37	0x3da1a9c7	0.078937106
38	0xbcf3f902	-0.029781822
39	0xbd8cab87	-0.06868654
40	0x3d0b5267	0.034014132
41	0x3b71766b	0.0036844264
42	0xbbca6bd6	-0.006177406
43	0x3d213a64	0.039362326
44	0x3ca7ba3c	0.020474546
45	0x3d5045d8	0.05084786
46	0x3d48664a	0.048925675
47	0xbd84a0b0	-0.06475961
48	0xbd25da5d	-0.04049145
49	0xbc92a56c	-0.017901145
50	0xbd3da06c	-0.04629557
51	0xbd2e76c0	-0.042593718
52	0x3d842f79	0.06454367
53	0x3cf3a233	0.029740429
54	0xbc7d66a7	-0.015466369
55	0x3d1da876	0.038490735
56	0x3d0c23a9	0.034213696
57	0x3d3f5a24	0.046716824
58	0xbd5293a5	-0.051410336
59	0xbc801f7a	-0.01564001
60	0xbd4db988	-0.050225765
61	0xbd515cdc	-0.05111395
62	0x3ca3f017	0.020011945
63	0x3dd63589	0.1045943
64	0x3d8fae74	0.07015696
65	0xbd9709db	-0.07374927
66	0x3c07bab9	0.008284264
67	0xbd4ac264	-0.04950179
68	0xbda9f60c	-0.08298883
69	0xbd0ac013	-0.033874582
70	0x3c9889be	0.018620368
71	0xbd049573	-0.03236909
72	0xbc863879	-0.01638435
73	0xbccee522	-0.025255743
74	0x3c0eff52	0.008727865
75	0xbbc926f3	-0.0061386763
76	0x3d225689	0.039633308
77	0x3d9bbcd9	0.07604379
78	0xbd270192	-0.040772982
79	0xbd0fb0fa	-0.035080887
80	0xbd1a9bfd	-0.03774642
81	0xbd3572ff	-0.044299122
82	0xbba32867	-0.0049791816
83	0xbc45516f	-0.012043341
84	0xbd67595f	-0.056481715
85	0x3cb083a2	0.021547142
86	0xbd2f14eb	-0.04274456
87	0xbcd59f2a	-0.026076872
88	0xbd3a50fe	-0.045487396
89	0xbce4f03c	-0.027946584
90	0x3d00cf96	0.03144797
91	0xbb225cce	-0.0024774554
92	0x3c483563	0.01221976
93	0xbd0716f2	-0.032980867
94	0x3d5128ce	0.051064305
95	0xbc21656d	-0.009850842
96	0xbc618efb	-0.013766999
97	0x3da8925b	0.0823104
98	0xbbc3b1cf	-0.005972124
99	0x3e03ffec	0.12890595
100	0xbd74dd50	-0.059781373
101	0xbe23a417	-0.15980564
102	0x3d398022	0.045288213
103	0xbc23cdd2	-0.009997802
104	0xbd849a4d	-0.06474743
105	0x3baca27c	0.005268393
106	0x3dd10a8e	0.10207091
107	0x3c02c446	0.007981366
108	0xbd683f28	-0.056700855
109	0xbcd7fac9	-0.0263647
110	0x3e005743	0.12533288
111	0xb9809fc1	-0.00024533088
112	0x3cd1a0ca	0.025589366
113	0xbddb1fdc	-0.10699436
114	0x3d9a43c5	0.07532457
115	0x3ceb79e8	0.028744653
116	0xbdc46981	-0.09590436
117	0xbcc22934	-0.023701288
118	0xbc8c596a	-0.01713248
119	0x3dc77bdd	0.09740422
120	0x3ce6259c	0.028094105
121	0x3d9a8283	0.075444244
122	0x3d1077a5	0.035270352
123	0xbc4dfa98	-0.012571953
124	0xbdaa4389	-0.083136626
125	0xbcdc994a	-0.026928563
126	0xbd11a50f	-0.035557803
127	0xbb8e992b	-0.004351755
128	0x3e211ef1	0.1573446
129	0xbdc15728	-0.09440452
130	0xbd2899c8	-0.041162282
131	0x3c577846	0.013151234
132	0x3c1912d7	0.009342871
133	0x3912040e	0.00013925156
134	0x3d36a36a	0.044589438
135	0xbca0a2c9	-0.019608872
136	0xbdae3480	-0.08506107
137	0xbcff73cf	-0.031183152
138	0x3d523912	0.051323958
139	0x3c92805c	0.017883472
140	0xbd0d4b7c	-0.034495816
141	0xbd3842ae	-0.044985466
142	0xbc20b539	-0.009808832
143	0x3c6149a8	0.013750471
144	0x3d9ff6e1	0.0781076
145	0xbd261952	-0.04055149
146	0xbc89e47a	-0.016832579
147	0xbd09b8dc	-0.03362356
148	0x3d52361b	0.05132113
149	0xbc36afcb	-0.011150311
150	0xbc394543	-0.011308017
151	0x3cd439b4	0.025906421
152	0xbc08f50b	-0.008359204
153	0xbc8002c7	-0.015626324
154	0xbca4180b	-0.020030996
155	0xbd00e0f3	-0.03146453
156	0xbd85e713	-0.065382145
157	0x3d8435a6	0.06455545
158	0x3de8414a	0.11340578
159	0xbd081ba4	-0.033229485
160	0x3be482ea	0.006973614
161	0x3ca13a3b	0.019681087
162	0xbc9af0c6	-0.018913638
163	0xba8c6d44	-0.0010713716
164	0x3c8df154	0.017326988
165	0xbcc679a6	-0.024227928
166	0x3e1064ae	0.14100906
167	0x3df43e5b	0.11925956
168	0x3c3e97f0	0.011632904
169	0xbaa3bc2c	-0.0012491993
170	0x3db36aaf	0.08760583
171	0x3da7cf0d	0.08193789
172	0x3d209426	0.039203785
173	0xbb235c96	-0.0024927012
174	0xbd02f90a	-0.031975783
175	0xbd8b4735	-0.06800691
176	0x3d894906	0.06703381
177	0x3cd67f21	0.026183667
178	0xbc9c758a	-0.019099016
179	0x3c9d93a8	0.019235447
180	0xbd824947	-0.06361633
181	0x3d9948c1	0.0748458
182	0xbcbba123	-0.022903984
183	0xbc7850a7	-0.015155948
184	0x3cac2aad	0.021016443
185	0x3c1d30e3	0.009594175
186	0xbd202f5d	-0.03910767
187	0x3c98add5	0.018637577
188	0xbd01d7b9	-0.03169987
189	0x3dc62ba0	0.096762896
190	0xbc5846f2	-0.013200508
191	0xbaabba4f	-0.0013101789
192	0xbd0701e2	-0.03296078
193	0xbd79716e	-0.06089919
194	0x3d63735a	0.05552993
195	0x3b8cdd67	0.004298854
196	0xbd2fb422	-0.042896397
197	0x3d080af0	0.033213556
198	0xbd6e70ce	-0.058213048
199	0xbce796e9	-0.028270202
200	0xbc9c67df	-0.019092498
201	0xbc2bded0	-0.010490134
202	0x3d96d8a1	0.073655374
203	0xbc39cff9	-0.011341088
204	0x3c1bd794	0.009511847
205	0x3ce5433d	0.027986163
206	0xbd111d32	-0.035428233
207	0xbd0303c0	-0.031986
208	0xbd2720bc	-0.040802702
209	0xbbcaca44	-0.0061886627
210	0x3dcfd80e	0.10148631
211	0xbdbc1d09	-0.091852255
212	0xbd0beaf6	-0.034159623
213	0xbcf5d7e9	-0.03001018
214	0x3d856bfb	0.06514736
215	0xbc8f209b	-0.017471602
216	0x3c716397	0.014733217
217	0x3cfd871d	0.030948216
218	0x3cf53d4d	0.029936457
219	0xbcc28e15	-0.02374939
220	0xbc0113b2	-0.007878231
221	0xbcc59f50	-0.024123818
222	0x3b716916	0.0036836318
223	0x3d55259a	0.052037813
224	0xbc89d3d8	-0.016824648
225	0xbcaf433c	-0.021394365
226	0xbdb4d68b	-0.08829983
227	0xbcc34ebc	-0.023841254
228	0xbc15fab9	-0.009154015
229	0x3dcc5487	0.0997706
230	0x3d7284af	0.05920857
231	0xbd442780	-0.047889233
232	0xbbebba69	-0.0071938527
233	0x3da06ff8	0.07833856
234	0xbc4d60d5	-0.012535294
235	0x3c09464d	0.008378577
236	0xbd2090fb	-0.039200764
237	0x3b333e90	0.0027350523
238	0xbcf8924e	-0.030343201
239	0x3d26fbe8	0.04076758
240	0x3d352cad	0.04423206
241	0xbaa6ee54	-0.0012735822
242	0xbd158c98	-0.036511034
243	0xbc808bac	-0.0156916
244	0xbb2b9085	-0.002617867
245	0xbba12a21	-0.0049183522
246	0x3d443c43	0.047909033
247	0x3d5eaa3d	0.05436157
248	0x3daa601c	0.08319113
249	0xbcfa668d	-0.030566478
250	0xbd25bac8	-0.04046133
251	0xbc77d51a	-0.015126491
252	0x3d465b96	0.048427187
253	0xbd2a50c1	-0.04158092
254	0xbb3673f5	-0.0027840112
255	0x3d0bb355	0.03410657

l3/W f4 [256, 256]
0	0xbc8b6772	-0.0170171
1	0x3d8341c7	0.064090304
2	0xbd740d43	-0.05958296
3	0x3d76bb59	0.060237262
4	0x3be2b190	0.0069181398
5	0xbd1a4baa	-0.037669815
6	0x3ca8acb7	0.02059017
7	0x3ddd8a4a	0.10817392
8	0x3c88ce65	0.01669998
9	0xbd142386	-0.03616669
10	0x3d625743	0.055259
11	0xbd411fd7	-0.047149505
12	0xbe3fcf17	-0.18731342
13	0x3d4cba7e	0.04998254
14	0x3dca0275	0.0986375
15	0x3d86c2ac	0.065800995
16	0xbd920fd5	-0.07131926
17	0x3d79d3d2	0.060993023
18	0x3d3c6723	0.045996796
19	0x3c216a20	0.009851962
20	0x3d3c6225	0.045992035
21	0x3d3ea240	0.046541452
22	0xbdf08651	-0.11744369
23	0xbd82a419	-0.063789554
24	0x3ce8f887	0.02843882
25	0xbe090bfc	-0.13383478
26	0xbd1af5e9	-0.037832174
27	0xbc264b35	-0.010149767
28	0x3dc00c2f	0.09377324
29	0xbe1e57a7	-0.15463124
30	0x3daced4a	0.08443697
31	0x3d8428c2	0.064530864
32	0x3e030dea	0.12798277
33	0xbd714c90	-0.058910906
34	0xbccf282a	-0.025287706
35	0x3d50b7d0	0.050956547
36	0xbe0bd8d5	-0.13656934
37	0x3d49f219	0.049303148
38	0xbbcd2c92	-0.0062614167
39	0xbd9ee514	-0.07758537
40	0xbde16cfe	-0.11007117
41	0x3daffabd	0.085927464
42	0xbb9d39e9	-0.004798163
43	0x3d420efb	0.047377568
44	0x3e03f73c	0.12887281
45	0xbdee0ef9	-0.116239496
46	0xbd84f4dc	-0.06492016
47	0xbb490649	-0.0030673912
48	0x3e037baf	0.1284015
49	0x3d0c98d9	0.034325454
50	0x3ddedfcc	0.108825296
51	0xbd94c03d	-0.07263229
52	0xbd8331d5	-0.06405989
53	0xbd912501	-0.07087136
54	0x3b5935ff	0.0033143756
55	0x3dae1f2f	0.085020415
56	0xbe359ece	-0.1773636
57	0xbade4bad	-0.0016959809
58	0xbd7a4d7a	-0.061109044
59	0x3d03e834	0.032203868
60	0xbd64ccb7	-0.055859294
61	0x3d645308	0.055743247
62	0x3d018c47	0.03162792
63	0xbe4cd3ea	-0.20002714
64	0x3d806a5b	0.06270286
65	0x3cdb6a3c	0.026784055
66	0xbcdd8886	-0.027042639
67	0x3dff8271	0.124760516
68	0x3d3f8875	0.046760995
69	0xbd599b75	-0.05312677
70	0xbdb1e325	-0.086859025
71	0xbd36db1d	-0.044642556
72	0x3e02ae4e	0.12761804
73	0xbdcde93b	-0.10054251
74	0xbe45d63c	-0.19320005
75	0x3d24d88d	0.04024558
76	0xbd154ac3	-0.03644825
77	0xbe23c258	-0.15992105
78	0xbd76188e	-0.06008201
79	0x3aa0c78f	0.0012266504
80	0x3e40897f	0.1880245
81	0x3dc3c84d	0.09559689
82	0xbdbd4164	-0.09240988
83	0xbd6d1a1b	-0.057886224
84	0x3d4ed363	0.050494563
85	0x3d335938	0.043786258
86	0x3e0740ef	0.13208364
87	0x3db3c3f5	0.0877761
88	0x3dc81e25	0.097713746
89	0xbc8f81d1	-0.017517956
90	0xbc85d26b	-0.016335687
91	0x3deba268	0.11505586
92	0x3d99beb0	0.07507074
93	0x3da9aae5	0.08284549
94	0xbdd415e5	-0.103557386
95	0xbdcfed42	-0.10152675
96	0x3e02a2e9	0.12757458
97	0xbe2cdc4f	-0.16880916
98	0xbe09d551	-0.1346028
99	0x3d116d91	0.03550488
100	0xbd340199	-0.043946836
101	0xbbf998f2	-0.0076171095
102	0xbcd39e90	-0.025832444
103	0xbc56ea79	-0.013117426
104	0x3d8474d5	0.064675964
105	0xbc15c485	-0.009141092
106	0xbdfb5dbd	-0.122737385
107	0x3bedad03	0.0072532906
108	0xbdc554e8	-0.09635335
109	0xbe04e4ee	-0.12977955
110	0xbe9dd665	-0.30827633
111	0xbd0c1752	-0.034201927
112	0x3e1a4e1f	0.15068863
113	0x3dda76a1	0.10667158
114	0xbddab5e8	-0.10679227
115	0xbbe0af27	-0.0068568173
116	0x3da14b05	0.07875637
117	0x3da882e0	0.082280874
118	0x3da35302	0.07974817
119	0x3d96779c	0.073470324
120	0xbd9eabd7	-0.077476196
121	0x3d915a65	0.070973195
122	0x3d8e49e3	0.069476865
123	0x3d0e6dbf	0.03477263
124	0xbd229f5a	-0.03970275
125	0xbdbcf99c	-0.09227297
126	0x3c071c3e	0.00824648
127	0x3c5baecb	0.013408373
128	0x3c93208b	0.017959854
129	0x3d0105e5	0.031499762
130	0xbda36eee	-0.079801425
131	0x3de32437	0.11090892
132	0x3d7022ae	0.058626823
133	0x3e18a6ba	0.14907351
134	0x3e02daaa	0.12778726
135	0xbdd00934	-0.10158005
136	0xbdc4ccd4	-0.0960938
137	0xbdb74050	-0.089478135
138	0xbe28e56b	-0.16493766
139	0x3be073b8	0.0068497322
140	0x3d088e84	0.03333904
141	0xbd917285	-0.07101921
142	0x3e0f39c0	0.13986874
143	0x3d4771f6	0.048692666
144	0x3c2be315	0.010491152
145	0x3c848356	0.016175907
146	0xbd5ebdc8	-0.05438021
147	0xbb9650d7	-0.0045872736
148	0x3d3a80bd	0.04553293
149	0xbdce84d4	-0.10083929
150	0x3d0bb824	0.034111157
151	0xbbc3d2ea	-0.0059760706
152	0x3d095813	0.03353126
153	0x3cff586e	0.031170096
154	0xbe719b29	-0.23594345
155	0xbcaadb9c	-0.020856671
156	0xbdd8a360	-0.10578036
157	0xbda81aa0	-0.08208203
158	0xbd9aea27	-0.07564192
159	0xbca78686	-0.020449888
160	0xbc043a47	-0.008070535
161	0xbd7a7195	-0.061143477
162	0x3e42d9d7	0.19028412
163	0xbd20b358	-0.039233536
164	0x3be4bb94	0.006980369
165	0x3dcf222e	0.10113941
166	0x3e668f1a	0.22515526
167	0xbcdb0897	-0.026737494
168	0xbc88f0fb	-0.016716471
169	0x3e4e5415	0.20149262
170	0x3d94c5b7	0.072642736
171	0xbd2b985d	-0.04189335
172	0xbd998025	-0.07495145
173	0x3cd41cf6	0.025892716
174	0x3de8d82a	0.11369355
175	0x3ca5160e	0.020152118
176	0xbdf20fbe	-0.11819409
177	0x3d3b0df6	0.04566761
178	0x3d907a9c	0.07054636
179	0xbe2b877f	-0.16750906
180	0x3e5a9e1b	0.21349375
181	0x3e829fed	0.2551264
182	0xbda0093c	-0.07814261
183	0xbd8ac94e	-0.06776677
184	0xbcc5b7b7	-0.024135454
185	0xbdb3b607	-0.08774953
186	0xbdcba584	-0.09943679
187	0xbddb089d	-0.10695002
188	0xbc931d5e	-0.01795834
189	0x3cc98a18	0.024601981
190	0x3cb07d70	0.021544188
191	0x3d9e09a9	0.07716686
192	0xbd74f2c5	-0.059801836
193	0xbd204360	-0.039126754
194	0x3d2d4d5d	0.042310107
195	0xbd9d6b1b	-0.07686444
196	0xbc9ae0e5	-0.018906066
197	0xbd9cd071	-0.076569445
198	0x3d8de615	0.0692865
199	0xbc029bc1	-0.007971705
200	0x3beadf96	0.007167767
201	0xbe235e3f	-0.15953921
202	0x3d316687	0.04331067
203	0x3de5c772	0.11219682
204	0xbda75b9c	-0.0817177
205	0x3d605481	0.05476809
206	0xbd0987de	-0.03357684
207	0x3bf93347	0.0076049897
208	0xbd57e882	-0.05271197
209	0xbbd71c3a	-0.006564644
210	0xbcf1ad35	-0.029501537
211	0xbd12f6f9	-0.035880063
212	0xbdc185fb	-0.09449383
213	0x3db4b880	0.08824253
214	0xbd67cd1a	-0.056592084
215	0x3d7718d2	0.060326405
216	0xbcc6e1f9	-0.024277674
217	0xbc3c12e9	-0.011479118
218	0x3df583bb	0.11988016
219	0xbdc7a417	-0.097480945
220	0x3e2ccacb	0.16874234
221	0x3de6696e	0.11250578
222	0xbe282ebc	-0.16424078
223	0xbca6b2d3	-0.020348942
224	0x3da08b73	0.07839098
225	0x3d646148	0.055756837
226	0x3ce284a5	0.02765114
227	0xbddfa5dd	-0.10920308
228	0x3d9aa779	0.07551474
229	0xbe2eac77	-0.17057978
230	0xbd12d9d7	-0.03585228
231	0xbd89d39e	-0.06729816
232	0xbc9b28ac	-0.018940292
233	0xbdf8a2fd	-0.121404625
234	0x3d9dc165	0.07702903
235	0x3d2ba0ec	0.041901514
236	0xbd977956	-0.0739619
237	0xbc2aeca2	-0.010432394
238	0x3dc678bd	0.09690998
239	0x3c8195e1	0.015818538
240	0xbe1661de	-0.14685771
241	0xbc8c8994	-0.017155446
242	0xbd4c6440	-0.049900293
243	0x3d4fd211	0.050737444
244	0x3dc4db41	0.09612132
245	0x3e10bb75	0.14134009
246	0xba626ef1	-0.00086377474
247	0x3de56652	0.11201157
248	0xbe58d6e2	-0.21175721
249	0xbd2f7278	-0.042833775
250	0xbc3bba99	-0.011458063
251	0x3d7ca912	0.061684676
252	0x3d9dd786	0.077071235
253	0x3e133920	0.1437726
254	0x3d84904a	0.064728335
255	0x3d751828	0.05983749

l1/b f4 [256]
0	0x3c892fda	0.01674645
1	0xbdae0102	-0.08496286
2	0xbd024a7d	-0.03180932
3	0x3cb6d3c7	0.02231778
4	0xbc9421fa	-0.018082608
5	0x3be2187d	0.006899892
6	0x3ba0e5e4	0.0049102176
7	0xbc8effcc	-0.017455958
8	0xbbfad3b2	-0.0076546306
9	0xbd6137c4	-0.054984823
10	0xbd6d8214	-0.05798538
11	0xbbd5af3a	-0.006521133
12	0xbc1b5133	-0.009479809
13	0xbe5e7889	-0.21725668
14	0x3d2414ea	0.040059008
15	0x3aae5f75	0.0013303595
16	0xbd4d476e	-0.05011695
17	0xbd876231	-0.066105254
18	0x3d150e18	0.036390394
19	0xbe07d945	-0.13266475
20	0x3d218e3e	0.039442293
21	0xbe107a67	-0.14109193
22	0x3d12c47c	0.035831913
23	0x3d82bf9a	0.06384201
24	0x3cd892f3	0.026437258
25	0x3ada401c	0.0016651186
26	0x3cae9e11	0.021315606
27	0xbd77bf3a	-0.060485102
28	0xbc3f3093	-0.011669296
29	0x3d664c24	0.056224957
30	0x3d507b1b	0.050898653
31	0x3d1a1f60	0.037627578
32	0x3c670096	0.014099261
33	0x3c84da37	0.016217334
34	0xbcbda61c	-0.023150496
35	0x3c2bd895	0.010488649
36	0xbcdc722e	-0.026909914
37	0x3cb267b0	0.021777958
38	0xbdeddcc1	-0.11614371
39	0xbcaeecf3	-0.02135322
40	0xbd939ff6	-0.072082445
41	0x3ce090a2	0.027412716
42	0x3c6280a4	0.013824616
43	0xbdb4b9b6	-0.08824484
44	0x3d0410b9	0.03224251
45	0xbd8d906f	-0.06912314
46	0xbbc41702	-0.005984188
47	0xbd93c75c	-0.07215759
48	0x3df01dcb	0.117244326
49	0x3bf6328a	0.007513349
50	0xba971470	-0.0011526477
51	0xbd5bb06d	-0.05363505
52	0xbd6d0f76	-0.057876073
53	0x3d0a33bb	0.03374074
54	0xba8fac84	-0.0010961448
55	0x3d488b59	0.048961017
56	0xbd9fdb74	-0.07805529
57	0x3c7a4fbf	0.015277802
58	0x3cd8b059	0.026451277
59	0xbe164c3f	-0.14677523
60	0x3c360210	0.01110889
61	0x3ce75dd8	0.02824299
62	0x3d001cf1	0.0312776
63	0xbe0a3090	-0.13495088
64	0xbc5da278	-0.013527505
65	0x3cdcbbb5	0.026944974
66	0xbd33395f	-0.043755885
67	0x3d400f08	0.046889335
68	0xbe9be2bf	-0.3044643
69	0xbced6ee3	-0.028983539
70	0x3aac2b47	0.0013135456
71	0x3d37ac50	0.044842064
72	0xbc0ff90c	-0.008787405
73	0xbc854edf	-0.01627296
74	0x3ce5bc29	0.028043823
75	0x3d49ec65	0.04929771
76	0x3d527b11	0.051386897
77	0xbe135968	-0.14389575
78	0x3d367ccb	0.044552606
79	0xbdcf7c63	-0.10131147
80	0x3d05d275	0.03267141
81	0xbd231f57	-0.03982481
82	0xbd6fbb44	-0.0585282
83	0x3daf5e40	0.08562899
84	0x3d780a3d	0.06055664
85	0x3cc60956	0.024174374
86	0x3d29514a	0.04133729
87	0xbe15ef29	-0.14642014
88	0x3db1d7e4	0.08683756
89	0xbc2f2f66	-0.010692453
90	0xbb8edaaa	-0.004359563
91	0xbc85bce6	-0.016325425
92	0x3c011fa4	0.007881079
93	0x3d15bcf0	0.036557138
94	0xbc0bb8da	-0.008527959
95	0x3bf23172	0.0073911482
96	0xbdee4d05	-0.11635784
97	0x3d80f6a2	0.062970415
98	0x3d55d80c	0.05220799
99	0x3d0360d7	0.032074776
100	0x3d2ec1e6	0.042665385
101	0xbd7c5b86	-0.06161072
102	0xbe4f1496	-0.20222697
103	0x3a0fbb34	0.00054829125
104	0x3c8e2080	0.017349482
105	0xbc4dd4b6	-0.012562921
106	0x3cccd226	0.02500255
107	0xbbf27dc6	-0.0074002473
108	0xbb05a636	-0.002039326
109	0x3d146887	0.036232498
110	0x3d5400f4	0.05175872
111	0x3d7b0f68	0.06129399
112	0xbdb52a6d	-0.08845983
113	0xbd778a1e	-0.060434453
114	0xbd0aa0a4	-0.033844605
115	0x3dbd433e	0.09241341
116	0xbd24d39b	-0.040240865
117	0xbd82e0b6	-0.063905165
118	0xbc121376	-0.008915773
119	0xbdad2ab9	-0.08455414
120	0xbad1ee21	-0.0016016403
121	0x3cf291dc	0.029610567
122	0x3ca59561	0.020212831
123	0xbd229ce1	-0.039700393
124	0xbddbc968	-0.107317746
125	0x3cc20692	0.023684774
126	0x3b85bf82	0.0040816674
127	0xbe162e14	-0.14666015
128	0xbd87f89d	-0.06639216
129	0xbd8081cb	-0.06274756
130	0xbb9112d3	-0.004427293
131	0xbddbb7c8	-0.10728413
132	0xbad0646f	-0.0015899072
133	0xbd1cda83	-0.038294327
134	0x3b6f3997	0.0036502832
135	0x3c825e5d	0.015914137
136	0xbaf23131	-0.0018477795
137	0xbd854854	-0.06507936
138	0xbc115999	-0.008871459
139	0xbcb10132	-0.021607015
140	0x3bf48810	0.007462509
141	0xbcfec8b5	-0.031101564
142	0x3ce3142e	0.027719583
143	0x3cd8bcc1	0.026457192
144	0x3d5a0cb1	0.05323476
145	0xbc07252d	-0.0082486095
146	0x3d21c285	0.03949215
147	0xbdb9747c	-0.09055421
148	0xbd9e4791	-0.07728494
149	0xbcb0f471	-0.021600934
150	0xbd6ae3f4	-0.0573463
151	0xbbd1a113	-0.0063973754
152	0xbddfe2a6	-0.10931902
153	0xbc30e491	-0.010796682
154	0x3d043147	0.032273557
155	0xbc6a6fd8	-0.014308892
156	0xbe0c9645	-0.13729198
157	0x3bfccdbe	0.007714956
158	0xbe0cfaad	-0.137675
159	0xbd5dc330	-0.054141223
160	0xbe1fc9df	-0.15604351
161	0x3beda360	0.007252142
162	0x3d12aea1	0.03581107
163	0x3d34921a	0.044084646
164	0x3ce13f95	0.027496139
165	0x3d0196fa	0.031638123
166	0x3d0bd8eb	0.034142416
167	0x3ce595fb	0.028025618
168	0xbc3a5738	-0.011373334
169	0x3d2c04fd	0.041996945
170	0xbd8f0b91	-0.06984628
171	0xbdef28e1	-0.11677719
172	0xbc12000c	-0.008911144
173	0x3d877500	0.06614113
174	0x3cacfb03	0.021115785
175	0xbdad8e14	-0.08474365
176	0xbb7d630a	-0.0038663768
177	0x00000000	0.0
178	0xbc87eb1a	-0.016591597
179	0xbbe54f7e	-0.0069980016
180	0x3d5af36a	0.053454794
181	0xbe437a83	-0.19089703
182	0x3bddd0d1	0.0067692776
183	0xbd2f714c	-0.042832658
184	0xbc833d1b	-0.016020348
185	0x3dc3c161	0.095583685
186	0xbd1cd371	-0.038287584
187	0x3c3f6ed0	0.011684135
188	0xbd411310	-0.04713732
189	0xbdf444d0	-0.119271874
190	0xbdd1eb86	-0.10250001
191	0x3d8757f0	0.066085696
192	0x3d76adba	0.060224272
193	0x3b342523	0.0027487956
194	0xbc823c2b	-0.015897831
195	0xbe01e0a8	-0.12683356
196	0x3cd4f452	0.025995407
197	0xbd8070b4	-0.062714964
198	0x3ce3b487	0.027796043
199	0x3ce78e94	0.028266229
200	0xbd8850bf	-0.06656026
201	0xbdbd4e45	-0.09243444
202	0x3e027633	0.12740402
203	0xbccaa472	-0.024736617
204	0xbdf0f452	-0.117653504
205	0xbd0a1b75	-0.03371759
206	0x3c96d722	0.01841313
207	0x3cead7c2	0.028667334
208	0x3caba3d6	0.020952147
209	0xbd5face4	-0.05460824
210	0xbbcdd1ef	-0.0062811296
211	0x3d1d43fa	0.038394906
212	0x39c4eda0	0.00037561078
213	0x3d8f564c	0.06998882
214	0x3d49201a	0.04910288
215	0xbd3c5cb7	-0.045986857
216	0xbd6d43ed	-0.057926107
217	0x3bb9bd0a	0.005668287
218	0x3ccc57fa	0.024944294
219	0x3c79abb3	0.01523869
220	0x3bdd387e	0.006751119
221	0xba86629d	-0.0010252778
222	0x3d3d32e4	0.04619111
223	0xbdf8d522	-0.12150027
224	0xbd4e8b1c	-0.050425634
225	0xbbb26a3c	-0.005444793
226	0xbe0c6da7	-0.13713704
227	0x3bd1baf8	0.0064004622
228	0xbd0d4a0a	-0.034494437
229	0x3bf2f1ba	0.00741407
230	0x3c071ef0	0.008247122
231	0xba7c2bfa	-0.000961959
232	0xbcd43365	-0.025903413
233	0xbc146bb4	-0.009058882
234	0xbcc548aa	-0.0240825
235	0x3ba4ad98	0.005025577
236	0xbd0a9708	-0.03383544
237	0xbcbc69af	-0.022999613
238	0x3d279237	0.040910926
239	0xbb9c373f	-0.004767328
240	0x3d9eebfe	0.07759856
241	0x3cf772bc	0.030206077
242	0xbc01836b	-0.007904868
243	0xbd8e68df	-0.06953596
244	0x3cef3086	0.029197942
245	0xbd993e2b	-0.07482561
246	0x3d127adc	0.0357617
247	0xbd670fee	-0.056411676
248	0x39f93f13	0.00047539975
249	0xbc932ec7	-0.017966641
250	0xbe1f389b	-0.15548937
251	0xbd81f0c4	-0.063447505
252	0x3a98e151	0.0011663829
253	0x3d5548db	0.052071434
254	0x3b877ca9	0.0041347337
255	0x3d005dbe	0.0313394

l1/W f4 [256, 16]
0	0x3f04d622	0.5188924
1	0xbdbe2a3c	-0.09285399
2	0x3e025ab7	0.12729917
3	0xbe14a177	-0.14514719
4	0x3f076a40	0.528965
5	0x3b092c22	0.0020930846
6	0xbf8e0583	-1.1095432
7	0x3f3aef95	0.73021823
8	0xbed55a86	-0.41670626
9	0x3eb6ff3e	0.3574161
10	0x3d6e684f	0.058204945
11	0xbf5495fd	-0.83041364
12	0x3e574da2	0.21025708
13	0xbcddbe7e	-0.027068373
14	0x3ef54116	0.4790122
15	0x3ea8079b	0.32818303
16	0xbe723eca	-0.23656765
17	0x3f1987fd	0.59973127
18	0xbe03efe5	-0.12884481
19	0x3ea063c5	0.31326118
20	0x3f3239d4	0.6961949
21	0xbe5738b7	-0.21017729
22	0x3f0173e6	0.5056747
23	0x3e4b8a45	0.19876964
24	0xbf041914	-0.51600766
25	0x3ec98414	0.3935858
26	0x3ed8f094	0.42371047
27	0xbe8549ba	-0.2603281
28	0xbd7c50a1	-0.06160033
29	0x3df7642a	0.12079652
30	0xbe305291	-0.17218997
31	0xbeac7de1	-0.33689788
32	0x3e8427b8	0.25811553
33	0x3db004c1	0.08594657
34	0xbdd5c66b	-0.10438236
35	0x3e6dac29	0.23210205
36	0x3d3cbfde	0.046081416
37	0xbf10dbf6	-0.56585634
38	0x3e0d0ec7	0.13775168
39	0x3d569efe	0.05239772
40	0xbf381676	-0.7190927
41	0x3eeb958e	0.4601254
42	0xbe63b565	-0.22237165
43	0x3e2b5b0e	0.16733953
44	0x3f07f4c5	0.53107864
45	0x3daa262a	0.083080605
46	0x3d95ffc7	0.07324176
47	0x3e331107	0.17486964
48	0xbf1333eb	-0.57501096
49	0x3e38fef3	0.18066005
50	0xbeedec2e	-0.46469253
51	0x3e66cbfc	0.22538751
52	0xbecaa36d	-0.3957781
53	0xbed25f5a	-0.41088372
54	0x3eacd916	0.33759373
55	0x3f6b89f9	0.92007405
56	0x3ebc195d	0.367381
57	0xbee81d19	-0.453347
58	0x3dbbb672	0.09165658
59	0x3ae520e8	0.001748112
60	0xbe1d4400	-0.15357971
61	0xbee4b8fb	-0.4467238
62	0x3e07103f	0.13189791
63	0x3f0fe109	0.5620275
64	0xbca75359	-0.020425485
65	0xbd6d0c4b	-0.05787305
66	0x3f3b373c	0.73131156
67	0x3e9b591d	0.30341426
68	0x3e3ccad3	0.18436746
69	0x3e0dbc11	0.13841273
70	0x3e452fba	0.19256487
71	0x3e7f6a0b	0.24942796
72	0xbe98ce14	-0.29844725
73	0xbe344f58	-0.17608392
74	0xbf02a9f4	-0.5104058
75	0xbf129a1d	-0.5726641
76	0x3e24ce30	0.1609428
77	0x3dde1688	0.10844141
78	0xbf067e95	-0.525369
79	0x3e43c8fb	0.19119637
80	0x3f068f78	0.52562666
81	0xbea8d69c	-0.32976234
82	0x3d1302a5	0.035891194
83	0x3d6ec6f8	0.05829522
84	0xbe0b2c8f	-0.13591217
85	0xbf1cd041	-0.6125527
86	0x3e8e3eef	0.2778239
87	0xbeb3fec4	-0.35155308
88	0xbd9314c9	-0.07181699
89	0xbc33999b	-0.010961915
90	0xbe8a1078	-0.2696569
91	0xbec00eeb	-0.37511382
92	0xbdc5c099	-0.09655876
93	0xbdfc67be	-0.12324475
94	0xbeaf676a	-0.34258586
95	0x3c9de0a7	0.019272162
96	0xbf6cb146	-0.92458
97	0xbeb01268	-0.34389043
98	0xbdcbd80b	-0.09953316
99	0x3e71d256	0.23615393
100	0x3e3e33f1	0.18574502
101	0xbee43c49	-0.44577244
102	0xbe0f0022	-0.13964894
103	0xbd881d2f	-0.06646191
104	0x3c915fe2	0.017745916
105	0x3f35fbe2	0.7108747
106	0x3f001c95	0.5004361
107	0xbef1e635	-0.47245947
108	0xbe5040b4	-0.20337182
109	0x3dfff3d8	0.124976814
110	0xbdefce16	-0.1170923
111	0x3bc152cb	0.0058997623
112	0x3d892028	0.066955864
113	0x3df0690e	0.117387876
114	0x3f1146c0	0.5674858
115	0xbf47298d	-0.77797776
116	0x3ee32160	0.443614
117	0x3e8b7c9d	0.2724351
118	0xbee4e8e6	-0.44708937
119	0xbdd7995e	-0.10527299
120	0xbee6ba33	-0.45063934
121	0x3dc459aa	0.095874146
122	0xbec32ac6	-0.3811857
123	0x3d472403	0.048618328
124	0x3efaf9c6	0.49018687
125	0xbeed92b6	-0.46400994
126	0x3e021540	0.12703419
127	0x3e8f3830	0.27972555
128	0x3dab0bfa	0.08351894
129	0x3eace781	0.33770373
130	0xbe40a96b	-0.18814628
131	0x3ecd1c7d	0.40060797
132	0x3e4495c0	0.1919775
133	0x3e9254f2	0.28580433
134	0x3cbf65db	0.023363998
135	0x3d650d3a	0.055920817
136	0xbd4621c3	-0.04837204
137	0xbe8eb9b7	-0.27876064
138	0xbee0c28e	-0.43898433
139	0xbe59e398	-0.21278226
140	0xbf23ce0e	-0.6398629
141	0xbe9b064d	-0.30278245
142	0xbe027c66	-0.12742767
143	0xbd19f44a	-0.037586488
144	0x3eaefd78	0.34177756
145	0x3ec373be	0.38174242
146	0x3f108fbf	0.5646934
147	0x3d0536b6	0.03252288
148	0xbe74b2e9	-0.23896374
149	0xbeaec955	-0.3413798
150	0x3f658d5f	0.8966884
151	0xbe92018f	-0.28516814
152	0xbee8978e	-0.45428127
153	0x3ecd2be1	0.4007254
154	0xbe0bbec4	-0.1364699
155	0xbe0d88fa	-0.13821784
156	0xbf68b8a1	-0.9090672
157	0xbdc8a24d	-0.097965814
158	0x3f1ec0e5	0.62013084
159	0xbd647c55	-0.055782635
160	0xbdb5494b	-0.0885187
161	0x3e9b31dc	0.30311477
162	0x3e1f1328	0.15534651
163	0xbdc77b41	-0.09740306
164	0xbf4e3b74	-0.8055947
165	0x3f2f9d8a	0.6859976
166	0xbebbf82b	-0.36712775
167	0x3e851350	0.25991297
168	0x3e484269	0.19556583
169	0xbf0268a0	-0.50940895
170	0x3ec01d94	0.37522566
171	0xbe1e76c6	-0.15474996
172	0xbf221b4e	-0.63322914
173	0x3ebc8c7a	0.36825925
174	0x3d9a490c	0.07533464
175	0x3e120cf7	0.14262758
176	0xbe59899d	-0.21243902
177	0xbebdb5ac	-0.37052667
178	0x3eb45bb9	0.3522623
179	0xbf1d9ae5	-0.61564475
180	0xbeb925b5	-0.3616158
181	0xbea711d1	-0.3263078
182	0xbf56a2a1	-0.838419
183	0xbd371ca7	-0.04470506
184	0xbe6b81f0	-0.22998786
185	0xbf1e8f09	-0.61937004
186	0x3f16d4e0	0.5891857
187	0x3ea54d6f	0.3228564
188	0xbe73c440	-0.23805332
189	0xbea9b362	-0.3314467
190	0xbec66830	-0.38751364
191	0xbba81bcc	-0.005130267
192	0xbe04debb	-0.1297559
193	0x3e75e827	0.2401434
194	0xbe7ce251	-0.24695708
195	0x3ef060d7	0.46948883
196	0xbe3436c4	-0.17599016
197	0xbd916f7b	-0.07101341
198	0x3e88428f	0.2661328
199	0xbf080911	-0.53138834
200	0xbed8813c	-0.42286098
201	0xbf0ca43e	-0.54938114
202	0x3e967251	0.29384091
203	0xbe9e7334	-0.30947268
204	0x3d552936	0.052041255
205	0xbd495ee4	-0.04916276
206	0xbe9fbbc3	-0.31197938
207	0x3f2b0139	0.6679874
208	0xbc27f0aa	-0.01025025
209	0x3e383c13	0.17991666
210	0xbed08009	-0.40722683
211	0x3e131531	0.14363553
212	0x3f5bcbd2	0.8585788
213	0xbe021a4f	-0.12705348
214	0xbe55181c	-0.20809978
215	0xb9deb440	-0.00042477436
216	0x3dca22fd	0.09869955
217	0x3ca60bcb	0.020269295
218	0x3ebf41a3	0.37354764
219	0xbde5d1fb	-0.11221691
220	0x3e29bbea	0.1657559
221	0xbcf081c2	-0.029358748
222	0x3ee385a5	0.444379
223	0xbbd5b26a	-0.0065215128
224	0xbf169561	-0.58821684
225	0xbe825467	-0.2545502
226	0x3eb11f25	0.34594074
227	0xbed2993e	-0.4113254
228	0xbe2667f9	-0.162506
229	0x3e57c74f	0.21072124
230	0xbb46c31a	-0.0030328692
231	0xbeb10abb	-0.345785
232	0xbccc0802	-0.024906162
233	0xbda20ed4	-0.079129845
234	0xbdd67641	-0.10471774
235	0xbcdb9ba8	-0.026807621
236	0xbe8a8fcf	-0.27062842
237	0xbe92b9a6	-0.28657264
238	0x3eb1ef75	0.34753004
239	0xbc029807	-0.007970816
240	0x3e3f1e02	0.18663791
241	0xbecffa1b	-0.40620503
242	0x3e81919d	0.25306407
243	0x3b068c25	0.002053031
244	0x3e937a5f	0.288043
245	0x3f180cb7	0.593944
246	0xbe7c3f28	-0.24633467
247	0x3e02b287	0.12763415
248	0xbe2985b2	-0.16554907
249	0xbed3eed5	-0.41393152
250	0x3e7a67c3	0.24453644
251	0x3e83f7ba	0.25774938
252	0x3e1f5e5c	0.15563339
253	0x3de33496	0.11094014
254	0xbe1a9953	-0.15097551
255	0xbebd6082	-0.36987692

l4/b f4 [16]
0	0x3dadcc6a	0.084862545
1	0x3c3d2f0c	0.011546861
2	0x3d07d376	0.03316065
3	0x3e01a643	0.1266108
4	0x3dc97c42	0.098381534
5	0xbcdfc557	-0.027315779
6	0xbd14b0d5	-0.036301453
7	0x3da8b3d7	0.08237427
8	0x3de2515d	0.11050675
9	0x3d4c9b83	0.049952995
10	0xbccecc9c	-0.02524405
11	0x3dc5dc1a	0.09661122
12	0x3d80c52a	0.06287606
13	0x3d7bde3a	0.06149123
14	0x3da32254	0.07965532
15	0x3dfb2369	0.12262613

l4/W f4 [16, 256]
0	0xbd583d0e	-0.0527926
1	0xbbc3ebf9	-0.005979058
2	0x3bc73e39	0.0060804156
3	0x3c7b058e	0.015321149
4	0xbb8217b4	-0.003970111
5	0x3e42d456	0.19026312
6	0x3d64a4d9	0.055821273
7	0xbc6bd11c	-0.014393117
8	0xbdca6970	-0.09883392
9	0xbe9a9e55	-0.30198923
10	0x3dc4eadd	0.09615109
11	0xbe554472	-0.20826891
12	0x3d1a4647	0.037664678
13	0x3d7bfc53	0.061519932
14	0xbcc9dd23	-0.024641579
15	0x3dbbd2f8	0.091710985
16	0x3dfc676f	0.12324416
17	0x3ce2651d	0.027636105
18	0xbe17e33e	-0.1483278
19	0x3d8b1b54	0.06792322
20	0x3d099ab0	0.033594787
21	0x3d9f2aa1	0.07771803
22	0x3e2f2e4b	0.17107503
23	0xbe0b7332	-0.13618162
24	0x3dcc11a0	0.09964299
25	0xbe37fe9f	-0.17968224
26	0xbdc97354	-0.0983645
27	0x3e72dd12	0.23717144
28	0xbe40acd1	-0.18815924
29	0xbd8c2873	-0.068436526
30	0xbd101377	-0.035174813
31	0x3d9e0d7f	0.07717418
32	0x3ddfcac0	0.10927343
33	0xbd949e93	-0.07256808
34	0x3e7e69e4	0.24845082
35	0xbd259523	-0.04042543
36	0x3dd6a9ab	0.1048158
37	0x3e28a1eb	0.16468017
38	0xbe572574	-0.21010381
39	0x3ba63902	0.005072714
40	0xbe00b2aa	-0.12568155
41	0xbc31a29f	-0.010841995
42	0x3d672ba4	0.056438103
43	0x3b922f25	0.0044611865
44	0xbcc63dc2	-0.02419937
45	0x3e69b47a	0.22822753
46	0x3c4f95b4	0.012669969
47	0xbdaf6e95	-0.08566014
48	0x3e105df2	0.14098337
49	0x3d11e932	0.035622783
50	0xbca1522d	-0.019692505
51	0x3dd1ba66	0.10240631
52	0x3d2916ad	0.04128139
53	0x3dfadf91	0.12249673
54	0x3db64e8c	0.089017004
55	0x3da4215e	0.08014177
56	0xbd8169c8	-0.06319004
57	0x3e4fca4b	0.20292012
58	0xbe2bc104	-0.16772848
59	0x3dd54e68	0.104153454
60	0x3d5db546	0.054127954
61	0x3e6dd5ae	0.23226044
62	0x3d8ef772	0.0698079
63	0x3abfeefc	0.0014643366
64	0xbd4599fe	-0.04824256
65	0xbe9eeeb8	-0.31041503
66	0x3db21cd6	0.08696906
67	0x3cdad5c2	0.026713256
68	0x3c5c44e5	0.01344416
69	0x3df92021	0.12164331
70	0xbbc82cf6	-0.0061088754
71	0xbd89c8e0	-0.06727767
72	0xbe12ddf6	-0.14342484
73	0xbd35fe78	-0.044432133
74	0xbe82fbb9	-0.25582674
75	0xbd1f2408	-0.03885272
76	0x3d3f8d36	0.04676553
77	0xbdabbeba	-0.083859876
78	0x3d335f97	0.043792333
79	0xbe2fb0c9	-0.17157282
80	0xbc89d7e4	-0.016826577
81	0x3d2cea58	0.042215675
82	0xbe10cb40	-0.14140034
83	0x3e40407e	0.18774602
84	0x3dd9f964	0.106432706
85	0xbe48cdee	-0.19609806
86	0xbe4abe26	-0.19799098
87	0xbe8964dc	-0.26834762
88	0xbd5e7091	-0.05430657
89	0x3e8b2711	0.27178243
90	0xbe0504a9	-0.12990059
91	0x3d4a0f66	0.04933109
92	0x3cd5f54b	0.026117941
93	0xbc7f0c83	-0.015566948
94	0x3c16f060	0.009212583
95	0x3d2a1e7a	0.04153297
96	0xbd52b17e	-0.0514388
97	0x3d730d95	0.059339125
98	0xbde7dc12	-0.11321272
99	0x3cd30a1b	0.025761655
100	0xbdc36434	-0.095405966
101	0xbd36441a	-0.04449854
102	0x3d8744ea	0.06604941
103	0xbd895474	-0.06705561
104	0x3e232ff5	0.15936263
105	0xbd3c6867	-0.045998003
106	0x3d551929	0.052025948
107	0xbd8dabe9	-0.06917555
108	0xbe2c65a6	-0.16835651
109	0x3ea30947	0.31843016
110	0x3e17ff97	0.14843594
111	0xbe180241	-0.1484461
112	0x3e08d854	0.13363773
113	0xbd60b8dd	-0.0548638
114	0x3e55a810	0.20864892
115	0x3cbbafd0	0.022910982
116	0xbd0de231	-0.03463954
117	0xbe3d6fa4	-0.18499619
118	0x3dc5e7bc	0.096633404
119	0x3e391f40	0.18078327
120	0x3d5b8d8b	0.053601783
121	0x3e04a516	0.129536
122	0x3e71502f	0.23565744
123	0x3e0690ac	0.13141125
124	0xbd82710c	-0.06369218
125	0xba7dc4e9	-0.0009680526
126	0xbea4f8fd	-0.32221213
127	0xbe07778a	-0.13229194
128	0x3e5734aa	0.21016183
129	0xbd1a80b9	-0.037720416
130	0x3dbe8642	0.093029514
131	0xbd8d5c3c	-0.06902358
132	0x3dad6910	0.08467305
133	0x3e79e7af	0.24404787
134	0xbd6ecd74	-0.058301404
135	0x3d4f449d	0.050602544
136	0xbe143334	-0.14472657
137	0xbe009163	-0.1255546
138	0x3d1fec3a	0.039043643
139	0xbeb23dfb	-0.34812912
140	0xbe45cb72	-0.1931589
141	0x3cc9af4a	0.024619717
142	0x3e0ff73c	0.14059156
143	0x3e4a0ff2	0.19732645
144	0x3d51d44a	0.051227845
145	0xbe1f4cfb	-0.1555671
146	0xbd8a73be	-0.06760357
147	0xbe895a1e	-0.26826566
148	0x3db66524	0.0890601
149	0xbd477118	-0.04869184
150	0xbdaf3e49	-0.08556802
151	0x3d173b8e	0.03692203
152	0xbebde40c	-0.37088048
153	0x3cc8f9b9	0.02453314
154	0x3e3f206f	0.18664716
155	0xbe9c2f88	-0.30505013
156	0xbe4d7b5d	-0.2006659
157	0xbd8186ee	-0.06324564
158	0x3e490383	0.19630246
159	0x3d148db3	0.036267947
160	0xbd269b74	-0.040675595
161	0x3ca4b409	0.020105379
162	0x3d97886c	0.07399067
163	0x3dab2b3f	0.08357858
164	0x3c3aef65	0.011409615
165	0xbe25888e	-0.16165373
166	0x3decceb6	0.115628645
167	0x3de72bb4	0.112876326
168	0x3dbb3d54	0.09142557
169	0x3e89921e	0.2686929
170	0xbd660cd7	-0.05616459
171	0x3d8b4577	0.06800359
172	0xbc2dd8ac	-0.010610741
173	0xbba9e502	-0.0051847706
174	0x3d5fe4c7	0.05466154
175	0xbe9f043e	-0.31057924
176	0x3ce81e54	0.028334774
177	0xbd4bf93e	-0.049798243
178	0xbcca6139	-0.024704563
179	0x3db9b968	0.090685666
180	0x3e281d2e	0.16417381
181	0x3e6127c2	0.21987823
182	0xbdf53563	-0.11973073
183	0x3e1109b3	0.14163856
184	0xbd1ffc35	-0.039058883
185	0x3debf284	0.115208656
186	0xbde24639	-0.1104855
187	0x3d02c04d	0.031921674
188	0xbe18c02a	-0.14917055
189	0x3e9adf6c	0.30248582
190	0x3e36ba05	0.17844398
191	0xbdac732a	-0.08420403
192	0x3eaaa0d9	0.33325842
193	0x3db4eb0c	0.08833894
194	0xbc747a86	-0.01492179
195	0xbcdebabb	-0.02718865
196	0xbd34daa6	-0.044153832
197	0x3e54b05d	0.20770402
198	0xbd213018	-0.039352506
199	0xbe595aca	-0.2122604
200	0x3da14f34	0.07876435
201	0xbe0edb3e	-0.13950822
202	0x3d86ced5	0.06582419
203	0xbe697de0	-0.22801924
204	0x3c8158f8	0.015789494
205	0xbd425ffc	-0.04745482
206	0xbd82357e	-0.06357859
207	0xbe528a0c	-0.20560473
208	0x3cd44aeb	0.02591463
209	0xbe7e2fd2	-0.2482293
210	0x3e3d696d	0.18497248
211	0xbdbea111	-0.09308065
212	0xbde475f4	-0.1115531
213	0x3d89fe68	0.06737977
214	0x3e2ebca6	0.17064151
215	0x3d880d7d	0.06643198
216	0xbdf29f9b	-0.118468486
217	0x3e35832e	0.17725822
218	0x3de44ee2	0.11147858
219	0xbcc8843b	-0.024477115
220	0xbd30a6ad	-0.043127704
221	0xbcc52f85	-0.02407051
222	0xbdf70dd3	-0.12063184
223	0xbd16a1f0	-0.03677553
224	0x3e99e7cb	0.30059657
225	0xbe1d3a45	-0.1535426
226	0x3b3ebdd8	0.0029104855
227	0xbe0b9f62	-0.13635018
228	0x3e05a042	0.13049415
229	0x3cf0b601	0.029383661
230	0x3de5e3b2	0.1122507
231	0xbe33318b	-0.17499368
232	0xbcafbca6	-0.02145226
233	0xbd01f160	-0.031724334
234	0x3c160368	0.009156086
235	0xbe1a8a44	-0.15091807
236	0xbe47b676	-0.19503197
237	0x3ca2451e	0.019808348
238	0x3c0d9089	0.008640417
239	0x3e9375e6	0.28800887
240	0xbdc205e5	-0.094737805
241	0xbd927dd5	-0.07152907
242	0xbd026a08	-0.0318394
243	0x3d04b71c	0.03240119
244	0x3ba6fad7	0.0050958204
245	0x3d8ab545	0.06772856
246	0x3d509c95	0.05093058
247	0x3c477ab9	0.012175255
248	0xbc217e78	-0.009856813
249	0x3e0d52dc	0.1380114
250	0xbcc21202	-0.023690227
251	0x3d0e7243	0.034776937
252	0xbdb67784	-0.089095145
253	0x3bc82a4a	0.006108557
254	0xbd896a94	-0.06709781
255	0x3df84da6	0.12124185
