static/ai/6/agent_white_4000/model.npz (npz, 560116 bytes, 8 tensors)

l3/b f4 [256]
0.14941357 -0.00704438 -0.045406073 -0.08721764 -0.17678304 -0.14336652 0.085096456 0.13791859
0.11023092 0.025590247 0.3172412 -0.015189015 -0.36007434 -0.3259165 -0.006772312 -0.17914553
-0.015309092 0.12778841 -0.2876937 0.013758591 0.009252566 0.14720951 -0.16757804 0.079185784
0.042774342 0.03491455 0.029794386 -0.024603117 -0.055956267 -0.06658698 0.031205313 0.05664399
0.16495305 0.10562569 -0.09279148 -0.008393772 0.012107679 0.07539162 -0.18750158 -0.15627807
-0.0067302748 0.31406608 -0.18809076 -0.11833157 0.06420902 0.038516194 0.12679638 0.15744972
0.028798206 0.028095279 0.039645035 0.08873878 0.34457755 -0.0050224154 -0.07472093 0.13546467
-0.034033105 0.05589939 0.013534979 -0.047171377 0.19701365 0.16467446 0.03286835 0.027702019
0.18943389 0.1373064 -0.07655808 -0.003635416 0.123656824 -0.03126045 -0.08349823 2.7971497e-05
-0.12748778 -0.09855586 0.098723 -0.035452567 -0.26963747 0.025205314 0.06591704 0.054649636
0.13133721 -0.027707985 0.057578463 -0.33866358 0.014667934 0.025016477 -0.032522697 -0.011148129
-0.11998351 0.99774164 -0.03233889 0.0529216 -0.24890141 0.3057108 -0.38223425 -0.27350518
-0.039719686 0.08288369 0.06614424 -0.11142568 0.3911328 0.009209898 0.14392306 -0.15120798
-0.016489835 -0.19368446 0.011423736 -0.05427162 0.118518986 0.06464459 0.06032163 0.07608581
0.118585505 -0.39396816 0.12829086 -0.16765341 -0.006251539 -0.20617512 0.19294842 -0.032919157
-0.33055392 0.0031771988 0.25210816 0.06571847 0.0009122995 -0.37176785 0.07443136 0.10344927
-0.12727994 -0.0018184467 0.13278234 -0.10260798 0.068478964 0.031170368 0.218321 -0.030128557
0.009671626 -0.1651994 -0.2332981 -0.29582015 -0.049736906 -0.0047882404 -0.13476172 -0.0871085
-0.07481792 0.0055757584 0.21559024 -0.0069106035 0.0626014 -0.011738072 0.10109669 0.04922097
-0.15545474 -0.14134513 -0.019253204 -0.24253008 -0.09400016 -0.031187661 -0.00020967748 0.18228228
-0.3469538 0.046560872 -0.020474795 -0.015389357 0.104966074 0.009755164 -0.26025182 -0.0024598958
0.12557544 0.20254633 0.009019566 0.021151366 -0.05873427 -0.051854435 0.0783574 -0.22625256
-0.096622996 0.12469609 0.11887905 -0.036916215 0.15161288 -0.13818653 0.017432388 -0.06747749
-0.055951703 -0.1467426 0.03847161 0.008991947 -0.21861091 -0.19635156 0.041037135 0.12385685
0.03974383 0.08342812 0.04399417 0.09575978 0.14674553 0.1484816 -0.114613965 -0.3548394
0.11841037 -0.2586371 -0.20401095 0.030780798 0.07055928 -0.46755758 -0.21065757 -0.3326202
-0.1732838 -0.22239591 -0.28414497 -0.015274295 -0.0027694323 0.18441536 -0.10792446 0.0087452745
0.061507873 -0.07877725 -0.24990788 -0.16867316 0.010015645 -0.028205166 -0.07380453 -0.3406133
0.0085871685 0.010256812 -0.029665958 -0.14748071 0.011660584 0.123816155 -0.00670541 0.10731812
0.031305164 0.006485772 -0.121757366 0.025994606 0.00019271075 0.0098464005 -0.057772692 -0.18883595
0.02009692 -0.16691992 -0.05452227 0.0042347116 0.045433037 -0.25153247 -0.14140745 0.105712146
-0.0628378 0.0706764 0.051524393 0.50475514 -0.12052316 0.042528905 -0.0065175616 0.004720817
00000000: dfff 183e 8bd4 e6bb b8fb 39bd 299f b2bd
00000010: 9d06 35be acce 12be 0d47 ae3d 883a 0d3e
00000020: c0c0 e13d a3a2 d13c 706d a23e 59db 78bc
00000030: aa5b b8be 87de a6be 45ea ddbb ed71 37be
00000040: fcd2 7abc f7da 023e 974c 93be b76b 613c
00000050: 1398 173c 17be 163e 9499 2bbe 282c a23d
00000060: 2634 2f3d 8f02 0f3d 5b13 f43c 7a8c c9bc
00000070: 6632 65bd c15e 88bd 49a2 ff3c 8703 683d
00000080: 74e9 283e 4852 d83d 7609 bebd 0886 09bc
00000090: 495f 463c ec66 9a3d 6a00 40be 5c07 20be
000000a0: a389 dcbb 45cd a03e dd9a 40be d257 f2bd
000000b0: 0580 833d 28c3 1d3d e9d6 013e 803a 213e
000000c0: 37ea eb3c 1228 e63c d562 223d adbc b53d
000000d0: 786c b03e 1393 a4bb 4907 99bd 40b7 0a3e
000000e0: 4c66 0bbd c2f6 643d d1c1 5d3c c636 41bd
000000f0: f2bd 493e 6ca0 283e f7a0 063d 58ef e23c
00000100: f5fa 413e 0d9a 0c3e 7cca 9cbd 2940 6ebb
00000110: ca3f fd3d f50a 00bd 1f01 abbd 55a4 ea37
00000120: 288c 02be a8d7 c9bd 492f ca3d b636 11bd
00000130: ec0d 8abe 607b ce3c 83ff 863d 4cd8 5f3d
00000140: 437d 063e dbfb e2bc 65d7 6b3d 5065 adbe
00000150: c651 703c 5bef cc3c 8536 05bd a4a6 36bc
00000160: eab9 f5bd ff6b 7f3f c975 04bd 52c4 583d
00000170: 03e0 7ebe 2086 9c3e 35b4 c3be df08 8cbe
00000180: 1cb1 22bd edbe a93d a276 873d 2633 e4bd
00000190: 8f42 c83e 1de5 163c 9160 133e 44d6 1abe
000001a0: b115 87bc 3855 46be 9f2a 3b3c eb4b 5ebd
000001b0: 15ba f23d 6264 843d d013 773d e1d2 9b3d
000001c0: f5dc f23d 32b6 c9be ae5e 033e 56ad 2bbe
000001d0: b6d9 ccbb 921f 53be 4594 453e 3dd6 06bd
000001e0: 5d3e a9be 8d38 503b 5214 813e 6897 863d
000001f0: 6227 6f3a 5b58 bebe 786f 983d 36dd d33d
00000200: ac55 02be f258 eeba 18f8 073e 2224 d2bd
00000210: b33e 8c3d 0059 ff3c 8a8f 5f3e 2ad0 f6bc
00000220: bd75 1e3c 082a 29be b2e5 6ebe bd75 97be
00000230: edb8 4bbd ace6 9cbb fafe 09be f165 b2bd
00000240: 233a 99bd dab4 b63b b0c3 5c3e 5872 e2bb
00000250: 2a35 803d 0b51 40bc c80b cf3d ee9b 493d
00000260: 872f 1fbe c7bc 10be e5b8 9dbc ce59 78be
00000270: 2883 c0bd 447d ffbc dfdc 5bb9 35a8 3a3e
00000280: eea3 b1be 9db6 3e3d c2ba a7bc a423 7cbc
00000290: 74f8 d63d 20d4 1f3c ba3f 85be 3436 21bb
000002a0: d996 003e 4e68 4f3e cdc6 133c a145 ad3c
000002b0: 5993 70bd 5165 54bd d879 a03d c0ae 67be
000002c0: 47e2 c5bd aa60 ff3d dc76 f33d 7535 17bd
000002d0: 6840 1b3e c580 0dbe 5ece 8e3c a331 8abd
000002e0: 9d2d 65bd b143 16be 6894 1d3d f652 133c
000002f0: 8adb 5fbe 6210 49be 8e16 283d a9a8 fd3d
00000300: 6dca 223d 5ddc aa3d 3b33 343d b41d c43d
00000310: 7644 163e 900b 183e baba eabd 83ad b5be
00000320: 2381 f23d 156c 84be 3fe8 50be 0328 fc3c
00000330: 6281 903d b563 efbe 9eb6 57be 324d aabe
00000340: 4f71 31be c1bb 63be 737b 91be 0941 7abc
00000350: 5d7f 35bb 61d7 3c3e 8007 ddbd 5748 0f3c
00000360: aeef 7b3d f855 a1bd dae7 7fbe a8b8 2cbe
00000370: a918 243c 850e e7bc d426 97bd de64 aebe
00000380: 32b1 0c3c 300c 283c 0606 f3bc 2f05 17be
00000390: 090c 3f3c 5393 fd3d 0eb9 dbbb 9ac9 db3d
000003a0: d839 003d 9986 d43b ed5b f9bd a4f2 d43c
000003b0: 6612 4a39 cc52 213c 0fa3 6cbd 365e 41be
000003c0: 4ca2 a43c 0eed 2abe be52 5fbd 56c3 8a3b
000003d0: fe17 3a3d ddc8 80be 1dcd 10be 9c7f d83d
000003e0: 1bb1 80bd cabe 903d 3e0b 533d a237 013f
000003f0: d9d4 f6bd ca32 2e3d 4591 d5bb 15b1 9a3b

l3/W f4 [256, 256]
-0.15731709 -0.1245227 -0.099260986 -0.029929137 -0.1392968 0.02552182 -0.14523745 0.18279056
0.014842308 -0.014097401 0.116315745 -0.0117863985 -0.100038 0.07105238 0.08575054 -0.14924477
-0.068834186 -0.17974858 0.20589653 0.2160393 0.2663976 -0.08056422 -0.045778915 0.042265564
-0.1550771 -0.018441992 0.05629697 -0.33488336 0.07031264 0.052665465 0.058951534 0.09334471
0.02715213 -0.04337035 0.05763311 -0.07835597 -0.073278755 0.1019758 -0.092319824 -0.035989925
-0.02150199 0.09701857 0.039394587 0.042707074 0.08032329 -0.0044473014 -0.095374756 0.029305486
0.054714255 0.04101615 0.03568686 -0.073831655 0.024727782 0.020397108 -0.033337142 -0.034726012
0.0012166551 0.09483641 0.012926421 0.14195935 0.0076951 0.024780132 0.019588506 -0.017935209
0.06267251 0.036059912 -0.07301957 0.043046944 -0.025608424 -0.012150575 -0.05435892 0.10910483
-0.18187481 0.099036306 0.14067753 -0.1389794 -0.17300731 0.15862617 0.068442576 -0.030163392
-0.017346075 0.08203298 -0.041121915 -0.28329563 0.005106279 0.038308088 -0.11939015 0.00589934
0.09075963 -0.019482948 -0.06880641 -0.1045568 0.087868676 0.007847824 -0.10658577 0.23413727
0.1192153 -0.11563407 -0.022759575 -0.23456417 -0.022757197 -0.04484099 0.020565957 0.054106228
-0.037378233 0.035497084 0.086310856 -0.21150166 -0.028948633 0.030014832 0.027599208 -0.11707915
0.19884658 -0.19457908 0.11240254 -0.33040592 0.13667476 0.1624989 -0.05561492 0.07656667
0.07882446 -0.03325772 0.24404381 -0.10784031 -0.1144471 -0.04124175 -0.043136414 0.15801284
0.012990805 0.097501464 -0.13794607 -0.17210701 -0.071504325 -0.101678826 -0.037902728 -0.1295156
-0.09362664 -0.061018743 0.08907182 0.16077627 -0.032118555 0.23555276 -0.24711263 0.00843168
0.04496518 0.051227897 -0.11415942 0.05327094 0.11354518 -0.10444605 -0.089188784 0.056753293
-0.2888221 -0.30183282 -0.007517841 -0.06849719 0.044896014 0.08311736 -0.19239298 0.0509679
-0.112555265 -0.13343649 -0.22428295 0.050220326 -0.03950582 -0.0828543 0.052905742 -0.15719184
-0.029227536 0.19254138 0.047629066 0.10177672 -0.06288637 -0.120537594 -0.050631907 -0.009419458
-0.029640116 -0.0984827 0.09392586 0.03086245 0.05630819 -0.022535332 -0.13495573 0.15451749
0.037936393 0.050480895 -0.16737866 0.07898361 0.041762672 -0.22172214 -0.16305675 0.09716446
0.0348348 -0.1658377 -0.027502963 -0.15137745 -0.08591741 -0.0099780895 -0.025838409 -0.1626066
-0.0694784 0.12444678 0.020573385 0.06473455 0.13241003 -0.10903882 -0.085168324 -0.019166283
0.04882839 -0.014603794 -0.097643346 0.15187468 -0.02110383 -0.11796486 -0.04683136 0.037553716
-0.15082458 -0.071869835 0.061109606 0.023406962 0.07364403 -0.2250798 -0.07562028 0.0015900559
0.06681707 -0.061624438 -0.07416864 -0.064659186 0.06873676 -0.025713937 -0.090108246 0.07784405
-0.20794122 0.08289389 -0.057594035 -0.03470043 -0.07928979 0.036397412 -0.008773652 -0.040984303
-0.020366512 -0.012972414 0.08941112 0.23930304 -0.12506221 -0.04856176 0.0831039 0.039717335
-0.04950264 0.16129902 0.11981572 0.007353899 0.17307004 -0.14049959 0.26020417 0.009176256
00000000: bb17 21be c205 ffbd 5849 cbbd f32d f5bc
00000010: d2a3 0ebe 2313 d13c 20b9 14be 732d 3b3e
00000020: 272d 733c c9f8 66bc f336 ee3d bd1b 41bc
00000030: b9e0 ccbd e983 913d fb9d af3d 9fd3 18be
00000040: f0f8 8cbd 0310 38be 8ad6 523e 6839 5d3e
00000050: 4465 883e dbfe a4bd ac82 3bbd a81e 2d3d
00000060: 88cc 1ebe a913 97bc a797 663d d575 abbe
00000070: 1300 903d beb7 573d 2a77 713d 832b bf3d
00000080: 256e de3c 1ca5 31bd b210 6c3d 1879 a0bd
00000090: 2c13 96bd b0d8 d03d 2d12 bdbd 2c6a 13bd
000000a0: f124 b0bc acb1 c63d 385c 213d 9ded 2e3d
000000b0: 8980 a43d abba 91bb d753 c3bd 0f12 f03c
000000c0: 0e1c 603d 8d00 283d 632c 123d 0d35 97bd
000000d0: eb91 ca3c d617 a73c 878c 08bd dd3c 0ebd
000000e0: 2c78 9f3a 9739 c23d 57c9 533c cb5d 113e
000000f0: 2d27 fc3b b4ff ca3c 1378 a03c dcec 92bc
00000100: 725a 803d 8fb3 133d 498b 95bd fe51 303d
00000110: c2c8 d1bc 3513 47bc 75a7 5ebd 5a72 df3d
00000120: 643d 3abe 8cd3 ca3d c50d 103e 9e50 0ebe
00000130: d428 31be e66e 223e 9f2b 8c3d 3819 f7bc
00000140: 5b19 8ebc e800 a83d 746f 28bd 200c 91be
00000150: 9352 a73b f1e8 1c3d d382 f4bd 404f c13b
00000160: 2fe0 b93d b49a 9fbc 60ea 8cbd e021 d6bd
00000170: 7ef4 b33d 2994 003c a449 dabd aec1 6f3e
00000180: 2727 f43d 8ed1 ecbd 4a72 babc 9731 70be
00000190: 4d6d babc 30ab 37bd f079 a83c 7e9e 5d3d
000001a0: eb19 19bd 6465 113d bfc3 b03d e493 58be
000001b0: af25 edbc aae1 f53c bc17 e23c 32c7 efbd
000001c0: 709e 4b3e bd3f 47be 4e33 e63d f72a a9be
000001d0: 78f4 0b3e 1d66 263e 78cc 63bd fcce 9c3d
000001e0: b86e a13d 3f39 08bd 9fe6 793e 61db dcbd
000001f0: 3e63 eabd 1ced 28bd cfaf 30bd 1ece 213e
00000200: 63d7 543c d9ae c73d bc41 0dbe d23c 30be
00000210: dc70 92bd fd3c d0bd e43f 1bbd bd9f 04be
00000220: 53bf bfbd caee 79bd 496b b63d 89a2 243e
00000230: bf8e 03bd be34 713e 180b 7dbe 0725 0a3c
00000240: 692d 383d 58d4 513d 6acc e9bd a132 5a3d
00000250: 608a e83d d0e7 d5bd 9ca8 b6bd 2476 683d
00000260: 7ee0 93be d589 9abe 3958 f6bb 4148 8cbd
00000270: e2e4 373d 6f39 aa3d aa02 45be b7c3 503d
00000280: 6083 e6bd 93a3 08be 6eaa 65be d4b3 4d3d
00000290: dbd0 21bd 84af a9bd b1b3 583d e6f6 20be
000002a0: 966e efbc 9129 453e b216 433d 5070 d03d
000002b0: 92ca 80bd 6adc f6bd 6763 4fbd 1254 1abc
000002c0: d4cf f2bc 4cb1 c9bd 345c c03d 40d3 fc3c
000002d0: 6ba3 663d 049c b8bc d631 0abe d539 1e3e
000002e0: 3163 1b3d 0ec5 4e3d 5065 2bbe 29c2 a13d
000002f0: 560f 2b3d 210b 63be 59f8 26be 29fe c63d
00000300: efae 0e3d 5cd1 29be e54d e1bc b102 1bbe
00000310: 78f5 afbd 247b 23bc 12ab d3bc 5882 26be
00000320: b14a 8ebd f4dd fe3d 8489 a83c 8c93 843d
00000330: 7f96 073e bf4f dfbd bb6c aebd 9c02 9dbc
00000340: 4700 483d c044 6fbc 3cf9 c7bd 0985 1b3e
00000350: f0e1 acbc 8f97 f1bd 3dd2 3fbd edd1 193d
00000360: c271 1abe 7e30 93bd 114e 7a3d f5bf bf3c
00000370: aed2 963d 527b 66be cede 9abd 6c69 d03a
00000380: 63d7 883d e869 7cbd bae5 97bd 096c 84bd
00000390: dcc5 8c3d 09a6 d2bc ac8a b8bd b46c 9f3d
000003a0: 8bee 54be 46c4 a93d b9e7 6bbd 0a22 0ebd
000003b0: af62 a2bd 7415 153d 5dbf 0fbc 28df 27bd
000003c0: acd7 a6bc 3f8a 54bc 2d1d b73d db0b 753e
000003d0: 4f10 00be b2e8 46bd 6132 aa3d a5ae 223d
000003e0: 48c3 4abd 922b 253e f261 f53d faf8 f03b
000003f0: 4639 313e 20df 0fbe 7b39 853e 0258 163c

l1/b f4 [256]
-0.20284481 -0.18667468 0.02664143 -0.15297759 -0.19501781 1.2544787 -0.15772824 -0.013618158
-0.26437613 -0.31119102 0.26659974 -0.09298665 -0.5660378 0.024796268 -0.31047314 0.086304456
-0.4995283 -0.054892104 -0.014139531 -0.5229567 -0.005798961 -0.07824838 -0.02961351 -0.05295703
-0.2503169 -0.19903035 -0.22526768 0.031551056 0.28994358 -0.12785375 -0.023557125 0.004845064
-0.20461117 -0.19129996 -0.18152407 -0.0072046253 0.025678156 -0.13410093 0.02521901 0.12779218
-0.078200735 0.4173547 0.016140487 -0.14317429 -0.1628661 -0.43479186 -0.10756352 -0.3001933
0.36833826 -0.01487328 -0.5610748 -0.17319673 -0.1309622 -0.48228934 -0.21662663 0.00058906915
-0.78647834 0.09547662 -0.26967403 -0.010051575 0.24463795 -0.14528927 -0.8951465 -0.03501953
-0.3318116 -0.33632997 -0.19676256 0.0077434005 0.022111954 0.12005793 -0.27097872 -0.084025435
-0.19199339 0.13216767 -0.063226976 0.57238066 -0.025999086 -0.16097945 0.027739687 0.24121349
0.13832293 -0.76394445 -0.10918882 -0.011988529 -0.19279505 -0.3873936 0.5174373 -0.3254899
0.01719051 0.5424188 0.047676343 -0.052524313 0.08109834 -0.09681209 0.17081092 -0.42463008
0.021254567 -0.19088215 0.6564236 -0.043742176 0.18557829 -0.42824447 -0.12784891 -0.31861976
-0.10279712 0.004521004 0.0032056146 -0.33938798 0.017314915 -0.3030827 -0.26913604 -0.512228
-0.022234907 0.023664307 -0.34542993 -0.0029135612 0.015658153 -0.7466969 0.016448226 -0.07600648
-0.31252527 -0.29166654 0.03813466 0.08964451 -0.09833285 -0.06492144 -0.31344005 -0.36541006
-0.23198502 0.01231023 0.5246107 -0.22828634 -0.24005021 -0.4478233 -0.16444051 -0.097089216
-0.60089177 0.09065393 0.09058824 -0.0012043824 -0.616769 -0.23401749 0.0731336 -0.3904378
-0.04700807 -0.053546898 -0.2842864 -0.27921832 -0.318096 0.006756371 -0.16534023 -0.36335456
-0.023789799 0.009368569 0.13492015 -0.19718204 -0.24165054 0.069514066 0.27173424 -0.19390723
0.03175881 -0.022407465 -0.06715963 -0.08093742 -0.08632249 -0.008011223 0.19428977 -0.034975614
-0.45832473 0.87766767 0.34133214 -0.031152919 0.12590745 -0.008701436 0.09050254 0.021768108
-0.013698949 -0.3638901 -0.26640257 -0.079194635 -0.012627807 -0.23456292 -0.19033681 0.010096309
-0.35133082 -0.24236214 -0.43440175 -0.18863322 -0.23512971 -0.032425493 0.05349618 -0.15748872
-0.156897 0.08597021 -0.023843942 -0.38840693 -0.112666436 -0.2050557 0.1187853 -0.4757112
-0.053128026 -0.088580966 0.025385473 0.09463353 -0.02753275 -0.015091815 -0.00292582 -0.182967
0.0540828 -0.36032903 0.5007342 -0.19812222 -0.38395995 0.049527947 -0.32895285 0.032465924
-0.2807466 -0.04925055 -0.2849147 -0.4300837 -0.36285907 -0.09464383 -0.22970185 -0.13071059
-0.30868334 0.030916637 -0.107413486 -0.033005998 -0.06062064 -0.1452698 0.06724741 -0.10841049
-0.22327332 0.04715262 -0.018201275 0.09641059 0.03620116 -0.7979989 -0.22651418 0.0057561435
-0.3140618 -0.07490055 -0.10050157 -0.44559008 0.061253473 -0.12848394 0.6303289 0.41527578
0.060592316 0.06244879 -0.42986608 -0.50044006 -0.13457091 -0.074587695 0.4961152 0.104831204
00000000: 8db6 4fbe a627 3fbe 213f da3c 28a6 1cbe
00000010: c0b2 47be c292 a03f 8383 21be b21e 5fbc
00000020: 4f5c 87be 6e54 9fbe c37f 883e c96f bebd
00000030: dae7 10bf 8b21 cb3c 56f6 9ebe 64c0 b03d
00000040: 2cc2 ffbe 8bd6 60bd 7ea9 67bc 7ee0 05bf
00000050: 3605 bebb b040 a0bd 0898 f2bc 78e9 58bd
00000060: 8929 80be 9dce 4bbe 92ac 66be ae3b 013d
00000070: 7c73 943e 18ec 02be dffa c0bc 58c3 9e3b
00000080: 9785 51be 23e4 43be 72e1 39be c714 ecbb
00000090: ff5a d23c c151 09be 1998 ce3c f4db 023e
000000a0: b527 a0bd 84af d53e 0e39 843c 489c 12be
000000b0: 5fc6 26be 0a9d debe 434a dcbd f0b2 99be
000000c0: d596 bc3e 0faf 73bc 99a2 0fbf 7c5a 31be
000000d0: f41a 06be a1ee f6be 5fd3 5dbe c36b 1a3a
000000e0: a556 49bf 3f89 c33d b712 8abe 5caf 24bc
000000f0: 5f82 7a3e b6c6 14be 5228 65bf a470 0fbd
00000100: 36e3 a9be 7133 acbe 207c 49be 5abc fd3b
00000110: 2124 b53c efe0 f53d b9bd 8abe 8715 acbd
00000120: ea99 44be f656 073e 257d 81bd 8a87 123f
00000130: 09fc d4bc ccd7 24be 573e e33c ab00 773e
00000140: 87a4 0d3e dd91 43bf 639e dfbd 896b 44bc
00000150: 116c 45be 7458 c6be c576 043f 9da6 a6be
00000160: 1dd3 8c3c f5db 0a3f 4548 433d bc23 57bd
00000170: e316 a63d 6b45 c6bd 0fe9 2e3e 1d69 d9be
00000180: 0f1e ae3c 9c76 43be 610b 283f ff2a 33bd
00000190: 3c08 3e3e dc42 dbbe d3ea 02be 2122 a3be
000001a0: 4c87 d2bd ee24 943b 4a15 523b 43c4 adbe
000001b0: 02d8 8d3c a82d 9bbe 33cc 89be 6021 03bf
000001c0: fb25 b6bc a6db c13c 31dc b0be 72f1 3ebb
000001d0: 8745 803c 8727 3fbf 6ebe 863c 49a9 9bbd
000001e0: 5003 a0be 5155 95be 1733 1c3d 8a97 b73d
000001f0: bc62 c9bd 88f5 84bd 377b a0be 0717 bbbe
00000200: 7b8d 6dbe d9b0 493c e34c 063f e5c3 69be
00000210: b9cf 75be 1849 e5be 1863 28be b6d6 c6bd
00000220: 0bd4 19bf c5a8 b93d 5486 b93d 5edc 9dba
00000230: 93e4 1dbf 48a2 6fbe 12c7 953d 77e7 c7be
00000240: 898b 40bd fe53 5bbd fd8d 91be b4f5 8ebe
00000250: 7bdd a2be 8c64 dd3b f34e 29be 9c09 babe
00000260: d3e2 c2bc a07e 193c 8228 0a3e 17ea 49be
00000270: 3d73 77be 645d 8e3d c020 8b3e 9e8f 46be
00000280: 8715 023d dc8f b7bc fd8a 89bd 85c2 a5bd
00000290: d8c9 b0bd 8141 03bc e6f3 463e 9742 0fbd
000002a0: 8aa9 eabe d4ae 603f 16c3 ae3e 6834 ffbc
000002b0: e2ed 003e 7890 0ebc 6559 b93d 0853 b23c
000002c0: 8e71 60bc ce4f babe eb65 88be cc30 a2bd
000002d0: dde4 4ebc 4331 70be a7e7 42be fd6a 253c
000002e0: a2e1 b3be c82d 78be e869 debe 1129 41be
000002f0: d8c5 70be 98d0 04bd cf1e 5b3d b944 21be
00000300: 9ba9 20be 2611 b03d 5f54 c3bc 46dd c6be
00000310: a9bd e6bd 1ffa 51be b545 f33d 6b90 f3be
00000320: c69c 59bd f069 b5bd 32f5 cf3c 39cf c13d
00000330: 5d8c e1bc a943 77bc 1dbf 3fbb b45b 3bbe
00000340: ed85 5d3d 0c7d b8be 1e30 003f 8de0 4abe
00000350: 6696 c4be d1dd 4a3d 826c a8be fdfa 043d
00000360: 05be 8fbe f2ba 49bd 57e0 91be ee33 dcbe
00000370: aac8 b9be a0d4 c1bd f636 6bbe ffd8 05be
00000380: be0b 9ebe e344 fd3c 9afb dbbd 4c31 07bd
00000390: 594d 78bd 9bc1 14be 03b9 893d 5206 debd
000003a0: c3a1 64be 1b23 413d d71a 95bc ea72 c53d
000003b0: ab47 143d a849 4cbf 55f3 67be 089e bc3b
000003c0: b5cc a0be 7665 99bd c4d3 cdbd 6224 e4be
000003d0: ece4 7a3d 4b91 03be 3c5d 213f 079f d43e
000003e0: a62f 783d 4dca 7f3d 6817 dcbe d71c 00bf
000003f0: f5cc 09be 6fc1 98bd d002 fe3e beb1 d63d

l1/W f4 [256, 36]
0.36027366 -0.49997854 -0.15723474 0.12769422 -0.14882973 0.38118538 0.011448136 0.12740935
0.019336302 0.42152113 -0.072988905 -0.19786485 0.043916352 0.16869621 0.23132871 -0.037321858
0.20796782 0.31026945 -0.5968838 -0.5493311 0.25149947 -0.033585995 -0.25689346 -0.27893835
0.29438967 0.43711728 -0.056952663 -0.047103316 -0.5379754 0.13016745 0.079736285 0.28448376
0.052846655 -0.3301709 -0.12390177 -0.06823852 -0.038706087 -0.29491618 -0.1393102 -0.002740574
0.07029164 0.28295442 -0.0764599 0.29471275 0.4974372 -0.027559001 0.03702552 -0.3787751
-0.051752843 0.5893635 -0.0065086395 -0.083689846 -0.11327773 0.008147072 -0.15108569 -0.27230513
-0.1776372 0.24946524 -0.15337479 0.10560185 -0.044132333 -0.4580458 -0.18512988 -0.36970225
-0.016723499 0.40007675 0.31568053 0.29641375 -0.12072985 0.3124223 0.31616127 -0.24702609
0.42035562 -0.1533285 0.112095475 0.13124329 -0.05973399 -0.061174054 -0.3768201 -0.08098484
-0.2199452 0.17072465 0.4327546 -0.044971026 -0.18491599 -0.015908651 -0.12204927 0.09952904
-0.10036567 -0.49790964 0.023371218 0.14612022 -0.45686787 -0.12060514 0.20157549 -0.36990303
-0.12118066 -0.26926035 0.005579301 0.031114828 0.25166133 -0.39900264 0.020018483 -0.054510847
0.2641013 -0.25880948 -0.21334617 -0.22548872 0.2608968 -0.09411711 0.049542885 0.2981113
-0.01831477 0.03382365 -0.5034841 -0.09888892 0.33698234 0.23328155 0.3156066 -0.103460744
-0.5156383 0.446272 0.07410157 0.1957675 -0.0072850054 -0.13290255 -0.3281193 0.09685086
-0.09217176 -0.44535896 -0.069485866 0.3002906 -0.32661837 0.17526345 -0.08243008 0.22519505
-0.25852424 0.48609284 -0.31498337 -0.02560691 0.064912364 -0.06567019 -0.10232912 -0.18149765
0.2348813 -0.03653895 0.38583744 0.45327878 0.21902245 -0.05047562 -0.16268922 -0.34526438
0.28134546 -0.05757684 -0.037075896 0.16502006 0.1546128 0.11958723 -0.3292823 -0.42053443
-0.32750246 0.30794558 0.2132275 -0.21824901 0.1228994 -0.5765554 0.37861183 -0.08730437
-0.020593537 0.116958864 0.257634 -0.091116704 -0.26268256 0.12297338 0.21568024 -0.073911466
-0.11130234 -0.33215532 -0.2823194 0.419657 -0.07072385 -0.08550275 0.31223238 -0.06824103
-0.2483425 0.06982212 0.06385231 -0.11789161 -0.4666463 0.116059095 0.22848535 0.32363412
-0.039090272 -0.03621388 0.12861972 0.1342094 -0.18908972 -0.08087076 -0.18273321 0.16814943
0.3254786 0.040785536 -0.120287485 0.0032524387 0.14949027 0.06321189 0.10023747 -0.21095888
-0.28529942 0.11766656 0.016710104 -0.040273957 0.10746258 -0.03485274 0.038700856 0.24736123
-0.13421707 -0.016716624 0.5748686 -0.32535315 0.116199434 0.35212573 0.002510063 0.028826358
-0.086547025 -0.20925255 -0.2928088 0.7225973 0.35497063 0.26475337 -0.08530405 0.0040870467
0.08157767 -0.19492039 -0.12545379 -0.16957107 -0.05465743 -0.10035582 0.07393827 0.085229084
-0.2958459 -0.018139979 0.37063175 -0.35014954 0.40036887 0.13703743 -0.46318883 0.18843435
-0.36263794 -0.2514608 -0.43237132 -0.08082815 -0.05759028 0.24063236 0.17643842 -0.48547927
00000000: ca75 b83e 30fd ffbe 2502 21be 46c2 023e
00000010: d266 18be bb2a c33e f690 3b3c 9977 023e
00000020: 2a67 9e3c 9ed1 d73e 357b 95bd 159d 4abe
00000030: a2e1 333d b3be 2c3e 6fe1 6c3e cede 18bd
00000040: 84f5 543e a3db 9e3e 60cd 18bf f7a0 0cbf
00000050: 8ac4 803e 7891 09bd 8a87 83be 02d1 8ebe
00000060: 3eba 963e d6cd df3e 3247 69bd 68ef 40bd
00000070: c1b8 09bf 9e4a 053e c74c a33d dba7 913e
00000080: bc75 583d 290c a9be 36c0 fdbd a3c0 8bbd
00000090: 468a 1ebd 41ff 96be 55a7 0ebe 349b 33bb
000000a0: 10f5 8f3d 67df 903e 0297 9cbd 97e4 963e
000000b0: 17b0 fe3e 6ac3 e1bc 12a8 173d cfee c1be
000000c0: cafa 53bd 87e0 163f 6d46 d5bb 9565 abbd
000000d0: 28fe e7bd 4c7b 053c 35b6 1abe 946b 8bbe
000000e0: 87e6 35be d173 7f3e 480e 1dbe c845 d83d
000000f0: 1bc4 34bd fb84 eabe b092 3dbe 9d49 bdbe
00000100: b8ff 88bc dcd6 cc3e e1a0 a13e 8bc3 973e
00000110: 3641 f7bd d1f5 9f3e e4df a13e 68f4 7cbe
00000120: da38 d73e 2502 1dbe 5092 e53d a464 063e
00000130: a1ab 74bd a591 7abd 90ee c0be 61db a5bd
00000140: 5139 61be 71d2 2e3e 0392 dd3e 8a33 38bd
00000150: 9e5a 3dbe dc52 82bc f8f4 f9bd e2d5 cb3d
00000160: 848c cdbd 03ee febe ff74 bf3c 8aa0 153e
00000170: 96ea e9be d4ff f6bd ce69 4e3e ee63 bdbe
00000180: 912d f8bd 7edc 89be 92d2 b63b 86e4 fe3c
00000190: c1d9 803e 134a ccbe cdfd a33c c446 5fbd
000001a0: 4938 873e ad82 84be 6b77 5abe 84e6 66be
000001b0: 4494 853e 79c0 c0bd 7bed 4a3d 0ba2 983e
000001c0: db08 96bc ab8a 0a3d 55e4 00bf 4686 cabd
000001d0: f388 ac3e 5ce1 6e3e 3097 a13e 3ae3 d3bd
000001e0: df00 04bf c37d e43e 90c2 973d 4777 483e
000001f0: 0eb7 eebb 9b17 08be 41ff a7be be59 c63d
00000200: 8cc4 bcbd 1706 e4be 9b4e 8ebd b1bf 993e
00000210: 863a a7be 4378 333e 1ad1 a8bd 8899 663e
00000220: 4a5d 84be 29e1 f83e 8045 a1be 95c5 d1bc
00000230: c6f0 843d 187e 86bd ee91 d1bd 85da 39be
00000240: b984 703e dea9 15bd 7c8c c53e 2814 e83e
00000250: 6c47 603e 86bf 4ebd 0198 26be 7ec6 b0be
00000260: 830c 903e b1d5 6bbd e5dc 17bd 05fb 283e
00000270: d152 1e3e 26ea f43d b197 a8be 4a50 d7be
00000280: 67ae a7be 0bab 9d3e 4f58 5a3e ab7c 5fbe
00000290: aeb2 fb3d 2299 13bf 69d9 c13e a2cc b2bd
000002a0: c7b3 a8bc 2188 ef3d 9be8 833e 659b babd
000002b0: 547e 86be 78d9 fb3d 48db 5c3e e55e 97bd
000002c0: 7bf2 e3bd 4310 aabe 2b8c 90be 48dd d63e
000002d0: aad7 90bd 111c afbd ecdc 9f3e f4c1 8bbd
000002e0: 7f4d 7ebe e6fe 8e3d 00c5 823d 2871 f1bd
000002f0: 44ec eebe 64b0 ed3d 10f8 693e 5fb3 a53e
00000300: 1f1d 20bd 0155 14bd e3b4 033e 306e 093e
00000310: bca0 41be 929f a5bd 6a1e 3bbe 5d2f 2c3e
00000320: 22a5 a63e bc0e 273d 4959 f6bd de26 553b
00000330: fa13 193e 3c75 813d 4d49 cd3d 9b05 58be
00000340: c412 92be 2afb f03d a1e3 883c 4ef6 24bd
00000350: 5715 dc3d bfc1 0ebd ca84 1e3d 434c 7d3e
00000360: 3370 09be 4df1 88bc 972a 133f b094 a6be
00000370: f8f9 ed3d d349 b43e de7f 243b 4125 ec3c
00000380: 913f b1bd 4d46 56be 09eb 95be 23fc 383f
00000390: b6be b53e c18d 873e e4b3 aebd a2ec 853b
000003a0: 3212 a73d 3699 47be f576 00be 0aa4 2dbe
000003b0: 78e0 5fbd 5a87 cdbd f36c 973d 968c ae3d
000003c0: 1d79 97be 4b9a 94bc 72c3 bd3e cd46 b3be
000003d0: 26fd cc3e 8a53 0c3e 1627 edbe eff4 403e
000003e0: aeab b9be 78bf 80be c65f ddbe 3b89 a5bd
000003f0: c9e3 6bbd 5468 763e 46ac 343e bd90 f8be

l4/b f4 [36]
-0.45336404 -0.42602625 -0.3751171 -0.4996145 -0.49684948 -0.49230972 -0.37008134 -0.32886162
-0.31869107 -0.4100451 -0.35137883 -0.44223794 -0.44000235 -0.34616074 -0.10200753 -0.078474365
-0.36879516 -0.37881422 -0.36705813 -0.4343293 -0.14664005 -0.12594733 -0.38387182 -0.51089287
-0.429192 -0.3292877 -0.38685787 -0.28101882 -0.41787523 -0.5311933 -0.4785318 -0.42786515
-0.23138887 -0.41797498 -0.3443248 -0.36258054
00000000: 551f e8be 1d20 dabe 590f c0be 79cd ffbe
00000010: 0e63 febe 0510 fcbe 4d7b bdbe 8d60 a8be
00000020: 7a2b a3be 6ef1 d1be ede7 b3be 036d e2be
00000030: fd47 e1be fb3b b1be 53e9 d0bd 2bb7 a0bd
00000040: b8d2 bcbe f0f3 c1be 0bef bbbe 6960 debe
00000050: cf28 16be 56f8 00be d98a c4be e0c9 02bf
00000060: 0ebf dbbe 6698 a8be 3c12 c6be b3e1 8fbe
00000070: bef3 d5be 49fc 07bf 1f02 f5be 2411 dbbe
00000080: 34f1 6cbe d100 d6be 574b b0be 28a4 b9be

l4/W f4 [36, 256]
-0.03740765 -0.0020198668 0.0049043302 0.010953077 0.03282481 0.10264586 -0.12644532 0.15766653
-0.12468099 -0.06917028 0.041802946 -0.037362456 0.124616064 0.016946586 0.14930126 -0.11923145
0.08092846 0.11041585 -0.049115688 0.07845876 0.23306122 0.0026119268 0.09778537 -0.06801712
-0.14991193 0.10889416 -0.2642052 -0.070430025 0.0011725086 0.08772362 -0.11497453 0.15993796
-0.051175386 0.030371966 -0.085152276 -0.08287258 -0.06759771 0.054379635 -0.0422877 0.016731525
-0.15588003 -0.14748938 0.058488153 0.029086102 0.003718162 -0.16268559 0.062005416 -0.068507805
0.010591835 -0.09465715 -0.15154149 -0.06937405 -0.46857232 0.02982037 0.21595882 -0.16803724
0.29818448 -0.27510497 -0.09914443 0.08007895 -0.02551164 -0.19366015 -0.119764395 0.017521923
-0.2767834 -0.31595442 0.059155248 0.13734289 -0.21066095 0.20774533 0.06255585 -0.10098552
0.010904519 -0.32471806 0.033569522 -0.06541048 0.17214069 0.285615 0.25392056 0.14730187
-0.37089872 0.010900653 -0.2768403 0.10430496 -0.28270012 -0.26823285 0.17363864 -0.0021171053
-0.17009626 -0.093198635 -0.039694495 -0.1705956 0.0484004 -0.053481508 0.14409545 0.0678558
-0.07590891 -0.09580291 0.109701164 -0.2260844 -0.02499558 0.25790328 0.14772868 0.13550428
0.19908236 -0.0040029325 0.124501586 -0.0183162 -0.32544425 0.061934777 -0.21127275 -0.15034549
-0.09051424 0.0077818064 -0.09615685 0.03890193 -0.1677684 0.081518285 -0.3212846 0.20929341
-0.046836168 0.15247524 0.0046821972 -0.06305255 -0.13521898 0.06188016 0.008790089 -0.20199843
-0.12181807 0.11368572 -0.3009546 0.06802462 -0.1744567 -0.044523288 -0.16320829 0.055728965
-0.05611373 0.04655582 0.18982996 -0.062716395 0.11715008 -0.049006242 0.057673417 -0.30170798
0.24327303 -0.061261676 -0.068788305 -0.017790046 0.19100423 -0.101717584 0.1553247 -0.22755744
0.032334853 -0.035712253 0.15879463 0.008684931 -0.064870015 0.05104954 0.0050615706 0.23800814
0.06807077 -0.16610405 -0.12835202 -0.08885919 0.009119344 0.10826493 0.07646445 0.21873786
-0.42939195 -0.06758359 0.07508549 -0.052542057 0.06060654 0.22059211 0.18073529 0.040881593
-0.07236545 0.059465855 -0.29706421 0.071814895 -0.01543473 0.12942782 0.15582354 -0.14793874
-0.09575416 0.25795847 -0.25798875 -0.3664285 0.1782362 0.057931066 -0.15540543 -0.02312541
-0.2810061 0.07133588 0.048947617 -0.008937861 -0.27812642 -0.052316446 0.0048217587 0.021838963
-0.4884976 -0.10620663 0.07239525 -0.07876454 -0.032782864 0.03133745 -0.054291975 0.15596041
-0.03706353 0.078601174 0.07055753 0.057817236 0.03855868 -0.19570604 0.016242243 0.054523468
-0.104048505 0.30562127 0.067798756 -0.049169563 0.1203299 -0.052806523 0.17594914 0.05772728
-0.13355362 0.008047541 0.1783953 0.07182684 -0.097299874 0.044629473 -0.20200273 -0.031457663
0.20525779 0.017763657 -0.07091528 -0.07530108 -0.05037015 0.19007815 0.023716196 0.07489675
0.07817483 -0.08201677 0.10525089 -0.15808107 0.02975912 0.1562646 -0.18354341 0.16019031
0.09282567 -0.19113943 -0.22993772 -0.09031105 0.11284366 0.022885568 -0.04512984 -0.07932075
00000000: c438 19bd be5f 04bb 81b4 a03b 8974 333c
00000010: 4f73 063d fe37 d23d e27a 01be 5673 213e
00000020: bf58 ffbd 26a9 8dbd 9139 2b3d 6009 19bd
00000030: b536 ff3d 91d3 8a3c 6ee2 183e 9e2f f4bd
00000040: d2bd a53d b521 e23d 882d 49bd fdae a03d
00000050: 9aa7 6e3e dc2c 2b3b b243 c83d 8f4c 8bbd
00000060: 8382 19be e703 df3d e745 87be 9e3d 90bd
00000070: dcae 993a 71a8 b33d c477 ebbd c7c6 233e
00000080: 489d 51bd a1ce f83c 5164 aebd 19b9 a9bd
00000090: ab70 8abd 2ebd 5e3d de35 2dbd 8d10 893c
000000a0: 049f 1fbe 7507 17be 4691 6f3d fa45 ee3c
000000b0: 68ac 733b 0d97 26be 64f9 7d3d d24d 8cbd
000000c0: 6089 2d3c 9cdb c1bd b12d 1bbe fb13 8ebd
000000d0: b6e8 efbe d949 f43c 4f24 5d3e f411 2cbe
000000e0: a3ab 983e 8fda 8cbe 3c0c cbbd 6f00 a43d
000000f0: c9fd d0bc d94e 46be 0947 f5bd 238a 8f3c
00000100: 8eb6 8dbe c7c4 a1be c64c 723d 9da3 0c3e
00000110: 81b7 57be 31bb 543e 481d 803d 7fd1 cebd
00000120: dea8 323c 7241 a6be 3280 093d eef5 85bd
00000130: a645 303e 213c 923e e001 823e 4dd6 163e
00000140: 70e6 bdbe a798 323c 03be 8dbe d79d d53d
00000150: 12be 90be d155 89be 54ce 313e 22bf 0abb
00000160: b72d 2ebe edde bebd b296 22bd 9db0 2ebe
00000170: 7f3f 463d 6d0f 5bbd c28d 133e fbf7 8a3d
00000180: 2176 9bbd 5134 c4bd 01ab e03d ab82 67be
00000190: 88c3 ccbc e60b 843e 3046 173e a2c1 0a3e
000001a0: 3fdc 4b3e 082b 83bb b0fa fe3d db0b 96bc
000001b0: a1a0 a6be 52af 7d3d e257 58be 2bf4 19be
000001c0: 885f b9bd 86fe fe3b e2ed c4bd a157 1f3d
000001d0: 7bcb 2bbe 0ff3 a63d 6a7f a4be 0351 563e
000001e0: 48d7 3fbd 7822 1c3e 1e6d 993b b221 81bd
000001f0: d876 0abe 0d76 7d3d 4e04 103c add8 4ebe
00000200: c17b f9bd 0fd4 e83d b916 9abe 7e50 8b3d
00000210: c7a4 32be 0d5e 36bd 1320 27be 0e44 643d
00000220: 83d7 65bd 51b1 3e3d c962 423e 7471 80bd
00000230: 62ec ef3d c5ba 48bd f63a 6c3d 7879 9abe
00000240: 911c 793e 86ed 7abd e2e0 8cbd 6ebc 91bc
00000250: 9d96 433e 4f51 d0bd 700d 1f3e d104 69be
00000260: 8d71 043d 0347 12bd 0f9b 223e 3e4b 0e3c
00000270: 92da 84bd 5319 513d 88db a53b 68b8 733e
00000280: b068 8b3d 2e17 2abe b66e 03be cffb b5bd
00000290: 4d69 153c 01ba dd3d 6599 9c3d d1fc 5f3e
000002a0: 43d9 dbbe 4469 8abd 6cc6 993d 5736 57bd
000002b0: 903e 783d e6e2 613e ac12 393e 7573 273d
000002c0: 5634 94bd 7892 733d cd18 98be b013 933d
000002d0: f3e1 7cbc ba88 043e 3590 1f3e 417d 17be
000002e0: c21a c4bd 2213 843e 1a17 84be 849c bbbe
000002f0: 8d83 363e 2049 6d3d 9a22 1fbe 8071 bdbc
00000300: 08e0 8fbe 8c18 923d 4c7d 483d 1b70 12bc
00000310: 9666 8ebe c549 56bd d8ff 9d3b a0e7 b23c
00000320: 5c1c fabe dd82 d9bd f643 943d 4e4f a1bd
00000330: 5347 06bd b35b 003d 4361 5ebd 16b4 1f3e
00000340: eecf 17bd a7f9 a03d 7780 903d c4d1 6c3d
00000350: b5ef 1d3d 2a67 48be 740e 853c 0054 5f3d
00000360: 6217 d5bd 647a 9c3e 13da 8a3d 0666 49bd
00000370: 866f f63d a74b 58bd 032c 343e 7173 6c3d
00000380: 48c2 08be d5d9 033c 42ad 363e f319 933d
00000390: 2845 c7bd 65cd 363d ced9 4ebe c0d9 00bd
000003a0: 192f 523e 1785 913c 083c 91bd 7437 9abd
000003b0: ee50 4ebd d9a3 423e 7848 c23c 7863 993d
000003c0: 201a a03d 69f8 a7bd c78d d73d 01e0 21be
000003d0: 66c9 f33c d403 203e cef2 3bbe ee08 243e
000003e0: 631b be3d 0eba 43be cb74 6bbe 00f5 b8bd
000003f0: 941a e73d 847a bb3c 11da 38bd eb72 a2bd

l2/b f4 [256]
-0.49040195 -0.07551595 0.014076473 0.17824797 -0.16999081 0.104178876 0.0038924399 0.067352615
0.022460222 -0.080754444 -0.2722066 0.04773088 0.020866504 0.10117394 -0.0316038 0.017625542
0.011320348 0.0009892785 0.08999825 -0.080507144 -0.16902655 0.06471808 -0.03790456 0.009989179
-0.044694886 -0.072659045 -0.089903094 0.09469245 0.077671 0.18408677 -0.0660479 0.3289065
0.034279842 -0.41728568 -0.027805911 -0.2046356 0.066678755 0.7749482 0.06347142 0.2935147
0.062175896 0.26438078 0.008747038 -0.071110286 -0.3899543 -0.04340381 -0.50128645 0.019138161
-0.025764467 -0.14493614 -0.023291197 -0.11788847 -0.022078635 -0.03146221 -0.1855556 0.30721238
-0.070316546 0.11373314 -0.02760865 0.32543546 -0.24040484 -0.21012536 -0.08179296 -0.19403762
-0.08622819 -0.015663428 -0.19311652 0.05336537 0.015717138 -0.07555263 0.0401337 0.087763734
-0.6474152 0.023223074 -0.025887651 0.0050475635 -0.09950555 0.14525749 -0.08205215 0.012603997
-0.10990276 0.18467633 0.4291842 -0.25281855 0.41261092 -0.080337994 0.08766923 0.0014093664
0.073622905 0.023062004 -0.17027251 -0.1745389 0.3758289 -0.014981043 -0.25785437 -0.16492279
-0.011324789 -0.16138351 0.05705329 -0.06873184 -0.12624015 0.12834245 -0.2540694 0.024972739
-0.4197817 0.09657485 -0.015817491 -0.04959441 -0.31618938 -0.23387963 0.015785143 0.08968373
0.05241421 -0.6241799 0.0047011753 -0.36485505 0.2518908 -0.07736404 0.13073309 0.0976694
0.04050531 0.15253906 -0.052557305 0.090524584 0.0028689275 -0.19704962 -0.017029269 0.22772135
-0.057605404 -0.19030364 -0.25172856 -0.003384874 -0.08656544 -0.1842458 -0.05579575 -0.19371581
-0.016874498 0.039571047 0.08774196 -0.18087377 -0.053423617 -0.0010941904 -0.06895734 0.43044972
0.0138769755 -0.033797856 -0.060634196 0.08759261 0.16619977 -0.019770311 0.11633344 0.042624474
-0.18290247 -0.36682662 0.19402602 -0.04438479 -0.017710371 0.033669516 -0.14733735 -0.19447555
-0.13182111 -0.12315489 -0.08460928 -0.38805425 -0.32078227 0.0899818 -0.01535394 -0.14553982
-0.41811183 0.1909346 0.02250388 -0.04720125 -0.15938151 -0.03311556 -0.0165783 -0.5605075
-0.011601582 -0.01345551 -0.18218681 0.23785852 -0.25439322 -0.0041163233 0.016042035 0.40605894
-0.07950354 -0.08881538 -0.33753088 -0.09267227 -0.19994712 -0.272313 -0.48243564 0.14408958
0.19467323 -0.22493233 -0.032549743 -0.39919472 0.109145194 -0.32542497 0.003715009 0.06508936
0.08840649 -0.06603771 -0.0016511147 -0.23801778 -0.27761486 -0.122991465 -0.08934843 -0.20440795
-0.040815827 0.2433253 -0.022450715 -0.15699124 -0.1813143 -0.00036315896 -0.30575296 -0.14957939
0.30683383 0.01622027 -0.021436535 -0.32925558 -0.09648221 -0.33501709 -0.024303544 -0.34014332
-0.18273 0.051599637 0.1547605 0.046713028 -0.06737871 0.06351771 -0.17674461 -0.17677018
-0.32054383 0.07827519 -0.0467978 -0.0190178 -0.12726915 0.02488162 -0.65270555 -0.61008924
0.021891864 0.04388623 -0.23194726 1.0850021 0.02650852 0.013690265 0.0013980123 0.06322777
-0.2764196 -0.0034225942 -0.2655374 -0.17095134 0.14362356 0.2228385 0.07028936 -0.080447264
00000000: f715 fbbe 1ba8 9abd 02a1 663c a386 363e
00000010: 1212 2ebe bc5b d53d 4e18 7f3b 2bf0 893d
00000020: 80fe b73c 9662 a5bd aa5e 8bbe 7581 433d
00000030: 3bf0 aa3c 4834 cf3d fc72 01bd 7163 903c
00000040: fb78 393c aeaa 813a 0151 b83d eee0 a4bd
00000050: 4c15 2dbe ea8a 843d d041 1bbd a7a9 233c
00000060: fc11 37bd 44ce 94bd 1d1f b8bd 1dee c13d
00000070: f911 9f3d 3e81 3c3e 1f44 87bd 6f66 a83e
00000080: 0569 0c3d 78a6 d5be 39c9 e3bc ff8b 51be
00000090: df8e 883d 0163 463f 4efd 813d 8f47 963e
000000a0: 27ac 7e3d eb5c 873e bd4f 0f3c 45a2 91bd
000000b0: 17a8 c7be 32c8 31bd 4f54 00bf a2c7 9c3c
000000c0: 0110 d3bc 246a 14be 2ecd bebc 836f f1bd
000000d0: 41de b4bc 85de 00bd 4a02 3ebe f14a 9d3e
000000e0: 1f02 90bd ecec e83d 892b e2bc 7a9f a63e
000000f0: b02c 76be 1a2b 57be 1183 a7bd ccb1 46be
00000100: 6898 b0bd 9750 80bc 56c0 45be a595 5a3d
00000110: 3ac1 803c 56bb 9abd 3c63 243d 79bd b33d
00000120: 01bd 25bf 513e be3c 5712 d4bc 0866 a53b
00000130: 91c9 cbbd 61be 143e f50a a8bd ff80 4e3c
00000140: b314 e1bd cb1b 3d3e 08be db3e 6f71 81be
00000150: bd41 d33e 3f88 a4bd ed8b b33d 7dba b83a
00000160: 9bc7 963d 87ec bc3c eb5b 2ebe 53ba 32be
00000170: a56c c03e 0c73 75bc 7d05 84be 85e1 28be
00000180: 9c8b 39bc b841 25be b6b0 693d 47c3 8cbd
00000190: 1945 01be 346c 033e 6215 82be a193 cc3c
000001a0: a1ed d6be 09c9 c53d af93 81bc 8223 4bbd
000001b0: 93e3 a1be 247e 6fbe d84f 813c 1aac b73d
000001c0: 48b0 563d 41ca 1fbf 510c 9a3b 48ce babe
000001d0: d5f7 803e 0a71 9ebd e5de 053e e506 c83d
000001e0: e5e8 253d 3333 1c3e 5446 57bd f464 b93d
000001f0: 9e04 3c3b 60c7 49be f780 8bbc c92f 693e
00000200: a5f3 6bbd f5de 42be 91e2 80be c3d4 5dbb
00000210: 3949 b1bd eeaa 3cbe 168a 64bd 705d 46be
00000220: 633c 8abc 4015 223d 0fb2 b33d f936 39be
00000230: b9d2 5abd f06a 8fba 8239 8dbd e863 dc3e
00000240: 415c 633c 9f6f 0abd 905b 78bd c163 b33d
00000250: 4630 2a3e 59f5 a1bc 3a40 ee3d 0097 2e3d
00000260: c94a 3bbe b3d0 bbbe c2ae 463e d3cc 35bd
00000270: 5715 91bc 0ce9 093d 9adf 16be 9924 47be
00000280: 1dfc 06be a238 fcbd a147 adbd 0caf c6be
00000290: 933d a4be 6148 b83d 188f 7bbc 6408 15be
000002a0: c112 d6be 5c84 433e 0f5a b83c 1956 41bd
000002b0: e834 23be 2ea4 07bd 37cf 87bc 6b7d 0fbf
000002c0: 9014 3ebc 8074 5cbc 2e8f 3abe 2f91 733e
000002d0: d43f 82be 39e2 86bb 966a 833c f5e6 cf3e
000002e0: c1d2 a2bd d7e4 b5bd d9d0 acbe f6ca bdbd
000002f0: f0be 4cbe 9c6c 8bbe ce01 f7be 388c 133e
00000300: 6b58 473e a954 66be e152 05bd 4063 ccbe
00000310: 8487 df3d 1a9e a6be 8277 733b 924d 853d
00000320: 760e b53d c73e 87bd 376a d8ba efba 73be
00000330: 8923 8ebe f3e2 fbbd 4ffc b6bd 5150 51be
00000340: 7f2e 27bd 442a 793e 90ea b7bc 50c2 20be
00000350: 75aa 39be 5f66 beb9 a78b 9cbe 572b 19be
00000360: 5319 9d3e 5fe0 843c ac9b afbc 3094 a8be
00000370: 7798 c5bd 5c87 abbe 3a18 c7bc 4427 aebe
00000380: 931d 3bbe 245a 533d 8979 1e3e 2956 3f3d
00000390: d9fd 89bd 9315 823d 8afc 34be 3e03 35be
000003a0: 521e a4be be4e a03d 0daf 3fbd 38cb 9bbc
000003b0: d852 02be 8ad4 cb3c b617 27bf cf2e 1cbf
000003c0: 9156 b33c 0cc2 333d 9583 6dbe 59e1 8a3f
000003d0: 6528 d93c 224d 603c 823d b73a 907d 813d
000003e0: df86 8dbe 9a4d 60bb 85f4 87be de0d 2fbe
000003f0: 0e12 133e c72f 643e def3 8f3d 89c1 a4bd

l2/W f4 [256, 256]
0.23538026 0.032687783 -0.078545034 -0.07946 -0.03005673 -0.28155997 0.0008855791 0.12376034
0.044923402 0.05982662 -0.08491214 -0.15145412 0.03703165 0.08704223 -0.05735965 0.068693444
0.0052174954 -0.09702665 -0.06334893 -0.0048800097 0.05727091 -0.023244997 0.10387398 0.07506925
0.052111614 0.18354465 0.06590879 -0.13307486 0.13935153 0.13681705 0.14266203 0.105671786
0.14228879 0.012826474 0.14205748 -0.07469377 0.022168055 0.053880878 0.079600245 0.15530364
-0.01383765 -0.07185126 -0.0021717704 -0.13866605 0.08082616 0.0018232336 0.10535141 0.09457454
-0.0764237 -0.10151741 0.023974337 0.13646676 0.04970265 0.006459358 0.00411466 -0.0007857139
-0.00048561522 -0.03582822 0.0072437213 -0.10813313 0.0830383 0.15823992 0.018989926 0.056353115
-0.009986953 0.08752872 -0.035514727 0.09462686 -0.01729927 -0.05264839 -0.0155981565 0.015102377
0.06674074 0.022880798 -0.005403607 -0.045904655 0.048745047 0.1436227 -0.10387268 0.005364289
-0.057703987 0.061960757 0.015378621 0.06587396 0.100262284 0.17104784 0.06938419 0.040723044
0.06096134 -0.03339641 -0.108474635 0.21822849 0.0706158 0.019820394 0.16017923 0.03878272
0.022394307 0.01414601 0.11881906 -0.17062202 0.10047017 0.15390179 -0.088907875 0.08886708
0.12085127 0.050221153 -0.034683138 0.0536134 0.025721438 0.002584973 0.011964768 0.039887257
0.06441603 -0.01776803 0.005879499 0.027426425 0.10448113 0.18972671 0.068491414 -0.041368574
0.014637415 0.19264969 0.012134203 -0.070751056 -0.0864828 0.039990358 0.0077618877 0.04973835
-0.031198902 -0.056386977 -0.08141549 -0.03862017 -0.011385052 0.08341092 0.22528338 -0.078598805
0.16136605 -0.008607013 -0.01205416 0.022372952 -0.006358725 0.2584639 -0.010736253 -0.23183444
0.035131384 0.054389786 0.09021111 0.025126709 -0.03804838 0.023640465 0.012129229 0.07892409
-0.04186801 -0.26622397 -0.028112326 -0.0025874611 -0.022606574 0.20153113 0.072853856 0.048218172
-0.04790577 -0.041722924 -0.21203566 -0.10244171 -0.016759668 -0.039830938 0.10820635 -0.015547214
0.10695102 -0.011761442 -0.2566317 0.03538984 -0.011576848 -0.038891856 0.12630042 -0.09598741
0.01651713 -0.08996422 0.052749313 -0.10957773 0.010701451 0.010312013 -0.0007176785 0.072179765
-0.03694915 -0.075467564 0.057542432 -0.038280614 0.04867413 -0.09331957 -0.073955365 0.08815603
0.07156004 -0.003758336 -0.027100783 -0.05369556 -0.09882932 -0.10818162 -0.11733809 0.063854516
0.08240183 -0.09090133 -0.03754441 -0.08615286 0.0872679 -0.1281445 0.03170641 -0.00602458
-0.084999055 -0.15453115 -0.028534338 0.0050391443 0.069034345 -0.14412187 0.031585142 0.07592861
-0.084503315 -0.16952834 0.027002107 -0.10695547 0.12668289 0.010440055 0.019871563 -0.08408526
0.012882802 0.19740033 0.0069699152 -0.027621076 -0.14142504 -0.111253224 0.1017823 -0.040056814
-0.029520728 0.11647554 0.19647028 -0.06262509 0.04284765 0.06294665 0.057789743 0.027836932
0.003107131 -0.02181544 -0.026279397 0.15129498 -0.008921631 -0.079848304 -0.04159736 0.050537504
0.036466006 0.17330404 -0.13865104 -0.010798859 -0.067520455 -0.021020869 0.13823043 0.07200304
00000000: 8607 713e a0e3 053d 38dc a0bd edbb a2bd
00000010: 8839 f6bc a128 90be 3526 683a 1076 fd3d
00000020: 9a01 383d c20c 753d 6be6 adbd ca16 1bbe
00000030: 80ae 173d 3243 b23d f4f1 6abd 26af 8c3d
00000040: 86f7 aa3b e9b5 c6bd 15bd 81bd 7de8 9fbb
00000050: e794 6a3d 4b6c bebc e2bb d43d e8bd 993d
00000060: fd72 553d 21f3 3b3e 30fb 863d c744 08be
00000070: 2bb2 0e3e c519 0c3e ff15 123e 736a d83d
00000080: 27b4 113e 2226 523c 8477 113e 0cf9 98bd
00000090: c899 b53c 32b2 5c3d 7405 a33d eb07 1f3e
000000a0: 50b7 62bc c126 93bd 4354 0ebb 79fe 0dbe
000000b0: 3088 a53d 91f9 ee3a 7bc2 d73d 4cb0 c13d
000000c0: 0784 9cbd 5ce8 cfbd d465 c43c f1bd 0b3e
000000d0: 0295 4b3d 06a9 d33b 45d4 863b 5ef8 4dba
000000e0: 2c9a feb9 9dc0 12bd bd5c ed3b e774 ddbd
000000f0: fc0f aa3d a509 223e c390 9b3c 86d2 663d
00000100: 51a0 23bc 4242 b33d e477 11bd bacb c13d
00000110: 33b7 8dbc d7a5 57bd 698f 7fbc f66f 773c
00000120: 5eaf 883d 8370 bb3c be10 b1bb 8506 3cbd
00000130: e3a8 473d d411 133e 33bb d4bd ebc6 af3b
00000140: 045b 6cbd 90ca 7d3d 9df6 7b3c ede8 863d
00000150: 5056 cd3d 2a27 2f3e 4c19 8e3d 35cd 263d
00000160: 99b2 793d adca 08bd f327 debd 4a77 5f3e
00000170: 049f 903d 615e a23c 0606 243e a1da 1e3d
00000180: 4474 b73c abc4 673c 6857 f33d 8ab7 2ebe
00000190: 4ec3 cd3d 6e98 1d3e 5515 b6bd f2ff b53d
000001a0: df80 f73d b2b4 4d3d e80f 0ebd b999 5b3d
000001b0: c4b5 d23c a668 293b e007 443c d260 233d
000001c0: 8dec 833d 428e 91bc d0a8 c03b 62ad e03c
000001d0: 34fa d53d b847 423e 3a45 8c3d 1872 29bd
000001e0: c5d1 6f3c f645 453e 89ce 463c eee5 90bd
000001f0: e51d b1bd eecc 233d 6f57 fe3b 71ba 4b3d
00000200: d794 ffbc 08f6 66bd 2abd a6bd 2f30 1ebd
00000210: 5f88 3abc 58d3 aa3d b0b0 663e 69f8 a0bd
00000220: 243d 253e 6e04 0dbc d07e 45bc 7b47 b73c
00000230: da5c d0bb 6155 843e 1ce7 2fbc 0266 6dbe
00000240: ede5 0f3d d3c7 5e3d 9ac0 b83d 87d6 cd3c
00000250: 9ed8 1bbd a6a9 c13c acb9 463c f4a2 a13d
00000260: ca7d 2bbd 824e 88be d24b e6bc 6592 29bb
00000270: 6c31 b9bc 2d5e 4e3e 6734 953d 6b80 453d
00000280: d738 44bd a8e5 2abd e01f 59be f6cc d1bd
00000290: 924b 89bc c425 23bd 4a9b dd3d beb9 7ebc
000002a0: 2309 db3d 10b3 40bc 3b65 83be f0f4 103d
000002b0: d2ac 3dbc 114d 1fbd e654 013e 0c95 c4bd
000002c0: ef4e 873c 293f b8bd aa0f 583d 4a6a e0bd
000002d0: 2455 2f3c b8f3 283c 9722 3cba fcd2 933d
000002e0: fe57 17bd bd8e 9abd 9db1 6b3d 22cc 1cbd
000002f0: 865e 473d 551e bfbd e975 97bd 268b b43d
00000300: 128e 923d 6a4e 76bb 7602 debc e0ef 5bbd
00000310: 0767 cabd 538e ddbd f44e f0bd 28c6 823d
00000320: 4ac2 a83d 7a2a babd 2bc8 19bd e970 b0bd
00000330: 83b9 b23d 5038 03be 95de 013d d769 c5bb
00000340: fc13 aebd 6a3d 1ebe d8c0 e9bc 681f a53b
00000350: e161 8d3d af94 13be 6c5f 013d 7680 9b3d
00000360: 1310 adbd d698 2dbe 8633 dd3c 780b dbbd
00000370: 29b9 013e c40c 2b3c b0c9 a23c e534 acbd
00000380: 6312 533c 5023 4a3e e363 e43b 9845 e2bc
00000390: bad1 10be bbd8 e3bd 3d73 d03d 9d12 24bd
000003a0: 74d5 f1bc ba8a ee3d 812f 493e 9541 80bd
000003b0: 0481 2f3d 2cea 803d f0b4 6c3d 470a e43c
000003c0: 02a1 4b3b 4bb6 b2bc e447 d7bc 12ed 1a3e
000003d0: 082c 12bc 8287 a3bd fe61 2abd 6a00 4f3d
000003e0: 615d 153d 9d76 313e 8afa 0dbe b3ed 30bc
000003f0: 2a48 8abd f533 acbc 478c 0d3e 5476 933d
