static/ai/4/agent_white_14000/target_model.npz (npz, 521766 bytes, 8 tensors)

l2/b f4 [256]
0	0xbba6b129	-0.005087037
1	0xbd16c026	-0.03680434
2	0x3d543d8e	0.051816516
3	0x3cce827b	0.025208702
4	0x3bdaa1d0	0.0066721216
5	0xbd10ed1a	-0.035382368
6	0xbc433ef9	-0.011916869
7	0xbc489659	-0.012242877
8	0xbca07e05	-0.01959134
9	0x3d30ccd6	0.043164097
10	0xbb752e0c	-0.003741148
11	0x3d541214	0.051775053
12	0xbc76b2b8	-0.015057258
13	0xbb390b8c	-0.0028235642
14	0x3db02d85	0.08602432
15	0x3c779bc9	0.015112826
16	0xbc5f8a2b	-0.013643782
17	0x3c67edbe	0.014155803
18	0xbd37d0aa	-0.044876732
19	0x3cd112cd	0.02552166
20	0x3b86b2bb	0.004110662
21	0xbc30d939	-0.010793977
22	0xbc911985	-0.017712364
23	0xbbf57c33	-0.0074916123
24	0xbd02293c	-0.031777605
25	0xbd0f490c	-0.034981772
26	0x3d26726f	0.040636476
27	0xbc613177	-0.0137447035
28	0xbd78c17b	-0.060731392
29	0x3d283d78	0.041074246
30	0x3b6cb2dd	0.0036117353
31	0x3cf9d264	0.03049583
32	0x3c33bcb6	0.010970285
33	0xbd069c4e	-0.032863908
34	0xbcd6a271	-0.026200505
35	0xbc146081	-0.009056211
36	0x3c6a5aad	0.014303845
37	0xbc811ac7	-0.015759839
38	0x3d764dd8	0.06013283
39	0xbbecb018	-0.0072231404
40	0xbdffc578	-0.12488836
41	0xbd2db314	-0.04240711
42	0x3cbe9d7c	0.023268454
43	0xbaa0d639	-0.0012270875
44	0x3cfd4ef1	0.030921431
45	0xbc3f90db	-0.011692251
46	0x3cde7bad	0.027158583
47	0xbd1ad980	-0.03780508
48	0x3c7321e6	0.014839625
49	0x3a6a5d9c	0.00089403405
50	0x3b913de3	0.0044324263
51	0xbc91ebd9	-0.017812656
52	0xbc5fc64e	-0.013658119
53	0xbc464036	-0.01210027
54	0xbd05beeb	-0.032652777
55	0x3d601487	0.054707076
56	0xbd60ed22	-0.054913647
57	0xbc0ea023	-0.008705172
58	0xbcc78b53	-0.024358427
59	0xbbec7e3b	-0.0072171963
60	0xba6c7ae7	-0.00090209994
61	0xbd3c525f	-0.045976993
62	0x3abd98b4	0.0014465065
63	0x3c8123a3	0.015764063
64	0xbcc01446	-0.023447167
65	0x3b61e1a9	0.003446678
66	0x3c9c6f35	0.019095996
67	0xbb807dca	-0.003921245
68	0x3d69228f	0.056917723
69	0xbcfebd2c	-0.031096064
70	0xbc0ad597	-0.008473775
71	0xbc89f7d4	-0.016841806
72	0xbcbe9144	-0.023262627
73	0x3c8e21fa	0.017350186
74	0x3c921e76	0.01783679
75	0x3c559a12	0.0130372215
76	0x3cdf607d	0.027267689
77	0x3b5c4ac3	0.0033613897
78	0xbc92a96a	-0.017903049
79	0xbc41e85e	-0.011835186
80	0xbd96d22d	-0.073643066
81	0xbd1062de	-0.035250537
82	0xbd1255ab	-0.03572623
83	0x3d1afda5	0.03783955
84	0x3b45fcab	0.0030210416
85	0x3d5d2d43	0.053998243
86	0xbbe3218e	-0.0069314903
87	0xbd15a2cb	-0.036532205
88	0xbc45332e	-0.012036128
89	0xbd2711ac	-0.040788338
90	0xbd1bbcec	-0.038021967
91	0x3b89c61f	0.004204526
92	0x3c602135	0.013679792
93	0xbb13c1dd	-0.0022545971
94	0xbdad73e0	-0.08469367
95	0xbb970f15	-0.004609952
96	0x3d4361d6	0.047700725
97	0xbabb15b9	-0.0014273442
98	0x3d340c30	0.043956935
99	0xbc1da53a	-0.009621913
100	0x3bce69af	0.0062992196
101	0xbc851586	-0.016245615
102	0xbb18a768	-0.0023293141
103	0x3c46d257	0.01213511
104	0xbca12b47	-0.019673957
105	0xbc9a80db	-0.018860271
106	0x3a485fa3	0.00076436455
107	0x3d8aa221	0.06769205
108	0xbd148592	-0.036260195
109	0x3c897a4d	0.01678195
110	0x3cec6754	0.028857864
111	0xbbed52a4	-0.0072425175
112	0x3cb1aced	0.021688903
113	0x3c1f60a5	0.009727632
114	0x3c948085	0.01812769
115	0x3d3cfd83	0.046140205
116	0xbcd46a57	-0.025929613
117	0xbd5d0fa2	-0.053969987
118	0xbd869d4c	-0.06572971
119	0x3c93516b	0.017983159
120	0xbc6f3225	-0.014599358
121	0x3d243632	0.040090747
122	0xbc56359c	-0.013074305
123	0x3c833808	0.016017929
124	0xbc8b86a4	-0.017031975
125	0xba9aebb1	-0.0011819509
126	0x3cdf4af3	0.027257418
127	0x3c8dbe52	0.017302666
128	0xbd498c31	-0.049205963
129	0xbc87c0d5	-0.016571442
130	0xbda1c96b	-0.078997456
131	0x3dc00d8d	0.093775846
132	0x3d329a04	0.043603912
133	0x3cdc3dc5	0.026884923
134	0xbd4e8b95	-0.050426085
135	0x3d5bcc73	0.053661775
136	0xbcbeefe2	-0.023307744
137	0x3b955ee2	0.00455843
138	0x3cd76c9a	0.026296902
139	0xbb92d4e8	-0.004480947
140	0x3d8c7987	0.06859117
141	0xbb9b2fd0	-0.0047359243
142	0xbc1ee376	-0.009697786
143	0x3c8d1379	0.0172212
144	0x3d7d372d	0.061820198
145	0x3d11d5b1	0.035604183
146	0xbc0d5648	-0.008626528
147	0xbdaa0bdf	-0.083030455
148	0xbd154455	-0.03644212
149	0xbcc61c19	-0.02418332
150	0xbb760073	-0.003753689
151	0xbab413e9	-0.0013738844
152	0xbd017d41	-0.031613592
153	0xbd1065f0	-0.035253465
154	0xbc4a242f	-0.012337728
155	0x3cac4d9a	0.021033097
156	0x3d514d7e	0.051099293
157	0x3d5dd0b5	0.054154117
158	0xbc4ea77c	-0.012613174
159	0x3d13666c	0.03598635
160	0xbd9de1b6	-0.077090666
161	0xba9ae841	-0.0011818485
162	0xbcb8290d	-0.022480512
163	0x3d005565	0.03133144
164	0x3cac9ed9	0.021071838
165	0xbac19d1f	-0.0014771557
166	0xbd0ae19b	-0.03390656
167	0x3c19f63f	0.009397089
168	0x3d0110be	0.031510107
169	0xbbc2834d	-0.0059360624
170	0xbc383cef	-0.011244996
171	0xbd1b6bbf	-0.03794455
172	0xbd1f0276	-0.038820706
173	0x3ae94a97	0.0017798719
174	0xbd180cf2	-0.03712172
175	0xbd31dd79	-0.043424103
176	0x3d9389a6	0.07203989
177	0xbc91cd3e	-0.017798062
178	0xbb833e84	-0.004005255
179	0xbbe22590	-0.0069014505
180	0x3d67c143	0.056580793
181	0xbce92b72	-0.0284631
182	0xbd9faa5c	-0.07796165
183	0x3c8d0e4d	0.017218733
184	0x00000000	0.0
185	0x3cf76287	0.030198349
186	0xbd6fd943	-0.058556806
187	0xbcd6fa24	-0.026242323
188	0x3ce29ad0	0.027661711
189	0x3c50bee3	0.012740823
190	0x3e187a5c	0.14890426
191	0xbd24dc56	-0.04024919
192	0x3cd77d13	0.026304757
193	0x3ca191f9	0.019722925
194	0x3b4578d4	0.0030131834
195	0x3d0ded72	0.034650274
196	0xbba2cb9d	-0.0049681203
197	0x3d0013e7	0.03126898
198	0xbc2025f4	-0.009774674
199	0xbc84ea91	-0.016225131
200	0x3c50e602	0.012750151
201	0xbc5f6077	-0.013633839
202	0x3c01f7de	0.007932631
203	0xbc939c2c	-0.018018804
204	0x3c1dc8ac	0.009630363
205	0xbc75bfe9	-0.014999368
206	0xbdb31c88	-0.08745676
207	0x3caabad5	0.020841042
208	0xbc2dcf64	-0.010608528
209	0xbc61f3b0	-0.01379101
210	0x3cebbe76	0.028777342
211	0x3c9018a7	0.01758988
212	0xbb1bb6fc	-0.002376019
213	0x3d8f3d9a	0.069941714
214	0xbd0cbf85	-0.034362335
215	0xbcf8c348	-0.030366555
216	0xbccbe4f1	-0.024889441
217	0x3d0c7089	0.03428701
218	0xbd201ed8	-0.039091915
219	0x3bfacef7	0.0076540667
220	0x3d415aba	0.047205664
221	0xbcc865d7	-0.024462624
222	0x3d283ded	0.041074682
223	0xbc8c43bb	-0.01712214
224	0xbd457aa7	-0.048212674
225	0xbd019ef7	-0.03164574
226	0xbcd13759	-0.025539087
227	0x3c25ed5c	0.010127392
228	0xbd6e89fc	-0.05823706
229	0x3c4b55d0	0.012410596
230	0xbc24007a	-0.010009879
231	0x3d0aaff8	0.033859223
232	0xbd4e9c66	-0.050442122
233	0xbba9949a	-0.0051751854
234	0x3d0a2928	0.033730656
235	0x3c0eda0e	0.0087189805
236	0x3cc28607	0.02374555
237	0x3bdbe79a	0.0067109587
238	0xbb11963b	-0.0022214788
239	0xbce74d22	-0.028235022
240	0x3a5db8f0	0.0008458039
241	0xbcd6b543	-0.02620948
242	0xbdb1bc70	-0.0867852
243	0x3c56db71	0.013113842
244	0x3ce5a623	0.028033322
245	0xbda82574	-0.082102686
246	0xbc7f78a8	-0.015592732
247	0xbd1ba685	-0.038000602
248	0xba3557e2	-0.00069176976
249	0x3c94590e	0.01810887
250	0x3d6ba439	0.05752966
251	0xbafd0848	-0.0019304836
252	0x3d101114	0.035172537
253	0xbd9c1689	-0.07621486
254	0x3d669243	0.05629183
255	0x3d29954d	0.04140215

l2/W f4 [256, 256]
0	0xbd948bc6	-0.07253222
1	0xbd5cfb6e	-0.05395072
2	0x3cccfe84	0.025023706
3	0xbd187110	-0.0372172
4	0xbd8db5d3	-0.06919446
5	0xbc0c9810	-0.008581176
6	0xba8382fe	-0.0010033546
7	0x3e5051b8	0.20343673
8	0x3dcf2234	0.101139456
9	0xbda9eabe	-0.08296727
10	0x3d0b9968	0.034081846
11	0xbcd0c289	-0.025483387
12	0x3d24f6f6	0.040274583
13	0xbe24fda7	-0.16112386
14	0x3d14a437	0.03628942
15	0xbd1deff0	-0.0385589
16	0x3d6919be	0.056909315
17	0x3d10aa06	0.035318397
18	0x3df509ab	0.11964735
19	0xbe2c108d	-0.16803189
20	0xbd55da71	-0.052210275
21	0x3d00c39b	0.031436544
22	0xbe112ef2	-0.14178064
23	0x3eb38053	0.3505884
24	0x3daefe09	0.08544547
25	0x3da53a3a	0.080677465
26	0x3b058734	0.0020374777
27	0xbd6f28b2	-0.05838842
28	0x3e626044	0.22107035
29	0x3d86b43d	0.065773465
30	0x3d939909	0.072069235
31	0x3e46b789	0.1940595
32	0x3c2aae1e	0.010417489
33	0xbdb0efb2	-0.08639468
34	0x3e673566	0.22578964
35	0x3d83e2c6	0.06439738
36	0x3c0e2f6f	0.008678301
37	0xbc120612	-0.00891258
38	0xbd630dc5	-0.055433054
39	0x3daf25a5	0.08552102
40	0x3e1010e3	0.14068942
41	0x3e1bcd59	0.15215053
42	0xbe4f767c	-0.20260042
43	0x3d83d8ba	0.06437822
44	0x3d01b533	0.031666946
45	0xbcfcb877	-0.030849678
46	0x3d05aa53	0.032633137
47	0x3e94c398	0.29055476
48	0x3d2409ce	0.040048413
49	0xbd684553	-0.056706738
50	0xbd42937d	-0.047503937
51	0xbd6ea604	-0.058263794
52	0xbd35d03f	-0.044388052
53	0x3d7fd51f	0.062459107
54	0x3bebde05	0.0071980976
55	0x3c9609e3	0.018315261
56	0xbdb6d931	-0.08928145
57	0x3c3ff9f1	0.0117173055
58	0x3e72738a	0.23676887
59	0x3db7a1e5	0.08966426
60	0xbe0a3226	-0.13495693
61	0xbe1e6289	-0.15467276
62	0x3c176ea1	0.009242685
63	0xbe1d0e13	-0.153374
64	0x3c799b3e	0.0152347665
65	0xbb7c8320	-0.0038530305
66	0x3ddaa539	0.10676045
67	0x3d2ed8e3	0.042687308
68	0xbccf613a	-0.025314916
69	0xbdae41bc	-0.085086316
70	0xbd763ccc	-0.060116574
71	0xbe2d61cf	-0.16931842
72	0xbe251301	-0.1612053
73	0xbddf9ced	-0.10918603
74	0x3e1fc8ee	0.15603992
75	0xbe26a3b3	-0.16273384
76	0xbda20b88	-0.07912356
77	0x3db9a3d5	0.090644516
78	0xbd8cb4ff	-0.0687046
79	0x3d85f9c6	0.06541781
80	0xbc7584b4	-0.014985252
81	0xbd236855	-0.03989442
82	0xbdb1c0b0	-0.0867933
83	0x3cde818e	0.027161386
84	0x3c07286f	0.008249386
85	0x3e122184	0.14270598
86	0x3cc2f56e	0.02379867
87	0xbdca9516	-0.09891717
88	0xbcd06cf4	-0.025442578
89	0xbea97cd6	-0.33103055
90	0x3e0b3771	0.13595368
91	0x3e0a0cf8	0.1348151
92	0x3c5d45fe	0.013505457
93	0xbd4208e1	-0.04737175
94	0xbe3c8009	-0.18408217
95	0xbcbf954c	-0.02338662
96	0xbd539e72	-0.051664777
97	0x3cdfae82	0.027304891
98	0x3cecbabf	0.028897641
99	0x3d12dfa1	0.0358578
100	0xbb3b09fc	-0.0028539887
101	0xbd77796b	-0.060418528
102	0xbdb3752a	-0.08762582
103	0xbc87055c	-0.016482048
104	0xbe2351a1	-0.15949108
105	0xbdc3876d	-0.09547315
106	0xbe205c99	-0.15660323
107	0x3e18fc3c	0.1493997
108	0xbca19bc5	-0.019727597
109	0x3df6f72c	0.12058863
110	0xbd4dc318	-0.050234884
111	0x3e1f125a	0.15534344
112	0x3e1a6f5f	0.15081547
113	0x3d92fac3	0.07176735
114	0x3dad9f09	0.08477599
115	0x3e2c3973	0.1681879
116	0xbe18244d	-0.14857598
117	0x3cbafad1	0.022824677
118	0x3dbfda82	0.09367849
119	0x3dc444fa	0.09583469
120	0xbdac4b4b	-0.084127985
121	0xbc9da7a9	-0.019244986
122	0x3da17009	0.07882697
123	0x3e70f00c	0.2352907
124	0xbdb2ed00	-0.087366104
125	0xbe32b3de	-0.17451426
126	0xbd917609	-0.071025915
127	0xbc019dbe	-0.007911144
128	0xba77ff81	-0.00094603753
129	0xbd1ff41e	-0.039051168
130	0x3cd04752	0.025424633
131	0xbb8b29f5	-0.004246945
132	0x3e22abd7	0.15885864
133	0xbdb9f0a4	-0.09079102
134	0x3dace7e9	0.08442671
135	0x3d191eea	0.037382998
136	0xbd7f1571	-0.062276307
137	0x3cf0b069	0.029380994
138	0x3dd6d58f	0.10489952
139	0x3d79ecb3	0.06101675
140	0x3e4110b1	0.18854024
141	0x3d020a43	0.031748068
142	0x3da6eb10	0.08150303
143	0x3e3be01a	0.18347207
144	0xbdf191db	-0.11795398
145	0xbdf438b8	-0.11924881
146	0xbc7eb3d8	-0.015545808
147	0xbdbdbda7	-0.09264689
148	0xbdeddf08	-0.116148055
149	0xbe1550e8	-0.14581645
150	0x3c63feba	0.013915712
151	0xbc3ad806	-0.011404043
152	0x3d6ac968	0.057320982
153	0xbca08d9b	-0.019598773
154	0xbde2393d	-0.110460736
155	0xbda0f19c	-0.07858583
156	0xbe1761ae	-0.14783356
157	0x3ca5f52b	0.020258507
158	0xbdc89fb5	-0.09796087
159	0xbd03537c	-0.03206204
160	0xbd504eb5	-0.05085631
161	0x3e2ad479	0.16682614
162	0xbd15af89	-0.036544356
163	0x3d2a5ced	0.041592527
164	0x3d59a87c	0.053139195
165	0xbd8bce73	-0.068264864
166	0x3dec6df4	0.115444094
167	0x3c9d92d5	0.019235054
168	0x3d654fff	0.055984493
169	0x3d7f11ad	0.062272716
170	0x3dbdcb2d	0.09267268
171	0xbdb2bf42	-0.08727886
172	0xbc179d90	-0.009253874
173	0x3cc51654	0.024058498
174	0x3da8252a	0.082102135
175	0xbde119f3	-0.109912775
176	0x3d7f9859	0.06240115
177	0x3d937af4	0.07201186
178	0xbaf74bb9	-0.0018867172
179	0x3d601939	0.054711554
180	0xbda8f4ff	-0.08249854
181	0x3ccdb7c8	0.025112048
182	0xbcd0a9b4	-0.025471546
183	0xbe1f0d6f	-0.15532468
184	0x3d171a0d	0.03689008
185	0x3e0257f8	0.1272887
186	0xbdb932fd	-0.09042928
187	0xbe554ac8	-0.20829308
188	0xbdb4da8a	-0.088307455
189	0x3cbc0ae5	0.022954414
190	0x3e3b33ac	0.1828143
191	0x3e13d2b6	0.14435849
192	0xbbc26892	-0.005932876
193	0xbdaea25d	-0.08527062
194	0x3e2e6e71	0.17034318
195	0x3d02b258	0.031908363
196	0x3d930c75	0.0718011
197	0xbbd8399f	-0.006598666
198	0x3dca979b	0.09892198
199	0x3d2d867b	0.04236458
200	0xbd944c37	-0.07241099
201	0x3e5636c4	0.20919329
202	0x3df1d8cb	0.11808928
203	0xbdb07d0c	-0.08617601
204	0xbc79fd07	-0.01525808
205	0xbdb7ce23	-0.08974864
206	0x3c8f98b2	0.017528865
207	0x3cc5e13c	0.024155252
208	0xbc66cdfe	-0.014087198
209	0x3c7bf886	0.015379077
210	0x3d993557	0.07480877
211	0xbcc67653	-0.024226343
212	0xbe01aef9	-0.12664403
213	0xbd882e56	-0.06649463
214	0xbd669b3d	-0.05630039
215	0xbd9753c7	-0.07389026
216	0xbbfb1fee	-0.0076637184
217	0x3dff9f4a	0.12481554
218	0x3e0229b0	0.12711215
219	0xbd27aa96	-0.040934168
220	0xbcf3a40f	-0.029741315
221	0x3d1045c5	0.035222787
222	0x3dfd6a05	0.12373737
223	0xbe4e34bb	-0.20137303
224	0xbda73bc3	-0.081656955
225	0xbe2d8a87	-0.16947375
226	0x3e172105	0.1475869
227	0xbdfea8c0	-0.1243453
228	0x3d15d289	0.036577735
229	0xbe17d36c	-0.14826745
230	0x3d9273fc	0.071510285
231	0xbd6b8e28	-0.057508618
232	0x3d314523	0.043278825
233	0xbce6111d	-0.028084332
234	0x3d389ef8	0.04507348
235	0x3c266a1c	0.010157134
236	0x3e5e323d	0.21698852
237	0xbcf25f96	-0.029586595
238	0x3d8dc07b	0.06921478
239	0xbd6c7dd3	-0.057737183
240	0xbd6e1d3f	-0.05813336
241	0x3e0b45a5	0.13600786
242	0xbd46f0b8	-0.04856941
243	0x3da28831	0.07936133
244	0xbd756e5f	-0.05991971
245	0x3e2bae76	0.1676577
246	0x3c47d57b	0.012196894
247	0x3dc1af05	0.094572105
248	0xbd827e89	-0.06371791
249	0xbd44f1f4	-0.048082307
250	0x3cb2f20f	0.021843938
251	0x3ced3083	0.028953796
252	0xbde7df01	-0.113218315
253	0x3d821773	0.06352129
254	0x3d194a19	0.03742418
255	0x3904987f	0.0001264531

l3/b f4 [256]
0	0x3dae265a	0.08503409
1	0xbc589cbc	-0.013220962
2	0xbca36dc6	-0.019949805
3	0xbc7324c8	-0.014840312
4	0x3b626502	0.0034545069
5	0x3d654252	0.05597145
6	0x3c611cfa	0.013739819
7	0x3ced50da	0.028969217
8	0x3ca9eee7	0.0207438
9	0x3d137d75	0.036008317
10	0x3e0d0f8e	0.13775465
11	0xbc8fef8c	-0.01757028
12	0x3c606313	0.013695496
13	0x3bf86f94	0.0075816605
14	0x3d00ab20	0.031413198
15	0xbd06d3cb	-0.032916825
16	0x3d3a0099	0.045410726
17	0xbc602ac1	-0.013682068
18	0xbc9f00a5	-0.019409487
19	0xbd263aff	-0.040583607
20	0x3cb5f014	0.022209205
21	0x3d2a8eeb	0.041640203
22	0x3ccd044c	0.025026463
23	0x3cd1883a	0.025577653
24	0x3c998bc1	0.018743398
25	0x3d110fcb	0.035415452
26	0x3cff16ba	0.031138767
27	0x3c301e7c	0.010749456
28	0xbd1b0591	-0.037847105
29	0x3d0245b0	0.03180474
30	0xbcab4ef6	-0.020911675
31	0xbcb2d1cb	-0.021828553
32	0x3d681f3a	0.056670405
33	0x3d357b51	0.044307057
34	0x3ca65bb0	0.020307392
35	0xbcbf3888	-0.023342386
36	0x3dc92205	0.09820942
37	0x3dacb1ed	0.08432374
38	0xbce8d17c	-0.028420202
39	0xbd85c1cf	-0.06531107
40	0x3d0c353f	0.034230467
41	0x3b93711f	0.004499569
42	0xbbe33ee6	-0.0069349883
43	0x3d21a1ea	0.039461054
44	0x3cc13c88	0.023588434
45	0x3d56e3c6	0.052463315
46	0x3d4bfb76	0.04980036
47	0xbd8b0f7d	-0.067900635
48	0xbd2b06ea	-0.04175464
49	0xbc8cc9cb	-0.017186066
50	0xbd4241c6	-0.047426008
51	0xbd3a342f	-0.045459922
52	0x3d8276c4	0.06370309
53	0x3d008f28	0.031386524
54	0xbc4feaec	-0.012690287
55	0x3d281c83	0.041042816
56	0x3d1282a8	0.035769135
57	0x3d3098db	0.043114524
58	0xbd66828e	-0.05627685
59	0xbc8bffe7	-0.017089797
60	0xbd4bf7c3	-0.04979683
61	0xbd4f4f36	-0.05061265
62	0x3ca01a5e	0.019543823
63	0x3dcee951	0.10103095
64	0x3d8fbda0	0.0701859
65	0xbd9a39ef	-0.07530581
66	0x3bb831a2	0.005621151
67	0xbd5560dd	-0.05209433
68	0xbdab18eb	-0.08354362
69	0xbd0a2100	-0.033722878
70	0x3caafc37	0.020872219
71	0xbd06bdf1	-0.032895986
72	0xbc41fb31	-0.011839674
73	0xbcccf2bc	-0.025018089
74	0x3bf3a24f	0.00743512
75	0xbb7ccf69	-0.0038575775
76	0x3d1edb29	0.038783226
77	0x3d96d5ca	0.07364996
78	0xbd2c5e65	-0.04208221
79	0xbd1a0fc3	-0.037612688
80	0xbd14c9ea	-0.036325373
81	0xbd3b69ef	-0.045755323
82	0xbb74d388	-0.0037357528
83	0xbc37640c	-0.011193287
84	0xbd65a8f2	-0.056069322
85	0x3ca64665	0.020297239
86	0xbd43f7d8	-0.047843784
87	0xbcee6a17	-0.029103322
88	0xbd3ae38c	-0.04562716
89	0xbce4afd3	-0.02791587
90	0x3d0309fc	0.031991944
91	0xbaa2749f	-0.0012394375
92	0x3c266864	0.010156725
93	0xbd0817e0	-0.033225894
94	0x3d508388	0.050906688
95	0xbc016141	-0.007896722
96	0xbc518c3b	-0.012789781
97	0x3d9cf7f4	0.07664481
98	0xbbc98656	-0.0061500473
99	0x3e09e12d	0.13464804
100	0xbd78a73c	-0.060706362
101	0xbe21e702	-0.15810779
102	0x3d3584d5	0.04431613
103	0xbc71b3a7	-0.014752305
104	0xbd8717da	-0.06596346
105	0x3b9f652b	0.004864355
106	0x3dce813d	0.10083244
107	0x3bd1f284	0.006407084
108	0xbd6d3fa1	-0.05792201
109	0xbcdc52b3	-0.026894903
110	0x3e00342d	0.12519903
111	0xbb007bb2	-0.0019604978
112	0x3cc84a26	0.02444942
113	0xbdd6a8c7	-0.104814105
114	0x3da9ded8	0.08294457
115	0x3ce14261	0.027497472
116	0xbdd01ed1	-0.10162128
117	0xbcd2be0b	-0.025725385
118	0xbc757a65	-0.014982794
119	0x3dbfc59a	0.093638614
120	0x3ce47c2a	0.027891237
121	0x3da0ecdc	0.07857677
122	0x3d155957	0.036462154
123	0xbc29868c	-0.01034702
124	0xbdabd967	-0.083910756
125	0xbccfbabf	-0.025357602
126	0xbd12beb1	-0.03582639
127	0xbaf8268b	-0.0018932385
128	0x3e1fb9d8	0.15598238
129	0xbdc532b8	-0.096288145
130	0xbd2620b6	-0.04055854
131	0x3c2164ba	0.009850675
132	0x3bf8173a	0.007571128
133	0xbab176f3	-0.0013539478
134	0x3d351f22	0.044219144
135	0xbcb6a2f3	-0.022294497
136	0xbda329a6	-0.07966928
137	0xbd011e00	-0.03152275
138	0x3d500661	0.050787333
139	0x3ca27e38	0.019835576
140	0xbd0ae1c2	-0.033906706
141	0xbd3cbebf	-0.046080347
142	0xbc180e75	-0.009280791
143	0x3c804508	0.015657917
144	0x3da5e1c5	0.08099703
145	0xbd1074f5	-0.03526779
146	0xbc9c1759	-0.019054102
147	0xbd1000ae	-0.0351569
148	0x3d51c0b7	0.051209178
149	0xbc6f8ca1	-0.014620931
150	0xbc5d2328	-0.013497151
151	0x3cb16432	0.021654222
152	0xbc2e798c	-0.010649096
153	0xbc0984a4	-0.00839344
154	0xbc782bd5	-0.015147169
155	0xbcebc1cf	-0.028778939
156	0xbd8d0b0a	-0.06886871
157	0x3d875387	0.066077285
158	0x3de79cdb	0.11309215
159	0xbd0c4289	-0.03424314
160	0x3c01936b	0.007908682
161	0x3cab21c1	0.020890119
162	0xbcc05b93	-0.023481166
163	0xb9f897dd	-0.00047415393
164	0x3c96ae0a	0.018393535
165	0xbcbb142b	-0.022836765
166	0x3e15972c	0.14608449
167	0x3df3c09d	0.119019724
168	0x3c31a23d	0.010841903
169	0x3bc209f9	0.005921599
170	0x3dba5817	0.09098833
171	0x3da830f3	0.08212461
172	0x3d1cffce	0.03832989
173	0xba02f24c	-0.00049952115
174	0xbd13baec	-0.036066934
175	0xbd903f06	-0.07043271
176	0x3d8c926b	0.068638645
177	0x3cb2c1fd	0.021821016
178	0xbca26df3	-0.019827818
179	0x3c976a90	0.01848343
180	0xbd855ec3	-0.06512215
181	0x3d98f0ce	0.07467805
182	0xbcd12d3d	-0.025534267
183	0xbca25cce	-0.019819643
184	0x3ca7ec5a	0.020498443
185	0x3c2d9426	0.010594403
186	0xbd1c30f1	-0.03813261
187	0x3ca7fa16	0.020504992
188	0xbd09e8f3	-0.033669423
189	0x3dc667ca	0.09687765
190	0xbbf5b3a7	-0.007498223
191	0xbb267bbb	-0.002540334
192	0xbd055473	-0.03255124
193	0xbd77daa4	-0.060511246
194	0x3d6628a8	0.056191117
195	0x3b0041fa	0.0019570575
196	0xbd20ea2e	-0.03928583
197	0x3d175b59	0.03695235
198	0xbd6e02f1	-0.058108274
199	0xbcf769e6	-0.030201863
200	0xbcb15dd8	-0.021651193
201	0xbc22dd58	-0.009940468
202	0x3d94b529	0.07261116
203	0xbc65d6d9	-0.014028274
204	0x3c165226	0.009174859
205	0x3ce6bd85	0.028166542
206	0xbd12ebce	-0.035869412
207	0xbd01697f	-0.03159475
208	0xbd2f658e	-0.04282146
209	0xbc10601d	-0.008811978
210	0x3dc51505	0.0962315
211	0xbdc0f35d	-0.09421418
212	0xbd0f2d2f	-0.0349552
213	0xbce09ad5	-0.02741758
214	0x3d86eb20	0.06587815
215	0xbc6346c5	-0.013871853
216	0x3c71699d	0.014734653
217	0x3cf00627	0.029299809
218	0x3d04adfd	0.03239249
219	0xbce2fd6f	-0.027708737
220	0xbc0df236	-0.008663705
221	0xbcc08fdf	-0.023506103
222	0x3b3971ee	0.0028296667
223	0x3d65d8b3	0.056114864
224	0xbcaa16f9	-0.020762907
225	0xbcb61042	-0.02222455
226	0xbdb36521	-0.08759523
227	0xbcaf486e	-0.021396842
228	0xbc10aa1e	-0.008829622
229	0x3dc4b737	0.09605258
230	0x3d72cad4	0.059275463
231	0xbd5c0c8d	-0.053722907
232	0xbc05c4b1	-0.008164571
233	0x3da4cc56	0.080467865
234	0xbc5c82e3	-0.01345894
235	0x3bb4b663	0.0055149063
236	0xbd26e189	-0.04074243
237	0x3b9c31ed	0.004766694
238	0xbd05be83	-0.03265239
239	0x3d322141	0.043488745
240	0x3d2f0e40	0.0427382
241	0xba3921cb	-0.00070622255
242	0xbd0ac235	-0.033876617
243	0xbca8a784	-0.02058769
244	0xba8ec275	-0.0010891693
245	0xbb9c9717	-0.0047787535
246	0x3d49cf63	0.049270045
247	0x3d550604	0.05200769
248	0x3db0ceca	0.08633192
249	0xbd033f63	-0.032042872
250	0xbd17bed3	-0.03704722
251	0xbc767fd9	-0.01504513
252	0x3d4abd61	0.049497012
253	0xbd13c2a8	-0.03607431
254	0xbbbd4cbe	-0.0057769706
255	0x3d09eb91	0.03367192

l3/W f4 [256, 256]
0	0xbcd306fd	-0.025760168
1	0x3d910a46	0.07082038
2	0xbd8a02b0	-0.06738794
3	0x3d6c5ad6	0.057703815
4	0x3c32a0eb	0.010902624
5	0xbcfc4e43	-0.030799037
6	0x3c81cfa3	0.01584608
7	0x3de162de	0.110051855
8	0x3cb3008b	0.021850845
9	0xbd3d1a3f	-0.04616761
10	0x3d56e421	0.052463654
11	0xbd40e358	-0.047091812
12	0xbe3be4e1	-0.18349029
13	0x3d3bde4c	0.045866296
14	0x3dc66016	0.09686296
15	0x3d83bdf8	0.06432718
16	0xbd98ad79	-0.07454962
17	0x3d8020a6	0.06256227
18	0x3d2012be	0.039080374
19	0x3c3bf24c	0.011471342
20	0x3d36cd35	0.044629294
21	0x3d4f7924	0.050652638
22	0xbdf4f182	-0.119601265
23	0xbd866b40	-0.06563425
24	0x3d0fb534	0.03508492
25	0xbe09de24	-0.13463646
26	0xbd00c5aa	-0.031438507
27	0xbb7f1181	-0.0038920345
28	0x3dc3fe2d	0.095699646
29	0xbe1f160c	-0.15535754
30	0x3dad170c	0.084516615
31	0x3d893a13	0.0670053
32	0x3e02296b	0.12711112
33	0xbd63df36	-0.055632792
34	0xbca1ad42	-0.019735936
35	0x3d42563a	0.047445513
36	0xbe0bcb75	-0.13651831
37	0x3d591b9c	0.053004846
38	0xbbfd4235	-0.0077288398
39	0xbd9eb1f2	-0.07748784
40	0xbdd0a1a7	-0.10187083
41	0x3db02628	0.08601028
42	0xbb3d75e2	-0.0028909375
43	0x3d4ce4f4	0.050023034
44	0x3dffc215	0.1248819
45	0xbdf4863c	-0.11939666
46	0xbd8769d8	-0.06611985
47	0xbb7f60dc	-0.0038967645
48	0x3df8cc19	0.121483035
49	0x3d10a3f5	0.03531261
50	0x3de1f9a2	0.11033942
51	0xbd9e8b20	-0.0774138
52	0xbd7dcc1e	-0.06196224
53	0xbd915ecc	-0.07098159
54	0xba4489b4	-0.0007497326
55	0x3da7a011	0.08184827
56	0xbe2cf770	-0.16891265
57	0xbb1c7ee7	-0.002387935
58	0xbd6ff106	-0.058579467
59	0x3d2533e5	0.040332694
60	0xbd7cd9a7	-0.061731007
61	0x3d6f8c5c	0.058483467
62	0x3d056946	0.0325711
63	0xbe503d37	-0.20335852
64	0x3d6e96ad	0.058249164
65	0x3ce98682	0.028506521
66	0xbcff2aa6	-0.031148266
67	0x3e026284	0.12732893
68	0x3d2da387	0.04239228
69	0xbd6490e4	-0.05580224
70	0xbdac4bfe	-0.08412932
71	0xbd351602	-0.04421044
72	0x3e054cff	0.13017653
73	0xbdccda4a	-0.10002573
74	0xbe470d44	-0.19438654
75	0x3d1b3100	0.037888527
76	0xbd18626d	-0.03720324
77	0xbe2375aa	-0.15962854
78	0xbd84f4ad	-0.06491981
79	0x3bc00d0f	0.0058609317
80	0x3e494f9c	0.19659275
81	0x3dc1535b	0.09439727
82	0xbdc93593	-0.098246716
83	0xbd80dc9e	-0.062920794
84	0x3d471fca	0.0486143
85	0x3d0dc677	0.0346131
86	0x3e085c7e	0.13316533
87	0x3db0a463	0.08625104
88	0x3dc813c5	0.09769396
89	0xbc652180	-0.013985038
90	0xbcc041d4	-0.02346889
91	0x3de50fb7	0.11184638
92	0x3d990f0e	0.074735746
93	0x3db7d42c	0.089760154
94	0xbdd6c849	-0.1048742
95	0xbdcc0ce2	-0.09963395
96	0x3dff3b16	0.124624416
97	0xbe2d9c0a	-0.16954055
98	0xbe0dda6e	-0.13852856
99	0x3d0ffd3b	0.03515361
100	0xbd204448	-0.039127618
101	0xbc1ffcb2	-0.009764837
102	0xbcb33db9	-0.021880018
103	0xbcaed04a	-0.021339554
104	0x3d6cc4a6	0.057804726
105	0xbc600a93	-0.013674396
106	0xbdfbb7fa	-0.1229095
107	0x3bb3a23e	0.0054819873
108	0xbdc71586	-0.09720902
109	0xbe035363	-0.12824778
110	0xbe9e9ea0	-0.30980396
111	0xbcebc9b7	-0.028782709
112	0x3e1cef47	0.15325652
113	0x3dd372c8	0.10324627
114	0xbdd28f02	-0.10281183
115	0xbc2ca7b5	-0.010538031
116	0x3db087b1	0.08619631
117	0x3db8c3d2	0.09021725
118	0x3dadd63b	0.08488127
119	0x3d8ad793	0.06779399
120	0xbd9de19d	-0.07709048
121	0x3d9f1f6c	0.07769665
122	0x3d9c6d61	0.0763805
123	0x3d17144a	0.036884584
124	0xbd26632e	-0.04062193
125	0xbdc0122f	-0.09378468
126	0x3c7e50df	0.015522211
127	0x3c7fc637	0.015611223
128	0x3c931313	0.017953431
129	0x3d0dd7c7	0.03462961
130	0xbda1c505	-0.078989066
131	0x3de5bafe	0.112173066
132	0x3d6eaaa2	0.058268197
133	0x3e19b917	0.15012012
134	0x3dfc1e9e	0.12310527
135	0xbde44a44	-0.111469775
136	0xbdc16d5c	-0.09444687
137	0xbdaf4afc	-0.08559224
138	0xbe259e81	-0.16173746
139	0x3c832e10	0.016013175
140	0x3ce928f5	0.028461913
141	0xbd8f560b	-0.06998833
142	0x3e0b30af	0.1359279
143	0x3d57f55e	0.052724235
144	0x3c0c34dd	0.008557525
145	0x3cd2141c	0.025644355
146	0xbd720603	-0.059087764
147	0xbb6be53d	-0.003599479
148	0x3d1b8996	0.03797301
149	0xbdd448a4	-0.103654176
150	0x3d1cf137	0.038315978
151	0xbb9837fb	-0.0046453453
152	0x3d1632a9	0.036669407
153	0x3cf87579	0.030329453
154	0xbe768079	-0.24072446
155	0xbc596256	-0.013268074
156	0xbdcc169f	-0.09965252
157	0xbdad5998	-0.08464354
158	0xbd9aead0	-0.07564318
159	0xbcadb068	-0.021202281
160	0xbc102e7c	-0.008800145
161	0xbd817c6a	-0.06322558
162	0x3e415f79	0.18884076
163	0xbd06d36a	-0.032916464
164	0x3ba11df0	0.004916899
165	0x3dd1accf	0.10238039
166	0x3e641176	0.22272286
167	0xbcb64860	-0.022251308
168	0xbcb65f6b	-0.022262296
169	0x3e4c2b83	0.19938473
170	0x3d921011	0.07131971
171	0xbd135e65	-0.035978694
172	0xbd9b50fc	-0.07583806
173	0x3cd47d0b	0.025938531
174	0x3de261b4	0.11053792
175	0x3c9fa313	0.01948694
176	0xbdf1fabb	-0.11815401
177	0x3d428500	0.04749012
178	0x3da15a1c	0.07878515
179	0xbe2612f2	-0.16218165
180	0x3e55b1d2	0.20868614
181	0x3e81db66	0.253627
182	0xbd9cdcd0	-0.07659304
183	0xbd7d639c	-0.061862573
184	0xbcc5b7b7	-0.024135454
185	0xbdba9419	-0.09110279
186	0xbdd36884	-0.10322669
187	0xbdd98dfc	-0.106227845
188	0xbcb07bc0	-0.021543384
189	0x3ca14261	0.019684972
190	0x3c83343a	0.016016115
191	0x3d990f03	0.074735664
192	0xbd70c040	-0.058777094
193	0xbd19ae7f	-0.037519928
194	0x3d02cc9a	0.031933405
195	0xbdb69258	-0.089146316
196	0xbcbc405a	-0.022979904
197	0xbd9caacc	-0.076497644
198	0x3d909e3f	0.07061433
199	0xbc42b5f4	-0.011884201
200	0x3c0b99fc	0.008520599
201	0xbe2a0fde	-0.16607615
202	0x3d35faee	0.04442876
203	0x3de52920	0.111894846
204	0xbda81790	-0.08207619
205	0x3d50984b	0.050926488
206	0xbcd11810	-0.02552417
207	0x3c3eef09	0.01165367
208	0xbd7cb87a	-0.061699368
209	0xbb802460	-0.0039105862
210	0xbcce3699	-0.025172519
211	0xbd1fb3b3	-0.038989734
212	0xbdb330d0	-0.087495446
213	0x3daf9c10	0.085746884
214	0xbd6c7b81	-0.05773497
215	0x3d77bd02	0.060482986
216	0xbcb1b875	-0.021694401
217	0xbc1dfc50	-0.0096426755
218	0x3de90dde	0.11379598
219	0xbdcbe648	-0.09956032
220	0x3e3090d0	0.17242742
221	0x3ddb2352	0.10700096
222	0xbe265d8c	-0.16246623
223	0xbcb42600	-0.021990776
224	0x3d9805b7	0.07422965
225	0x3d5393d7	0.051654663
226	0x3cb3a95e	0.021931347
227	0xbde84ecd	-0.11343155
228	0x3d9b0ee9	0.07571203
229	0xbe2b8c17	-0.16752659
230	0xbd339d20	-0.043851018
231	0xbd93467e	-0.0719118
232	0xbcadc8a1	-0.021213831
233	0xbdf4b57a	-0.119486764
234	0x3d867b96	0.06566541
235	0x3d2a4812	0.041572638
236	0xbd9e93b8	-0.07743019
237	0xbcaff0b0	-0.021477073
238	0x3dcf7ca1	0.10131193
239	0x3c90915a	0.017647434
240	0xbe1edbb3	-0.15513496
241	0xbc8fd007	-0.01755525
242	0xbd3cf7cc	-0.046134755
243	0x3d3eb8a8	0.04656282
244	0x3dd0bd5c	0.101923674
245	0x3e0ab8c3	0.13547044
246	0xbb81791d	-0.0039512054
247	0x3de44083	0.11145117
248	0xbe565089	-0.20929159
249	0xbd2e60f5	-0.042572934
250	0xbc486209	-0.012230405
251	0x3d781230	0.06056422
252	0x3d910561	0.07081104
253	0x3e1bdfcd	0.15222092
254	0x3d7eaf86	0.06217911
255	0x3d87c3bf	0.066291325

l1/b f4 [256]
0	0x3c736288	0.014855035
1	0xbdacc433	-0.084358595
2	0xbd1d55e4	-0.03841199
3	0x3cac8b63	0.021062559
4	0xbcbb3ea3	-0.022857016
5	0x3bc7feac	0.0061033573
6	0x3b89c192	0.0042039836
7	0xbca85cc0	-0.02055204
8	0xbc0ba01d	-0.008522061
9	0xbd6d26f9	-0.057898495
10	0xbd617fa2	-0.05505336
11	0xbbd3182a	-0.0064420896
12	0xbc4a4b81	-0.012347103
13	0xbe5fd405	-0.21858223
14	0x3d28403e	0.04107689
15	0x3bfc1820	0.0076933056
16	0xbd592e9d	-0.05302297
17	0xbd91ab8f	-0.071128
18	0x3d1e76d6	0.03868755
19	0xbe080b2d	-0.13285513
20	0x3d2e3304	0.04252912
21	0xbe132e9f	-0.14373253
22	0x3d1f396b	0.038873117
23	0x3d804479	0.0626306
24	0x3cae179d	0.021251494
25	0xbbb8d3bc	-0.005640475
26	0x3ccab21d	0.024743134
27	0xbd75ff7a	-0.060058095
28	0xbc3769ae	-0.01119463
29	0x3d62edc6	0.05540254
30	0x3d524ef0	0.051344812
31	0x3d1c8270	0.038210332
32	0x3c6d242f	0.014473959
33	0x3c8d3845	0.017238745
34	0xbcacbf26	-0.02108724
35	0x3c1fcdca	0.009753654
36	0xbcc889d3	-0.024479782
37	0x3c990c6e	0.018682685
38	0xbe01d9af	-0.12680696
39	0xbcaddab8	-0.021222457
40	0xbd91d32c	-0.07120356
41	0x3ce9a1f3	0.028519606
42	0x3c3ead85	0.01163805
43	0xbdb7bc14	-0.0897142
44	0x3d0104e8	0.03149882
45	0xbd8a698b	-0.06758412
46	0xbbe63f62	-0.007026599
47	0xbdaa18df	-0.08305525
48	0x3de57082	0.112031
49	0x3c154dc0	0.009112775
50	0x3ae80e31	0.0017704425
51	0xbd57c779	-0.052680466
52	0xbd75681b	-0.059913736
53	0x3d054cd8	0.032543987
54	0xbb278406	-0.002556087
55	0x3d3842e0	0.044985652
56	0xbda3e16b	-0.080019794
57	0x3c74284a	0.014902184
58	0x3c8f4e85	0.017493496
59	0xbe197219	-0.14984931
60	0x3beaa11c	0.007160319
61	0x3cf10c0d	0.029424692
62	0x3d054ccf	0.032543954
63	0xbe108c65	-0.14116056
64	0xbc204737	-0.009782604
65	0x3cade671	0.021228047
66	0xbd3ae209	-0.04562572
67	0x3d364728	0.044501454
68	0xbea033be	-0.31289476
69	0xbce99216	-0.028512042
70	0xbb74b117	-0.0037337
71	0x3d476eb9	0.048689578
72	0xbaded4b5	-0.0017000647
73	0xbc855037	-0.016273601
74	0x3cfe1d97	0.031019969
75	0x3d4bf70e	0.049796157
76	0x3d52c7a3	0.05145992
77	0xbe194e68	-0.14971316
78	0x3d342412	0.04397971
79	0xbdd0713c	-0.10177848
80	0x3d1885e9	0.03723708
81	0xbd1a8b96	-0.037730776
82	0xbd77cb09	-0.060496364
83	0x3da92945	0.08259825
84	0x3d777719	0.060416315
85	0x3caeb261	0.021325292
86	0x3d2a897d	0.041635025
87	0xbe1835f9	-0.14864339
88	0x3db7bafd	0.08971212
89	0xbc0f405a	-0.00874337
90	0xbb8c0d73	-0.004274064
91	0xbc80a800	-0.015705109
92	0x3bf2617c	0.007396875
93	0x3d295042	0.041336305
94	0xbc022bbb	-0.0079449965
95	0x3bfe4f4d	0.0077609182
96	0xbde6bfce	-0.112670526
97	0x3d7947e3	0.060859572
98	0x3d514e31	0.05109996
99	0x3cf93053	0.03041855
100	0x3d3d0cf7	0.046154942
101	0xbd7ae385	-0.061252136
102	0xbe5689fe	-0.20951077
103	0x3bc8869a	0.0061195614
104	0x3ccd2fa4	0.02504713
105	0xbc85bbc5	-0.016324887
106	0x3cd9f76f	0.026607243
107	0xbb981cba	-0.0046420963
108	0xbb833bfd	-0.004004954
109	0x3cfee69b	0.03111582
110	0x3d525dcd	0.051358987
111	0x3d73fec8	0.05956915
112	0xbdb06d9f	-0.086146586
113	0xbd865962	-0.06560017
114	0xbd0fe8a7	-0.035133984
115	0x3dbea51f	0.09308838
116	0xbd314a68	-0.04328385
117	0xbd89a83a	-0.0672154
118	0xbc0ab861	-0.008466811
119	0xbdb33327	-0.08749991
120	0xbb379c5b	-0.002801678
121	0x3cf9f568	0.030512527
122	0x3ca5a796	0.020221513
123	0xbd31b5e6	-0.043386362
124	0xbddb7f94	-0.10717693
125	0x3ce37378	0.02776502
126	0x3b8f602f	0.0043754796
127	0xbe17f044	-0.14837748
128	0xbd8d349b	-0.06894799
129	0xbd912c63	-0.07088544
130	0xbc009da2	-0.007850083
131	0xbde1502b	-0.11001619
132	0xbb4fa2b0	-0.0031682663
133	0xbd059a5e	-0.03261792
134	0x3b73f17d	0.0037222796
135	0x3c48f61b	0.012265707
136	0xbb167662	-0.0022958745
137	0xbd815608	-0.06315237
138	0xbc2be260	-0.010490984
139	0xbca3147d	-0.01990723
140	0x3be435d8	0.0069644265
141	0xbcf37264	-0.029717632
142	0x3d063782	0.03276778
143	0x3cda8f1a	0.026679564
144	0x3d59a10a	0.053132094
145	0xbb61092b	-0.003433774
146	0x3d1f9da7	0.03896871
147	0xbdbb429c	-0.09143564
148	0xbda0d400	-0.07852936
149	0xbcaba99c	-0.0209549
150	0xbd7aedf7	-0.061262097
151	0xbc22640a	-0.0099115465
152	0xbdd68308	-0.10474211
153	0xbc0a41a3	-0.008438501
154	0x3cfca4b3	0.030840253
155	0xbc5e4762	-0.013566824
156	0xbe143275	-0.14472373
157	0x3bbef1e9	0.005827178
158	0xbe10b61a	-0.14131966
159	0xbd69725a	-0.05699382
160	0xbe1dfdd7	-0.15428863
161	0x3c350a21	0.011049778
162	0x3d1ad8fd	0.037804592
163	0x3d3c92ca	0.046038426
164	0x3cc98025	0.024597237
165	0x3d0cf1ae	0.03441017
166	0x3d0f69ef	0.035013136
167	0x3ccd9c01	0.025098803
168	0xbbf90b93	-0.0076002567
169	0x3d2243f0	0.03961557
170	0xbd9d9a8f	-0.07695495
171	0xbdfcb4f6	-0.12339203
172	0xbc11865a	-0.00888213
173	0x3d7d0c77	0.061779466
174	0x3cb51436	0.022104364
175	0xbdb8673b	-0.09004065
176	0xbbbae712	-0.0057038153
177	0x00000000	0.0
178	0xbc0b78ab	-0.008512656
179	0xbc2043fb	-0.009781833
180	0x3d67b342	0.056567438
181	0xbe43aac1	-0.19108106
182	0x3bf38a92	0.0074322904
183	0xbd1db8c8	-0.0385063
184	0xbc84b6b4	-0.0162004
185	0x3dcb4160	0.09924579
186	0xbd0c8da5	-0.03431477
187	0x3c2be7ee	0.010492308
188	0xbd3cbbd0	-0.04607755
189	0xbdff1381	-0.12454892
190	0xbdd403d2	-0.10352291
191	0x3d8a2136	0.06744616
192	0x3d6e1166	0.05812206
193	0x3ac22a97	0.0014813718
194	0xbc8d756a	-0.017267901
195	0xbe09e1d6	-0.13465056
196	0x3cd0972e	0.025462713
197	0xbd7acca7	-0.061230328
198	0x3cc98dde	0.02460378
199	0x3ced4d4e	0.028967526
200	0xbd8a7068	-0.06759721
201	0xbdc4f618	-0.09617251
202	0x3e0341aa	0.12818018
203	0xbcb366a2	-0.021899525
204	0xbdeaee2f	-0.11471211
205	0xbd0a51e6	-0.03376951
206	0x3c676f2f	0.014125629
207	0x3cc97484	0.024591692
208	0x3ca428e5	0.020039031
209	0xbd5e4446	-0.05426433
210	0xbbc74958	-0.0060817413
211	0x3d24f97b	0.040276986
212	0xbaa9cacb	-0.0012954114
213	0x3d94c7d7	0.07264679
214	0x3d46dd3f	0.04855084
215	0xbd27e2b8	-0.0409877
216	0xbd6de102	-0.058075912
217	0x3bb80892	0.005616256
218	0x3cde19ca	0.027111907
219	0x3c7d6dfa	0.015468115
220	0x3c46b7ec	0.012128811
221	0xb9ce6bb9	-0.00039371641
222	0x3d435cc1	0.04769588
223	0xbdfdb1c3	-0.12387421
224	0xbd5a3cc3	-0.053280603
225	0xbbf78187	-0.0075532827
226	0xbe0b8e6b	-0.13628547
227	0x3b7fad06	0.0039013042
228	0xbd07bdb2	-0.033139892
229	0x3be71ce4	0.0070530046
230	0x3c0670ae	0.008205576
231	0xbb3c9b0d	-0.002877894
232	0xbcd4fb6c	-0.025998794
233	0xbbe2c9cf	-0.00692103
234	0xbcc77194	-0.02434615
235	0x3bad2695	0.0052841404
236	0xbd0b3f9d	-0.033996213
237	0xbcc06f50	-0.023490578
238	0x3d353a52	0.04424507
239	0xbc0b0ec8	-0.008487411
240	0x3da1fdba	0.079097226
241	0x3d0634a3	0.032765042
242	0xbc1133bd	-0.008862433
243	0xbd8b1c78	-0.06792539
244	0x3d0f29a8	0.034951836
245	0xbd938872	-0.07203759
246	0x3d0fbfa7	0.035094883
247	0xbd800a14	-0.06251922
248	0x3ba9cce0	0.0051818937
249	0xbc8c3d05	-0.01711894
250	0xbe222007	-0.1583253
251	0xbd86b273	-0.06577005
252	0x3b8b8276	0.0042574955
253	0x3d4d8e7a	0.050184704
254	0x3ba432f3	0.0050109564
255	0x3cf14c0d	0.02945521

l1/W f4 [256, 16]
0	0x3f01f1b9	0.50759465
1	0xbdb4439f	-0.0880196
2	0x3e0eaa2c	0.13932103
3	0xbe1c70bb	-0.15277378
4	0x3f08ca83	0.5343401
5	0x3c1291e9	0.0089459205
6	0xbf8e2a5f	-1.1106681
7	0x3f3c543d	0.7356604
8	0xbed7dbf3	-0.42159995
9	0x3eb44d16	0.35215062
10	0x3d6da0d7	0.058014717
11	0xbf545f65	-0.8295806
12	0x3e52bcfd	0.20579906
13	0xbcbf2264	-0.023331828
14	0x3ef01afb	0.46895584
15	0x3eaa7d90	0.33298922
16	0xbe7292e5	-0.23688848
17	0x3f186c9a	0.5954071
18	0xbe031539	-0.12801065
19	0x3e9d4c7c	0.30722415
20	0x3f315c67	0.6928162
21	0xbe5746ba	-0.21023074
22	0x3f00b528	0.5027642
23	0x3e48ebc5	0.19621189
24	0xbf05e061	-0.522955
25	0x3ec5c2fd	0.38625327
26	0x3ed63536	0.41837472
27	0xbe833baa	-0.25631458
28	0xbd81dd8d	-0.063410856
29	0x3df8ba05	0.121448554
30	0xbe2bdfe7	-0.1678463
31	0xbeaaad11	-0.33335164
32	0x3e822049	0.25415257
33	0x3dbf1e49	0.09331948
34	0xbddb3db2	-0.10705127
35	0x3e67f7c0	0.22653103
36	0x3d3c08b6	0.045906745
37	0xbf11fc3e	-0.57025516
38	0x3e0c6454	0.13710147
39	0x3d4ba73b	0.04972003
40	0xbf36cc98	-0.71405935
41	0x3eeaa0fa	0.4582594
42	0xbe64384c	-0.222871
43	0x3e2c8dd7	0.16850983
44	0x3f07d778	0.53063154
45	0x3d9ee887	0.07759195
46	0x3d99509d	0.07486079
47	0x3e38939b	0.18025057
48	0xbf122393	-0.5708553
49	0x3e3b13ab	0.18269221
50	0xbeec4de5	-0.4615318
51	0x3e73b3f1	0.23799111
52	0xbeceef7c	-0.40417087
53	0xbed3621b	-0.41285786
54	0x3ea727c0	0.32647514
55	0x3f6b6dd2	0.9196445
56	0x3ebfee22	0.37486368
57	0xbee6022e	-0.44923538
58	0x3dbde665	0.0927246
59	0xbb891e36	-0.0041845096
60	0xbe146d3a	-0.14494792
61	0xbee5dc29	-0.4489453
62	0x3e0c05e7	0.13674127
63	0x3f0f3303	0.5593721
64	0xbcc5dfa3	-0.02415449
65	0xbd75e2e1	-0.06003082
66	0x3f3cfda3	0.7382452
67	0x3e9e8738	0.3096254
68	0x3e38c276	0.18042931
69	0x3e115339	0.14191903
70	0x3e4ab710	0.19796395
71	0x3e815476	0.2525975
72	0xbe998db3	-0.2999092
73	0xbe390a01	-0.18070222
74	0xbf01d311	-0.50712687
75	0xbf12f324	-0.57402253
76	0x3e2295f1	0.1587751
77	0x3de53e2a	0.111934975
78	0xbf07ba50	-0.53018665
79	0x3e460f5a	0.19341794
80	0x3f062641	0.5240212
81	0xbea8d950	-0.32978296
82	0x3d13bd02	0.036068924
83	0x3d6d873d	0.0579903
84	0xbe0d3a62	-0.13791803
85	0xbf1d04d3	-0.61335486
86	0x3e8dc230	0.27687216
87	0xbeb3fec4	-0.35155308
88	0xbd96897d	-0.073504426
89	0xbc50b63b	-0.01273876
90	0xbe8a78db	-0.2704533
91	0xbec00eeb	-0.37511382
92	0xbdc6651c	-0.09687254
93	0xbdfb6b42	-0.12276317
94	0xbeaf7a78	-0.34273124
95	0x3c976164	0.018479057
96	0xbf703e29	-0.9384485
97	0xbeb306ad	-0.3496603
98	0xbdc74eaa	-0.09731801
99	0x3e661fd8	0.22473085
100	0x3e4b5e42	0.19860175
101	0xbee354d2	-0.4440065
102	0xbe0c8fba	-0.13726702
103	0xbd84a79e	-0.06477283
104	0x3ce7f96c	0.028317176
105	0x3f390e7e	0.7228774
106	0x3efcd4d8	0.49381137
107	0xbef2643a	-0.47342092
108	0xbe4e3a0b	-0.20139329
109	0x3de0ffe8	0.1098631
110	0xbdfb0a15	-0.12257782
111	0x3c1e4dd3	0.009662109
112	0x3d70a386	0.058749698
113	0x3e02130b	0.12702577
114	0x3f1225ff	0.5708923
115	0xbf498c23	-0.78729457
116	0x3ee534f6	0.44766968
117	0x3e8fe050	0.28100824
118	0xbee3b803	-0.44476327
119	0xbdd0d761	-0.1019733
120	0xbee9cd25	-0.45664325
121	0x3db42cec	0.08797631
122	0xbec1611d	-0.37769404
123	0x3d3a1ffa	0.04544065
124	0x3ef5f78a	0.4804042
125	0xbef5f6c8	-0.48039842
126	0x3e08fe4a	0.13378254
127	0x3e8df16f	0.27723262
128	0x3db40792	0.087905064
129	0x3ea8a770	0.32940245
130	0xbe3aecbf	-0.18254374
131	0x3ecc8905	0.39948288
132	0x3e43c3ee	0.1911771
133	0x3e90b734	0.28264773
134	0x3cb821fa	0.022477139
135	0x3d36ee8f	0.0446611
136	0xbd30d888	-0.04317525
137	0xbe8da4d6	-0.27664822
138	0xbee2ddae	-0.44309753
139	0xbe600322	-0.21876195
140	0xbf24aa6a	-0.6432253
141	0xbe9c9a7f	-0.3058662
142	0xbe052b9c	-0.13004917
143	0xbd21be24	-0.039487973
144	0x3eb1dae1	0.34737304
145	0x3ec58ec5	0.38585487
146	0x3f0fa67a	0.561134
147	0x3d2103a3	0.03931011
148	0xbe748f9f	-0.23882912
149	0xbeb09a46	-0.344927
150	0x3f65f99d	0.89834005
151	0xbe8da310	-0.2766347
152	0xbeea2324	-0.45729935
153	0x3eccf493	0.40030345
154	0xbe0fa0da	-0.14026204
155	0xbe0d9fa3	-0.13830428
156	0xbf673fef	-0.9033193
157	0xbdc0f2a0	-0.09421277
158	0x3f1d442e	0.6143216
159	0xbd6700c0	-0.0563972
160	0xbdb49f39	-0.08819432
161	0x3e986c2c	0.2977003
162	0x3e1d7b7c	0.15379137
163	0xbdc2630a	-0.094915465
164	0xbf4d927b	-0.80301636
165	0x3f3217e7	0.6956772
166	0xbebc4640	-0.36772346
167	0x3e8401cc	0.2578262
168	0x3e478340	0.19483662
169	0xbf01b813	-0.506715
170	0x3ebf7dbd	0.37400618
171	0xbe179f6e	-0.14806911
172	0xbf208c46	-0.6271404
173	0x3eba9aa3	0.36446103
174	0x3d9b4820	0.07582116
175	0x3e0ebb7b	0.13938706
176	0xbe59899d	-0.21243902
177	0xbebdb5ac	-0.37052667
178	0x3eb461dd	0.35230914
179	0xbf1d9ae5	-0.61564475
180	0xbeb92a16	-0.36164922
181	0xbea70702	-0.32622534
182	0xbf569d05	-0.8383334
183	0xbd36515f	-0.044511195
184	0xbe6b637e	-0.22987172
185	0xbf1e896d	-0.61928445
186	0x3f16dfa7	0.58935016
187	0x3ea56753	0.32305393
188	0xbe73c440	-0.23805332
189	0xbea9b362	-0.3314467
190	0xbec66830	-0.38751364
191	0xbba2f00d	-0.004972464
192	0xbdfb2f1b	-0.12264844
193	0x3e7a0795	0.24416955
194	0xbe819f37	-0.25316784
195	0x3ef36e02	0.47544867
196	0xbe307e68	-0.1723572
197	0xbd53c9f1	-0.05170626
198	0x3e857dde	0.26072592
199	0xbf09e57f	-0.5386581
200	0xbedc9bdf	-0.4308767
201	0xbf0d5214	-0.55203366
202	0x3e9388b8	0.28815246
203	0xbe9d5d00	-0.30735016
204	0x3d3228c1	0.043495897
205	0xbd638f17	-0.055556383
206	0xbea29ff6	-0.31762666
207	0x3f2c52d8	0.6731391
208	0xbc140fa9	-0.009036937
209	0x3e3640fb	0.17798226
210	0xbed12880	-0.40851212
211	0x3e16247f	0.1466236
212	0x3f59136d	0.84795266
213	0xbdf80a45	-0.12111334
214	0xbe4dbeed	-0.20092364
215	0xbbbf6c69	-0.005841781
216	0x3dc6f0a9	0.09713871
217	0x3ca10d5d	0.019659692
218	0x3ebfdae8	0.374717
219	0xbddccb4b	-0.107809626
220	0x3e325859	0.17416514
221	0xbd02f879	-0.031975243
222	0x3ee1187c	0.43963993
223	0xbc38089d	-0.011232522
224	0xbf16544e	-0.5872239
225	0xbe83ab68	-0.2571671
226	0x3eb52c59	0.35385397
227	0xbed2b20d	-0.41151467
228	0xbe27bcc5	-0.16380604
229	0x3e585673	0.21126728
230	0x3b29a899	0.0025887846
231	0xbeb0b660	-0.3451414
232	0xbce8622b	-0.028367123
233	0xbda789b7	-0.08180564
234	0xbdd0ae37	-0.10189479
235	0xbcac332b	-0.021020493
236	0xbe857e9c	-0.26073158
237	0xbe90a141	-0.28248027
238	0x3eb3c304	0.35109723
239	0xbbc8e495	-0.0061307647
240	0x3e3f3db3	0.1867588
241	0xbecdfdf1	-0.40232804
242	0x3e7d61d7	0.24744354
243	0x3be34b2b	0.006936451
244	0x3e91a989	0.28449658
245	0x3f172993	0.5904781
246	0xbe74aa05	-0.23892982
247	0x3df18b22	0.117941156
248	0xbe27b235	-0.16376574
249	0xbed68217	-0.41896126
250	0x3e7eeb3d	0.24894424
251	0x3e88cfea	0.26721126
252	0x3e153535	0.14571078
253	0x3ddfe842	0.109329715
254	0xbe286d5c	-0.16447967
255	0xbebf94b1	-0.3741813

l4/b f4 [16]
0	0x3d9f8f0d	0.07790957
1	0x3bdf0c41	0.0068068807
2	0x3cc76396	0.024339478
3	0x3de8aa3e	0.11360596
4	0x3db69bd8	0.089164436
5	0xbcbac08d	-0.022796893
6	0xbd1b004e	-0.037842087
7	0x3d985b13	0.07439246
8	0x3dcc78bc	0.09983966
9	0x3d1b0648	0.037847787
10	0xbceb12d9	-0.02869551
11	0x3dc7dc3e	0.09758805
12	0x3d6c82bc	0.057741866
13	0x3d4c6cd7	0.049908485
14	0x3d99dcdd	0.075128295
15	0x3de4f59e	0.1117966

l4/W f4 [16, 256]
0	0xbd5aaa3a	-0.053384997
1	0xbbb181b0	-0.0054170713
2	0x3bc39f3b	0.0059699095
3	0x3ce62d41	0.02809775
4	0x3a1c095b	0.0005952322
5	0x3e4ab34a	0.19794956
6	0x3d7b3d31	0.061337654
7	0xbc7ee0a8	-0.015556492
8	0xbdb9014d	-0.09033451
9	0xbe9da824	-0.30792344
10	0x3dd0d475	0.10196773
11	0xbe5f8557	-0.21828209
12	0x3d083420	0.033252835
13	0x3d86cd3d	0.06582115
14	0xbcf3448c	-0.029695772
15	0x3da9db66	0.082938
16	0x3e01ad4f	0.12663768
17	0x3ced6ff8	0.028984055
18	0xbe1d53c7	-0.1536399
19	0x3d6c7fd2	0.057739086
20	0x3d3499fb	0.04409216
21	0x3da9245e	0.082588896
22	0x3e34f1ae	0.17670318
23	0xbe11bb13	-0.1423152
24	0x3dd51c1a	0.104057506
25	0xbe39fff1	-0.1816404
26	0xbdc4f1f7	-0.09616464
27	0x3e711b9b	0.23545687
28	0xbe4092a9	-0.18805946
29	0xbd88aeee	-0.0667399
30	0xbd28db4f	-0.041224774
31	0x3da97272	0.08273782
32	0x3dea4183	0.114382766
33	0xbd9ee528	-0.07758552
34	0x3e859376	0.26089066
35	0xbd35a420	-0.044345975
36	0x3ddbe805	0.107376136
37	0x3e28131a	0.16413537
38	0xbe570a66	-0.2100006
39	0x3b99f6d6	0.0046986146
40	0xbe092c2e	-0.1339576
41	0xbc0a66f0	-0.008447394
42	0x3d606ac9	0.05478934
43	0x3bd2782a	0.006423016
44	0xbca02f3b	-0.019553771
45	0x3e7103bf	0.23536585
46	0x3cb496d3	0.022044575
47	0xbdc6d6b3	-0.097089194
48	0x3e0fe8f8	0.14053714
49	0x3d0c45b5	0.034246165
50	0xbcb64984	-0.022251852
51	0x3dd8b3c2	0.10581161
52	0x3d6cfd48	0.057858735
53	0x3e098aba	0.13431826
54	0x3da8776e	0.082259044
55	0x3da7c1b8	0.08191246
56	0xbd7bf6a6	-0.06151452
57	0x3e517d30	0.20457911
58	0xbe333cb2	-0.17503622
59	0x3ddd13d1	0.10794795
60	0x3d5fbf3c	0.054625735
61	0x3e680bcd	0.22660752
62	0x3da75816	0.08171098
63	0xba105e1e	-0.00055071886
64	0xbd3fad25	-0.046795983
65	0xbea7e676	-0.32793015
66	0x3dc6592c	0.09684977
67	0x3cf45e38	0.029830083
68	0x3bd02f49	0.006353293
69	0x3e05720c	0.13031787
70	0x39eec282	0.00045539817
71	0xbd999feb	-0.07501205
72	0xbe0c6173	-0.13709049
73	0xbd1656d9	-0.036703918
74	0xbe85a593	-0.26102886
75	0xbd3bb5e9	-0.04582778
76	0x3d2f46ed	0.04279225
77	0xbda567b4	-0.080764204
78	0x3d12f7e2	0.03588093
79	0xbe343b98	-0.17600858
80	0xbd008bd8	-0.031383365
81	0x3d315768	0.043296248
82	0xbe16dbe5	-0.1473232
83	0x3e3b0624	0.18264061
84	0x3de7f1a0	0.11325383
85	0xbe4bb08d	-0.19891568
86	0xbe4a6089	-0.19763388
87	0xbe8d2a1d	-0.27571192
88	0xbd252695	-0.040319998
89	0x3e879d4f	0.26487204
90	0xbe01ebfa	-0.12687674
91	0x3d27c902	0.04096318
92	0x3cb1f6df	0.021724163
93	0xbc8407cf	-0.016117005
94	0xb82cb6a4	-4.1178093e-05
95	0x3d14657f	0.036229607
96	0xbd932936	-0.07185595
97	0x3d76db51	0.06026775
98	0xbdf99233	-0.121860884
99	0x3c9eada4	0.019369908
100	0xbdbeba22	-0.09312846
101	0xbd3103ce	-0.04321652
102	0x3d78f469	0.060779963
103	0xbd8b234d	-0.067938425
104	0x3e20bead	0.15697737
105	0xbd56ef3f	-0.052474257
106	0x3d6ed555	0.058308918
107	0xbd824d58	-0.063624084
108	0xbe293d46	-0.1652728
109	0x3ea22aa3	0.31673154
110	0x3e1c93ff	0.15290831
111	0xbe15aa5a	-0.14615765
112	0x3e050508	0.129902
113	0xbd6daee1	-0.058028106
114	0x3e5b2b9a	0.21403351
115	0x3caf35d5	0.021387974
116	0xbd2cd5ce	-0.042196088
117	0xbe3904a7	-0.18068181
118	0x3dbbadb4	0.091639906
119	0x3e3e5bb6	0.18589672
120	0x3d6837ea	0.05669395
121	0x3e06f342	0.13178733
122	0x3e749b01	0.23887254
123	0x3df46ff7	0.11935418
124	0xbd9819e0	-0.0742681
125	0x3b81821e	0.0039522788
126	0xbeab2c98	-0.3343246
127	0xbe10497c	-0.14090532
128	0x3e579d63	0.21056132
129	0xbd3092ca	-0.04310874
130	0x3dadca72	0.08485879
131	0xbd892b1e	-0.06697677
132	0x3dca2793	0.098708294
133	0x3e760dc6	0.24028692
134	0xbd868114	-0.065675884
135	0x3d5269a6	0.051370285
136	0xbe19870a	-0.1499292
137	0xbe06cca3	-0.13164
138	0x3d5a4858	0.05329165
139	0xbeb4893b	-0.3526095
140	0xbe4d1e12	-0.20031002
141	0x3cfd2c8d	0.030905033
142	0x3e13792d	0.14401694
143	0x3e475886	0.19467363
144	0x3d439aa8	0.047754914
145	0xbe2ade82	-0.16686442
146	0xbd89143f	-0.06693315
147	0xbe82adc4	-0.25523198
148	0x3dbb191e	0.0913565
149	0xbd4fb82a	-0.050712742
150	0xbd9e4386	-0.07727723
151	0x3d200d22	0.039075024
152	0xbec0881b	-0.3760384
153	0x3ca025a6	0.019549202
154	0x3e40497d	0.18778034
155	0xbe9d5520	-0.30729008
156	0xbe4db1fe	-0.2008743
157	0xbd812a55	-0.06306902
158	0x3e52775b	0.20553343
159	0x3d203de9	0.039121542
160	0xbd47042e	-0.04858797
161	0x3c95bf71	0.018279763
162	0x3d611cb1	0.054959003
163	0x3db91bea	0.09038527
164	0x3bf02cc7	0.0073295566
165	0xbe24c9be	-0.16092584
166	0x3dfd5b40	0.1237092
167	0x3de0314e	0.10946904
168	0x3db62fe6	0.08895855
169	0x3e858dc6	0.26084727
170	0xbd717365	-0.05894794
171	0x3d8d3359	0.068945594
172	0xbbedd4ff	-0.007258057
173	0xbc4c691f	-0.012476235
174	0x3d2fa0b1	0.042877857
175	0xbe9bebef	-0.3045344
176	0x3d017b27	0.031611588
177	0xbd3c92cf	-0.046038445
178	0xbccab47f	-0.02474427
179	0x3ddb58f1	0.107103236
180	0x3e2b4154	0.1672414
181	0x3e68ac0a	0.22721878
182	0xbdf0ee32	-0.11764182
183	0x3e1a2efb	0.15056984
184	0xbd360f92	-0.044448443
185	0x3dea3b4b	0.114370905
186	0xbdefc5be	-0.11707638
187	0x3cddb5de	0.02706426
188	0xbe257e64	-0.16161495
189	0x3e9e7ecd	0.30956116
190	0x3e45707d	0.19281192
191	0xbdb8b3c5	-0.09018663
192	0x3eaec112	0.34131676
193	0x3da765ec	0.08173737
194	0xbb3f9fba	-0.0029239492
195	0xbcc9019d	-0.024536902
196	0xbd5163b2	-0.051120467
197	0x3e649a49	0.2232448
198	0xbd64167a	-0.055685498
199	0xbe61a1f0	-0.2203443
200	0x3da250e6	0.079255864
201	0xbe065f89	-0.13122381
202	0x3d81b939	0.063341565
203	0xbe690b3e	-0.22758195
204	0x3cb48e27	0.02204044
205	0xbd2853f8	-0.041095704
206	0xbd99f9a7	-0.075183205
207	0xbe519208	-0.20465863
208	0x3ca9ba1a	0.020718623
209	0xbe84ba95	-0.259236
210	0x3e5085e2	0.20363572
211	0xbdd4a434	-0.10382882
212	0xbdf5361b	-0.119732104
213	0x3d486b7f	0.04893064
214	0x3e3a966e	0.18221447
215	0x3da1d88b	0.079026304
216	0xbdf1e1bd	-0.11810634
217	0x3e37d0cd	0.17950745
218	0x3dfa3291	0.12216676
219	0xbd01c3fb	-0.031681042
220	0xbd310622	-0.04321874
221	0xbcbe4db5	-0.023230413
222	0xbe00b081	-0.12567331
223	0xbcd7547b	-0.0262854
224	0x3e9966fc	0.29961383
225	0xbe1f9c43	-0.15586953
226	0xbc13979a	-0.009008313
227	0xbe0b56ff	-0.13607405
228	0x3e074c6e	0.1321275
229	0x3d0d7e2b	0.03454415
230	0x3dea0232	0.114262
231	0xbe3b436b	-0.18287437
232	0xbcdb17e9	-0.0267448
233	0xbd123570	-0.035695493
234	0x3b2a0275	0.0025941406
235	0xbe17cc2e	-0.14823982
236	0xbe4503f9	-0.19239797
237	0x3c7f0ce2	0.015567036
238	0x3a5eb174	0.00084950705
239	0x3e9167eb	0.28399596
240	0xbda1e435	-0.07904855
241	0xbd9ac751	-0.07557548
242	0xbd08be08	-0.033384353
243	0x3ce8a1ab	0.028397402
244	0xbab00037	-0.0013427798
245	0x3d8550b3	0.06509533
246	0x3d78255e	0.06058251
247	0x3cb99b97	0.022657199
248	0xbbfdbc72	-0.0077434117
249	0x3e146d52	0.14494827
250	0xbc96f2b7	-0.018426282
251	0x3d15b65d	0.03655087
252	0xbda9b9c0	-0.08287382
253	0x3c2b3e05	0.010451798
254	0xbd93f7dd	-0.072250105
255	0x3de9fbce	0.11424981
