static/ai/4/agent_white_6000/model.npz (npz, 521823 bytes, 8 tensors)

l2/b f4 [256]
0.009878683 -0.011700316 0.040931277 0.016970713 0.0021341348 -0.0010150875 -0.0082244845 -0.0050779227
-0.020236492 0.039954115 -0.0019213555 0.018989462 -0.010775611 -0.005381229 0.065247945 -0.0016603547
-0.036600407 0.020990618 -0.04512899 0.036484204 0.002659054 -0.015420369 -0.015308562 -0.00949662
-0.040569592 -0.020977916 0.029353147 -0.01617783 -0.04905416 0.048251413 0.0063885483 0.026752831
0.003899261 -0.035206906 -0.027409652 -0.0033093668 0.007111501 0.0015519114 0.037097253 -0.005207388
-0.082854114 -0.019898487 0.011701597 -0.0055144485 0.010739114 -0.008287109 0.020351477 -0.036937464
0.019994458 -0.004489292 0.005511239 -0.022368757 -0.023302909 -0.0084633 -0.016264774 0.0458427
-0.031162223 -0.00446093 -0.018921958 0.00035816382 0.0033708 -0.045035906 -0.0017414496 0.015890379
-0.034780484 0.02223318 0.007612744 0.00033214974 0.037745852 -0.021269778 -0.004209135 -0.0066306973
-0.022477854 0.020530166 0.011157515 0.018218938 0.022239095 -0.0056994734 0.0004543098 -0.005753355
-0.05869787 -0.025739482 -0.03766631 0.014812075 -0.014548802 0.023651924 -0.0039671925 -0.019825548
-0.009415804 -0.023936084 -0.021316113 0.00065371324 0.022454344 0.00011885357 -0.055808026 0.0034326708
0.035268847 -0.002778451 0.033145405 0.017028006 0.01009029 -0.020851905 0.0014396951 -0.006763744
-0.01685557 -0.014889799 -0.002466139 0.04038649 -0.023739176 0.01925302 0.025091378 -0.017535158
0.002132651 0.0123278 0.0070675337 0.0533575 -0.0076595875 -0.042626873 -0.039738383 -0.005779407
-0.013305539 0.028694348 0.0024794172 -0.005949072 -0.013929819 -0.0064650835 0.02391945 -0.0044315336
-0.042280465 -0.0140249245 -0.04460824 0.06890546 0.02845547 0.00040051152 -0.017266968 0.038318183
-0.013638663 0.005290644 0.0216947 -0.0030336212 0.021861339 -0.001761564 -0.007824522 0.014791504
0.051619466 0.014495671 -0.014079082 -0.050655372 -0.029378692 -0.012807361 -0.0037728667 0.0012480454
-0.036529597 -0.03968388 -0.015721176 -0.0008732349 0.02528082 0.043326456 -0.01055528 0.038186345
-0.054549985 -0.0086283395 -0.030237732 0.013950717 0.012879389 -0.0049873404 -0.024314573 0.007933817
0.049434762 -0.007175434 0.0021616113 -0.013931608 -0.020570794 -0.00011432075 -0.014778393 -0.020077037
0.047065943 -0.012950816 -0.004405343 0.020113748 0.033044025 -0.027809963 -0.049059168 0.019790757
0.0 0.020636674 -0.034715813 -0.021662682 0.017525624 -0.026940245 0.11808846 -0.021532767
0.015288737 0.012682404 -0.001567704 0.01779889 -0.02347985 0.010928266 -0.0065887976 -0.013341306
0.006541792 0.022245713 0.033131864 -0.010669886 0.0086751785 -0.018301379 -0.07737991 0.011068625
-0.005699938 -0.0239745 0.023622157 0.018273566 -0.012274995 0.046525016 -0.02234801 -0.030142091
-0.027054971 0.039493386 -0.02592003 0.00095749117 0.019992154 -0.028956205 0.030885855 -0.014661129
-0.041946623 -0.03509118 -0.015673278 0.012881227 -0.03882134 -0.002389693 -0.013903737 0.039992426
-0.024196036 4.0314408e-05 0.027914165 0.010277776 0.014815719 0.0075326227 -0.0033403137 -0.03474432
-0.00343591 -0.017382117 -0.06613697 0.009559058 0.016119365 -0.07208358 -0.024933727 -0.03342253
0.00018794322 0.01986241 0.026413074 -0.010079085 0.04799401 -0.057364978 0.023329636 0.038881935
00000000: 33da 213c afb2 3fbc 8ea7 273d 2a06 8b3c
00000010: d7dc 0b3b af0c 85ba fdbf 06bc b464 a6bb
00000020: 00c7 a5bc eda6 233d fed5 fbba ca8f 9b3c
00000030: 308c 30bc 0555 b0bb b7a0 853d 42a0 d9ba
00000040: 4fea 15bd 84f4 ab3c 2dd9 38bd 7670 153d
00000050: 8643 2e3b b7a5 7cbc c3d0 7abc b697 1bbc
00000060: 4d2c 26bd e1d9 abbc 0376 f03c 5e87 84bc
00000070: 04ed 48bd 46a3 453d 0757 d13b c128 db3c
00000080: be8a 7f3b 1e35 10bd 358a e0bc f6e1 58bb
00000090: 9807 e93b 8169 cb3a 4af3 173d bda2 aabb
000000a0: 6baf a9bd 2702 a3bc 0eb8 3f3c 8cb2 b4bb
000000b0: 1cf3 2f3c a8c6 07bc 24b8 a63c bd4b 17bd
000000c0: 6bcb a33c e91a 93bb a097 b43b af3e b7bc
000000d0: bee5 bebc a7a9 0abc b43d 85bc 8ec5 3b3d
000000e0: eb47 ffbc fe2c 92bb 3902 9bbc efc7 bb39
000000f0: a4e8 5c3b 9277 38bd 5a41 e4ba 8a2c 823c
00000100: fb75 0ebd 5c22 b63c 5374 f93b 6224 ae39
00000110: 659b 1a3d f53d aebc c9ec 89bb 5246 d9bb
00000120: 7a23 b8bc e12e a83c 03ce 363c e23f 953c
00000130: c32e b63c a6c2 babb 6e30 ee39 a486 bcbb
00000140: 2d6d 70bd 9bdb d2bc fd47 1abd 58ae 723c
00000150: 195e 6ebc aec1 c13c 39ff 81bb 3069 a2bc
00000160: bf44 1abc 9b15 c4bc 219f aebc f45d 2b3a
00000170: 2cf2 b73c 0641 f938 f596 64bd a9f6 603b
00000180: 1176 103d ac16 36bb 7ac3 073d 517e 8b3c
00000190: be51 253c 9dd1 aabc 27b4 bc3a 66a2 ddbb
000001a0: b114 8abc 58f4 73bc f29e 21bb 4e6c 253d
000001b0: a978 c2bc 82b8 9d3c 6f8c cd3c e4a5 8fbc
000001c0: f2c3 0b3b 8afa 493c c596 e73b 658d 5a3d
000001d0: 47fd fabb 8499 2ebd b7c4 22bd 2e61 bdbb
000001e0: 7aff 59bc 6910 eb3c b87d 223b 6ff0 c2bb
000001f0: e539 64bc 0dd9 d3bb b9f2 c33c 6636 91bb
00000200: 482e 2dbd ccc8 65bc 21b7 36bd 4e1e 8d3d
00000210: 721b e93c bffb d139 7573 8dbc 87f3 1c3d
00000220: b374 5fbc 235d ad3b 15b9 b13c b8cf 46bb
00000230: 8d16 b33c 48e4 e6ba 6d32 00bc 1058 723c
00000240: ef6e 533d 407f 6d3c f3ab 66bc 027c 4fbd
00000250: 95ab f0bc f7d5 51bc 3342 77bb 7495 a33a
00000260: 0fa0 15bd 908b 22bd b2c9 80bc cde9 64ba
00000270: b919 cf3c 1577 313d 0ef0 2cbc 4969 1c3d
00000280: ce6f 5fbd e15d 0dbc 1fb5 f7bc 8c91 643c
00000290: 1304 533c d86c a3bb 5b2f c7bc d7fc 013c
000002a0: 1b7c 4a3d e71f ebbb d2a9 0d3b 6641 64bc
000002b0: 1584 a8bc 7cbf efb8 1321 72bc 9978 a4bc
000002c0: 38c8 403d a92f 54bc b25a 90bb 96c5 a43c
000002d0: 2c59 073d b8d1 e3bc 44f2 48bd 3a20 a23c
000002e0: 0000 0000 3e0e a93c 2b32 0ebd f075 b1bc
000002f0: e691 8f3c cab1 dcbc 5dd8 f13d 7c65 b0bc
00000300: 9c7d 7a3c dcc9 4f3c 6b7b cdba face 913c
00000310: d058 c0bc 780c 333c d7e6 d7bb 7e95 5abc
00000320: 875c d63b a43c b63c 47b5 073d bfd0 2ebc
00000330: 5622 0e3c c6ec 95bc 5c79 9ebd 2e59 353c
00000340: 8cc6 babb 2c66 c4bc 4183 c13c 72b2 953c
00000350: 101d 49bc 0491 3e3d 2d13 b7bc 8cec f6bc
00000360: 63a2 ddbc d1c3 213d 3e56 d4bc 2500 7b3a
00000370: 96c6 a33c 9035 edbc 5504 fd3c 3b35 70bc
00000380: 39d0 2bbd c5bb 0fbd 3f65 80bc c80b 533c
00000390: 2003 1fbd 659c 1cbb 80cc 63bc 19cf 233d
000003a0: c436 c6bc 4417 2938 3fac e43c 1e64 283c
000003b0: a1bd 723c 38d4 f63b 2ae9 5abb 0f50 0ebd
000003c0: 012d 61bb f164 8ebc d272 87bd 989d 1c3c
000003d0: c20c 843c 8ea0 93bd d141 ccbc 10e6 08bd
000003e0: a012 4539 7eb6 a23c 3b60 d83c bf22 25bc
000003f0: 5e95 443d 8af7 6abd cb1d bf3c aa42 1f3d

l2/W f4 [256, 256]
-0.054778267 -0.08638646 0.013508822 -0.040379435 -0.052711483 -0.008389119 -0.0142363 0.22908072
0.098334864 -0.073028065 0.05799528 -0.025543971 0.034859266 -0.17513156 0.038818862 -0.03768469
0.06797703 0.050860517 0.117014445 -0.17111324 -0.07008794 0.02338994 -0.09775604 0.37159505
0.080621704 0.05535171 0.021667173 -0.055417467 0.2425627 0.08679936 0.0926819 0.18258035
0.0125324195 -0.083333395 0.22536346 0.06564722 0.044542685 -0.0239577 -0.06582359 0.08429362
0.13867006 0.116345584 -0.17900936 0.047168132 0.0435597 -0.0029554528 0.058618065 0.30493602
0.01630114 -0.06059351 -0.04965117 -0.08417194 -0.036528338 0.0098433625 -0.00601702 0.0018698344
-0.083186194 0.015756613 0.219455 0.06053627 -0.11196081 -0.15496361 0.0108279865 -0.16390066
0.028512895 -0.045142226 0.09361285 0.016898045 -0.017454552 -0.07706771 -0.048044 -0.12665325
-0.16877396 -0.10029215 0.14519446 -0.18012491 -0.0841422 0.047269955 -0.07812015 0.045284536
-0.013133432 -0.058413368 -0.12908542 0.01435968 0.01415795 0.16677481 0.022139901 -0.08797216
-0.019375054 -0.28588685 0.13595368 0.12820701 0.019766107 -0.06429124 -0.16853559 -0.026692202
-0.06158944 -0.0046392186 0.0316392 0.06027201 -0.03801527 -0.050630346 -0.08914702 0.003168447
-0.13139424 -0.062362667 -0.13098302 0.13730659 -0.012302857 0.12906785 -0.048030093 0.15762694
0.15272187 0.069829546 0.13336179 0.17880934 -0.13618743 0.005673296 0.09459735 0.09985024
-0.07198061 -0.024663376 0.07692791 0.24963884 -0.09405641 -0.15338607 -0.081737116 -0.03072907
0.011354115 -0.027854403 -1.8754565e-05 -0.011543326 0.15970932 -0.06840561 0.08423217 0.04307918
-0.0769532 0.045272563 0.11520431 0.04607426 0.17995267 0.0050701047 0.08289843 0.2299451
-0.06488823 -0.106452025 -0.059907835 -0.086765036 -0.11877082 -0.1410211 -0.0020142114 -0.0098012695
0.093004495 -0.025227858 -0.08729798 -0.07736035 -0.14386651 0.067868516 -0.07061272 -0.02632242
-0.06773096 0.19988844 -0.045829657 0.024457099 0.091306046 -0.049558844 0.10379757 0.025287364
0.06795282 0.098327205 0.07863192 -0.07071024 -0.009205938 0.04606765 0.10793016 -0.096185185
0.06927321 0.07201186 0.012760195 0.06534521 -0.08246542 0.020971132 -0.01565447 -0.13951816
0.04227289 0.14510892 -0.09082794 -0.19839631 -0.04992513 0.020913754 0.18193832 0.11609646
-0.034806076 -0.08468673 0.14032534 0.02794626 0.07378004 0.023749102 0.07226902 0.016249293
-0.065379724 0.18555285 0.087726615 -0.05077197 -0.04102512 -0.067873955 0.0037471717 0.05006105
-0.010330787 0.017704917 0.07070227 -0.048766837 -0.10476056 -0.07680303 -0.030837098 -0.068866
0.011195728 0.10280183 0.105217084 -0.047155887 -0.031212976 0.036728352 0.12203428 -0.19899663
-0.06341917 -0.17358579 0.16463396 -0.13705014 0.01447012 -0.124143645 0.096658535 -0.024493063
0.0432572 -0.026764814 0.074328 0.010745073 0.23793496 -0.03970602 0.045414515 -0.093120486
-0.07344373 0.16005202 -0.047220103 0.06487889 -0.07489625 0.19079581 0.033451412 0.08676739
-0.061349258 -0.02933278 0.0072406963 -0.021287663 -0.1204652 0.0605482 0.05310879 -0.0026757417
00000000: 2d5f 60bd 62eb b0bd 1b54 5d3c e864 25bd
00000010: ffe7 57bd 8472 09bc 5f3f 69bc 2394 6a3e
00000020: ca63 c93d bd8f 95bd 758c 6d3d 9741 d1bc
00000030: 97c8 0e3d b055 33be 8700 1f3d 435b 1abd
00000040: 8b37 8b3d 1e53 503d 45a5 ef3d 4f38 2fbe
00000050: 448a 8fbd 429c bf3c 5234 c8bd b541 be3e
00000060: fe1c a53d 7ab8 623d 5b7f b13c 6dfd 62bd
00000070: 5b62 783e ddc3 b13d 02d0 bd3d 58f6 3a3e
00000080: c754 4d3c b3aa aabd aec5 663e 0d72 863d
00000090: 6472 363d f042 c4bc 85ce 86bd 22a2 ac3d
000000a0: 86ff 0d3e 9846 ee3d 3b4e 37be 5f33 413d
000000b0: a86b 323d 45b0 41bb 7f19 703d 9320 9c3e
000000c0: f889 853c e630 78bd 065f 4bbd 5762 acbd
000000d0: bd9e 15bd 0e46 213c 6c2a c5bb 3b15 f53a
000000e0: 865d aabd 0314 813c d0b8 603e e1f4 773d
000000f0: b64b e5bd c8ae 1ebe de67 313c 93d5 27be
00000100: e093 e93c 0ee7 38bd 18b8 bf3d c56d 8a3c
00000110: d9fc 8ebc add5 9dbd c9c9 44bd 64b1 01be
00000120: 15d3 2cbe f965 cdbd dbad 143e aa72 38be
00000130: bf52 acbd 249e 413d 75fd 9fbd 477c 393d
00000140: 9b2d 57bc db42 6fbd f82e 04be dd44 6b3c
00000150: bff6 673c 04c7 2a3e bd5e b53c bf2a b4bd
00000160: 6fb8 9ebc c35f 92be 7137 0b3e b348 033e
00000170: 88ec a13c 20ab 83bd 9894 2cbe 9ba9 dabc
00000180: 3545 7cbd 9604 98bb 1b98 013d c8df 763d
00000190: e6b5 1bbd c461 4fbd b692 b6bd b8a5 4f3b
000001a0: 368c 06be ff6f 7fbd 6a20 06be 199a 0c3e
000001b0: ec91 49bc 5d2a 043e 34bb 44bd f568 213e
000001c0: 1f63 1c3e cb02 8f3d fe8f 083e cc19 373e
000001d0: b874 0bbe 0ee7 b93b 41bc c13d 487e cc3d
000001e0: 926a 93bd d90a cabc 618c 9d3d 53a1 7f3e
000001f0: a6a0 c0bd 3d11 1dbe ca65 a7bd 88bb fbbc
00000200: 9c06 3a3c eb2e e4bc 1f53 9db7 3820 3dbc
00000210: d78a 233e 3e18 8cbd ea81 ac3d cb73 303d
00000220: a499 9dbd b96f 393d 3df0 eb3d 5db8 3c3d
00000230: 8345 383e 1f23 a63b a7c6 a93d ba76 6b3e
00000240: 1fe4 84bd 8503 dabd eb61 75bd deb1 b1bd
00000250: 1e3e f3bd d667 10be dc00 04bb 8195 20bc
00000260: 2479 be3d a7aa cebc 49c9 b2bd 1a6f 9ebd
00000270: be51 13be a6fe 8a3d 679d 90bd 1ea2 d7bc
00000280: 88b6 8abd 8eaf 4c3e e1b7 3bbd 415a c83c
00000290: aafe ba3d 37fe 4abd d293 d43d 7227 cf3c
000002a0: d92a 8b3d c65f c93d c609 a13d 88d0 90bd
000002b0: 81d4 16bc 6fb1 3c3d 7d0a dd3d bdfc c4bd
000002c0: 1ddf 8d3d f47a 933d 2310 513c b6d3 853d
000002d0: a1e3 a8bd a7cb ab3c ce3d 80bc d9dd 0ebe
000002e0: 5726 2d3d 6f97 143e 0004 babd 6728 4bbe
000002f0: 4b7e 4cbd 5253 ab3c 0a4e 3a3e fbc3 ed3d
00000300: d190 0ebd 3c70 adbd 72b1 0f3e 8eef e43c
00000310: fd19 973d 7a8d c23c c801 943d 3d1d 853c
00000320: cee5 85bd 9101 3e3e 03aa b33d 45f6 4fbd
00000330: f509 28bd 8001 8bbd 1c93 753b d10c 4d3d
00000340: 7642 29bc e709 913c 5acc 903d bcbf 47bd
00000350: b48c d6bd e84a 9dbd 159e fcbc 9e09 8dbd
00000360: 496e 373c c489 d23d 0e7c d73d 8826 41bd
00000370: 5bb2 ffbc 7870 163d 1ced f93d c6c5 4bbe
00000380: e9e1 81bd 79c0 31be ce95 283e df56 0cbe
00000390: 1514 6d3c 063f febd e9f4 c53d ada5 c8bc
000003a0: 762e 313d e241 dbbc 4739 983d 1a0c 303c
000003b0: 39a5 733e c8a2 22bd 9204 3a3d f4b5 bebd
000003c0: ab69 96bd ade4 233e de69 41bd 39df 843d
000003d0: 3563 99bd fa5f 433e 5904 093d 1ab3 b13d
000003e0: 5c49 7bbd 4c4b f0bc 5d43 ed3b 7763 aebc
000003f0: 75b6 f6bd 6401 783d 9a88 593d 7f5b 2fbb

l3/b f4 [256]
0.05948334 0.00885052 -0.03320238 -0.005385062 0.00023367733 0.041885216 0.008117202 0.0012606179
0.019514091 0.01837964 0.09817156 -0.024321733 0.010163679 -0.005021379 0.03328325 -0.028529534
0.033931684 -0.010877531 -0.020210935 -0.026155196 0.008890697 0.03609133 0.023314849 0.0025421365
0.021844847 0.024315432 0.022122344 0.006209546 -0.018602958 0.027014388 -0.015409044 -0.0031101436
0.030779224 0.032588895 0.015367422 -0.023555469 0.079847865 0.04798655 -0.021590993 -0.053013977
0.02179699 0.012084643 -0.002972772 0.025778152 0.025624197 0.0554646 0.03089169 -0.055393286
-0.03989217 -0.014152391 -0.031995125 -0.02683419 0.048998844 0.015763728 -0.017450767 0.027791837
0.03717442 0.047930352 -0.033306655 -0.008189466 -0.05275468 -0.038721252 -0.0053661196 0.08048371
0.057262022 -0.05645298 0.017069241 -0.036110546 -0.046893883 -0.028450234 0.011025676 -0.024757607
-0.024477674 -0.021938277 -7.954013e-05 -0.00893587 0.031653997 0.0742261 -0.03383716 -0.0051422305
-0.01645238 -0.03693666 -0.010622218 -0.0040136822 -0.036626536 0.011417445 -0.0137003455 -0.019890003
-0.0284017 -0.026319338 0.016348882 -0.007193908 0.007436101 -0.03458068 0.035287388 -0.017267305
-0.012858326 0.07729218 -0.012994859 0.08408048 -0.043846596 -0.1208692 0.038316518 -0.0062881596
-0.04489196 -0.0022377076 0.083800495 0.016779218 -0.045866683 -0.02398687 0.09629273 -0.0010342201
0.01935422 -0.09866878 0.045115415 0.019925278 -0.056240845 -0.02403165 -0.027962806 0.073016495
0.0062518683 0.058502097 0.010608872 0.0058597242 -0.06483477 -0.01733326 -0.02105283 -0.00857193
0.124056935 -0.060391396 -0.03266791 0.013479905 0.0121023785 0.01118174 0.03742258 -0.010103822
-0.07469027 -0.027259035 0.030318508 -8.722637e-05 -0.03517644 -0.047331795 -0.014975879 0.015340773
0.059053514 -0.04992102 -0.013067985 -0.030481743 0.043675996 -0.009752153 -0.013118643 0.025578769
0.007449381 -0.0345724 -0.018093899 -0.024518067 -0.04477644 0.038454004 0.09792916 -0.026886212
0.01277909 0.0069550504 -0.0054682074 -0.0060813 0.0019633246 -0.019551659 0.09077822 0.077551834
0.0056584678 -0.023996096 0.050186727 0.06258493 0.02738881 -0.016846547 -0.02557828 -0.04251803
0.04316937 0.010051749 -0.011650407 0.023258824 -0.044312123 0.06271521 -0.0009755344 -0.020228997
0.012458832 0.010550805 -0.026728094 0.0067973556 -0.0033402168 0.069215916 -0.01458413 -0.00040838143
-0.020993464 -0.049211226 0.04642174 0.009573947 -0.03536983 0.011446754 -0.034009248 -0.008462468
-0.014331569 -0.032904457 0.059122737 -0.008723375 0.0009283237 0.02183069 -0.023233132 -0.022726096
-0.019637266 -0.0037795196 0.07952781 -0.065194614 -0.029321518 -0.03620264 0.042982712 0.006489101
0.016471837 0.00042894774 0.0086416695 -0.011712066 -0.010885654 -0.023581272 -0.005911403 0.026031213
-0.015976684 -0.02260326 -0.080153316 -0.02216625 -0.0072402544 0.09387554 0.047464743 -0.01844916
-0.0080740815 0.050392654 -0.0059726285 0.013090662 -0.004497541 0.0038713953 -0.004579621 0.01908145
0.04321695 -0.0054855137 -0.031347323 0.002951282 -0.0028924118 0.011824686 0.030035667 0.038613617
0.060384773 -0.016690914 -0.044332374 -0.01221168 0.03915441 -0.04173529 -0.005543427 0.011750448
00000000: cda4 733d c501 113c 38ff 07bd 2d75 b0bb
00000010: 4807 7539 d58f 2b3d 03fe 043c 513b a53a
00000020: 04dc 9f3c e690 963c 2c0e c93d 5f3e c7bc
00000030: 8f85 263c 618a a4bb 0454 083d c5b6 e9bc
00000040: f3fb 0a3d ac37 32bc 6791 a5bc 6c43 d6bc
00000050: 49aa 113c 81d4 133d c8fe be3c f999 263b
00000060: f7f3 b23c 2831 c73c eb39 b53c 7279 cb3b
00000070: 3b65 98bc 474d dd3c 3776 7cbc 8dd3 4bbb
00000080: b624 fc3c ef7b 053d a4c7 7b3c 66f7 c0bc
00000090: 4787 a33d 8b8d 443d 98df b0bc 2f25 59bd
000000a0: 9a8f b23c abfe 453c d7d2 42bb b42c d33c
000000b0: d6e9 d13c d92e 633d 9210 fd3c 12e4 62bd
000000c0: f965 23bd 6edf 67bc 520d 03bd 60d3 dbbc
000000d0: 03b3 483d ef22 813c e9f4 8ebc b5ab e33c
000000e0: 3444 183d 9e52 443d 8f6c 08bd 1c2d 06bc
000000f0: 4b15 58bd 2d9a 1ebd 46d6 afbb a5d4 a43d
00000100: 958b 6a3d 3d3b 67bd cbd4 8b3c a7e8 13bd
00000110: cd13 40bd 7710 e9bc 09a5 343c 77d0 cabc
00000120: 6785 c8bc e7b7 b3bc c8ce a6b8 c167 12bc
00000130: 9fa7 013d db03 983d d598 0abd 2880 a8bb
00000140: 24c7 86bc e54a 17bd d008 2ebc 3585 83bb
00000150: b505 16bd 3c10 3b3c 6a77 60bc 5cf0 a2bc
00000160: afaa e8bc a79b d7bc 17ee 853c e0ba ebbb
00000170: 89aa f33b 79a4 0dbd 8289 103d 2a74 8dbc
00000180: baab 52bc 5d4b 9e3d 64e8 54bc 6332 ac3d
00000190: 7d98 33bd 458a f7bd c8f1 1c3d e80c cebb
000001a0: a2e0 37bd 81a6 12bb 989f ab3d 9274 893c
000001b0: b4de 3bbd 1d80 c4bc 1f35 c53d ab8e 87ba
000001c0: be8c 9e3c db12 cabd f1ca 383d 563a a33c
000001d0: cd5c 66bd 06de c4bc 4112 e5bc ac89 953d
000001e0: 79dc cc3b e59f 6f3d d6d0 2d3c ee02 c03b
000001f0: 18c8 84bd 7bfe 8dbc fc76 acbc 4871 0cbc
00000200: 9011 fe3d f85c 77bd c9ce 05bd d2da 5c3c
00000210: 0e49 463c 9e33 373c 6b48 193d 808a 25bc
00000220: 36f7 98bd 574e dfbc 855e f83c 4ded b6b8
00000230: 2c15 10bd fcde 41bd 645d 75bc de57 7b3c
00000240: 19e2 713d fc79 4cbd 1a1b 56bc d9b4 f9bc
00000250: 9ae5 323d 7fc7 1fbc 94ef 56bc 918a d13c
00000260: f019 f43b ca9b 0dbd a839 94bc 1dda c8bc
00000270: 8067 37bd f281 1d3d 158f c83d 7940 dcbc
00000280: 635f 513c 31e7 e33b a62e b3bb a445 c7bb
00000290: 1fab 003b cd2a a0bc eee9 b93d 7fd3 9e3d
000002a0: ab6a b93b 7693 c4bc 9990 4d3d 872c 803d
000002b0: 7f5e e03c c501 8abc 8b89 d1bc 6327 2ebd
000002c0: 5ed2 303d 17b0 243c 59e1 3ebc 4a89 be3c
000002d0: a180 35bd d570 803d 01bb 7fba 48b7 a5bc
000002e0: 2120 4c3c 49dd 2c3c e0f4 dabc 5abc de3b
000002f0: 8ae7 5abb 13c1 8d3d 46f2 6ebc 071c d6b9
00000300: 7cfa abbc b691 49bd b924 3e3d 0bdc 1c3c
00000310: f4df 10bd 2b8b 3b3c 484d 0bbd 2aa6 0abc
00000320: f5ce 6abc d3c6 06bd af2a 723d 7dec 0ebc
00000330: c05a 733a 46d6 b23c 6953 bebc 142c babc
00000340: 55de a0bc d1b1 77bb 7adf a23d c184 85bd
00000350: ae33 f0bc 3849 14bd a40e 303d 86a2 d43b
00000360: f2ef 863c 64e4 e039 ca95 0d3c f7e3 3fbc
00000370: be59 32bc 832d c1bc 71b4 c1bb 693f d53c
00000380: 89e1 82bc 792a b9bc 6c27 a4bd ff95 b5bc
00000390: a83f edbb d241 c03d 646a 423d b122 97bc
000003a0: 2749 04bc 8768 4e3d 0ab6 c3bb 377a 563c
000003b0: 1c60 93bb 3cb7 7d3b a510 96bb b350 9c3c
000003c0: 4204 313d d3bf b3bb 0d66 00bd 4c6a 413b
000003d0: 9e8e 3dbb 54bc 413c 5c0d f63c 5029 1e3d
000003e0: 0656 773d 62bb 88bc dd95 35bd 8013 48bc
000003f0: 6060 203d a0f2 2abd a3a5 b5bb f384 403c

l3/W f4 [256, 256]
-0.005034668 0.042340215 -0.03822643 0.09814498 -0.0019865423 -0.07524601 0.026678897 0.06914721
0.040166784 0.0016764991 0.058606204 -0.06597112 -0.16744614 0.032570723 0.059513792 0.1118324
-0.06427435 0.068473086 0.09715 0.0049546943 0.04726438 -0.0024704114 -0.10956859 -0.055612836
0.0024405997 -0.13789113 -0.0060941176 -0.027563768 0.04353064 -0.15372661 0.08587215 0.067404404
0.1498983 -0.06039792 -0.030373506 0.039834496 -0.12474718 0.048255432 -0.013866908 -0.08076635
-0.10912101 0.08848169 -0.0034084092 0.038186178 0.15116513 -0.0980292 -0.05706209 0.013512323
0.13981129 0.011748407 0.09201058 -0.07234363 -0.0606087 -0.070043385 0.007763719 0.08488628
-0.18897548 -0.0010276459 -0.071874484 0.0034745568 -0.03644075 0.07977466 0.014952472 -0.19435446
0.05905247 0.0110318875 -0.02421334 0.116151236 0.008102629 -0.07011429 -0.088758856 -0.054163177
0.10787812 -0.07042775 -0.17366028 0.01016946 -0.030977646 -0.17381053 -0.07998429 0.010799755
0.17645463 0.10712104 -0.08972997 -0.04353123 0.042575955 0.036009848 0.1309442 0.07100668
0.09822892 -0.02268609 0.016481176 0.124204256 0.060237035 0.07630914 -0.095645815 -0.12556437
0.09968149 -0.16196373 -0.1302799 0.057169072 -0.0303568 -0.023801327 -0.024635615 0.009363445
0.07998574 -0.02588136 -0.1251182 -0.0069433907 -0.09207081 -0.1452173 -0.28195295 -0.049988385
0.1537341 0.10902825 -0.112237476 -0.0017866374 0.067592636 0.052726608 0.054256935 0.06925319
-0.06604094 0.058943365 0.08674409 0.040203877 -0.0355895 -0.09622364 0.037115797 0.009257611
0.0026865846 0.027196227 -0.11796994 0.10240886 0.04360436 0.14905085 0.13751756 -0.09590863
-0.0895374 -0.106019035 -0.16154541 0.014037406 0.027527127 -0.03926444 0.18204664 0.036647677
-0.0012544827 0.039123174 -0.066395976 -0.036690604 0.046065725 -0.078439154 0.030151954 -0.010463185
0.017551716 0.058649372 -0.20693657 0.0046839197 -0.08271911 -0.09914581 -0.07565884 -0.01782713
0.003625935 -0.028549522 0.18384852 -0.041735623 -0.018811943 0.10152254 0.19024502 -0.07252534
0.020621574 0.19456753 0.09238611 -0.04890578 -0.0766657 0.02577518 0.10868434 0.040406395
-0.12553538 0.050059814 0.05368888 -0.16715659 0.2234788 0.25883347 -0.08943867 -0.10950776
-0.024135454 -0.09402814 -0.08241367 -0.10675323 0.007072259 0.009539085 0.032796953 0.06439785
-0.06838416 -0.031411055 0.07184928 -0.05783086 -0.017341837 -0.09168116 0.11740526 0.0060257297
0.012742438 -0.13849227 0.03253384 0.13418971 -0.079184115 0.06667374 -0.04490611 0.009958431
-0.046807922 -0.019052615 -0.03413767 -0.021497034 -0.11653226 0.101519026 -0.04854423 0.058083355
-0.041092504 0.012304208 0.10538435 -0.13091001 0.11734982 0.11111913 -0.1835486 -0.019360708
0.07945144 0.08127969 0.044359718 -0.08928281 0.09855614 -0.17693515 0.009004893 -0.027272664
-0.037863113 -0.094478585 0.099858075 0.0058246385 -0.093013346 -0.003559752 0.08310115 -0.010562582
-0.11113052 -0.009798555 -0.066040814 0.05136326 0.07751123 0.14598364 -0.0005636378 0.13418321
-0.21273911 -0.057038948 -0.019057563 0.067414984 0.09276644 0.13272314 0.063058615 0.037241198
00000000: dbf9 a4bb ef6c 2d3d 5193 1cbd 3c00 c93d
00000010: a630 02bb 951a 9abd b48d da3c 0d9d 8d3d
00000020: ed85 243d fabd db3a 0f0d 703d de1b 87bd
00000030: 0077 2bbe e168 053d bcc4 733d 6308 e53d
00000040: 45a2 83bd 9e3b 8c3d 94f6 c63d fd5a a23b
00000050: 4b98 413d a0e6 21bb 7f65 e0bd 49ca 63bd
00000060: 78f2 1f3b 5533 0dbe 2ab1 c7bb 69cd e1bc
00000070: 2f4d 323d 826a 1dbe bddd af3d 520b 8a3d
00000080: f17e 193e cf63 77bd dcd1 f8bc 7f29 233d
00000090: 737b ffbd 7da7 453d 0732 63bc d468 a5bd
000000a0: d67a dfbd e335 b53d 9e5f 5fbb 1c69 1c3d
000000b0: 08cb 1a3e 89c3 c8bd f0b9 69bd ca62 5d3c
000000c0: b12a 0f3e 647c 403c 0b70 bc3d e628 94bd
000000d0: d440 78bd e872 8fbd cc66 fe3b dcd8 ad3d
000000e0: ca82 41be 13b2 86ba ee32 93bd 64b5 633b
000000f0: e542 15bd e660 a33d 37fb 743c db04 47be
00000100: 01e1 713d 17bf 343c 0e5b c6bc b3e0 ed3d
00000110: e4c0 043c 1598 8fbd 34c7 b5bd 35da 5dbd
00000120: 34ef dc3d 6d3c 90bd 00d4 31be cf9d 263c
00000130: d5c4 fdbc 63fb 31be cece a3bd 75f1 303c
00000140: 86b0 343e 4762 db3d 59c4 b7bd ce4d 32bd
00000150: 2064 2e3d 107f 133d 3d16 063e f36b 913d
00000160: 3e2c c93d 2ed8 b9bc 8803 873c cd5e fe3d
00000170: 1cbb 763d f747 9c3d f4e1 c3bd f293 00be
00000180: cf25 cc3d d2d9 25be 1868 05be 1e2a 6a3d
00000190: d3ae f8bc 00fb c2bc a1d0 c9bc 2369 193c
000001a0: 90cf a33d 2505 d4bc fc1e 00be 6285 e3bb
000001b0: 9f8f bcbd d8b3 14be 235c 90be 9fc0 4cbd
000001c0: 796c 1d3e 344a df3d c3dc e5bd 9a2d eaba
000001d0: 026e 8a3d dbf7 573d 853c 5e3d 9ed4 8d3d
000001e0: 7940 87bd 996e 713d e3a6 b13d d2ac 243d
000001f0: 4cc6 11bd e610 c5bd bc06 183d 3cad 173c
00000200: 6911 303b 9fca de3c 399a f1bd bdbb d13d
00000210: 7c9a 323d c9a0 183e 67d1 0c3e be6b c4bd
00000220: 625f b7bd 8220 d9bd 296c 25be 26fd 653c
00000230: 9280 e13c c0d3 20bd 6f6a 3a3e e01b 163d
00000240: 746d a4ba 9f3f 203d 9dfa 87bd e348 16bd
00000250: 6aaf 3c3d b5a4 a0bd 3b01 f73c c76d 2bbc
00000260: 9ec8 8f3c 533a 703d 2ee7 53be 917b 993b
00000270: a368 a9bd f50c cbbd 06f3 9abd 340a 92bc
00000280: 18a1 6d3b b0e0 e9bc c942 3c3e f9f2 2abd
00000290: 811b 9abc 0deb cf3d 97cf 423e 2a88 94bd
000002a0: 93ee a83c b63c 473e ee34 bd3d 6d51 48bd
000002b0: e802 9dbd 7826 d33c e595 de3d 2d81 253d
000002c0: 598c 00be 850b 4d3d dfe8 5b3d 192b 2bbe
000002d0: a0d7 643e d285 843e 9f2b b7bd 9b45 e0bd
000002e0: b7b7 c5bc d391 c0bd 80c8 a8bd 70a1 dabd
000002f0: 69be e73b d349 1c3c 1956 063d 05e3 833d
00000300: ff0c 8cbd e1a8 00bd b725 933d 0de0 6cbd
00000310: 7810 8ebc 55c3 bbbd 2b72 f03d 7c73 c53b
00000320: a9c5 503c ebd0 0dbe 3442 053d 0769 093e
00000330: 482b a2bd 3e8c 883d 78ef 37bd b028 233c
00000340: aab9 3fbd 3b14 9cbc f1d3 0bbd 8c1a b0bc
00000350: 77a8 eebd 35e9 cf3d 51d6 46bd d0e8 6d3d
00000360: 9d50 28bd 9797 493c c0d3 d73d 460d 06be
00000370: 1a55 f03d 6d92 e33d 2af4 3bbe 599a 9ebc
00000380: 70b7 a23d f775 a63d 89b2 353d e8d9 b6bd
00000390: cdd7 c93d 7d2e 35be 4289 133c ec6a dfbc
000003a0: 5a16 1bbd fd7d c1bd 6482 cc3d 9cdc be3b
000003b0: c87d bebd ba4a 69bb f030 aa3d ae0e 2dbc
000003c0: 6698 e3bd 1e8a 20bc 6840 87bd 4862 523d
000003d0: 35be 9e3d bc7c 153e 18c1 13ba 5367 093e
000003e0: 48d8 59be aca1 69bd 9b1e 9cbc de10 8a3d
000003f0: 55fc bd3d 93e8 073e e024 813d 3a8a 183d

l1/b f4 [256]
0.005365233 -0.08648586 -0.015905278 0.02075775 8.064993e-05 0.009501839 0.00944373 0.0009841081
-0.0041049803 -0.050474655 -0.051282413 -0.0069152806 -0.0021266614 -0.19653521 0.04502036 -0.025825089
-0.03428625 -0.04179258 0.024428574 -0.0888079 0.029695703 -0.1268634 0.00256885 0.06913331
0.024562951 0.030988563 -0.009042399 -0.061042868 0.0072808815 0.047212876 0.030484043 0.044775754
0.015279159 0.00016970155 -0.021451497 0.0042468132 -0.029162662 0.03920627 -0.07686228 -0.026402118
-0.07962975 0.030567665 0.02004704 -0.10351799 0.030947592 -0.06690158 0.007923946 -0.03134131
0.09796807 -0.0012953706 0.0007123816 -0.04261251 -0.05591796 0.020295084 0.006825151 0.07060667
-0.07303966 0.0101515185 0.046659548 -0.13558434 0.0064668497 0.010158871 0.021489786 -0.10581311
-0.0062071267 0.0434091 -0.013181939 0.04981359 -0.22468995 -0.024866087 0.009668428 0.03677104
-0.015651729 -0.013450396 0.044246376 0.048805 0.034166068 -0.124774806 0.02953061 -0.10077868
0.03261169 -0.016194467 -0.04089206 0.08290711 0.053428024 0.030467087 0.041713502 -0.105376594
0.070978135 -0.0117615275 -0.0036561366 -0.015540195 0.002544996 0.045505803 -0.009310789 0.0026891776
-0.09829719 0.051264517 0.04035147 0.035790965 0.041627195 -0.06515864 -0.18155202 0.0065259757
-0.006433012 -0.0076373764 0.023882266 -0.021173883 0.0021958684 0.035074305 0.04085089 0.06799722
-0.091981575 -0.020727104 -0.014760668 0.072045624 -0.023692843 -0.0444773 -0.012158416 -0.07837826
0.0018040595 0.039666858 0.027346624 -0.039903477 -0.091555305 0.0350981 0.003961759 -0.15130891
-0.05151094 -0.02881695 0.0033482793 -0.083658084 0.0015398725 -0.04695808 -0.00095841475 0.023604758
0.0017825478 -0.074678734 -0.0053889537 -0.0031820505 0.0022762648 -0.008385979 0.026633685 0.03145921
0.04623408 -0.018590027 0.043061107 -0.08748028 -0.088208266 0.008527239 -0.05077151 -0.005785849
-0.104986355 -0.021659419 0.028907593 -0.017812632 -0.110597074 0.0069150133 -0.13381384 -0.020485504
-0.15256998 0.01170481 0.026615683 0.04960747 0.04100918 0.032394018 0.036224894 0.013441229
-0.018676907 0.047816876 -0.041207228 -0.1078837 -0.0071921325 0.062984936 0.027995462 -0.059105717
0.0086386865 0.0 0.0001970532 -0.010534036 0.047515105 -0.16010281 0.009967734 -0.04718508
-0.013928083 0.06059991 -0.046970103 0.018392494 -0.050906617 -0.0879493 -0.09477283 0.029105373
0.050532773 -0.00448893 0.008669705 -0.079932205 0.019825645 -0.054364055 0.020175854 0.027910298
-0.030849496 -0.07282739 0.1003409 -0.029645894 -0.11501769 -0.040256735 0.011160468 0.027952887
0.019272897 -0.061603963 -0.003460875 0.028008543 0.000660419 0.06653061 0.022477264 -0.03778441
-0.07157186 0.017883979 0.032264717 0.014421467 0.001314545 0.00016757722 0.025936363 -0.0919081
-0.04189996 0.0020739718 -0.12899607 0.008017169 -0.023437064 0.010991507 0.007360795 0.021854803
-0.023779217 -0.008999202 -0.019283824 0.0022129975 -0.024004059 -0.039486468 0.03776424 0.0029546998
0.07444162 0.027951913 -0.0142217055 -0.06303299 0.014890249 -0.07782731 0.03438259 -0.04717475
-0.025723768 -0.021738274 -0.15688466 -0.039491486 -0.009129375 0.03927795 -0.0032021187 0.025904287
00000000: d6ce af3b 801f b1bd c94b 82bc 280c aa3c
00000010: 9a22 a938 9aad 1b3c e0b9 1a3c 30fd 803a
00000020: 1283 86bb 83be 4ebd 820d 52bd 9499 e2bb
00000030: 755f 0bbb 8740 49be 4567 383d 238f d3bc
00000040: bd6f 0cbd b22e 2bbd 6f1e c83c ebe0 b5bd
00000050: 6744 f33c 7be8 01be 275a 283b c495 8d3d
00000060: 3e38 c93c badb fd3c 9226 14bc 1608 7abd
00000070: 7694 ee3b 4a62 413d acb9 f93c c866 373d
00000080: 7055 7a3c eaf1 3139 0dbb afbc da28 8b3b
00000090: 89e6 eebc c196 203d f969 9dbd 4149 d8bc
000000a0: ec14 a3bd 0a69 fa3c b139 a43c 3d01 d4bd
000000b0: ce85 fd3c b203 89bd 70d3 013c bf5f 00bd
000000c0: 7ca3 c83d 6dc9 a9ba 1fbf 3a3a 758a 2ebd
000000d0: 3b0a 65bd e041 a63c 84a5 df3b 3b9a 903d
000000e0: d195 95bd 8e52 263c 151e 3f3d 9fd6 0abe
000000f0: dee7 d33b 6571 263c 590b b03c 8bb4 d8bd
00000100: 2765 cbbb becd 313d 0ff9 57bc 5609 4c3d
00000110: 1f15 66be f7b3 cbbc 5468 1e3c 3b9d 163d
00000120: 0e38 80bc 0d5f 5cbc b03b 353d c0e7 473d
00000130: b8f1 0b3d ef89 ffbd 2eea f13c 0d65 cebd
00000140: d693 053d 42aa 84bc 6f7e 27bd 34cb a93d
00000150: 58d7 5a3d 1d96 f93c c7db 2a3d afcf d7bd
00000160: fc5c 913d 6cb3 40bc cb9b 6fbb 4d9c 7ebc
00000170: f3c9 263b 4b64 3a3d 488c 18bc ea3c 303b
00000180: 0a50 c9bd befa 513d 9547 253d 8c99 123d
00000190: 4781 2a3d e571 85bd c6e8 39be dad7 d53b
000001a0: 04cc d2bb f542 fabb bea4 c33c da74 adbc
000001b0: 8fe8 0f3b 13aa 0f3d 4353 273d 2042 8b3d
000001c0: d660 bcbd e3cb a9bc bbd6 71bc a88c 933d
000001d0: 7e17 c2bc d42d 36bd 1834 47bc c884 a0bd
000001e0: 3176 ec3a b779 223d 0706 e03c d471 23bd
000001f0: 5981 bbbd 06c3 0f3d a5d1 813b b9f0 1abe
00000200: 23fd 52bd 8611 ecbc ce6e 5b3b ee54 abbd
00000210: 8cd5 c93a 1e57 40bd 203e 7bba c45e c13c
00000220: 61a4 e93a 2af1 98bd d295 b0bb f389 50bb
00000230: 632d 153b 5865 09bc e32e da3c 5fdb 003d
00000240: f25f 3d3d 1d4a 98bc d860 303d dc28 b3bd
00000250: 89a6 b4bd d5b5 0b3c c9f5 4fbd 3897 bdbb
00000260: 1603 d7bd 186f b1bc 9ecf ec3c cceb 91bc
00000270: b880 e2bd 5697 e23b 7f06 09be 37d1 a7bc
00000280: 4e3b 1cbe 88c5 3f3c 2209 da3c 3431 4b3d
00000290: 3ef9 273d 97af 043d 8e60 143d 9a38 5c3c
000002a0: 5000 99bc a1db 433d e9c8 28bd 21f2 dcbd
000002b0: fbab ebbb 3ffe 803d bd56 e53c d618 72bd
000002c0: 4789 0d3c 0000 0000 11a0 4e39 f396 2cbc
000002d0: 339f 423d fef1 23be b54f 233c 2445 41bd
000002e0: 9d32 64bc 9c37 783d b963 40bd dbab 963c
000002f0: 7583 50bd c31e b4bd 4218 c2bd 646e ee3c
00000300: 74fb 4e3d e017 93bb 610b 0e3c 7fb3 a3bd
00000310: 6469 a23c d8ac 5ebd d547 a53c 23a4 e43c
00000320: 15b8 fcbc 8726 95bd 887f cd3d f2db f2bc
00000330: 658e ebbd 3fe4 24bd 65da 363c 74fd e43c
00000340: 32e2 9d3c 7054 7cbd d9cf 62bb 2c72 e53c
00000350: f81f 2d3a 3341 883d 3d22 b83c d3c3 1abd
00000360: 4494 92bd 6c81 923c 0228 043d 0448 6c3c
00000370: d04c ac3a abb7 2f39 7f78 d43c 503a bcbd
00000380: 4b9f 2bbd 79eb 073b 8c17 04be 725a 033c
00000390: 16ff bfbc b915 343c d332 f13b d808 b33c
000003a0: a2cc c2bc 6471 13bc 1cf9 9dbc f007 113b
000003b0: 29a4 c4bc 90bc 21bd adae 1a3d a3a3 413b
000003c0: d974 983d 69fb e43c 2802 69bc 7117 81bd
000003d0: 3bf6 733c ed63 9fbd c2d4 0c3d 503a 41bd
000003e0: a7ba d2bc 7714 b2bc 5fa6 20be d3c1 21bd
000003f0: 6093 15bc eae1 203d a3da 51bb 3a35 d43c

l1/W f4 [256, 16]
0.525896 -0.10761012 0.12974112 -0.10997246 0.5057609 -0.012881899 -1.0980889 0.70624495
-0.39997286 0.36019266 0.086735226 -0.8172593 0.22366129 -0.073620744 0.5443864 0.31547704
-0.20467447 0.59570915 -0.14138548 0.3404423 0.7535689 -0.20908813 0.5165629 0.19819763
-0.5217874 0.4473744 0.46029472 -0.2692697 -0.06746662 0.15570273 -0.19477682 -0.35722917
0.3161321 0.060476568 -0.088347256 0.26695934 0.077748254 -0.54380447 0.111509494 0.055014685
-0.7056067 0.41819882 -0.23473862 0.19103582 0.53965586 0.08727518 0.046832252 0.17050454
-0.5335093 0.106812686 -0.4434358 0.24657395 -0.3755512 -0.4321606 0.39828637 0.93108577
0.38860998 -0.43881863 0.09914543 -0.034171823 -0.16794947 -0.45055014 0.12628955 0.5411363
-0.03129772 -0.027495857 0.70190775 0.31147087 0.17679283 0.10201956 0.18437968 0.20928141
-0.29135638 -0.14019625 -0.5057603 -0.5508303 0.18461119 0.10359007 -0.5247366 0.19335373
0.5317128 -0.32967442 0.033511516 0.06799764 -0.12802173 -0.60995793 0.281351 -0.35149467
-0.06395886 -0.006630799 -0.26705486 -0.37511382 -0.09385874 -0.122037165 -0.3426249 0.021760032
-0.87281907 -0.37160602 -0.09748266 0.24124369 0.1751082 -0.44229656 -0.19938639 -0.018973397
0.059294216 0.66472703 0.51121837 -0.48195368 -0.13959146 0.12413544 -0.1209889 0.0019890775
0.10565935 0.11871821 0.54672694 -0.7970308 0.408465 0.23321249 -0.4505091 -0.09606975
-0.42159018 0.10688961 -0.3907891 0.09984633 0.46313334 -0.46302912 0.11904734 0.2856823
0.070621766 0.34699932 -0.21845095 0.40083605 0.19055322 0.26720625 0.039202306 0.06788945
-0.092905976 -0.2606383 -0.44901192 -0.18110326 -0.6169172 -0.29841238 -0.11040241 -0.05573573
0.31437528 0.37535122 0.61315155 0.0280787 -0.23965548 -0.3420745 0.9000683 -0.28560227
-0.4245893 0.3967391 -0.13885778 -0.15593876 -0.9218925 -0.13250042 0.6024402 -0.022506244
-0.09016725 0.28370607 0.14194164 -0.053770263 -0.7717895 0.67042494 -0.37970608 0.30653965
0.1558791 -0.5154935 0.35205433 -0.16025458 -0.60649234 0.39798263 0.038095333 0.17293549
-0.21243902 -0.37052667 0.35209164 -0.61564475 -0.36139777 -0.32670403 -0.8388185 -0.045716316
-0.23060274 -0.6197695 0.5883939 0.32184446 -0.23805332 -0.3314467 -0.38751364 -0.0059179096
-0.1364979 0.23377728 -0.28351048 0.48139703 -0.2054211 -0.10057812 0.264732 -0.5198472
-0.3934472 -0.5195947 0.27581817 -0.34207544 0.04655001 0.0031780903 -0.27946404 0.6303809
-0.0052424986 0.16706002 -0.41115847 0.17723104 0.90381366 -0.13436234 -0.20722026 0.015442556
0.08866349 0.0618948 0.36788774 -0.13338737 0.18435188 -0.01647057 0.4564664 -0.00661918
-0.59055513 -0.26160446 0.36326498 -0.41128895 -0.14592533 0.20605703 0.011740454 -0.32936358
0.0067553185 -0.060167853 -0.10618832 -0.015387785 -0.3018032 -0.28833562 0.31877017 -0.008255443
0.17868508 -0.41203913 0.2606386 -0.0169382 0.26666033 0.62259245 -0.23384649 0.119650386
-0.15592237 -0.42394328 0.27640712 0.26900598 0.105504915 0.10450083 -0.1288003 -0.35425618
00000000: 1fa1 063f b262 dcbd dbda 043e 3e39 e1bd
00000010: 8c79 013f 9a0e 53bc 2d8e 8cbf 78cc 343f
00000020: 3ec9 ccbe 2c6b b83e 3da2 b13d e837 51bf
00000030: 7707 653e 79c6 96bd e85c 0b3f 3586 a13e
00000040: 2f96 51be 6580 183f 5bc7 10be 744e ae3e
00000050: e4e9 403f 331b 56be 773d 043f 52f4 4a3e
00000060: dc93 05bf 420e e53e c0ab eb3e b8dd 89be
00000070: f02b 8abd 8970 1f3e 9373 47be bee6 b6be
00000080: 11dc a13e 47b6 773d 68ef b4bd e5ae 883e
00000090: 7a3a 9f3d c536 0bbf 175f e43d 1457 613d
000000a0: a4a2 34bf 281e d63e 525f 70be e59e 433e
000000b0: e326 0a3f 54bd b23d 2dd3 3f3d be98 2e3e
000000c0: 1194 08bf 9cc0 da3d 040a e3be e27d 7c3e
000000d0: 3f48 c0be 2744 ddbe 31ec cb3e a35b 6e3f
000000e0: e3f7 c63e d6ac e0be c20c cb3d c1f7 0bbd
000000f0: f2fa 2bbe 82ae e6be 0c52 013e e987 0a3f
00000100: 0a32 00bd fe3e e1bc 3ab0 333f 1c79 9f3e
00000110: 2e09 353e a2ef d03d 07ce 3c3e de4d 563e
00000120: aa2c 95be 9b8f 0fbe 8279 01bf 3703 0dbf
00000130: b70a 3d3e 0827 d43d 2355 06bf 85fe 453e
00000140: 541e 083f 16cb a8be 5f43 093d 5942 8b3d
00000150: 2118 03be 3426 1cbf 3d0d 903e 1cf7 b3be
00000160: ddfc 82bd 2c47 d9bb 6abb 88be eb0e c0be
00000170: 0339 c0bd 9fee f9bd 886c afbe 1842 b23c
00000180: 1271 5fbf 2543 bebe fda4 c7bd 9608 773e
00000190: 904f 333e b274 e2be f22b 4cbe 196e 9bbc
000001a0: 7ede 723d 8d2b 2a3f 35df 023f a2c2 f6be
000001b0: 10f1 0ebe b93a fe3d 07c9 f7bd 2f5b 023b
000001c0: ee63 d83d 8822 f33d 4cf6 0b3f 360a 4cbf
000001d0: 5322 d13e 41cf 6e3e 21a9 e6be 38c0 c4bd
000001e0: abda d7be f1e8 da3d 8215 c8be 3c7c cc3d
000001f0: d01f ed3e 2712 edbe 17cf f33d f344 923e
00000200: 25a2 903d e5a9 b13e 9bb1 5fbe 623a cd3e
00000210: 6220 433e 42cf 883e 9992 203d a009 8b3d
00000220: 7d45 bebd 6272 85be e4e4 e5be 2273 39be
00000230: 49ee 1dbf 82c9 98be a91a e2bd 264b 64bd
00000240: ccf5 a03e 092e c03e 80f7 1c3f 4d05 e63c
00000250: 3f68 75be 6424 afbe e06a 663f 763a 92be
00000260: c563 d9be 6321 cb3e bc30 0ebe 69ae 1fbe
00000270: 2601 6cbf 31ae 07be 8539 1a3f 045f b8bc
00000280: 9ba9 b8bd ec41 913e 2659 113e 353e 5cbd
00000290: ff93 45bf f8a0 2b3f d668 c2be c4f2 9c3e
000002a0: c59e 1f3e 62f7 03bf 7740 b43e c719 24be
000002b0: 1543 1bbf 61c4 cb3e da09 1c3d 0016 313e
000002c0: 9d89 59be acb5 bdbe 5b45 b43e e59a 1dbf
000002d0: 2109 b9be c045 a7be cfbc 56bf 0841 3bbd
000002e0: 2023 6cbe 37a9 1ebf fca0 163f ccc8 a43e
000002f0: 40c4 73be 62b3 a9be 3068 c6be 06eb c1bb
00000300: 1bc6 0bbe 5063 6f3e 4928 91be ac79 f63e
00000310: e959 52be e7fb cdbd f48a 873e b514 05bf
00000320: e971 c9be 2904 05bf 0a38 8d3e 8324 afbe
00000330: 39ab 3e3d 8247 503b e915 8fbe a560 213f
00000340: 44c9 abbb c811 2b3e 5d83 d2be 0e7c 353e
00000350: 5560 673f 4896 09be 8c31 54be c602 7d3c
00000360: 3495 b53d 6785 7d3d c85b bc3e b396 08be
00000370: bdc6 3c3e 4aed 86bc f7b5 e93e b5e5 d8bb
00000380: 9f2e 17bf 05f1 85be defd b93e 7794 d2be
00000390: 736d 15be 9d00 533e 085b 403c 58a2 a8be
000003a0: b85b dd3b 9172 76bd 4379 d9bd 0c1d 7cbc
000003b0: f385 9abe baa0 93be d835 a33e d641 07bc
000003c0: 39f9 363e cbf6 d2be 6c72 853e fbc1 8abc
000003d0: b487 883e 3862 1f3f 7475 6fbe 430b f53d
000003e0: 1daa 1fbe 180f d9be 3c85 8d3e 27bb 893e
000003f0: f612 d83d 8804 d63d 3ae4 03be 1161 b5be

l4/b f4 [16]
0.098559916 0.057791304 0.04426486 0.17291993 0.100804545 -0.023131724 -0.014908908 0.11853789
0.13517703 0.041235648 -0.01388966 0.096136734 0.10142695 0.093208544 0.09312572 0.10983477
00000000: c8d9 c93d 93b6 6c3d 124f 353d ec11 313e
00000010: 9d72 ce3d be7e bdbc 7e44 74bc fec3 f23d
00000020: d96b 0a3e b6e6 283d 7591 63bc 56e3 c43d
00000030: efb8 cf3d 1fe4 be3d b3b8 be3d 0df1 e03d

l4/W f4 [16, 256]
-0.039858352 -0.036656998 -0.025579378 0.0018409569 -0.0029851303 0.15254423 0.04661558 -0.009403306
-0.10517272 -0.29614642 0.07590413 -0.20512864 0.044471376 0.0300254 -0.055091932 0.07093064
0.12163877 0.00026769392 -0.13196403 0.0893862 0.023184296 0.078568004 0.19022872 -0.10401401
0.09145841 -0.14447388 -0.0811452 0.20244297 -0.1663812 -0.05854625 0.015891869 0.03754571
0.054615334 -0.061138373 0.22868058 -0.055110678 0.119783804 0.14453623 -0.17315118 0.047126036
-0.10964958 -0.015009382 0.048653964 0.011470326 -0.03710876 0.21043116 0.029484363 -0.046634432
0.12855214 0.053851392 0.035857417 0.08133383 0.019491028 0.106572956 0.1636909 0.070443995
-0.062386017 0.21106671 -0.16236179 0.10672229 0.055939753 0.1936811 0.037238512 -0.014953671
-0.0439613 -0.2739561 0.025888544 -0.0207805 0.0052876156 0.07191962 -0.02387709 -0.0369181
-0.14235015 -0.06796589 -0.17873934 -0.051602922 0.10137086 -0.05165194 0.054929048 -0.15447414
0.0040844246 0.022160526 -0.14886436 0.19857194 0.11571241 -0.1853024 -0.14500377 -0.20201017
-0.020161463 0.27897692 -0.16855909 0.03133648 0.0059975963 -0.04453673 0.015092393 0.06784481
-0.040906318 0.0050361496 -0.112091236 0.022793699 -0.071565375 -0.0054044127 0.070519336 -0.021165323
0.11535075 -0.022487117 0.028455673 -0.04077607 -0.12819977 0.32059568 0.13200575 -0.1072216
0.061404523 -0.035822775 0.1581721 -0.037926674 -0.005306829 -0.17867222 0.10127991 0.15966931
0.0026455713 0.15185653 0.20407315 0.11726134 0.0012864772 0.027121065 -0.29077056 -0.16372254
0.17785421 -0.023534093 0.0870117 -0.076059625 0.06675679 0.20595413 -0.088254236 0.061194435
-0.14854807 -0.12148928 0.02722624 -0.3045088 -0.14236476 0.040784344 0.10289905 0.20935407
0.037063323 -0.14526597 -0.052358847 -0.2578256 0.11638689 -0.06496409 -0.07758266 -0.012630734
-0.3222346 0.10235775 0.15726906 -0.24302 -0.20672728 -0.04560457 0.17164375 0.06716109
-0.036675002 0.012398779 0.12914614 0.03221536 0.03552582 -0.14528753 0.13651854 0.084889494
0.077788256 0.25469115 -0.073582254 0.03850486 -0.0588158 -0.004621158 0.063043 -0.26951888
0.04421962 -0.035041437 -0.03468684 0.056243062 0.18487875 0.18201911 -0.124370575 0.10804403
-0.039329596 0.11118575 -0.10522799 0.068109654 -0.110777855 0.28888085 0.12497315 -0.08499002
0.32942978 0.09260735 -0.052569948 -0.007662073 -0.006416243 0.20500657 -0.04001821 -0.15758213
0.05618759 -0.11549271 0.03128989 -0.18961272 -0.018809516 -0.049724888 -0.07129695 -0.2513283
0.022199733 -0.250253 0.12541983 -0.043394603 -0.100414254 0.11185738 0.13322565 0.056575835
-0.108042225 0.17625237 0.08440793 -0.0069479337 -0.023425752 0.026856588 -0.13333781 -0.10552434
0.3068141 -0.16851148 0.026190575 -0.11522948 0.13040975 0.031819772 0.1347959 -0.15687212
-0.020056406 -0.050604686 -0.0066681392 -0.12320293 -0.15615053 0.017653508 0.047133148 0.23912695
-0.06597323 -0.008396137 -0.05732742 0.0047173025 -0.016768971 0.043872762 0.013257855 -0.0028880083
0.0053447685 0.12890816 -0.030457716 0.050055314 -0.058782276 0.018852603 -0.07579544 0.110726945
00000000: 8342 23bd a625 16bd d88b d1bc 434c f13a
00000010: 2da2 43bb 8e34 1c3e faef 3e3d 5310 1abc
00000020: cc64 d7bd 81a0 97be a073 9b3d 3e0d 52be
00000030: 9e27 363d d4f7 f53c 14a8 61bd 1544 913d
00000040: bf1d f93d 4559 8c39 9421 07be 1d10 b73d
00000050: feec bd3c 43e8 a03d 51cb 423e 4c05 d5bd
00000060: 8c4e bb3d f6f0 13be 742f a6bd 364d 4f3e
00000070: d55f 2abe 31ce 6fbd aa2f 823c 88c9 193d
00000080: 54b4 5f3d 3b6c 7abd 3e2b 6a3e bcbb 61bd
00000090: 3651 f53d 4e01 143e 8b4e 31be 3b07 413d
000000a0: f68f e0bd e9e9 75bc 6149 473d 09ee 3b3c
000000b0: 5bff 17bd 447b 573e 3189 f13c bf03 3fbd
000000c0: 2ca3 033e 4793 5c3d 3adf 123d 5a92 a63d
000000d0: a6ab 9f3c ec42 da3d 969e 273e f144 903d
000000e0: 7b88 7fbd df21 583e 2b42 26be 3791 da3d
000000f0: 1521 653d 5754 463e 6987 183d 3e00 75bc
00000100: c410 34bd f943 8cbe 3614 d43c de3b aabc
00000110: bc43 ad3b 984a 933d e399 c3bc 6f37 17bd
00000120: 3dc4 11be b331 8bbd 7207 37be 965d 53bd
00000130: 879b cf3d fc90 53bd 48fd 603d 782e 1ebe
00000140: a3d6 853b fe89 b53c e66f 18be 7156 4b3e
00000150: a1fa ec3d eabf 3dbe de7b 14be c1db 4ebe
00000160: a729 a5bc 10d6 8e3e c19a 2cbe ae5a 003d
00000170: 7c87 c43b 256c 36bd 1646 773c 38f2 8a3d
00000180: 628d 27bd 4906 a53b 1790 e5bd dab9 ba3c
00000190: de90 92bd 8017 b1bb 716c 903d e662 adbc
000001a0: 043d ec3d e736 b8bc df1b e93c cf04 27bd
000001b0: cd46 03be 1e25 a43e 842c 073e 0097 dbbd
000001c0: 4f83 7b3d e7ba 12bd def7 213e 0059 1bbd
000001d0: e9e4 adbb daf5 36be d76b cf3d 5a80 233e
000001e0: 5261 2d3b 4780 1b3e 8df8 503e b726 f03d
000001f0: 039f a83a ff2c de3c e1df 94be e2a6 27be
00000200: 6a1f 363e 92ca c0bc 3133 b23d 26c5 9bbd
00000210: c9b7 883d a4e5 523e a3be b4bd 04a7 7a3d
00000220: fc1c 18be 5fcf f8bd 9009 df3c 94e8 9bbe
00000230: 11c8 11be 7c0d 273d bdbc d23d ea60 563e
00000240: b6cf 173d 9ac0 14be 3b76 56bd b801 84be
00000250: 405c ee3d e50b 85bd a8e3 9ebd 23f1 4ebc
00000260: effb a4be f1a0 d13d 240b 213e 3cda 78be
00000270: 51b0 53be dccb 3abd 61c3 2f3e c18b 893d
00000280: 8738 16bd 4024 4b3c e33e 043e 41f4 033d
00000290: 8683 113d 41c6 14be 84cb 0b3e 8bda ad3d
000002a0: 734f 9f3d e166 823e 4bb2 96bd 46b7 1d3d
000002b0: d6e8 70bd 156d 97bb b01c 813d 61fe 89be
000002c0: a21f 353d 9c87 0fbd ca13 0ebd 205f 663d
000002d0: db50 3d3e 3863 3a3e 00b6 febd 3046 dd3d
000002e0: 1218 21bd 5bb5 e33d c681 d7bd 137d 8b3d
000002f0: 80df e2bd 31e8 933e ecf1 ff3d 3f0f aebd
00000300: 05ab a83e eca8 bd3d 9653 57bd 2012 fbbb
00000310: 593f d2bb 3eed 513e 22ea 23bd 365d 21be
00000320: f524 663d 7187 ecbd d429 003d d629 42be
00000330: 6a16 9abc 53ac 4bbd 2304 92bd 1aae 80be
00000340: 37dc b53c 2921 80be 0e6e 003e 8abe 31bd
00000350: fda5 cdbd 7b15 e53d 4e6c 083e 10bc 673d
00000360: 3e45 ddbd 807b 343e 11de ac3d 7eab e3bb
00000370: 5de7 bfbc 5902 dc3c b589 08be 251d d8bd
00000380: bd16 9d3e 468e 2cbe 9e8d d63c 6ffd ebbd
00000390: 228a 053e 7355 023d f007 0a3e 16a3 20be
000003a0: 554d a4bc dc46 4fbd 6880 dabb d151 fcbd
000003b0: ede5 1fbe 179e 903c b00e 413d b2dd 743e
000003c0: f91c 87bd f38f 09bc 28d0 6abd 9a93 9a3b
000003d0: 155f 89bc edb3 333d 7937 593c bd44 3dbb
000003e0: 2b23 af3b 8000 043e 7682 f9bc cd06 4d3d
000003f0: afc5 70bd c670 9a3c a43a 9bbd cfc4 e23d
