static/ai/8/agent_black_20000/target_model.npz (npz, 605497 bytes, 8 tensors)

l2/W f4 [256, 256]
0	0xc124031d	-10.25076
1	0xc076904b	-3.852557
2	0xc136c1dd	-11.42233
3	0xc0c96acd	-6.294287
4	0x411385b0	9.220139
5	0xbedd77fc	-0.43255603
6	0xbf700b70	-0.9376745
7	0xc0a8c5c8	-5.274143
8	0xc17b2ec3	-15.698916
9	0x3feea8f9	1.8645316
10	0xc0a59ec3	-5.17563
11	0xbf591cdd	-0.84809667
12	0xc125fa87	-10.373664
13	0x402d86cb	2.711352
14	0xc03ec15c	-2.9805517
15	0xbde5039f	-0.11182331
16	0x404bef14	3.1864672
17	0x40876d49	4.2320905
18	0xc004bb43	-2.0739295
19	0x3fc589f1	1.5432721
20	0xc092cb87	-4.5873446
21	0xc02bb983	-2.6831977
22	0xc04612c9	-3.0948966
23	0xc0b8e88d	-5.7783875
24	0xbffc5a8b	-1.9715132
25	0x40686466	3.6311278
26	0x40a2bc3f	5.0854793
27	0xbf8d9490	-1.1060963
28	0xc163b195	-14.230855
29	0x41463ff4	12.390614
30	0xc0af0892	-5.469796
31	0x3fa6b94c	1.3025298
32	0x40df2b5b	6.9740424
33	0xbe9bf013	-0.304566
34	0x3f97fadf	1.1873435
35	0x40003c1c	2.0036688
36	0xc05096ca	-3.2592034
37	0x3f9e716c	1.2378364
38	0x40ee1f77	7.441341
39	0x4045fef4	3.093686
40	0x3fd8a09a	1.6924012
41	0xbda071ce	-0.078342065
42	0xc0a8875f	-5.266525
43	0xc0cd2174	-6.4103336
44	0xc0b28e77	-5.5798907
45	0x40211e85	2.5174878
46	0x40aefb94	5.46821
47	0x3fa57347	1.2925805
48	0xc0adcbef	-5.431144
49	0x3e37cf1f	0.17950104
50	0x3f01945f	0.5061702
51	0x40a14fb8	5.0409813
52	0xc0098f85	-2.1493847
53	0x4011b8ce	2.2769046
54	0xc16b89a2	-14.721102
55	0xc0564d30	-3.3484612
56	0x40ed75c1	7.4206243
57	0x3f1eed43	0.6208078
58	0xc01a5cc6	-2.4119124
59	0xc13a156b	-11.630229
60	0xc0e6a8a0	-7.208084
61	0xc07cce9d	-3.9501107
62	0xc1008cc9	-8.034371
63	0xc0b78f8b	-5.7362723
64	0xc02a6082	-2.6621404
65	0xc09320db	-4.5977607
66	0xbf4c0720	-0.7969837
67	0x4098b085	4.771548
68	0xc049634b	-3.1466854
69	0x40d73ab0	6.725914
70	0x40c33387	6.10004
71	0xc013e4f2	-2.3108487
72	0xbf055ee9	-0.52097946
73	0x3f58ed42	0.84737027
74	0x40822f7d	4.068297
75	0xbf8b5a7c	-1.0886989
76	0xc10ff8d6	-8.998251
77	0xc10c5b61	-8.772309
78	0xc1084326	-8.516394
79	0xc0de9ced	-6.956656
80	0xc180dabe	-16.106808
81	0x3f5eca9d	0.87027913
82	0x41254841	10.33014
83	0xc0e339f7	-7.100826
84	0x3f2c1b23	0.6722891
85	0xc10f6a81	-8.963502
86	0xc0aed8aa	-5.4639482
87	0xbf50687a	-0.8140942
88	0xc09e78d5	-4.95225
89	0x3e369f12	0.17834118
90	0xc02b05c6	-2.6722274
91	0x40a3b0c2	5.115327
92	0x40620f2e	3.5321765
93	0x40000fd6	2.0009665
94	0xc01aae1c	-2.4168768
95	0x40c16c4f	6.0444713
96	0xc06196b0	-3.5248222
97	0xc0095350	-2.14571
98	0x402cf849	2.7026541
99	0x3fe825dc	1.8136554
100	0xc0c62704	-6.1922626
101	0xc0f3ab54	-7.614664
102	0x408cbcc6	4.3980436
103	0xbf1b5d55	-0.6068929
104	0xc0dd62d4	-6.918314
105	0x400b3942	2.1753697
106	0xc0a48d2c	-5.142233
107	0xc014a724	-2.3227015
108	0xc09b0a72	-4.845025
109	0xbe917a7b	-0.28413758
110	0x3fb5dead	1.420858
111	0xc0686aa8	-3.6315098
112	0xbff07538	-1.8785772
113	0xc0f90483	-7.7818007
114	0xc0ac0d53	-5.3766265
115	0xc0bef865	-5.9678216
116	0xc1552137	-13.320609
117	0x3f202a3e	0.62564456
118	0xc0fff72a	-7.9989214
119	0xc0c0b3cd	-6.0219483
120	0xbf162f09	-0.5866552
121	0xc0cf9b19	-6.487683
122	0xc0cd7f27	-6.4217715
123	0xc0ad452c	-5.414694
124	0xc0896d7b	-4.2946143
125	0x4074836b	3.820521
126	0x3effc18a	0.49952346
127	0xbf9f98e6	-1.2468536
128	0x3c06b24b	0.008221219
129	0xc0fc7a9a	-7.889966
130	0xc08b11a1	-4.345902
131	0xc0e93c18	-7.2885857
132	0xbed7413d	-0.4204196
133	0xc12d4762	-10.829927
134	0x3fef3cd4	1.8690438
135	0x3f5e2128	0.8676934
136	0x40340fab	2.8134563
137	0x4119f847	9.623115
138	0x4126e914	10.431904
139	0xc07bf146	-3.9366012
140	0xc0b3bdb1	-5.6169057
141	0xc0884694	-4.2586155
142	0xbf1c3080	-0.61011505
143	0xbf32fd32	-0.69917595
144	0x3f9ad6de	1.2096822
145	0xc0f68dc7	-7.704807
146	0xc0bc3fb7	-5.8827777
147	0xc0fe46b2	-7.94613
148	0x40c59896	6.174876
149	0xc0422c6a	-3.0339608
150	0xbf35c5d2	-0.71004975
151	0xbd03e1bf	-0.03219771
152	0xc083bed1	-4.117043
153	0xc1311d46	-11.069647
154	0xc00a3aa4	-2.1598291
155	0xc07b4398	-3.9260006
156	0xc068a3bf	-3.6349943
157	0xc10e1f2c	-8.88261
158	0x407f6653	3.9906204
159	0xc08f7cb6	-4.4839735
160	0xc0b33498	-5.60017
161	0xc15eacd8	-13.917198
162	0x3f046630	0.51718426
163	0x407b93c8	3.9308949
164	0xc107152f	-8.442672
165	0xc07b565c	-3.927146
166	0xbfe99ca2	-1.8250926
167	0xc02e1617	-2.7200983
168	0xc0b1938a	-5.54926
169	0xc05d0da6	-3.453958
170	0xc03a35a8	-2.909525
171	0xc1474e61	-12.456635
172	0xc16e0c3e	-14.877989
173	0xc13f37ce	-11.951124
174	0xc041c396	-3.0275626
175	0xc1987cef	-19.061003
176	0xbff6ed63	-1.9291195
177	0x3fea07dd	1.828365
178	0x40823ef6	4.0701857
179	0xc0001930	-2.0015373
180	0x40b41c1b	5.628431
181	0x4032f113	2.795964
182	0x3fc0ad36	1.505286
183	0x407d22c5	3.9552472
184	0xc19e0703	-19.753424
185	0xbfa6ea14	-1.3040185
186	0xc0cc4b2f	-6.3841777
187	0xbe8506b5	-0.2598168
188	0xbf22eb12	-0.6363994
189	0xc0e3ee93	-7.122873
190	0xc0681112	-3.626042
191	0xc03955fb	-2.8958728
192	0xc0099bd1	-2.1501353
193	0x403d2055	2.9550984
194	0xc13b2569	-11.696633
195	0xc128bde2	-10.546358
196	0xbd15f0a0	-0.03660643
197	0x40cad971	6.339043
198	0xbe918d09	-0.28427914
199	0xc18b8a56	-17.442547
200	0xc0327c7b	-2.7888477
201	0xc12bc8a4	-10.736485
202	0xc0a475c3	-5.139375
203	0xc00ff444	-2.2492838
204	0xc0d3be20	-6.6169586
205	0x40c597f4	6.174799
206	0xc0b8dd41	-5.7770085
207	0xbfb68fdd	-1.4262654
208	0x4068a65a	3.6351533
209	0xc132bca4	-11.171055
210	0xc1225777	-10.146354
211	0x411ab50c	9.669201
212	0x403e29bb	2.971297
213	0x40db5f6d	6.8553987
214	0x3f44ba7b	0.76847047
215	0xc037f658	-2.8744106
216	0x3ea0080c	0.3125614
217	0xc1850a5b	-16.630056
218	0xc125dc55	-10.366292
219	0xc08ced7e	-4.4039907
220	0xc093bb3a	-4.616605
221	0xc15d5ea0	-13.835602
222	0xbfc8a836	-1.5676334
223	0xc113ae1d	-9.230008
224	0xbf73746a	-0.9509951
225	0xc0932905	-4.5987573
226	0x3f7cf646	0.98813283
227	0x40d7c43a	6.7427034
228	0x404bc078	3.1836224
229	0xbf35cd23	-0.7101614
230	0x3fdc98df	1.7234153
231	0x406ea222	3.7286458
232	0x406aaf8e	3.666965
233	0xc10dab9e	-8.854399
234	0x4083e6c0	4.1219177
235	0x4018d5cd	2.3880494
236	0x40167152	2.3506665
237	0x40f790a9	7.7364087
238	0x40c33e32	6.101342
239	0xc107878e	-8.470594
240	0x4087d5d7	4.2448535
241	0xc1407213	-12.02785
242	0xbe107fef	-0.14111303
243	0x3fc29560	1.5201836
244	0xc01a4d4a	-2.4109674
245	0xbf9c6b15	-1.2220179
246	0xc0bb21dc	-5.847883
247	0xbfe8220c	-1.813539
248	0x40243f52	2.5663648
249	0xc04d6065	-3.2090085
250	0x4089bb56	4.304118
251	0xc185b9f7	-16.715803
252	0xc045b510	-3.0891762
253	0x3ff23e37	1.8925236
254	0x3fc91862	1.5710566
255	0xc02592c2	-2.5870824

l2/b f4 [256]
0	0x40105ebb	2.255782
1	0xbe4729bb	-0.19449513
2	0x4064f389	3.5773642
3	0x4077db6f	3.8727682
4	0xbff1c6b1	-1.8888761
5	0x40906a96	4.513011
6	0xbf34a06e	-0.70557296
7	0x4003b906	2.058168
8	0x3e73bfb7	0.23803602
9	0x40771be9	3.8610785
10	0x40319a38	2.7750378
11	0x3f6a5f5b	0.9155175
12	0x40687f66	3.6327758
13	0x3fe2e620	1.7726479
14	0xbeffd00b	-0.49963412
15	0x3ef75b23	0.4831172
16	0x4000205f	2.0019758
17	0xbfadb46c	-1.3570685
18	0x3f4fbb57	0.8114523
19	0x40097362	2.1476674
20	0x402404d5	2.562795
21	0x408d8a6b	4.4231467
22	0x402d98ba	2.7124467
23	0x3fccaee1	1.5990869
24	0x3fd7bf67	1.6855286
25	0x4035dbae	2.8415332
26	0x40867b40	4.202545
27	0x40506a50	3.2564888
28	0x3f8597ad	1.0436913
29	0x3f7f6a8b	0.99771947
30	0x3f6a6965	0.9156707
31	0x417d4ed5	15.831746
32	0x40659d4e	3.587726
33	0x418fc2fb	17.970205
34	0x3ffe4937	1.9866093
35	0xbeba2963	-0.363597
36	0xbe079557	-0.13240562
37	0x3f88eb68	1.069684
38	0x3fb8c376	1.443465
39	0x3f803439	1.0015937
40	0x4057268a	3.3617272
41	0x408999d8	4.3000298
42	0x40da55d1	6.8229756
43	0x3f9fdca8	1.2489214
44	0x405d1fde	3.45507
45	0x4027071e	2.6098094
46	0x409e3559	4.944012
47	0x40264b3a	2.5983415
48	0x3fdb3290	1.7124805
49	0x3f995a44	1.1980672
50	0x3f68655d	0.9077967
51	0x3f626677	0.884376
52	0xbf58ff2f	-0.8476438
53	0xbf398c31	-0.7247954
54	0x404aa9a8	3.166605
55	0x402dfb06	2.7184463
56	0x4012d16c	2.294032
57	0x40893ca5	4.288653
58	0x3f6a025b	0.91409844
59	0x3f38493c	0.71986747
60	0x40447eef	3.0702474
61	0x409bf93a	4.874173
62	0x403248ae	2.785686
63	0x3fc82ad4	1.563807
64	0xbeb1b0bc	-0.3470515
65	0xc01927b1	-2.3930476
66	0xbf54abce	-0.83074653
67	0x3fac49c3	1.346001
68	0x4026828a	2.6017175
69	0x4087766f	4.233207
70	0x3ffc4a18	1.9710112
71	0xbb0b8454	-0.002128859
72	0x3f930c01	1.1488038
73	0xbe81b200	-0.25331116
74	0x3fb40400	1.4063721
75	0x3f68e34e	0.9097184
76	0x3fc99a80	1.5750275
77	0xbff99d3e	-1.9501112
78	0x3eb42e25	0.35191455
79	0x3f1d5bde	0.61468303
80	0x4030c813	2.7622116
81	0x3f3cbc5f	0.7372493
82	0x400b0932	2.1724362
83	0x3def8cdd	0.116967894
84	0xbfbd9198	-1.4810057
85	0x402c19c9	2.6890738
86	0x3eb3b78d	0.35100976
87	0x40423fb8	3.035139
88	0x3f4b7f50	0.7949114
89	0x3eaaa3e2	0.33328158
90	0x3fe464a1	1.784321
91	0x40952823	4.6611495
92	0x3fb242ee	1.3926675
93	0x405db0e4	3.4639215
94	0x40251d8c	2.5799284
95	0x3fd75b96	1.6824825
96	0x4006c685	2.1058667
97	0x3ef74ed5	0.48302332
98	0x408165b8	4.043667
99	0xbf66917a	-0.9006573
100	0xbf75fac7	-0.9608578
101	0xbf37773d	-0.7166632
102	0x4074cdd9	3.825064
103	0x408e6866	4.450244
104	0x3f109a9d	0.5648592
105	0x3f8cc194	1.0996575
106	0x4064a50b	3.5725734
107	0x3f98af2a	1.1928456
108	0xbe75d4b8	-0.24006927
109	0x401bcc61	2.4343493
110	0x3f6dc7c9	0.9288297
111	0x3f417569	0.7556978
112	0xbfa88240	-1.3164749
113	0xbf9e873b	-1.2385019
114	0xbef1cf02	-0.47228247
115	0x40b2a0d5	5.582133
116	0x40545e77	3.3182657
117	0xbfedd70f	-1.8581256
118	0x3fd3c0ae	1.6543176
119	0x401a60c9	2.4121573
120	0x40a17111	5.045052
121	0x3f9539a9	1.1658221
122	0x402e67dd	2.7250893
123	0xbf8e95c0	-1.113945
124	0xbf669fc3	-0.9008753
125	0x407f0171	3.984463
126	0x3e6c9303	0.23102956
127	0x3fda0e24	1.7035565
128	0x3f8d7c11	1.1053487
129	0x3fd5123c	1.664619
130	0x4028c396	2.6369376
131	0x403e1922	2.970284
132	0x3f84d393	1.0377067
133	0x3fa529ee	1.2903421
134	0x404037b2	3.0033994
135	0xbf9ede44	-1.241158
136	0x40141aa2	2.3141255
137	0x3fb6321f	1.4234046
138	0x4049ffdc	3.1562414
139	0xbfd4d4d2	-1.6627448
140	0x405d18c4	3.4546366
141	0x3eeb782c	0.4599012
142	0x402e5833	2.7241333
143	0x3fa731ff	1.3062133
144	0x3dda997c	0.10673806
145	0x3fab713c	1.3393931
146	0x3fbb041a	1.4610627
147	0xbf0c0292	-0.5469142
148	0x405b9f05	3.4315808
149	0xbf835dd3	-1.0263008
150	0x3ff190d0	1.8872318
151	0x3f5b81de	0.85745037
152	0x400d7686	2.210359
153	0x3d6d1303	0.05787946
154	0x40587a4b	3.3824642
155	0x3fd82cca	1.6888669
156	0x401b72b9	2.428877
157	0x3fbfbe89	1.4980022
158	0x4081f8b4	4.0616093
159	0x3f362f67	0.7116608
160	0x40562344	3.3459024
161	0x3f3042fa	0.688522
162	0x3f8645cd	1.0490052
163	0x4030d97f	2.763275
164	0x3e919c4b	0.28439555
165	0xbf1eccea	-0.62031424
166	0x40121791	2.2826884
167	0xbf99f581	-1.2028047
168	0x3fdea9c1	1.7395555
169	0x3fb098de	1.3796651
170	0x40a01b8b	5.003362
171	0x3fe4ddd1	1.7880193
172	0xbec2ca2c	-0.3804487
173	0x4055ebc4	3.342515
174	0xbe3c7ab7	-0.18406187
175	0x403fe95e	2.9986186
176	0x402c24c0	2.689743
177	0x3f6bcd2b	0.92109936
178	0x40953756	4.663005
179	0x3f1fed36	0.6247133
180	0xbfaf374a	-1.3688748
181	0x3fb32688	1.3996134
182	0x3f195429	0.59894043
183	0x3f8305c1	1.0236131
184	0x4013d444	2.3098307
185	0xbff1f51e	-1.8902929
186	0x4085ff4d	4.1874146
187	0x4012dca8	2.2947178
188	0x40422f3d	3.0341332
189	0x403156cd	2.770923
190	0x3f134d88	0.5754018
191	0x3ee2616e	0.44214958
192	0xbf01dea3	-0.5073034
193	0x401d81bf	2.461044
194	0x3e904080	0.2817421
195	0x3fb7ad98	1.4349852
196	0x3f39ec7e	0.72626483
197	0x4094b246	4.646762
198	0x3fc106d1	1.5080205
199	0x40132b6c	2.2995253
200	0x3fae0edd	1.3598286
201	0x40a45d9e	5.136428
202	0x4013df6a	2.310511
203	0x3fb0ce4d	1.3812958
204	0xbfd5c62b	-1.6701101
205	0x4061ed5b	3.530112
206	0xbff9c7b5	-1.9514071
207	0x403127ba	2.7680497
208	0x3e75ba89	0.23996939
209	0x3f822cb8	1.0169897
210	0x40493cf5	3.1443455
211	0x40599386	3.399629
212	0xbe353b66	-0.1769844
213	0xbd8013e1	-0.062537916
214	0x4030f976	2.765226
215	0x3f424fdb	0.759031
216	0x3f008ecf	0.5021791
217	0x4072a12c	3.7910872
218	0x409529d4	4.661356
219	0x40462d44	3.0965128
220	0x3f6a4ca1	0.91523176
221	0x4017572f	2.3646963
222	0xbf70c7f5	-0.9405511
223	0xbfde7b93	-1.7381462
224	0x4068f81e	3.6401439
225	0xbffb95ce	-1.9655092
226	0x405a9bf8	3.4157696
227	0x407d2ebb	3.9559772
228	0x410b4cfb	8.706294
229	0x3dcf8338	0.1013245
230	0x3f823638	1.0172796
231	0xbf26460c	-0.64950633
232	0x4061defa	3.5292344
233	0x3fb93c68	1.447156
234	0x3f9aea47	1.2102746
235	0x400d23c9	2.2053092
236	0x401c1ec7	2.4393785
237	0x4041a2f4	3.0255709
238	0x3e28b25c	0.16474289
239	0x4088f8b4	4.2803593
240	0xbec297d3	-0.38006458
241	0x3f99eb64	1.202496
242	0x400c22aa	2.1896157
243	0x3f33abd8	0.7018409
244	0x40181133	2.3760498
245	0x408622f3	4.1917663
246	0x407dbe84	3.9647532
247	0x3f784711	0.9698344
248	0x3f1bd8a3	0.60877436
249	0x4032f1b7	2.796003
250	0xbed8346b	-0.42227492
251	0xbeb85daf	-0.36008975
252	0xbfc5ad23	-1.5443462
253	0x3fa7ba6f	1.310377
254	0x3fcf7d29	1.6210071
255	0x4005b5c8	2.08922

l4/W f4 [64, 256]
0	0x418b93b1	17.447115
1	0x418d605f	17.672056
2	0x419f4740	19.90979
3	0x418dd2d3	17.727942
4	0x418ae09a	17.359669
5	0x4169dde2	14.616671
6	0x419f67d4	19.925697
7	0x41a2be89	20.343035
8	0x418203a0	16.25177
9	0x41824294	16.282509
10	0x41971608	18.885757
11	0x4080de14	4.027109
12	0x41409b00	12.037842
13	0x4177ffb5	15.499928
14	0x417a7cbc	15.655453
15	0x418e2961	17.770205
16	0x418cfdf5	17.624002
17	0x419076bd	18.057978
18	0x41a62a20	20.770569
19	0x416d2755	14.822103
20	0x40ee8b01	7.4544683
21	0x41411e4b	12.069896
22	0x419407f5	18.503885
23	0x418831cb	17.024313
24	0x418f2afc	17.895988
25	0x4190d777	18.105207
26	0x418d6a92	17.677036
27	0x41a659d5	20.793863
28	0x41a1b65a	20.214039
29	0x41a75ec7	20.921278
30	0x4193fdf8	18.499008
31	0x416f5d6b	14.960307
32	0x41a58222	20.688541
33	0x41a098f7	20.07469
34	0x4196fd0e	18.873562
35	0x41a1b311	20.212435
36	0x4180fd45	16.123667
37	0x41795c57	15.585044
38	0x4195bb05	18.716318
39	0x419d3579	19.65111
40	0x411ca3e6	9.790014
41	0x4187cd25	16.975168
42	0x4178cf8d	15.550672
43	0x41abb370	21.462616
44	0x41948056	18.562664
45	0x4190fa11	18.122103
46	0x4197dd5a	18.983082
47	0x416fdfc7	14.992133
48	0x417a0f8c	15.628796
49	0x41ae4af6	21.786602
50	0x41a8fd07	21.123549
51	0x418a8687	17.315687
52	0x416f8367	14.969581
53	0x41797bd6	15.592733
54	0x4172f264	15.184177
55	0x418fc779	17.972399
56	0x419e1bc9	19.763567
57	0x41831de3	16.389593
58	0x41a5209e	20.640926
59	0x413be268	11.742775
60	0x4199fe4f	19.249174
61	0x418dc3d1	17.720613
62	0x41952693	18.643835
63	0x4188a391	17.079866
64	0x40d4d54d	6.6510377
65	0x419dcf98	19.726364
66	0x4181e4ac	16.236656
67	0x418b8dbe	17.44421
68	0x41ad608f	21.672148
69	0x416a3693	14.638324
70	0x414ea1c9	12.914498
71	0x412c37f2	10.763659
72	0x417f71bb	15.965266
73	0x418aca10	17.348663
74	0x4175bf4e	15.359205
75	0x41b521dd	22.641535
76	0x41764141	15.390931
77	0x4191c3ae	18.220547
78	0x41836ba1	16.427553
79	0x419532af	18.649748
80	0x41810b04	16.130379
81	0x41a7970b	20.948751
82	0x41a25b7f	20.294676
83	0x41830290	16.376251
84	0x417e89ec	15.908672
85	0x40f1a66c	7.551565
86	0x4197c56d	18.9714
87	0x40d72191	6.7228475
88	0x419f30fb	19.898916
89	0x41a51218	20.633835
90	0x4187eb7e	16.989986
91	0x418eac22	17.83405
92	0x417516bd	15.318051
93	0x418ed71e	17.855038
94	0x4184cbed	16.599573
95	0x418396cc	16.448631
96	0x408375b4	4.108118
97	0x41a25ab7	20.294294
98	0x4186ac3b	16.834097
99	0x4187c527	16.971266
100	0x41803b68	16.029007
101	0x41a59c53	20.70133
102	0x41a97ba7	21.185377
103	0x41857ea4	16.686836
104	0x4197eed1	18.99161
105	0x41901e66	18.014843
106	0x4142f4e0	12.184784
107	0x41879a9b	16.95049
108	0x41839f82	16.452885
109	0x418653ca	16.790913
110	0x418b498e	17.410915
111	0x41837d83	16.436285
112	0x4194756e	18.557339
113	0x416c1ec1	14.757508
114	0x4196fe42	18.87415
115	0x419c76e0	19.558044
116	0x419fa4f0	19.955536
117	0x419c7f42	19.562138
118	0x415100da	13.062708
119	0x40f7a470	7.738823
120	0x4184c09e	16.594051
121	0x41b34504	22.408699
122	0x4012e8fc	2.2954702
123	0x416e7429	14.903359
124	0x4195180a	18.636738
125	0x41a13f8c	20.156029
126	0x41a1fc0c	20.24807
127	0x41914899	18.160448
128	0x4174c882	15.298952
129	0x41883275	17.024637
130	0x41a6568f	20.792265
131	0x418b5c1b	17.419973
132	0x41a15d19	20.170458
133	0x4187de96	16.983685
134	0x419d24eb	19.643026
135	0x41a60613	20.752966
136	0x4182d859	16.355639
137	0x41a62283	20.766851
138	0x41564265	13.39121
139	0x4190288b	18.019796
140	0x417b2189	15.695687
141	0x418ab617	17.338911
142	0x416914b2	14.567553
143	0x41596d26	13.589148
144	0x418b0743	17.378546
145	0x4192f859	18.371264
146	0x41965e37	18.796003
147	0x4180df01	16.108889
148	0x4179c631	15.610887
149	0x4159da08	13.61573
150	0x408dbb48	4.4291115
151	0x41955605	18.667002
152	0x417dd243	15.863833
153	0x41956bc2	18.677616
154	0x4190f2fc	18.118645
155	0x416b454c	14.704418
156	0x40e614c8	7.190037
157	0x418d038a	17.626728
158	0x419803f7	19.001936
159	0x41952e61	18.647646
160	0x410777d6	8.466757
161	0x417cf1c5	15.809026
162	0x4198d205	19.102549
163	0x41b313b6	22.384624
164	0x403ab188	2.9170856
165	0x4117257c	9.446651
166	0x418d41f7	17.65721
167	0x418c5731	17.542574
168	0x40c2a63f	6.0827937
169	0x41a1fb3a	20.24767
170	0x416f3e2a	14.952677
171	0x418924fd	17.14306
172	0x416ee05d	14.929776
173	0x41a51c4f	20.638823
174	0x4183ff57	16.499678
175	0x414a77e8	12.654274
176	0x417f5dc1	15.960389
177	0x41978c59	18.94353
178	0x41818d3a	16.193958
179	0x4185cf27	16.726149
180	0x41835561	16.416689
181	0x41a1d088	20.226822
182	0x412e652f	10.899703
183	0x419a1aef	19.263151
184	0x418982d8	17.188889
185	0x41985d5b	19.045584
186	0x4199335a	19.150074
187	0x40fda8d2	7.926858
188	0x418b2d89	17.397234
189	0x418f7f64	17.937202
190	0x415a8c9c	13.659328
191	0x40e335ea	7.1003313
192	0x418a0db1	17.256685
193	0x41762086	15.38294
194	0x417ab76a	15.669779
195	0x41a73b07	20.903822
196	0x41312729	11.072061
197	0x41a73a80	20.903564
198	0x4171aeba	15.105158
199	0x41823bde	16.279232
200	0x418c5c0e	17.544949
201	0x4194b3f7	18.587873
202	0x4181adab	16.209799
203	0x419a035f	19.251646
204	0x417a5d10	15.64772
205	0x4197f94e	18.99673
206	0x40cd01d3	6.4064727
207	0x419fc2d0	19.970123
208	0x41a2267f	20.268797
209	0x40841ee6	4.128772
210	0x41779b35	15.475392
211	0x41873ee6	16.905712
212	0x411d4816	9.830099
213	0x41ab75bb	21.432486
214	0x41a73a74	20.903542
215	0x4186faa8	16.87239
216	0x4191859f	18.190245
217	0x41518a8f	13.096328
218	0x415b2f09	13.698983
219	0x418a7c9f	17.31085
220	0x41136b49	9.213693
221	0x41926e7c	18.303947
222	0x41968f80	18.820068
223	0x4197c36a	18.970417
224	0x41771a51	15.443925
225	0x41941616	18.510784
226	0x41848788	16.566177
227	0x419f10ca	19.883198
228	0x4170679f	15.025298
229	0x4190fc3f	18.123167
230	0x416e0266	14.875586
231	0x41a6462b	20.784262
232	0x41accae7	21.599073
233	0x41968176	18.813213
234	0x3cdc27d1	0.026874455
235	0x41079405	8.473638
236	0x417e2c6a	15.885843
237	0x418f909c	17.94561
238	0x414dbe61	12.858979
239	0x40d90a7e	6.782531
240	0x41868b00	16.817871
241	0x418774d8	16.932053
242	0x41928a92	18.317661
243	0x4188757d	17.057367
244	0x41800edc	16.007256
245	0x417f8422	15.969759
246	0x419a2e4d	19.272608
247	0x417a91b4	15.660572
248	0x4160c813	14.048846
249	0x41492d41	12.573548
250	0x417a420e	15.641127
251	0x3fb0a41c	1.3800082
252	0x41ac554a	21.541645
253	0x4198ed06	19.115734
254	0x41919568	18.197952
255	0x418b2d3e	17.39709

l4/b f4 [64]
0	0xc105fbe6	-8.373999
1	0xc106493e	-8.392881
2	0xc106674e	-8.400221
3	0xc10630da	-8.386927
4	0xc1066a80	-8.401001
5	0xc105b000	-8.355469
6	0xc1063149	-8.3870325
7	0xc1059e45	-8.35114
8	0xc1063ca0	-8.389801
9	0xc106c166	-8.422216
10	0xc1064b3a	-8.393366
11	0xc105f9ad	-8.373456
12	0xc1064b1f	-8.39334
13	0xc104c739	-8.298638
14	0xc106502b	-8.394572
15	0xc1069bdf	-8.413054
16	0xc106de7f	-8.42932
17	0xc10685c8	-8.407661
18	0xc107b371	-8.481309
19	0xc104a23a	-8.289606
20	0xc106dfc7	-8.429633
21	0xc1061320	-8.379669
22	0xc107ad6a	-8.479837
23	0xc1060bcf	-8.377883
24	0xc10509ca	-8.31489
25	0xc10553a5	-8.332921
26	0xc105cc8d	-8.362439
27	0xc10595d0	-8.349075
28	0xc106b315	-8.418721
29	0xc1071f5c	-8.445156
30	0xc1084ef3	-8.519275
31	0xc108b59f	-8.544341
32	0xc106bd81	-8.421266
33	0xc104ac28	-8.29203
34	0xc10571ae	-8.340254
35	0xc104f57f	-8.309936
36	0xc1054977	-8.330436
37	0xc1059be9	-8.350564
38	0xc106a16f	-8.4144125
39	0xc105ffa2	-8.37491
40	0xc1046fb5	-8.277272
41	0xc105fc74	-8.374134
42	0xc106f7ef	-8.435531
43	0xc1051b87	-8.319221
44	0xc106770d	-8.404065
45	0xc107fbd6	-8.498983
46	0xc104c39a	-8.297754
47	0xc104f0a0	-8.308746
48	0xc105615e	-8.336271
49	0xc104df56	-8.304525
50	0xc105cc6a	-8.362406
51	0xc1046ebc	-8.277035
52	0xc1053be7	-8.327125
53	0xc104d095	-8.300923
54	0xc107390f	-8.45143
55	0xc107199b	-8.443751
56	0xc1066681	-8.400025
57	0xc106ec39	-8.432672
58	0xc1055651	-8.333573
59	0xc1063cb6	-8.389822
60	0xc10576ae	-8.341475
61	0xc105026c	-8.313091
62	0xc106f594	-8.434956
63	0xc1048141	-8.281556

l3/W f4 [256, 256]
0	0x41510792	13.064348
1	0x40a3b07f	5.115295
2	0x41020130	8.12529
3	0x41893680	17.151611
4	0xc192ed76	-18.365948
5	0xbf3d3be0	-0.73919487
6	0x410a6cde	8.651579
7	0x4130fcb7	11.061698
8	0x41406a34	12.0259285
9	0x41aeb336	21.837505
10	0xbd896400	-0.067085266
11	0x4105e783	8.369021
12	0x41452f42	12.324038
13	0xc128eb86	-10.557501
14	0x3f0059c5	0.5013698
15	0xc1b7699d	-22.926569
16	0x401eff10	2.4843178
17	0xc12116e4	-10.068089
18	0xc1baf8d9	-23.371508
19	0xc140b47e	-12.044065
20	0x4182ca91	16.34891
21	0x412fc1a3	10.984775
22	0x41364648	11.3921585
23	0x407108ee	3.76617
24	0x418433b0	16.525238
25	0x411d07ba	9.814386
26	0x41ae8c44	21.81849
27	0x4135a7d6	11.353476
28	0x418993c4	17.197151
29	0xc1126593	-9.149798
30	0x415755c6	13.458441
31	0x411b7a69	9.717385
32	0xc04b98aa	-3.1811929
33	0x411bf78e	9.747938
34	0x4116bb3e	9.420713
35	0x40d93811	6.788094
36	0xc00a6f9a	-2.1630616
37	0x412d3b8c	10.827038
38	0x40d35dc6	6.605197
39	0x40d501ae	6.656455
40	0x408b6048	4.355503
41	0x4159f7d2	13.623003
42	0xc041d5ae	-3.028667
43	0x414fcef8	12.9880295
44	0x4181ef9d	16.241999
45	0x415a98b5	13.662282
46	0x3f3415f0	0.70345974
47	0x41274aee	10.455793
48	0xc089fec8	-4.312351
49	0x40c30805	6.094729
50	0x411518ed	9.318585
51	0xc163b978	-14.23278
52	0x412e6503	10.899661
53	0x409c6706	4.887576
54	0x413021d4	11.008259
55	0x4180b2f2	16.087376
56	0x4143975d	12.224454
57	0x41484f46	12.519354
58	0x41204416	10.016623
59	0x412fdcc6	10.9914
60	0xbf36d1ae	-0.71413696
61	0xc0faca4c	-7.8371944
62	0x41028a49	8.158761
63	0x40f32d34	7.599268
64	0x4148c03a	12.54693
65	0xc18fcc17	-17.974653
66	0xc0a49ffb	-5.144529
67	0xbf2dfbc2	-0.67962277
68	0xbf9e51df	-1.2368735
69	0x3f8f64fc	1.1202693
70	0x411945f7	9.579581
71	0xc101e330	-8.117966
72	0x40de68a0	6.9502716
73	0x41a280c2	20.31287
74	0x416e039d	14.875882
75	0x4117246b	9.446391
76	0x413d35a2	11.825594
77	0x4107ba52	8.482988
78	0x40ea7126	7.326312
79	0x416adbc9	14.6786585
80	0x410ed101	8.926026
81	0x41323c47	11.139716
82	0xc10d4fbe	-8.831968
83	0xc11e8ff0	-9.910141
84	0xc10db575	-8.856801
85	0x4154eb5e	13.307463
86	0x415d05fb	13.81396
87	0x41bb9176	23.446026
88	0x40b325b5	5.598353
89	0x413e661c	11.899929
90	0x408c9140	4.3927307
91	0x40c6eb48	6.216221
92	0x40883a75	4.257136
93	0x418ac32f	17.345304
94	0x41758372	15.344591
95	0x40598ee3	3.399346
96	0x4156041a	13.376001
97	0x40830439	4.0942655
98	0x41156d58	9.339195
99	0xc131a63c	-11.103085
100	0x41172140	9.445618
101	0x40c1c91e	6.0558004
102	0x4166c667	14.423438
103	0x41352bd7	11.323203
104	0x416df9c7	14.873481
105	0x416f82b6	14.969412
106	0x41835f72	16.421604
107	0x40db3f7d	6.8515
108	0x412cc1b3	10.79729
109	0x40ed7f46	7.4217863
110	0x40d8f5e2	6.780015
111	0xc18e6659	-17.799974
112	0xc1fe5f76	-31.796612
113	0x41185e8f	9.523086
114	0x40fde2c8	7.9339333
115	0x4154d8c5	13.302922
116	0x3fd441cc	1.658258
117	0xc1022846	-8.134832
118	0x40d5d02d	6.681662
119	0xc17c3e32	-15.765184
120	0x419f7f4e	19.93716
121	0x4171a760	15.103363
122	0xbff85cc2	-1.9403307
123	0x40bbfa3c	5.874296
124	0xc18d04c6	-17.62733
125	0x417ee0fd	15.929929
126	0x410a97df	8.662078
127	0xc1b9a821	-23.207094
128	0x40bbb91c	5.8663464
129	0x4134273e	11.259581
130	0xc01ee6d1	-2.482838
131	0x415bdc18	13.741234
132	0x4126790f	10.404555
133	0x410c05c7	8.7514105
134	0x417103a7	15.063392
135	0x4137a208	11.477058
136	0x4150dc4a	13.0537815
137	0xc17bc1f1	-15.734849
138	0x3ee07115	0.43836275
139	0xc1b49023	-22.57038
140	0x416a0b6d	14.6277895
141	0x419d805c	19.687675
142	0x4176d75f	15.427581
143	0xc0ff884a	-7.985387
144	0xc1c5cb81	-24.724367
145	0x40affbf0	5.499504
146	0x4109b381	8.606324
147	0xc101ed10	-8.120377
148	0xc04a5b85	-3.161836
149	0xc0f09c4c	-7.519079
150	0x412d8d27	10.846961
151	0x41057215	8.340352
152	0x415181e5	13.094213
153	0x414bbf48	12.7342
154	0x41806a82	16.052006
155	0x4134fb3e	11.311338
156	0x4115bbb4	9.358326
157	0x411ca509	9.790292
158	0x41733c0a	15.202158
159	0x41418566	12.095068
160	0xc10bf848	-8.748116
161	0x41110450	9.063553
162	0xc189c748	-17.222305
163	0x41491185	12.566777
164	0x41174ab4	9.455738
165	0x4146dbd4	12.428669
166	0x41100c80	9.003052
167	0xc0a981b5	-5.2970834
168	0x40b0be33	5.5232177
169	0xbef8c6ca	-0.48589164
170	0x404d4ca4	3.2078028
171	0x3f5d0fc2	0.8635217
172	0x40201bc8	2.5016956
173	0xc1079c54	-8.475666
174	0x4003074d	2.0473206
175	0x41671e05	14.444829
176	0xc0892a01	-4.2863774
177	0xc155789c	-13.341946
178	0x412e1f96	10.882711
179	0xc18daa5f	-17.708189
180	0xc19fcdfd	-19.97558
181	0x41619725	14.0994005
182	0x415e05f4	13.876453
183	0x4157328a	13.449839
184	0x4101f0b0	8.121262
185	0x40e90ec7	7.283054
186	0x40e3fcbc	7.1246014
187	0x40c933f4	6.287592
188	0xc194556e	-18.541714
189	0x40a3db76	5.1205397
190	0x40d061bc	6.5119305
191	0xc1556af5	-13.338613
192	0x4138400e	11.515638
193	0xc18879b0	-17.059418
194	0xc12c2a8c	-10.760387
195	0x418b74ed	17.432093
196	0xc0b34840	-5.6025696
197	0x41193945	9.576482
198	0x41959cef	18.701628
199	0x411e0632	9.876513
200	0xbdab09f9	-0.083515115
201	0x41362cf9	11.38598
202	0x413937ed	11.576154
203	0x4180e028	16.109451
204	0xbfc34b6e	-1.5257394
205	0x418153b8	16.165878
206	0x412e1d22	10.8821125
207	0xc14e2ff3	-12.886706
208	0x4036f440	2.8586578
209	0xc0315288	-2.7706623
210	0xc121afea	-10.105448
211	0x3e16c859	0.14724864
212	0x406031f7	3.5030496
213	0x413a69b2	11.6508045
214	0x41583c9b	13.514796
215	0x41100903	9.0022
216	0xc14a5457	-12.645591
217	0xc1646123	-14.273715
218	0x40b6e03e	5.7148733
219	0x41388967	11.5335455
220	0x4139a89e	11.603666
221	0x413e05b4	11.876392
222	0x400bccd5	2.184377
223	0x4158453d	13.516904
224	0x40705d2c	3.7556868
225	0xc121993c	-10.099911
226	0x4137d1a9	11.488687
227	0x418b56b9	17.417345
228	0x413d2838	11.822319
229	0x4140eeb6	12.058279
230	0xc11e7cb2	-9.905443
231	0x414970d2	12.590044
232	0x4150a3db	13.040004
233	0xc14c78e5	-12.779515
234	0x40de1111	6.9395833
235	0x41a3fc46	20.49818
236	0x412bcf0f	10.738051
237	0x418cea27	17.614332
238	0x41179922	9.474886
239	0x41277a1c	10.467312
240	0x4152f9ea	13.186014
241	0x412fbc73	10.983508
242	0x40e3841f	7.109878
243	0x4131f2b0	11.12175
244	0x414e1658	12.880455
245	0x41238a7e	10.221312
246	0x4101274a	8.072092
247	0x41806d97	16.05351
248	0x4190de4d	18.108545
249	0x413fb955	11.982747
250	0x4111fb6f	9.123885
251	0x416fc44a	14.985422
252	0x40f7dbc9	7.7455792
253	0x410a3c40	8.639709
254	0x40af897d	5.485533
255	0x4195480c	18.66018

l3/b f4 [256]
0	0x414f5754	12.95882
1	0xc0802c82	-4.005433
2	0x3fc48541	1.5353166
3	0x41460a71	12.377549
4	0xbff71e19	-1.930606
5	0x413d6329	11.836709
6	0x400b7017	2.1787164
7	0x3e5793c9	0.2105247
8	0x40285d15	2.6306813
9	0x40da3ecb	6.820165
10	0xbdd73fa6	-0.10510187
11	0x41aae6da	21.36272
12	0xc0908034	-4.51565
13	0xc080fcba	-4.0308504
14	0x410f0d2e	8.940718
15	0xc0862295	-4.1917214
16	0xbfc98b0e	-1.5745561
17	0x4109788a	8.5919285
18	0xbe925045	-0.28576866
19	0x40c8a058	6.269573
20	0x414526f9	12.322015
21	0xbff3308c	-1.899919
22	0xc076610b	-3.849673
23	0x412dee06	10.870611
24	0x40449b5f	3.071983
25	0x40ee62bf	7.449554
26	0x41206c15	10.026387
27	0xc004a153	-2.0723464
28	0xbfe5b666	-1.7946289
29	0x40920235	4.5627694
30	0x413039db	11.014125
31	0x40597068	3.3974857
32	0x409e0eee	4.9393225
33	0x3fe763ac	1.8077292
34	0x4086a71c	4.207899
35	0x40e156f3	7.041864
36	0x4132b62d	11.1694765
37	0x41221fbe	10.13275
38	0x3fa01142	1.2505267
39	0x40b3c4e9	5.617787
40	0x406ed322	3.7316365
41	0x412becef	10.745345
42	0x412ea850	10.916092
43	0x3fd3ec3c	1.6556468
44	0xbfdb27c1	-1.7121507
45	0x4140fd94	12.061909
46	0xc0fa6dc1	-7.8258977
47	0x407abf15	3.9179127
48	0x3f9bdc38	1.217658
49	0x40a78b4d	5.2357545
50	0x402241ae	2.5352588
51	0x3ef61538	0.48063064
52	0x413c53ca	11.770456
53	0x41306f8f	11.027236
54	0xc058d729	-3.3881323
55	0x40fefc96	7.9683332
56	0xc02c1b43	-2.689164
57	0x414da1a4	12.851963
58	0x3fc0aea0	1.5053291
59	0x3fb5459f	1.4161872
60	0x40bd3793	5.913034
61	0x40cf6768	6.481373
62	0x40e8261c	7.254652
63	0xc05d1c56	-3.4548545
64	0x414ac572	12.673204
65	0x4035deb3	2.8417175
66	0x405e6c14	3.4753466
67	0x413fd709	11.989999
68	0x3f612807	0.879517
69	0x4119a807	9.603522
70	0x40f8f6ba	7.780118
71	0x410e528d	8.895154
72	0xc0c4cf63	-6.1503158
73	0xbfc3a718	-1.5285368
74	0x40ac7345	5.389071
75	0x4052391c	3.2847357
76	0x40126f44	2.288041
77	0x41322525	11.1340685
78	0x40962d9a	4.6930666
79	0x411e0e5e	9.878508
80	0x4104b3b6	8.293875
81	0x407f682f	3.9907339
82	0xbfc24bae	-1.5179346
83	0x411c03b0	9.7509
84	0x3e9a64ac	0.30154932
85	0xc0bfd1b8	-5.9943504
86	0x403d1ef1	2.9550135
87	0xc0e4949d	-7.1431413
88	0xbf4baea6	-0.7956337
89	0x40a5f29f	5.185867
90	0xc028c2b6	-2.6368842
91	0xbe61c8ea	-0.22049299
92	0x4134388b	11.263804
93	0x3ce8cd41	0.028418185
94	0x4134c5ab	11.298259
95	0x4101b98b	8.107799
96	0x41c4d6bb	24.604849
97	0x407101cd	3.765735
98	0x413df9a6	11.873449
99	0x410a856b	8.657573
100	0xc0000844	-2.0005045
101	0x407e63cf	3.9748418
102	0xc05b000e	-3.4218783
103	0x40a0cc7c	5.0249615
104	0xbfb2cded	-1.3969094
105	0x4086fe60	4.2185516
106	0xc0f777ae	-7.7333593
107	0x410a6bfd	8.651364
108	0x4146f624	12.435093
109	0x4131915a	11.097986
110	0xc09c3d63	-4.8824935
111	0xc04e6474	-3.2248812
112	0x40ef0636	7.469508
113	0x406c3d7c	3.6912527
114	0xbfaca834	-1.3488832
115	0x3e7dc48a	0.24782005
116	0xbf2f95b8	-0.6858783
117	0x407017ad	3.751445
118	0x408eebb9	4.4662747
119	0xc10bbcb2	-8.733568
120	0x410f0deb	8.940898
121	0x3ff8ce3d	1.9437939
122	0xc005885f	-2.0864484
123	0x412b364c	10.700756
124	0xc0d795e7	-6.7370486
125	0x4004c992	2.0748029
126	0x4044764b	3.06972
127	0x40db0037	6.843776
128	0x413c7252	11.77791
129	0x41452079	12.320428
130	0x3f1b4fe7	0.60668796
131	0xbf746929	-0.9547296
132	0x40ad76cb	5.420751
133	0xc0cc882b	-6.391622
134	0x408584bb	4.1724524
135	0xbf3e044f	-0.74225324
136	0x4102fe2c	8.187054
137	0x40147fe2	2.3203053
138	0x3ff0fd98	1.8827391
139	0x413e777a	11.904169
140	0xc04fe32b	-3.2482402
141	0x40df909c	6.9864025
142	0xc03a1157	-2.9073083
143	0x4030d1f0	2.7628136
144	0x40e5dc21	7.183121
145	0x4037e174	2.8731356
146	0xc0225501	-2.5364382
147	0xc0a36109	-5.105595
148	0xc0683796	-3.6283927
149	0xc03111e6	-2.7667174
150	0x40baf294	5.8421116
151	0xc113ea4b	-9.2447
152	0x4130783a	11.029352
153	0x40c2f531	6.0924306
154	0x4127fc40	10.499084
155	0x40b9d30c	5.8070126
156	0x41acd1f8	21.602524
157	0x40f41032	7.626977
158	0x4034ac36	2.823011
159	0x406930d1	3.6436045
160	0x413addb7	11.67913
161	0x4130b3a3	11.043857
162	0xc0c1923e	-6.049102
163	0x3df09442	0.11747028
164	0x41172aaf	9.447921
165	0xc02b2e95	-2.6747181
166	0x3fa7cfdb	1.3110307
167	0x4144062d	12.251508
168	0x40da343c	6.8188763
169	0xbe803d70	-0.25046873
170	0x41132e8b	9.198863
171	0x414f7f92	12.968645
172	0x4126cf9a	10.425684
173	0x3f98cf5d	1.1938282
174	0x414b4139	12.7034235
175	0x3fb3aba8	1.403676
176	0x40f082c7	7.515964
177	0x4083a5eb	4.1140037
178	0xc021be81	-2.5272524
179	0x40cfe001	6.496094
180	0xbf50bb9f	-0.8153629
181	0x409f4170	4.976738
182	0x4116a6ed	9.415753
183	0x3f45288b	0.7701499
184	0x40d4bf2b	6.648336
185	0x40e694d7	7.205669
186	0xc0788c4a	-3.8835626
187	0x4143bd3a	12.233698
188	0x412972e6	10.590551
189	0x41305877	11.021598
190	0xc08121a9	-4.035359
191	0x40d48957	6.641765
192	0x41440fc8	12.253853
193	0x41285773	10.52135
194	0x413f3578	11.950554
195	0xbdf4f1b2	-0.11960162
196	0x40951a22	4.65944
197	0x3c0e77b8	0.008695535
198	0x412bb535	10.73174
199	0x412ba4a3	10.7276945
200	0xbffab625	-1.9586836
201	0x3fc0a2f4	1.5049729
202	0x401d77c8	2.4604359
203	0x3f62dfd3	0.8862278
204	0x41265980	10.396851
205	0xc0902b7b	-4.5053077
206	0x410f4595	8.954488
207	0x409050c6	4.50986
208	0x404f4ae4	3.238946
209	0x41883e3a	17.030384
210	0xbfb19140	-1.3872452
211	0xbdd5eccb	-0.10445555
212	0x3f7ae5db	0.9800698
213	0x3f1c89df	0.61147875
214	0x3f3c4ba2	0.73552907
215	0x4145470a	12.3298435
216	0x4114ba51	9.295487
217	0xc07a4e86	-3.9110427
218	0x4134d69a	11.302393
219	0x40c5cdf6	6.1813917
220	0x411e023d	9.875546
221	0x404e791b	3.2261417
222	0x40ec723f	7.388946
223	0x3ffd78d2	1.9802496
224	0x4135c96a	11.361673
225	0xc00186e6	-2.0238585
226	0x4144fbc2	12.311464
227	0x409a271d	4.8172746
228	0x4138e502	11.55591
229	0x40558d2c	3.3367414
230	0xc0af7c4e	-5.483924
231	0x40441c89	3.0642416
232	0x3e6ebb24	0.23313576
233	0xc015509b	-2.3330448
234	0x4109d3ad	8.614179
235	0x413f05b6	11.938894
236	0x413a019f	11.625396
237	0x411e4388	9.891487
238	0x40f30c53	7.5952544
239	0x411a43cc	9.641552
240	0x41289a10	10.537613
241	0x413d69db	11.838344
242	0xc037163d	-2.8607323
243	0x40f99644	7.799593
244	0x41168036	9.4063015
245	0x410001c8	8.000435
246	0x41338b48	11.221504
247	0x4112fbdb	9.186488
248	0x41072626	8.446814
249	0x4043b8f5	3.058164
250	0x40d9375d	6.788008
251	0x41f156d1	30.16739
252	0xbf0feb60	-0.5621853
253	0x41386d75	11.526723
254	0x40e0bd74	7.0231266
255	0x3fafbef6	1.3730152

l1/W f4 [256, 64]
0	0xc0003236	-2.0030646
1	0xc08a2d3b	-4.3180213
2	0x40d9a5a8	6.8014717
3	0x40c378d1	6.108498
4	0x3f5b7712	0.8572856
5	0x3fc7255b	1.5558275
6	0xc09b1d8a	-4.847356
7	0xc04a46ca	-3.1605706
8	0x4121d397	10.114158
9	0x4005b878	2.089384
10	0x3f9e90ac	1.23879
11	0xbe13e26f	-0.14441846
12	0x404bd162	3.1846547
13	0xc025a10f	-2.5879552
14	0x3f0781cc	0.5293243
15	0x40bf976e	5.987235
16	0x3ff21cfc	1.8915095
17	0xc0baf2d5	-5.8421426
18	0xc0a14298	-5.039379
19	0xbebf46c9	-0.37358692
20	0xbf99f6df	-1.2028464
21	0xc14ffbc8	-12.99897
22	0x409fd39c	4.994581
23	0xc131c8b0	-11.111496
24	0xc0c3e36f	-6.121513
25	0xbf8bc9a7	-1.0920914
26	0x4082832c	4.078512
27	0x40d8bcd0	6.7730484
28	0x4045bc62	3.089623
29	0x3edc028c	0.42970693
30	0xc162578c	-14.146374
31	0xc0b650de	-5.6973715
32	0xc0be676a	-5.950124
33	0x3f3fb6f7	0.7488856
34	0x3ef42480	0.47684097
35	0x400bfe4d	2.1873963
36	0x401dda7b	2.46646
37	0xc0aaca12	-5.337167
38	0xc076b982	-3.8550725
39	0xc0f4a4d5	-7.645121
40	0xc036f66b	-2.8587902
41	0x4051c529	3.2776587
42	0xbf9abd76	-1.2089069
43	0xbf375b94	-0.7162411
44	0x3fe44b0b	1.7835401
45	0x40b6e2a4	5.715166
46	0xc0edb390	-7.4281693
47	0x401d1278	2.4542522
48	0xc0823a51	-4.0696187
49	0xc0a782be	-5.2347097
50	0xc0a32f89	-5.0995526
51	0xc042cc38	-3.0437145
52	0x4104d604	8.30225
53	0xbe5d0812	-0.2158511
54	0x409a1915	4.815562
55	0xc0c4687b	-6.137754
56	0xc0cc62c9	-6.3870587
57	0xc02fd013	-2.7470748
58	0xc0bdbb1d	-5.929091
59	0xc0fa6d21	-7.8258214
60	0x3f7ef359	0.9959007
61	0x40807523	4.014299
62	0xc041e1d7	-3.0294092
63	0xc0d1ecca	-6.560155
64	0xc08ecbcd	-4.462378
65	0x40277601	2.6165774
66	0x3f08fdf5	0.5351251
67	0x3ec5fff1	0.3867183
68	0xc09bebf6	-4.872554
69	0x40a34e7a	5.1033297
70	0x3f667187	0.9001698
71	0x4088a157	4.269695
72	0xc182a6b6	-16.331402
73	0xc0620fff	-3.5322263
74	0xbf6c058d	-0.9219597
75	0x40d4e543	6.652986
76	0x402fa4c1	2.7444308
77	0x40136bcb	2.3034542
78	0x3f1dd91b	0.616594
79	0xc0d2ba69	-6.585255
80	0x4082a100	4.0821533
81	0x40a922fd	5.285521
82	0x3fbf394e	1.4939363
83	0xbfa02d12	-1.2513754
84	0xbe5fa067	-0.21838532
85	0xc059d4cc	-3.403613
86	0x3eac012b	0.3359464
87	0xbd0d6e9c	-0.034529313
88	0xbfcf8d2c	-1.6214957
89	0xbf211666	-0.629248
90	0x403df4e8	2.968073
91	0x3f6847d2	0.9073459
92	0xc081e3b2	-4.059045
93	0x40829bca	4.081517
94	0xc08273ff	-4.0766597
95	0xc0904fc8	-4.509739
96	0xbffb7e32	-1.9647887
97	0x411025ba	9.009211
98	0x41297e9c	10.5934105
99	0x3f37980e	0.7171639
100	0xbf7ca387	-0.9868702
101	0xc0656a34	-3.5846071
102	0x40a82633	5.254663
103	0x3f5c4dc8	0.86056185
104	0x41590a2b	13.564982
105	0xc1b2f7a7	-22.370924
106	0xc0b1bd34	-5.554346
107	0xc087f7bb	-4.2489905
108	0xc05fde47	-3.4979417
109	0x40b01019	5.501965
110	0x3fa80316	1.3125942
111	0x3f816cb0	1.0111294
112	0xc102a326	-8.164831
113	0xc19dc348	-19.720352
114	0xc1264b5e	-10.3934
115	0x40d0368d	6.506659
116	0x4108a2e9	8.539773
117	0x3fc88001	1.5664064
118	0xc08c2360	-4.379318
119	0xc0d836b7	-6.756679
120	0xc0bb8b91	-5.860787
121	0xc199df1b	-19.233938
122	0xc0eb5ea2	-7.355302
123	0x400992a3	2.149575
124	0x4139022a	11.563028
125	0x407bba11	3.9332316
126	0xbf9a9f1a	-1.2079804
127	0xc00a251e	-2.1585155
128	0x40884e0a	4.2595263
129	0xc08e0d67	-4.439136
130	0x3a85dcd0	0.0010212902
131	0x40701300	3.7511597
132	0xc002b3a4	-2.0422144
133	0x40d93f36	6.788966
134	0x413f28fe	11.947508
135	0x41278e85	10.472295
136	0x40fcfeb8	7.9060936
137	0x40297b60	2.6481552
138	0xc081e83c	-4.059599
139	0xbfbd873b	-1.4806894
140	0x3f828e62	1.0199702
141	0xc082a840	-4.0830383
142	0x4059db97	3.4040277
143	0x4053e858	3.3110561
144	0xc052890c	-3.2896147
145	0x403ea124	2.9785852
146	0xbf903a9a	-1.1267884
147	0xbe2852f7	-0.16437899
148	0xbfebcab8	-1.842124
149	0x406c7a26	3.6949553
150	0x40f0cfc5	7.5253625
151	0xc0708706	-3.7582412
152	0xc049eee5	-3.155206
153	0x408c9bfb	4.3940406
154	0x40026a92	2.0377545
155	0xc0bb0fc6	-5.8456755
156	0xc0059f08	-2.0878315
157	0xc08eee1a	-4.466565
158	0xc067df92	-3.6230206
159	0xc05e84e2	-3.4768605
160	0x4107ba57	8.482993
161	0x40c4cd04	6.1500263
162	0xbfd5fcfe	-1.6717832
163	0xbf51d790	-0.8196955
164	0xbfcc2d9b	-1.5951418
165	0x4094077c	4.6259136
166	0xbe0914df	-0.13386868
167	0x3fba5dfc	1.4559932
168	0x3f71078e	0.9415215
169	0x4105503a	8.332087
170	0x401468b1	2.3188899
171	0xbffa21df	-1.9541587
172	0x3f3b4c68	0.7316346
173	0xc0090bb2	-2.1413388
174	0x3f56e7ed	0.8394764
175	0xbeb7a948	-0.3587134
176	0x40aa0e1e	5.3142233
177	0x3f112ba0	0.5670719
178	0x40411fe6	3.017572
179	0xc0070a9a	-2.110022
180	0x3fb339ee	1.4002054
181	0xc05833f1	-3.3781703
182	0xbfa079c5	-1.2537161
183	0x3fc76db8	1.5580359
184	0xc09e921f	-4.955337
185	0x40bf71dc	5.982649
186	0xbe435873	-0.1907671
187	0x3fb7cb39	1.4358894
188	0xc115b5a3	-9.356845
189	0x401898b1	2.3843195
190	0xbf9d76d6	-1.2301891
191	0x40cc233f	6.3793025
192	0xc0741a9f	-3.8141248
193	0x408a325a	4.3186464
194	0xc16e1bf1	-14.881822
195	0xc120d863	-10.052829
196	0xc0cb113d	-6.3458543
197	0xc1046067	-8.273536
198	0xbfb48b98	-1.4105101
199	0xc14a3eb8	-12.640312
200	0x3faf2279	1.3682395
201	0xc0642d94	-3.5652819
202	0xbf3107f4	-0.6915276
203	0xc026431a	-2.5978456
204	0x40152bfd	2.3308098
205	0xc0553960	-3.331627
206	0xc192f548	-18.369766
207	0x40f2a46a	7.58257
208	0xc0f9a2bd	-7.8011155
209	0x3fef9060	1.8715935
210	0x40aa135b	5.3148627
211	0x3f388ff3	0.7209465
212	0x40601dc3	3.5018165
213	0xc09c045a	-4.875531
214	0x4005fde7	2.093622
215	0xc1339104	-11.222904
216	0xc0db1aab	-6.8470054
217	0x40a8c3eb	5.273916
218	0x3e987ef8	0.2978437
219	0xbf8c9ade	-1.0984762
220	0x4092ddb5	4.589564
221	0x3f15a2fd	0.58451825
222	0x409adb17	4.8392444
223	0xbfadd4d8	-1.358058
224	0x3ffd99f0	1.9812603
225	0x40309455	2.7590535
226	0x3f41257c	0.7544782
227	0x3f1d4791	0.61437327
228	0x3b7c7e2e	0.0038527357
229	0xc08dd075	-4.4316964
230	0xc055996f	-3.3374898
231	0x3ff7d07f	1.9360503
232	0xc044fc5e	-3.0779033
233	0x40b19ceb	5.550405
234	0xc0807768	-4.014576
235	0x406d0876	3.7036414
236	0xbf9c05b5	-1.2189242
237	0xc058741e	-3.3820872
238	0x4030f475	2.7649205
239	0x4024338f	2.565647
240	0x3fc6519c	1.5493655
241	0xbefc1958	-0.49238086
242	0xbf1edd3f	-0.62056345
243	0x4082ff87	4.0936923
244	0xc012cfc8	-2.293932
245	0x3e8e1fda	0.27758676
246	0x40647756	3.5697837
247	0xc14b2d52	-12.698565
248	0xc06c083d	-3.6880028
249	0xc0833f54	-4.1014805
250	0xbfb1f0e1	-1.3901635
251	0xbed8a0b7	-0.42310116
252	0x40015715	2.02094
253	0xc057ceca	-3.3719964
254	0xbfd9d506	-1.7018135
255	0x40cb2284	6.3479633

l1/b f4 [256]
0	0x4098f0fc	4.779417
1	0x401c6b68	2.4440556
2	0xc0092d4d	-2.14339
3	0x3f312e80	0.6921158
4	0x40a0b8b5	5.0225472
5	0x4078d821	3.8881915
6	0xbc6cb2b2	-0.014446901
7	0xc04f39c1	-3.2379
8	0x3e55860f	0.2085192
9	0x3fd8f932	1.6951048
10	0xbf6183cc	-0.8809173
11	0xc08c635d	-4.3871293
12	0x4077affc	3.8701162
13	0x4029e688	2.6546955
14	0xc0c3579c	-6.1044445
15	0x3f8c88ca	1.0979245
16	0x3f23cf59	0.6398826
17	0x3e612071	0.21985032
18	0x40519629	3.27479
19	0xbfef4ff0	-1.869627
20	0xc0685167	-3.6299684
21	0x3ebb364a	0.36564857
22	0x401dc700	2.465271
23	0xbf27f90e	-0.656144
24	0x3fd8362f	1.6891536
25	0xc093a0a7	-4.613361
26	0x40535e02	3.3026128
27	0xc01abf6d	-2.4179337
28	0xc09ff06f	-4.9981
29	0x401a8b5b	2.4147556
30	0xbe029acb	-0.12754361
31	0x40c3544d	6.1040406
32	0x3f17133c	0.59013724
33	0xc026b1ee	-2.60461
34	0xc07040d8	-3.7539577
35	0xbf9734e4	-1.1813016
36	0xbff400de	-1.9062765
37	0x3e17c54d	0.14821358
38	0x408c924b	4.392858
39	0x4068d738	3.638136
40	0xc00bcbdb	-2.1843174
41	0xc00217ec	-2.03271
42	0x408e9364	4.455492
43	0x3edf38b8	0.4359796
44	0xb968e691	-0.00022211137
45	0x408a8288	4.328434
46	0x404e9aad	3.2281907
47	0xc0ba3316	-5.818736
48	0x3eaac9a0	0.33356953
49	0x3f6851f2	0.9075004
50	0x40a3961a	5.112073
51	0xc0027c7f	-2.0388486
52	0xbf374811	-0.7159434
53	0x3db14ef6	0.08657639
54	0xbed16779	-0.40899256
55	0xc097bc80	-4.7417603
56	0x4023f118	2.5615902
57	0x409a6dd0	4.825905
58	0xc0d699d1	-6.7062764
59	0xbfde2d36	-1.7357547
60	0xbf349225	-0.705355
61	0xc0c9bb1b	-6.30409
62	0xbfb535b3	-1.4157013
63	0xc0517710	-3.272892
64	0xbebb85c8	-0.36625504
65	0x401f920a	2.4932885
66	0xbdbcd131	-0.092195876
67	0x3f3e6fdb	0.7438943
68	0xc0057e36	-2.0858283
69	0xbfa6f2d9	-1.3042861
70	0x3fdc0221	1.718815
71	0x3e6ceafa	0.23136511
72	0x3e4516cd	0.19246979
73	0x3fada5af	1.3566188
74	0x40b0f9fa	5.5305147
75	0x3f8e9016	1.1137722
76	0xbf61b3b2	-0.8816482
77	0xbde2602d	-0.110535
78	0x3ed25367	0.41079256
79	0xbfed8d4f	-1.8558749
80	0x404782a3	3.1173484
81	0xbea8e0c8	-0.32983994
82	0xbfa751b0	-1.3071804
83	0xbfa74519	-1.3067962
84	0xc10d0a2a	-8.814981
85	0x403c75f6	2.9446998
86	0xc0541216	-3.3136039
87	0xc0a326c2	-5.098481
88	0x4025be76	2.5897498
89	0xbfe86eed	-1.8158852
90	0xbf632bbe	-0.8873862
91	0x3fd2d1f7	1.6470326
92	0x3f794df3	0.97384566
93	0x4045b1ec	3.0889845
94	0xbf96fb43	-1.1795429
95	0x4046ae5b	3.1043918
96	0xbee05ac9	-0.43819264
97	0xbf9b69ca	-1.2141659
98	0xc076155a	-3.8450532
99	0x4069fcd8	3.6560574
100	0x3fa62ec6	1.2983024
101	0x4026340d	2.596927
102	0xbf24450d	-0.64167863
103	0x407a7cbf	3.913864
104	0x3ee872e1	0.45400146
105	0xc040cfef	-3.0126913
106	0x4021dc2d	2.5290635
107	0x3fe7aee2	1.8100245
108	0xbf18742c	-0.59552264
109	0x3fc11a37	1.5086125
110	0xc03f305a	-2.9873261
111	0xbfbb3b06	-1.4627388
112	0x3fac280c	1.3449721
113	0xc01f074b	-2.4848201
114	0x3f353d2b	0.7079646
115	0x4088d1be	4.2756033
116	0xc0538c94	-3.3054552
117	0xbf4c3583	-0.7976915
118	0x408e5d0a	4.4488573
119	0x3f1455cb	0.5794341
120	0x4008ed1d	2.1394722
121	0xbf7509e1	-0.957182
122	0x40730282	3.797028
123	0x3ff00696	1.875201
124	0x402db92b	2.7144268
125	0x40baea2a	5.8410845
126	0xc0b21a89	-5.565739
127	0xc07b57f4	-3.9272432
128	0xbfe97621	-1.8239175
129	0x3fe37d88	1.7772684
130	0x400552cf	2.0831792
131	0x3e71176c	0.23544091
132	0xc06186ab	-3.5238445
133	0x40840f0b	4.1268363
134	0xbff04ca7	-1.8773392
135	0xbf04a209	-0.51809746
136	0x400e494b	2.2232234
137	0x4085c23d	4.1799607
138	0x3f89c14c	1.0762115
139	0x40149e7d	2.3221734
140	0xc0496c11	-3.1472208
141	0xbf9784a9	-1.183736
142	0x3fb48d05	1.4105536
143	0x3f77d80f	0.96814054
144	0xc00b007b	-2.1719043
145	0xbfd5e474	-1.6710343
146	0xbff15de7	-1.8856782
147	0xbebb14e0	-0.36539364
148	0xbf9ef39b	-1.2418092
149	0x41006d67	8.02671
150	0xc01cf404	-2.4523935
151	0xbe2c1d2b	-0.16808002
152	0x3fd103ec	1.6329322
153	0x40468a1c	3.1021795
154	0xbf9f0bb5	-1.2425448
155	0xc00c4886	-2.1919265
156	0x405c1f97	3.439428
157	0x3ff1ee23	1.8900799
158	0x406cd835	3.7006962
159	0x3f02063d	0.5079077
160	0xbffa8181	-1.9570771
161	0x3f7d1457	0.9885916
162	0x40480ee4	3.1259089
163	0x4070e016	3.7636771
164	0xbedb854b	-0.42875132
165	0x3fd4d858	1.6628523
166	0x403c8d08	2.9461079
167	0xbe8782e5	-0.26467052
168	0x3f658775	0.89659816
169	0x40554328	3.332224
170	0x3ed3577a	0.41277677
171	0xbf6cbd0b	-0.92475957
172	0xbf0005bf	-0.5000877
173	0xbeeb7617	-0.45988533
174	0xbf77a11e	-0.9673022
175	0xbfd9bd98	-1.7010984
176	0x40b27e3f	5.577911
177	0xbebb4fd2	-0.36584336
178	0xbc04a97c	-0.008097049
179	0x405b98a7	3.4311922
180	0xbf497366	-0.7869171
181	0x3f8b09e4	1.0862393
182	0xbff6a2d8	-1.9268446
183	0xc0c44f5b	-6.134687
184	0x408810ec	4.2520657
185	0xc0e156d6	-7.04185
186	0x3fdaf15c	1.7104907
187	0x3fdbf209	1.7183238
188	0xc01cee4c	-2.4520445
189	0xbf124753	-0.5714008
190	0x404e0134	3.2188234
191	0x400a799f	2.1636732
192	0xbe7dc308	-0.2478143
193	0xc044406f	-3.0664327
194	0xc085d19d	-4.1818376
195	0x3f01384f	0.50476545
196	0xbf9e2819	-1.2355987
197	0xbe8e5406	-0.2779848
198	0x40620012	3.5312543
199	0xc04946c0	-3.1449432
200	0x4029bc55	2.6521199
201	0xc0636407	-3.5529802
202	0xbfad1646	-1.3522422
203	0x3f604e68	0.8761964
204	0x3f7cf5bc	0.9881246
205	0x3fd7751f	1.6832618
206	0xc0260344	-2.5939493
207	0x4005889a	2.0864625
208	0x402c4b42	2.6920934
209	0x3f824bac	1.0179343
210	0x3fb281a3	1.3945812
211	0x40331923	2.7984092
212	0xbfdb3501	-1.712555
213	0x402d534f	2.7082098
214	0x3fdc5e29	1.7216235
215	0xc0dad175	-6.8380685
216	0x3fea5b50	1.8309116
217	0xbf113ba9	-0.5673166
218	0xbfc0e237	-1.5069035
219	0xc0b4f4eb	-5.654897
220	0x3f8256ea	1.0182774
221	0x3f53b979	0.82704884
222	0x3f7cbfd4	0.98730206
223	0xbf005f83	-0.5014574
224	0xc08bdc6a	-4.370656
225	0x40a4fc0e	5.1557684
226	0xbeb1b778	-0.34710288
227	0x3f916f3e	1.1362073
228	0xc025638c	-2.5842009
229	0xbf1dfeea	-0.61717093
230	0xc013f4df	-2.3118207
231	0xc0590657	-3.391012
232	0x3f4958a9	0.7865091
233	0x40ec538f	7.3852
234	0x3dfdec70	0.123986125
235	0xc122abe7	-10.166968
236	0x406cc5b0	3.699566
237	0x4024a231	2.5723994
238	0x4092a6ac	4.5828457
239	0xc033c308	-2.8087788
240	0x3feeb526	1.8649032
241	0xc00888b9	-2.133345
242	0x3df3fd53	0.11913552
243	0xbfc2d533	-1.5221313
244	0xc04571a0	-3.0850601
245	0x3fef8b6c	1.8714423
246	0x405d2f96	3.4560294
247	0xc0a33678	-5.100399
248	0x400a3a90	2.1598244
249	0xbfb983d1	-1.4493352
250	0x3ea98813	0.3311163
251	0xc0b6b560	-5.7096405
252	0x408e35bc	4.4440594
253	0xbfa12f0e	-1.2592485
254	0xc01400fe	-2.3125606
255	0x4012c501	2.2932742
